mlagents/Assets/results/TestLearning2/RollerBall/RollerBall-4468.pt (torch, 944255 bytes, 48 tensors)

network_body._body_endoder.seq_layers.0.weight f4 [128, 40]
000000 ff e2 87 3d a4 ce ae bd 7a ab 45 be 3e 14 0e 3d
       0.06635093 -0.08535507 -0.19303694 0.034687273
000010 74 dc 13 3d 94 ce 30 3d 08 18 44 3e 0b 13 5a 3d
       0.036098912 0.04316576 0.19149792 0.053240817
000020 bf 55 f7 3d c0 10 dc 3d a1 8f 06 3e 60 a2 49 be
       0.12076902 0.10745382 0.13140728 -0.19690847
000030 26 dc f9 3c f8 11 12 3e 88 e0 d4 be 9d 8f e8 3d
       0.030500483 0.14264667 -0.41577554 0.11355517
000040 46 45 ac 3d d7 24 96 3d 9d 3f 81 bd b6 4f 8c be
       0.0841165 0.073312454 -0.063109614 -0.27404565
000050 2a 34 3b bd 03 06 ce 3d 01 7a f4 3d 7c e2 e0 3d
       -0.045704044 0.100597404 0.11937333 0.109806985
000060 7d 14 36 3d 05 72 26 be 4a 70 cc bd 25 62 8c 3d
       0.044453133 -0.16254432 -0.09982355 0.06854657
000070 c9 0f 7a bd c3 e5 97 bd 5a bf 24 be e7 cb 08 be
       -0.06105021 -0.074168704 -0.1608862 -0.13359033
000080 b7 39 32 3e 59 36 b2 3e 0d 78 d7 3e 60 b6 22 3e
       0.17404829 0.3480709 0.4208378 0.15889883
000090 89 cd 9f be cb ec c1 3d 65 85 a0 3d 48 84 49 3d
       -0.31211498 0.09468993 0.07837943 0.04919842
0000a0 47 f1 1f 3e 6e 7d b8 3d 3e d8 a7 bb 02 1b 4b be
       0.15619384 0.09008299 -0.0051222136 -0.19834521
0000b0 ee 6f 5f bd 41 10 cb 3d af d9 54 3e 93 73 39 3d
       -0.054550104 0.099152096 0.20786165 0.045276236
0000c0 c9 9e 1c be 9f a3 ef bc 0d 72 89 bc d7 04 d6 bd
       -0.15294947 -0.029252825 -0.016778016 -0.10450142
0000d0 3c 66 16 3d 57 12 8c 3e ae 93 14 bd a5 45 1b be
       0.036718592 0.27357742 -0.03627365 -0.15163286
0000e0 96 f1 a2 3d 67 61 59 bd 27 2d 07 be a2 e4 db bd
       0.07956235 -0.053071406 -0.13200818 -0.107369676
0000f0 7f 72 28 be f7 28 33 be f2 09 46 3c 8d 0b 93 3e
       -0.16449927 -0.17496096 0.012087332 0.2871975
000100 59 25 16 3d f3 34 64 3e b4 c1 9f 3d 04 ed 0d bd
       0.03665671 0.22285824 0.07800618 -0.034649864
000110 b5 11 a2 3d b2 15 5c 3e 4d f5 af bd 2c 07 0e 3e
       0.079135336 0.21492651 -0.08591709 0.13869923
000120 d0 ca 26 be 45 e7 10 3e 8e dd 8f 3d 30 89 6e bc
       -0.16288304 0.14150722 0.0702468 -0.014559075
000130 da 19 83 3d f0 84 ba 3c 93 2b 10 be 43 8e b0 3d
       0.06401415 0.022768468 -0.14079122 0.08620884
000140 be b7 93 be ac a7 9a bd 1b 9e e6 bd 17 1d 4c be
       -0.28851122 -0.07551512 -0.11260625 -0.19932972
000150 6f 35 37 be 83 56 6a be 6f 86 1b be 15 83 56 3d
       -0.17891477 -0.22884564 -0.15188001 0.052371103
000160 26 04 96 bc 0d de 0e 3e d1 e2 fb 3d 99 e4 e4 3c
       -0.018312525 0.13951893 0.12299121 0.027941035
000170 b1 e1 d6 3e af b8 d8 3c d9 e7 34 3e 8b 62 36 3e
       0.41969064 0.026455252 0.17666568 0.17811029
000180 78 25 f4 3d 08 1f 35 be 5c f4 67 bd 28 2a 08 3e
       0.11921209 -0.17687619 -0.056629524 0.13297331
000190 0b a2 8d bd 3d 8a 2c bd f1 69 83 3e 02 20 86 be
       -0.06915673 -0.04212402 0.25666764 -0.26196295
0001a0 a1 eb 42 3b d8 e4 b5 bd 70 19 b8 bd 99 89 9e 3c
       0.0029742497 -0.08881539 -0.08989227 0.019352721
0001b0 80 29 f4 3d ca 06 76 3d b2 42 86 bc 57 3a ca 3c
       0.11921978 0.06006507 -0.016389225 0.024686022
0001c0 e1 ed d0 bd 58 60 86 bd c0 db 5b 3e 1b 36 70 3d
       -0.10201622 -0.06561345 0.21470547 0.05864535
0001d0 bc 1c be 3d 4f 67 dd 3c ea b7 c7 3c a4 69 d8 bd
       0.092828244 0.0270268 0.02437969 -0.10567024
0001e0 33 5a fc bd 9a cf 99 3e 36 d4 ef bc 75 8f 5a 3e
       -0.12321892 0.300412 -0.029275995 0.21343787
0001f0 37 3c d9 be 04 0a 25 bd 78 52 11 3e 14 08 d3 bd
       -0.42428753 -0.040292755 0.14191616 -0.10304275
000200 78 e8 41 3d 4d 81 09 3d ed 27 be 3d b2 30 cd 3c
       0.04734084 0.033570576 0.09284959 0.025047634
000210 b1 b2 a6 3d 93 c2 66 3d 38 dc 30 3e 02 73 ab 3d
       0.081395514 0.056337904 0.17271507 0.083715454
000220 05 dc 5b 3e dc df 95 3e 76 5a 25 be 13 c2 0b 3e
       0.2147065 0.29272354 -0.1614779 0.13648252
000230 ca 91 0c 3d a2 60 95 bd 73 1c 24 be 84 4c 83 3e
       0.034318723 -0.07293822 -0.16026478 0.25644314
000240 ad b3 0a be b8 26 9a 3e 85 a5 25 3e 57 14 be bd
       -0.13545103 0.30107665 0.16176422 -0.09281223
000250 3b 00 a7 bd a6 02 90 be a7 36 87 3d 85 85 4e be
       -0.08154341 -0.2812702 0.06602221 -0.20168121
000260 10 66 34 3c 78 c8 12 bd 02 83 66 3e 8c 4a 32 3e
       0.011010662 -0.035835713 0.22510913 0.1741125
000270 58 8e 3a 3c 64 92 8e 3d 8c 00 2f be fd b7 70 3e
       0.011386476 0.069615155 -0.17090052 0.23507686
000280 9f f2 e0 3e 6e ab f9 bd a8 30 5f 3e 2e eb 21 3d
       0.43935105 -0.12190901 0.21795905 0.039530925
000290 8c f2 63 be db d2 8b be e3 4e 59 be b1 c8 33 3d
       -0.22260493 -0.27309307 -0.21221499 0.043892566
0002a0 f0 9e 6f bd ba e6 91 3d ff aa bb 3c 74 22 c8 bd
       -0.058501184 0.07124086 0.022908686 -0.097721964
0002b0 03 3d 0d 3e c0 34 8b 3d 39 f2 4e be 47 66 46 bc
       0.13792805 0.06797171 -0.20209588 -0.012109346
0002c0 e3 77 bf bd 22 6c 00 3d 45 23 61 bd ce 10 af bb
       -0.093490385 0.031353123 -0.054965276 -0.0053425794
0002d0 55 82 27 3e 41 74 20 be 42 93 87 bd 13 ec be 3c
       0.16358311 -0.15669347 -0.06619884 0.023305928
0002e0 80 07 e4 bc da f5 68 bd be 06 0e be 32 be 03 bc
       -0.027835608 -0.056875087 -0.1386976 -0.008040952
0002f0 7c e8 09 bc bb 85 7d be 20 41 6b 3d 10 4a 85 3d
       -0.008417245 -0.24758045 0.057435155 0.06508267
000300 30 2b 94 3d 48 ef 07 3d 81 c3 80 3d 6d db 7b bd
       0.072348 0.03318718 0.062872894 -0.061488558
000310 3a 82 ed bd 40 0a 73 3d 76 f0 24 be dd 75 5a be
       -0.11597104 0.059335947 -0.16107354 -0.21334024
000320 91 1d b6 be 59 84 4f be 1e 7e 56 3e cd 06 91 be
       -0.35569432 -0.2026533 0.20946547 -0.283255
000330 2e 47 14 3d b1 cc 58 3e d1 f7 52 3d 36 50 0c 3e
       0.036200695 0.21171834 0.051505867 0.13702473
000340 4d bc 4f be bb 86 a3 bd ff b7 03 be 86 5d ae be
       -0.20286675 -0.07984682 -0.12863158 -0.34055728
000350 15 41 ca 3d ba 14 cc 3d 93 ac 6d be 33 0d 60 be
       0.09875695 0.09964891 -0.23210363 -0.21880035
000360 6e 3e 99 3e a7 d0 eb bd fe 4d d9 bd 03 00 d1 3d
       0.29930443 -0.11514407 -0.10610579 0.1020508
000370 b6 d9 5c be 05 42 26 be 65 be 1a be 92 d2 1f 3d
       -0.21567425 -0.16236122 -0.15111692 0.039019175
000380 ff e4 9a be c8 88 09 3e fd f3 57 bd 8b 3b b7 3d
       -0.30252835 0.13431084 -0.05272292 0.08946904
000390 92 b3 7b be 14 9b b4 bc 44 e7 31 be f0 80 76 be
       -0.2458022 -0.022046603 -0.17373377 -0.24072623
0003a0 09 f3 c2 3d 63 ee 4c 3d aa 90 92 bd 0f 63 f6 bd
       0.095190115 0.05003203 -0.07156499 -0.12030613
0003b0 49 01 04 bf b4 c9 f0 3a c5 76 a5 bd 1f f7 51 be
       -0.5156446 0.0018370659 -0.08079294 -0.20504425
0003c0 2b db 2a 3c 9c 49 0d 3d a9 1f 98 3d 2a 9a cc be
       0.01042823 0.034494027 0.07427914 -0.39961368
0003d0 64 05 ee 3b 60 08 e8 3d d7 e7 c9 bd 36 67 75 be
       0.007263826 0.113297224 -0.09858673 -0.23965153
0003e0 53 5a 86 be f5 50 90 be 40 c7 15 be 7c 9e 22 bc
       -0.26240787 -0.28186765 -0.14626789 -0.009925481
0003f0 03 58 5f be 58 e5 92 3d d4 a4 b3 3e 2f 88 f8 3c
       -0.21810918 0.0717265 0.3508669 0.030338375

network_body._body_endoder.seq_layers.0.bias f4 [128]
000000 49 29 bb 3b 00 50 1e bb 20 00 b7 3b 43 23 80 3b
       0.0057117087 -0.002415657 0.0055847317 0.0039104535
000010 ee bd e0 b9 b3 c1 07 bc c4 9e d4 3a 1d fe 6f ba
       -0.00042866118 -0.008285928 0.0016221632 -0.00091549923
000020 a7 d4 94 3b d0 68 54 bb 39 6e ff 3b 70 ef a6 ba
       0.0045419517 -0.0032411106 0.007795122 -0.0012736153
000030 d2 a0 49 3a 14 40 a1 bb 98 e9 41 3c dc bd 01 3b
       0.00076915056 -0.004920969 0.011835478 0.0019797003
000040 cb 30 89 3b fc 33 aa 3a d6 2a 5a bb 69 75 0b 39
       0.004186725 0.0012985463 -0.0033289692 0.00013299812
000050 9f c4 81 3b 86 b5 9f 38 ba c1 5d bb b7 9e 06 bc
       0.0039602066 7.615522e-05 -0.0033837394 -0.0082165515
000060 41 74 af bb e3 fe 9f 39 40 1c ce 3a bc 97 31 3a
       -0.0053544347 0.0003051675 0.0015724972 0.00067746243
000070 23 4e 0c bc 75 de 3a 3b c1 7a 52 bb fe 29 8d bb
       -0.008563551 0.0028513942 -0.0032116624 -0.0043079844
000080 24 05 bd ba 1a 30 11 bb 69 68 f7 3a 4b 7a 0d bb
       -0.0014421088 -0.0022153915 0.0018875721 -0.0021587785
000090 b4 51 0c bb 60 b9 ae ba ea ce 56 3a 2e b3 e5 39
       -0.0021411004 -0.0013330393 0.0008194285 0.00043811783
0000a0 e7 8d 06 ba 77 62 8b 39 46 d1 04 3a a3 a4 ee 3a
       -0.00051328394 0.00026585508 0.00050665846 0.0018207025
0000b0 6f a1 9a bb 1f ec e4 3b a6 07 aa 3b bc 32 2f 39
       -0.0047189514 0.0069861556 0.0051889 0.000167082
0000c0 df c9 19 39 3e 39 c5 ba 01 70 b1 ba b3 56 59 bb
       0.0001466642 -0.0015046967 -0.0013537408 -0.003316325
0000d0 ed 07 13 3b 24 97 33 3a 90 4c cd 3a 51 fe 0b bb
       0.0022435144 0.000685083 0.0015663076 -0.0021361301
0000e0 2a e0 0d bc fc 91 19 3b 64 7c c5 39 1f 55 8f 3b
       -0.008659402 0.002343296 0.00037667446 0.004374161
0000f0 75 32 bc 3a f1 44 6c ba 35 a0 78 bb 91 b1 d4 ba
       0.0014358299 -0.00090129586 -0.0037937288 -0.0016227235
000100 37 40 d0 bb 0b df 89 3b a0 ae 6c ba 6b a6 50 3a
       -0.0063553113 0.004207497 -0.00090287067 0.00079593685
000110 d5 1e d4 3a 3a f8 18 3b 15 f4 f5 ba 78 bd 6a 3a
       0.0016183505 0.0023341314 -0.0018764759 0.00089546246
000120 56 eb 10 3b af 0a 7f 3a c0 b6 80 ba 04 13 7d bb
       0.0022112927 0.000972907 -0.0009820089 -0.003861607
000130 de c6 4c b8 e2 ee 3f bb e4 46 8e 3b 6c dd 05 bc
       -4.88226e-05 -0.0029286672 0.004341947 -0.008170467
000140 3a b2 d1 ba 24 35 8f bb 02 16 95 3b 35 df ba 3b
       -0.001599855 -0.0043703485 0.0045497427 0.005702878
000150 72 97 53 bb 41 fe 16 3b b0 fe 8d 3b 99 81 3d bb
       -0.0032286313 0.002303973 0.0043333396 -0.0028916358
000160 5e 00 19 bc 3a 5c 71 bb d7 65 3b 3b 2c 77 23 bb
       -0.009338466 -0.0036828653 0.0028594637 -0.0024942858
000170 25 c7 cc bb f8 5d ad ba df 86 45 3a 7f a3 94 ba
       -0.006249326 -0.0013226857 0.0007535051 -0.001134023
000180 cc 09 a5 b9 4f 61 0d 3a 09 d3 16 bc b2 9f 1b bb
       -0.00031478552 0.0005393223 -0.009205588 -0.002374631
000190 09 46 ca ba 9c 96 44 bb f2 91 34 bb 13 be 01 bb
       -0.0015432249 -0.0029996997 -0.002755281 -0.001979713
0001a0 0f 69 92 3a eb e3 8f ba 3e 48 10 bb f6 0f bb bb
       0.0011170226 -0.0010977959 -0.0022015716 -0.00570869
0001b0 d9 e4 fa 3b 5f b4 b1 bb 53 e6 a5 3a df 4c ec b7
       0.0076566753 -0.0054231132 0.0012657143 -2.8169188e-05
0001c0 2f 1f db 3a a4 07 e8 3b 62 f0 95 3b 1c 3e 39 b7
       0.0016717667 0.007080989 0.004575775 -1.104132e-05
0001d0 21 1c 1e bb 99 37 5b ba 73 1b 77 39 bc ab df ba
       -0.0024125653 -0.00083624717 0.00023565981 -0.0017064731
0001e0 6c 7b 3d ba 18 51 fb 3a 89 6e f2 3b 61 4e ba bb
       -0.0007228169 0.0019173948 0.0073984307 -0.005685613
0001f0 a4 99 90 bb fe 3c a8 3b df 27 75 b8 c5 b3 a0 b9
       -0.0044128466 0.005134224 -5.8449685e-05 -0.00030651517

network_body._body_endoder.seq_layers.2.weight f4 [128, 128]
000000 ba 2b 9f bc f1 14 13 3d dc bf 43 3d 8a 00 0d 3e
       -0.01943003 0.035908643 0.047790393 0.13769737
000010 ed ce 29 3e 33 a8 00 3d cd b8 b4 bd 64 25 08 3d
       0.16582842 0.031410407 -0.088243105 0.033238783
000020 95 26 18 be 17 a3 83 bd 69 69 42 bd 92 fd 01 3d
       -0.14858468 -0.06427591 -0.04746381 0.031735964
000030 5d 06 c3 3c 48 9c 11 3e 79 f0 68 b9 0a cc e2 3a
       0.023806745 0.14219773 -0.00022214827 0.001730324
000040 a9 8e e8 bb f4 d9 df 3c f6 f0 ec 3d 66 42 7e 3d
       -0.0070970845 0.027325608 0.11569397 0.06207504
000050 97 7c a0 bd d1 09 19 3e f6 02 56 3d d6 f6 2f 3a
       -0.078362636 0.14945151 0.052248918 0.00067125016
000060 3f 3c 43 bd 31 ca cd 3c 10 35 09 be 6e bf e8 bc
       -0.047664877 0.025120826 -0.13399148 -0.028411593
000070 cc 2a 15 bd 21 6c 00 be 25 61 62 bd 93 de cb 3c
       -0.036417767 -0.12541248 -0.055268425 0.024886405
000080 ce 16 8e bc 15 d6 1a 3e f8 0b fa bc 77 de 4c bc
       -0.017344858 0.15120728 -0.030523285 -0.012504212
000090 bc 8c a4 3c 1a 6a 02 be 5a bd a5 bd ff 32 53 3d
       0.020086639 -0.12735787 -0.080927566 0.051562306
0000a0 f1 14 cf bd 18 0e 06 bd 14 62 a9 bd 5f a5 a9 3d
       -0.10111416 -0.032728285 -0.0827066 0.08283495
0000b0 09 52 ef bd 8e ba a7 bd 88 f0 04 3c 1c f3 a4 3c
       -0.11685569 -0.08189879 0.008113988 0.020135455
0000c0 19 9d 33 be a7 92 2d 3d ff a2 84 bd 09 43 50 3c
       -0.17540397 0.042376187 -0.064764015 0.012711295
0000d0 96 52 02 bd 95 52 24 3d 1b 25 b6 3d 8b f8 ce 3b
       -0.03181704 0.04011782 0.08893796 0.0063162497
0000e0 f5 77 94 bc 97 0f 36 3e 1b 2c 68 bd 1a a4 60 bd
       -0.018123606 0.17779385 -0.056682687 -0.054844
0000f0 60 c0 b8 3d c2 70 02 bc 70 50 13 bd e1 5a 00 3d
       0.090210676 -0.007961454 -0.035965383 0.03133667
000100 ee e9 ed bc 33 82 c3 bd 4f cb 5a bd a7 65 9c bd
       -0.02904221 -0.09546318 -0.053416546 -0.07636576
000110 58 4d 7b 3c 69 1b 0c bc 40 7b f8 3a f9 62 30 3e
       0.015338264 -0.008551457 0.001895763 0.17225255
000120 17 8b e0 bd 64 bf 62 bd c8 84 32 3e 30 57 89 bd
       -0.10964029 -0.055358306 0.17433465 -0.06706083
000130 c5 07 f9 3c 99 4d fd 3d ed 61 ef 3d a5 bd 91 bb
       0.030399213 0.12368316 0.116886 -0.004447656
000140 a2 d5 3c 3e 3d dd a5 bd 13 6a df bc e2 79 b7 3d
       0.1844087 -0.080988385 -0.02727226 0.08958794
000150 0d b5 2b be 5a 0f dd 3d 45 0f be bc cc f5 dd bd
       -0.16768284 0.10793944 -0.02320064 -0.10837898
000160 84 af cf bd 74 54 b4 bd 72 96 fc 3c 66 c1 22 3d
       -0.10140899 -0.08805171 0.030833457 0.03973522
000170 53 e0 a8 bd 58 66 bb 3d 57 30 fe 3a 4b c3 f1 bc
       -0.082459114 0.0915038 0.0019393069 -0.029512068
000180 b2 04 3f 3d 1e 81 a0 3d b2 45 53 bc 4f 25 02 be
       0.046635337 0.07837127 -0.012895035 -0.12709545
000190 8e d6 64 3d c7 40 da 3d 63 71 c0 bd a3 57 3a 3d
       0.055868678 0.106568865 -0.09396627 0.045493733
0001a0 90 2e 06 3e ab 2b c3 3c 53 15 2c bd 88 6b 3a bd
       0.131037 0.023824533 -0.042012524 -0.045512706
0001b0 3d b5 26 3e b4 6f 15 3e f0 0c ab bc 78 32 ee bc
       0.16280074 0.14593393 -0.020880193 -0.0290768
0001c0 a6 c5 a0 3d 8a 13 2b 3c 5e 63 1e 3d 90 25 1c 3d
       0.078501984 0.01044167 0.038668983 0.03812176
0001d0 7f e0 7b 3c f6 45 8b 3d bf 52 74 3d 1d 14 4c be
       0.015373348 0.06800453 0.059649225 -0.19929548
0001e0 2c 1a bc bd a3 8a 34 be 5e 91 80 bd 56 a3 86 3d
       -0.091846794 -0.1763101 -0.062777266 0.065741226
0001f0 ce cd 49 bd 48 d3 ee bc c4 78 d5 3c 67 58 95 3d
       -0.049268536 -0.029153481 0.026058562 0.07292252
000200 3e f1 2d 3d 36 84 46 3d 2c 5b 02 bd 87 64 bf bd
       0.042466395 0.04846593 -0.03182523 -0.09345346
000210 3b 81 45 bc 44 ef 3a be 63 58 cd bd 27 4d ce 3b
       -0.012054737 -0.18255335 -0.10026624 0.0062958184
000220 59 cc 1c 3c 4c 43 24 3e b3 76 88 3d 58 8a 8c 3d
       0.009570205 0.16041297 0.06663265 0.068623245
000230 2b 3c c5 bb 7f 77 67 bd a4 b9 2c be d0 5d 99 bd
       -0.0060191355 -0.056510445 -0.16867691 -0.074885964
000240 7f 9a d4 3d df 4f a5 3e 19 e0 9d 3d 78 7d d4 3d
       0.1038103 0.322875 0.07708759 0.10375494
000250 88 90 df 3c 4a 7b 4a 3d 67 bc 82 bd 2e 90 ad 3d
       0.027290598 0.049433984 -0.06383591 0.08474766
000260 77 5c 7d bd 61 fb 97 bc 3f b3 f4 3c 84 ab 23 3d
       -0.06185576 -0.018552484 0.029870627 0.039958492
000270 b5 bf 0e 3d ec ea 9e bc dc 01 06 bd 91 e6 cc bd
       0.034850795 -0.019399129 -0.032716617 -0.100049146
000280 ae 57 ae bd c8 a4 0d bd 9c 80 87 3d 99 40 fd bc
       -0.08512817 -0.034580976 0.06616327 -0.030914592
000290 f9 2e 0d 3e 8c 50 6b 3c 99 a6 cc bd de 87 82 bd
       0.1378745 0.014362466 -0.099927135 -0.06373571
0002a0 8a 08 8f 3d 05 a0 21 be 93 8d d0 3c 02 a0 ef 3d
       0.069840506 -0.15783699 0.025458133 0.11700441
0002b0 3a ed c1 3b 00 0c 36 3c 84 86 05 be a2 18 42 3d
       0.005918172 0.011111259 -0.13039595 0.047386773
0002c0 48 a2 70 3d d0 12 aa 3d ab fd a5 bd c2 f4 f5 bd
       0.058748513 0.083043694 -0.08105024 -0.120095745
0002d0 9c 45 1a 3e f7 69 d5 bd 7e e2 0c b9 9a 37 36 3e
       0.15065616 -0.10420602 -0.00013435815 0.17794648
0002e0 b8 1f 97 3d 1a 5f 50 bd 65 b4 d4 bd 22 4f 83 3d
       0.07379097 -0.050871946 -0.1038597 0.06411578
0002f0 17 e6 aa 39 a8 1e ce bc 5c df 81 3d f1 2d d1 3d
       0.00032596357 -0.025161102 0.063414305 0.10213841
000300 84 b0 9d 3d 91 b4 0a be 33 ea 62 3e ba 1f e8 bd
       0.07699683 -0.13545443 0.22159652 -0.11334176
000310 b3 f9 00 3e 12 63 12 be 78 cd f0 bd da ea c5 3a
       0.12595253 -0.14295605 -0.1175794 0.0015099898
000320 52 e2 fb 3c 64 6c 38 3d 01 cc 57 bc 94 c1 b8 bc
       0.030747566 0.045025244 -0.013171197 -0.022553243
000330 b6 3e 82 bd 3b ea 41 bd 49 65 00 3e 82 4e 5c bc
       -0.063596174 -0.04734252 0.12538637 -0.013446452
000340 fc 76 0c be 2c 97 11 3e ad 21 b0 bd ad 51 2e bc
       -0.13717264 0.14217824 -0.08600173 -0.01063959
000350 6f 21 a6 bc 35 aa 22 3d 86 8d 83 bd cd fb d1 3d
       -0.020279614 0.039713103 -0.06423478 0.10253105
000360 b8 9a 88 bd a7 77 82 3d c6 58 f8 3c b7 12 de bd
       -0.06670135 0.06370478 0.030315768 -0.10843413
000370 43 aa b7 bc 0f 76 33 bd 9a 67 e7 3b 91 7e 39 3e
       -0.022420054 -0.04381376 0.007061911 0.18114688
000380 2c 4b a0 3c 8c a7 7b 3d 93 5b 5b bc 48 4c 5f be
       0.019567095 0.061439082 -0.013388532 -0.21806443
000390 e6 03 b1 3d f3 dd 42 be 9d 19 9c 3d 99 cd 91 bd
       0.08643322 -0.1902998 0.07622073 -0.07119293
0003a0 9c 13 17 3c 95 f3 12 3e 05 c3 11 3b 8f c7 2e 3e
       0.009220984 0.14350732 0.0022241485 0.17068313
0003b0 a3 a5 a1 3d d2 9b e6 3d 81 60 c4 bd 84 d8 0d 3d
       0.07892921 0.11260189 -0.09588719 0.034630314
0003c0 6b d2 e2 bc d5 25 56 be 24 67 22 3e 1c ca 46 be
       -0.027688226 -0.2091287 0.15859658 -0.19413036
0003d0 5e 22 d3 3d 84 aa 16 be d3 47 49 3d 24 5e 20 be
       0.103092894 -0.14713484 0.049140763 -0.15660912
0003e0 f5 50 ee 3d 4d 41 fb bb dd a7 b4 3d 9e 65 c5 bc
       0.11636535 -0.0076676966 0.0882108 -0.024096306
0003f0 8b 5d d2 bb 0e 30 1a bd 39 c0 ae 3c 93 bb 23 be
       -0.0064198426 -0.037643485 0.021331893 -0.15989523

network_body._body_endoder.seq_layers.2.bias f4 [128]
000000 16 05 94 3a 7a 3d d2 ba c9 b1 05 bb a8 61 24 ba
       0.001129302 -0.001604005 -0.0020400158 -0.00062706554
000010 34 4d 13 bb 06 5f f5 b9 1e 8e ae 3a 3d 1b 7a 3b
       -0.0022476437 -0.0004680084 0.0013317501 0.0038163208
000020 51 20 00 bb ef a1 21 ba 8c 77 71 bb 39 5c 53 3b
       -0.0019550512 -0.00061657926 -0.0036844937 0.0032251014
000030 4b 05 de 3a 29 d3 bc ba e6 99 0a bb ff 02 a5 bb
       0.0016938833 -0.0014406192 -0.002114886 -0.0050357576
000040 9d ac 87 bb b2 9e 42 ba 3b b6 d6 b8 a4 08 2f bb
       -0.00414045 -0.000742416 -0.00010238258 -0.002670803
000050 8b ce 7b 3b af 8d 07 bb e9 a2 44 ba c8 14 8b bb
       0.003842267 -0.0020683815 -0.0007501082 -0.0042444207
000060 3e 6b 39 ba 36 92 2c bb 9f 2c 29 bb c9 90 23 ba
       -0.000707317 -0.0026332266 -0.002581395 -0.0006239531
000070 5b 43 0d bb af 9f 8b bb 13 82 f3 ba 80 9d 37 3b
       -0.002155504 -0.004260979 -0.0018578194 0.0028017461
000080 e6 fb 98 ba e2 df 1c ba bd a0 a4 ba b3 60 b3 38
       -0.0011671751 -0.0005984289 -0.0012560111 8.553397e-05
000090 c3 f1 23 bb 3d ed 07 bb 30 88 1e b8 4e 9c f2 3a
       -0.0025015927 -0.002074077 -3.779697e-05 0.0018509717
0000a0 a6 89 22 ba dd 06 a2 bb 38 f6 73 ba e1 13 ff ba
       -0.0006200321 -0.004944666 -0.0009306404 -0.001946088
0000b0 bf 50 20 bb 8b 35 20 3b e0 99 82 ba 69 88 60 39
       -0.002446219 0.0024445977 -0.0009964071 0.00021413121
0000c0 67 f6 fa ba a0 aa ef b8 8d a5 b9 bb 37 91 35 bb
       -0.001914692 -0.000114281895 -0.005665487 -0.0027704963
0000d0 49 ed ea 3a 44 91 cd b9 58 db e1 38 25 16 92 bb
       0.00179235 -0.00039208878 0.00010769692 -0.0044582062
0000e0 80 0e 87 3a 24 85 00 bb 6f f1 3e bb de b3 d0 bb
       0.0010304004 -0.0019610608 -0.0029135605 -0.006369098
0000f0 7d 17 1f ba a1 75 07 bb cb a2 d8 ba 5e 29 26 3b
       -0.00060688687 -0.0020669478 -0.0016528008 0.0025354247
000100 32 11 4f bb 2a d5 17 3c 0c ec 40 bb de 3d a0 39
       -0.0031595943 0.009267131 -0.002943757 0.00030563673
000110 f1 38 02 3c 54 42 10 39 b9 b6 fa ba b6 eb 3a bb
       0.007948146 0.0001375762 -0.0019127942 -0.0028521842
000120 66 72 6a ba 33 03 d1 ba 82 27 84 39 a9 98 4c bb
       -0.00089434383 -0.0015946388 0.00025206438 -0.0031218922
000130 ac c0 87 38 07 5f ed ba 23 53 8d ba f0 91 60 ba
       6.4731896e-05 -0.0018109985 -0.0010782223 -0.0008566668
000140 f2 34 a8 ba a6 3f da b9 cb 10 51 3a 49 8f c7 b9
       -0.0012833162 -0.00041627622 0.00079752196 -0.00038062994
000150 d3 05 09 ba c1 ab e9 b4 22 e9 0c ba 3a 8a 94 bb
       -0.0005227003 -4.35246e-07 -0.00053753157 -0.0045330795
000160 c6 1d c7 ba ab 63 81 b7 9b 52 5c bb 3c ce 90 ba
       -0.0015191368 -1.542441e-05 -0.0033618573 -0.0011047791
000170 24 61 de ba 6b 4a 1b 3a fb 17 04 bb 00 41 62 ba
       -0.0016966206 0.000592387 -0.0020155895 -0.00086309016
000180 6b 39 07 3b 5c c8 19 ba 89 6e 8e b9 c6 2f d9 bb
       0.002063359 -0.00058663427 -0.00027166706 -0.0066280095
000190 28 f4 f2 ba 6f 32 f2 3b 15 ed 6f b9 25 cd 95 3a
       -0.0018535899 0.007391266 -0.00022881136 0.0011428936
0001a0 12 be 97 bb aa 6c 6e 39 88 8d d3 3b 31 68 3a ba
       -0.0046308124 0.00022737929 0.006456081 -0.00071108626
0001b0 8d 96 c5 ba fa fd c1 ba c4 a7 87 3a 2a b0 bb 3a
       -0.0015074775 -0.0014800422 0.0010349681 0.0014319469
0001c0 3f 48 8d b9 b2 ce 8a ba 02 83 95 b9 d1 df 97 b9
       -0.00026947443 -0.0010590164 -0.00028517103 -0.0002896772
0001d0 c6 6c a6 3a d7 24 5a ba 82 8b 3a bb 86 60 b2 3a
       0.0012697212 -0.00083215296 -0.00284645 0.0013609088
0001e0 90 55 63 bb 1c 85 b7 b9 74 e2 10 bb 38 41 7b ba
       -0.003468845 -0.00035003654 -0.0022107633 -0.00095846085
0001f0 66 c4 92 ba fa 18 0d 3b fb 10 b6 b9 66 86 24 ba
       -0.0011197447 0.002152978 -0.00034726397 -0.00062761304

network_body._body_endoder.seq_layers.4.weight f4 [128, 128]
000000 5d 8a 08 3d 4d 03 09 be f4 5f 13 bd 8f 7b 85 3c
       0.03333508 -0.13380165 -0.03598018 0.016294269
000010 2e 39 4c 3d d6 37 25 be 86 b1 30 3c a8 25 9d 3c
       0.04985922 -0.16134581 0.010784512 0.019182995
000020 67 5c 25 3d 24 d8 91 bc a8 84 2b be ae 88 80 bc
       0.040371325 -0.01780326 -0.16749823 -0.015690174
000030 9b eb ea bd 40 7d 8a bd 2b 99 ea 3d c6 46 16 be
       -0.114707194 -0.06762171 0.11454996 -0.14675435
000040 14 53 dd bb 39 f4 02 3e 5f 9a 4f 3d f6 dd 04 bd
       -0.0067542884 0.12788476 0.05068433 -0.03243824
000050 f2 b4 8d bc ec 69 3f bd 51 6d e1 3d 22 19 5c 3d
       -0.017298196 -0.046731874 0.110071786 0.053734906
000060 91 88 00 3d 59 14 5f bd ff fd 12 3e 9c 97 e8 bd
       0.03138024 -0.054462764 0.14354704 -0.11357042
000070 56 5f dc bc f7 20 c7 3d f6 cf 1c be df d6 24 3d
       -0.026900928 0.097230844 -0.15313706 0.04024398
000080 88 31 d8 3d d6 d9 f7 bb 8a 1a 62 bd 9f 98 33 3d
       0.10556322 -0.00756381 -0.05520109 0.043846723
000090 c2 e1 93 bd 41 a3 aa 3c 29 6d 09 3e 9d 16 54 bd
       -0.07220794 0.020829799 0.13420548 -0.05177938
0000a0 2e 30 dd 3d 4a 74 1d 3e df 84 8b 3d 31 d5 fa 3d
       0.10800205 0.15376392 0.068124525 0.12247694
0000b0 ea f1 9a 3d 1f 69 98 bc 07 f5 21 bd ef 0d b2 bc
       0.07565673 -0.018604813 -0.039540317 -0.02173516
0000c0 87 1e 0a bd 02 74 1d be d7 bc c4 bd 2b 32 80 bd
       -0.03372052 -0.15376285 -0.09606331 -0.06259569
0000d0 86 34 1e 3d 60 4a 0a 3d fa dd 2d 3d 42 87 91 3c
       0.03862431 0.033762336 0.04244802 0.017764691
0000e0 08 ab 0f 3d 3e 0a 54 bd 14 fb 8a 3d d4 19 03 be
       0.035075217 -0.05176758 0.067861706 -0.12802821
0000f0 1b 1e b5 bb 68 fd d5 3d 02 f2 1b 3c bc e7 11 3e
       -0.0055272705 0.10448724 0.009518148 0.14248556
000100 bc 13 24 3e 38 57 18 be 5e 18 92 3c 12 cf 0f 3e
       0.16023153 -0.14877021 0.017833885 0.14043835
000110 15 b5 80 bb 9f b9 50 bd b4 b8 8a 3d 62 07 98 3d
       -0.0039278367 -0.050958272 0.067735106 0.07423283
000120 1a d5 64 3d 9d 2e 77 3c 0d 07 23 bc de b8 cf 3d
       0.055867292 0.015086797 -0.0099504115 0.101426825
000130 38 e7 54 3e b3 60 26 bc 17 e1 47 3d b5 9b c3 bd
       0.20791328 -0.010154891 0.048798647 -0.09551183
000140 7d 42 87 bd 89 80 39 bd 92 2e 9a bd 63 28 2e bd
       -0.066044785 -0.045288596 -0.07528414 -0.042518985
000150 9d 53 00 3e e0 1d bb bd ee e2 98 3d 1c 3b 32 3c
       0.12531896 -0.091365576 0.074651584 0.010878351
000160 fa 5f 1b 3d 3e 19 ee 3c c7 2c 62 bd 73 ff 45 3d
       0.037933327 0.02906477 -0.055218484 0.04833932
000170 20 6d aa bd 5e eb 90 bc b4 e7 0d bd fb 50 70 3e
       -0.08321595 -0.017690357 -0.034644797 0.23468392
000180 36 97 b9 bc 7b ae 06 bd 9a 8a 19 3e 41 7c 2c bd
       -0.02265511 -0.03288124 0.14994279 -0.042110685
000190 c8 0c 3c 3d 5f 3e 39 3d 52 9c 23 be da 92 47 3d
       0.045910627 0.045225497 -0.159776 0.048724033
0001a0 73 19 81 3d 14 ae b6 bc 2d e5 1c 3e 1f 3c 2b 3b
       0.06303682 -0.022299804 0.15321799 0.0026128364
0001b0 e5 d5 64 3d 6b ce 9b 3d 82 e3 58 3c ee 7c bf bd
       0.05586805 0.076077305 0.013237836 -0.0935
0001c0 d6 4d 35 be dd d1 65 be c5 4b 6f bc 01 a0 87 3d
       -0.17705473 -0.22443338 -0.014605467 0.06622315
0001d0 8a c9 09 3e ad eb a3 3d 89 2e 65 bd ae 90 00 be
       0.13455787 0.08003936 -0.055952583 -0.12555191
0001e0 f2 67 27 bd 49 77 c2 3b 59 5f 32 bd f8 25 bf bc
       -0.040870614 0.00593463 -0.04354796 -0.023333535
0001f0 85 f4 bb 3c 05 e9 7b bd ea d0 43 bc 87 3d 24 be
       0.022943744 -0.06150152 -0.011951664 -0.16039096
000200 b6 f4 a3 bd f1 d2 01 3e 88 98 36 3c 7a 2e f1 bc
       -0.08005659 0.12678124 0.011144765 -0.029441107
000210 bb 30 95 3c 9b 35 e0 bd 18 4a 12 be e0 54 aa 3c
       0.018211713 -0.109477244 -0.14286077 0.020792425
000220 37 31 19 bd c3 16 09 3e 06 60 a4 bc 2f 54 ad 3d
       -0.03740045 0.13387589 -0.020065319 0.08463322
000230 d8 a5 20 3d 26 66 05 be 99 ef f7 3d 35 cb 12 be
       0.03922066 -0.13027248 0.121062465 -0.1433533
000240 a6 57 db 3c 51 fc 14 be 64 bb 40 3d bf b3 a5 3d
       0.026775192 -0.14549376 0.04705371 0.080909245
000250 75 37 5c 3c 8d 3e b3 bc d7 96 67 3d 80 8e 79 bd
       0.013440956 -0.021880412 0.056540336 -0.060926914
000260 38 f0 2b bc 69 f7 3b 3e 84 0c 43 bd 21 95 59 3c
       -0.010494284 0.18356098 -0.047619358 0.013280184
000270 41 62 f5 bd 2b 75 92 3d 15 e3 04 bb 72 39 a2 bd
       -0.11981631 0.07151254 -0.0020276953 -0.07921113
000280 e4 ce 17 3e 80 22 d8 bb 24 dc c7 bc 37 ab 38 3a
       0.14825016 -0.0065959096 -0.024396963 0.0007044556
000290 d9 56 d9 3d 60 53 c7 3d 9a 64 ba bc 99 a2 95 3d
       0.10612268 0.097326994 -0.022753049 0.07306404
0002a0 4d 25 2b bd c2 aa be 3c ef 7f c0 bd 96 30 da 3c
       -0.04178362 0.023274783 -0.093994014 0.026634496
0002b0 f7 b6 84 bd 9d 42 8d 3d 98 20 fd bc 95 14 aa 3c
       -0.0648021 0.06897471 -0.030899331 0.020761767
0002c0 e0 ca 0a 3e 01 48 7f 3e e8 fc 93 bd f4 30 88 bd
       0.13553953 0.24929811 -0.072259724 -0.06649962
0002d0 7b e4 0b bd 36 34 b3 3d a7 00 d8 bd 5a 9b 00 3e
       -0.034153443 0.08750193 -0.105469994 0.12559262
0002e0 21 a7 13 bd 09 9a 1d 3d 53 ea 46 3d 98 68 45 3d
       -0.03604806 0.038476977 0.048563313 0.04819545
0002f0 b9 74 94 3b 62 5c 3f bd e0 31 a9 bd a1 67 e4 bc
       0.004530516 -0.046718962 -0.08261466 -0.027881445
000300 33 1b 8d 3d fc 81 1f bd bc 41 0d 3e b5 83 8b bd
       0.068899535 -0.038942322 0.13794607 -0.068122305
000310 e2 67 ef 3d 9d 64 51 3b b7 01 27 3d 03 44 83 bc
       0.11689736 0.003195084 0.04077312 -0.016023641
000320 e4 e8 ec bd db 6d 90 bc 6c 61 15 be df db 10 bd
       -0.11567858 -0.017630508 -0.14587945 -0.035365935
000330 4f 1c 70 3d fd c1 df 3c 0f 24 27 3e 24 5c 0d 3e
       0.058620747 0.02731418 0.16322349 0.1380468
000340 fd ae f6 3c b0 fa f0 3a 89 31 fd 3d a5 2a bc bd
       0.030112738 0.0018385258 0.12362964 -0.09187821
000350 f1 66 02 3d cc 22 6f 3e cb 0f 10 3e f7 1f ba bd
       0.031836454 0.23353118 0.14068525 -0.09088128
000360 22 da 05 3e a3 42 af bc 4b 62 0e be 37 1e db bc
       0.13071492 -0.02139408 -0.13904683 -0.026747806
000370 dd 8f 1f be d7 95 f0 bd 75 f9 8d 3d 28 e5 34 bd
       -0.15582223 -0.1174733 0.06932346 -0.044163853
000380 1d 77 3c 3d 16 17 da 3d ac 4b 8e bd 2a 9f 8c bd
       0.046012033 0.106489345 -0.06948027 -0.06866296
000390 f9 50 56 be c4 ce 81 3b 14 7f 2b 3d 9f 7c 1d 3d
       -0.20929326 0.003961416 0.041869238 0.038448926
0003a0 ba f0 86 bc 3b 87 01 3d 32 52 ea bd 45 54 3b bd
       -0.01647221 0.031623106 -0.11441459 -0.045734663
0003b0 6e 2c 45 3d ae 60 31 bd aa 05 88 3c a3 3c 19 be
       0.048138075 -0.04330509 0.016604263 -0.14964537
0003c0 cf 6b 22 be 38 b0 ea bc 7d e2 c6 bc b5 45 bd bd
       -0.15861438 -0.02864848 -0.02427792 -0.09241811
0003d0 60 71 a8 bd 4e 34 1e bc 2e f9 1c be eb 65 87 bc
       -0.082247496 -0.009656025 -0.1532943 -0.01652809
0003e0 09 4d 8f bd a6 4e 77 bd c3 b6 d8 bd ec 0f 80 bd
       -0.06997115 -0.06037774 -0.10581734 -0.06253037
0003f0 06 f7 3f 3e 23 55 0e bd 93 f2 52 be 2b 25 b5 bb
       0.18746576 -0.03474916 -0.20600347 -0.0055281124

network_body._body_endoder.seq_layers.4.bias f4 [128]
000000 a0 05 77 b9 b2 b8 b5 39 6b 0b 13 3a 82 57 fa b9
       -0.00023557851 0.0003466062 0.00056093064 -0.00047748914
000010 c3 0a f6 39 54 a2 0b ba fa 7c 71 3a 1f d0 e2 ba
       0.00046928794 -0.0005326618 0.00092120434 -0.0017304457
000020 36 ba 00 3b b3 86 15 bb 2d d9 09 3a 0e 1c af ba
       0.001964224 -0.0022815883 0.0005258497 -0.0013359801
000030 45 37 2b 3a 05 4e 15 ba c1 a9 13 39 60 39 ef 3b
       0.0006531368 -0.0005695525 0.0001408225 0.007300541
000040 cb 71 4a 39 27 25 b5 ba 1e ac 83 b7 19 60 d5 39
       0.00019306612 -0.0013820276 -1.5696565e-05 0.00040698124
000050 e0 8a 81 ba 8a a8 16 3a 30 9d c5 b9 8e 2e b9 ba
       -0.0009883307 0.000574716 -0.00037691882 -0.0014128254
000060 35 ed 32 39 62 96 cc b9 c1 69 c5 b9 93 22 8e ba
       0.0001706377 -0.00039021956 -0.0003765356 -0.0010844044
000070 80 6e 3a b9 f3 c0 12 bb e0 f7 c6 ba 3d b2 3d bb
       -0.00017779507 -0.0022392839 -0.0015180074 -0.002894535
000080 51 9b 6c 3b 01 01 9c ba 1d a1 70 ba 4a 65 cf ba
       0.0036103318 -0.0011902155 -0.0009179281 -0.0015823033
000090 b6 35 2c 3b df 2c c7 39 13 75 94 ba 2a 8e bf b9
       0.0026277131 0.0003798967 -0.0011326395 -0.0003653628
0000a0 0a 8b fc b9 65 af 08 38 e9 bf 85 ba 1a 30 8d ba
       -0.00048168778 3.2588276e-05 -0.0010204288 -0.0010771782
0000b0 11 f1 f5 39 4c c9 de ba 6c e5 25 ba 35 55 59 b8
       0.0004690965 -0.0016997247 -0.0006328437 -5.1816187e-05
0000c0 b0 8e 4e bb 86 5d 84 3b cf e5 b3 bb c1 24 43 ba
       -0.0031518154 0.004039469 -0.005490042 -0.00074441364
0000d0 77 e5 05 ba 5b 7e b4 ba d6 40 e0 3a c6 1e 40 bb
       -0.000510774 -0.0013770567 0.0017109166 -0.0029315217
0000e0 ef db 00 ba 16 86 b4 ba 00 f9 8e 39 dd 8c 62 ba
       -0.0004915585 -0.0013772871 0.0002726987 -0.0008642206
0000f0 5c 49 a5 b9 3e 22 c7 b9 dc a4 f3 b9 6e c6 28 ba
       -0.0003152591 -0.0003798175 -0.00046471402 -0.000643826
000100 0c 9b 82 b9 b9 4d 61 ba 7a f7 7c 3b 3c 7e 6a ba
       -0.0002491105 -0.00085946504 0.0038599656 -0.0008945202
000110 04 6b 5d ba 41 1d 81 ba 36 6c b2 b9 4b 0b 18 ba
       -0.00084464275 -0.0009850637 -0.0003403143 -0.00058000226
000120 9d 25 4a 3a b3 77 01 bb e5 6b e5 bb 88 4e 3c ba
       0.00077112933 -0.0019755184 -0.0070013874 -0.0007183333
000130 33 49 a4 bb e1 24 df ba b6 fe 1b ba 01 16 7e ba
       -0.005013609 -0.001702454 -0.00059507356 -0.000969261
000140 3b 6d 9f ba eb 19 4f ba ec bc a4 b9 59 ee 47 3a
       -0.001216329 -0.00079002854 -0.00031421275 0.0007626764
000150 88 bc 35 3a 43 ad cb ba 52 95 f8 ba c2 00 eb b9
       0.00069326954 -0.0015539307 -0.0018965399 -0.00044823257
000160 73 0f d9 ba 83 64 88 3a 67 36 65 3a d8 10 23 bb
       -0.001656039 0.0010405931 0.00087437633 -0.0024881866
000170 f0 4a d0 3a 73 23 2a ba cc 02 b4 3b 42 35 d9 39
       0.0015891474 -0.00064902677 0.0054934975 0.00041429145
000180 5c 4e 22 3b c8 f7 c0 ba 08 8b 57 3a 75 84 00 bb
       0.0024765944 -0.0014722282 0.00082223164 -0.00196102
000190 65 4a f7 ba e8 73 9c 3a 3a 91 15 3b de 65 95 3a
       -0.0018866776 0.0011936398 0.0022822157 0.0011398157
0001a0 da d2 91 bb 0a bc 10 bb ac 32 74 bb 41 54 c8 ba
       -0.0044501843 -0.0022084736 -0.0037261648 -0.0015283899
0001b0 70 b0 48 bb a4 5a e9 ba e5 0c 51 ba 26 e7 ad 3b
       -0.0030622743 -0.0017803502 -0.0007974639 0.005307096
0001c0 20 ae 2a ba 2f 9a 84 39 a7 9b 5e b9 c3 79 9f ba
       -0.0006510932 0.00025291878 -0.00021229555 -0.0012167025
0001d0 10 2d 35 3b 2d d9 80 ba 6e 5f 74 ba c6 1e f4 3a
       0.0027645268 -0.0009830348 -0.00093220815 0.0018624894
0001e0 6e 98 a3 ba 5b 50 0a 3b 57 7d 8e ba d7 a8 b4 39
       -0.0012481341 0.0021105024 -0.0010871094 0.0003445807
0001f0 79 ab 99 ba a6 b6 96 3b fc c9 0a b9 b3 d2 35 ba
       -0.0011724076 0.00459941 -0.0001323595 -0.00069359987

action_model._continuous_distribution.log_sigma f4 [1, 2]
000000 bd 77 fd 3b 04 90 bc ba
       0.007735221 -0.0014386182

action_model._continuous_distribution.mu.weight f4 [2, 128]
000000 a5 cb 62 3b b6 19 b7 bc 95 0e 22 3c 5a c9 1a bd
       0.0034606245 -0.022351127 0.009891172 -0.03778968
000010 1f 6b 90 3c 5e 3d 31 bc 95 a7 7a 3c 47 ae 6d bb
       0.017629204 -0.010817854 0.015298744 -0.0036267207
000020 dd f8 96 3c e9 8c 1d bc ae a0 5d 3b 3d 68 6f 3c
       0.018429214 -0.009616115 0.0033817696 0.014612255
000030 74 7d 00 bd fd 7b 99 bb 6a 2b 3f 3c ce e2 b2 3c
       -0.03136964 -0.00468397 0.011668066 0.021836665
000040 da 81 6e 3c 2e 3e d5 3b 79 f5 f5 3c 94 a1 58 3b
       0.014557326 0.0065076565 0.030024277 0.0033055292
000050 03 ef bc 3c df 57 c8 3b 60 10 a8 3c b6 bb 64 bb
       0.023063188 0.0061139907 0.02051562 -0.0034901924
000060 2f 96 72 bb 48 8d f8 bc 8d ee 0c 3c bd 80 d9 3b
       -0.0037015786 -0.030340806 0.008601797 0.0066376613
000070 48 13 28 3d aa bf 14 bb 50 be dc bb 2f 6a 1c 3c
       0.041034013 -0.0022697248 -0.006736554 0.0095468005
000080 02 72 dc 3c a6 ff 69 bc 29 22 19 bc 55 7a 80 bc
       0.026909832 -0.014282143 -0.009346523 -0.015683332
000090 7e a8 ba bb b6 6e 2a 3c f9 00 6a 3b 93 63 b0 3c
       -0.0056963554 0.010402372 0.0035706146 0.021531856
0000a0 61 3b 4e bc 39 9f 9e 39 1f d8 25 bb 99 a9 17 3c
       -0.012587399 0.00030254739 -0.002530582 0.009256744
0000b0 d3 7f 36 3c 29 ef 8a bb 2a 46 cf ba 1d 33 27 bd
       0.011138874 -0.004239936 -0.0015813757 -0.04082023
0000c0 11 5a ac b9 bb 75 46 3c e8 7f 15 3c 30 81 1f bd
       -0.000328735 0.01211303 0.0091247335 -0.038941562
0000d0 8d c7 cb bc ed af 08 3c 0d ce 2e 3c 13 2e 37 3c
       -0.024875427 0.008342725 0.0106692435 0.011180419
0000e0 fa ad 1c 3d 80 c8 0b 3c ff 31 cb 3c 62 2a ea 3a
       0.038251854 0.00853169 0.024804113 0.0017865414
0000f0 30 5d 35 3c 3b ab f9 3c 80 d9 5a 3c 95 e6 bf bc
       0.011069581 0.030477157 0.01335752 -0.02342538
000100 55 32 4a bb 4f b0 1a 3a d8 4c 2b 3c 1f 70 8e bc
       -0.0030852754 0.0005900906 0.010455333 -0.017387448
000110 f5 8f a4 3c 9a 80 9f bc b0 64 12 bd d3 41 da 3a
       0.020088175 -0.019470502 -0.035740554 0.0016651697
000120 04 da 06 bd 89 3f 85 3c c1 25 0d 3d 94 73 ff 3c
       -0.03292276 0.016265647 0.034459833 0.031183042
000130 7d f4 3b bc 0d 3d 1a bc 58 6c 1f bc 9c d7 6d bc
       -0.011471865 -0.00941397 -0.009730421 -0.014516737
000140 6d 7a 2d bc 15 71 27 bc 1f a5 8a 3c 95 a9 93 bb
       -0.010588271 -0.010219832 0.016924439 -0.0045062997
000150 5c 78 d1 3c a3 29 e7 bb 7a 53 9b bc 18 ee d7 3c
       0.025570087 -0.007054524 -0.018960703 0.02635865
000160 c8 43 11 bc 1d e9 45 3c 8d c2 ee 3b 37 1d 9e bc
       -0.008866258 0.012079504 0.007286376 -0.01930104
000170 5e e3 b9 3c ef e6 5d bd 3a 1f a4 3b d6 42 0b bc
       0.022691425 -0.054175314 0.0050086053 -0.008499822
000180 3b 22 4b 3c b0 69 ae 3a a9 c6 01 b9 86 7a 71 bc
       0.012398298 0.0013306644 -0.00012376405 -0.0147386845
000190 0e 1b bb 3c c7 b6 04 bc f5 70 bb 3c f8 bb 45 bc
       0.02284005 -0.008100218 0.02288101 -0.012068741
0001a0 98 bb be bc 43 ec 05 bb 14 c1 25 bb ca 77 64 3c
       -0.023282811 -0.0020435012 -0.0025292085 0.013944576
0001b0 49 62 5e b9 5c 0d af ba 5b 8a 5d 3c d0 c2 9c 39
       -0.00021208184 -0.0013355422 0.013521756 0.00029899785
0001c0 b5 cc c9 3c 2f fd 26 3b da 2f 8c bc 32 be 96 bc
       0.024633745 0.00254805 -0.017112661 -0.018401239
0001d0 45 f0 a0 3c 6c f1 20 3d 0e 87 57 3c f6 e6 c1 3c
       0.01964582 0.039292738 0.013154758 0.023669701
0001e0 52 da 5a bb f2 28 8b bc a8 1e 79 3c f7 a1 82 bc
       -0.003339429 -0.016987298 0.015205063 -0.015946371
0001f0 89 bb 0c bd a4 fb 81 3c ec 08 8b 3c d0 3f 56 bc
       -0.034358535 0.015867062 0.016972028 -0.0130767375
000200 7e 75 1f bc ef 74 50 bc d2 96 08 bd 3c 13 21 3c
       -0.009732602 -0.012723192 -0.03334696 0.009831246
000210 6c a6 bd ba 9d a6 c3 3c 4a bd b1 3a 98 80 b9 bb
       -0.0014469153 0.023883158 0.0013560441 -0.0056610815
000220 0c 0f bc 3b 34 7b 1d 3c 21 1b db bc 73 ba 7f 3b
       0.0057390984 0.009611893 -0.026746335 0.0039021045
000230 57 e3 1f bc a4 e1 37 bd ae 45 29 3d f2 c5 0f 3c
       -0.009758792 -0.044892922 0.041326217 0.008775221
000240 4b 0d 6f bc 70 8d d3 3c 87 dd bc 3b 29 08 90 3c
       -0.014590572 0.025824279 0.005763713 0.017582016
000250 4b ae 5f bb 59 b7 04 ba b8 3d f5 3c 7a 96 ad 3c
       -0.0034130986 -0.00050627213 0.029936656 0.021189917
000260 d4 b7 81 bb 6b e5 30 3b de 24 98 3c eb b4 04 bd
       -0.0039586816 0.0026992213 0.018572267 -0.0323991
000270 f5 fb 5f 3c 6d 89 1a bd ac 62 8c bb 80 e1 d0 bc
       0.013670911 -0.037728716 -0.0042842235 -0.025498152
000280 df dd 78 bc e1 63 82 3c 34 dc 98 3b 70 3a 11 3c
       -0.015189617 0.015916767 0.004664922 0.00886403
000290 9c 55 84 3b ec 01 b5 bb b6 a0 e8 ba b3 bd 8d bc
       0.0040385257 -0.0055239107 -0.0017748091 -0.01730237
0002a0 68 cb 6f bc df 95 fb bc 75 d3 4a bc c6 7d 0c 3b
       -0.014635898 -0.030711113 -0.012379517 0.0021437271
0002b0 ab 2c 6e ba 61 95 ba 3b 4b a6 9a 3c 9d 34 51 3c
       -0.00090856355 0.005694077 0.018878123 0.012768892
0002c0 51 98 49 3c 24 51 ad bc e3 07 06 3b a4 4c e9 3b
       0.0123043815 -0.021156855 0.0020451478 0.007119732
0002d0 41 91 a6 bc cf b7 e1 3b e5 67 19 3d b7 df 03 3d
       -0.020332934 0.006888367 0.037452597 0.032195773
0002e0 61 53 f1 3b ce cf b8 3c 40 e1 72 3c 8f ad e1 bc
       0.007364676 0.022560026 0.014824212 -0.02754858
0002f0 6c be 7b bc 90 8c 2a bc 3a 95 f5 3b c0 8c 55 3d
       -0.015365224 -0.010409489 0.007494596 0.052136183
000300 59 a1 1d 3b ee fd a0 bc 48 ff 66 bb c2 b5 cb 39
       0.002405247 -0.019652333 -0.0035247374 0.00038854597
000310 31 16 cb 3c 48 19 56 3b 2d 6d 75 3c ff a5 d6 bc
       0.024790855 0.0032668877 0.014979643 -0.0262022
000320 f7 de 22 bc 97 e2 34 3c 23 cb 93 bc 19 21 8b bc
       -0.009940854 0.011040351 -0.0180412 -0.016983556
000330 7d d4 d9 bc e1 86 82 ba f5 de be bc f1 b6 3c bc
       -0.02659058 -0.000995841 -0.023299674 -0.011518226
000340 f5 0e 78 3b a6 10 ce 3c 1c 08 ca 3b a2 cf b3 3c
       0.0037850712 0.025154423 0.0061655175 0.021949593
000350 a5 d9 3f 3c e8 1f 7d bb af 39 8e bc de 14 b9 bb
       0.011709605 -0.0038623754 -0.01736149 -0.0056482395
000360 21 c5 a2 bb 2b a0 81 3b 99 8a 67 3c ed 88 ae 3b
       -0.0049673473 0.003955861 0.014132165 0.0053263814
000370 ac 4e c7 3b 01 d2 1e 3d f5 c1 a8 bc e9 8d 71 3c
       0.0060823765 0.038774494 -0.020600298 0.014743307
000380 7d 55 56 37 c6 72 94 3c d0 f2 12 bc f4 7d 65 3c
       1.2775298e-05 0.018121134 -0.008969024 0.01400708
000390 8f f3 06 bb 9f 5c 2c 3d 52 1d 18 bc a3 35 d3 3c
       -0.002059195 0.042080518 -0.009284334 0.025782412
0003a0 f7 c4 70 3b 00 88 a0 bb e0 2c 14 bb e6 15 91 bc
       0.0036738494 -0.004899025 -0.0022609755 -0.017710637
0003b0 86 13 7d 3b b7 54 30 3c 86 69 f8 3c 5e 88 11 bb
       0.0038616373 0.010762385 0.030323755 -0.0022206525
0003c0 21 c1 0c bd 27 88 dc bc a3 fd 90 3c ec 20 39 bc
       -0.03436387 -0.026920391 0.017699068 -0.011299353
0003d0 90 96 d7 3b bf 38 89 3c 8a a3 fb ba a2 41 ec bb
       0.0065792277 0.016750691 -0.0019198519 -0.0072099725
0003e0 77 62 3a 3c c4 22 63 bc 69 2d 3c 3b b7 b7 5f bc
       0.011376015 -0.013863269 0.002871359 -0.013654641
0003f0 8e c4 4e 3c a9 af 67 3c 48 05 86 bc 31 de b1 3b
       0.0126201045 0.014141002 -0.01635994 0.0054280986

action_model._continuous_distribution.mu.bias f4 [2]
000000 82 63 d8 39 eb 56 3e ba
       0.0004127287 -0.00072608766

exp_avg f4 [128, 40]
000000 2b f4 9e b5 0b b0 3f b4 71 97 0c b6 22 6f 4e b6
       -1.184298e-06 -1.7852305e-07 -2.0949776e-06 -3.076108e-06
000010 85 e0 ab 35 1f 87 f7 34 8a a0 a8 b6 7c 37 a9 b6
       1.2805837e-06 4.610565e-07 -5.0254794e-06 -5.0430517e-06
000020 49 24 ee b5 35 10 8f 35 ce 75 a9 b5 b9 7d 5f b3
       -1.7742942e-06 1.0659047e-06 -1.2625767e-06 -5.2035578e-08
000030 6a 93 5a 36 c7 fc 4e 33 97 cd 39 b6 9f c1 2a b6
       3.2570338e-06 4.8193012e-08 -2.7686817e-06 -2.5444676e-06
000040 9e 33 9e b5 59 30 44 33 80 e4 9b b6 50 d9 b8 b6
       -1.178694e-06 4.5678778e-08 -4.645961e-06 -5.508926e-06
000050 77 73 33 b5 b6 11 9c 32 d5 25 1a b6 93 a5 7d b6
       -6.685072e-07 1.8168844e-08 -2.296981e-06 -3.7796315e-06
000060 c1 41 ac 35 92 d6 94 af f7 5b ed b6 91 66 d2 b6
       1.2834136e-06 -2.7073505e-10 -7.0738565e-06 -6.270428e-06
000070 c7 eb 8f b8 10 b3 2a b6 f9 79 3d 37 53 b6 8b b8
       -6.862688e-05 -2.5436202e-06 1.1293677e-05 -6.661997e-05
000080 84 1e 9c 35 32 09 92 b8 af 92 3c b7 23 ff 84 36
       1.1631787e-06 -6.963535e-05 -1.1239826e-05 3.9636084e-06
000090 8d 26 f6 35 73 70 83 35 2b aa 8c b6 12 0f 04 b8
       1.8339648e-06 9.792988e-07 -4.1921353e-06 -3.1485288e-05
0000a0 27 46 81 37 60 99 27 b6 86 6e 60 38 ae 8b 7d 38
       1.5410666e-05 -2.4974215e-06 5.3508695e-05 6.0449987e-05
0000b0 41 4b f1 35 65 41 b9 35 5d a1 7c 38 ff 3d 7b 38
       1.7977801e-06 1.3802606e-06 6.0231763e-05 5.99008e-05
0000c0 f9 85 ce 37 95 cd ee 35 8e 30 16 38 58 ad 38 38
       2.46195e-05 1.7792214e-06 3.5808007e-05 4.4030458e-05
0000d0 20 92 9f b7 07 36 30 36 d5 d3 09 38 07 4f eb 37
       -1.9022322e-05 2.6257492e-06 3.286063e-05 2.8050983e-05
0000e0 55 74 c0 37 76 0b 06 b7 30 29 89 38 12 52 8d 38
       2.2942355e-05 -7.989691e-06 6.540341e-05 6.738691e-05
0000f0 1b 81 b5 b7 d2 ae 46 36 e7 48 98 38 ec c5 8b 38
       -2.1637e-05 2.9606058e-06 7.261504e-05 6.664902e-05
000100 98 b3 4b 37 7a a2 29 b3 be 4f 2b 38 ed 5c 17 38
       1.2141558e-05 -3.949615e-08 4.0843843e-05 3.608775e-05
000110 77 b6 1f 3a f7 6d bd 37 4d 44 d2 b8 d4 cd 28 3a
       0.0006092558 2.2581762e-05 -0.00010026302 0.0006439362
000120 15 b8 61 38 ce 29 2b 39 71 ab 6d 38 32 73 82 b8
       5.381562e-05 0.00016323404 5.666487e-05 -6.22034e-05
000130 0b 55 a6 b7 f1 1a 48 38 08 e0 a5 b8 7c 60 a7 38
       -1.9828343e-05 4.7708807e-05 -7.909542e-05 7.981152e-05
000140 1f 5d 2d 36 91 66 e5 35 b2 36 19 38 14 c4 0a 38
       2.5833212e-06 1.709168e-06 3.652898e-05 3.3084376e-05
000150 8e 90 11 b8 40 7a 16 36 d7 ec 3d 37 1b f6 21 35
       -3.470532e-05 2.24229e-06 1.1320421e-05 6.0335304e-07
000160 80 fa 00 38 9b 2c 1c b5 7c ba c7 37 e8 c2 d0 36
       3.0750874e-05 -5.817944e-07 2.3809487e-05 6.221573e-06
000170 eb 33 c4 b7 e5 b5 e2 b4 5e a6 6e b8 3d 26 8c b8
       -2.3389197e-05 -4.2228126e-07 -5.6898563e-05 -6.682843e-05
000180 3c 27 82 37 8e d2 39 b6 fc 6f 35 37 20 88 14 36
       1.5515478e-05 -2.7689707e-06 1.0814514e-05 2.2132954e-06
000190 d9 e6 f6 b7 14 5c e0 35 f2 2d 17 b8 b3 e4 22 b8
       -2.9432982e-05 1.6716099e-06 -3.6043995e-05 -3.8836803e-05
0001a0 2b d9 b6 b7 62 8b 03 b2 00 b3 32 38 cd e3 62 36
       -2.1797217e-05 -7.656896e-09 4.2605214e-05 3.3809222e-06
0001b0 b5 a3 6b ba e2 bd 0b b8 03 1d 1b 39 72 ed a4 ba
       -0.0008988933 -3.3317025e-05 0.0001479276 -0.0012582971
0001c0 93 7a a0 b8 f9 0d 9d 39 9d fd b1 b4 bb 06 81 b8
       -7.652226e-05 0.00029955784 -3.3153347e-07 -6.152453e-05
0001d0 68 4b f8 37 42 6f 35 38 bd 2e 93 b8 5f ae a6 38
       2.9599018e-05 4.325738e-05 -7.018212e-05 7.947976e-05
0001e0 fd 66 1d 36 e7 c6 0d 35 78 eb 5f b5 eb f2 8d 34
       2.345477e-06 5.2816034e-07 -8.3416626e-07 2.6440043e-07
0001f0 d7 cf 40 b5 73 a6 58 35 21 98 cf b5 5d ac ed b5
       -7.182802e-07 8.0708486e-07 -1.5466977e-06 -1.770804e-06
000200 95 ed 9d 36 87 dd 45 35 88 82 82 35 b2 78 9a b5
       4.706623e-06 7.3710584e-07 9.723744e-07 -1.1509021e-06
000210 4c ae b0 b5 e4 73 be 33 74 65 8b b7 83 3e 89 b7
       -1.3163749e-06 8.868645e-08 -1.6617334e-05 -1.6360782e-05
000220 1b 20 a5 b5 9c 47 4b b5 e0 93 ed 34 3e e9 13 b6
       -1.2302802e-06 -7.57276e-07 4.4252283e-07 -2.2040472e-06
000230 d3 bc 00 b6 f1 29 14 b4 01 16 6a b7 11 99 57 b7
       -1.9183396e-06 -1.3798832e-07 -1.395261e-05 -1.2850637e-05
000240 dd 56 b6 b5 9a 14 a2 b1 95 be 1a 36 21 9a 1d b6
       -1.3585337e-06 -4.7171627e-09 2.3058722e-06 -2.3484538e-06
000250 ac fb c7 b8 57 31 6d b6 59 a4 83 37 03 59 90 b7
       -9.535937e-05 -3.5344472e-06 1.5692947e-05 -1.7207587e-05
000260 af 24 16 b7 ff c0 cc 37 c4 f3 13 36 3d 91 5b b7
       -8.949238e-06 2.4408566e-05 2.2046597e-06 -1.3087233e-05
000270 1d da 9b b6 1d b0 3d 36 01 fd 80 37 a1 d8 d9 37
       -4.6447517e-06 2.8265706e-06 1.5376603e-05 2.5969292e-05
000280 79 a8 49 38 d5 7e 39 b6 3c 4f 9f 38 c9 bb f0 38
       4.8079037e-05 -2.7640974e-06 7.5964694e-05 0.000114790695
000290 10 b8 99 37 e9 09 b8 36 a2 0b ec 38 88 91 07 39
       1.8324732e-05 5.484781e-06 0.00011255524 0.00012928818
0002a0 fc 63 53 38 d5 5b 5c 37 10 de 8d 38 84 eb fd 38
       5.0399438e-05 1.3134403e-05 6.764766e-05 0.00012107848
0002b0 4e 09 5a 38 ef 02 db 36 c0 65 a6 38 92 6a e7 38
       5.1983916e-05 6.52705e-06 7.934449e-05 0.000110347886
0002c0 de e6 80 35 b9 2a a0 b6 b8 15 06 39 34 aa 04 39
       9.603934e-07 -4.773345e-06 0.00012787327 0.00012651907
0002d0 14 c7 66 37 f4 00 4c 36 ce 45 d7 38 6e 7f f2 38
       1.375542e-05 3.0398924e-06 0.00010265001 0.00011563195
0002e0 4b 3e 28 38 96 48 db b2 5b 16 cb 38 ca 15 df 38
       4.0112336e-05 -2.5527964e-08 9.683958e-05 0.00010637527
0002f0 4e a2 36 3b 98 9d d8 38 7e 71 f0 b9 f8 c8 3d 3b
       0.0027867737 0.00010329037 -0.00045860925 0.0028958898
000300 8b c1 35 39 ad 28 1b ba 06 f8 46 38 b4 52 34 b7
       0.00017333606 -0.0005918842 4.743787e-05 -1.0748092e-05
000310 46 92 11 b8 9c 7a 1a 38 eb de c6 b8 8d 07 84 38
       -3.470692e-05 3.683065e-05 -9.4828974e-05 6.295657e-05
000320 c2 3a 49 b4 37 57 0d 31 69 c8 4d b5 d3 fd 63 b5
       -1.874096e-07 2.0567776e-09 -7.6660086e-07 -8.493345e-07
000330 42 83 cd b2 bc 91 21 b3 54 27 c2 b4 bc fa b9 b4
       -2.392483e-08 -3.761828e-08 -3.616393e-07 -3.4641369e-07
000340 0c 11 6d b4 91 28 91 b3 0e aa 30 b5 12 89 22 b5
       -2.2078547e-07 -6.759468e-08 -6.581257e-07 -6.0549166e-07
000350 09 92 c5 33 33 a9 8e b1 03 a5 16 34 93 3e 21 34
       9.200091e-08 -4.1519796e-09 1.402987e-07 1.5017058e-07
000360 8f de ab b4 13 24 56 32 8d ec ce b4 5f eb e5 b4
       -3.2013165e-07 1.2464642e-08 -3.8542603e-07 -4.282583e-07
000370 2c ae 3f 34 a8 d2 7d 32 04 98 cc 34 66 2d c1 34
       1.7851625e-07 1.4774436e-08 3.8108567e-07 3.5982083e-07
000380 8e f3 9a 34 fe 21 82 2f 79 89 42 b5 8f 87 e1 b4
       2.8861945e-07 2.3671015e-10 -7.247068e-07 -4.2008148e-07
000390 30 8b 72 34 ca d5 0f 32 2f a8 1f b3 8a 6d 09 b6
       2.2588642e-07 8.3723055e-09 -3.7173034e-08 -2.047835e-06
0003a0 bf 34 46 34 57 ea 01 b6 6f 1b 8c b3 0d fe 59 34
       1.8459376e-07 -1.9358902e-06 -6.524248e-08 2.0302123e-07
0003b0 6d 23 74 b4 b2 e2 dd 33 44 d5 9e b3 08 2e 30 b5
       -2.2737159e-07 1.033235e-07 -7.396241e-08 -6.5632094e-07
0003c0 6f 1a ca b4 08 df 88 b3 aa dd 50 35 ac 87 42 35
       -3.7644665e-07 -6.373563e-08 7.78086e-07 7.246806e-07
0003d0 d8 58 dd 34 a0 24 56 b2 ff 76 39 36 cf c0 33 36
       4.12291e-07 -1.2464767e-08 2.7636413e-06 2.6785308e-06
0003e0 00 d8 87 b4 77 cf 06 34 1d c5 a2 b5 f6 2c 2a b4
       -2.530287e-07 1.2555198e-07 -1.2127308e-06 -1.584884e-07
0003f0 f9 d1 b9 34 72 bf 0c b3 d0 eb 72 36 5b ae 81 36
       3.461171e-07 -3.277041e-08 3.619807e-06 3.8647972e-06
