mlagents/Assets/results/TestLearning2/RollerBall/RollerBall-55428.onnx (onnx, 162959 bytes, 9 tensors)

action_model._continuous_distribution.log_sigma f4 [1, 2]
-0.100952655 -0.11641553
00000000: 44c0 cebd 446b eebd

action_model._continuous_distribution.mu.bias f4 [2]
0.002187736 -0.004447966
00000000: 1f60 0f3b 3ec0 91bb

action_model._continuous_distribution.mu.weight f4 [2, 128]
-0.019824604 0.005009772 -0.009487922 0.0061559156 -0.015769543 0.02988529 -0.003730305 -0.017133255
-0.037638508 -0.020036332 -0.0049605416 0.0017117948 0.020744564 -0.007298086 -0.004100745 -0.005148511
-0.0015554298 0.007249359 -0.0015906189 -0.022456564 0.007843451 0.005353335 -0.028012592 -0.010114534
0.023487115 0.027712258 -0.022424739 0.0043748193 -0.008430989 0.017729012 -0.010823374 -0.008327495
-0.0103801405 0.037990134 -0.0059139333 0.013481615 -0.0038991557 0.030246533 -0.018521138 0.010700912
-0.026435079 0.016389437 -0.009193737 0.040600777 -0.02069278 -0.028498288 -0.037745524 -0.009357386
0.019887153 -0.024670787 -0.018917704 -0.029728334 -0.03290035 0.036478665 -0.021788325 0.0018595562
-0.009430872 0.025275754 -0.044481933 0.038782332 -0.03285962 0.03458235 -0.020956058 -0.03426054
0.032773625 -0.0075137494 -0.022931209 0.01413874 -0.019271899 -0.034935445 0.017585974 -0.035813887
0.017120965 0.048738327 0.015397806 -0.035405397 -0.033861578 0.02005328 0.025259636 -0.008412839
-0.012715698 0.0138921235 0.0011817481 -0.0041958503 0.026468083 -0.021855043 -0.016707748 0.019268451
0.012359258 0.014547365 0.019779408 -0.00028865604 0.046570413 0.0064040315 0.008751964 0.0065514883
-8.190108e-05 -0.026384914 -0.014384802 0.019834781 0.017620983 -0.026494816 -0.03928345 -0.008683502
-0.009088522 -0.02096795 0.014942989 -0.010847859 0.020536344 -0.020327458 0.019185672 -0.031606335
0.056573886 0.0047406345 0.0031368546 0.0005033222 -0.028855173 -0.0055224905 0.051081683 0.030736815
-0.006563033 -0.006152576 0.060369343 -0.0068010464 -0.0014385259 0.0148994075 -0.006766465 -0.024887083
0.027534418 0.03122118 0.041984573 0.014772552 -0.004725444 0.0030095726 -0.005905392 0.022126678
0.0035272543 0.02853225 0.027721815 0.0016120864 0.00018201106 0.03106429 -0.011803539 -0.008424777
-0.02731524 0.052825294 -0.003455465 -0.015136025 0.012384221 0.0034828298 -0.048248976 -0.0045273225
0.024192862 0.021224782 0.048656132 -0.023675712 -0.0035599377 -0.017910946 0.047681484 -0.012777339
-0.03630727 -0.012349857 -0.00021585607 0.010618048 -0.015876468 0.015302287 0.006034072 -0.02551014
0.022850197 0.0075024143 -0.008207463 0.00953978 0.010054634 -0.008576489 0.0056914072 0.020552536
0.03198499 0.007209888 0.006498635 0.020415332 0.02595967 0.023903878 0.022635933 0.028961215
0.023345824 -0.020682849 -0.0047841766 -0.0033587774 0.020677945 -0.016961483 0.017946264 0.024467427
-0.024942076 0.035845075 0.046171036 -0.027222792 0.0030701202 -0.008041737 -0.038245693 -0.042646933
0.014510008 0.049850896 -0.00026796732 0.03818027 0.00762501 -0.025789274 0.040802307 0.03208891
-0.017244423 0.011402869 0.010192058 -0.037508857 0.05552236 0.021223176 0.01576595 0.051313642
-0.032131735 -0.007999006 -0.020919964 -0.024552334 0.026616123 -0.011602008 0.01270107 -0.0037646338
0.012154736 0.029174767 0.0029963008 0.042912737 0.01657825 -0.0036401374 0.012423724 -0.026858177
-0.015782736 0.018832112 -0.06122089 0.025066482 -0.0101856515 -0.0007929966 0.0054737823 0.0027568506
0.0074496893 -0.035341002 0.0051812623 -0.05532216 0.02261713 -0.0036545002 0.015660724 0.0048100357
-0.019958008 0.036900565 0.010313407 0.03442099 -0.027339082 0.008449101 -0.022738183 -0.036176227
00000000: 3567 a2bc 0329 a43b 3b73 1bbc 90b7 c93b
00000010: 212f 81bc ffd1 f43c 2278 74bb 0a5b 8cbc
00000020: d62a 1abd 3c23 a4bc 0a8c a2bb 4d5e e03a
00000030: 81f0 a93c c824 efbb 8b5f 86bb d7b4 a8bb
00000040: 90df cbba 088c ed3b 507c d0ba d4f6 b7bc
00000050: d181 003c 076b af3b aa7a e5bc 6eb7 25bc
00000060: 0d68 c03c d104 e33c 16b4 b7bc a55a 8f3b
00000070: 2222 0abc 6f3c 913c 8554 31bc 0c70 08bc
00000080: 7711 2abc 8b9b 1b3d abc9 c1bb fee1 5c3c
00000090: fa88 7fbb 94c7 f73c a4b9 97bc e152 2f3c
000000a0: 618e d8bc 2443 863c 54a1 16bc 004d 263d
000000b0: e883 a9bc 3e75 e9bc 0d9b 1abd b94f 19bc
000000c0: 62ea a23c 641a cabc 4df9 9abc d688 f3bc
000000d0: 84c2 06bd a76a 153d 6e7d b2bc 5abc f33a
000000e0: f283 1abc 190f cf3c b032 36bd 39da 1e3d
000000f0: cf97 06bd 39a6 0d3d 0aac abbc c854 0cbd
00000100: a33d 063d e635 f6bb 3bda bbbc 2ca6 673c
00000110: 1ae0 9dbc 7818 0fbd 7610 903c 95b1 12bd
00000120: 4441 8c3c d7a1 473d 1447 7c3c 4005 11bd
00000130: 70b2 0abd c746 a43c 4ced ce3c 01d6 09bc
00000140: 8155 50bc ca9b 633c e3e4 9a3a 587d 89bb
00000150: 98d3 d83c 5909 b3bc b0de 88bc dfd8 9d3c
00000160: 7c7e 4a3c 1258 6e3c 6d08 a23c c256 97b9
00000170: 9ec0 3e3d e9d8 d13b 6664 0f3c dead d63b
00000180: 4fc2 abb8 2d25 d8bc 3cae 6bbc 8d7c a23c
00000190: e159 903c a80b d9bc afe7 20bd 3f45 0ebc
000001a0: 06e8 14bc fac4 abbc 70d3 743c 38bb 31bc
000001b0: d63b a83c c585 a6bc 452b 9d3c a575 01bd
000001c0: 05ba 673d 5357 9b3b b093 4d3b 62f1 033a
000001d0: af61 ecbc 02f6 b4bb 073b 513d c6cb fb3c
000001e0: b60e d7bb 8c9b c9bb d845 773d 50db debb
000001f0: eb8c bcba a51c 743c 39b9 ddbb ffdf cbbc
00000200: dc8f e13c 8fc3 ff3c 04f8 2b3d 9308 723c
00000210: e6d7 9abb 403c 453b 0582 c1bb 0243 b53c
00000220: 8229 673b 77bc e93c dc18 e33c a54c d33a
00000230: 39da 3e39 8a7a fe3c a163 41bc 1308 0abc
00000240: 36c4 dfbc 565f 583d 1575 62bb 17fd 77bc
00000250: 30e7 4a3c 3040 643b b8a0 45bd ef59 94bb
00000260: 1c30 c63c 98df ad3c a74b 473d 91f3 c1bc
00000270: d84d 69bb fab9 92bc a94d 433d 0b58 51bc
00000280: efb6 14bd 0e57 4abc 6c57 62b9 52f7 2d3c
00000290: 5e0f 82bc 72b6 7a3c 77b9 c53b a4fa d0bc
000002a0: 5630 bb3c d0d6 f53b 9878 06bc bd4c 1c3c
000002b0: 31bc 243c 6784 0cbc fc7e ba3b cb5d a83c
000002c0: b102 033d ed40 ec3b 80f2 d43b 0e3e a73c
000002d0: 60a9 d43c 11d2 c33c fe6e b93c 1240 ed3c
000002e0: be3f bf3c 146f a9bc 95c4 9cbb ef1e 5cbb
000002f0: cb64 a93c cff2 8abc 0b04 933c ea6f c83c
00000300: 5353 ccbc 49d2 123d d71d 3d3d 5502 dfbc
00000310: 1234 493b 7dc1 03bc 84a7 1cbd 8dae 2ebd
00000320: 62bb 6d3c 7430 4c3d f77d 8cb9 ea62 1c3d
00000330: 38db f93b 0744 d3bc 5220 273d a96f 033d
00000340: 2d44 8dbc 19d3 3a3c 97fc 263c e3a2 19bd
00000350: 6a6b 633d 3adc ad3c 9827 813c 412e 523d
00000360: 919c 03bd 430e 03bc 5860 abbc fa21 c9bc
00000370: 0e0a da3c 5916 3ebc 2618 503c 13b8 76bb
00000380: a824 473c ecff ee3c 965d 443b 44c5 2f3d
00000390: 1ccf 873c 5f8f 6ebb e08c 4b3c ae05 dcbc
000003a0: cc4a 81bc cd45 9a3c c2c2 7abd 3958 cd3c
000003b0: b8e1 26bc 1ae1 4fba 6a5d b33b 47ac 343b
000003c0: 861c f43b bac1 10bd 94c7 a93b 7d99 62bd
000003d0: 8f47 b93c 5780 6fbb eb4a 803c 819d 9d3b
000003e0: fa7e a3bc 0c25 173d 90f9 283c 06fd 0c3d
000003f0: 36f6 dfbc 196e 0a3c 6d45 babc 862d 14bd

network_body._body_endoder.seq_layers.0.bias f4 [128]
0.0020238322 -0.023070686 -0.0023742558 0.0082519185 -0.0028063178 0.013530693 -0.03985862 0.005962458
0.020707069 0.029042237 0.0074286875 -0.022850119 0.0014536384 -0.0043076444 -0.021862585 0.008981927
0.0366068 0.020718336 0.030206796 -0.0016727629 0.009322655 0.008330689 0.011202986 3.0917374e-05
-0.031329747 -0.005717773 0.051012374 -0.0016894925 0.008830952 -0.007987947 0.0034990828 0.003927807
0.010820471 0.037194006 -0.02530022 0.0068547595 -0.0010417888 -0.021762054 0.01702798 0.007652147
-0.001663577 0.017166043 -0.023946326 -0.031817358 -0.006623342 -0.018518671 -0.025239024 -0.018495522
0.0266578 -0.025387878 -0.005308171 -0.018082863 0.036702443 -0.060553275 0.0024747844 -0.03170799
-0.018794587 0.005305496 -0.02769584 -0.0061182384 -0.023231251 0.0083310725 0.041077662 -0.01501364
0.014804735 0.01653275 0.031114196 -0.015764292 -0.01169112 0.013438653 0.01257652 0.07433078
-0.01569108 -0.008615495 -0.007313251 0.0012367503 -0.0033230656 -0.012143158 -0.0078114723 -0.0053388304
0.009591954 0.0017935678 -0.023410503 -0.0136128655 0.011833854 0.01124132 -0.0016004413 -0.020530673
-0.026275475 0.0016457842 -0.01403649 0.014635971 -0.009848117 0.035623975 0.004896992 -0.0009016321
-0.018935828 0.021196807 0.017938437 0.0072897896 0.051363617 -0.0026358902 -0.012903493 0.0018653745
0.009570193 0.015264549 0.0015310443 -0.042404737 0.00022339392 0.0024176042 0.0129396925 0.014777738
0.0023003588 0.006195477 -0.008602801 0.016094808 0.011888759 -0.018012792 -0.008731301 -0.004584791
-0.012262239 -0.011059383 0.008018155 0.00034367107 -0.011416935 0.011926536 -0.01635433 -0.012561484
00000000: 45a2 043b bcfe bcbc 6799 1bbb 0e33 073c
00000010: 33ea 37bb d7af 5d3c cb42 23bd b960 c33b
00000020: dfa1 a93c fce9 ed3c 596c f33b 2c30 bbbc
00000030: 0388 be3a 2427 8dbb 2a19 b3bc ef28 133c
00000040: 03f1 153d 80b9 a93c 3e74 f73c 9c40 dbba
00000050: 0dbe 183c 717d 083c bb8c 373c 47ad 0138
00000060: 9f53 00bd 285c bbbb 5af2 503d f671 ddba
00000070: b3af 103c e1df 02bc de50 653b d5b4 803b
00000080: 5848 313c be58 183d 6842 cfbc e49d e03b
00000090: a28c 88ba 5646 b2bc 437e 8b3c ddbe fa3b
000000a0: 620c daba cd9f 8c3c 162b c4bc eb52 02bd
000000b0: 9f08 d9bb 78b4 97bc 12c2 cebc ec83 97bc
000000c0: 7561 da3c 3dfa cfbc 2af0 adbb 8322 94bc
000000d0: 4d55 163d b606 78bd fe2f 223b 3de0 01bd
000000e0: 1bf7 99bc bad9 ad3b 63e2 e2bc 817b c8bb
000000f0: 774f bebc 0d7f 083c 0d41 283d c5fb 75bc
00000100: 8f8f 723c b16f 873c 33e3 fe3c 1e24 81bc
00000110: 1d8c 3fbc cc2d 5c3c c00d 4e3c bc3a 983d
00000120: 948a 80bc 0128 0dbc ffa3 efbb 741a a23a
00000130: cac7 59bb 19f4 46bc 61f7 ffbb 5bf1 aebb
00000140: 9227 1d3c 2616 eb3a 62c7 bfbc 7f08 5fbc
00000150: c8e2 413c 832d 383c e6c5 d1ba f12f a8bc
00000160: aa3f d7bc 5bb7 d73a 4ef9 65bc b6cb 6f3c
00000170: ff59 21bc 72ea 113d f276 a03b 825b 6cba
00000180: 4f1f 9bbc eda4 ad3c a1f3 923c 30df ee3b
00000190: a862 523d e6be 2cbb 2c69 53bc 957f f43a
000001a0: 4ccc 1c3c 2918 7a3c 52ad c83a 97b0 2dbd
000001b0: d93e 6a39 ab70 1e3b 0101 543c 531e 723c
000001c0: 9ec1 163b 6e03 cb3b c3f2 0cbc 42d9 833c
000001d0: 12c9 423c 908f 93bc bb0d 0fbc 043c 96bb
000001e0: 8fe7 48bc 6a32 35bc 945e 033c c02e b439
000001f0: 190e 3bbc 8567 433c 84f9 85bc afce 4dbc

network_body._body_endoder.seq_layers.0.weight f4 [128, 53]
-0.10745698 -0.11383123 -0.1119764 0.11836651 0.03088288 0.11972 0.068660855 -0.15178907
0.04302987 -0.017678399 -0.129821 0.29953876 0.015228927 -0.29096353 0.09276531 -0.073634386
0.24522945 -0.041891757 -0.04949976 -0.30616194 0.18728511 -0.10338298 0.20682254 0.12956282
0.05503511 0.13758858 0.0373623 0.2702706 0.033930074 0.026458086 0.031279813 -0.03667793
-0.10351328 -0.13346319 -0.25438708 0.0909221 -0.30649626 0.058013365 0.013358606 0.2796777
-0.15692799 0.036359455 -0.10613796 0.013789488 -0.07572415 0.1237938 0.116205044 0.23594113
0.03410163 -0.11205459 -0.18102528 0.043847878 0.09881352 -0.017141124 0.14873855 -0.018789815
-0.062420815 -0.02347953 0.1323432 -0.004531128 -0.18749456 0.08508658 0.03553351 -0.18888377
0.12106508 0.12886702 0.109296635 0.04106862 -0.38599882 0.28109992 0.06443649 -0.06510119
-0.17436749 0.032381695 0.1468298 -0.06343689 0.017914727 -0.07935274 -0.30403498 -0.20172487
-0.106751576 0.08528012 -0.06491386 -0.24270612 0.121233046 0.10436265 -0.12372461 -0.110609934
-0.045938503 -0.005960025 0.028707659 -0.09602569 -0.019105077 -0.14364792 0.011173747 0.06604436
-0.15792945 0.075443596 -0.0910967 -0.08752308 0.058593124 -0.00035770598 0.124546014 0.0025362838
0.13434802 -0.0663886 0.015074382 -0.1885196 -0.09258106 0.28844824 0.007300393 -0.079189725
-0.07007575 -0.17146114 0.101686396 -0.09708165 0.1921089 -0.014411496 -0.10922556 -0.013561337
0.00032499028 -0.14654748 0.018092996 0.2789506 -0.07639094 -0.06851577 0.040926635 -0.011501451
0.11700778 0.22968902 -0.13941339 -0.043711703 -0.035898093 0.04443054 -0.07811973 -0.08719726
0.076387316 -0.1294004 -0.047198374 -0.14097524 -0.054797426 0.04891404 0.06162554 0.01403406
-0.21873452 -0.09644815 0.017087413 0.09665939 -0.26158476 -0.19582814 0.05023373 0.08059071
-0.09936895 0.023513941 -0.17851412 0.11109284 -0.35175136 -0.40124524 -0.017932612 0.08047475
-0.37113863 -0.11247365 -0.12231429 -0.012944552 0.10337089 -0.044400506 -0.029669438 0.14404865
-0.08766193 -0.0008603937 0.05745313 0.040518 0.13273731 -0.01433173 -0.011700378 0.08419183
-0.05971578 -0.018116878 -0.11817126 0.17207895 -0.013527427 -0.1729402 -0.0947258 -0.2523422
0.17985056 -0.12039391 -0.15234575 -0.038501203 0.15890431 -0.023328245 -0.13376828 -0.101231545
-0.161867 0.16713867 0.10738634 0.073436685 0.054195102 -0.06631656 -0.43991825 -0.03136743
0.16881868 -0.15941074 0.03356676 0.03100995 0.11271905 -0.10550966 -0.0841748 -0.016137462
-0.15287812 0.06896137 -0.08446332 0.013042673 -0.11793407 0.2048715 -0.020560551 -0.20093009
-0.011927008 -0.09115024 0.041437976 -0.21116897 -0.20853522 0.18219942 0.085318305 -0.12091522
-0.062031638 -0.0063882577 -0.058021173 -0.22523832 0.10873441 0.042187814 0.104543775 0.1836694
0.10957215 0.33520263 -0.097350806 -0.11031898 0.05700693 -0.008211582 0.13985287 -0.07039537
0.038337726 0.0067086406 0.115295745 0.014775525 0.17658305 -0.06839594 -0.051517364 -0.13780732
0.054824118 -0.00037126313 0.3481605 -0.060325157 0.11369815 0.081037976 -0.18272048 0.11127512
00000000: 6812 dcbd 5920 e9bd e253 e5bd 246a f23d
00000010: 18fe fc3c c22f f53d 109e 8c3d 986e 1bbe
00000020: 1740 303d 4ad2 90bc ccef 04be 255d 993e
00000030: c082 793c 2cf9 94be bdfb bd3d a0cd 96bd
00000040: 6e1d 7b3e b196 2bbd 43c0 4abd 42c1 9cbe
00000050: abc7 3f3e 75ba d3bd 4ac9 533e 1eac 043e
00000060: 7f6c 613d 05e4 0c3e 3609 193d e860 8a3e
00000070: 43fa 0a3d a1be d83c 431f 003d 993b 16bd
00000080: c5fe d3bd 93aa 08be 063f 82be 5e35 ba3d
00000090: 14ed 9cbe 6c9f 6d3d 0ede 5a3c ea31 8f3e
000000a0: bbb1 20be a7ed 143d dc5e d9bd 4eed 613c
000000b0: 4315 9bbd 9b87 fd3d e9fc ed3d 8d9a 713e
000000c0: 27ae 0b3d e07c e5bd b15e 39be d599 333d
000000d0: be5e ca3d 8b6b 8cbc eb4e 183e 19ed 99bc
000000e0: f8ac 7fbd 2558 c0bc fa84 073e db79 94bb
000000f0: 93fe 3fbe df41 ae3d 968b 113d bf6a 41be
00000100: f8f0 f73d b7f5 033e ead6 df3d 9237 283d
00000110: a3a1 c5be 54ec 8f3e 47f7 833d c653 85bd
00000120: 648d 32be aba2 043d 8d5a 163e 33eb 81bd
00000130: e8c1 923c b083 a2bd 79aa 9bbe f790 4ebe
00000140: 92a0 dabd 58a7 ae3d 8ff1 84bd f487 78be
00000150: 0849 f83d 16bc d53d 5463 fdbd 7687 e2bd
00000160: 032a 3cbd 504c c3bb 532c eb3c 1ea9 c4bd
00000170: 4082 9cbc 7118 13be 1712 373c 4442 873d
00000180: 42b8 21be 2c82 9a3d e890 babd 4d3f b3bd
00000190: 58ff 6f3d 7c8a bbb9 fb11 ff3d c837 263b
000001a0: 8792 093e bff6 87bd 8afa 763c 480b 41be
000001b0: 249b bdbd 7daf 933e 2338 ef3b 392e a2bd
000001c0: e083 8fbd 8293 2fbe f540 d03d bed2 c6bd
000001d0: 32b8 443e 321e 6cbc a7b1 dfbd 5f30 5ebc
000001e0: 7563 aa39 8b10 16be c337 943c 9dd2 8e3e
000001f0: da72 9cbd ff51 8cbd b0a2 273d 9570 3cbc
00000200: c6a1 ef3d 9933 6b3e 62c2 0ebe 0b0b 33bd
00000210: e109 13bd ccfc 353d 3dfd 9fbd 7a94 b2bd
00000220: f470 9c3d 8a81 04be 1553 41bd d05b 10be
00000230: 4473 60bd 175a 483d 106b 7c3d 1def 653c
00000240: f1fb 5fbe 9c86 c5bd e7fa 8b3c 5cf5 c53d
00000250: 70ee 85be 2c87 48be e2c1 4d3d be0c a53d
00000260: f381 cbbd 4fa0 c03c 68cc 36be a584 e33d
00000270: c118 b4be 0470 cdbe 6ae7 92bc f2cf a43d
00000280: e205 bebe 9658 e6bd ea7f fabd 6315 54bc
00000290: 1eb4 d33d 4edd 35bd 520d f3bc 7d81 133e
000002a0: 1988 b3bd 0b8c 61ba f953 6b3d 34f6 253d
000002b0: 4aec 073e a2cf 6abc f1b2 3fbc c46c ac3d
000002c0: 8998 74bd d969 94bc c603 f2bd 7735 303e
000002d0: 24a2 5dbc 3c17 31be 9aff c1bd ff32 81be
000002e0: bf2a 383e 1591 f6bd 8600 1cbe 70b3 1dbd
000002f0: d0b7 223e e01a bfbc 8dfa 08be 7c52 cfbd
00000300: 76c0 25be 6626 2b3e 5fed db3d f965 963d
00000310: affb 5d3d fad0 87bd f73c e1be 227b 00bd
00000320: cede 2c3e 923c 23be 4d7d 093d 9408 fe3c
00000330: 3fd9 e63d 7315 d8bd d663 acbd b632 84bc
00000340: 158c 1cbe 9e3b 8d3d 1bfb acbd efb0 553c
00000350: 6b87 f1bd d6c9 513e 9a6e a8bc 9ec0 4dbe
00000360: 7f69 43bc faac babd deba 293d ae3c 58be
00000370: 428a 55be 7c92 3a3e 5dbb ae3d 66a2 f7bd
00000380: e314 7ebd 9754 d1bb 9ca7 6dbd e0a4 66be
00000390: 25b0 de3d 21cd 2c3d 0c1b d63d d513 3c3e
000003a0: 5d67 e03d ae9f ab3e dc5f c7bd ebee e1bd
000003b0: 1980 693d df89 06bc 9735 0f3e 732b 90bd
000003c0: 0508 1d3d 28d4 db3b 2d20 ec3d 0b15 723c
000003d0: 30d2 343e 2c13 8cbd df03 53bd 5d1d 0dbe
000003e0: 418f 603d 18a6 c2b9 1842 b23e 8317 77bd
000003f0: 93da e83d 3df7 a53d 141b 3bbe 36e4 e33d

network_body._body_endoder.seq_layers.2.bias f4 [128]
-0.006547886 -0.00045836222 0.019337868 0.004902272 0.012257245 0.008155275 -0.018852958 -0.016023634
0.0027845465 -0.0073601697 -0.0062464834 -0.008508484 -0.003581206 -0.0044919476 -0.004693116 -0.009340889
-0.004324499 0.0015583116 -0.01631408 0.0015598863 -0.004637228 -0.014082818 0.0028690172 0.006122872
-0.0047366507 -0.017023293 -0.005889933 0.00020155846 0.0030954028 -0.00069007266 0.006587665 -0.0013093839
-0.009840811 -0.0030713908 -0.007660836 0.020860652 0.007545024 0.0036035453 -0.012120213 -0.008549888
-0.010691622 0.009037184 -0.010005872 -0.010511244 -0.00152553 0.002718496 -0.00069349556 -0.011387924
0.016342998 0.00374198 -0.012411355 0.0031832913 -0.005984895 -0.012125857 -0.0114175575 -0.00536541
0.014885049 -0.00689512 0.005787721 0.018977404 0.0061774575 0.016965501 -0.013159136 -0.013889362
-0.020719673 0.00045696364 0.00040740505 -0.0047661294 -0.004698006 -0.0016393169 0.0026853255 0.027840557
0.007386973 -0.0012311264 0.0075673065 0.003175529 0.0072496333 0.012581108 -0.021448711 0.013067874
-0.0034365023 0.0032216492 -0.0015045434 0.008137008 0.02810146 -0.00039474064 -0.0050412947 -0.01147627
0.0119272955 -0.0058019166 -0.004622024 0.00097116857 0.00010043322 -0.0054708915 -0.0048053865 -0.0077815005
0.009443903 0.0025909797 0.0019503153 -0.0022126709 0.009583294 0.013484596 -0.00381361 -0.008073585
-0.017231978 0.002238428 0.0061983266 -0.017316246 0.002732192 0.0038950173 -0.015984338 -0.016143737
-0.0033396548 -0.010587944 0.009830591 -0.0033153256 -0.0047570732 0.0077600786 -0.009003396 -0.0020876536
0.0037430287 -0.015527406 0.00514861 0.007478021 -0.0017317645 0.0061290734 -0.016165912 -0.010001532
00000000: a68f d6bb 5650 f0b9 736a 9e3c 3da3 a03b
00000010: 9dd2 483c b49d 053c 8571 9abc ff43 83bc
00000020: f07c 363b 942d f1bb 4daf ccbb 2b67 0bbc
00000030: abb2 6abb 3031 93bb b6c8 99bb 870a 19bc
00000040: 87b4 8dbb 4340 cc3a 1ba5 85bc 1975 cc3a
00000050: e3f3 97bb 9fbb 66bc 1f06 3c3b 5fa2 c83b
00000060: e835 9bbb 6f74 8bbc 5700 c1bb 7059 5339
00000070: 3edc 4a3b fee5 34ba 57dd d73b a29f abba
00000080: 5a3b 21bc 6349 49bb c007 fbbb f5e3 aa3c
00000090: 403c f73b 7529 6c3b dc93 46bc d414 0cbc
000000a0: ea2b 2fbc b210 143c abef 23bc 5a37 2cbc
000000b0: 4bf4 c7ba cb28 323b b3cb 35ba 6a94 3abc
000000c0: c0e1 853c 023c 753b ff58 4bbc c49e 503b
000000d0: f01c c4bb 88ab 46bc b510 3bbc 52d0 afbb
000000e0: 6ce0 733c 75f0 e1bb eca6 bd3b 8076 9b3c
000000f0: 456c ca3b 3cfb 8a3c 6b99 57bc 3590 63bc
00000100: 4ebc a9bc 9f94 ef39 fb98 d539 312d 9cbb
00000110: bbf1 99bb 59de d6ba 49fc 2f3b e111 e43c
00000120: 6c0e f23b bf5d a1ba 2bf7 f73b 891c 503b
00000130: 558e ed3b fe20 4e3c 35b5 afbc a31a 563c
00000140: f136 61bb 4e22 533b 1934 c5ba 1651 053c
00000150: 0835 e63c 31f5 ceb9 7231 a5bb f706 3cbc
00000160: b46a 433c 011e bebb 5974 97bb 0596 7e3a
00000170: ad9f d238 2a45 b3bb 8176 9dbb f5fb febb
00000180: 9aba 1a3c 6dcd 293b b9a1 ff3a 7502 11bb
00000190: 4003 1d3c 7fee 5c3c c2ed 79bb 1247 04bc
000001a0: 142a 8dbc 97b2 123b 551b cb3b cdda 8dbc
000001b0: 930e 333b 8c43 7f3b 96f1 82bc df3f 84bc
000001c0: 1cde 5abb 0e79 2dbc 7d10 213c ef45 59bb
000001d0: 39e1 9bbb 4248 fe3b fb82 13bc 04d1 08bb
000001e0: 9a4d 753b a966 7ebc acb5 a83b 300a f53b
000001f0: 60fc e2ba 65d6 c83b 606e 84bc 77dd 23bc

network_body._body_endoder.seq_layers.2.weight f4 [128, 128]
0.17506348 -0.15214233 0.12988639 -0.1883937 0.08094302 -0.04244832 0.061281234 -0.037359577
-0.033522293 -0.14752065 0.09196732 0.0052674054 0.048532628 0.08083347 0.075052656 -0.10137325
-0.17639594 0.21480872 -0.039160527 0.04449086 -0.02308054 -0.05853843 0.062341515 0.0047768718
-0.09291626 -0.035341624 0.021582989 0.015307524 0.080400795 -0.13577029 -0.06688907 0.041073892
0.03942293 -0.09926249 -0.036670893 -0.021676797 -0.06087399 -0.004573637 0.029388415 -0.007615951
0.0067976327 -0.06086435 -0.09953788 0.028220968 0.025462689 0.024039082 0.050637834 0.015242454
-0.018394314 0.19855039 -0.16104195 0.02687476 0.014943361 -0.22074714 0.033341184 -0.14242277
-0.100710474 -0.16205186 0.040781464 0.054338727 0.11809632 0.0413687 -0.010854897 -0.047132112
0.23487505 0.20636483 -0.052786727 -0.0233503 -0.1839951 0.033299755 0.07574844 -0.04866631
-0.11251166 -0.099206455 0.18594569 0.014207038 -0.038816787 0.07403766 0.084622905 0.12838268
-0.09879189 -0.08705007 -0.08067581 -0.05968208 -0.0018222836 -0.11246042 -0.025955467 -0.03775003
0.05313373 0.10086187 0.082930624 0.06866207 0.03916405 0.17034435 0.034938395 0.111951545
-0.04713149 0.16573018 -0.2716778 -0.001362805 0.005301196 -0.124202095 0.022887675 0.08758231
-0.08777516 0.06959266 0.042264942 0.020305483 0.00829422 0.052259896 0.0076755574 0.023850696
-0.12330218 0.021274794 -0.08858007 -0.090287656 0.08629896 0.10288149 -0.008418655 -0.08459959
-0.05000831 0.0025157614 -0.014564426 -0.13045542 0.029108759 -0.04708902 0.0764511 0.15315087
-0.14141108 -0.019470995 0.06002549 -0.012030448 -0.060089905 0.07200353 -0.02907927 -0.15105571
0.010985481 -0.022336131 -0.015066746 0.12174089 0.01975449 0.047067113 0.10708659 0.11439605
0.02993715 -0.012809101 0.091541655 -0.011429703 0.027027199 0.029143795 -0.028491432 -0.015719987
0.16891344 -0.013653748 0.09188931 0.097122036 0.041050382 -0.17300557 0.07226137 -0.16830869
-0.08463365 0.10638619 0.04887292 0.019712655 0.017389059 0.014285594 0.04113476 -0.016587788
-0.15011847 -0.16139542 0.18077253 0.057459198 0.11559082 0.0070162686 -0.008512259 -0.09133873
0.029552026 0.012760317 -0.03548501 -0.099937506 -0.055348795 0.024876721 -0.12628175 0.07686808
0.005560735 -0.013045739 0.07552142 0.106139936 -0.10485609 0.15205461 0.007953823 -0.013174274
-0.040506028 0.02917968 0.120514445 -0.094317526 0.012199925 0.06242726 0.069746606 -0.011971786
-0.071566 0.0022199594 -0.0065920157 -0.036203295 -0.16230556 -0.14564852 -0.009221237 0.02993841
-0.06571931 -0.03404399 0.085411854 0.029181488 0.11596369 -0.09409553 -0.1129213 0.026438823
0.019252913 -0.097753696 -0.03363873 -0.11772873 0.0053794226 -0.139202 0.0920094 0.0029401092
-0.015166664 -0.07806186 -0.031782582 0.06332112 -0.04900689 0.029051814 -0.07539071 0.038198426
0.01498552 -0.016552892 0.19836585 0.06518719 0.07838957 0.14947803 -0.11454893 -0.027529527
-0.031187845 0.028540775 0.06429005 0.06552617 0.079458795 0.02657934 -0.027938459 -0.10734427
0.07635181 0.0053896136 -0.120501526 -0.07107066 0.018165512 0.11522732 0.04492197 -0.040246617
00000000: d743 333e 33cb 1bbe f000 053e 47ea 40be
00000010: 74c5 a53d 4ade 2dbd 0802 7b3d 5b06 19bd
00000020: ac4e 09bd a70f 17be 5d59 bc3d 339a ac3b
00000030: 26ca 463d 058c a53d 35b5 993d c79c cfbd
00000040: 23a1 34be d1f6 5b3e ca66 20bd 0c3c 363d
00000050: 6713 bdbc fec5 6fbd d159 7f3d 4e87 9c3b
00000060: e14a bebd 61c2 10bd cfce b03c 69cc 7a3c
00000070: 2ca9 a43d 5e07 0bbe 23fd 88bd 193d 283d
00000080: f079 213d 224a cbbd 3834 16bd 8a93 b1bc
00000090: 0157 79bd 73de 95bb f9bf f03c 3a8f f9bb
000000a0: adbe de3b e64c 79bd 84da cbbd a92f e73c
000000b0: 2197 d03c 9ced c43c 9e69 4f3d 7cbb 793c
000000c0: acaf 96bc cb50 4b3e 2ee8 24be 7528 dc3c
000000d0: 00d5 743c 8a0b 62be c490 083d 46d7 11be
000000e0: 4b41 cebd ecf0 25be 770a 273d 4992 5e3d
000000f0: 7cdc f13d 3a72 293d bdd8 31bc 9a0d 41bd
00000100: 1683 703e 4d51 533e e536 58bd 2149 bfbc
00000110: 3669 3cbe 5365 083d 0022 9b3d 5356 47bd
00000120: 836c e6bd c12c cbbd 8c68 3e3e a3c4 683c
00000130: 5afe 1ebd 0fa1 973d c64e ad3d c076 033e
00000140: 6753 cabd 4f47 b2bd 5c39 a5bd 3275 74bd
00000150: b1d9 eeba a651 e6bd 8fa0 d4bc c79f 1abd
00000160: c1a2 593d ab90 ce3d 88d7 a93d b39e 8c3d
00000170: 7c6a 203d c06e 2e3e 901b 0f3d da46 e53d
00000180: f30c 41bd 2cb5 293e 5a19 8bbe 26a0 b2ba
00000190: a8b5 ad3b ab5d febd ef7e bb3c 5b5e b33d
000001a0: 77c3 b3bd 9986 8e3d 011e 2d3d af57 a63c
000001b0: 7be4 073c 790e 563d 3e83 fb3b 8962 c33c
000001c0: da85 fcbd 7a48 ae3c 7869 b5bd bce8 b8bd
000001d0: 82bd b03d 88b3 d23d 66ee 09bc 8d42 adbd
000001e0: 83d5 4cbd 79df 243b a19f 6ebc 1b96 05be
000001f0: 7e75 ee3c 6be0 40bd 6592 9c3d 95d3 1c3e
00000200: 11ce 10be a381 9fbc 4add 753d 5b1b 45bc
00000210: d520 76bd 9676 933d a637 eebc 59ae 1abe
00000220: 72fc 333c 43fa b6bc 83da 76bc 4a53 f93d
00000230: 2bd4 a13c 72c9 403d 3750 db3d 7a48 ea3d
00000240: c13e f53c 43dd 51bc 317a bb3d a643 3bbc
00000250: 2568 dd3c f8be ee3c dd66 e9bc 34c7 80bc
00000260: a5f7 2c3e f8b3 5fbc 7630 bc3d ebe7 c63d
00000270: 7224 283d 5f28 31be c5fd 933d 1d59 2cbe
00000280: 6854 adbd 01e1 d93d f92e 483d 6f7c a13c
00000290: 8073 8e3c 200e 6a3c ec7c 283d 1de3 87bc
000002a0: a8b8 19be d744 25be 6f1c 393e 565a 6b3d
000002b0: e1ba ec3d bae8 e53b 0177 0bbc cd0f bbbd
000002c0: 1717 f23c a610 513c bb58 11bd 09ac ccbd
000002d0: 6bb5 62bd 44ca cb3c 0150 01be 036d 9d3d
000002e0: d336 b63b ccbd 55bc f9aa 9a3d e55f d93d
000002f0: cabe d6bd 34b4 1b3e c050 023c e9d8 57bc
00000300: a6e9 25bd 390a ef3c 47d0 f63d 8c29 c1bd
00000310: 32e2 473c bab3 7f3d 4fd7 8e3d 4f25 44bc
00000320: 3291 92bd bd7c 113b d601 d8bb e849 14bd
00000330: 6e33 26be e324 15be ac14 17bc 6541 f53c
00000340: d897 86bd b671 0bbd 69ec ae3d 040e ef3c
00000350: 5f7e ed3d 28b5 c0bd 4843 e7bd 3b96 d83c
00000360: 49b8 9d3c 1733 c8bd c4c8 09bd c31b f1bd
00000370: de45 b03b f88a 0ebe 6d6f bc3d d9ae 403b
00000380: 997d 78bc e5de 9fbd 742e 02bd 81ae 813d
00000390: 73bb 48bd 12fe ed3c 7266 9abd f475 1c3d
000003a0: d485 753c ee99 87bc 6b20 4b3e dd80 853d
000003b0: b68a a03d c510 193e a198 eabd 9a85 e1bc
000003c0: a77d ffbc 58ce e93c 80aa 833d 9632 863d
000003d0: 4bbb a23d ebbc d93c 32df e4bc 50d7 dbbd
000003e0: 565e 9c3d 5b9b b03b 81c9 f6bd 7f8d 91bd
000003f0: d7cf 943c 4dfc eb3d 1a00 383d a3d9 24bd

network_body._body_endoder.seq_layers.4.bias f4 [128]
0.0052283327 -0.0032804485 -0.009455262 -0.01132091 -0.01272298 0.0014228764 -0.005966663 0.008487613
0.010524288 -0.004186173 0.0008301582 -0.0003860415 -0.022741599 0.0013121193 -0.00053396594 -0.0040543266
0.028395837 0.003420923 -0.017058253 -0.0018521523 -0.016727954 -0.004705195 0.019484267 -0.010322559
-0.004315927 0.01848457 0.0049562333 -0.010920704 -0.027905697 0.007890502 0.011284564 0.019296627
0.0181351 0.0047296286 -0.01644042 -0.021170057 -0.020960389 -0.0063378178 -0.0014207256 -0.012309553
-0.0012751187 -0.007632088 0.0013763756 -0.0023216626 -0.0075276596 -0.0011528182 0.0061891307 -0.004365807
-0.017411752 -0.008510077 -0.011213731 -0.02647125 -0.00514831 -0.0004055069 -0.0017179775 -0.004535213
-0.0072328355 -0.0076215677 -0.00020423062 -0.0029173295 -0.014116271 0.0064504715 -0.008729836 0.0053065424
0.0049397587 -0.001409701 0.0031359072 -0.01698488 -0.0073543782 -0.00027763177 0.0016666763 0.006200873
-0.012097269 -0.010497196 0.011446728 -0.005815541 -0.001841115 0.020072948 -0.0039495886 -0.016778793
0.0064416574 -0.026243206 -0.008526455 0.010127705 -0.023622539 -0.0056579616 -0.021375617 0.0045651523
0.0055387598 0.00690552 0.009310545 0.007421474 -0.0018850561 0.0035893775 -0.004070568 0.0066022472
-0.017360581 0.011763516 0.0048979665 -0.033632446 -0.015110667 0.0032235866 0.002579041 0.005062314
0.006334208 -0.0002763602 0.014547394 -0.011419304 0.025708288 -0.016523547 -0.02066209 0.001531444
-0.026320277 0.0121830795 -0.0040309257 0.01672017 0.0030522887 -0.018510012 0.00044134408 -0.010998017
0.0033091474 0.0050535314 -0.0022127512 -0.01147517 0.013722224 -0.021513272 0.006058161 0.026385935
00000000: 6f52 ab3b cbfc 56bb 3eea 1abc 577b 39bc
00000010: 0c74 50bc cf7f ba3a ff83 c3bb a10f 0b3c
00000020: 106e 2c3c 2a2c 89bb f99e 593a 9d65 cab9
00000030: 974c babc 6bfb ab3a d9f9 0bba 28da 84bb
00000040: 639e e83c 9031 603b c0bd 8bbc ebc3 f2ba
00000050: 1009 89bc 092e 9abb 789d 9f3c f31f 29bc
00000060: 9f6c 8dbb f46c 973c e667 a23b c1ec 32bc
00000070: 7d9a e4bc 2a47 013c e4e2 383c f613 9e3c
00000080: 1090 943c 00fb 9a3b 0fae 86bc d46c adbc
00000090: 1fb5 abbc 78ad cfbb a437 baba 02ae 49bc
000000a0: e221 a7ba 9816 fabb 8067 b43a 0927 18bb
000000b0: 96aa f6bb 291a 97ba 31ce ca3b 0b0f 8fbb
000000c0: 17a3 8ebc da6d 0bbc ccb9 37bc 3cda d8bc
000000d0: 28b3 a8bb 379a d4b9 c22d e1ba 209c 94bb
000000e0: 6c01 edbb 58be f9bb bd26 56b9 ab30 3fbb
000000f0: ef47 67bc 7a5e d33b 9607 0fbc 81e2 ad3b
00000100: b3dd a13b b7c5 b8ba cb83 4d3b e023 8bbc
00000110: fffc f0bb 1b8f 91b9 6074 da3a b130 cb3b
00000120: a033 46bc 6efc 2bbc 0f8b 3b3c 4b90 bebb
00000130: 9151 f1ba 0670 a43c 8d6b 81bb ae73 89bc
00000140: 8a14 d33b fefb d6bc 8bb2 0bbc acee 253c
00000150: 0e84 c1bc 6c66 b9bb eb1b afbc 4697 953b
00000160: 7c7e b53b b347 e23b 428b 183c d62f f33b
00000170: fd13 f7ba c33b 6b3b 6662 85bb aa57 d83b
00000180: c737 8ebc c3bb 403c 1f7f a03b 2dc2 09bd
00000190: bb92 77bc cf42 533b 2105 293b c5e1 a53b
000001a0: 308f cf3b 70e4 90b9 3158 6e3c 0818 3bbc
000001b0: 309a d23c 645c 87bc 8b43 a9bc bcba c83a
000001c0: 9f9d d7bc 8a9b 473c db15 84bb bdf8 883c
000001d0: e808 483b 4fa2 97bc 3364 e739 0731 34bc
000001e0: 48de 583b 1898 a53b ce03 11bb 5a02 3cbc
000001f0: 2ed3 603c 9a3c b0bc 8a83 c63b 5127 d83c

network_body._body_endoder.seq_layers.4.weight f4 [128, 128]
0.087533094 0.05930182 -0.02845302 0.095072374 0.16651244 0.050939668 0.014592002 0.0051060272
-0.14509211 -0.06411421 -0.13193439 0.10480748 0.042777605 0.03260136 -0.017611569 -0.09129012
0.15159273 0.06780273 0.08138537 0.04232635 -0.053723328 0.00896021 -0.17782335 -0.13333741
0.025574416 -0.04269007 -0.007038534 0.1212584 -0.019568667 0.13358699 -0.025133224 -0.1317791
-0.021511514 0.01877995 0.060647972 -0.15433657 -0.054542847 0.023245664 -0.049570847 -0.1390373
0.26006582 0.05220666 -0.03422642 0.015657565 0.00847579 0.11460259 -0.1366575 -0.0072475225
0.08834624 -0.025261784 0.124644734 0.035146717 0.085962944 0.084261544 -0.057673473 -0.0055045285
0.11000011 0.00690675 -0.012498895 -0.16839476 0.13584226 0.11341384 0.00036261216 0.014341049
0.035701003 -0.03593089 0.16365594 -0.03082643 0.03621221 0.062349685 -0.044793684 0.045001402
0.018165562 0.12573537 -0.052259665 -0.1599461 -0.04094111 0.09597123 0.0026845841 -0.036290247
0.068070866 -0.040541712 -0.22485009 0.114722915 -0.15999645 0.021396235 0.061300777 -0.167407
0.115575194 0.016666966 -0.0240088 -0.07802693 -0.047021803 0.14301032 -0.057235885 0.10316698
-0.040751193 -0.028610444 0.020291604 -0.051827036 0.059385773 -0.02256676 -0.1306364 0.068838686
-0.053799655 0.09590087 -0.03061746 -0.06300235 -0.2587921 -0.004980536 -0.034340113 -0.110481374
-0.02576917 -0.053155024 0.07753509 0.11706246 0.10257804 0.13344598 0.089920886 -0.050002333
0.08607109 0.09922135 -0.0041182586 0.031070516 -0.10219529 -0.18656585 -0.01771467 -0.0880185
0.13738754 0.089096 -0.13487987 0.10816734 0.058781505 0.016367003 -0.029075252 -0.009340569
0.10918236 -0.10683434 0.07854642 -0.077173024 -0.19950281 -0.009736217 0.011921664 0.04017469
0.043546755 0.04476003 -0.08557176 0.084878884 0.06434292 -0.0113810245 0.019270053 0.02877305
-0.040992502 -0.0021544895 0.0075608552 0.14709717 -0.18588221 0.0034814025 -0.04570969 0.15867427
-0.12068647 0.057269078 0.049273737 -0.10784255 -0.08981874 0.056590974 0.08976715 0.087949954
0.10704194 -0.18815745 0.08543899 0.16640735 0.050597392 0.019298734 -0.114360444 0.04929478
0.026558053 -0.02879113 0.107164174 -0.03265841 -0.03673298 0.13284935 0.09262693 0.07061227
-0.0059604463 0.036641236 0.10191429 0.006434084 0.17108257 -0.1789799 0.012532376 -0.12253875
-0.0047325087 -0.19237208 -0.19434161 0.2366398 -0.0460349 0.027454194 -0.032564532 0.08782944
-0.011120345 -0.062217284 0.07672377 -0.019556455 0.030646114 -0.08595252 0.11860746 0.075328395
-0.09156312 0.09059647 -0.023800086 -0.05385078 -0.08616829 0.08475011 0.013118931 -0.0503079
-0.06257293 0.11791011 -0.020784827 -0.028250404 -0.064641014 0.13119276 -0.04678545 -0.018116111
0.008564857 0.02461184 0.030438896 -0.030867504 -0.22635634 -0.0165653 -0.077859744 0.03818852
0.0608581 0.04317216 -0.13507386 0.1481483 0.03862336 0.0012808897 -0.0799799 0.029231623
-0.011777587 0.049440674 -0.009698804 0.04249453 0.10781252 0.14079434 0.035992756 -0.09865575
-0.06654516 -0.02314648 -0.124911465 0.053824343 -0.04244131 -0.0036574823 0.10151175 0.10894093
00000000: 8d44 b33d 77e6 723d 4f16 e9bc 4eb5 c23d
00000010: 3d82 2a3e 1da6 503d 4b13 6f3c 7650 a73b
00000020: 0793 14be 504e 83bd cf19 07be 4ea5 d63d
00000030: 9237 2f3d 0189 053d 2346 90bc 50f6 babd
00000040: 203b 1b3e 28dc 8a3d 5fad a63d 655e 2d3d
00000050: fe0c 5cbd d8cd 123c 5317 36be 9a89 08be
00000060: 7081 d13c c8db 2ebd 81a3 e6bb 5356 f83d
00000070: 784e a0bc 07cb 083e 31e4 cdbc 1af1 06be
00000080: ea38 b0bc 69d8 993c 026a 783d 680a 1ebe
00000090: 5268 5fbd b16d be3c cd0a 4bbd cb5f 0ebe
000000a0: 5927 853e a7d6 553d 0131 0cbd 4b44 803c
000000b0: 0ade 0a3c c3b4 ea3d f2ef 0bbe a07c edbb
000000c0: e0ee b43d cdf1 cebc bd45 ff3d 01f6 0f3d
000000d0: 570d b03d 5191 ac3d 053b 6cbd 555f b4bb
000000e0: bd47 e13d 0552 e23b 2ac8 4cbc ad6f 2cbe
000000f0: 3c1a 0b3e 8445 e83d fb1c be39 b8f6 6a3c
00000100: 373b 123d 452c 13bd 6c95 273e b687 fcbc
00000110: 4153 143d 6262 7f3d 9579 37bd 6453 383d
00000120: f2cf 943c c6c0 003e 3b0e 56bd e9c8 23be
00000130: deb1 27bd 908c c43d d9ef 2f3b 15a5 14bd
00000140: bd68 8b3d 110f 26bd 1a3f 66be d9f3 ea3d
00000150: 1cd6 23be 2847 af3c 8616 7b3d be6c 2bbe
00000160: b0b2 ec3d 2989 883c 1aae c4bc 95cc 9fbd
00000170: ef99 40bd 4c71 123e 2d70 6abd 3649 d33d
00000180: b9ea 26bd 7360 eabc 943a a63c 9648 54bd
00000190: 7f3e 733d eddd b8bc 8cc5 05be 4cfb 8c3d
000001a0: 075d 5cbd ad67 c43d 78d1 fabc 6007 81bd
000001b0: 6680 84be c433 a3bb 38a8 0cbd 0f44 e2bd
000001c0: de19 d3bc 15b9 59bd b8ca 9e3d 71be ef3d
000001d0: 6f14 d23d 10a6 083e 7128 b83d 3fcf 4cbd
000001e0: 0a46 b03d 9034 cb3d 75f2 86bb 9887 fe3c
000001f0: c44b d1bd 1e0b 3fbe 5b1e 91bc 0b43 b4bd
00000200: 52af 0c3e f777 b63d f31d 0abe d786 dd3d
00000210: e0c4 703d 1814 863c 392f eebc 3009 19bc
00000220: 009b df3d f6cb dabd f2dc a03d e40c 9ebd
00000230: 774a 4cbe a784 1fbc 1553 433c 378e 243d
00000240: 155e 323d 4b56 373d 3f40 afbd fbd4 ad3d
00000250: 39c6 833d 7a77 3abc 3bdc 9d3c 76b5 eb3c
00000260: c1e7 27bd 5632 0dbb 0dc1 f73b a4a0 163e
00000270: e857 3ebe 3e28 643b 153a 3bbd 827b 223e
00000280: 782a f7bd fb92 6a3d 42d3 493d 8edc dcbd
00000290: e3f2 b7bd f0cb 673d d7d7 b73d 1b1f b43d
000002a0: ce38 db3d 59ac 40be a3fa ae3d b066 2a3e
000002b0: 363f 4f3d 6118 9e3c cf35 eabd 53e9 493d
000002c0: 4690 d93c 60db ebbc e478 db3d d3c4 05bd
000002d0: 5275 16bd a909 083e 30b3 bd3d 2a9d 903d
000002e0: d94f c3bb 1f15 163d 70b8 d03d 02d5 d23b
000002f0: 4530 2f3e 8246 37be 9854 4d3c 99f5 fabd
00000300: 2913 9bbb 30fd 44be 7d01 47be b451 723e
00000310: 178f 3cbd 9ee7 e03c 6362 05bd ecdf b33d
00000320: 1c32 36bc 8dd7 7ebd 5a21 9d3d dc34 a0bc
00000330: 8f0d fb3c e007 b0bd 78e8 f23d c645 9a3d
00000340: 7285 bbbd a48a b93d 66f8 c2bc a392 5cbd
00000350: 0079 b0bd 7791 ad3d c9f0 563c a80f 4ebd
00000360: 3c26 80bd db7a f13d f144 aabc 646d e7bc
00000370: 8262 84bd 6557 063e 1aa2 3fbd 3d68 94bc
00000380: 9d53 0c3c c59e c93c fe5a f93c d9dd fcbc
00000390: f5c9 67be f4b3 87bc ee74 9fbd 916b 1c3d
000003a0: 5846 793d 4ad5 303d cd50 0abe 30b4 173e
000003b0: 8733 1e3d 87e3 a73a 80cc a3bd 2877 ef3c
000003c0: c8f6 40bc 4e82 4a3d bbe7 1ebc bf0e 2e3d
000003d0: cfcc dc3d 642c 103e 246d 133d 070c cabd
000003e0: d448 88bd b09d bdbc 95d1 ffbd ea76 5c3d
000003f0: f0d6 2dbd 5fb2 6fbb 64e5 cf3d 6c1c df3d
