mlagents/Assets/results/TestLearning2/RollerBall/RollerBall-309.pt (torch, 331631 bytes, 16 tensors)

network_body._body_endoder.seq_layers.0.weight f4 [128, 53]
0.14241199 0.17404775 -0.21157287 -0.35882187 -0.04405213 -0.26677644 -0.15011077 -0.17714113
0.054503217 -0.049259316 -0.18609202 -0.16652083 0.05218825 -0.041318797 0.14191303 0.12377297
0.15472226 -0.10576635 0.13082433 0.19089796 0.012835289 -0.059512466 0.054218378 -0.0048251036
0.18528967 -0.05735137 -0.05681161 0.13012338 -0.24494685 0.12213723 0.1574925 0.1619107
-0.36967725 0.08554567 0.053642724 0.104354404 0.05871653 -0.02326241 -0.01719382 -0.016541576
-0.03009764 -0.30676448 -0.047343973 -0.144278 -0.09595847 -0.17369296 -0.09267861 -0.2987032
-0.16899371 -0.13081548 -0.01490917 -0.04705116 -0.11880978 -0.06355355 -0.24613735 -0.06870615
-0.043797813 0.12949784 0.13123553 -0.045072433 0.2663751 -0.14518802 -0.11261934 0.08852868
0.09345495 0.322194 -0.014257498 0.1104873 -0.12028348 0.17584288 -0.013730732 0.06428434
-0.03896301 0.1844458 -0.19777428 0.0145098055 -0.033636317 -0.105067424 -0.05448219 -0.03534289
0.020556368 -0.1016006 -0.25147036 0.015138462 -0.040194348 0.17884283 0.15279247 0.00075159926
-0.068671875 0.14627045 0.018676884 0.018585423 -0.2799323 0.10891799 -0.04884157 -0.0011604482
0.07267509 0.1319804 -0.07274945 -0.18456331 0.090323575 0.12857033 0.015966324 -0.03465431
0.13996544 0.14431894 0.013427133 -0.14729069 0.07373107 -0.13683675 -0.08392273 0.21791501
0.010952114 0.24605653 -0.13827172 0.057584368 -0.07933045 -0.12983802 0.028555691 0.14232953
0.12523958 -0.3060035 -0.18646042 -0.044777144 -0.024327932 0.20704155 0.22224979 -0.21339771
0.13369963 -0.17059137 -0.22907066 -0.055048943 -0.31456372 0.0512166 -0.03963351 -0.15971069
-0.12138141 -0.42492366 -0.06881696 -0.06978517 -0.12737739 -0.12642376 -0.29428205 0.18381768
-0.023866793 0.1975074 -0.045282785 0.23803632 -0.08367842 -0.063226074 0.027232613 -0.059151553
-0.13611944 -0.23766135 0.06214533 -0.06145566 0.061164986 -0.1546592 -0.25043204 -0.18561083
-0.06409641 -0.134008 0.18075116 -0.12507407 -0.05854095 -0.1674164 0.19961213 -0.10550841
-0.03126807 -0.020086128 -0.057996906 0.22141209 0.153925 -0.11803124 -0.05554648 -0.03659269
0.052176718 -0.06994566 0.020338887 -0.110374 -0.15246741 0.023710318 -0.112628736 0.22865602
0.03671824 0.41607687 0.052521113 -0.07007904 0.020847734 0.10416153 0.02689672 0.13915615
-0.13346569 -0.035240114 -0.09209696 0.03310967 0.05704911 -0.12650947 0.004393986 0.20458695
0.0019687018 -0.1332674 -0.05364356 0.07079267 0.29956022 0.18941031 -0.1239405 0.20669182
0.15851139 -0.0839012 0.16739397 0.05442931 -0.017205324 -0.1181779 0.18438257 0.0029527997
0.07722279 -0.1316978 -0.05000611 0.12224319 -0.15240894 -0.0459467 -0.15798487 -0.15269153
-0.12929593 -0.06410888 -0.030458216 0.07621043 -0.112104185 -0.036422525 -0.11943673 -0.06679325
0.06720946 0.10366784 -0.054723646 0.08120903 0.05090442 -0.14926627 -0.102657534 0.038554292
0.054300074 -0.18456505 -0.005089881 -0.15273945 -0.16059774 0.077040456 0.050581113 0.15597254
-0.04206498 -0.14162365 0.20820086 -0.13643947 -0.04049858 -0.16340648 0.043998104 0.08422274
00000000: 73d4 113e 9339 323e 8fa6 58be 80b7 b7be
00000010: 0270 34bd ec96 88be a3b6 19be 7c64 35be
00000020: c43e 5f3d 23c4 49bd e88e 3ebe 7084 2abe
00000030: 59c3 553d e63d 29bd a651 113e af7c fd3d
00000040: 836f 1e3e 079c d8bd d0f6 053e c17a 433e
00000050: 1b4b 523c 58c3 73bd 1714 5e3d e71b 9ebb
00000060: 93bc 3d3e 45e9 6abd 4ab3 68bd 103f 053e
00000070: 59d3 7abe 1623 fa3d b745 213e ebcb 253e
00000080: 5646 bdbe 9132 af3d 79b8 5b3d c3b7 d53d
00000090: bf80 703d cf90 bebc 0eda 8cbc 3382 87bc
000000a0: 538f f6bc 3c10 9dbe c1eb 41bd 9dbd 13be
000000b0: e085 c4bd 91dc 31be 48ce bdbd a0ef 98be
000000c0: b00c 2dbe 7ef4 05be 9745 74bc b8b8 40bd
000000d0: 8b52 f3bd 5d28 82bd 6e0b 7cbe cfb5 8cbd
000000e0: 5665 33bd 159b 043e 9b62 063e df9d 38bd
000000f0: 5162 883e 2bac 14be f8a4 e6bd 864e b53d
00000100: 4f65 bf3d 9df6 a43e 4898 69bc 2a47 e23d
00000110: 2f57 f6bd 2810 343e ddf6 60bc 82a7 833d
00000120: ad97 1fbd 5cdf 3c3e 5785 4abe 89ba 6d3c
00000130: 3cc6 09bd 972d d7bd b828 5fbd b5c3 10bd
00000140: d465 a83c fa13 d0bd b9c0 80be 5007 783c
00000150: d4a2 24bd 9322 373e a175 1c3e f906 453a
00000160: d7a3 8cbd ecc7 153e 4400 993c 7540 983c
00000170: 4953 8fbe 6510 df3d 190e 48bd 2e1a 98ba
00000180: add6 943d df25 073e aafd 94bd 2afe 3cbe
00000190: 91fb b83d f1a7 033e cfcb 823c aef1 0dbd
000001a0: 1a53 0f3e 58c8 133e 7afd 5b3c 5fd3 16be
000001b0: 5100 973d ef1e 0cbe aedf abbd 1d25 5f3e
000001c0: 7f70 333c 3ef6 7b3e 1a97 0dbe 96dd 6b3d
000001d0: 0178 a2bd 42f4 04be a0ed e93c d5be 113e
000001e0: ce3e 003e 7eac 9cbe 7bef 3ebe 3d68 37bd
000001f0: 5f4b c7bc b302 543e 7395 633e ee84 5abe
00000200: 8ee8 083e 81af 2ebe 8091 6abe 007b 61bd
00000210: 7f0e a1be 7fc8 513d bf56 22bd 338b 23be
00000220: d196 f8bd 988f d9be e8ef 8cbd 87eb 8ebd
00000230: 386f 02be 3b75 01be 23ac 96be b43a 3c3e
00000240: 4b84 c3bc 613f 4a3e 717a 39bd cbbf 733e
00000250: 975f abbd ac7c 81bd ee16 df3c e648 72bd
00000260: e562 0bbe 7f5d 73be 1a8c 7e3d eeb8 7bbd
00000270: 2388 7a3d fb5e 1ebe a138 80be c410 3ebe
00000280: fb44 83bd 6539 09be d516 393e 6b13 00be
00000290: a3c8 6fbd 346f 2bbe 1f67 4c3e cb14 d8bd
000002a0: f312 00bd aa8b a4bc 2a8e 6dbd dab9 623e
000002b0: 849e 1d3e 5dba f1bd b584 63bd 37e2 15bd
000002c0: 41b7 553d ac3f 8fbd bd9d a63c c40b e2bd
000002d0: 6b20 1cbe 243c c23c e5a9 e6bd ce24 6a3e
000002e0: dd65 163d 0708 d53e 6120 573d 9a85 8fbd
000002f0: dec8 aa3c a452 d53d 8356 dc3c f37e 0e3e
00000300: 3bab 08be f057 10bd 559d bcbd 019e 073d
00000310: 54ac 693d b38b 01be 6dfb 8f3b 3e7f 513e
00000320: 5605 013b 4077 08be 59b9 5bbd bffb 903d
00000330: f55f 993e c7f4 413e 84d4 fdbd 05a7 533e
00000340: cf50 223e 64d4 abbd 5369 2b3e 45f1 5e3d
00000350: 2ef2 8cbc 4107 f2bd c9ce 3c3e c283 413b
00000360: fb26 9e3d cadb 06be 35d3 4cbd a35a fa3d
00000370: 1711 1cbe 9b32 3cbd c9c6 21be 2b5b 1cbe
00000380: 2766 04be 844b 83bd 8283 f9bc 3714 9c3d
00000390: e196 e5bd c92f 15bd 3f9b f4bd e6ca 88bd
000003a0: 1da5 893d ce4f d43d e725 60bd eb50 a63d
000003b0: 2781 503d 42d9 18be 1d3e d2bd 1beb 1d3d
000003c0: c169 5e3d 9ffe 3cbe 04c9 a6bb bb67 1cbe
000003d0: bc73 24be 63c7 9d3d 242e 4f3d 44b7 1f3e
000003e0: 544c 2cbd ca05 11be 9b32 553e cab6 0bbe
000003f0: d7e1 25bd 0754 27be 5b37 343d f97c ac3d

network_body._body_endoder.seq_layers.0.bias f4 [128]
0.0 0.0 0.0 0.0 0.0 0.0 0.0 0.0
0.0 0.0 0.0 0.0 0.0 0.0 0.0 0.0
0.0 0.0 0.0 0.0 0.0 0.0 0.0 0.0
0.0 0.0 0.0 0.0 0.0 0.0 0.0 0.0
0.0 0.0 0.0 0.0 0.0 0.0 0.0 0.0
0.0 0.0 0.0 0.0 0.0 0.0 0.0 0.0
0.0 0.0 0.0 0.0 0.0 0.0 0.0 0.0
0.0 0.0 0.0 0.0 0.0 0.0 0.0 0.0
0.0 0.0 0.0 0.0 0.0 0.0 0.0 0.0
0.0 0.0 0.0 0.0 0.0 0.0 0.0 0.0
0.0 0.0 0.0 0.0 0.0 0.0 0.0 0.0
0.0 0.0 0.0 0.0 0.0 0.0 0.0 0.0
0.0 0.0 0.0 0.0 0.0 0.0 0.0 0.0
0.0 0.0 0.0 0.0 0.0 0.0 0.0 0.0
0.0 0.0 0.0 0.0 0.0 0.0 0.0 0.0
0.0 0.0 0.0 0.0 0.0 0.0 0.0 0.0
00000000: 0000 0000 0000 0000 0000 0000 0000 0000
00000010: 0000 0000 0000 0000 0000 0000 0000 0000
00000020: 0000 0000 0000 0000 0000 0000 0000 0000
00000030: 0000 0000 0000 0000 0000 0000 0000 0000
00000040: 0000 0000 0000 0000 0000 0000 0000 0000
00000050: 0000 0000 0000 0000 0000 0000 0000 0000
00000060: 0000 0000 0000 0000 0000 0000 0000 0000
00000070: 0000 0000 0000 0000 0000 0000 0000 0000
00000080: 0000 0000 0000 0000 0000 0000 0000 0000
00000090: 0000 0000 0000 0000 0000 0000 0000 0000
000000a0: 0000 0000 0000 0000 0000 0000 0000 0000
000000b0: 0000 0000 0000 0000 0000 0000 0000 0000
000000c0: 0000 0000 0000 0000 0000 0000 0000 0000
000000d0: 0000 0000 0000 0000 0000 0000 0000 0000
000000e0: 0000 0000 0000 0000 0000 0000 0000 0000
000000f0: 0000 0000 0000 0000 0000 0000 0000 0000
00000100: 0000 0000 0000 0000 0000 0000 0000 0000
00000110: 0000 0000 0000 0000 0000 0000 0000 0000
00000120: 0000 0000 0000 0000 0000 0000 0000 0000
00000130: 0000 0000 0000 0000 0000 0000 0000 0000
00000140: 0000 0000 0000 0000 0000 0000 0000 0000
00000150: 0000 0000 0000 0000 0000 0000 0000 0000
00000160: 0000 0000 0000 0000 0000 0000 0000 0000
00000170: 0000 0000 0000 0000 0000 0000 0000 0000
00000180: 0000 0000 0000 0000 0000 0000 0000 0000
00000190: 0000 0000 0000 0000 0000 0000 0000 0000
000001a0: 0000 0000 0000 0000 0000 0000 0000 0000
000001b0: 0000 0000 0000 0000 0000 0000 0000 0000
000001c0: 0000 0000 0000 0000 0000 0000 0000 0000
000001d0: 0000 0000 0000 0000 0000 0000 0000 0000
000001e0: 0000 0000 0000 0000 0000 0000 0000 0000
000001f0: 0000 0000 0000 0000 0000 0000 0000 0000

network_body._body_endoder.seq_layers.2.weight f4 [128, 128]
0.12801848 -0.08844147 -0.0993862 -0.043174416 0.004927299 -0.09537359 -0.180881 -0.015920635
0.16435692 0.18564099 0.17503962 0.0554056 0.07007215 0.15418385 0.12926212 0.053917594
-0.06834434 -0.08706586 0.12248561 -0.04447764 -0.10034895 0.023960633 -0.1897815 0.05418461
-0.02216031 -0.053671952 0.076048404 -0.07039272 0.030985978 0.0019814395 0.001116551 0.11708985
0.02543746 0.08961881 0.082182616 -0.024566812 -0.042992257 -0.120011136 0.11825481 -0.0014993867
-0.064734295 -0.11570214 0.08928458 0.10377053 0.07110285 -0.10632718 -0.15943627 0.059175514
0.0119855 0.10169476 -0.23696028 0.021933848 -0.053870656 -0.033117715 -0.019106416 -0.17508763
0.05361826 -0.016456656 -0.010885835 0.08117369 -0.11666145 0.052049838 0.083076574 -0.087143876
-0.20897342 0.044801045 0.016746512 -0.08246147 0.07093242 0.03045859 -0.13395117 -0.001740077
0.097071216 -0.023841178 0.17450833 -0.024436755 0.02555275 0.09479991 0.09094844 0.038937096
0.14918745 -0.04773727 -0.12825279 -0.029866239 0.01196002 -0.021251578 -0.07038428 -0.06310499
-0.09488301 -0.16422781 -0.044585112 -0.15498473 0.038749523 -0.04939719 0.03238897 0.0993209
0.1472846 -0.006869807 -0.07562486 0.061355505 0.0029498166 -0.10096534 -0.11628458 0.20675959
-0.029548382 -0.08393114 -0.10171501 0.1319661 -0.060283754 0.10388841 -0.071472906 -0.0030817378
0.0024451083 -0.051926296 -0.09356911 0.1517293 0.038553715 -0.10406779 -0.04304669 -0.21725874
0.075678624 0.015526773 -0.06316517 -0.11879792 0.057470202 0.17307478 0.018736402 -0.09846271
0.0062712706 0.06345638 -0.116184436 -0.038854443 -0.106253445 0.10152928 -0.11124356 -0.12290408
-0.05215054 0.07297959 -0.07014469 -0.06478212 -0.009264626 0.02578096 0.053701404 0.09213604
0.07421647 0.21248789 -0.14045493 0.038542118 -0.029088754 -0.014902286 0.01608108 -0.10357546
-0.07384841 0.13910776 -0.034066938 -0.055059843 0.009341841 0.057281777 -0.041801702 -0.011612625
0.11017386 0.0504771 -0.06258142 0.010702781 -0.073420994 0.0022930452 0.081658415 -0.13399649
-0.05811941 -0.08021646 -0.03339584 -0.030943858 -0.029312277 -0.15707336 0.028477343 0.031234765
-0.038534373 -0.081338055 -0.17039226 0.05609528 0.0742075 0.14198045 -0.058986794 0.05615715
-0.18227607 0.06258021 -0.04035453 0.08000217 -0.046725683 0.14307353 0.017703185 0.08929729
-0.007864569 0.0032125285 -0.09575113 -0.2003813 -0.1004352 -0.0008783767 -0.13403812 0.10509943
0.021584136 -0.01402847 -0.021556124 0.13103554 0.0144412285 -0.117882796 -0.081689894 -0.062533006
0.0799066 -0.08362941 0.07987362 -0.022613633 0.10113339 -0.017846962 -0.14845164 -0.02463022
-0.034788262 -0.0909143 -0.09610765 0.08931314 -0.16808237 -0.027227245 0.08319797 0.12547879
0.10348397 -0.08402022 -0.12628868 0.0869239 0.0399095 0.049792323 0.02837245 -0.102502145
0.06954758 0.020479878 0.017240884 0.13007148 -0.050762847 0.0060675964 -0.15413553 -0.08631605
-0.09032649 -0.07013473 0.09168921 -0.11678212 -0.08130651 -0.113331854 0.06086673 0.094774626
-0.036302086 -0.14600022 -0.11654054 0.024268284 0.038909584 0.047528837 0.13193643 0.031283658
00000000: 4717 033e cd20 b5bd fe8a cbbd a8d7 30bd
00000010: 2e75 a13b 3b53 c3bd de38 39be fe6b 82bc
00000020: 2e4d 283e ac18 3e3e 963d 333e fcf0 623d
00000030: fd81 8f3d 5fe2 1d3e 4a5d 043e b2d8 5c3d
00000040: 1ef8 8bbd 964f b2bd bcd9 fa3d 302e 36bd
00000050: c083 cdbd 1749 c43c 1556 42be aef0 5d3d
00000060: 8a89 b5bc 1fd7 5bbd 44bf 9b3d 0f2a 90bd
00000070: 4ed6 fd3c 0adb 013b 3c59 923a cecc ef3d
00000080: 3862 d03c 118a b73d 5c4f a83d 5740 c9bc
00000090: a618 30bd 66c8 f5bd 942f f23d 1287 c4ba
000000a0: 6a93 84bd 3ef5 ecbd d5da b63d a585 d43d
000000b0: 5f9e 913d 11c2 d9bd 4343 23be 0662 723d
000000c0: d55e 443c 5845 d03d b7a5 72be 9dae b33c
000000d0: 7aa7 5cbd 71a6 07bd 0f85 9cbc 2c4a 33be
000000e0: d29e 5b3d 1cd0 86bc 805a 32bc 643e a63d
000000f0: 33ec eebd 3632 553d 0d24 aa3d 7d78 b2bd
00000100: 21fd 55be 4d81 373d fb2f 893c 8fe1 a8bd
00000110: 0445 913d 4b84 f93c 7f2a 09be 4c13 e4ba
00000120: 46cd c63d 934e c3bc 50b2 323e 972f c8bc
00000130: 0054 d13c 7526 c23d 2d43 ba3d 817c 1f3d
00000140: 98c4 183e 2888 43bd b354 03be 0baa f4bc
00000150: f6f3 433c ca17 aebc a225 90bd 303d 81bd
00000160: 0652 c2bd 562b 28be e19e 36bd 51b4 1ebe
00000170: d2b7 1e3d b554 4abd 4caa 043d c268 cb3d
00000180: c6d1 163e 1e1c e1bb 35e1 9abd e94f 7b3d
00000190: b651 413b ebc6 cebd 9c26 eebd c9b8 533e
000001a0: 730f f2bc 17e4 abbd f64f d0bd 1f22 073e
000001b0: 19ec 76bd 72c3 d43d 6360 92bd fbf6 49bb
000001c0: 1c3e 203b abb0 54bd 29a1 bfbd ed5e 1b3e
000001d0: 80ea 1d3d 7e21 d5bd ba51 30bd 1379 5ebe
000001e0: 65fd 9a3d 0264 7e3c be5c 81bd 534c f3bd
000001f0: e065 6b3d 843a 313e 157d 993c d1a6 c9bd
00000200: 3b7f cd3b 6bf5 813d 1bf2 edbd d625 1fbd
00000210: 689b d9bd 95ee cf3d aad3 e3bd 22b5 fbbd
00000220: ce9b 55bd 5376 953d 05a8 8fbd 7dac 84bd
00000230: a8ca 17bc 9832 d33c 01f6 5b3d d2b1 bc3d
00000240: cefe 973d 6d96 593e 6bd3 0fbe 57de 1d3d
00000250: 8a4b eebc b828 74bc 78bc 833c 5f1f d4bd
00000260: d63d 97bd 4472 0e3e c689 0bbd 6e86 61bd
00000270: 850e 193c 4ca0 6a3d 4338 2bbd e142 3ebc
00000280: d5a2 e13d 13c1 4e3d b02a 80bd b85a 2f3c
00000290: bf5d 96bd ea46 163b 873c a73d 6036 09be
000002a0: 9e0e 6ebd 8748 a4bd 14ca 08bd f97d fdbc
000002b0: 4d20 f0bc d7d7 20be 5149 e93c 0de0 ff3c
000002c0: 38d6 1dbd 9194 a6bd 4f7b 2ebe 2ac4 653d
000002d0: 1afa 973d 5363 113e 239c 71bd 0a05 663d
000002e0: 94a6 3abe 0e2a 803d cb4a 25bd 2dd8 a33d
000002f0: 6e63 3fbd de81 123e 4506 913c 7fe1 b63d
00000300: 65da 00bc 4989 523b 2b19 c4bd c130 4dbe
00000310: f8b0 cdbd dd42 66ba 4a41 09be 5f3e d73d
00000320: 37d1 b03c abd7 65bc 7896 b0bc 2e2e 063e
00000330: e79a 6c3c 896c f1bd 084d a7bd 4e11 80bd
00000340: 12a6 a33d e545 abbd c894 a33d 3a40 b9bc
00000350: 061f cf3d cb33 92bc b503 18be 51c5 c9bc
00000360: 237e 0ebd 4731 babd 16d4 c4bd cfe9 b63d
00000370: c91d 2cbe ac0b dfbc b363 aa3d 837d 003e
00000380: 67ef d33d cb12 acbd d251 01be 2805 b23d
00000390: 2578 233d 09f3 4b3d 576d e83c a5ec d1bd
000003a0: f66e 8e3d 6bc5 a73c c13c 8d3c 7531 053e
000003b0: b4ec 4fbd b0d2 c63b b4d5 1dbe 78c6 b0bd
000003c0: 18fd b8bd cca2 8fbd 8dc7 bb3d 772b efbd
000003d0: 0784 a6bd 881a e8bd 644f 793d 3319 c23d
000003e0: 7fb1 14bd 1581 15be ceac eebd 48ce c63c
000003f0: a85f 1f3d 99ad 423d 581a 073e 4b23 003d

network_body._body_endoder.seq_layers.2.bias f4 [128]
0.0 0.0 0.0 0.0 0.0 0.0 0.0 0.0
0.0 0.0 0.0 0.0 0.0 0.0 0.0 0.0
0.0 0.0 0.0 0.0 0.0 0.0 0.0 0.0
0.0 0.0 0.0 0.0 0.0 0.0 0.0 0.0
0.0 0.0 0.0 0.0 0.0 0.0 0.0 0.0
0.0 0.0 0.0 0.0 0.0 0.0 0.0 0.0
0.0 0.0 0.0 0.0 0.0 0.0 0.0 0.0
0.0 0.0 0.0 0.0 0.0 0.0 0.0 0.0
0.0 0.0 0.0 0.0 0.0 0.0 0.0 0.0
0.0 0.0 0.0 0.0 0.0 0.0 0.0 0.0
0.0 0.0 0.0 0.0 0.0 0.0 0.0 0.0
0.0 0.0 0.0 0.0 0.0 0.0 0.0 0.0
0.0 0.0 0.0 0.0 0.0 0.0 0.0 0.0
0.0 0.0 0.0 0.0 0.0 0.0 0.0 0.0
0.0 0.0 0.0 0.0 0.0 0.0 0.0 0.0
0.0 0.0 0.0 0.0 0.0 0.0 0.0 0.0
00000000: 0000 0000 0000 0000 0000 0000 0000 0000
00000010: 0000 0000 0000 0000 0000 0000 0000 0000
00000020: 0000 0000 0000 0000 0000 0000 0000 0000
00000030: 0000 0000 0000 0000 0000 0000 0000 0000
00000040: 0000 0000 0000 0000 0000 0000 0000 0000
00000050: 0000 0000 0000 0000 0000 0000 0000 0000
00000060: 0000 0000 0000 0000 0000 0000 0000 0000
00000070: 0000 0000 0000 0000 0000 0000 0000 0000
00000080: 0000 0000 0000 0000 0000 0000 0000 0000
00000090: 0000 0000 0000 0000 0000 0000 0000 0000
000000a0: 0000 0000 0000 0000 0000 0000 0000 0000
000000b0: 0000 0000 0000 0000 0000 0000 0000 0000
000000c0: 0000 0000 0000 0000 0000 0000 0000 0000
000000d0: 0000 0000 0000 0000 0000 0000 0000 0000
000000e0: 0000 0000 0000 0000 0000 0000 0000 0000
000000f0: 0000 0000 0000 0000 0000 0000 0000 0000
00000100: 0000 0000 0000 0000 0000 0000 0000 0000
00000110: 0000 0000 0000 0000 0000 0000 0000 0000
00000120: 0000 0000 0000 0000 0000 0000 0000 0000
00000130: 0000 0000 0000 0000 0000 0000 0000 0000
00000140: 0000 0000 0000 0000 0000 0000 0000 0000
00000150: 0000 0000 0000 0000 0000 0000 0000 0000
00000160: 0000 0000 0000 0000 0000 0000 0000 0000
00000170: 0000 0000 0000 0000 0000 0000 0000 0000
00000180: 0000 0000 0000 0000 0000 0000 0000 0000
00000190: 0000 0000 0000 0000 0000 0000 0000 0000
000001a0: 0000 0000 0000 0000 0000 0000 0000 0000
000001b0: 0000 0000 0000 0000 0000 0000 0000 0000
000001c0: 0000 0000 0000 0000 0000 0000 0000 0000
000001d0: 0000 0000 0000 0000 0000 0000 0000 0000
000001e0: 0000 0000 0000 0000 0000 0000 0000 0000
000001f0: 0000 0000 0000 0000 0000 0000 0000 0000

network_body._body_endoder.seq_layers.4.weight f4 [128, 128]
0.12227027 0.07656543 0.14416125 -0.025978085 -0.2332066 -0.07866437 -0.017278856 -0.10229167
0.0766901 -0.0095351515 -0.0157779 -0.09007689 0.03703646 -0.024201287 0.025174197 0.003645891
0.07807335 0.09589069 -0.10331687 0.04705124 -0.038692113 0.03600972 0.13364165 -0.02730728
0.027853854 0.07912508 0.1322456 -0.17613944 0.103336945 -0.027961694 -0.021527883 -0.060033787
-0.037469346 -0.08440055 0.031194847 0.103914835 0.06099571 0.07293371 -0.020127317 -0.057828814
0.14225133 -0.05614339 -0.066589914 -0.011322888 -0.033418424 -0.09108501 0.14400205 0.1935612
0.13261949 -0.20051955 -0.057530094 -0.105500154 0.032767344 0.048253782 -0.05999603 -0.18925585
-0.1416472 -0.19441573 0.027209083 -0.020928886 -0.031793818 -0.14009328 -0.013209771 -0.15323645
-0.06496609 -0.016045304 0.06420903 -0.029868139 -0.17904821 0.029524012 -0.15557279 0.01099625
-0.18242724 0.04460245 -0.3497505 -0.024022778 -0.018110264 -0.1294645 0.0021014682 0.057323985
-0.010299309 -0.22338478 0.004792626 -0.036289625 0.027105784 0.08074287 -0.04851195 0.023721963
0.11567612 -0.043147326 -0.16828571 -0.10766965 -0.102669135 0.021869436 -0.06264784 0.043973755
-0.05945809 0.031788755 -0.07899501 0.07168948 -0.038583376 0.004502599 0.11672393 -0.043308973
0.120803885 -0.24374717 -0.092984304 0.03165214 0.11287082 -0.082521245 0.012492007 -0.019224798
0.005106794 -0.025509512 -0.038665947 -0.015304306 0.007118848 -0.03285776 0.11738927 0.009338998
-0.014074751 0.12546656 0.20222801 0.080159366 -0.0059256586 -0.008493621 -0.06578524 -0.040224496
-0.0884884 0.028331846 0.15374999 0.13915522 -0.029342977 -0.021648288 -0.0070308237 0.09418976
0.037508853 0.05937588 0.030020317 -0.12541679 0.039568458 -0.06710217 -0.11209147 -0.0016585677
0.063076474 -0.012065472 0.09825684 -0.021343738 -0.06954381 0.0064261444 0.0037783908 -0.0828205
0.088499084 -0.0007911066 0.10036923 -0.015950209 0.036664087 -0.014265758 0.10245564 0.0029544
0.050298102 -0.07245388 -0.14262216 0.014294285 0.17352039 0.015531249 0.013205818 -0.054443955
-0.015191743 -0.23363228 -0.0043135076 0.10831877 0.07572999 0.082722686 -0.0415787 -0.032440245
-0.07513129 -0.013525185 0.15395594 0.12847672 -0.0650103 0.07966779 0.096355915 0.08691449
-0.023989314 0.09776195 0.0237013 0.026537329 0.02027722 0.10816624 -0.010714262 -0.053539168
-0.10594068 0.05745337 -0.061786 0.17726427 0.033751555 0.14744231 0.130158 0.053122524
-0.03012711 0.015041917 0.12536716 -0.030704353 -0.01281548 -0.021492748 -0.014458503 0.030656675
-0.000717901 -0.094829984 -0.11268753 -0.09275023 -0.028786268 -0.065097615 -0.03665446 0.0123980455
-0.02814678 -0.07261378 0.10296857 -0.04377221 -0.0006914321 0.007120791 -0.053833917 -0.0017442427
-0.0007233168 -0.00617906 0.10088895 0.060908552 0.07583687 0.001230321 0.045951623 -0.010548967
0.049306426 0.13956097 -0.1140242 0.077346265 0.034836054 -0.0060106404 -0.02365969 0.025715142
-0.048496634 0.08697975 -0.04094642 0.074963234 0.057577856 -0.052814525 -0.16126567 -0.16335174
0.08443777 0.05473016 0.021910632 -0.07015499 -0.15869732 -0.019934846 -0.027746757 -0.07950725
00000000: d668 fa3d 56ce 9c3d 029f 133e fecf d4bc
00000010: b6cd 6ebe c91a a1bd 638c 8dbc 4c7e d1bd
00000020: b30f 9d3d 5339 1cbc a840 81bc 3c7a b8bd
00000030: 8bb3 173d c741 c6bc 1e3a ce3c e7ef 6e3b
00000040: ece4 9f3d 5762 c43d cc97 d3bd cdb8 403d
00000050: 9f7b 1ebd ee7e 133d 5bd9 083e 84b3 dfbc
00000060: c42d e43c 540c a23d 646b 073e e65d 34be
00000070: 52a2 d33d ec0f e5bc 3e5b b0bc fde5 75bd
00000080: 7579 19bd 32da acbd 568c ff3c 4dd1 d43d
00000090: a3d6 793d 455e 953d 0be2 a4bc e8dd 6cbd
000000a0: 55aa 113e 9cf6 65bd 4b60 88bd a283 39bc
000000b0: c2e1 08bd c78a babd 4675 133e e834 463e
000000c0: 67cd 073e ff54 4dbe ada4 6bbd 7710 d8bd
000000d0: 0d37 063d c2a5 453d 66be 75bd 49cc 41be
000000e0: f70b 11be eb14 47be 95e5 de3c 0e73 abbc
000000f0: 3c3a 02bd 9d74 0fbe cc6d 58bc 04ea 1cbe
00000100: f10c 85bd 7171 83bc 0680 833d 07ae f4bc
00000110: 6a58 37be 57dc f13c 794e 1fbe 9e29 343c
00000120: 35ce 3abe 0fb1 363d 7f12 b3be 6bcb c4bc
00000130: fa5b 94bc 5892 04be c9b8 093b 8ecc 6a3d
00000140: 6fbe 28bc fbbe 64be 760b 9d3b 6ea4 14bd
00000150: f30c de3c 855c a53d 77b4 46bd 9054 c23c
00000160: 9ae7 ec3d 40bb 30bd 1753 2cbe e881 dcbd
00000170: 3244 d2bd 8827 b33c 834d 80bd d31d 343d
00000180: 548a 73bd ed34 023d 23c8 a1bd efd1 923d
00000190: 9a09 1ebd 8a8a 933b f50c ef3d c064 31bd
000001a0: 0768 f73d dc98 79be 8e6e bebd ada5 013d
000001b0: d128 e73d e600 a9bd 46ab 4c3c 537d 9dbc
000001c0: e556 a73b 53f9 d0bc 2f60 1ebd e9be 7abc
000001d0: 3a45 e93b dc95 06bd c969 f03d 9902 193c
000001e0: c999 66bc 4e7a 003e dc14 4f3e 982a a43d
000001f0: 072c c2bb d428 0bbc 69ba 86bd 71c2 24bd
00000200: 6839 b5bd 3018 e83c a370 1d3e b57e 0e3e
00000210: af60 f0bc c057 b1bc d362 e6bb 90e6 c03d
00000220: e2a2 193d 1f34 733d 2bed f53c 426d 00be
00000230: 8912 223d dd6c 89bd 3690 e5bd 4c64 d9ba
00000240: 3d2e 813d 42ae 45bc e23a c93d 10d9 aebc
00000250: fc6c 8ebd 6892 d23b e19e 773b cb9d a9bd
00000260: 023f b53d 4462 4fba 628e cd3d 03aa 82bc
00000270: 152d 163d edba 69bc 43d4 d13d 9b9e 413b
00000280: 6205 4e3d b362 94bd 8b0b 12be 9432 6a3c
00000290: 54af 313e c876 7e3c 375d 583c a000 5fbd
000002a0: cae6 78bc 4d3d 6fbe 5358 8dbb 3bd6 dd3d
000002b0: 5318 9b3d 836a a93d 6d4e 2abd 10e0 04bd
000002c0: 6fde 99bd bd98 5dbc a0a6 1d3e 678f 033e
000002d0: 1f24 85bd de28 a33d 4056 c53d 3900 b23d
000002e0: 3d85 c4bc 6b37 c83d 3b29 c23c d064 d93c
000002f0: 6a1c a63c 4386 dd3d df8a 2fbc e34b 5bbd
00000300: 6df7 d8bd 3a54 6b3d 5113 7dbd c484 353e
00000310: 123f 0a3d 1efb 163e 2448 053e 0197 593d
00000320: 21cd f6bc 5f72 763c 4060 003e b287 fbbc
00000330: 05f8 51bc 8f11 b0bc 5be3 6cbc b523 fb3c
00000340: 8531 3cba 3936 c2bd b8c8 e6bd d5f3 bdbd
00000350: 2ed1 ebbc e651 85bd fd22 16bd 2c21 4b3c
00000360: 1394 e6bc 89b6 94bd 30e1 d23d 7d4a 33bd
00000370: 3941 35ba 8655 e93b f480 5cbd 139f e4ba
00000380: f89c 3dba b679 cabb de9e ce3d 3f7b 793d
00000390: 5c50 9b3d b942 a13a c537 3c3d 93d5 2cbc
000003a0: 89f5 493d 12e9 0e3e 8585 e9bd b867 9e3d
000003b0: 40b0 0e3d e8f4 c4bb f7d1 c1bc 90a8 d23c
000003c0: 68a4 46bd 7022 b23d 6fb7 27bd 5386 993d
000003d0: c2d6 6b3d 0b54 58bd d422 25be ae45 27be
000003e0: b6ed ac3d bb2c 603d ed7d b33c 6bad 8fbd
000003f0: 8d81 22be 674e a3bc 2b4d e3bc b2d4 a2bd

network_body._body_endoder.seq_layers.4.bias f4 [128]
0.0 0.0 0.0 0.0 0.0 0.0 0.0 0.0
0.0 0.0 0.0 0.0 0.0 0.0 0.0 0.0
0.0 0.0 0.0 0.0 0.0 0.0 0.0 0.0
0.0 0.0 0.0 0.0 0.0 0.0 0.0 0.0
0.0 0.0 0.0 0.0 0.0 0.0 0.0 0.0
0.0 0.0 0.0 0.0 0.0 0.0 0.0 0.0
0.0 0.0 0.0 0.0 0.0 0.0 0.0 0.0
0.0 0.0 0.0 0.0 0.0 0.0 0.0 0.0
0.0 0.0 0.0 0.0 0.0 0.0 0.0 0.0
0.0 0.0 0.0 0.0 0.0 0.0 0.0 0.0
0.0 0.0 0.0 0.0 0.0 0.0 0.0 0.0
0.0 0.0 0.0 0.0 0.0 0.0 0.0 0.0
0.0 0.0 0.0 0.0 0.0 0.0 0.0 0.0
0.0 0.0 0.0 0.0 0.0 0.0 0.0 0.0
0.0 0.0 0.0 0.0 0.0 0.0 0.0 0.0
0.0 0.0 0.0 0.0 0.0 0.0 0.0 0.0
00000000: 0000 0000 0000 0000 0000 0000 0000 0000
00000010: 0000 0000 0000 0000 0000 0000 0000 0000
00000020: 0000 0000 0000 0000 0000 0000 0000 0000
00000030: 0000 0000 0000 0000 0000 0000 0000 0000
00000040: 0000 0000 0000 0000 0000 0000 0000 0000
00000050: 0000 0000 0000 0000 0000 0000 0000 0000
00000060: 0000 0000 0000 0000 0000 0000 0000 0000
00000070: 0000 0000 0000 0000 0000 0000 0000 0000
00000080: 0000 0000 0000 0000 0000 0000 0000 0000
00000090: 0000 0000 0000 0000 0000 0000 0000 0000
000000a0: 0000 0000 0000 0000 0000 0000 0000 0000
000000b0: 0000 0000 0000 0000 0000 0000 0000 0000
000000c0: 0000 0000 0000 0000 0000 0000 0000 0000
000000d0: 0000 0000 0000 0000 0000 0000 0000 0000
000000e0: 0000 0000 0000 0000 0000 0000 0000 0000
000000f0: 0000 0000 0000 0000 0000 0000 0000 0000
00000100: 0000 0000 0000 0000 0000 0000 0000 0000
00000110: 0000 0000 0000 0000 0000 0000 0000 0000
00000120: 0000 0000 0000 0000 0000 0000 0000 0000
00000130: 0000 0000 0000 0000 0000 0000 0000 0000
00000140: 0000 0000 0000 0000 0000 0000 0000 0000
00000150: 0000 0000 0000 0000 0000 0000 0000 0000
00000160: 0000 0000 0000 0000 0000 0000 0000 0000
00000170: 0000 0000 0000 0000 0000 0000 0000 0000
00000180: 0000 0000 0000 0000 0000 0000 0000 0000
00000190: 0000 0000 0000 0000 0000 0000 0000 0000
000001a0: 0000 0000 0000 0000 0000 0000 0000 0000
000001b0: 0000 0000 0000 0000 0000 0000 0000 0000
000001c0: 0000 0000 0000 0000 0000 0000 0000 0000
000001d0: 0000 0000 0000 0000 0000 0000 0000 0000
000001e0: 0000 0000 0000 0000 0000 0000 0000 0000
000001f0: 0000 0000 0000 0000 0000 0000 0000 0000

action_model._continuous_distribution.log_sigma f4 [1, 2]
0.0 0.0
00000000: 0000 0000 0000 0000

action_model._continuous_distribution.mu.weight f4 [2, 128]
0.029121628 0.01508535 0.027038058 -0.0012547685 -0.005733582 0.019974966 -0.016483864 -0.01725187
0.017767413 0.00058526156 0.0041481266 0.017120935 -0.0188923 0.008372947 0.0077229813 -0.018397506
0.030078953 0.014600021 -0.0049383305 0.0022206083 0.0091177 0.031241095 -0.025934383 -0.014971882
-0.040537056 -0.0136763 0.02028749 0.0036144524 -0.0028350982 0.010804327 -0.038565185 0.01850654
0.014887947 -0.0018526629 -0.010118706 0.027260235 -0.015628397 0.012125561 0.025741389 0.024367139
0.034369286 -0.016555782 -0.0004116244 -0.0049191634 0.018834371 0.019724159 -0.024030393 -0.0056831986
-0.0058822925 0.019421933 -0.031013513 -0.010932486 0.0042912653 -0.014175099 0.0076850406 0.0092663085
-0.011014122 -0.020579204 -0.010653446 -0.033966552 -0.03501834 -0.026151905 -0.0042843735 -0.0055876966
0.02294504 0.025268177 -0.0016984337 -0.033461288 0.031232402 -0.016793659 0.016373226 -0.022349672
-0.0039897463 -0.016171893 -0.016566776 0.0038488419 0.008344036 0.035628807 -0.010698161 0.01877102
0.0198368 -0.032351535 -0.004489943 0.01220364 -0.003996987 -0.00046890622 -0.012972235 -0.001076456
-0.027184034 -0.012425097 0.023135407 -0.015560374 -0.017036123 0.028587377 -0.0221822 0.020303953
0.007949174 -0.014028385 -0.013165246 0.012061301 -0.029423285 -0.0030545166 -0.017825505 0.0071702823
0.014521894 -0.01359494 -0.00010867139 -0.012117009 0.012098351 0.004426344 -0.003133757 0.0047041764
-0.013315829 0.021773985 0.008703434 0.016652845 0.00414526 0.018488329 0.01306163 -0.020683039
0.0047097 -0.0027642378 0.011275473 -0.013402017 0.0021334474 -0.02270691 -0.005971124 0.008873287
0.012221865 -0.00897032 -0.0056937407 0.0024113331 -0.0024258026 -0.03358522 -0.0023276818 -0.0024919636
-0.019415654 -0.014292578 -0.005594114 0.008237676 -0.041231614 0.025220443 -0.012941658 -0.0020866557
-0.019288847 0.00981075 0.014776339 -0.008007637 -0.003218413 -0.013865235 -0.025516868 -0.033598375
-0.0014124659 0.0034403626 -0.03353507 0.021998197 -0.006337598 0.013175219 -0.026897503 0.04555438
0.011182878 0.0070692203 -0.004640329 -0.039466422 -0.016347973 0.03124552 0.022360355 0.012409992
0.0071891746 -0.015728809 -0.045802172 -0.0066367323 0.0073093683 -0.014394018 -0.017697029 0.004776515
0.03120181 0.017206756 0.011490576 0.021365901 -0.02172748 -0.013018248 -0.017365353 0.0039666095
-0.012042218 -0.022637596 -0.014818578 -0.012842821 0.025079032 0.0068217204 -0.0117482385 -0.038277607
0.015708469 -0.0032895429 -0.009380973 -0.011746487 0.014427426 0.00085407397 0.018925857 0.015698912
-0.022379514 0.011380359 0.04415323 -0.020864224 0.012714299 0.002339436 0.0032357953 -0.026955593
-0.0032771986 0.018028136 0.005401513 -0.006695126 0.0187371 0.02940668 0.0011608494 0.010240979
0.006437396 -0.009927753 -0.020081513 -0.0034152232 -0.0062252386 0.0013119766 0.0024015002 0.019587245
0.0023965577 0.035049796 -0.023413682 0.0018235224 0.0038846917 -0.020457348 0.0268731 0.0057748347
0.0066759326 0.0082723405 -0.023154072 -0.016594833 -0.01170041 -0.01641963 0.019441806 0.006977405
-0.02235951 -0.005595879 -0.02068098 0.0010918766 -0.017487219 -0.029181823 0.012303106 -0.010188401
-0.020599991 0.031820994 0.008511817 -0.008349628 0.00541174 0.0034459357 0.0031078781 0.010208529
00000000: 7b90 ee3c 8b28 773c eb7e dd3c 0b77 a4ba
00000010: c6e0 bbbb 8aa2 a33c 2b09 87bc cb53 8dbc
00000020: f78c 913c 3d6c 193a 02ed 873b 3441 8c3c
00000030: 06c4 9abc af2e 093c 1011 fd3b 5eb6 96bc
00000040: 2368 f63c ed34 6f3c b8d1 a1bb a087 113b
00000050: 6862 153c 53ed ff3c 5874 d4bc a04c 75bc
00000060: 2f0a 26bd 8f12 60bc f331 a63c 73e0 6c3b
00000070: 0ecd 39bb a204 313c 87f6 1dbd 079b 973c
00000080: 93ec 733c 0dd5 f2ba eec8 25bc db50 df3c
00000090: 2007 80bc 4aaa 463c 9bdf d23c 989d c73c
000000a0: cfc6 0c3d fe9f 87bc 4bcf d7b9 ef30 a1bb
000000b0: 8a4a 9a3c 8f94 a13c 63db c4bc 203a babb
000000c0: 3fc0 c0bb bf1a 9f3c 0d10 febc 2b1e 33bc
000000d0: be9d 8c3b ad3e 68bc cbd2 fb3b b7d1 173c
000000e0: 9374 34bc b895 a8bc cb8b 2ebc 8320 0bbd
000000f0: 646f 0fbd 853c d6bc ee63 8cbb ff18 b7bb
00000100: 3df7 bb3c 35ff ce3c fa9d deba b40e 09bd
00000110: 18db ff3c db92 89bc 2521 863c a916 b7bc
00000120: 6bbc 82bb eb7a 84bc 0cb7 87bc da3c 7c3b
00000130: 6cb5 083c 83ef 113d 5747 2fbc afc5 993c
00000140: c980 a23c 0b83 04bd 5f20 93bb c7f1 473c
00000150: 28f9 82bb 87d7 f5b9 7f89 54bc df17 8dba
00000160: 0db1 debc a292 4bbc 7786 bd3c f0f0 7ebc
00000170: 578f 8bbc 1330 ea3c 72b7 b5bc 7a54 a63c
00000180: 413d 023c 50d7 65bc 0bb3 57bc c39c 453c
00000190: 1a09 f1bc 492e 48bb cb06 92bc b0f4 ea3b
000001a0: 3ded 6d3c 50bd 5ebc 82e6 e3b8 6b86 46bc
000001b0: 2938 463c dd0a 913b b85f 4dbb 7e25 9a3b
000001c0: a32a 5abc 5b5f b23c d998 0e3c 8c6b 883c
000001d0: f6d4 873b d674 973c 7200 563c 7a6f a9bc
000001e0: d453 9a3b 3728 35bb c3bc 383c 2294 5bbc
000001f0: 4fd1 0b3b d703 babc 6ba9 c3bb 4361 113c
00000200: 383e 483c 40f8 12bc 8f92 babb 7507 1e3b
00000210: 37fa 1ebb a890 09bd 058c 18bb 3650 23bb
00000220: 940d 9fbc 6b2b 6abc d44e b7bb 51f7 063c
00000230: 7be2 28bd 1a9b ce3c 3f09 54bc 46c0 08bb
00000240: a503 9ebc 45bd 203c 7518 723c 7732 03bc
00000250: 03ec 52bb 032b 63bc c008 d1bc 739e 09bd
00000260: 7e22 b9ba b577 613b 125c 09bd 9035 b43c
00000270: a0ab cfbb e0dc 573c 2758 dcbc 3b97 3a3d
00000280: 6438 373c eba4 e73b e70d 98bb 8ba7 21bd
00000290: 2fec 85bc 9bf6 ff3c 102d b73c 4753 4b3c
000002a0: 2b93 eb3b b4d9 80bc 0f9b 3bbd f278 d9bb
000002b0: 6d83 ef3b e3d4 6bbc 5cf9 90bc 5084 9c3b
000002c0: f09a ff3c 2ff5 8c3c f842 3c3c 8b07 af3c
000002d0: d4fd b1bc 7d4a 55bc c941 8ebc 55fa 813b
000002e0: b94c 45bc 7b72 b9bc 9fc9 72bc b26a 52bc
000002f0: 8b72 cd3c bd88 df3b af7b 40bc fbc8 1cbd
00000300: 0caf 803c 5f95 57bb a7b2 19bc 5674 40bc
00000310: 0361 6c3c efe3 5f3a 660a 9b3c 019b 803c
00000320: 3e55 b7bc af74 3a3c 04da 343d 73eb aabc
00000330: a34f 503c 3951 193b a30f 543b fad1 dcbc
00000340: 45c6 56bb beaf 933c 2dff b03b ca62 dbbb
00000350: 8c7e 993c 47e6 f03c a427 983a c7c9 273c
00000360: cbf0 d23b 04a8 22bc fc81 a4bc f0d1 5fbb
00000370: 16fd cbbb a1f6 ab3a 7d62 1d3b 6e75 a03c
00000380: 910f 1d3b 6090 0f3d 0dce bfbc 4203 ef3a
00000390: 5096 7e3b 2b96 a7bc fa24 dc3c d33a bd3b
000003a0: c8c1 da3b b688 073c 9cad bdbc e3f1 87bc
000003b0: 14b3 3fbc 7682 86bc 6c44 9f3c b7a2 e43b
000003c0: 4b2b b7bc a35d b7bb 296b a9bc 4d1d 8f3a
000003d0: 5b41 8fbc b80e efbc f792 493c 40ed 26bc
000003e0: 50c1 a8bc bb56 023d 2675 0b3c e1cc 08bc
000003f0: f754 b13b 35d5 613b 8bad 4b3b ad41 273c

action_model._continuous_distribution.mu.bias f4 [2]
0.0 0.0
00000000: 0000 0000 0000 0000

network_body._body_endoder.seq_layers.0.weight f4 [128, 53]
0.026102323 0.09146563 -0.1427801 0.0031943237 -0.102066696 0.086046055 -0.052313566 0.044324465
0.21140419 0.1661147 -0.08820498 -0.05520061 0.10486002 -0.33171892 0.10891151 0.164204
-0.020101974 0.12490057 -0.20500794 -0.17334631 -0.07416773 -0.23129438 -0.2056403 -0.074640036
-0.100769274 0.06836067 0.2570942 0.043102685 -0.037525136 0.10931286 0.111940786 -0.12793271
0.042973597 -0.14611916 0.015561768 -0.06628551 0.1859652 0.33257383 0.023412373 0.061655827
-0.088153 0.03630697 -0.1765998 -0.022191541 -0.15189141 -0.094470024 -0.00018654311 -0.1304372
0.084467895 0.1100701 0.26486468 -0.29745886 0.062681794 -0.10812789 0.06252485 -0.13544372
0.13407284 -0.007237407 0.05366807 0.039586242 -0.09182895 -0.057703767 -0.08334433 -0.10650602
-0.0078046774 0.07404635 0.097480305 0.030207206 -0.26711982 -0.061197475 -0.027705528 -0.1171015
0.15011819 0.032029837 -0.081762746 0.11113925 -0.017360142 -0.1298933 -0.07322245 0.1199822
-0.11151971 -0.08173618 -0.2782161 0.019381413 0.048971158 -0.17647229 -0.021989735 -0.21687748
-0.10574396 -0.22210094 0.079589255 -0.08906154 0.12484307 0.09286348 0.028998068 -0.03994622
0.008355931 0.18216798 -0.15421756 -0.1334934 0.034225017 -0.154826 0.0027473252 -0.054335922
-0.0697789 0.042291544 -0.059475474 -0.088500924 -0.071045674 -0.3252294 0.00022599832 -0.2848606
-0.17155282 0.2906137 -0.19727485 -0.041408043 -0.032232236 0.027477792 0.23837371 -0.089188926
-0.27758095 -0.011290222 0.17980163 -0.06422972 0.13931297 -0.1547429 -0.10766928 0.13567373
0.050674956 -0.10635566 0.12569536 -0.26975572 -0.031239588 0.04421677 0.07754989 -0.004907838
-0.15834893 0.00820914 0.10142003 0.10157946 0.01114643 0.15163316 0.09591979 0.12126787
0.020736452 -0.10501248 0.2728255 -0.02458723 -0.14167373 0.004780055 -0.14909591 -0.076159246
-0.13500212 -0.1540461 -0.13653356 0.05882136 -0.14109662 0.16801329 -0.07214953 -0.005117285
-0.024648085 -0.004308362 -0.10121683 0.048611235 0.03629279 0.015555456 -0.105944484 0.014685106
0.0634523 0.08670611 -0.07109554 0.003847442 0.049359374 0.12684576 0.080492444 -0.022687577
-0.0019180687 -0.12126479 0.16273099 -0.014684854 0.06888774 0.15636122 -0.3956943 0.12618074
0.1337062 -0.070672035 -0.17955114 0.051752236 0.16660471 0.35843366 -0.08941165 0.10764853
-0.20750895 0.08242236 -0.012250301 -0.01894987 0.12751381 -0.13585213 -0.16553713 -0.16495728
0.153225 0.0862545 -0.04599359 0.17172708 0.08914558 0.18272386 -0.022264695 -0.020544581
0.14404795 -0.11164622 -0.14531997 0.072123565 0.14854346 -0.09324735 0.0058516134 -0.2976729
-0.12080078 -0.03476022 -0.08781381 -0.041850243 -0.10322934 0.20124248 0.07905586 0.0067471624
0.068845294 0.037470702 -0.18865131 -0.004316349 -0.27205077 -0.045060884 -0.35534307 -0.16345783
-0.013823494 0.21703969 -0.23394303 0.1908562 -0.07398024 0.123927474 -0.13281445 -0.13815835
-0.14062792 -0.010645357 -0.10204899 0.17722893 0.11854878 -0.048041545 -0.20973644 -0.048363715
-0.06383689 0.02090043 0.056832604 0.18038884 -0.012047827 -0.15612759 -0.14287278 0.19047762
00000000: 8ad4 d53c 5552 bb3d f234 12be dc57 513b
00000010: 5808 d1bd ea38 b03d c046 56bd 928d 353d
00000020: 577a 583e f919 2a3e d0a4 b4bd 091a 62bd
00000030: dac0 d63d 10d7 a9be ff0c df3d 1825 283e
00000040: e5ac a4bc dfcb ff3d 9aed 51be b281 31be
00000050: 40e5 97bd 6fd8 6cbe 5f93 52be e0dc 98bd
00000060: 1f60 cebd ae00 8c3d daa1 833e 718c 303d
00000070: f5b3 19bd 6cdf df3d 3641 e53d cb00 03be
00000080: 1505 303d 43a0 15be c9f6 7e3c b3c0 87bd
00000090: a96d 3e3e 1e47 aa3e 4ecb bf3c d28a 7c3d
000000a0: 8f89 b4bd 9eb6 143d 94d6 34be 09cb b5bc
000000b0: 6c89 1bbe 8079 c1bd c99a 43b9 5491 05be
000000c0: 81fd ac3d 6f6c e13d 589c 873e 874c 98be
000000d0: 505f 803d 2872 ddbd 070d 803d c2b1 0abe
000000e0: 644a 093e c527 edbb 0dd3 5b3d 2f25 223d
000000f0: d110 bcbd c95a 6cbd 6fb0 aabd d41f dabd
00000100: 61be ffbb 9da5 973d c1a3 c73d 1a75 f73c
00000110: eec3 88be 34aa 7abd b4f6 e2bc e9d2 efbd
00000120: 95b8 193e b831 033d 3a73 a7bd fa9c e33d
00000130: db36 8ebc c002 05be a7f5 95bd 3ab9 f53d
00000140: 7264 e4bd 4c65 a7bd 5772 8ebe c5c5 9e3c
00000150: fb95 483d 27b5 34be d123 b4bc 2115 5ebe
00000160: 4a90 d8bd 6e6e 63be b1ff a23d e665 b6bd
00000170: b9ad ff3d 352f be3d 5b8d ed3c a69e 23bd
00000180: 51e7 083c 3e8a 3a3e 35eb 1dbe 7eb2 08be
00000190: 882f 0c3d b58a 1ebe 780c 343b 588f 5ebd
000001a0: 3de8 8ebd e639 2d3d 8e9c 73bd f93f b5bd
000001b0: 6580 91bd 7884 a6be f6f9 6c39 40d9 91be
000001c0: 8bab 2fbe 52cb 943e 6b02 4abe 7b9b 29bd
000001d0: f305 04bd 1b19 e13c 3d18 743e afa8 b6bd
000001e0: 171f 8ebe a0fa 38bc eb1d 383e df8a 83bd
000001f0: 0fa8 0e3e ec74 1ebe b681 dcbd 0eee 0a3e
00000200: 8b90 4f3d ffd0 d9bd 49b6 003e 6c1d 8abe
00000210: 2aea ffbc a51c 353d 7ad2 9e3d eed1 a0bb
00000220: 3926 22be a17f 063c 4eb5 cf3d e408 d03d
00000230: 849f 363c b945 1b3e 9871 c43d 4a5b f83d
00000240: 7edf a93c c810 d7bd c9af 8b3e 296b c9bc
00000250: eb12 11be 02a2 9c3b 99ac 18be 61f9 9bbd
00000260: ff3d 0abe 43be 1dbe 74cf 0bbe abee 703d
00000270: a27b 10be ad0b 2c3e 22c3 93bd e6ae a7bb
00000280: c8ea c9bc 292d 8dbb c54a cfbd 931c 473d
00000290: c0a7 143d 50dc 7e3c 6cf9 d8bd cd99 703c
000002a0: 48f3 813d f992 b13d 8a9a 91bd 5e25 7c3b
000002b0: 0e2d 4a3d dbe3 013e 39d9 a43d 4cdb b9bc
000002c0: b567 fbba ad59 f8bd f4a2 263e be98 70bc
000002d0: 0415 8d3d 281d 203e 7198 cabe 8635 013e
000002e0: 47ea 083e 80bc 90bd 41dc 37be 27fa 533d
000002f0: 6d9a 2a3e 9e84 b73e 751d b7bd d576 dc3d
00000300: 3a7d 54be 0ecd a83d 7db5 48bc c23c 9bbc
00000310: fb92 023e d21c 0bbe 9182 29be 90ea 28be
00000320: 04e7 1c3e 33a6 b03d c663 3cbd 39d9 2f3e
00000330: f591 b63d f71b 3b3e 7364 b6bc 1c4d a8bc
00000340: 4e81 133e c6a6 e4bd c2ce 14be 85b5 933d
00000350: c71b 183e 77f8 bebd e4be bf3b 9568 98be
00000360: 6666 f7bd bc60 0ebd bad7 b3bd 296b 2bbd
00000370: e769 d3bd 8212 4e3e 0ae8 a13d 4d17 dd3b
00000380: c3fe 8c3d e17a 193d cf2d 41be 2970 8dbb
00000390: 3d4a 8bbe c391 38bd 87ef b5be 7d61 27be
000003a0: f07b 62bc a73f 5e3e c38e 6fbe cf6f 433e
000003b0: f482 97bd b0cd fd3d 8300 08be 6279 0dbe
000003c0: c400 10be dd69 2ebc 10ff d0bd 807b 353e
000003d0: b4c9 f23d 36c7 44bd 26c5 56be 0819 46bd
000003e0: eabc 82bd 6137 ab3c 4ec9 683d dab7 383e
000003f0: 4064 45bc e9df 1fbe 3e4d 12be 910c 433e

network_body._body_endoder.seq_layers.0.bias f4 [128]
0.0 0.0 0.0 0.0 0.0 0.0 0.0 0.0
0.0 0.0 0.0 0.0 0.0 0.0 0.0 0.0
0.0 0.0 0.0 0.0 0.0 0.0 0.0 0.0
0.0 0.0 0.0 0.0 0.0 0.0 0.0 0.0
0.0 0.0 0.0 0.0 0.0 0.0 0.0 0.0
0.0 0.0 0.0 0.0 0.0 0.0 0.0 0.0
0.0 0.0 0.0 0.0 0.0 0.0 0.0 0.0
0.0 0.0 0.0 0.0 0.0 0.0 0.0 0.0
0.0 0.0 0.0 0.0 0.0 0.0 0.0 0.0
0.0 0.0 0.0 0.0 0.0 0.0 0.0 0.0
0.0 0.0 0.0 0.0 0.0 0.0 0.0 0.0
0.0 0.0 0.0 0.0 0.0 0.0 0.0 0.0
0.0 0.0 0.0 0.0 0.0 0.0 0.0 0.0
0.0 0.0 0.0 0.0 0.0 0.0 0.0 0.0
0.0 0.0 0.0 0.0 0.0 0.0 0.0 0.0
0.0 0.0 0.0 0.0 0.0 0.0 0.0 0.0
00000000: 0000 0000 0000 0000 0000 0000 0000 0000
00000010: 0000 0000 0000 0000 0000 0000 0000 0000
00000020: 0000 0000 0000 0000 0000 0000 0000 0000
00000030: 0000 0000 0000 0000 0000 0000 0000 0000
00000040: 0000 0000 0000 0000 0000 0000 0000 0000
00000050: 0000 0000 0000 0000 0000 0000 0000 0000
00000060: 0000 0000 0000 0000 0000 0000 0000 0000
00000070: 0000 0000 0000 0000 0000 0000 0000 0000
00000080: 0000 0000 0000 0000 0000 0000 0000 0000
00000090: 0000 0000 0000 0000 0000 0000 0000 0000
000000a0: 0000 0000 0000 0000 0000 0000 0000 0000
000000b0: 0000 0000 0000 0000 0000 0000 0000 0000
000000c0: 0000 0000 0000 0000 0000 0000 0000 0000
000000d0: 0000 0000 0000 0000 0000 0000 0000 0000
000000e0: 0000 0000 0000 0000 0000 0000 0000 0000
000000f0: 0000 0000 0000 0000 0000 0000 0000 0000
00000100: 0000 0000 0000 0000 0000 0000 0000 0000
00000110: 0000 0000 0000 0000 0000 0000 0000 0000
00000120: 0000 0000 0000 0000 0000 0000 0000 0000
00000130: 0000 0000 0000 0000 0000 0000 0000 0000
00000140: 0000 0000 0000 0000 0000 0000 0000 0000
00000150: 0000 0000 0000 0000 0000 0000 0000 0000
00000160: 0000 0000 0000 0000 0000 0000 0000 0000
00000170: 0000 0000 0000 0000 0000 0000 0000 0000
00000180: 0000 0000 0000 0000 0000 0000 0000 0000
00000190: 0000 0000 0000 0000 0000 0000 0000 0000
000001a0: 0000 0000 0000 0000 0000 0000 0000 0000
000001b0: 0000 0000 0000 0000 0000 0000 0000 0000
000001c0: 0000 0000 0000 0000 0000 0000 0000 0000
000001d0: 0000 0000 0000 0000 0000 0000 0000 0000
000001e0: 0000 0000 0000 0000 0000 0000 0000 0000
000001f0: 0000 0000 0000 0000 0000 0000 0000 0000

network_body._body_endoder.seq_layers.2.weight f4 [128, 128]
-0.10478258 0.0031229227 0.0280326 -0.08216074 -0.021146758 -0.05672739 0.16419244 0.09147482
-0.03562889 -0.15035631 -0.16122541 -0.15448563 -0.046856117 0.04758418 0.038366474 0.04243968
-0.11281438 -0.029761428 -0.04067423 -0.15095825 0.016533822 -0.050604273 0.16288775 -0.07511828
0.14091635 -0.011851184 0.05234172 -0.024461698 0.05551769 0.05271628 -0.20767121 0.058805484
0.060911972 0.23004395 -0.04083588 0.0021184857 0.10542084 0.012025564 0.014816887 0.104296304
-0.023125576 -0.058217574 0.1823952 0.03038463 -0.014998692 -0.07180245 0.11031213 0.08195197
0.061942138 -0.11689108 -0.14453183 -0.04661203 0.032969065 0.048659448 0.12313353 0.120625764
0.03741988 -0.09021259 0.08002814 -0.19651161 -0.003608645 0.099519014 -0.0074459948 0.14342172
0.057192173 0.069134474 -0.08043421 0.03969023 0.05127137 -0.09894888 -0.09394309 -0.16854781
-0.011193809 0.03995093 0.017695734 -0.051718466 -0.23393305 -0.07586795 0.084159985 -0.07988226
-0.046371646 0.04599465 0.16879955 -8.44111e-05 -0.21727441 -0.00558587 -0.013923784 0.2333163
-0.04460629 -0.023502184 -0.14450932 0.17397648 -0.14061318 -0.03852687 -0.10349789 -0.102294266
0.04020932 -0.054123215 0.12275759 -0.19620486 0.010658448 0.040352277 -0.030207971 -0.07107204
-0.1235924 0.076646574 -0.05511772 -0.050666124 -0.09608188 -0.04630169 -0.061536547 0.04201371
-0.05924303 0.0692898 0.07841186 0.008439897 0.17506693 0.10083686 -0.085148074 0.048490707
-0.074340746 -0.12937365 -0.027722921 -0.046061225 0.11092824 -0.05798963 0.059610616 0.07996008
0.012117394 0.089270025 -0.06500322 -0.042469613 -0.028864495 0.038976155 0.077806614 -0.07617959
0.049999937 0.06357037 -0.06947761 0.07974297 -0.075027585 0.038588047 -0.0029984799 -0.031040166
-0.044734083 -0.04541925 -0.08756594 -0.08052153 -0.0020172258 -0.072011046 0.07176344 0.086511776
-0.086097494 -0.06645574 0.111681856 0.011522836 0.045687214 0.037235837 0.120264955 0.07611697
0.10462994 -0.17086358 -0.14496873 0.07956422 0.103079684 -0.06717029 -0.03926666 -0.09943584
-0.02428357 -0.0077053416 0.12718634 -0.07264858 -0.06403507 -0.025283057 -0.028519284 0.14119093
-0.005010141 -0.04740151 -0.12818451 0.06446817 0.051166937 -0.035532214 -0.0024080242 0.033788867
-0.025545813 0.010809495 0.027995257 -0.032465257 0.06683148 0.17325076 -0.12228931 -0.031886987
0.056023654 0.055673804 0.0072478196 0.043587383 -0.0647557 0.04584302 0.12114559 -0.062241454
0.043850873 0.018250115 0.11754955 -0.09823641 0.14728978 0.012109884 -0.0870507 0.10649961
-0.040252388 0.21264665 -0.15167095 0.1040868 0.10014522 0.15614924 -0.0691703 -0.11538274
0.09121226 -0.13083896 -0.08937643 0.098235674 0.0067119375 -0.035039417 -0.032377362 -0.07745935
-0.019611903 0.14715868 0.113997005 -0.0158026 -0.11732733 0.095254466 0.0486007 0.001653482
0.010608571 -0.0075712577 0.07804316 -0.12460527 0.04917187 -0.042430755 -0.04914148 0.011042379
0.049802 -0.06498409 -0.012288385 -0.12248029 0.10381367 -0.12278203 0.067827225 -0.009852476
-0.11855178 0.072089456 -0.081173934 0.006310412 0.026225489 -0.08292341 0.03576679 -0.03431457
00000000: 4098 d6bd f3a9 4c3b a0a4 e53c e443 a8bd
00000010: f73b adbc fb5a 68bd 1022 283e 2757 bb3d
00000020: 99ef 11bd 01f7 19be 4618 25be 7b31 1ebe
00000030: 33ec 3fbd a1e7 423d 2a26 1d3d 3bd5 2d3d
00000040: 3a0b e7bd 3dce f3bc 059a 26bd cd94 1abe
00000050: f071 873c 6d46 4fbd 0ccc 263e 9dd7 99bd
00000060: 604c 103e 782b 42bc 4564 563d e663 c8bc
00000070: 8466 633d 07ed 573d c3a7 54be 05de 703d
00000080: d57e 793d a490 6b3e 8643 27bd 4bd6 0a3b
00000090: e2e6 d73d df06 453c 87c2 723c 4d99 d53d
000000a0: d971 bdbc 8d75 6ebd cfc5 3a3e 30e9 f83c
000000b0: 13bd 75bc 2a0d 93bd 53eb e13d 6fd6 a73d
000000c0: 0ab7 7d3d 9764 efbd 2700 14be 42ec 3ebd
000000d0: 920a 073d 214f 473d 6f2d fc3d a40a f73d
000000e0: 9745 193d 61c1 b8bd cbe5 a33d 573a 49be
000000f0: 047f 6cbb a0d0 cb3d 88fd f3bb 25dd 123e
00000100: 5742 6a3d 6096 8d3d b1ba a4bd 3992 223d
00000110: ee01 523d b6a5 cabd 3c65 c0bd cc97 2cbe
00000120: 3d66 37bc 96a3 233d a5f6 903c bed6 53bd
00000130: 258c 6fbe a860 9bbd 125c ac3d 4f99 a3bd
00000140: 32f0 3dbd e364 3c3d cad9 2c3e dd05 b1b8
00000150: 2f7d 5ebe ac09 b7bb 9520 64bc 78ea 6e3e
00000160: 16b5 36bd a787 c0bc 40fa 13be e426 323e
00000170: e7fc 0fbe 5ace 1dbd b4f6 d3bd a87f d1bd
00000180: 87b2 243d 4eb0 5dbd 5568 fb3d ede9 48be
00000190: c5a0 2e3c 6e48 253d b576 f7bc 388e 91bd
000001a0: 031e fdbd e1f8 9c3d 1ec3 61bd 4887 4fbd
000001b0: 94c6 c4bd d7a6 3dbd bf0d 7cbd 9116 2c3d
000001c0: d2a8 72bd d0e7 8d3d 6696 a03d 7e47 0a3c
000001d0: bf44 333e 8e83 ce3d 1d62 aebd 319e 463d
000001e0: f63f 98bd 877a 04be 2e1b e3bc b2aa 3cbd
000001f0: 582e e33d 8986 6dbd 432a 743d 1cc2 a33d
00000200: 0988 463c 34d3 b63d 6920 85bd 9ef4 2dbd
00000210: 3c75 ecbc 76a5 1f3d 1359 9f3d 0b04 9cbd
00000220: bccc 4c3d 2f31 823d 474a 8ebd 4850 a33d
00000230: 10a8 99bd 800e 1e3d 2582 44bb f247 febc
00000240: 163b 37bd 8909 3abd c655 b3bd 79e8 a4bd
00000250: 6f33 04bb 877a 93bd b6f8 923d 162d b13d
00000260: e253 b0bd f219 88bd 75b9 e43d 47ca 3c3c
00000270: 8422 3b3d 9b84 183d 794d f63d 37e3 9b3d
00000280: 3948 d63d ddf6 2ebe af72 14be 91f2 a23d
00000290: 711b d33d 9490 89bd 14d6 20bd 05a5 cbbd
000002a0: 56ee c6bc 177d fcbb 233d 023e c7c8 94bd
000002b0: d224 83bd 6a1e cfbc 46a1 e9bc 5b94 103e
000002c0: 1c2c a4bb 1628 42bd cd42 03be e307 843d
000002d0: 6c94 513d 3a8a 11bd f1cf 1dbb 3266 0a3d
000002e0: 7445 d1bc 4f1a 313c 4f56 e53c 4afa 04bd
000002f0: f1de 883d a668 313e d172 fabd ee9b 02bd
00000300: 0f79 653d 370a 643d 1e7f ed3b af88 323d
00000310: a39e 84bd e4c5 3b3d 2e1b f83d e5f0 7ebd
00000320: f99c 333d 4481 953c d2bd f03d 2c30 c9bd
00000330: 22d3 163e 8968 463c a347 b2bd 781c da3d
00000340: b0df 24bd 0bc0 593e a14f 1bbe 762b d53d
00000350: f018 cd3d 96e5 1f3e 29a9 8dbd c94d ecbd
00000360: 7ecd ba3d a6fa 05be fd0a b7bd c92f c93d
00000370: d0ef db3b 7e85 0fbd 209e 04bd 02a3 9ebd
00000380: 24a9 a0bc c4b0 163e 4377 e93d 7474 81bc
00000390: 5049 f0bd c614 c33d 8711 473d a6b9 d83a
000003a0: 92cf 2d3c 5018 f8bb 18d5 9f3d 0c31 ffbd
000003b0: 7168 493d dfcb 2dbd 9448 49bd 18eb 343c
000003c0: 2ffd 4b3d 6116 85bd 3955 49bc f2d6 fabd
000003d0: 439c d43d 2575 fbbd 00e9 8a3d 486c 21bc
000003e0: 47cb f2bd a3a3 933d 853e a6bd 93c7 ce3b
000003f0: d6d6 d63c c0d3 a9bd 3380 123d 6f8d 0cbd

network_body._body_endoder.seq_layers.2.bias f4 [128]
0.0 0.0 0.0 0.0 0.0 0.0 0.0 0.0
0.0 0.0 0.0 0.0 0.0 0.0 0.0 0.0
0.0 0.0 0.0 0.0 0.0 0.0 0.0 0.0
0.0 0.0 0.0 0.0 0.0 0.0 0.0 0.0
0.0 0.0 0.0 0.0 0.0 0.0 0.0 0.0
0.0 0.0 0.0 0.0 0.0 0.0 0.0 0.0
0.0 0.0 0.0 0.0 0.0 0.0 0.0 0.0
0.0 0.0 0.0 0.0 0.0 0.0 0.0 0.0
0.0 0.0 0.0 0.0 0.0 0.0 0.0 0.0
0.0 0.0 0.0 0.0 0.0 0.0 0.0 0.0
0.0 0.0 0.0 0.0 0.0 0.0 0.0 0.0
0.0 0.0 0.0 0.0 0.0 0.0 0.0 0.0
0.0 0.0 0.0 0.0 0.0 0.0 0.0 0.0
0.0 0.0 0.0 0.0 0.0 0.0 0.0 0.0
0.0 0.0 0.0 0.0 0.0 0.0 0.0 0.0
0.0 0.0 0.0 0.0 0.0 0.0 0.0 0.0
00000000: 0000 0000 0000 0000 0000 0000 0000 0000
00000010: 0000 0000 0000 0000 0000 0000 0000 0000
00000020: 0000 0000 0000 0000 0000 0000 0000 0000
00000030: 0000 0000 0000 0000 0000 0000 0000 0000
00000040: 0000 0000 0000 0000 0000 0000 0000 0000
00000050: 0000 0000 0000 0000 0000 0000 0000 0000
00000060: 0000 0000 0000 0000 0000 0000 0000 0000
00000070: 0000 0000 0000 0000 0000 0000 0000 0000
00000080: 0000 0000 0000 0000 0000 0000 0000 0000
00000090: 0000 0000 0000 0000 0000 0000 0000 0000
000000a0: 0000 0000 0000 0000 0000 0000 0000 0000
000000b0: 0000 0000 0000 0000 0000 0000 0000 0000
000000c0: 0000 0000 0000 0000 0000 0000 0000 0000
000000d0: 0000 0000 0000 0000 0000 0000 0000 0000
000000e0: 0000 0000 0000 0000 0000 0000 0000 0000
000000f0: 0000 0000 0000 0000 0000 0000 0000 0000
00000100: 0000 0000 0000 0000 0000 0000 0000 0000
00000110: 0000 0000 0000 0000 0000 0000 0000 0000
00000120: 0000 0000 0000 0000 0000 0000 0000 0000
00000130: 0000 0000 0000 0000 0000 0000 0000 0000
00000140: 0000 0000 0000 0000 0000 0000 0000 0000
00000150: 0000 0000 0000 0000 0000 0000 0000 0000
00000160: 0000 0000 0000 0000 0000 0000 0000 0000
00000170: 0000 0000 0000 0000 0000 0000 0000 0000
00000180: 0000 0000 0000 0000 0000 0000 0000 0000
00000190: 0000 0000 0000 0000 0000 0000 0000 0000
000001a0: 0000 0000 0000 0000 0000 0000 0000 0000
000001b0: 0000 0000 0000 0000 0000 0000 0000 0000
000001c0: 0000 0000 0000 0000 0000 0000 0000 0000
000001d0: 0000 0000 0000 0000 0000 0000 0000 0000
000001e0: 0000 0000 0000 0000 0000 0000 0000 0000
000001f0: 0000 0000 0000 0000 0000 0000 0000 0000
