mlagents/Assets/results/TestLearning2/RollerBall/RollerBall-1141.onnx (onnx, 191119 bytes, 9 tensors)

action_model._continuous_distribution.log_sigma f4 [1, 2]
-0.011633071 -0.0053104535
00000000: a398 3ebc 5003 aebb

action_model._continuous_distribution.mu.bias f4 [2]
-0.00074536767 -9.5975396e-05
00000000: c764 43ba 6646 c9b8

action_model._continuous_distribution.mu.weight f4 [2, 128]
-0.0028621021 -0.003005811 -0.011751412 -0.032148227 0.012598463 0.012980664 -0.023170797 0.012985892
0.010224353 -0.01254125 0.013697347 0.012333677 0.016761491 0.02820983 0.0109735 0.017884813
0.024285551 0.0020892196 0.015774608 -0.00096417795 0.02020524 0.009232871 0.0013109166 0.035099972
-0.029598508 -0.0046129217 -0.00091349357 0.0040433933 0.00417954 -0.025653725 -0.0010143693 0.0028026027
0.014427085 0.02908871 -0.015803942 -0.0013732199 -0.023860065 0.007924891 -0.04622509 -0.024016464
-0.014920722 0.019639216 -0.009655097 -0.026176129 -0.0066031106 0.019266566 -0.009323967 0.067141294
0.0044191014 -0.003387736 -0.015389359 -0.030324113 -0.012443835 0.009519808 0.020914707 -8.519161e-05
-0.0015347243 -0.005765714 -0.02365471 0.017803105 0.03393022 -0.0010997019 -0.005057879 0.0054444624
-0.0143092945 -0.01557714 0.007112163 0.00093685463 0.02407073 -0.0008727964 -0.0030233895 0.027042886
0.0036387607 -0.005360347 0.011836587 -0.0015333481 0.022360524 0.004208158 -0.010428008 0.040180217
0.01634131 -0.004965977 -0.0014335703 -0.0016543424 -0.009993183 0.009825799 -0.031573918 0.0015050363
0.004391506 -0.031663835 -0.021237815 -0.0064733373 -0.03063891 -0.044776827 -0.019157354 0.028228432
0.0054120505 0.005882988 -0.005284606 0.0039100437 -0.0033562044 -0.022447253 0.0039032402 0.0061346237
0.0041939192 0.017649176 0.024583261 -0.02278091 -0.016848367 -0.0021886188 0.017351797 -0.010070087
0.0028022453 -0.023424193 -0.01167335 -0.0019666918 -0.008891968 0.01908711 -0.02496222 0.007909316
0.013969671 0.0011669369 0.025525635 -0.016401025 -0.0015952593 -0.030262537 0.0031850527 -0.031212267
0.005057518 -0.00090210885 0.009768143 0.012918373 -0.01117777 0.023096524 -0.016219156 -0.012953231
0.009348121 -0.0068791574 -0.047976397 -0.042657666 -0.02874438 0.0010180402 -0.00019414404 0.009612193
-0.013468848 0.009909088 5.5563214e-05 0.0013927908 0.0019991489 -0.0070099626 0.017266411 -0.009821806
0.014773251 -0.028608311 -0.019954372 0.027728155 -0.021077486 -0.0020893994 0.041368205 0.025873918
0.0023349135 0.01843358 -0.028403645 0.0035483567 0.019984782 0.01924097 0.004946382 0.011418239
0.01850379 0.019126808 -0.019459866 -0.00973148 0.0030958578 -0.022642126 0.006197993 0.0123065645
-0.014808874 0.014063532 0.005820769 -0.0047875536 -0.0110000465 -0.03051728 -0.029624173 0.017424632
0.0035178147 -0.012536021 -0.03702043 0.052550927 0.0018509694 0.017263833 -0.008302847 0.010502106
0.008441503 0.004215772 0.023737215 -0.02561326 0.020425957 0.0041224076 -0.007625341 -0.03432597
0.017665502 -0.002173421 -0.013719386 0.012305015 -0.008436506 -0.014568778 -0.011963849 -0.037089273
0.027173446 0.008301369 -0.023246087 0.017404152 0.030465212 0.018450625 -0.00023334815 0.013344925
-0.00874731 -0.03622916 0.016257038 -0.017364714 0.016641831 0.0026492472 -0.019000389 0.014096337
-0.015256193 0.012877189 -0.007369966 -0.00860769 0.005615691 0.0035721194 0.0017919228 -0.006055422
-0.028967977 0.00535239 -0.016829733 -0.01734506 0.034758367 0.029928107 0.0149120595 0.014781112
-0.0100450395 0.016255919 0.011621481 0.017514544 0.03394165 0.013822069 -0.006364543 -0.041281745
0.013663909 0.003681871 -0.0029074068 0.012291564 -0.04227731 0.02360581 0.0069981706 0.019580368
00000000: 1b92 3bbb 24fd 44bb ff88 40bc dcad 03bd
00000010: c969 4e3c daac 543c afd0 bdbc c7c2 543c
00000020: 0b84 273c d179 4dbc d66a 603c 3113 4a3c
00000030: 654f 893c 4d18 e73c 32ca 333c 2c83 923c
00000040: 7ef2 c63c 4aeb 083b c039 813c e3c0 7cba
00000050: 7685 a53c 7845 173c 10d3 ab3a fdc4 0f3d
00000060: 9278 f2bc fe27 97bb 8477 6fba 717e 843b
00000070: 86f4 883b c327 d2bc 96f4 84ba dfab 373b
00000080: 955f 6c3c 724b ee3c 4577 81bc 9dfd b3ba
00000090: 2f76 c3bc 67d7 013c 8556 3dbd 2dbe c4bc
000000a0: 0b76 74bc 6ce2 a03c 6930 1ebc 526f d6bc
000000b0: e85e d8bb ebd4 9d3c 8dc3 18bc 6081 893d
000000c0: 1cce 903b c704 5ebb a623 7cbc 466a f8bc
000000d0: 3ae1 4bbc f8f8 1b3c 5255 ab3c e6a8 b2b8
000000e0: cd28 c9ba 51ee bcbb 86c7 c1bc d1d7 913c
000000f0: 6afa 0a3d df23 90ba 90bc a5bb 7667 b23b
00000100: 8871 6abc 4337 7fbc 260d e93b 4097 753a
00000110: fb2f c53c 60cc 64ba 0f24 46bb 0b89 dd3c
00000120: 4678 6e3b daa5 afbb 3fee 413c a0fa c8ba
00000130: 6b2d b73c 96e4 893b 3cda 2abc 0394 243d
00000140: 36de 853c a2b9 a2bb a3e6 bbba 85d6 d8ba
00000150: 73ba 23bc 63fc 203c a753 01bd a344 c53a
00000160: 9fe6 8f3b f0b1 01bd edfa adbc 4a1e d4bb
00000170: 74fe fabc e867 37bd e2ef 9cbc 503f e73c
00000180: 9257 b13b 15c6 c03b 7d2a adbb d31f 803b
00000190: c4f3 5bbb 4de3 b7bc 81cd 7f3b f404 c93b
000001a0: 256d 893b 0195 903c d662 c93c 089f babc
000001b0: 9605 8abc ee6e 0fbb 5b25 8e3c 02fd 24bc
000001c0: e0a5 373b 18e4 bfbc 9441 3fbc 9de3 00bb
000001d0: 9eaf 11bc 925c 9c3c 927d ccbc 1396 013c
000001e0: 0ce1 643c e8f3 983a 231b d13c 715b 86bc
000001f0: 0518 d1ba 24e9 f7bc 51bc 503b deb0 ffbc
00000200: 89b9 a53b 807b 6cba 900a 203c 95a7 533c
00000210: f722 37bc ec34 bd3c 09de 84bc ca39 54bc
00000220: dc28 193c 8e6a e1bb e682 44bd ceb9 2ebd
00000230: 5679 ebbc c36f 853a 2593 4bb9 767c 1d3c
00000240: 71ac 5cbc ba59 223c 8c0c 6938 4e8e b63a
00000250: 2704 033b d4b3 e5bb 4a72 8d3c a4eb 20bc
00000260: 810b 723c fa5b eabc 5a77 a3bc 2826 e33c
00000270: b1aa acbc 4eee 08bb b571 293d 8af5 d33c
00000280: 5905 193b 0502 973c c3ae e8bc 8c8b 683b
00000290: 20b7 a33c 3d9f 9d3c 4215 a23b 9113 3b3c
000002a0: 4395 973c d3af 9c3c 4c6a 9fbc c970 1fbc
000002b0: e0e3 4a3b fb7b b9bc 8918 cb3b 79a1 493c
000002c0: eba0 72bc bb6a 663c 26bc be3b e9e0 9cbb
000002d0: 8a39 34bc 60ff f9bc 65ae f2bc 1abe 8e3c
000002e0: 238b 663b e263 4dbc bca2 17bd a43f 573d
000002f0: 3a9c f23a e26c 8d3c aa08 08bc 0611 2c3c
00000300: 3b4e 0a3c 7524 8a3b 8c74 c23c e6d2 d1bc
00000310: 5654 a73c 4315 873b ffdd f9bb 6399 0cbd
00000320: 3eb7 903c f46f 0ebb 47c7 60bc f99a 493c
00000330: 4539 0abc e2b1 6ebc 0504 44bc ecea 17bd
00000340: d99a de3c 7702 083c 946e bebc 2793 8e3c
00000350: 2e92 f93c c425 973c ebae 74b9 aca4 5a3c
00000360: e150 0fbc 0765 14bd 7b2d 853c 7240 8ebc
00000370: 7354 883c fe9e 2d3b b4a6 9bbc 53f4 663c
00000380: 1cf5 79bc d8fa 523c c17f f1bb 4507 0dbc
00000390: d503 b83b 381a 6a3b f4de ea3a 906c c6bb
000003a0: 404e edbc 1a63 af3b 82de 89bc 3a17 8ebc
000003b0: ca5e 0e3d ca2b f53c b651 743c 7a2c 723c
000003c0: f393 24bc 222b 853c 0668 3e3c a97a 8f3c
000003d0: 6606 0b3d f675 623c a88d d0bb 0c17 29bd
000003e0: 97de 5f3c 8c4b 713b 318a 3ebb 8e62 493c
000003f0: f92a 2dbd f960 c13c e950 e53b 0267 a03c

network_body._body_endoder.seq_layers.0.bias f4 [128]
0.0016010215 -0.00034027328 0.00055275473 -0.0017856078 0.00079189363 -0.00022380239 -0.00095935183 0.00029990973
0.0019341558 -0.0009076224 -0.0020432703 0.0005580434 -6.8281355e-05 -0.00065949094 -0.0009755241 0.0010372568
0.00304019 -0.0010904049 -2.4234852e-05 0.0011796406 -0.0003472394 -0.0020024688 0.0009799717 -0.0014583234
0.0030987156 -0.000473054 -0.002362315 0.00036943596 -0.00087914284 0.0013885859 -0.0031415075 0.00027065712
-0.002224351 -0.0007846382 -0.001668692 0.0008505657 0.0006482649 -0.00071076583 -0.0060212105 0.0005397074
0.0025646444 -0.0007998742 -0.0009031868 -0.00049422565 0.0008216011 0.00026586917 -0.004193635 0.0014202134
-8.0151854e-05 -0.00039549367 0.0010928612 0.0027952115 -0.0025907485 -0.0014300516 -0.0062815505 0.0054225703
-0.0004419096 -0.00082475366 -0.003119404 -0.0020910567 0.0025321075 0.00030484408 -0.0048825135 0.0015365051
-0.0064093024 0.0022001169 0.00015611699 -0.0021254595 -0.00037707383 -0.0016362076 -0.0013534967 -0.0018079765
0.0014216158 -0.00010286403 -0.00093364867 -0.0014419403 -0.0009800852 0.001942603 0.0013813458 0.002054834
-0.0008523233 -0.001573984 -0.00084415363 0.0011460618 -0.0034486325 -0.0005846561 6.5739834e-05 0.003246073
0.0003836977 0.00056683854 0.0034384702 -0.0014470028 0.0010865642 0.004516287 -0.0004470104 0.001285858
-0.00027806312 0.00036375664 0.00089122786 0.00019397221 -0.00085681205 -0.007277136 -0.0013593176 -0.00082552666
0.0015551568 -0.0032795703 0.0013275824 -0.0015733227 0.0022174853 0.0009103708 -0.0008327949 0.0015703884
9.144302e-05 -0.0007410553 -0.0014040591 -0.0018132993 -0.0027966606 -0.0010190367 -0.001473647 -0.0011563797
-3.3518532e-05 -0.0021512245 -0.00074852316 -0.0008506138 -0.0015263994 2.2390506e-05 -0.00092787796 0.00025850485
00000000: 5ed9 d13a b566 b2b9 bee6 103a 0e0b eaba
00000010: 1597 4f3a 7fac 6ab9 037d 7bba 343d 9d39
00000020: 8083 fd3a 82ed 6dba 63e8 05bb a949 123a
00000030: 4632 8fb8 b0e1 2cba 50ba 7fba 90f4 873a
00000040: ed3d 473b ebeb 8eba f34b cbb7 2c9e 9a3a
00000050: af0d b6b9 da3b 03bb 6572 803a 3725 bfba
00000060: d213 4b3b 3c04 f8b9 12d1 1abb dbb0 c139
00000070: 4776 66ba 3601 b63a c0e1 4dbb fce6 8d39
00000080: 6bc6 11bb 2eb0 4dba 03b8 daba 7ff8 5e3a
00000090: 52f0 293a b052 3aba 934d c5bb 277b 0d3a
000000a0: 9813 283b a6ae 51ba d7c3 6cba ec8e 01ba
000000b0: b760 573a 5b64 8b39 c36a 89bb 7426 ba3a
000000c0: 3317 a8b8 435a cfb9 563e 8f3a de2f 373b
000000d0: 8cc9 29bb 9270 bbba 77d5 cdbb d1af b13b
000000e0: 1ab0 e7b9 4834 58ba ea6e 4cbb 1c0a 09bb
000000f0: b7f1 253b 7bd3 9f39 7efd 9fbb 8e64 c93a
00000100: 2005 d2bb d62f 103b 56b3 2339 4b4b 0bbb
00000110: feb1 c5b9 0476 d6ba d067 b1ba a0f9 ecba
00000120: 8355 ba3a b5b8 d7b8 1ac0 74ba 7dff bcba
00000130: 3476 80ba f19e fe3a 460e b53a 65aa 063b
00000140: 736e 5fba 244e ceba 314a 5dba 7437 963a
00000150: 7402 62bb 9b43 19ba cedd 8938 11bc 543b
00000160: 092b c939 e497 143a f557 613b 5ba9 bdba
00000170: 0b6b 8e3a 5cfd 933b b85c eab9 3c8a a83a
00000180: 00c9 91b9 97b6 be39 4aa1 693a 0565 4b39
00000190: af9b 60ba 0b75 eebb 212b b2ba 2868 58ba
000001a0: 67d6 cb3a 0fee 56bb 4602 ae3a f337 ceba
000001b0: 3b53 113b f3a5 6e3a eb4f 5aba 7ed5 cd3a
000001c0: 19c5 bf38 6143 42ba 6808 b8ba 3aac edba
000001d0: 2e48 37bb 3391 85ba 6327 c1ba aa91 97ba
000001e0: 4096 0cb8 8ffb 0cbb 8a38 44ba bafb 5eba
000001f0: 7711 c8ba 3fd3 bb37 d63c 73ba ef87 8739

network_body._body_endoder.seq_layers.0.weight f4 [128, 108]
0.018249622 0.12228905 -0.009822926 -0.07029923 -0.06937635 -0.10739278 -0.21097179 -0.08164805
0.0020228473 0.11257279 0.048036706 0.022473413 -0.06124249 0.06699285 -0.090297125 -0.122799784
-0.037583463 0.05454859 0.10085008 0.00089758396 0.036923565 -0.10972563 -0.19434276 0.29012248
0.032318786 -0.07314032 -0.0991521 0.08409598 -0.06703008 -0.18921177 -0.14934044 -0.09519271
-0.040347736 -0.08844143 0.060579043 -0.07823073 0.035483014 0.023760103 -0.0066226856 0.11572602
0.07838469 -0.02153049 0.063942045 0.09003912 -0.015177379 0.09717712 -0.09053221 -0.047902558
-0.024579005 -0.10839018 0.041086517 0.07399006 -0.076963805 -0.035181724 -0.04334399 0.042218875
0.12400511 0.10857667 0.03829598 -0.0530318 -0.0038924317 -0.15852897 -0.05324222 0.053973325
0.06495552 0.11460551 -0.118269935 -0.0804425 -0.08583836 0.117490366 0.074859805 -0.20821828
-0.06267072 0.04084374 0.041198835 -0.12988336 -0.057837475 -0.02771546 0.03294675 -0.14085793
-0.13340464 0.064750336 0.0842329 0.048571285 -0.07027171 0.059134327 -0.052122142 -0.1362849
0.113359526 0.014322168 0.23950264 0.058339685 0.056715436 0.00776683 0.14750133 -0.06319917
0.10853832 0.01387035 0.05112466 0.013349368 0.06761673 0.0022018484 -0.023406522 0.011404589
-0.07468621 -0.040344875 0.087785795 -0.07986555 -0.003155886 0.0900847 0.030422892 -0.03622259
0.1262043 0.1544158 0.2129077 -0.051877104 0.01922961 -0.05357719 -0.09484795 0.11967634
0.04860784 -0.107931584 -0.07095287 0.024555754 0.016423436 0.09237811 0.09300839 -0.11568648
-0.063076794 0.037508667 0.034058508 -0.1581529 0.14405599 -0.03439402 0.057115845 0.017394986
0.09824234 0.17129736 0.10686526 0.093996406 -0.017454611 0.0045587914 0.12951401 -0.13613313
0.16741917 -0.15261637 0.22616437 -0.1664461 -0.17058186 0.016936388 -0.08178539 -0.0016750986
-0.0072965445 -0.14823394 0.09163689 0.0555574 0.06957695 -0.00014878773 -0.024442194 -0.14105138
-0.08789274 0.026701432 0.10170904 -0.041933537 -0.12599362 0.07149248 -0.075693615 0.050912745
-0.018978314 -0.057177696 0.07780972 -0.0058293184 -0.12251848 -0.09674648 0.089105 -0.09173102
-0.022963926 0.027187997 -0.047235187 -0.06228943 0.10495086 0.07894767 0.17574301 0.11711395
0.1258029 0.10037004 -0.022502413 -0.013854432 0.051762506 0.029420584 0.12302376 0.054119546
0.096456595 0.026530819 0.045194708 0.124423556 0.024328768 -0.042412866 0.036434315 -0.03847961
0.039727733 -0.038039427 0.122564636 0.087616324 0.08632246 0.049255863 0.025348896 -0.09377083
0.042850737 0.0473601 -0.024246829 0.1859469 -0.027916042 -0.06666365 -0.07738033 -0.09077714
0.014101625 0.011688871 0.023989512 -0.109782 0.11501223 0.0033677688 0.0024708882 0.030418295
0.0062756897 -0.078776315 0.09326564 -0.02488533 0.16286685 -0.18872605 0.0036372915 -0.17660284
-0.05836435 -0.009614573 0.029216096 -0.028177965 -0.046643507 0.017786466 0.077783875 0.010367587
0.23422898 -0.05070553 -0.124534614 0.14820275 0.058241155 -0.10060846 0.035981026 0.01843097
-0.024719568 0.0925298 0.011304065 -0.04346228 0.0046633757 0.14380085 -0.09561446 -0.16364841
00000000: 3b80 953c ae72 fa3d 56f0 20bc 0bf9 8fbd
00000010: 3015 8ebd bff0 dbbd fd08 58be 1837 a7bd
00000020: bf91 043b 908c e63d 23c2 443d 2a1a b83c
00000030: 68d9 7abd 8c33 893d b3ed b8bd 747e fbbd
00000040: 1ef1 19bd 586e 5f3d 7d8a ce3d d74b 6b3a
00000050: 2a3d 173d d5b7 e0bd ca01 47be ef8a 943e
00000060: b460 043d 98ca 95bd 4210 cbbd 833a ac3d
00000070: 1147 89bd bbc0 41be b3ec 18be 65f4 c2bd
00000080: ab43 25bd c820 b5bd bb21 783d 6f37 a0bd
00000090: a356 113d 8ca4 c23c 1d03 d9bb c301 ed3d
000000a0: 2788 a03d b660 b0bc 0cf4 823d 6e66 b83d
000000b0: 8baa 78bc cc04 c73d f468 b9bd 7935 44bd
000000c0: e959 c9bc acfb ddbd 564a 283d 1a88 973d
000000d0: 339f 9dbd b61a 10bd 7889 31bd b3ed 2c3d
000000e0: 64f6 fd3d 725d de3d 3fdc 1c3d df37 59bd
000000f0: 2b18 7fbb 6b55 22be 8414 5abd 2213 5d3d
00000100: 6607 853d 4bb6 ea3d 8237 f2bd 0abf a4bd
00000110: 06cc afbd ca9e f03d 1950 993d 2c37 55be
00000120: 8259 80bd c44b 273d 1cc0 283d 2500 05be
00000130: fde6 6cbd 880b e3bc 2cf3 063d 103d 10be
00000140: 3a9b 08be d39b 843d 4c82 ac3d aff2 463d
00000150: 9dea 8fbd d636 723d 077e 55bd 458e 0bbe
00000160: 0a29 e83d 87a7 6a3c 2e40 753e 98f5 6e3d
00000170: 724e 683d e480 fe3b 970a 173e 916e 81bd
00000180: 5749 de3d 7740 633c 1768 513d 4fb7 5a3c
00000190: a47a 8a3d e34c 103b 09bf bfbc 50da 3a3c
000001a0: 15f5 98bd ab40 25bd 0ac9 b33d 8d90 a3bd
000001b0: fbd2 4ebb 547e b83d 6e39 f93c 235e 14bd
000001c0: b33b 013e 2d1f 1e3e 7a04 5a3e 167d 54bd
000001d0: 6a87 9d3c c173 5bbd a43f c2bd de18 f53d
000001e0: 0419 473d 3c0b ddbd bd4f 91bd 2629 c93c
000001f0: 718a 863c bc30 bd3d 2f7b be3d 09ed ecbd
00000200: 682e 81bd b0a2 193d ef80 0b3d d5f2 21be
00000210: 6a83 133e bee0 0cbd 4ef2 693d ee7f 8e3c
00000220: 4833 c93d 9368 2f3e 2cdc da3d 3081 c03d
00000230: f9fc 8ebc ea61 953b 529f 043e 7c66 0bbe
00000240: ee6f 2b3e 7747 1cbe a297 673e d970 2abe
00000250: 03ad 2ebe 2ebe 8a3c 197f a7bd fb8e dbba
00000260: da17 efbb a3ca 17be 1fac bb3d 2890 633d
00000270: 5c7e 8e3d e703 1cb9 ff3a c8bc c66f 10be
00000280: 1c01 b4bd f6bc da3c d44c d03d 80c2 2bbd
00000290: 7904 01be a66a 923d 4105 9bbd e289 503d
000002a0: 6978 9bbc 2933 6abd b45a 9f3d de03 bfbb
000002b0: f8ea fabd 0523 c6bd af7c b63d 79dd bbbd
000002c0: d81e bcbc 5db9 de3c af79 41bd 3423 7fbd
000002d0: 7af0 d63d 51af a13d faf5 333e 70d9 ef3d
000002e0: 7ad2 003e cf8e cd3d fb56 b8bc b3fd 62bc
000002f0: ec04 543d 7003 f13c e2f3 fb3d 75ac 5d3d
00000300: 098b c53d 2957 d93c 161e 393d c7d1 fe3d
00000310: 204d c73c 1db9 2dbd 263c 153d cc9c 1dbd
00000320: 8cb9 223d 3bcf 1bbd 2b03 fb3d 3070 b33d
00000330: d4c9 b03d 84c0 493d 7da8 cf3c ec0a c0bd
00000340: 4184 2f3d aafc 413d 49a1 c6bc dd68 3e3e
00000350: 2fb0 e4bc f486 88bd 9479 9ebd 5de9 b9bd
00000360: 810a 673c ae82 3f3c a785 c43c 63d5 e0bd
00000370: 888b eb3d c9b5 5c3b a0ee 213b ca2f f93c
00000380: 4da4 cd3b 7a55 a1bd 0e02 bf3d 52dc cbbc
00000390: 91c6 263e 6741 41be a05f 6e3b 60d7 34be
000003a0: 750f 6fbd 7186 1dbc 9856 ef3c 7ad5 e6bc
000003b0: 430d 3fbd ecb4 913c 274d 9f3d d0dc 293c
000003c0: b9d9 6f3e 9ab0 4fbd 010c ffbd 76c2 173e
000003d0: 478e 6e3d cf0b cebd d760 133d 8cfc 963c
000003e0: b180 cabc 4480 bd3d af34 393c 8105 32bd
000003f0: 3bcf 983b 8840 133e 84d1 c3bd 7393 27be

network_body._body_endoder.seq_layers.2.bias f4 [128]
-0.001435273 -0.0048204446 -0.0006341198 -0.0025736478 -0.00082067744 5.7084e-05 0.0017309348 -0.0018118632
0.00029622825 -0.00010142833 -5.604718e-06 0.0003874489 0.00094644004 5.5280998e-05 -0.0003668103 -0.0015982832
0.004974061 -0.00070755754 3.5600973e-05 -0.0029202444 0.0004979936 -0.0007455699 0.0005398407 0.000163372
-0.0012334887 -0.0013770033 0.0018483668 -0.00080085144 -0.0015609291 0.00042130618 -0.0036269568 0.002875993
-3.562469e-05 -0.00044629947 -0.0007698499 0.0005264102 -1.4923857e-05 -0.0052713132 -0.0006792654 -0.0017977328
-0.0015519604 -0.0013247012 -0.00021770426 -0.00016059325 -0.0020726265 0.0035782028 0.0030960096 -0.00031671213
0.0008978851 0.0014800348 0.00089055055 0.0011220762 -0.00082036306 0.0018742598 -0.002771418 0.00029938685
-0.00023170197 4.33629e-05 -0.00091114466 0.0011641824 1.4264596e-05 0.0010275766 0.0009369863 0.0009607018
-0.00026071726 -0.0015372515 -0.0014545516 0.00091057975 -0.0025686973 -0.0018550553 -0.0013109401 0.00096572493
0.00063309143 -0.00054524076 0.000709818 -0.00066411175 -0.00049095997 0.0014720598 -0.0010015831 -0.004544798
0.00034049863 -0.0006840379 0.00012333124 0.0012519567 -0.00034519966 -0.002645835 0.00073325535 -0.00010409405
0.00030247882 0.00014641916 -0.0002727138 -0.0018828587 -0.0017100207 -0.0004465141 -0.0037178264 0.0002999921
-0.00055008935 -0.0024749774 0.00031319048 0.0009568783 -0.001921482 0.0040297885 0.0012603616 0.0011659565
-0.0005599707 -3.3463704e-05 -0.002879756 -0.00014798244 -0.0015107638 0.0018119941 -0.0016482951 -0.0016468703
-0.0010949816 -0.0025924826 -0.0014660514 0.000204743 -0.0010114692 0.00024412762 -0.0014475548 -0.0010277824
-0.0006368616 -0.0001110944 0.0012448304 0.000466336 0.0015193447 -0.00060358644 -0.0030383829 0.0006725916
00000000: c51f bcba d2f4 9dbb 0f3b 26ba a5aa 28bb
00000010: bb22 57ba 7a6d 6f38 89e0 e23a 0a7c edba
00000020: 154f 9b39 ecb5 d4b8 2910 bcb6 8322 cb39
00000030: 841a 783a 85dd 6738 7250 c0b9 7c7d d1ba
00000040: 73fd a23b 627b 39ba 4152 1538 9261 3fbb
00000050: c98b 023a 5972 43ba 1984 0d3a d64e 2b39
00000060: 03ad a1ba 907c b4ba e644 f23a 3bf0 51ba
00000070: 1798 ccba c2e2 dc39 3db2 6dbb 287b 3c3b
00000080: b86b 15b8 4dfd e9b9 c1cf 49ba cafe 093a
00000090: 7a61 7ab7 fbba acbb bb10 32ba e7a1 ebba
000000a0: 266b cbba 99a1 adba 8b47 64b9 ec64 28b9
000000b0: e7d4 07bb 4880 6a3b 6ce6 4a3b 620c a6b9
000000c0: 0d60 6b3a bafd c13a d673 693a a112 933a
000000d0: a20d 57ba b9a9 f53a aea0 35bb 06f7 9c39
000000e0: 06f5 72b9 8fe0 3538 e2d9 6eba 7b97 983a
000000f0: f951 6f37 c0af 863a 16a0 753a 9bd7 7b3a
00000100: e1b0 88b9 9a7d c9ba a7a6 beba f9b3 6e3a
00000110: 9757 28bb 5425 f3ba dad3 abba b428 7d3a
00000120: 0cf6 253a 7dee 0eba 1413 3a3a c917 2eba
00000130: c4b3 00ba 21f2 c03a 8d47 83ba 87ec 94bb
00000140: f484 b239 0251 33ba 7a52 0139 b218 a43a
00000150: eafb b4b9 bf65 2dbb ef37 403a 114d dab8
00000160: 0596 9e39 1888 1939 07fb 8eb9 41ca f6ba
00000170: c622 e0ba 1c1a eab9 c7a6 73bb 4248 9d39
00000180: df33 10ba 3b33 22bb b733 a439 04d7 7a3a
00000190: 3dda fbba 510c 843b b832 a53a 02d3 983a
000001a0: ffca 12ba 615b 0cb8 4aba 3cbb bc2b 1bb9
000001b0: d204 c6ba 6f80 ed3a 9b0b d8ba ccdb d7ba
000001c0: 7c85 8fba a4e6 29bb 8628 c0ba 48b0 5639
000001d0: 4693 84ba 82fc 7f39 e1bb bdba a8b6 86ba
000001e0: 0ff3 26ba 5afb e8b8 9429 a33a 8f7e f439
000001f0: c024 c73a 003a 1eba 9b1f 47bb dc50 303a

network_body._body_endoder.seq_layers.2.weight f4 [128, 128]
-0.012775096 -0.07968838 -0.08717949 -0.089670405 0.02000349 -0.039947666 0.02588207 -0.046411354
-0.05354703 0.00806637 -0.19071369 0.032962978 0.1543424 0.0553451 -0.013751163 -0.022849642
0.015896164 -0.0010370258 -0.11619715 0.18061501 0.11351996 -0.08451462 0.06557257 0.038319003
0.06349059 0.027040152 0.0532052 0.1190202 0.0811042 -0.020187927 -0.044649154 0.012999496
0.017127575 -0.025709618 -0.042264827 0.004644948 -0.093881205 -0.076542236 -0.061523207 0.01922806
-0.10229739 0.28099683 -0.11322739 -0.08566413 -0.0012652766 0.03843126 -0.012453282 0.02602847
-0.08347288 -0.14358279 -0.017281171 -0.042494558 0.11634919 -0.09520597 -0.014346437 -0.09856367
-0.14173885 0.019833477 0.04307712 0.056421295 -0.11606634 -0.056620803 0.035297632 -0.20758411
-0.078987956 0.006375889 -0.035853192 -0.05783199 0.107057296 -0.08755747 0.11822314 0.12421791
-0.132301 0.06876192 -0.0024508974 0.006539772 0.103136964 -0.047798075 0.10339189 -0.017978566
0.04452709 -0.18597086 0.05969994 0.03003846 0.03584535 0.085560344 0.08575044 -0.047179017
0.034241743 -0.063786976 0.017024878 -0.058240328 0.035996694 0.09974466 -0.09217376 -0.05341158
-0.062567376 -0.07658445 0.11809671 -0.03310411 -0.040444393 0.020048633 0.06410732 0.024085889
0.002519075 0.16309364 -0.06611448 -0.3463782 -0.09811148 -0.0102466205 0.018078234 -0.112298526
-0.1431173 -0.07693505 -0.021961257 -0.14309646 0.37122697 -0.0940952 0.049388777 -0.025819536
-0.07647441 -0.1273705 -0.0293309 0.053301465 -0.052456755 0.0893368 0.10080035 0.024750818
0.11660022 -0.069288425 0.04854669 0.16255696 -0.04023744 0.03175786 -0.069126144 -0.057362564
-0.04571923 0.07547343 0.07187743 -0.09360777 -0.08644731 0.005934325 0.051903695 -0.11989009
0.013786304 -0.05256338 0.1260082 -0.14220256 0.13973358 -0.0181405 -0.13437109 -0.13973711
-0.10438245 -0.12348374 0.00247512 0.01268737 -0.065448225 7.377538e-05 0.058290195 -0.06454009
0.054141413 -0.074737705 -0.090383425 0.0677833 -0.08108563 -0.027666286 0.06101027 -0.08696021
0.14606942 0.029896708 -0.10212787 0.08140184 0.027709424 -0.08211279 -0.10465641 0.084904216
-0.03990615 0.020587355 0.082238525 -0.017409872 0.11807775 0.012679693 0.06286673 -0.16784865
-0.046311967 -0.094699144 0.03655168 0.0604732 0.099165976 -0.031658962 -0.07619041 -0.013909754
-0.09593077 -0.095519826 -0.0826289 0.019093342 0.022991024 -0.011593628 0.032679606 -0.06499405
-0.05736761 -0.0026034042 -0.06303752 0.008980717 -0.017294588 0.08366958 -0.029599309 0.13784793
0.08694359 0.01061939 0.047721926 0.11003388 -0.12089956 -0.08485432 0.09707053 -0.038643178
0.06671243 0.006608587 0.00387324 0.078246854 -0.12997386 -0.09092663 -0.008174402 0.052753206
-0.030123254 -0.046240073 0.08387014 0.11370572 0.1981108 0.03780153 -0.11531435 -0.041146737
0.041896053 -0.07431441 -0.05654872 0.015609617 -0.029440653 0.090222165 -0.0772637 -0.10299686
-0.069960415 -0.14565027 0.034109913 -0.010552523 0.059301835 -0.049152546 0.020273099 -0.03825861
-0.08935633 0.009263387 -0.013198684 0.013804021 -0.034446113 0.023159774 -0.061873946 0.043639403
00000000: a34e 51bc a933 a3bd 298b b2bd 1ea5 b7bd
00000010: 5cde a33c 2aa0 23bd a306 d43c d519 3ebd
00000020: 2154 5bbd cf28 043c 734a 43be 3004 073d
00000030: ef0b 1e3e 8bb1 623d 8f4c 61bc 2c2f bbbc
00000040: ac38 823c d0ec 87ba c5f8 edbd 24f3 383e
00000050: 277d e83d 0016 adbd e94a 863d 63f4 1c3d
00000060: 5b07 823d 4f83 dd3c b2ed 593d ddc0 f33d
00000070: f519 a63d 2761 a5bc 08e2 36bd d7fb 543c
00000080: 214f 8c3c fa9c d2bc e21d 2dbd a634 983b
00000090: ca44 c0bd 2dc2 9cbd c2ff 7bbd 2a84 9d3c
000000a0: 4b81 d1bd d1de 8f3e c3e3 e7bd ad70 afbd
000000b0: a3d7 a5ba 196a 1d3d da08 4cbc a839 d53c
000000c0: d4f3 aabd 5e07 13be 3e91 8dbc c60e 2ebd
000000d0: 7c48 ee3d 59fb c2bd 510d 6bbc c0db c9bd
000000e0: fd23 11be d179 a23c a271 303d 041a 673d
000000f0: 30b4 edbd 37eb 67bd 4094 103d ee90 54be
00000100: 70c4 a1bd d5ec d03b ccda 12bd 3de1 6cbd
00000110: db40 db3d 5551 b3bd f91e f23d f665 fe3d
00000120: ea79 07be 0dd3 8c3d 3c9f 20bb 954b d63b
00000130: 7939 d33d eac7 43bd 21bf d33d c947 93bc
00000140: 0a62 363d 256f 3ebe ed87 743d 3713 f63c
00000150: 93d2 123d 433a af3d ed9d af3d c93e 41bd
00000160: 1241 0c3d bfa2 82bd c277 8b3c 698d 6ebd
00000170: 4571 133d ee46 cc3d 99c5 bcbd 1ac6 5abd
00000180: 5323 80bd 4fd8 9cbd b0dc f13d 2d98 07bd
00000190: 05a9 25bd 083d a43c b34a 833d c54f c53c
000001a0: 1117 253b 0502 273e 0767 87bd 7c58 b1be
000001b0: acee c8bd 71e1 27bc ce18 943c c5fc e5bd
000001c0: 578d 12be 2090 9dbd 18e8 b3bc e187 12be
000001d0: 7611 be3e fcb4 c0bd e34b 4a3d 7e83 d3bc
000001e0: 9e9e 9cbd 6a6d 02be 5b47 f0bc a352 5a3d
000001f0: e5dc 56bd 36f6 b63d 6a70 ce3d 3ac2 ca3c
00000200: 19cc ee3d 17e7 8dbd e5d8 463d 5575 263e
00000210: 04d0 24bd 8814 023d 0292 8dbd 02f5 6abd
00000220: 1644 3bbd d091 9a3d 7934 933d 6eb5 bfbd
00000230: 4a0b b1bd ba74 c23b f898 543d ef88 f5bd
00000240: f3df 613c b34c 57bd 4b08 013e 8c9d 11be
00000250: 5216 0f3e 639b 94bc 9398 09be 3f17 0fbe
00000260: 77c6 d5bd 0be5 fcbd 9f35 223b b0de 4f3c
00000270: b809 86bd dbb7 9a38 b3c1 6e3d 982d 84bd
00000280: 63c3 5d3d 1510 99bd f21a b9bd f9d1 8a3d
00000290: 3910 a6bd 68a4 e2bc e8e5 793d 3218 b2bd
000002a0: 3993 153e f1e9 f43c 6b28 d1bd 02b6 a63d
000002b0: e0fe e23c c02a a8bd 1a56 d6bd 43e2 ad3d
000002c0: a274 23bd d0a6 a83c ac6c a83d 269f 8ebc
000002d0: bfd2 f13d 7dbe 4f3c 46c0 803d 84e0 2bbe
000002e0: 9eb1 3dbd a0f1 c1bd 37b7 153d bfb2 773d
000002f0: 8817 cb3d d4ac 01bd b809 9cbd bde5 63bc
00000300: 5a77 c4bd e69f c3bd 5739 a9bd a469 9c3c
00000310: ac57 bc3c 33f3 3dbc 0ddb 053d 9a1b 85bd
00000320: 4dfa 6abd e09d 2abb d119 81bd db23 133c
00000330: 61ad 8dbc f55a ab3d 407a f2bc 0228 0d3e
00000340: 7b0f b23d f3fc 2d3c 1178 433d 7159 e13d
00000350: 309a f7bd 1ac8 adbd eacc c63d 4f48 1ebd
00000360: 87a0 883d d98c d83b 2fd6 7d3b e33f a03d
00000370: de17 05be be37 babd eded 05bc bf13 583d
00000380: 0bc5 f6bc 3b66 3dbd 1cc4 ab3d 8bde e83d
00000390: 8fdd 4a3e c7d5 1a3d ee29 ecbd 7b89 28bd
000003a0: 329b 2b3d 2732 98bd a19f 67bd 7bbf 7f3c
000003b0: 862d f1bc 66c6 b83d 6e3c 9ebd 05f0 d2bd
000003c0: 6847 8fbd 5825 15be d6b6 0b3d 7de4 2cbc
000003d0: 7be6 723d 2e54 49bd c513 a63c 0fb5 1cbd
000003e0: 7400 b7bd 76c5 173c 4b3f 58bc 432a 623c
000003f0: 5e17 0dbd 91b9 bd3c 896f 7dbd 3bbf 323d

network_body._body_endoder.seq_layers.4.bias f4 [128]
0.00043050156 0.00082488416 -0.00017893082 -0.00047976163 -0.0031952076 0.00021227855 0.0021410068 -0.000101228965
-0.0016706027 -0.00048589424 0.0023713824 -0.0002910121 0.0046865307 -0.0017335414 -0.0012207521 -0.0006481456
2.6564418e-05 -0.0005127166 -0.0013729667 -0.0030012645 -0.0009627592 -0.0003664529 -0.00018845554 -0.00031389575
0.0012101361 0.0006969635 -0.0016373761 -0.00076285005 -0.00013516743 0.0013738514 0.00025026264 -0.002582446
-0.0012145446 -0.0012394325 0.00092559017 -0.0003592979 0.0011003126 -0.0010706508 -0.00028879783 0.00020007297
0.00014318923 -8.057768e-05 -0.0008112305 0.0014085893 -0.00069158076 -0.0011242961 0.00015404973 -0.0013493166
-0.00036861456 0.00015276013 0.0015720979 -0.00016753681 -0.00046453142 -0.0021945809 -0.0016640119 -0.0009628334
-0.00030988807 0.0019227978 0.00088020985 0.00028861087 -2.3644332e-05 -0.00030842167 -0.0011325231 0.00030029193
0.0010949938 0.00021194584 -0.0007190248 -0.001199924 -0.00090527866 -0.00038410974 -0.0014023416 0.0004708206
-0.00095954986 0.00090602535 0.00037439194 -0.00019970056 -0.0009535247 -0.0007956356 -0.0009697411 -0.004065101
6.4528704e-06 0.00013582093 0.0007744316 -0.00042073196 -0.0051418673 -5.2628755e-05 0.0011331611 0.0012334717
0.00069839513 -0.00021997857 0.00019062342 0.00053826143 -3.0173378e-05 0.0003075869 -0.0002128897 0.00051552575
-0.0011542619 0.00048297277 -0.0011431086 -0.0027445075 -0.0011569818 0.0006740913 -0.001609118 -0.0004340873
0.00035596418 -0.00093690644 7.893892e-06 -0.0001269435 -2.326071e-05 -0.0006651673 -0.003761638 -0.00047228672
-0.0019094676 0.0008651218 -3.2927688e-05 0.0027818594 0.0010914635 -0.00057432335 -0.0006644731 -0.00087394955
-0.002569187 0.00043609765 -0.0015978173 -0.0012507435 -0.0007309116 -0.000539069 -0.00013645762 0.0010003527
00000000: f1b4 e139 0a3d 583a 609f 3bb9 8488 fbb9
00000010: b066 51bb 1797 5e39 2250 0c3b e34a d4b8
00000020: 20f8 daba 9fbf feb9 3269 1b3b fc92 98b9
00000030: 7891 993b ff37 e3ba a501 a0ba 51e8 29ba
00000040: a7d6 de37 d467 06ba 1ef5 b3ba ddb0 44bb
00000050: ad61 7cba 7a20 c0b9 269c 45b9 6092 a4b9
00000060: 6e9d 9e3a 6eb4 363a 3a9d d6ba 00fa 47ba
00000070: bbbb 0db9 ce12 b43a af35 8339 413e 29bb
00000080: 5b31 9fba 7474 a2ba 4ea3 723a 2660 bcb9
00000090: 5d38 903a 1455 8cba ca69 97b9 aeca 5139
000000a0: 1125 1639 d0fb a8b8 c2a8 54ba 6aa0 b83a
000000b0: 334b 35ba 1e5d 93ba 6988 2139 8ddb b0ba
000000c0: 9c42 c1b9 3c2e 2039 da0e ce3a d2ac 2fb9
000000d0: 5a8c f3b9 f5d2 0fbb f91a daba a866 7cba
000000e0: 7978 a2b9 6306 fc3a e2bd 663a b250 9739
000000f0: d157 c6b7 a8b3 a1b9 2b71 94ba 8070 9d39
00000100: e585 8f3a c73d 5e39 f07c 3cba c546 9dba
00000110: 3950 6dba 5662 c9b9 c7ce b7ba 79d8 f639
00000120: 4d8a 7bba 5582 6d3a 094a c439 b666 51b9
00000130: f6f5 79ba 3492 50ba 3936 7eba 8a34 85bb
00000140: bc85 d836 276b 0e39 3a03 4b3a b095 dcb9
00000150: 1c7d a8bb b2bd 5cb8 9486 943a 71ac a13a
00000160: 8114 373a 0caa 66b9 16e2 4739 1d1a 0d3a
00000170: d61c fdb7 9d43 a139 253b 5fb9 5924 073a
00000180: 9a4a 97ba 8237 fd39 5cd4 95ba 32dd 33bb
00000190: dea5 97ba 80b5 303a 0ae9 d2ba 3696 e3b9
000001a0: b4a0 ba39 ba9a 75ba 0270 0437 231c 05b9
000001b0: ff1f c3b7 9f5e 2eba d085 76bb 409d f7b9
000001c0: 1a47 faba 57c9 623a d61b 0ab8 db4f 363b
000001d0: 700f 8f3a 308e 16ba 0930 2eba c319 65ba
000001e0: ce5f 28bb 09a4 e439 da6d d1ba fdef a3ba
000001f0: a69a 3fba 4f50 0dba 1016 0fb9 441e 833a

network_body._body_endoder.seq_layers.4.weight f4 [128, 128]
-0.013029809 0.002905024 0.059033845 0.14141424 0.056678 -0.16178265 -0.018233564 -0.06314703
0.10597756 -0.031041913 0.06724552 -0.018930648 -0.0059646545 -0.043220144 0.020587046 0.115959525
-0.014279832 0.026880577 0.14562812 0.12364308 -0.04279724 -0.09371441 -0.018493745 0.019159704
0.027067032 -0.010914743 -0.09524778 0.034039922 0.053359658 -0.10567062 0.011328494 -0.09532506
-0.14138061 0.017547179 0.18698256 0.11009355 -0.0057830564 -0.07262827 0.070068546 -0.03454287
-0.06139248 -0.116135515 0.030006185 -0.004941171 -0.022368072 0.0071644583 0.06897769 -0.18868688
-0.13199544 0.08126385 -0.053600617 -0.03134465 -0.07626086 -0.063331254 -0.036097165 0.032582894
-0.08794508 0.13264224 0.023634624 0.1477758 0.047061212 0.07212454 -0.038254004 -0.00013876952
0.019242095 -0.15617132 0.048868094 -0.2850396 0.080395326 0.08582254 -0.06463123 -0.13894391
0.18854667 -0.119860515 -0.09342117 -0.0055242707 -0.1236373 -0.06604014 0.0016234224 -0.1611989
0.07973008 0.018230177 -0.09451172 0.0048758793 0.018159686 -0.13189174 0.2042695 -0.054692104
-0.037689082 -0.069416136 0.11585575 -0.04152359 0.061523218 -0.03760009 0.022176834 0.012271762
0.18708292 -0.16151075 0.021454448 -0.017689401 0.085627526 0.107951894 -0.006410697 0.036395166
0.20527089 -0.07572745 -0.0815822 0.0040706936 -0.14901036 -0.09103883 -0.08678292 0.15139331
-0.013209167 -0.09538831 0.07437823 0.08805937 0.083066106 0.024377715 0.081238836 0.0075284275
-0.07422681 0.050089188 0.010164723 0.051810693 -0.08436237 0.08772163 0.03274757 0.014254691
-0.09794432 0.07157424 0.13965034 -0.10147614 0.09152782 0.0072683236 -0.025720648 0.14168455
-0.059231885 -0.17807478 0.015961653 0.08367123 -0.13764612 0.09587326 0.16334756 0.11494236
-0.011268621 -0.06902114 0.03532128 -0.067035444 -0.0048403093 -0.059857097 0.03138808 -0.123056106
-0.007608342 -0.03640247 -0.17975983 -0.14901814 -0.0803416 -0.041470308 0.008780231 0.051612888
0.11557492 0.011060562 0.11086722 -0.006624048 0.11282427 0.069077365 0.023391277 0.064859375
0.010691581 -0.1180047 0.09069241 0.08641363 0.01047881 0.10772902 0.108934976 0.08363227
-0.026205404 0.03545588 0.13060805 0.0026655358 -0.10979599 -0.15670106 -0.03305772 -0.10451125
-0.11506288 0.0639068 0.098747544 -0.15180415 0.188886 -0.11772335 0.043366168 -0.05518701
-0.17176062 0.058325376 -0.08200527 -0.020413095 -0.11523573 -0.1623825 0.11665099 -0.039965075
0.0603705 0.016995676 -0.0116237225 0.028920583 -0.029095031 0.07254596 -0.107416496 -0.049055897
-0.005733578 -0.074416906 0.15537062 0.020928929 -0.05274357 0.07344954 -0.0039045117 0.031498898
0.16545756 -0.051990792 0.018468155 0.013092641 0.002213548 0.029596506 0.0026034128 0.051424928
0.038262676 -0.068631425 -0.090774536 -0.015438337 0.034768365 0.09295852 0.10130992 -0.0073964917
-0.018310986 -0.0023064527 0.13019903 0.004794584 0.009931894 0.17626755 0.0039333603 0.010844012
0.122693926 0.03178528 -0.15270835 0.056900963 0.04322551 -0.008822331 -0.00848572 -0.15790777
0.04978774 0.053043306 -0.026681162 -0.103223614 -0.03541613 -0.0056683277 0.009571973 -0.24613567
00000000: fb7a 55bc 3762 3e3b 79cd 713d e5ce 103e
00000010: 3127 683d 5aaa 25be 8e5e 95bc 3b53 81bd
00000020: c30a d93d 9c4b febc 05b8 893d 7214 9bbc
00000030: 2673 c3bb 9b07 31bd 2aa6 a83c 307c ed3d
00000040: f5f5 69bc a834 dc3c 8a1f 153e 9538 fd3d
00000050: 294c 2fbd 57ed bfbd 3280 97bc d0f4 9c3c
00000060: aebb dd3c c0d3 32bc 4511 c3bd 726d 0b3d
00000070: a88f 5a3d d769 d8bd 269b 393c c939 c3bd
00000080: 14c6 10be 1abf 8f3c 5b78 3f3e ba78 e13d
00000090: cb7f bdbb 21be 94bd 1980 8f3d d37c 0dbd
000000a0: ae76 7bbd 75d8 edbd 88cf f53c 8ce9 a1bb
000000b0: 3f3d b7bc d5c3 ea3b 2d44 8d3d 2237 41be
000000c0: d029 07be a96d a63d 528c 5bbd 3f63 00bd
000000d0: a72e 9cbd d1b3 81bd 9fda 13bd a475 053d
000000e0: 8d1c b4bd 5ed3 073e 669d c13c 8a52 173e
000000f0: 42c3 403d 08b6 933d 3bb0 1cbd a982 11b9
00000100: 99a1 9d3c 60eb 1fbe e929 483d b6f0 91be
00000110: 4ea6 a43d bac3 af3d 615d 84bd 5047 0ebe
00000120: 6112 413e 6e79 f5bd 9953 bfbd f104 b5bb
00000130: 8e35 fdbd 0e40 87bd 04c9 d43a 5311 25be
00000140: 8649 a33d 7457 953c 5c8f c1bd d7c5 9f3b
00000150: 9fc3 943c a10e 07be 062c 513e d404 60bd
00000160: de5f 1abd 0c2a 8ebd c845 ed3d a414 2abd
00000170: c5ff 7b3d 8d02 1abd 31ac b53c 800f 493c
00000180: aa92 3f3e 1363 25be 3dc1 af3c 5de9 90bc
00000190: 7c5d af3d e215 dd3d d310 d2bb 1913 153d
000001a0: 8832 523e fe16 9bbd 9214 a7bd 7463 853b
000001b0: 2c96 18be 9172 babd 3ebb b1bd d906 1b3e
000001c0: 436b 58bc f25a c3bd 9d53 983d 7958 b43d
000001d0: 901e aa3d c6b3 c73c 8c60 a63d 07b1 f63b
000001e0: 3a04 98bd 522a 4d3d f089 263c 7337 543d
000001f0: 2ec6 acbd 66a7 b33d 5122 063d 828c 693c
00000200: 0897 c8bd 8495 923d 8000 0f3e b9d2 cfbd
00000210: f072 bb3d 1e2b ee3b 1cb4 d2bc c115 113e
00000220: 229d 72bd 3c59 36be 03c2 823c d25b ab3d
00000230: 1bf3 0cbe 3359 c43d 9544 273e e666 eb3d
00000240: 06a0 38bc f55a 8dbd 0cad 103d e149 89bd
00000250: 759b 9ebb b72c 75bd ca90 003d d704 fcbd
00000260: 664f f9bb c21a 15bd f612 38be 3698 18be
00000270: 238a a4bd c5dc 29bd f5da 0f3c 0968 533d
00000280: 8bb2 ec3d 5c37 353c 5a0e e33d 8b0e d9bb
00000290: 6910 e73d 6f78 8d3d 109f bf3c fed4 843d
000002a0: be2b 2f3c 73ac f1bd f1bc b93d a1f9 b03d
000002b0: 51af 2b3c 08a1 dc3d 4d19 df3d 6547 ab3d
000002c0: b7ac d6bc 2f3a 113d 1ebe 053e 45b0 2e3b
000002d0: b8dc e0bd 3e76 20be 8867 07bd ff09 d6bd
000002e0: 16a6 ebbd 91e1 823d 273c ca3d 8c72 1bbe
000002f0: 556b 413e f118 f1bd b9a0 313d c60b 62bd
00000300: 04e2 2fbe 97e6 6e3d 61f2 a7bd 5d39 a7bc
00000310: b600 ecbd 9947 26be b7e6 ee3d 6bb2 23bd
00000320: 0f47 773d 843a 8b3c 6d71 3ebc dcea ec3c
00000330: b458 eebc fa92 943d 2efd dbbd d6ee 48bd
00000340: bde0 bbbb e467 98bd 7a19 1f3e 2573 ab3c
00000350: a409 58bd b66c 963d d6e2 7fbb fd04 013d
00000360: b56d 293e 4cf4 54bd 874a 973c 8482 563c
00000370: 2c11 113b 5f74 f23c 059e 2a3b f2a2 523d
00000380: 53b9 1c3d a28e 8cbd 00e8 b9bd 14f1 7cbc
00000390: 4669 0e3d 0961 be3d 937b cf3d 455e f2bb
000003a0: ec00 96bc db27 17bb e552 053e e31b 9d3b
000003b0: 62b9 223c 7b7f 343e 6be3 803b 15ab 313c
000003c0: f446 fb3d 4831 023d 945f 1cbe fc10 693d
000003d0: 3b0d 313d 8a8b 10bc b007 0bbc 93b2 21be
000003e0: 3bee 4b3d f043 593d 7492 dabc e766 d3bd
000003f0: 8110 11bd 61bd b9bb c4d3 1c3c fd0a 7cbe
