mlagents/Assets/results/TestLearning2/RollerBall/RollerBall-5388.pt (torch, 944255 bytes, 48 tensors)

network_body._body_endoder.seq_layers.0.weight f4 [128, 40]
-0.25934425 -0.3463472 0.057881296 0.13322464 0.058457825 0.07283692 0.27006873 -0.097892694
-0.009826009 -0.210453 0.22349246 0.23401934 -0.08128809 0.050098274 0.078919224 0.081274524
0.05666263 -0.12650272 0.107621685 0.19143294 0.050211564 0.0885586 -0.3322913 0.25922242
0.15687722 -0.067054614 0.093994476 0.008265231 0.1604971 -0.0069064307 -0.0513708 0.06985297
0.058354516 0.1623818 0.14753558 -0.3113971 0.20286278 -0.07000666 0.020366292 0.065555446
0.099436104 0.07681215 0.12715802 -0.023098083 -0.10524075 0.34170154 -0.13510089 -0.021772986
0.118657865 -0.040682048 0.018581737 -0.15405877 0.09265141 -0.18516156 0.010620191 0.24750598
-0.049439948 0.015832976 -0.013435405 0.23303325 0.17534788 0.014883994 0.14445518 0.002882636
0.06967818 -0.025021419 0.010317916 0.27875522 -0.25270647 -0.038130544 0.14966215 0.037825286
-0.036909103 0.2843691 0.3322992 0.043241054 -0.04144229 -0.079960614 0.1811739 0.017058171
0.11868844 0.118897445 -0.0070426734 -0.008003067 -0.034914687 -0.026670154 -0.027687898 -0.16237447
0.10261015 -0.017332545 -0.16375332 -0.014070848 -0.073469736 -0.06329641 -0.07485133 0.25433862
-0.04537646 0.15443589 0.27634516 -0.08829284 -0.024856575 -0.25881374 -0.26437733 -0.20027247
0.1777385 0.09080199 -0.09902843 0.069980465 -0.21216038 -0.30932 -0.14845127 0.12578677
0.011715554 0.2952795 -0.07602646 -0.072765104 0.31216165 0.08645302 -0.036642607 0.14153934
0.013992118 0.20194775 0.007349026 -0.041739173 0.0613484 -0.024420245 -0.042724665 0.17193519
-0.12118077 0.15116884 0.11837296 0.06669015 0.1375999 0.013311221 -0.10640171 0.18090408
-0.018939184 -0.16249411 0.05411796 -0.19747014 -0.16201685 -0.23273437 -0.1498363 0.3089984
-0.11197291 0.03990608 -0.115580976 0.0052960585 -0.1205489 0.092768446 0.018684216 0.34294617
0.32901648 0.08598191 0.023057463 0.09769728 0.15831321 -0.0016678943 -0.018912816 0.25043496
-0.09881745 0.08575091 -0.17837052 -0.1418709 0.40180334 -0.021341493 -0.009875528 -0.10089681
-0.005256184 -0.02488966 0.028796481 0.05804201 -0.044407472 -0.010186761 0.077967264 -0.013161271
0.095317766 0.18060979 0.12481639 -0.15178402 0.21843383 0.041409053 0.10566205 0.06437391
0.035244286 -0.217966 -0.3506505 -0.21915905 0.04307111 -0.0015476489 0.005474073 -0.1058049
0.05890068 -0.0661672 -0.17013651 0.4505849 -0.27833894 -0.08360836 -0.35387963 0.054566205
-0.20054121 -0.25259414 0.004577542 -0.27757582 -0.034958098 -0.22260779 -0.13130878 0.05141906
-0.10421422 0.3326546 -0.1476023 -0.20812976 0.012979228 -0.00021535024 0.09152935 -0.06703864
0.031810623 -0.25376168 -0.047785923 -0.09428981 -0.15151675 -0.045098085 0.05111931 0.121094756
0.059732057 0.2496419 -0.030465141 -0.100843914 0.009376291 0.24620026 0.08502842 -0.07830327
-0.32306185 -0.018470477 0.11748276 -0.14258999 -0.055095837 0.12777692 0.007403506 0.039262686
-0.29758018 -0.049915146 0.009932593 -0.14489341 0.2021654 -0.21075594 0.019005517 0.0289783
0.027548378 -0.13905229 -0.38722888 0.13556972 -0.09622593 -0.18385285 -0.27701756 0.031012384
00000000: c5c8 84be 6c54 b1be f014 6d3d 0a6c 083e
00000010: 7971 6f3d 862b 953d 7346 8a3e f77b c8bd
00000020: 45fd 20bc fe80 57be 35db 643e c4a2 6f3e
00000030: 5f7a a6bd d933 4d3d 67a0 a13d 4273 a63d
00000040: 1317 683d ee89 01be c268 dc3d ff06 443e
00000050: a4aa 4d3d 365e b53d 1622 aabe cdb8 843e
00000060: 6ca4 203e ee53 89bd 2d80 c03d e46a 073c
00000070: 5a59 243e 574f e2bb 306a 52bd 130f 8f3d
00000080: 2505 6f3d 6a47 263e 9113 173e 716f 9fbe
00000090: 43bb 4f3e a75f 8fbd 36d7 a63c ef41 863d
000000a0: 28a5 cb3d b04f 9d3d b635 023e 3138 bdbc
000000b0: 7688 d7bd 81f3 ae3e e357 0abe 435d b2bc
000000c0: e502 f33d 38a2 26bd ba38 983c 95c1 1dbe
000000d0: 06c0 bd3d fe9a 3dbe 4f00 2e3c 3572 7d3e
000000e0: 8b81 4abd 28b4 813c 2c20 5cbc 45a0 6e3e
000000f0: 658e 333e ffdb 733c 0fec 133e 9bea 3c3b
00000100: 6fb3 8e3d b8f9 ccbc 7a0c 293c 01b9 8e3e
00000110: be62 81be c62e 1cbd 0941 193e b0ee 1a3d
00000120: 002e 17bd d498 913e 1f23 aa3e 881d 313d
00000130: 64bf 29bd 64c2 a3bd a785 393e 94bd 8b3c
00000140: ed12 f33d 8180 f33d 3ac6 e6bb 4c1f 03bc
00000150: b402 0fbd 5e7b dabc bbd1 e2bc 7e45 26be
00000160: 4525 d23d fbfc 8dbc f3ae 27be 6a89 66bc
00000170: 4d77 96bd 8ca1 81bd a74b 99bd ac38 823e
00000180: abdc 39bd 7124 1e3e 1d7d 8d3e e0d2 b4bd
00000190: 04a0 cbbc 3c83 84be 775c 87be 3a14 4dbe
000001a0: 1501 363e 65f6 b93d 6bcf cabd eb51 8f3d
000001b0: 9240 59be 315f 9ebe 9c03 18be 3fce 003e
000001c0: 98f2 3f3c e02e 973e c3b3 9bbd df05 95bd
000001d0: a7d3 9f3e 480e b13d 8f16 16bd b0ef 103e
000001e0: 323f 653c 64cb 4e3e 19d0 f03b b2f6 2abd
000001f0: 7648 7b3d f70c c8bc 0f00 2fbd c70f 303e
00000200: a02d f8bd 01cc 1a3e 866d f23d d894 883d
00000210: fde6 0c3e 4f17 5a3c 24e9 d9bd eb3e 393e
00000220: 5926 9bbc db64 26be cbaa 5d3d 9d35 4abe
00000230: bfe7 25be eb51 6ebe b06e 19be 0a35 9e3e
00000240: 0e52 e5bd 8f74 233d b8b5 ecbd 8f8a ad3b
00000250: 57e2 f6bd 62fd bd3d a40f 993c a496 af3e
00000260: d974 a83e 4917 b03d 01e3 bc3c 8315 c83d
00000270: dc1c 223e 3f9d daba 0def 9abc 0339 803e
00000280: ce60 cabd 2c9e af3d c3a6 36be 9b46 11be
00000290: 2bb9 cd3e 5bd4 aebc f7cc 21bc fda2 cebd
000002a0: 113c acbb 66e5 cbbc 99e6 eb3c 75bd 6d3d
000002b0: 9ce4 35bd 5fe6 26bc 4dad 9f3d 5fa2 57bc
000002c0: f635 c33d c6f1 383e bc9f ff3d 456d 1bbe
000002d0: 1ead 5f3e 8a9c 293d 5865 d83d 78d6 833d
000002e0: 505c 103d 7b32 5fbe 7688 b3be 3b6b 60be
000002f0: 556b 303d 7bda caba da5f b33b 3db0 d8bd
00000300: d741 713d ab82 87bd 4438 2ebe 10b3 e63e
00000310: 7182 8ebe dc3a abbd b62f b5be d080 5f3d
00000320: ad5a 4dbe 0554 81be 35ff 953b 6b1e 8ebe
00000330: 3930 0fbd 4cf3 63be cf75 06be cb9c 523d
00000340: 446e d5bd b451 aa3e 0f25 17be f81f 55be
00000350: d4a6 543c a4cf 61b9 bd73 bb3d 8e4b 89bd
00000360: db4b 023d 0ded 81be 2cbb 43bd 041b c1bd
00000370: 3527 1bbe c5b8 38bd 7b62 513d 8700 f83d
00000380: 9aa9 743d 20a2 7f3e 0892 f9bc 4187 cebd
00000390: 049f 193c ec1b 7c3e 6123 ae3d 775d a0bd
000003a0: 5d68 a5be 664f 97bc cd9a f03d 1c03 12be
000003b0: 2cac 61bd f4d7 023e 1c99 f23b e9d1 203d
000003c0: 6e5c 98be d373 4cbd 51bc 223c f05e 14be
000003d0: 7204 4f3e 68d0 57be 75b1 9b3c e663 ed3c
000003e0: 23ad e13c b963 0ebe dd42 c6be cad2 0a3e
000003f0: 1a12 c5bd ec43 3cbe 3fd5 8dbe af0d fe3c

network_body._body_endoder.seq_layers.0.bias f4 [128]
0.00047306382 0.016510772 -0.0043620896 -0.005091618 -0.00373195 0.008801753 0.010259564 0.000974054
0.0047839447 -0.0037285462 0.0068894383 0.0053680027 -0.0006305817 -0.0016864983 0.0023495157 -0.0016885628
-0.004302063 -0.003092959 -0.002301407 0.001300593 -0.00028867586 -0.0049549965 -0.00061347295 0.006930501
0.00026772387 -0.0039009706 0.0013715473 0.0043823766 0.010654945 0.0038552594 -0.0038785362 0.0022089072
-0.003911752 -0.009526278 -0.005143364 -0.0017274406 0.007970684 -0.009365191 0.011495762 -0.0003108216
0.0008982539 0.008166883 0.004480733 0.0024716484 -0.008612855 0.010818273 -0.007036732 -0.0023966194
0.0076858057 0.0010412941 0.027985822 -0.00072445715 -0.00066291896 0.009361115 -0.0017182326 -0.0041265553
0.0077655595 0.00080784207 -0.0038821867 -0.0036244867 -0.0020689447 0.0003206887 0.01078939 -0.0008845408
0.017609553 -0.0003161918 0.007987157 -0.003124227 0.006748218 0.018167917 7.151702e-05 -0.0024736954
-0.0028294567 -0.0033177624 -0.00010348651 -0.0013176199 0.009536256 -0.0017715504 -0.0052739223 -0.00253504
-0.0051866556 0.0004845163 -0.0049941447 -0.010016124 2.5662412e-05 0.005292387 -0.010409959 0.00024395363
-0.0024829663 0.00046964054 0.0025891105 -0.0060911477 0.0009911897 -0.0022194136 -0.008000372 -0.0059939
0.0024842387 0.007004401 0.0040628444 -0.0008323091 0.0065367687 0.0065074903 0.013946309 -0.007039187
-0.0076191253 -0.019477656 -0.008928598 0.0022025835 -0.01590856 4.7653735e-05 0.007906803 -0.0007217569
0.005172865 -0.009170299 -0.0063361595 0.009604627 -0.0062456816 0.005196228 0.0019756772 -0.009303435
-0.0056673926 -0.007634708 -0.0036684999 -0.00861021 -0.0015122314 -0.0013054879 0.0048323344 0.003092675
00000000: 8d05 f839 9941 873c dcef 8ebb 96d7 a6bb
00000010: bb93 74bb 3a35 103c bb17 283c a857 7f3a
00000020: a3c2 9c3b a05a 74bb ccc0 e13b 12e6 af3b
00000030: 9f4d 25ba 7e0d ddba 55fa 193b c452 ddba
00000040: 52f8 8cbb 3eb3 4abb 34d3 16bb a978 aa3a
00000050: 6b59 97b9 865d a2bb 79d1 20ba 4219 e33b
00000060: 4a5d 8c39 6da7 7fbb 7ec5 b33a 0a9a 8f3b
00000070: 1492 2e3c 85a8 7c3b 0a2f 7ebb 50c3 103b
00000080: 272e 80bb 1b14 1cbc aa89 a8bb 4a6b e2ba
00000090: 7997 023c 7570 19bc b858 3c3c c5f5 a2b9
000000a0: cc78 6b3a 64ce 053c 1dd3 923b 61fb 213b
000000b0: ef1c 0dbc 203f 313c 6394 e6bb 9a10 1dbb
000000c0: 36d9 fb3b 087c 883a 8642 e53c 7fe9 3dba
000000d0: bdc7 2dba 5d5f 193c 5236 e1ba 0e38 87bb
000000e0: 3c76 fe3b 5dc5 533a 496c 7ebb cc88 6dbb
000000f0: 2297 07bb 1c22 a839 fbc5 303c 87e0 67ba
00000100: e941 903c 8cc6 a5b9 91dc 023c d5bf 4cbb
00000110: 2820 dd3b e2d4 943c 68fb 9538 b91d 22bb
00000120: 686e 39bb d16e 59bb e606 d9b8 fdb3 acba
00000130: f53d 1c3c 5e33 e8ba ded0 acbb ea22 26bb
00000140: d2f4 a9bb ad06 fe39 eca5 a3bb ab1a 24bc
00000150: 9c45 d737 c36b ad3b 888e 2abc cecd 7f39
00000160: 43b9 22bb 163a f639 11ae 293b 4098 c7bb
00000170: cfea 813a 9573 11bb fe13 03bc 7a68 c4bb
00000180: 9cce 223b 2d85 e53b 9c21 853b 512f 5aba
00000190: 6432 d63b c93c d53b 0f7f 643c fba8 e6bb
000001a0: dba9 f9bb 9b8f 9fbc 4149 12bc 3859 103b
000001b0: ab52 82bc cfdf 4738 898b 013c 4934 3dba
000001c0: 2381 a93b 063f 16bc 8f9f cfbb ba5c 1d3c
000001d0: 93a8 ccbb 1f45 aa3b 5d7a 013b 6f6d 18bc
000001e0: 89b5 b9bb 932c fabb 376b 70bb d711 0dbc
000001f0: 1136 c6ba e81c abba 8f58 9e3b 7aae 4a3b

network_body._body_endoder.seq_layers.2.weight f4 [128, 128]
0.041295882 0.08936567 0.042980153 -0.05625658 -0.009984779 0.033017352 0.014845766 -0.06059172
0.1742117 -0.007429969 -0.00059138914 0.019222349 0.090309836 -0.06257265 0.060171932 -0.30652207
0.05632139 0.020724006 0.095616676 0.073986866 -0.11733668 -0.011748044 0.17138048 0.0028085262
0.18489116 0.009132053 0.00064983935 0.045320768 0.041181307 0.09990774 0.051672738 0.035239566
0.16165036 -0.00032202227 -0.05760685 -0.004714801 0.014710213 0.14072163 -0.05367106 -0.06957279
-0.051081594 -0.12567107 0.06801258 0.13142163 -0.068717174 0.03240379 0.025239162 0.09734793
0.048292577 -0.03199516 0.0068206475 -0.22818725 0.04935971 0.02431425 0.19820984 -0.0021654363
0.09015276 0.09012678 -0.11233103 -0.18736427 -0.044437576 0.039741293 0.03180033 0.019040046
0.012781492 -0.05931816 -0.120615155 0.022804018 0.022367867 0.057872843 0.11107894 0.027921867
0.025528315 0.07677539 -0.18973903 0.053078093 0.07569784 0.09538483 -0.0423084 -0.18996191
0.23109058 -0.1195235 0.11654642 0.0019495965 -0.13606794 -0.2181597 -0.03577916 -0.03803957
-0.24305134 -0.055751286 -0.06070241 0.024843663 0.030140702 0.1020705 0.01382199 -0.05569716
-0.020159042 0.016609946 0.1052044 -0.009862985 -0.061833736 0.01909637 0.18582277 -0.0011423329
-0.20267856 -0.057962466 0.13830903 -0.023874272 -0.13560712 -0.07704909 -0.113124534 -0.081969365
-0.022341562 0.04768435 0.008737765 -0.115094 0.019665586 -0.012867542 -0.15441072 0.07325862
0.029004207 0.042111114 -0.107782066 -0.19859894 -0.03731383 0.01270449 -0.092444494 -0.0021721867
-0.029209714 -0.13011241 -0.06217032 -0.07991335 0.05226923 -0.15344414 0.049631547 -0.11464927
-0.23310031 0.0502177 0.2045068 -0.020385835 -0.1042448 -0.08920584 -0.14093117 0.09613346
-0.0313037 -0.05506028 -0.026453177 0.12244858 0.05527138 -0.04373411 0.020787625 0.03985439
0.16260858 -0.0009007708 0.15803126 -0.08103589 -0.0031205323 -0.056371126 0.14671414 0.13620138
0.032892104 0.010130666 -0.027969439 0.06449264 -0.017418128 -0.0023286825 -0.014482489 -0.18668966
0.02423824 0.024304625 0.08755444 -0.052109055 0.03961065 -0.04740457 -0.014599385 -0.006979852
0.04840377 -0.009328356 -0.004368992 0.044614676 0.10075656 -0.0075147836 -0.13614939 -0.058570527
0.08914107 0.05295371 0.0151378075 -0.031406675 -0.033417195 0.123945646 -0.023984725 0.24060932
0.14678387 0.09102069 0.10979552 0.0489705 -0.09443103 -0.04160137 -0.17446001 0.17882875
-0.019753229 0.18464357 -0.0059620882 -0.036337234 -0.070242524 0.12851009 0.046989616 0.013388041
0.02293727 0.002276145 -0.06125703 -0.10890811 0.09623791 0.12467319 -0.24916771 0.023958607
-0.046496127 0.07755135 -0.22757025 -0.014037988 -0.15283497 -0.09505003 0.15351789 0.07713469
-0.031150226 0.08038802 0.05170529 0.13946791 -0.24470057 -0.10671024 0.0649888 0.07422164
0.040883668 0.079311356 -0.072193146 0.0012197084 -0.0016114669 -0.09530405 -0.07090638 0.08040247
-0.07473819 0.044065367 -0.0406049 -0.09751847 -0.024992166 0.039306827 -0.016347976 -0.05841487
-0.033755247 -0.018267768 -0.027204346 0.04428615 -0.084029175 -0.13785765 0.2023709 0.07300857
00000000: df25 293d 5905 b73d f50b 303d 4d6d 66bd
00000010: 3397 23bc 343d 073d a83b 733c 062f 78bd
00000020: 8d64 323e 1977 f3bb 7407 1bba 3078 9d3c
00000030: 5df4 b83d 1726 80bd d876 763d 76f0 9cbe
00000040: 42b1 663d 64c5 a93c add2 c33d 6d86 973d
00000050: 374e f0bd de7a 40bc 5d7e 2f3e 400f 383b
00000060: 1c54 3d3e 9b9e 153c fb59 2a3a 45a2 393d
00000070: bbad 283d 6e9c cc3d cba6 533d 5d57 103d
00000080: ac87 253e 19d5 a8b9 29f5 6bbd 9e7e 9abb
00000090: 1b03 713c 5519 103e 2fd6 5bbd 2e7c 8ebd
000000a0: ef3a 51bd ebaf 00be 2e4a 8b3d 6493 063e
000000b0: 97bb 8cbd d6b9 043d 5cc2 ce3c 5a5e c73d
000000c0: 70ce 453d 5b0d 03bd bd7f df3b eba9 69be
000000d0: 682d 4a3d ae2e c73c 85f7 4a3e fee9 0dbb
000000e0: 03a2 b83d 6494 b83d d00d e6bd 6bdc 3fbe
000000f0: 2d04 36bd c4c7 223d 1041 023d dff9 9b3c
00000100: 7769 513c 99f7 72bd 1405 f7bd 7ecf ba3c
00000110: d13c b73c 130c 6d3d 5b7d e33d 66bc e43c
00000120: c220 d13c 6a3c 9d3d f34a 42be 6a68 593d
00000130: 7807 9b3d 1f59 c33d 934b 2dbd 6085 42be
00000140: 02a3 6c3e bdc8 f4bd e4af ee3d 9a89 ff3a
00000150: 6555 0bbe 4265 5fbe 2b8d 12bd 61cf 1bbd
00000160: 73e2 78be 765b 64bd 17a3 78bd f084 cb3c
00000170: a2e9 f63c 570a d13d a175 623c b522 64bd
00000180: 9324 a5bc 9511 883c 6875 d73d 5c98 21bc
00000190: 5f45 7dbd fe6f 9c3c 5348 3e3e 55ba 95ba
000001a0: f88a 4fbe 0d6a 6dbd e2a0 0d3e fa93 c3bc
000001b0: 98dc 0abe eacb 9dbd d6ad e7bd 8edf a7bd
000001c0: a705 b7bc aa50 433d d828 0f3c 67b6 ebbd
000001d0: b919 a13c 62d2 52bc d81d 1ebe 9e08 963d
000001e0: 3b9a ed3c b47c 2c3d d8bc dcbd 855d 4bbe
000001f0: 63d6 18bd 7e26 503c 8a53 bdbd 3f5b 0ebb
00000200: 3649 efbc 303c 05be 4ea6 7ebd 9ca9 a3bd
00000210: 4318 563d 7620 1dbe 734a 4b3d 3dcd eabd
00000220: d9b1 6ebe 13b1 4d3d 3b6a 513e 3200 a7bc
00000230: 4c7e d5bd 8db1 b6bd 4350 10be 9fe1 c43d
00000240: 4f38 00bd e386 61bd 55b4 d8bc 52c6 fa3d
00000250: 3e64 623d 8a22 33bd cf4a aa3c 5b3e 233d
00000260: dd82 263e b521 6cba f2d2 213e 25f6 a5bd
00000270: d881 4cbb 69e5 66bd 3b3c 163e 6078 0b3e
00000280: dfb9 063d 18fb 253c 2a20 e5bc b814 843d
00000290: 76b0 8ebc cf9c 18bb f647 6dbc 932b 3fbe
000002a0: 468f c63c 7e1a c73c be4f b33d 4e70 55bd
000002b0: c73e 223d 4b2b 42bd 4232 6fbc 3eb7 e4bb
000002c0: 0843 463d f6d5 18bc c329 8fbb e1bd 363d
000002d0: 7559 ce3d 933e f6bb bf6a 0bbe a6e7 6fbd
000002e0: 988f b63d fde5 583d 9104 783c 49a4 00bd
000002f0: 78e0 08bd 37d7 fd3d 9d7b c4bc 4a62 763e
00000300: 834e 163e 0e69 ba3d 79dc e03d 4a95 483d
00000310: 0e65 c1bd 3366 2abd a5a5 32be e21e 373e
00000320: 86d1 a1bc 3413 3d3e 9f5d c3bb 5ad6 14bd
00000330: 50db 8fbd 2698 033e 2f78 403d 8459 5b3c
00000340: f1e6 bb3c 602b 153b a7e8 7abd 370b dfbd
00000350: 6218 c53d a854 ff3d d225 7fbe d744 c43c
00000360: b972 3ebd 3ed3 9e3d 2d08 69be 97ff 65bc
00000370: c580 1cbe 97a9 c2bd cb33 1d3e cbf8 9d3d
00000380: c22e ffbc 79a2 a43d edc8 533d add0 0e3e
00000390: c992 7abe e68a dabd d918 853d 8401 983d
000003a0: a275 273d fe6d a23d 00da 93bd 9fde 9f3a
000003b0: db37 d3ba c52e c3bd 5d37 91bd 0daa a43d
000003c0: 5610 99bd e37d 343d 5351 26bd c3b7 c7bd
000003d0: 5fbc ccbc 3200 213d 31ec 85bc 6e44 6fbd
000003e0: f142 0abd 49a6 95bc a6db debc 6565 353d
000003f0: 7d17 acbd 8e2a 0dbe 513a 4f3e 8485 953d

network_body._body_endoder.seq_layers.2.bias f4 [128]
-0.0069343997 0.009794089 -0.00040960725 -0.0002476596 0.0009353732 -0.0025356635 0.0014422141 0.0017149833
-0.0003275824 0.0057909386 -0.0020528345 -0.001792862 0.0023627281 -0.0043495544 -0.0005948819 -0.0005607807
0.0072775017 0.0025442175 -0.0032197393 -0.004183563 -0.0006779015 -5.6288878e-05 -0.0036916302 -0.007881024
0.0047719115 -0.002566085 0.00375343 0.0033847434 0.0027595884 -0.007427243 -0.00328671 -0.0034833115
-0.0086528985 0.0026133289 -0.0017795124 -0.0006066931 -0.0053074225 -0.0013239117 0.0011470715 0.00017964444
-0.0030550442 -0.007315507 -0.0014399807 0.0018309345 0.003978839 0.0026211275 -0.0022749566 -0.012647907
-0.0024983736 0.015864056 0.0016543908 -0.0027869642 -0.0029015199 0.00097368157 0.0030840044 -0.007256803
0.008597636 0.006801319 -0.002035219 0.0027066458 0.002360532 -0.003503141 0.0002722144 -0.005163682
-0.000784245 -0.0040601892 0.0059056315 -0.009119745 -0.008714437 0.0078094183 0.0068540517 -0.0036881964
-0.0049359375 -0.0010030242 0.0005459963 0.0029300489 0.003889132 -0.0041873828 0.00096641685 -0.001953207
0.006113114 -0.00022214859 -0.008964033 0.004296558 0.008106639 -0.0038344099 -0.0023597737 0.010996932
-0.011835636 -0.002544004 -0.0019273945 0.0016235997 -0.0032433835 0.0023049025 -7.8209996e-05 3.484908e-05
-0.000177604 -0.0013824987 -0.0018421587 -0.0052039623 -0.0017291189 -0.00041013974 -0.004689485 0.0015288359
-0.0018372796 -0.005353955 -0.0057219006 0.00087742996 -0.0036307801 0.0044208313 -0.0041517494 -0.004009435
-0.0022496122 0.0010001579 -0.0019729284 0.0042339787 0.005807265 -0.00064569176 0.0037404806 0.0070957635
0.004046309 0.0031967275 -0.001756819 -0.00017322444 -0.004877302 0.00011801903 0.0018806232 0.0005854729
00000000: f639 e3bb 6377 203c 8ec0 d6b9 4fd8 81b9
00000010: d533 753a 602d 26bb ad08 bd3a 4ac9 e03a
00000020: 5ebf abb9 eac1 bd3b d988 06bb 77fe eaba
00000030: 00d8 1a3b b586 8ebb d9f1 1bba 5b01 13ba
00000040: 1c78 ee3b e3bc 263b 4302 53bb 4516 89bb
00000050: 33b5 31ba b917 6cb8 47ef 71bb 691f 01bc
00000060: b25d 9c3b c32b 28bb 1bfc 753b 92d2 5d3b
00000070: 36da 343b 3b60 f3bb d865 57bb 4548 64bb
00000080: e3c4 0dbc 6244 2b3b 873e e9ba 7c0a 1fba
00000090: e3e9 adbb 1b87 adba 5559 963a f05e 3c39
000000a0: 2337 48bb ecb6 efbb bcbd bcba f8fb ef3a
000000b0: ec60 823b 39c7 2b3b 7017 15bb 2b39 4fbc
000000c0: c1bb 23bb 56f5 813c 25d8 d83a 80a5 36bb
000000d0: 6d27 3ebb aa3e 7f3a 021d 4a3b 7aca edbb
000000e0: 19dd 0c3c 99dd de3b 4f61 05bb fb61 313b
000000f0: 28b3 1a3b f494 65bb 00b8 8e39 1b34 a9bb
00000100: cb95 4dba 560b 85bb 0784 c13b fc6a 15bc
00000110: ffc6 0ebc 26e6 ff3b f497 e03b abb5 71bb
00000120: a5bd a1bb e877 83ba 3121 0f3a 1006 403b
00000130: cfe0 7e3b 5036 89bb 2357 7d3a 6001 00bb
00000140: 8450 c83b 8ff0 68b9 e1dd 12bc 24ca 8c3b
00000150: b5d1 043c b94a 7bbb 6fa6 1abb 7a2c 343c
00000160: 41ea 41bc 4eb9 26bb a1a0 fcba f7ce d43a
00000170: f28e 54bb d90d 173b ac04 a4b8 ea2a 1238
00000180: 363b 3ab9 f534 b5ba 9774 f1ba 0086 aabb
00000190: 9aa3 e2ba 0608 d7b9 40aa 99bb 3863 c83a
000001a0: e0d0 f0ba 3b70 afbb c87e bbbb 5403 663a
000001b0: 62f2 6dbb 9fdc 903b 660b 88bb 9461 83bb
000001c0: 3b6e 13bb bb17 833a 3f4c 01bb 30bd 8a3b
000001d0: df4a be3b a443 29ba da22 753b 9483 e83b
000001e0: e696 843b 3080 513b 1045 e6ba 95a3 35b9
000001f0: c6d1 9fbb fc80 f738 3e7f f63a 6c7a 193a

network_body._body_endoder.seq_layers.4.weight f4 [128, 128]
0.15370508 0.13272953 0.026411174 -0.06473003 -0.082851365 0.059713304 -0.025008464 -0.07238316
-0.025539577 -0.17143583 0.074159004 -0.11520608 0.0059566647 0.043397818 0.025568072 -0.12287367
0.0494017 0.024140747 -0.079776086 0.0068137115 -0.038423207 -0.028201493 0.08180716 0.037387814
0.06632221 0.09480863 -0.056730382 -0.17018647 -0.027584527 0.115366794 0.14417148 0.09324981
-0.09015435 -0.01392803 0.03981263 0.029594662 -0.019788362 0.032714117 0.14194612 -0.041634813
0.03416515 0.056843497 -0.04447514 -0.037653215 0.17120749 0.025809808 0.2826661 0.11503157
-0.17014143 -0.013272379 -0.010473979 0.09744646 0.0050881747 -0.08169365 -0.02722746 -0.034112494
0.022489969 -0.11036692 0.041726217 0.008398205 0.21205151 -0.20430048 -0.13756342 -0.005522722
0.038937118 0.09586921 -0.09646138 0.04759863 -0.016018815 0.13718477 -0.06361333 -0.054814786
-0.24100879 0.060413312 0.05892786 -0.04778769 -0.001966026 -0.02733377 0.035212882 0.04113415
0.24744605 0.03361259 0.041523825 -0.059827633 0.056743905 -0.12615484 0.014498609 0.017842796
-0.10217182 -0.121466905 0.10000294 -0.006771264 -0.016680425 0.0638754 0.05323692 -0.032333642
0.04468364 0.009017285 -0.09871325 -0.020700505 -0.026127242 0.07520179 0.050223093 0.09874483
0.02352672 -0.06788998 0.06749768 -0.14777412 -0.04851472 0.03069172 -0.021471918 0.05371153
0.07905434 0.057732116 0.12156839 -0.041971445 -0.13202001 0.029463595 -0.11500173 0.2427573
0.14286067 -0.12136113 0.01919748 -0.029191293 -0.08689195 0.03814737 -0.21179907 -0.06695191
0.10772346 0.009166417 0.017902251 -0.04175642 -0.008202906 0.021564309 0.014839548 -0.054875292
0.036597524 0.009973888 0.019904202 0.008384468 0.09962727 0.07707752 0.0733441 -0.12977982
-0.061195575 0.010364892 0.078578226 -0.035579287 0.018238762 0.0074079586 -0.016216965 -0.1581965
-0.026077768 -0.05884066 -0.017652726 -0.24387076 -0.07387835 0.042338222 0.015266196 0.028744793
0.10954686 -0.026682084 0.06911826 -0.06624711 0.0035113564 -0.08306957 0.09957771 0.1552036
0.013110564 0.005800578 0.053227864 0.12583089 0.009720378 0.023199452 -0.1074282 -0.066228844
-0.0117545845 -0.05331411 -0.11073079 -0.021413442 -0.1069405 -0.097714536 0.056341782 0.02634489
0.010732215 -0.020589283 -0.08843025 0.048794467 -0.0035564047 0.027569449 -0.052908476 -0.00900526
0.030998891 0.11534998 0.020272031 0.08333262 0.14246404 -0.04641758 -0.06333253 0.15053429
-0.122408345 -0.032113228 0.1310031 -0.028004438 -0.019279534 -0.030937769 -0.10915709 0.10428137
-0.09601838 -0.04012077 -0.06655826 0.046606682 -0.14507931 0.029960886 -0.09083582 -0.026776152
-0.19335575 0.009157192 0.037807353 0.13157283 -0.05663887 -0.01789612 -0.08503972 -0.068614185
0.07178318 0.1243044 0.038211413 -0.065374255 -0.07467548 -0.019539688 -0.24813956 1.547225e-05
0.008287961 -0.006275443 -0.038361542 0.043256324 -0.049448628 -0.21489596 -0.025335774 0.043723777
-0.0067029926 -0.108949736 0.046093464 0.11823742 -0.11190171 0.05273253 -0.09027385 -0.031896878
-0.044564232 0.005549356 -0.0017739453 -0.25615293 -0.12763643 -0.09430958 -0.14718434 0.10065506
00000000: dd64 1d3e 40ea 073e 3f5c d83c 2e91 84bd
00000010: faad a9bd f095 743d 8dde ccbc 9f3d 94bd
00000020: 6038 d1bc e08c 2fbe ade0 973d 2af1 ebbd
00000030: 2030 c33b e9c1 313d 2274 d13c 31a5 fbbd
00000040: 7059 4a3d d1c2 c53c a561 a3bd 8e45 df3b
00000050: a761 1dbd d106 e7bc 838a a73d f723 193d
00000060: f0d3 873d 072b c23d 1e5e 68bd 5d45 2ebe
00000070: f2f8 e1bc 6d45 ec3d b0a1 133e c2f9 be3d
00000080: d8a2 b8bd 6432 64bc 9112 233d 8170 f23c
00000090: 341b a2bc 3dff 053d 535a 113e 4489 2abd
000000a0: c2f0 0b3d bad4 683d 902b 36bd 423a 1abd
000000b0: 0451 2f3e 176f d33c 9cb9 903e ac95 eb3d
000000c0: 8e39 2ebe 6474 59bc 0d9b 2bbc 0292 c73d
000000d0: b4ba a63b 004f a7bd 1f0c dfbc 8bb9 0bbd
000000e0: e23c b83c 0d08 e2bd 1ce9 2a3d a098 093c
000000f0: 0824 593e 2534 51be 6ddd 0cbe f3f7 b4bb
00000100: 877c 1f3d 1457 c43d 8b8d c5bd c8f6 423d
00000110: e439 83bc 2a7a 0c3e b547 82bd 7885 60bd
00000120: 02cb 76be f373 773d 575e 713d 06bd 43bd
00000130: 71d8 00bb 12eb dfbc 623b 103d 487c 283d
00000140: 7f62 7d3e 5bad 093d e314 2a3d d20d 75bd
00000150: 4c6c 683d bc2e 01be 938b 6d3c 0e2b 923c
00000160: 763f d1bd a4c3 f8bd 57ce cc3d 7be1 ddbb
00000170: 63a5 88bc 1bd1 823d f50e 5a3d 4870 04bd
00000180: 3106 373d 3cbd 133c 2c2a cabd 1b94 a9bc
00000190: cc08 d6bc 6503 9a3d bbb6 4d3d bb3a ca3d
000001a0: 1cbb c03c e709 8bbd 393c 8a3d 1952 17be
000001b0: 5fb7 46bd 346d fb3c e0e5 afbc 9f00 5c3d
000001c0: 3ee7 a13d 8378 6c3d d9f8 f83d 40ea 2bbd
000001d0: 4130 07be a35d f13c 0786 ebbd 5f95 783e
000001e0: 114a 123e 2f8c f8bd 0944 9d3c 9422 efbc
000001f0: 68f4 b1bd 6b40 1c3d dbe1 58be 151e 89bd
00000200: 1e9e dc3d bd2e 163c bea7 923c c808 2bbd
00000210: 7b65 06bc a2a7 b03c 9321 733c eac4 60bd
00000220: 49e7 153d 8569 233c 230e a33c 025f 093c
00000230: 6209 cc3d d2da 9d3d 6e35 963d 00e5 04be
00000240: 36a8 7abd 82d1 293c 9fed a03d 96bb 11bd
00000250: 7569 953c 76be f23b 71d9 84bc 43fe 21be
00000260: 0ba1 d5bc e702 71bd 739c 90bc 42b9 79be
00000270: 884d 97bd d86a 2d3d 111f 7a3c 337a eb3c
00000280: 1b5a e03d 6394 dabc e08d 8d3d 91ac 87bd
00000290: c91e 663b 6120 aabd 66ef cb3d b1ed 1e3e
000002a0: b1cd 563c c612 be3b 7605 5a3d d0d9 003e
000002b0: 3842 1f3c c70c be3c 5103 dcbd fda2 87bd
000002c0: 4d96 40bc e55f 5abd d3c6 e2bd 3e6b afbc
000002d0: 9f03 dbbd 8f1e c8bd a4c6 663d 3dd1 d73c
000002e0: 2cd6 2f3c dbaa a8bc eb1a b5bd b5dc 473d
000002f0: 9212 69bb 53d9 e13c 8fb6 58bd cc8a 13bc
00000300: 63f1 fd3c 9c3c ec3d 8811 a63c 4baa aa3d
00000310: 18e2 113e 5c20 3ebd 7cb4 81bd a925 1a3e
00000320: 3ab1 fabd 2989 03bd ad25 063e 9069 e5bc
00000330: 1df0 9dbc 3471 fdbc c18d dfbd 7991 d53d
00000340: 49a5 c4bd ad55 24bd b24f 88bd a6e6 3e3d
00000350: ac8f 14be 8870 f53c 2108 babd a959 dbbc
00000360: 0dff 45be 0c08 163c e2db 1a3d 07bb 063e
00000370: 29fe 67bd e29a 92bc 4e29 aebd 9885 8cbd
00000380: 0f03 933d 4e93 fe3d 9283 1c3d f0e2 85bd
00000390: 75ef 98bd b211 a0bc 4c18 7ebe 67ca 8137
000003a0: 3aca 073c 3ba2 cdbb fe20 1dbd 8b2d 313d
000003b0: a58a 4abd b00d 5cbe f88c cfbc b417 333d
000003c0: c7a4 dbbb 0a21 dfbd 80cc 3c3d 7626 f23d
000003d0: b92c e5bd 11fe 573d 7fe1 b8bd 4da6 02bd
000003e0: fc88 36bd 5fd7 b53b ba83 e8ba 7a26 83be
000003f0: 20b3 02be 6225 c1bd 7eb7 16be 3d24 ce3d

network_body._body_endoder.seq_layers.4.bias f4 [128]
-0.0007069864 0.0031741713 -0.0015205136 -0.0046618967 -0.00050395593 0.00031744316 0.0044136196 6.0517945e-05
0.0034713678 0.0010787068 -0.001255829 -0.00019564907 -1.3115006e-05 0.0032221954 -0.00032965714 -0.0005054995
0.0010673028 -0.00154353 -0.0025795347 0.0025403602 -0.00016532154 -0.0030499462 -0.0044123074 0.00021299798
-0.00130325 -0.0028503954 -0.002218145 -0.0029521757 0.001322043 -0.0017905758 -0.0023277462 -0.0010844349
-0.0019619113 -0.000113414746 0.001473287 -0.002463684 0.00012841105 0.015796622 -0.0031151497 0.0021679308
-0.0023836119 0.0012279446 -0.00041605352 -0.0010985335 -0.002507932 -0.004005114 -0.002736777 0.0027332404
0.0022744618 -0.0012167761 -0.009788064 8.917169e-05 -0.0027823742 -0.0004273378 -0.0070241774 -0.0008624992
0.00075162016 -0.0080861095 -0.0023331176 -0.0012842296 0.0029581543 0.004317323 -0.0041992953 0.00026263308
0.009433984 0.0031485837 -0.0037924708 0.0026067402 -0.0026618177 -0.00018636753 -0.0018007174 -0.0016132657
-0.00066751166 0.0012153797 0.00023483657 -0.00228696 -0.005211889 0.0009631102 -0.008958016 -0.0003363086
-0.0010639824 -0.0018452532 -0.00821213 -0.00011804854 0.001921819 0.0007647702 -0.0005209189 0.00048347012
0.0010491834 -0.004717495 -0.000443245 0.002728119 -0.00023983244 0.0020624895 0.00095947017 -0.0012658335
0.001955594 0.0028555675 -0.0001605912 0.011338638 0.008594254 0.0015909523 -0.0035292744 0.004834658
-0.00035463326 -0.002760378 -0.0030208842 -0.0031987447 0.005025525 -0.001138315 0.0011812495 -0.001366479
-0.0050303726 0.0005176436 0.0007819685 -0.00074264756 0.005737994 0.004120076 -0.0005332326 0.00011925567
-0.004393062 -0.00010150212 -0.0019283296 0.0015568086 0.007696449 -0.0016456614 -0.010497413 0.0028630283
00000000: 0e55 39ba c205 503b f84b c7ba d3c2 98bb
00000010: e91b 04ba 806e a639 20a0 903b a6d4 7d38
00000020: e37f 633b 6563 8d3a a19a a4ba 2627 4db9
00000030: 8608 5cb7 782b 533b d5d5 acb9 7f83 04ba
00000040: bde4 8b3a 4650 caba 690d 29bb 2c7c 263b
00000050: 2a5a 2db9 9be1 47bb 1e95 90bb 3658 5f39
00000060: d0d1 aaba b3cd 3abb 4c5e 11bb 4a79 41bb
00000070: 6748 ad3a c1b1 eaba 1a8d 18bb 9923 8eba
00000080: 6993 00bb 14d9 edb8 4f1b c13a c275 21bb
00000090: 14a6 0639 eb67 813c 8a27 4cbb d813 0e3b
000000a0: 5f36 1cbb fcf2 a03a c221 dab9 abfc 8fba
000000b0: 1e5c 24bb 553d 83bb 805b 33bb 2a20 333b
000000c0: 230f 153b 3b7c 9fba 1e5e 20bc b001 bb38
000000d0: 7e58 36bb 4f0c e0b9 122b e6bb 5719 62ba
000000e0: 6008 453a 9a7b 04bc 38e7 18bb 9853 a8ba
000000f0: 98dd 413b 5578 8d3b 3e9a 89bb 04b2 8939
00000100: ff90 1a3c 7858 4e3b 1a8b 78bb d8d5 2a3b
00000110: e471 2ebb a76b 43b9 0d06 ecba 3774 d3ba
00000120: f3fb 2eba 604d 9f3a 763e 7639 d2e0 15bb
00000130: 7ec8 aabb 3b79 7c3a a4c4 12bc 9452 b0b9
00000140: 5375 8bba 6cdc f1ba 2b8c 06bc d490 f7b8
00000150: 8ce5 fb3a dc7a 483a 478e 08ba 437a fd39
00000160: c184 893a 3795 9abb 5663 e8b9 3eca 323b
00000170: 887b 7bb9 d52a 073b f484 7b3a 53ea a5ba
00000180: 6c29 003b 7924 3b3b 5f64 28b9 b2c5 393c
00000190: eace 0c3c 8087 d03a 664b 67bb 0d6c 9e3b
000001a0: 12ee b9b9 75e7 34bb 07fa 45bb 08a2 51bb
000001b0: 29ad a43b 8333 95ba 28d4 9a3a 6d1b b3ba
000001c0: d3d5 a4bb 79b2 073a 05fd 4c3a 3cae 42ba
000001d0: c805 bc3b b401 873b a2c8 0bba e618 fa38
000001e0: adf3 8fbb 89dd d4b8 01c0 fcba d40d cc3a
000001f0: 7e32 fc3b 3cb3 d7ba 57fd 2bbc a5a1 3b3b

action_model._continuous_distribution.log_sigma f4 [1, 2]
-0.028553674 -0.052275367
00000000: 65e9 e9bc b21e 56bd

action_model._continuous_distribution.mu.weight f4 [2, 128]
-0.019854564 -0.013584024 -0.0035947142 -0.005252182 -0.0043742782 0.01875868 0.010881401 0.02423041
0.002352417 0.011003082 -0.019256016 -0.026588647 0.0072219935 -0.0063399733 0.002941583 -0.023092808
0.02193558 -0.0040734936 -0.009165706 0.015890291 0.015463441 -0.004064697 -0.0040043234 -0.008197504
-0.012360052 -0.020797554 0.0050960076 -6.8292975e-05 -0.022587204 -0.028913436 0.0023191113 -0.026256412
0.005609026 -0.0015865327 0.018969506 -0.012059688 -0.009319046 0.012610095 0.004960064 0.0017050017
-0.018927071 -0.019994762 0.015498897 -0.013502564 -0.009151539 -0.003426864 0.007088274 -0.020256571
0.029892666 -0.00070966914 0.009143867 0.030687207 -0.011959851 0.0072499365 0.021357045 -0.006931848
-0.010503724 0.017754847 -0.03947596 0.010974825 0.0035646611 0.045723125 0.022940954 -0.015004034
-0.00617533 -0.037521686 -0.007464732 0.027998388 -0.009739073 -0.028642606 -0.0024455478 0.0017097973
-0.013206394 0.01150098 0.016516287 -0.027477156 -0.017724833 -0.009090363 0.013868197 0.010174092
-0.012280796 -0.015049093 0.04881075 -0.012616898 0.014576533 0.024668504 0.0024360218 -0.031224128
-0.01275164 0.004082223 0.00010206451 0.019876955 0.0036768608 0.019918835 -0.017005218 0.0006763616
-0.019072682 -0.0222672 0.006391048 -0.007488758 -0.011836689 0.017776273 -0.0028728123 -0.008084257
0.013196425 0.008142605 -0.0036853645 -0.010236043 -0.042071905 -0.015405004 -0.0064015505 0.0040357197
-0.022085376 0.0067348103 0.016992517 0.012803002 -1.2989442e-05 -0.03334885 0.0058426377 0.0055686575
-0.0035405455 0.0014467614 -0.020880455 -0.029423293 -0.0095125595 0.014119822 0.0051030517 -0.031189445
0.015169113 0.008179837 -0.003928474 0.007149782 0.032505326 0.02713874 0.0048951064 -0.0017063586
0.011319475 -0.008164646 -0.020573104 -0.0045364588 0.005725104 0.013314147 -0.018449834 0.013042135
0.020762745 -0.014569533 -0.012322652 0.026046054 -0.009129722 -0.032569718 0.0017986052 0.020090416
0.0003903675 0.002876037 0.009233109 0.02243152 0.031123731 -0.018421806 -0.011967874 0.007903443
0.0028599538 0.020376347 0.0031699236 0.005147534 -0.013935965 -0.0016540908 -0.0038140265 -0.04125019
0.0055895955 0.0017727921 0.029956076 -0.0037410408 0.014211754 0.0010671893 0.006386877 0.021358047
0.0013274901 -0.00040712047 0.006116302 0.0033673726 0.001342553 0.01626098 0.023419559 0.01473117
-0.021473318 -0.0013243599 -0.0074910154 0.0013416125 0.021045368 -0.016989503 -0.0028873829 0.0059864507
-0.04075251 -0.001776039 0.002417682 0.008955188 -0.002037041 -0.01656966 -0.013126054 0.012405832
0.0041485005 -0.012449759 -0.050000742 -0.007645003 0.0029935394 0.039394196 0.026878165 0.007321305
0.025812253 -0.017432833 -0.0020899759 -0.026842963 -0.023467235 0.016776042 -0.042829037 -0.019043356
-0.0021505947 -0.0054960717 -0.011033722 0.002397889 -0.012377978 0.02253787 0.014875587 0.0056250216
0.01753824 0.045418233 0.003957598 0.002288732 -0.0150346225 0.029547364 0.01762639 -0.0018075686
0.010669188 0.017845286 -0.0051970887 -0.003738822 -0.010599926 -0.023262214 -0.029286258 0.0003707437
-0.002801458 0.0055387923 -0.016772674 0.004902723 -0.0027080197 -4.035054e-05 -0.03707438 -0.011840266
0.02891727 -0.004420809 -0.024834964 -0.02924292 -0.011251455 -0.007605989 0.0056120967 -0.004784929
00000000: 0aa6 a2bc 878f 5ebc 4c95 6bbb 7f1a acbb
00000010: 1b56 8fbb ceab 993c e747 323c da7e c63c
00000020: 022b 1a3b 4546 343c cbbe 9dbc 6fd0 d9bc
00000030: 79a6 ec3b 8dbf cfbb 93c7 403b 212d bdbc
00000040: 3fb2 b33c f17a 85bb c22b 16bc 5b2c 823c
00000050: 5f5a 7d3c 2631 85bb b336 83bb d34e 06bc
00000060: d181 4abc a25f aabc 69fc a63b 8338 8fb8
00000070: cd08 b9bc dfdb ecbc 3bfc 173b b017 d7bc
00000080: eccb b73b 34f3 cfba f065 9b3c ff95 45bc
00000090: e9ae 18bc 929a 4e3c 0888 a23b 5d7a df3a
000000a0: f20c 9bbc 0ecc a3bc 16ef 7d3c dc39 5dbc
000000b0: 56f0 15bc 3d95 60bb c144 e83b 1cf1 a5bc
000000c0: 77e1 f43c 1709 3aba 28d0 153c bd63 fb3c
000000d0: 40f3 43bc e090 ed3b f8f4 ae3c 8e24 e3bb
000000e0: d017 2cbc 9d72 913c 8bb1 21bd c1cf 333c
000000f0: 179d 693b 2c48 3b3d abee bb3c 7bd3 75bc
00000100: 6c5a cabb 57b0 19bd b69a f4bb e05c e53c
00000110: a290 1fbc e6a3 eabc 7c45 20bb 471b e03a
00000120: a25f 58bc 9b6e 3c3c 2a4d 873c c617 e1bc
00000130: ab33 91bc bfef 14bc 6f37 633c 3cb1 263c
00000140: 6435 49bc 7990 76bc c8ed 473d 1bb7 4ebc
00000150: 69d2 6e3c 9a15 ca3c aaa5 1f3b bec9 ffbc
00000160: 41ec 50bc 2bc4 853b 770b d638 ffd4 a23c
00000170: 7df7 703b d32c a33c 874e 8bbc dc4d 313a
00000180: 503e 9cbc b469 b6bc ff6b d13b 4164 f5bb
00000190: acee 41bc 8c9f 913c cb45 3cbb d573 04bc
000001a0: d135 583c 9068 053c 2886 71bb 13b5 27bc
000001b0: 9753 2cbd 4565 7cbc 19c4 d1bb 123e 843b
000001c0: 64ec b4bc afaf dc3b e433 8b3c afc3 513c
000001d0: 3bed 59b7 ce98 08bd 9973 bf3b 4979 b63b
000001e0: 7f08 68bb 42a1 bd3a 7d0d abbc 1e09 f1bc
000001f0: 91da 1bbc d356 673c 8037 a73b 0281 ffbc
00000200: df87 783c b904 063c 6eba 80bb b848 ea3b
00000210: 4e24 053d 1052 de3c 2167 a03b e5a7 dfba
00000220: 5275 393c 02c5 05bc ed88 a8bc 93a6 94bb
00000230: a799 bb3b 9423 5a3c 1b24 97bc aeae 553c
00000240: a216 aa3c 0db5 6ebc f3e4 49bc 895e d53c
00000250: d494 15bc d367 05bd 2dbf eb3a a894 a43c
00000260: 3daa cc39 e57b 3c3b 7746 173c 4fc2 b73c
00000270: 32f7 fe3c 54e9 96bc e714 44bc 717d 013c
00000280: 106e 3b3b 4cec a63c 7ebe 4f3b a5ac a83b
00000290: ac53 64bc 14ce d8ba bff4 79bb f6f5 28bd
000002a0: ed28 b73b 085d e83a 7266 f53c 402c 75bb
000002b0: 6bd8 683c eee0 8b3a 0249 d13b 12f7 ae3c
000002c0: 2dff ad3a c972 d5b9 436b c83b 23af 5c3b
000002d0: 9af8 af3a bf35 853c 60da bf3c 015b 713c
000002e0: d0e8 afbc 2596 adba 3177 f5bb 0cd9 af3a
000002f0: 5667 ac3c 922d 8bbc 3f3a 3dbb fd29 c43b
00000300: 1bec 26bd fbc9 e8ba f971 1e3b c8b8 123c
00000310: e07f 05bb 18bd 87bc a90e 57bc d541 4b3c
00000320: 25f0 873b 13fa 4bbc 94cd 4cbd ef82 fabb
00000330: 422f 443b cf5b 213d 992f dc3c 8fe7 ef3b
00000340: 3874 d33c 4dcf 8ebc faf7 08bb c6e5 dbbc
00000350: 5c3e c0bc e96d 893c 806d 2fbd d000 9cbc
00000360: fef0 0cbb 6418 b4bb c9c6 34bc e725 1d3b
00000370: 01cd 4abc 57a1 b83c bcb8 733c 1a52 b83b
00000380: 5bac 8f3c 7808 3a3d bdae 813b 8dfe 153b
00000390: c753 76bc 500d f23c 3865 903c f0eb ecba
000003a0: d1cd 2e3c 4730 923c 574c aabb 0607 75bb
000003b0: 50ab 2dbc 6690 bebc bce9 efbc 6160 c239
000003c0: aa98 37bb c27e b53b d966 89bc 05a7 a03b
000003d0: 0879 31bb 103e 29b8 4edb 17bd adfd 41bc
000003e0: e9e3 ec3c 6fdc 90bb b272 cbbc d98e efbc
000003f0: 0658 38bc a93b f9bb aee5 b73b e5ca 9cbb

action_model._continuous_distribution.mu.bias f4 [2]
0.0018047731 0.00036588815
00000000: 238e ec3a add4 bf39

exp_avg f4 [128, 40]
1.788796e-05 1.4302827e-06 -0.0001367672 -0.00013496964 -1.9800761e-06 1.06964265e-07 -0.00015021831 -0.00015084985
-2.8959286e-05 2.0772825e-06 -0.00014873732 -0.00015499028 2.8377488e-07 9.575407e-08 -0.00013298022 -0.0001290723
-8.173603e-05 2.5044387e-06 -5.651434e-05 -7.41634e-05 -3.0326859e-05 -5.6148947e-11 -9.762746e-05 -9.693631e-05
-5.793912e-05 -6.198301e-08 -4.4076347e-05 -5.024067e-05 -0.001988909 -7.37179e-05 0.00032730753 -0.00029654236
-8.09423e-05 -0.00012534142 7.958589e-05 1.1236307e-06 6.840259e-06 -2.8378125e-05 -0.00011138001 -2.601448e-05
6.401607e-07 -4.335655e-08 -1.0753336e-05 -1.0550808e-05 2.4965927e-09 -5.0010544e-11 -1.5167006e-05 -1.51638005e-05
-8.9864113e-07 -1.804952e-08 -1.471122e-05 -1.4841368e-05 -3.1575382e-07 -3.093619e-11 -1.3973471e-05 -1.393881e-05
6.627481e-07 -3.1889905e-10 -1.9958168e-05 -2.0601117e-05 8.764013e-07 -3.5240098e-14 -1.8493e-05 -1.784344e-05
3.9761417e-06 3.8799003e-10 -2.169282e-05 -2.149313e-05 -0.0002627934 -9.7403035e-06 4.324695e-05 -5.2149888e-05
-8.268818e-06 -7.912734e-05 6.4041537e-06 -2.1039393e-06 -3.1509571e-06 -6.8679947e-06 -1.8209881e-05 -2.3474973e-05
-1.215455e-06 5.231287e-07 3.1195494e-05 3.1294647e-05 -5.6629364e-07 5.893362e-11 3.8908507e-05 3.886169e-05
3.1319585e-06 4.5249497e-08 3.4118246e-05 3.4505254e-05 1.445401e-06 5.4334797e-11 3.824347e-05 3.860803e-05
1.0124346e-05 1.1634997e-09 2.346082e-05 2.1488244e-05 -2.3936698e-06 8.328702e-14 3.382342e-05 3.336448e-05
1.5020774e-05 1.11966686e-10 1.8103212e-05 1.7903334e-05 0.0004707898 1.7449582e-05 -7.747615e-05 0.00010915312
1.876834e-05 -3.5432247e-05 -1.13885035e-05 5.0573067e-06 1.8953393e-05 5.6113777e-06 7.085657e-05 -4.5758334e-05
3.549641e-06 -4.1788752e-08 4.837604e-05 4.9913488e-05 1.4054725e-06 -1.8499145e-08 5.0915496e-05 5.1549436e-05
1.3197829e-06 -6.4870096e-07 5.072425e-05 5.0783012e-05 -1.7121155e-06 -1.579989e-08 4.4501165e-05 4.4069173e-05
3.638261e-05 -5.160146e-07 1.7142162e-05 2.0420217e-05 -2.2907929e-07 -1.3749526e-11 6.4573695e-05 6.471457e-05
3.27499e-05 -1.1908489e-08 2.299981e-05 2.3444123e-05 0.0007387517 2.738145e-05 -0.000121573656 0.00025088646
2.7882137e-05 -5.816634e-05 4.631113e-08 -5.5687224e-06 -2.3013457e-05 2.2243059e-05 0.00010313666 -1.8413509e-06
-8.7193526e-05 8.6240266e-07 0.00019187313 0.00017263863 -4.5468594e-05 1.7524273e-07 0.0002307407 0.0002219288
2.3088865e-05 6.44199e-06 0.0001766747 0.0001842273 8.906992e-06 -5.840423e-08 0.00019711898 0.00020142672
4.754642e-05 7.1110967e-06 0.00011751013 0.00011000725 -5.7301957e-05 4.4656598e-10 0.00023400999 0.00020314954
2.06878e-05 -7.914839e-06 0.00013444928 0.00013641753 0.0028550285 0.00010582017 -0.00046984153 0.00032690898
0.000118558615 0.0006435159 -3.1424595e-05 8.230281e-05 0.00013818475 -1.9091936e-05 3.17795e-05 -0.00021126743
5.046586e-06 3.6299352e-06 -3.409142e-05 -3.1537813e-05 5.1780808e-06 3.1294647e-07 -4.6305744e-05 -4.4448963e-05
-1.0580212e-05 1.1458368e-05 -3.671497e-05 -3.582859e-05 -4.5687425e-06 3.3018273e-07 -2.754473e-05 -2.9046902e-05
-1.6995005e-05 7.78209e-06 -1.5308164e-05 -1.1410947e-05 3.1487991e-06 6.584436e-11 -3.0243324e-05 -2.9408598e-05
-2.2124215e-05 3.0718818e-06 -4.5713964e-06 -2.8953475e-06 -0.00037090128 -1.3747267e-05 6.103788e-05 -0.00015844873
-1.0945668e-05 -0.00045348602 1.6247797e-05 1.5743622e-07 -2.1441663e-05 -2.612769e-05 -6.8492256e-05 -3.3136374e-05
4.8369834e-06 -1.1527655e-05 -0.00022232767 -0.00022768503 1.665361e-06 -5.4398436e-07 -0.0002800621 -0.00028065083
5.5458586e-06 -1.4273403e-05 -0.00025123404 -0.00025457348 -1.773992e-05 -5.838657e-07 -0.0002679799 -0.00027547596
00000000: 1a0e 9637 24f8 bf35 2a69 0fb9 a386 0db9
00000010: 73e1 04b6 3ab4 e533 ec83 1db9 732d 1eb9
00000020: 98ed f2b7 7167 0b36 5ff6 1bb9 e384 22b9
00000030: b959 9834 5ba1 cd33 9b70 0bb9 9557 07b9
00000040: b269 abb8 ee11 2836 cf09 6db8 2c88 9bb8
00000050: 6f66 feb7 18f2 76ae 58bd ccb8 494a cbb8
00000060: a803 73b8 851b 85b3 9ede 38b8 82b9 52b8
00000070: 5b58 02bb ff98 9ab8 799a ab39 3e79 9bb9
00000080: 91bf a9b8 156e 03b9 59e7 a638 a8cf 9635
00000090: 6185 e536 8f0d eeb7 b094 e9b8 ac39 dab7
000000a0: 82d7 2b35 0837 3ab3 3a69 34b7 6003 31b7
000000b0: 8690 2b31 def2 5bae cb75 7eb7 0768 7eb7
000000c0: 263a 71b5 500b 9bb2 35d0 76b7 31ff 78b7
000000d0: e084 a9b4 0e0f 08ae 9a6f 6ab7 bcda 69b7
000000e0: b4e7 3135 0d51 afaf d76b a7b7 90d0 acb7
000000f0: d741 6b35 11b5 1ea9 6a21 9bb7 7fae 95b7
00000100: cc6a 8536 be4c d52f faf8 b5b7 254c b4b7
00000110: 88c7 89b9 496a 23b7 0f64 3538 84bb 5ab8
00000120: 4eba 0ab7 2bf1 a5b8 43e3 d636 6731 0db6
00000130: 0875 53b6 a073 e6b6 6cc1 98b7 1fec c4b7
00000140: b722 a3b5 216d 0c35 e8d7 0238 5f42 0338
00000150: 6703 18b5 ae98 812e b131 2338 6cff 2238
00000160: a32e 5236 5958 4233 301a 0f38 bcb9 1038
00000170: 9aff c135 8bf7 6e2e 9d67 2038 0eef 2138
00000180: bcdb 2937 02e9 9f30 bacd c437 a741 b437
00000190: efa2 20b6 b38b bb29 9fdd 0d38 d6f0 0b38
000001a0: bc01 7c37 a437 f62e 5adc 9737 1e2f 9637
000001b0: 56d4 f639 b160 9237 b17a a2b8 23e9 e438
000001c0: b470 9d37 169d 14b8 4011 3fb7 efb1 a936
000001d0: 1afe 9e37 5e49 bc36 d598 9438 a3ec 3fb8
000001e0: 5e36 6e36 387b 33b3 61e7 4a38 335a 5138
000001f0: aba3 bc35 0de8 9eb2 198e 5538 c936 5838
00000200: 6523 b135 6422 2eb5 c0c0 5438 d8ff 5438
00000210: d7cb e5b5 53b8 87b2 c3a6 3a38 ead6 3838
00000220: 8899 1838 4184 0ab5 83cc 8f37 154c ab37
00000230: d6f8 75b4 5ce2 71ad bd6b 8738 5fb7 8738
00000240: f05c 0938 1796 4cb2 b7ef c037 dfa9 c437
00000250: caa8 413a 37b1 e537 5cf5 feb8 6989 8339
00000260: 6fe4 e937 a2f7 73b8 a0e7 4633 f6da bab6
00000270: 060d c1b7 9b96 ba37 134b d838 5624 f7b5
00000280: abdb b6b8 dc7f 6735 8d31 4939 5406 3539
00000290: 88b5 3eb8 5b2a 3c34 fcf2 7139 8fb5 6839
000002a0: f6ae c137 4628 d836 c141 3939 242d 4139
000002b0: 3d6f 1537 21d8 7ab3 b9b1 4e39 1336 5339
000002c0: 946c 4738 db9b ee36 c56f f638 b1b3 e638
000002d0: 8257 70b8 9380 f52f 9460 7539 8a04 5539
000002e0: b68a ad37 fac9 04b7 f4fa 0c39 4d0b 0f39
000002f0: 6e1b 3b3b c5eb dd38 1055 f6b9 fb64 ab39
00000300: aca2 f838 9fb1 283a e7cd 03b8 fc99 ac38
00000310: b0e5 1039 9f27 a0b7 fa4a 0538 ab87 5db9
00000320: d855 a936 d099 7336 62fd 0eb8 7847 04b8
00000330: 60bf ad36 0903 a834 6a38 42b8 b66e 3ab8
00000340: aa81 31b7 513d 4037 66fe 19b8 a846 16b8
00000350: 334d 99b6 f843 b134 db0f e7b7 bfa9 f3b7
00000360: 7f90 8eb7 d28f 0237 086a 80b7 a571 3fb7
00000370: f54f 5336 14cb 902e 0bb3 fdb7 7cb2 f6b7
00000380: 6497 b9b7 8726 4e36 ff63 99b6 b14d 42b6
00000390: 8775 c2b9 10a4 66b7 7601 8038 4225 26b9
000003a0: 49a3 37b7 ddc1 edb9 e14b 8837 bd0b 2934
000003b0: 9fdd b3b7 c92c dbb7 80a3 8fb8 e9fb 0ab8
000003c0: 5f4d a236 e766 41b7 a120 69b9 bcbe 6eb9
000003d0: 5e85 df35 5206 12b5 4cd5 92b9 5124 93b9
000003e0: 9016 ba36 cd77 6fb7 10b8 83b9 4678 85b9
000003f0: 30d0 94b7 f2ba 1cb5 a77f 8cb9 c26d 90b9

exp_avg_sq f4 [128, 40]
1.9355055e-09 6.967459e-13 2.9232213e-08 2.8817206e-08 1.5980615e-09 3.4994962e-13 2.5842617e-08 2.6564482e-08
2.7591094e-09 1.4930672e-12 2.8673911e-08 2.9123893e-08 1.5503744e-09 1.5358456e-11 2.7930376e-08 2.7968063e-08
3.5884489e-09 1.1913777e-12 3.0862793e-08 3.096082e-08 1.998306e-09 5.264535e-14 2.8289506e-08 2.8338752e-08
6.9708497e-09 7.802136e-14 2.6885502e-08 2.7400535e-08 6.324932e-06 8.689043e-09 1.7129229e-07 3.3598175e-07
8.407238e-09 1.8643268e-06 5.077645e-09 7.3156716e-09 1.078012e-08 6.746318e-09 7.779397e-08 9.5299825e-08
7.74772e-12 3.751429e-15 2.7856406e-10 2.794348e-10 7.876372e-12 2.5124898e-18 2.899581e-10 2.890211e-10
8.674436e-12 2.8590377e-16 2.9655628e-10 2.9643268e-10 4.6311787e-12 1.224555e-16 2.6277425e-10 2.6167404e-10
1.9064743e-11 5.0361677e-19 2.7997635e-10 2.860953e-10 9.361625e-12 9.0256706e-21 2.7246802e-10 2.774587e-10
2.6006716e-11 9.456828e-20 2.9209712e-10 2.9315314e-10 5.653126e-08 7.76613e-11 1.5309837e-09 5.1760596e-09
5.656818e-11 3.5463486e-08 6.3303515e-11 6.1763275e-11 1.3699221e-10 6.489128e-11 8.362111e-10 4.048484e-10
8.397e-11 3.0792025e-13 8.1323126e-10 8.237486e-10 5.0637838e-11 7.808986e-18 9.0773766e-10 9.1683805e-10
8.154722e-11 2.4408248e-15 8.6123947e-10 8.702774e-10 2.5691631e-11 4.452048e-18 9.014174e-10 9.05816e-10
1.83605e-10 1.5013143e-18 7.203768e-10 7.2692374e-10 2.5097816e-11 1.1366322e-19 9.75542e-10 9.7037e-10
1.9734564e-10 2.3808738e-20 7.2172124e-10 7.286653e-10 1.8505504e-07 2.5422414e-10 5.011675e-09 1.0568602e-08
2.467021e-10 7.1858697e-09 1.592835e-10 1.4644856e-10 3.330364e-10 1.8970224e-10 2.9662985e-09 1.4287944e-09
1.8903269e-10 1.7659858e-13 2.720745e-09 2.7702862e-09 1.5147984e-10 2.5792525e-13 2.7383074e-09 2.782021e-09
8.3049345e-11 4.4826495e-14 2.8865588e-09 2.9075922e-09 3.058934e-11 2.1171252e-13 2.5464184e-09 2.5486728e-09
7.595346e-10 4.0964316e-14 2.10866e-09 2.1672089e-09 1.10948084e-10 3.6690553e-15 2.6872093e-09 2.7972666e-09
7.279244e-10 3.223385e-15 2.20479e-09 2.2112638e-09 5.6029353e-07 7.6971807e-10 1.5173915e-08 1.053561e-07
7.5319123e-10 2.7085171e-08 5.495378e-10 5.4035126e-10 1.0405001e-09 8.057877e-10 1.8600337e-08 9.577232e-09
1.27047075e-08 2.8655014e-10 5.7439557e-08 5.7598722e-08 1.3614271e-08 2.1609071e-10 6.259764e-08 6.3988495e-08
1.2247356e-08 1.0900946e-10 5.9554427e-08 6.134301e-08 6.1114256e-09 3.6637682e-10 7.092747e-08 7.063794e-08
1.8449827e-08 1.13993655e-10 5.7667005e-08 5.8404787e-08 6.459143e-09 4.016311e-12 7.1390716e-08 7.0875736e-08
2.746239e-08 3.1371572e-11 4.942351e-08 5.0300667e-08 1.4977471e-05 2.0575698e-08 4.05621e-07 3.4667946e-07
2.0416856e-08 9.229109e-06 1.4587934e-08 2.4316366e-08 2.4651246e-08 1.5223915e-08 1.5437539e-07 3.0462547e-07
2.7849445e-10 9.559409e-12 1.5904155e-09 1.6251627e-09 2.0513106e-10 3.543499e-12 1.9640407e-09 2.0007662e-09
5.986589e-10 3.5019543e-11 1.2563768e-09 1.3061232e-09 5.7855807e-11 4.5843114e-11 2.0654574e-09 2.1436708e-09
7.514682e-10 2.6432172e-11 1.2077668e-09 1.2783336e-09 2.3567055e-11 7.724015e-14 2.250904e-09 2.256725e-09
1.0915288e-09 5.0517737e-12 1.0030267e-09 1.1394257e-09 4.4224151e-07 6.0754113e-10 1.1976824e-08 2.0698057e-08
5.448609e-10 3.616334e-07 3.065018e-10 7.4812845e-10 6.814469e-10 3.1088904e-10 7.1701263e-09 9.729783e-09
1.0496754e-08 8.1529866e-11 7.296998e-08 7.426773e-08 5.746782e-09 1.098003e-11 8.220782e-08 8.357468e-08
1.2822806e-08 3.0288175e-11 7.21386e-08 7.315001e-08 3.739144e-09 4.907343e-12 8.0685766e-08 8.146802e-08
00000000: c601 0531 d51d 442b 511a fb32 b589 f732
00000010: caa2 db30 0e01 c52a 84fc dd32 ea2f e432
00000020: c49a 3d31 6a21 d22b 994e f632 1e2c fa32
00000030: f314 d530 2b18 872d 8ceb ef32 6c3e f032
00000040: a998 7631 e8ab a72b 008e 0433 c8f9 0433
00000050: 9252 0931 f517 6d29 4801 f332 936d f332
00000060: 3e84 ef31 40b0 af29 d8f1 e632 6a5e eb32
00000070: c13a d436 d146 1532 77ec 3734 fb60 b434
00000080: 6c6f 1032 c839 fa35 7077 ae31 545d fb31
00000090: 7833 3932 3ecd e731 b00f a733 a2a7 cc33
000000a0: a14c 082d d328 8727 6824 992f f49e 992f
000000b0: 0790 0a2d 9763 3922 fa67 9f2f 1be4 9e2f
000000c0: 309a 182d f3cf a425 9608 a32f 31f7 a22f
000000d0: f3f1 a22c 7c2e 0d25 3076 902f 59db 8f2f
000000e0: fcb1 a72d 35a4 1421 2beb 992f 5548 9d2f
000000f0: 03b1 242d 777d 2a1e 77ca 952f d788 982f
00000100: ebc1 e42d 054b df1f 0495 a02f a329 a12f
00000110: c7cc 7233 6dc7 aa2e b36a d230 1ad9 b131
00000120: 1cca 782e 8450 1833 b634 8b2e a2d1 872e
00000130: e19f 162f 8bb2 8e2e 20db 6530 5991 de2f
00000140: e8a6 b82e fc57 ad2a 108a 5f30 286e 6230
00000150: 23b5 5e2e e50c 1023 5c84 7930 be04 7c30
00000160: 0153 b32e 45e1 2f27 57bc 6c30 5438 6f30
00000170: 69fc e12d 6840 a422 9cc7 7730 22fd 7830
00000180: 37e0 492f 0d8e dd21 0304 4630 b6d0 4730
00000190: 42c3 dc2d 9a30 0620 d513 8630 dc5d 8530
000001a0: dcfb 582f ffdd e01e 9e62 4630 434b 4830
000001b0: 8bb3 4634 dec2 8b2f 2933 ac31 3491 3532
000001c0: 3ca0 872f 94e7 f631 5222 2f2f 9b05 212f
000001d0: b516 b72f 6f94 502f add7 4b31 3c5f c430
000001e0: f9d7 4f2f 13d5 462a daf7 3a31 645f 3e31
000001f0: c98d 262f f232 912a d02c 3c31 d52d 3f31
00000200: a0a0 b62e 6ee1 4929 e15c 4631 e7ce 4731
00000210: 8988 062e fb5d 6e2a 11fd 2e31 ba24 2f31
00000220: 7fc7 5030 a47c 3829 f0e7 1031 f1ed 1431
00000230: 38fa f32e 1031 8427 e3a9 3831 093a 4031
00000240: 2017 4830 f544 6827 1383 1731 f7f4 1731
00000250: 1467 1635 1894 5330 cb57 8232 2140 e233
00000260: 1f09 4f30 eca8 e832 490e 1730 d787 1430
00000270: 5801 8f30 457e 5d30 93c6 9f32 1d89 2432
00000280: e543 5a32 5988 9d2f 76b3 7633 7762 7733
00000290: 32e4 6932 2198 6d2f 6b6d 8633 0c6a 8933
000002a0: 7168 5232 dfb6 ef2e c9c8 7f33 adbb 8333
000002b0: abfc d131 f46a c92f ca50 9833 9eb1 9733
000002c0: 997b 9e32 b9ac fa2e 8bad 7733 bed8 7a33
000002d0: 39ef dd31 b74f 8d2c 764f 9933 5934 9833
000002e0: 6fe6 eb32 40f9 092e b945 5433 2b0a 5833
000002f0: c047 7b37 70be b032 20c4 d934 431f ba34
00000300: 2461 af32 b9d6 1a37 6a9e 7a32 41e0 d032
00000310: aac0 d332 bec5 8232 62c2 2534 688b a334
00000320: 9c1a 992f c02b 282d c595 da30 545c df30
00000330: 438b 612f 015a 792c c5f7 0631 da7d 0931
00000340: e08e 2430 8004 1a2e d4ac ac30 2083 b330
00000350: d973 7e2e c29e 492e e9ef 0d31 db4f 1331
00000360: e08f 4e30 f67f e82d 84fe a530 5db1 af30
00000370: 4a4c cf2d eaed ad29 52ae 1a31 ba14 1b31
00000380: c104 9630 55be b12c ddda 8930 fa99 9c30
00000390: 366d ed34 e8ff 2630 a1c2 4d32 82cb b132
000003a0: 2dc5 1530 8426 c234 4b80 a82f dca4 4d30
000003b0: 9050 3b30 bee9 aa2f 195d f631 0a28 2732
000003c0: 3655 3432 3c49 b32e acb3 9c33 1e7d 9f33
000003d0: 3b75 c531 a929 412d 3a8a b033 ab79 b333
000003e0: 4c4b 5c32 7435 052e 9dea 9a33 a516 9d33
000003f0: dc79 8031 6ba9 ac2c 7845 ad33 85f3 ae33
