mlagents/Assets/results/TestLearning2/RollerBall/RollerBall-1080.onnx (onnx, 162959 bytes, 9 tensors)

action_model._continuous_distribution.log_sigma f4 [1, 2]
0	0xba3315b4	-0.0006831542
1	0x38577f8b	5.1378778e-05

action_model._continuous_distribution.mu.bias f4 [2]
0	0xb9edf340	-0.00045385398
1	0x3a1fcea2	0.00060961593

action_model._continuous_distribution.mu.weight f4 [2, 128]
0	0x3ce7d3cb	0.028299233
1	0x3cad9fd5	0.021194378
2	0x3c0b2dc6	0.0084948
3	0xbb31883f	-0.0027089266
4	0xbc82bb6a	-0.015958507
5	0x3b3abb95	0.0028493155
6	0xbb32c476	-0.0027277744
7	0x3d12f3de	0.0358771
8	0xbc4f7b5e	-0.01266369
9	0xbc8f08df	-0.017460285
10	0xbbb3cbea	-0.005486955
11	0x3ce75ea6	0.028243374
12	0xbd0d01b8	-0.034425467
13	0xbcef0603	-0.029177671
14	0xbc2eb9c5	-0.010664408
15	0x3b704037	0.0036659369
16	0xbb794472	-0.0038035181
17	0x3c9d7c78	0.01922439
18	0x3b46f389	0.003035756
19	0xbc3d67e8	-0.011560418
20	0xbc35ad6e	-0.011088712
21	0xbbcd6502	-0.0062681446
22	0xb94a1932	-0.00019273607
23	0xbbf1974b	-0.007372772
24	0xbc0de755	-0.008661111
25	0xbbe96d81	-0.0071236496
26	0x3c929016	0.017890971
27	0x3c0fb17f	0.008770346
28	0xbb4d145b	-0.003129265
29	0xbc83076b	-0.015994748
30	0xbb948f4c	-0.004533684
31	0xbc76d40b	-0.015065203
32	0xbb9b9f83	-0.00474924
33	0xb93034d5	-0.0001680435
34	0xbc7b1db2	-0.015326904
35	0x3c487292	0.012234347
36	0xbc3e6f09	-0.0116231525
37	0xbc90e5c0	-0.017687678
38	0xbcb0704d	-0.021537924
39	0x3d19a03c	0.037506327
40	0xbcc4b0d1	-0.024010094
41	0x3d001276	0.031267606
42	0xbc95a798	-0.018268391
43	0xbca863c9	-0.020555394
44	0xbbddb645	-0.006766113
45	0xbb938505	-0.004501941
46	0x3ca94603	0.020663267
47	0x3c841545	0.016123423
48	0x3bc011a3	0.0058614775
49	0xbc513374	-0.012768615
50	0xbc49b434	-0.01231103
51	0xbc2abd0f	-0.010421052
52	0xbc19e8ea	-0.00939391
53	0xbcf36617	-0.029711766
54	0xbc9b7106	-0.018974792
55	0xbc53f07b	-0.012935753
56	0x3ca152ea	0.019692857
57	0x3ccb2dce	0.024802115
58	0xbcabd0aa	-0.020973522
59	0x3bf67406	0.0075211553
60	0xbc26fa60	-0.01019153
61	0xbca1c8e8	-0.01974912
62	0x3c041d48	0.008063622
63	0xbcb5e488	-0.022203699
64	0x3bbcf302	0.0057662735
65	0x3c98ee48	0.018668309
66	0xbc211187	-0.009830839
67	0xbcabc029	-0.020965653
68	0x3cda209f	0.026626883
69	0xbc7becfd	-0.015376327
70	0xbce1a455	-0.02754418
71	0x3cc242c2	0.023713473
72	0x3c6f6a08	0.014612682
73	0xbd3daf04	-0.046309486
74	0xbbe6db93	-0.0070452183
75	0xbb1914c0	-0.0023358315
76	0x3cc8a6dc	0.024493627
77	0xba10cc0c	-0.00055235694
78	0x3c589a13	0.013220328
79	0x3c55ba9c	0.013044979
80	0x3c6e80a7	0.01455704
81	0xbc597a4a	-0.013273785
82	0x3aa71856	0.0012748342
83	0xbc865041	-0.01639569
84	0xbbb42300	-0.0054973364
85	0xbc79615e	-0.015220968
86	0xbc9fa621	-0.019488396
87	0x3c6eb71f	0.014570027
88	0xbbe13dac	-0.006873807
89	0xbc9804d1	-0.018556984
90	0x3c36ff1d	0.011169222
91	0x3c031a9c	0.00800195
92	0xb93c09d8	-0.00017932744
93	0xbc5655cb	-0.013081978
94	0x3c3d9739	0.011571699
95	0x3acd3d2a	0.0015658487
96	0x3b4a1921	0.0030837732
97	0x3d0bcb0a	0.03412918
98	0xbbbeb418	-0.0058198087
99	0x3c49afbc	0.012309965
100	0x3bd86612	0.0066039646
101	0xbb729c1d	-0.003701932
102	0x3bd8f5ae	0.006621084
103	0x3c7899fa	0.01517343
104	0xbc384fce	-0.011249496
105	0xbae5f02f	-0.0017542894
106	0xba711968	-0.0009197206
107	0x3ce394d4	0.027780928
108	0x3cba97c1	0.02277744
109	0xbbb68412	-0.005569943
110	0xbd196787	-0.037452247
111	0x3b8e6e24	0.004346626
112	0xbbc88868	-0.0061197765
113	0xba27b563	-0.0006397573
114	0x3c8b88fa	0.017033089
115	0x3c4c009d	0.012451318
116	0xbcbba1be	-0.022904273
117	0x3bbc4a3d	0.0057461546
118	0xbb750204	-0.0037385235
119	0x3bee2bd2	0.0072684074
120	0x3cc20d34	0.023687936
121	0x3d32502e	0.043533497
122	0x3b6c8b48	0.003609376
123	0xbb232757	-0.0024895275
124	0x3b3f6bea	0.002920861
125	0x3c0c4758	0.008561932
126	0xbc3ff6c1	-0.011716546
127	0xbbebc798	-0.0071954243
128	0x3cc19f8a	0.023635644
129	0x3b8f8cfc	0.0043808203
130	0xbc57c46d	-0.01316939
131	0x3a2f6507	0.00066907745
132	0xbd072bcb	-0.03300075
133	0x3b97378d	0.0046147765
134	0x3aa2f49c	0.0012432518
135	0xbcf7e25d	-0.030259306
136	0x3a497fce	0.0007686586
137	0x3a65f01e	0.0008771437
138	0xbc9d4ac3	-0.019200688
139	0xbce515ea	-0.027964551
140	0xbcb3e981	-0.02196193
141	0x3ced3d82	0.028959993
142	0xbbd16dfb	-0.0063912845
143	0xbae23923	-0.001725946
144	0xbc696989	-0.014246353
145	0xbcaeb089	-0.021324413
146	0x3cd4846e	0.025942054
147	0x3c7d52cf	0.015461638
148	0xbbff20a5	-0.007785874
149	0x3d094ab3	0.033518504
150	0x3710cb27	8.630369e-06
151	0xbb961926	-0.0045806346
152	0x3c40e9af	0.0117744645
153	0xbce8e98a	-0.028431673
154	0x3c5408c5	0.012941544
155	0xbbcec377	-0.0063099223
156	0x3be77341	0.0070633
157	0xbcc643de	-0.024202283
158	0xbcb390d7	-0.021919651
159	0xbc2dfc6b	-0.010619263
160	0xbc35d98f	-0.011099233
161	0xbb6e4564	-0.0036357278
162	0xbc3ee1de	-0.011650531
163	0x3c31f7d2	0.010862308
164	0x3b72ad74	0.0037029656
165	0xbc731b33	-0.014838028
166	0xbaea1a2a	-0.0017860581
167	0x3d0ce9df	0.034402724
168	0xbd253c2c	-0.040340587
169	0xbaa20572	-0.0012361242
170	0x3cde25e4	0.027117677
171	0x3cb98d53	0.022650396
172	0xbc9b1b2d	-0.018933857
173	0x3c1ef75c	0.00970253
174	0xbcf11bec	-0.02943226
175	0x3c8c86e2	0.01715416
176	0x3cd3dea7	0.025863005
177	0x3ba528d6	0.0050402684
178	0xbc866c28	-0.016408995
179	0x3bd12772	0.006382876
180	0xbd133839	-0.03594229
181	0xbcaafe59	-0.020873236
182	0x3c8e4b5b	0.017369917
183	0xbc49e78a	-0.01232327
184	0x3bc6e719	0.0060700295
185	0xbd1e63dc	-0.038669452
186	0xbc3cdaf3	-0.011526811
187	0xbd1a5be6	-0.037685297
188	0x3c125e4c	0.008933615
189	0xbb73b27c	-0.0037185242
190	0x3c92ec90	0.017935067
191	0x3c538e19	0.012912297
192	0xbcf6148b	-0.030039093
193	0x3bbd1d67	0.0057713273
194	0x3c05b95b	0.008161868
195	0x3c6e4a52	0.0145440865
196	0x3c3af395	0.011410614
197	0x3c4e1064	0.01257715
198	0x3b1276ff	0.002234876
199	0x3bae725e	0.005323692
200	0xbcb6c0f6	-0.022308808
201	0xbc6b5f3d	-0.014365968
202	0x3d1e2736	0.038611613
203	0x3c772911	0.015085475
204	0x3b64e2a4	0.0034925127
205	0x3ce8ceea	0.028418977
206	0xbcaee60f	-0.021349935
207	0x39065e76	0.00012814425
208	0x3c3b79e1	0.011442632
209	0x3c179190	0.009251013
210	0xbca8a222	-0.020585123
211	0xbbd17265	-0.0063918107
212	0x3c7386d0	0.014863685
213	0x3a4aab7a	0.00077312405
214	0x3b280c05	0.002564193
215	0x3c0c1b6f	0.008551463
216	0x3c150fc6	0.009097999
217	0xbc619650	-0.013768747
218	0xbca2f6cc	-0.019893073
219	0x3cd800f2	0.026367638
220	0x3c915e35	0.017745117
221	0xbcb47cea	-0.02203222
222	0x3b88a129	0.0041696024
223	0xbc56de09	-0.013114461
224	0xbd079c28	-0.033107907
225	0x3b662aca	0.003512072
226	0xbc6a45af	-0.01429884
227	0xbc256918	-0.010095857
228	0x3c32a7ed	0.010904294
229	0x3cc73458	0.024316952
230	0xbbf2e014	-0.007411966
231	0xbca196fc	-0.019725315
232	0x3b39c362	0.0028345217
233	0xbc780323	-0.015137467
234	0x3c3c81a9	0.011505523
235	0x3c38d5d2	0.0112814475
236	0xbcb8eceb	-0.022573909
237	0xbcbb776f	-0.022884099
238	0xbc8f5c49	-0.01750006
239	0x3c1adc42	0.009451928
240	0x3c30ac57	0.0107832765
241	0x3b2df737	0.0026545057
242	0xbbdc91cc	-0.0067312475
243	0xbb7a0321	-0.0038148838
244	0xbc81e9e6	-0.015858602
245	0xbccaec2a	-0.024770815
246	0xbccbe870	-0.024891108
247	0x3ac7ba05	0.0015237933
248	0x3ba37d18	0.0049892776
249	0xbc4c3837	-0.012464575
250	0x3b2d95f9	0.0026487096
251	0xbcc5874e	-0.02411237
252	0x3c21cac7	0.009875006
253	0xbcbc90cd	-0.023018265
254	0x3b053a94	0.0020329105
255	0xbb6edb81	-0.0036446752

network_body._body_endoder.seq_layers.0.bias f4 [128]
0	0x3a05006b	0.00050736096
1	0xbb079a52	-0.0020691347
2	0x3aacf447	0.0013195359
3	0xb828972d	-4.0195115e-05
4	0xbb2d42f5	-0.0026437615
5	0xba1ebf49	-0.00060557254
6	0xb9025b5a	-0.00012431797
7	0xba260b4f	-0.00063340826
8	0xbb220326	-0.0024721115
9	0xbac4def8	-0.0015020063
10	0xbb2d1f68	-0.0026416425
11	0x3a5355be	0.0008061788
12	0x37ca9f6c	2.4154513e-05
13	0xb9cf97e7	-0.00039595293
14	0x3a775c75	0.00094360794
15	0xb8b95aa2	-8.838369e-05
16	0x39909284	0.00027574983
17	0xb845625d	-4.7060068e-05
18	0x3a99909d	0.0011716072
19	0x3b4c9e40	0.0031222254
20	0x39413ffe	0.00018429753
21	0xb9b6241d	-0.00034740652
22	0x3a793920	0.00095071085
23	0x3b6c7e01	0.0036085846
24	0xba067b60	-0.00051300786
25	0xb9e99d8d	-0.00044558608
26	0x3ad8fc46	0.0016554676
27	0x39eee733	0.00045567154
28	0xbb35c157	-0.0027733648
29	0xbb1b53d9	-0.00237011
30	0xbb19c27b	-0.0023461867
31	0xbae2e093	-0.001730936
32	0xba06ef55	-0.00051473576
33	0xb9cda492	-0.0003922326
34	0xba84719c	-0.0010104659
35	0xba432d98	-0.00074454537
36	0xbab05429	-0.0013452816
37	0xbae91004	-0.0017781262
38	0xbb821cae	-0.003970704
39	0xbb40f923	-0.0029445372
40	0xb8e6d8d0	-0.00011007639
41	0x3b383eaa	0.0028113523
42	0xbb0e3d38	-0.002170397
43	0x3a35e85a	0.0006939225
44	0xbb29cd65	-0.0025909778
45	0xba85b8be	-0.0010202152
46	0xba1ed8f5	-0.0006059551
47	0x3a5b525a	0.00083664584
48	0x3a9442fd	0.0011311468
49	0xbaa4a549	-0.0012561466
50	0x3a0d4d38	0.00053902296
51	0x3974d280	0.0002334807
52	0xbaf01254	-0.0018316009
53	0x3b1692a5	0.002297559
54	0x38892933	6.540343e-05
55	0x3a6eb279	0.0009105574
56	0xb8c8864b	-9.561757e-05
57	0xba35b777	-0.00069319404
58	0xba82f6e6	-0.0009991794
59	0xba147222	-0.0005662759
60	0xba30bd6f	-0.0006742095
61	0xb89a6e56	-7.363844e-05
62	0x3a2966fe	0.00064621854
63	0xba557012	-0.0008142005
64	0xbaf25d67	-0.0018490971
65	0x37f3878b	2.9030974e-05
66	0xbaf7d06f	-0.0018906723
67	0xb8caf2ff	-9.677372e-05
68	0xbbb803c6	-0.005615684
69	0xbb056804	-0.0020356188
70	0x39b1a700	0.00033884495
71	0xba4bc862	-0.0007773695
72	0xba275d1e	-0.000638442
73	0xba0da615	-0.00054034713
74	0xbaae60ef	-0.0013304035
75	0xbb149913	-0.0022674247
76	0x3af93ec2	0.0019015896
77	0xb75aa0c3	-1.3031243e-05
78	0x3ae47cf6	0.0017432261
79	0xba1f02d1	-0.00060657883
80	0x3bbdc026	0.005790728
81	0xba7b47d2	-0.0009585592
82	0xbb0f5df3	-0.0021876066
83	0x3a8add1b	0.0010594459
84	0xb991643b	-0.00027731233
85	0xb9fa303e	-0.0004771966
86	0xbb0432ca	-0.0020171874
87	0xba4c1913	-0.0007785719
88	0xb9d5d486	-0.00040784868
89	0xb9b4ddc8	-0.00034497515
90	0xba227961	-0.00061978964
91	0xba4f8e0c	-0.000791759
92	0x3bdec71f	0.0067986394
93	0xb9bf7a38	-0.0003652142
94	0x3a22f40d	0.0006216176
95	0xb92a7653	-0.00016256543
96	0x3aa10b35	0.0012286665
97	0x3a5fcf07	0.00085376244
98	0x3aa5e97e	0.0012658087
99	0x3a75c103	0.0009374769
100	0xbb01449c	-0.0019724732
101	0x3abc201e	0.0014352833
102	0x3ba8e839	0.005154636
103	0xbb11fe6e	-0.0022276896
104	0xba2a7b63	-0.00065033714
105	0xba871472	-0.0010305776
106	0x3b0369c7	0.0020052062
107	0xba06cf6d	-0.0005142603
108	0xbb0ad37b	-0.002118318
109	0x3a2be561	0.00065573124
110	0x3a26a3b9	0.0006356794
111	0xbb8dac04	-0.0043234844
112	0xbac29555	-0.001484553
113	0x3984cf92	0.00025331654
114	0xba81b51c	-0.0009895894
115	0xba8ea4ff	-0.0010882913
116	0xba1d5a95	-0.00060025725
117	0x3a179e5d	0.0005783791
118	0x3b16c09d	0.002300299
119	0xbab35700	-0.0013682544
120	0x3914ee74	0.0001420321
121	0xba7eb833	-0.0009716779
122	0x39a6f79b	0.00031846468
123	0x3b4483aa	0.0029985704
124	0x3b63914f	0.0034724062
125	0xb83543ef	-4.321703e-05
126	0x3ab5db45	0.0013874552
127	0x3ae59a27	0.0017517254

network_body._body_endoder.seq_layers.0.weight f4 [128, 53]
0	0x3df4003b	0.119141065
1	0x3e028054	0.12744266
2	0x3de330a2	0.1109326
3	0xbe975543	-0.29557237
4	0x3d9a9758	0.07548398
5	0xbde8fa35	-0.11375848
6	0xbe4f78ba	-0.20260897
7	0xbe36ce29	-0.17852081
8	0x3d864419	0.06555957
9	0x3d921a1b	0.071338855
10	0x3da7d5fe	0.08195113
11	0xbe3e6c82	-0.1859608
12	0xbd0b41fe	-0.033998482
13	0x3dac581e	0.084152445
14	0x3e8f1ff6	0.27954072
15	0x3e577a81	0.21042825
16	0x3c2532d5	0.01008292
17	0x3e69d301	0.22834398
18	0x3e214d6a	0.15752187
19	0xbe85048a	-0.25980026
20	0xbd74f769	-0.05980626
21	0x3cda31a4	0.026634999
22	0x3df72412	0.12067427
23	0xbde30293	-0.11084475
24	0x3d3b34b1	0.045704547
25	0xbe7b315c	-0.24530548
26	0xbde74cb7	-0.11293929
27	0x3e421ff4	0.18957502
28	0x3d0e8331	0.034793083
29	0xbdcc1de9	-0.099666424
30	0x3db2fcc1	0.08739615
31	0x3da53f3a	0.080687
32	0x3c9cc81a	0.019138385
33	0x3e9e5380	0.3092308
34	0x3d1eba61	0.038751964
35	0xbea0fca4	-0.3144275
36	0x3db39404	0.08768466
37	0x3df67382	0.1203375
38	0xbd9a4301	-0.07532311
39	0xbe81272f	-0.25225207
40	0xbdc25ac9	-0.09489972
41	0x3e769db8	0.24083602
42	0x3df6a7b1	0.12043703
43	0xbd08e071	-0.03341717
44	0x3e1b0b70	0.15141082
45	0x3d6de1ba	0.058076598
46	0xbdb8c72b	-0.09022363
47	0xbdc227b4	-0.09480229
48	0x3d1f4b49	0.038890157
49	0x3ccbde7f	0.024886368
50	0x3a065e5b	0.00051257544
51	0x3d1818e3	0.03713311
52	0xbcc1a1de	-0.023636755
53	0xbce5d09b	-0.028053572
54	0xbe3c918d	-0.18414898
55	0xbe220a14	-0.15824157
56	0xbe77d1c3	-0.24201111
57	0xbe1198ca	-0.1421844
58	0xbdfa7c23	-0.122307085
59	0x3dc2c710	0.095106244
60	0x3e899e3a	0.2687853
61	0xbd88149d	-0.06644557
62	0xbddff44b	-0.10935267
63	0xbd1d007b	-0.038330536
64	0x3dac0e0a	0.08401115
65	0x3deb5b91	0.11492074
66	0x3da0d2da	0.07852717
67	0xbe490f60	-0.19634771
68	0x3e384f58	0.17999017
69	0xbc3bb6c5	-0.01145715
70	0x3d50d6c6	0.050986074
71	0xbd856f35	-0.06515352
72	0x3d9b8e77	0.075955324
73	0xbdd30640	-0.103039265
74	0xbe2575a9	-0.16158165
75	0xbd4b1c0d	-0.0495873
76	0x3c3d82b0	0.011566803
77	0x3cc2b0e2	0.023765985
78	0x3dc0cda8	0.09414226
79	0xbc666268	-0.014061548
80	0xbd466a07	-0.04844096
81	0x3dc307d3	0.09522977
82	0xbe992524	-0.2991115
83	0xbe1d879b	-0.1538376
84	0x3d194f71	0.037429277
85	0x3c96719f	0.018364726
86	0xbdcc73bb	-0.09983011
87	0xbe065f16	-0.1312221
88	0xbcaff79e	-0.021480378
89	0xbe3806c8	-0.17971337
90	0x3ade8b1f	0.0016978717
91	0xbd8d05c6	-0.06885867
92	0x3bcde725	0.006283658
93	0x3e665428	0.2249304
94	0x3e0581df	0.13037823
95	0x3d8ab822	0.06773402
96	0xbe5500d7	-0.20801102
97	0xbd0f0c59	-0.034923885
98	0xbda1085d	-0.07862923
99	0xbdb20e7c	-0.08694169
100	0xbe02ac92	-0.12761143
101	0xbe26271e	-0.1622586
102	0x3e28884b	0.16458242
103	0x3e53955b	0.20662443
104	0x3cde6958	0.027149841
105	0xbd9cb0fe	-0.07650946
106	0x3c9d2bd6	0.019185942
107	0xbd2f6325	-0.04281916
108	0xbedff3a5	-0.43740574
109	0xbe3e22cc	-0.18567961
110	0x3de98109	0.11401565
111	0xbbe139fc	-0.0068733674
112	0xbe420507	-0.1894723
113	0xbceec6cf	-0.029147534
114	0xbdbbc833	-0.09169044
115	0x3e39cc48	0.18144333
116	0xbd0efd0f	-0.034909304
117	0x3d586689	0.05283216
118	0x3e154974	0.14578801
119	0xbe27a209	-0.16370405
120	0x3dd7de6f	0.10540473
121	0x3d183a3b	0.037164908
122	0xbe178d16	-0.14799914
123	0x3ea72f40	0.32653236
124	0xbd1d2044	-0.03836085
125	0xbe16b1a8	-0.14716208
126	0xbe450d64	-0.1924339
127	0xbe0724cc	-0.1319763
128	0x3c9d54d7	0.019205494
129	0xbddbe687	-0.10737329
130	0xbd0aba15	-0.033868868
131	0xbd0366eb	-0.032080572
132	0xbd3b7d46	-0.045773767
133	0x3dcf1456	0.10111301
134	0xbc32e4f4	-0.0109188445
135	0x3cc61317	0.024179025
136	0xbdf8ff39	-0.12158055
137	0xbdbef334	-0.09323731
138	0x3ea5d967	0.32392427
139	0x3d9de327	0.077093415
140	0xbea78753	-0.32720432
141	0xbe49bfaf	-0.19702028
142	0xbbafb091	-0.0053616245
143	0x3c6eb750	0.014570072
144	0xbdde4bc8	-0.10854298
145	0xbd052603	-0.032506954
146	0x3d930b71	0.07179917
147	0xbb8f4bbf	-0.0043730433
148	0xbdd6f5cb	-0.104961
149	0xbcfb96b5	-0.030711511
150	0xbd06f068	-0.032944113
151	0x3cd50c56	0.026006859
152	0x3d3d97f6	0.0462875
153	0x3dd7ba58	0.10533589
154	0xbe1620bd	-0.14660926
155	0xbd2cd491	-0.042194907
156	0x3d65341e	0.055957906
157	0xbd962f80	-0.07333279
158	0x3c6614f0	0.014043078
159	0x3d6e66b0	0.0582034
160	0x3d7c3275	0.061571557
161	0xbd827ed5	-0.063718475
162	0xbd99c7b2	-0.07508792
163	0xbe22f6ad	-0.15914412
164	0xbe461812	-0.1934512
165	0x3e0f95d2	0.14021996
166	0x3e265e01	0.16246797
167	0xbce7b3fb	-0.028284064
168	0xbe03bdbc	-0.12865347
169	0x3b647cbb	0.0034864384
170	0x3c2910e1	0.010318966
171	0xbde14445	-0.109993495
172	0x3dbdd7a2	0.09269644
173	0x3c65f053	0.014034349
174	0x3d9dd67c	0.07706925
175	0x3dc1c41c	0.09461233
176	0x3e707ff3	0.23486309
177	0x3d9de53b	0.07709738
178	0xbdbbef4c	-0.09176502
179	0xbe00c91d	-0.12576719
180	0xbe7809d6	-0.24222502
181	0x3e1aa20e	0.15100881
182	0xbd07737a	-0.03306911
183	0x3df18041	0.117920406
184	0x3e7b7125	0.2455488
185	0x3ced1426	0.028940272
186	0x3e64638d	0.223036
187	0x3c9c3d9a	0.019072343
188	0xbe99b896	-0.3002364
189	0xbca1ed16	-0.019766372
190	0xbd4627fd	-0.04837798
191	0x3d5a24f4	0.053257897
192	0x3e3ab6bc	0.1823377
193	0x3da1d303	0.079015754
194	0x3e14be42	0.14525703
195	0x3dc3ca36	0.09560053
196	0x3ddbd8bf	0.107347004
197	0x3d4bf577	0.04979464
198	0xbe2a0fbb	-0.16607563
199	0xbd99f218	-0.07516879
200	0x3e743af5	0.23850615
201	0xbd067997	-0.0328308
202	0x3e1cc454	0.15309268
203	0xbe5855cc	-0.21126479
204	0x3caa84ec	0.020815335
205	0xbdbb06a3	-0.09132125
206	0xbe0b753a	-0.13618937
207	0x3df031fe	0.11728285
208	0xbdb36eb9	-0.08761353
209	0xbdaaa4ff	-0.08332252
210	0xbe3a92c5	-0.1822005
211	0x3dc8bf93	0.09802165
212	0xbcbe4337	-0.02322541
213	0xbc04bfa8	-0.008102335
214	0xbd6991a5	-0.057023663
215	0xbd6d62f8	-0.057955712
216	0xbc0840be	-0.008316217
217	0xbdb90f34	-0.09036103
218	0x3ba174c4	0.0049272496
219	0xbdbde121	-0.092714556
220	0xbe081c1e	-0.13291976
221	0x3e32efbf	0.17474268
222	0x3e8c45b1	0.2739692
223	0x3d0e54bd	0.03474878
224	0x3e6b2dd9	0.22966708
225	0xbd0ca6ff	-0.034338947
226	0xbe088345	-0.13331325
227	0xbce49ee4	-0.027907796
228	0xbda6abb7	-0.08138221
229	0x3b2ba5f1	0.0026191438
230	0xbd8538a9	-0.06504948
231	0xbdb7ac99	-0.08968467
232	0xbe33eaaa	-0.17569986
233	0xbdf130b3	-0.11776867
234	0x3dea0490	0.114266515
235	0xbc26d06a	-0.010181526
236	0x3bc05616	0.0058696372
237	0x3dd9dd29	0.10637886
238	0xbda9eab1	-0.08296717
239	0xbd7aed15	-0.061261255
240	0xbdbbed71	-0.09176148
241	0xbe178cf0	-0.14799857
242	0x3c082a5f	0.008310883
243	0x3ce870d1	0.028374108
244	0x3d20c253	0.039247822
245	0x3dbbc9c5	0.09169344
246	0xbcdffde2	-0.02734274
247	0xbe5aabbe	-0.21354577
248	0xbe6cd74c	-0.23129004
249	0xbdcb70f7	-0.09933656
250	0xbe4c233e	-0.19935319
251	0x3dafe2a6	0.08588152
252	0xbd8cfd80	-0.06884289
253	0x3e263dde	0.16234538
254	0xbe4e316c	-0.2013604
255	0xbe14f2ab	-0.14545695

network_body._body_endoder.seq_layers.2.bias f4 [128]
0	0xbac66727	-0.0015136943
1	0x3a48431c	0.00076393946
2	0xb9edec88	-0.00045380392
3	0xb8bd7f85	-9.035975e-05
4	0xb90a4463	-0.00013186182
5	0x38b9843b	8.846117e-05
6	0x399223e6	0.00027874036
7	0xb9dcbbad	-0.000421015
8	0xb946af9f	-0.00018948175
9	0x3ac45741	0.0014979617
10	0xb627e03a	-2.5015456e-06
11	0x390d7908	0.00013491896
12	0xba1f5bd7	-0.0006079054
13	0x3a617259	0.0008600108
14	0x3b066e7b	0.0020512629
15	0xba2648ed	-0.0006343264
16	0xbabcdeb6	-0.0014409635
17	0x3a85162a	0.00101537
18	0x3abd48b5	0.0014441224
19	0xbb2b02d5	-0.0026094217
20	0xbb019f3f	-0.0019778756
21	0xbae64f9e	-0.0017571335
22	0xbadc5676	-0.0016810435
23	0xb948b2eb	-0.00019140138
24	0xb9183a43	-0.00014517554
25	0xbac0c298	-0.0014706431
26	0xbaccb98f	-0.0015619266
27	0xbafd9ddd	-0.0019349415
28	0xb954388f	-0.00020238965
29	0xbb00250c	-0.0019553332
30	0xba19a617	-0.0005861236
31	0xb9372649	-0.00017466502
32	0xbb1cc682	-0.002392203
33	0xbaa67652	-0.0012700057
34	0x3869b48b	5.5719673e-05
35	0x3a7a4f6d	0.00095485785
36	0x39a39bee	0.0003120596
37	0xbb18c677	-0.0023311654
38	0x37a632a9	1.9812333e-05
39	0x3a1e6621	0.000604244
40	0x3a3acc48	0.0007125777
41	0x380e9777	3.39965e-05
42	0xb9324ba0	-0.00017003575
43	0xbb3d8556	-0.0028918586
44	0x3af55e11	0.001872005
45	0xba80186d	-0.0009772904
46	0xba28d215	-0.0006439996
47	0xb80a7fa6	-3.3020646e-05
48	0xb98253b6	-0.00024857902
49	0x39f7526a	0.00047172914
50	0x37049b51	7.9039755e-06
51	0x3961aecd	0.0002152279
52	0xba1eaaa3	-0.00060526485
53	0xba6fa915	-0.00091423217
54	0x39a2faa6	0.00031085795
55	0xbae88be2	-0.0017741884
56	0xb9fc93cd	-0.00048175306
57	0xbb954c16	-0.0045561893
58	0xb9f1ba68	-0.00046105986
59	0xba31c90e	-0.00067819736
60	0x3aa12c03	0.0012296442
61	0xb9bdff7c	-0.0003623924
62	0x3a7551c1	0.00093581906
63	0xbaec84c8	-0.0018044943
64	0xbb0b6743	-0.0021271266
65	0x37ee5673	2.8412067e-05
66	0xba346b44	-0.0006882439
67	0xb9d29738	-0.00040166988
68	0xba4b844c	-0.0007763549
69	0x37bc5186	2.2449309e-05
70	0x3a590f78	0.0008280198
71	0xb8fb37c3	-0.00011978999
72	0xbac79348	-0.0015226388
73	0x3b497cdf	0.0030744595
74	0xba2f9ad5	-0.0006698792
75	0xba995cc4	-0.001170062
76	0x39a0c54b	0.00030664573
77	0x3a9deaf0	0.0012048166
78	0x3af3399e	0.00185566
79	0xb9a236ec	-0.00030939968
80	0xba93fe90	-0.0011291075
81	0x3a425bbd	0.0007414183
82	0xba2d218a	-0.0006604424
83	0xbb18290d	-0.0023217828
84	0xba0da0a2	-0.00054026593
85	0xbb06e5dc	-0.0020583784
86	0x3879037d	5.9369475e-05
87	0x39c88adc	0.0003825043
88	0x37d29cf2	2.5107034e-05
89	0xbaa266b2	-0.0012390225
90	0x3b3b3a67	0.0028568746
91	0xb920c0f2	-0.00015330667
92	0xbae7381e	-0.0017640626
93	0x3a816e86	0.0009874857
94	0xbac22d2e	-0.001481449
95	0xbab1e7e9	-0.0013573143
96	0xbab4bfba	-0.0013790049
97	0xba8ff25c	-0.0010982263
98	0x387a1c57	5.963104e-05
99	0xb9a33423	-0.00031128628
100	0xbae2d11a	-0.0017304749
101	0xba53382b	-0.0008057381
102	0xba8e98a6	-0.0010879233
103	0xbac6f1a0	-0.0015178211
104	0xba410845	-0.0007363598
105	0x3bb8fd04	0.005645396
106	0xb9a1d89b	-0.00030869697
107	0xba99339f	-0.0011688358
108	0xba694b5f	-0.0008899476
109	0x3a9b09b8	0.0011828458
110	0xba9a1500	-0.0011755526
111	0x3b538928	0.0032277796
112	0xbab6106c	-0.0013890392
113	0xba3bb155	-0.00071599084
114	0x3a8c622b	0.0010710409
115	0xba9765d8	-0.0011550738
116	0x3a8c2985	0.0010693526
117	0xbab1cf17	-0.0013565746
118	0xbad0cc4e	-0.0015930028
119	0x3a7beaee	0.00096098974
120	0xbb280838	-0.0025639664
121	0x3a9c2110	0.0011911709
122	0x39d9b3fd	0.00041523567
123	0xba6c1788	-0.0009006192
124	0xb9e34ed7	-0.00043355554
125	0xb8f8fd1d	-0.000118727075
126	0xbaf1caf9	-0.0018447331
127	0xba6d8fe4	-0.0009062274

network_body._body_endoder.seq_layers.2.weight f4 [128, 128]
0	0x3d083be8	0.033260256
1	0xbdb4df7f	-0.08831691
2	0x3e466651	0.19374968
3	0x3cdac8ca	0.026707072
4	0xbc8443d0	-0.016145617
5	0xbd870c83	-0.06594183
6	0x3d914ece	0.07095109
7	0xbca869aa	-0.020558197
8	0xbe1eafcd	-0.1549675
9	0x3d22dbcb	0.039760392
10	0x3cca6566	0.024706554
11	0xbe5e3fa4	-0.21703964
12	0xbc4864b0	-0.012231037
13	0x3da5a30e	0.08087741
14	0x3d176c86	0.03696873
15	0xbdd5e7c4	-0.104445964
16	0x3d740e64	0.059584036
17	0xbd27e523	-0.040990006
18	0x3ccaa8c4	0.024738677
19	0xbdd63806	-0.104599044
20	0xbc7acd4e	-0.0153077375
21	0xbc96efb7	-0.018424852
22	0xbd39dadb	-0.045374732
23	0x3bbbb402	0.0057282457
24	0xbe912b25	-0.2835323
25	0xbdaf7c8c	-0.08568677
26	0x3e1f1943	0.1553698
27	0x3c926ab5	0.017873148
28	0x3dc0c9cf	0.09413492
29	0xbde2581c	-0.11051962
30	0xbda562c2	-0.08075477
31	0xbd291c1e	-0.04128658
32	0x3c91d5d5	0.017802158
33	0x3e2965da	0.1654276
34	0x3d10bbfd	0.03533553
35	0xbde9cbbd	-0.11415813
36	0x3e1ad913	0.1512187
37	0x3e817e8b	0.25291857
38	0x3cf00062	0.029297058
39	0x3dc3e8fb	0.09565922
40	0xbd8a753c	-0.06760642
41	0xbe046eaf	-0.12932847
42	0xbe302915	-0.17203172
43	0x3b95b0e6	0.004568207
44	0x3d79bd72	0.060971685
45	0xbe02833e	-0.12745377
46	0x3c24ab84	0.010050658
47	0x3d4d313f	0.050095793
48	0xbb943072	-0.0045223767
49	0x3e144502	0.1447945
50	0xbd55b082	-0.052170284
51	0xbdb969c4	-0.09053376
52	0x3e5c3848	0.21505845
53	0x3e63b53a	0.22237101
54	0xbcd2fa81	-0.025754215
55	0x3d67b8aa	0.056572594
56	0x3e6ccd39	0.23125161
57	0x39f0bada	0.00045915582
58	0x3c7aee8e	0.015315665
59	0x3d106c88	0.035259753
60	0xbca7b539	-0.020472156
61	0xbdfa2470	-0.12213981
62	0xbdb86e4f	-0.09005415
63	0x3e53bd34	0.20677644
64	0xbdefe245	-0.11713079
65	0xbe11feb5	-0.1425732
66	0xbda3d437	-0.07999461
67	0x3d1d50b0	0.038407028
68	0x3da8f633	0.08250084
69	0x3d27fcc3	0.041012537
70	0xbd752952	-0.05985386
71	0x3daff807	0.08592229
72	0xbdb47103	-0.08810618
73	0x3c599b1a	0.013281608
74	0x3b9c9f8e	0.0047797626
75	0xbcd0ff5e	-0.025512394
76	0x3d457561	0.048207644
77	0xbd80c968	-0.06288415
78	0xbe10c9dd	-0.14139505
79	0x3d962bdf	0.073325865
80	0x3d327820	0.04357159
81	0x3c9e57f8	0.019329056
82	0xbb56e8c3	-0.0032792545
83	0x3c584286	0.013199454
84	0xbd030196	-0.031983934
85	0xbd2af17b	-0.0417342
86	0xbcdd12a3	-0.026986426
87	0x3ce6d14a	0.028175969
88	0x3dce9352	0.10086693
89	0xbc32fd8f	-0.010924711
90	0x3ccb3aea	0.024808366
91	0x390ee8d9	0.00013628918
92	0x3da827ba	0.08210702
93	0xbccbfa4a	-0.02489962
94	0x3c082c60	0.008311361
95	0x3c798a4a	0.015230725
96	0xbc954e96	-0.01822595
97	0xbc91f374	-0.017816283
98	0x3e3fa97f	0.18717001
99	0xbd9b9de6	-0.07598476
100	0x3db6787f	0.089097016
101	0xbcccb2f7	-0.02498768
102	0x3c123ac4	0.008925144
103	0x3cd38220	0.025818884
104	0x3d86fd8c	0.06591329
105	0x3d8c0bdf	0.06838202
106	0xbe00986a	-0.12558141
107	0x3d7476af	0.059683498
108	0x3d10e621	0.035375718
109	0xbd87bcc2	-0.066277996
110	0xbced68c4	-0.02898062
111	0x3e00bab1	0.12571217
112	0x3da58501	0.08082009
113	0xbd9996fa	-0.074994996
114	0xbe0c0512	-0.13673809
115	0x3beac29d	0.007164313
116	0x3d731289	0.05934385
117	0xbe2deb5c	-0.16984314
118	0x3c178d3d	0.009249982
119	0xbc8eb159	-0.01741855
120	0x3d24d726	0.040244244
121	0x3c8a611a	0.016892005
122	0xbdf43df9	-0.11925883
123	0xbe1b0b2c	-0.1514098
124	0x3dfc498a	0.12318714
125	0xbd83b67c	-0.064312905
126	0xbdde468d	-0.108533
127	0xbddef14a	-0.10885866
128	0x3cc48a4b	0.023991724
129	0x3c8880d1	0.016662987
130	0xbdb8049d	-0.08985255
131	0xbb87b984	-0.004141988
132	0xbdd80717	-0.10548227
133	0xbc3a6b7d	-0.011378166
134	0xbc3a017e	-0.011352895
135	0xbc4f3517	-0.012646935
136	0x3dda2e86	0.10653405
137	0x3b9ce801	0.004788399
138	0x3b873ace	0.004126883
139	0xbdd569e5	-0.104205884
140	0x3ce2f13c	0.02770292
141	0x3d3e2c70	0.046429098
142	0xbc73a24c	-0.014870238
143	0x3d765b08	0.060145408
144	0x3e0d1252	0.1377652
145	0xbdaa3e86	-0.08312707
146	0xbd3edf05	-0.046599407
147	0x3d8558b4	0.065110594
148	0x3d4ea485	0.050449867
149	0xba4e89e8	-0.0007878826
150	0xbdc7c5de	-0.09754537
151	0x3d5bb08b	0.05363516
152	0x3c3a7c35	0.011382152
153	0x3e1c1d90	0.15245652
154	0x3c4d97f8	0.012548439
155	0xbd05dddf	-0.032682296
156	0x3cc56d1e	0.024099883
157	0xbd6a6d27	-0.057233002
158	0x3c976e01	0.018485071
159	0x3d2478bd	0.040154207
160	0xbe0a4ded	-0.13506289
161	0x3d0bfb24	0.034175053
162	0xbd0d8648	-0.03455189
163	0xbb37720e	-0.0027991566
164	0xbcab996e	-0.020947184
165	0x3cb057fa	0.021526325
166	0xbce92e46	-0.028464448
167	0x3d814e16	0.06313722
168	0xbd196a6d	-0.03745501
169	0x3cfb782c	0.03069695
170	0xbd905ad6	-0.070485756
171	0x3cae3882	0.02126718
172	0xbccc09a5	-0.024906943
173	0x3d23900f	0.039932307
174	0xbcd2718a	-0.025688905
175	0xbd663a76	-0.056208096
176	0xbd0c0d7f	-0.03419256
177	0xbd64c024	-0.055847302
178	0x3d99f3e6	0.07517223
179	0x3df2b191	0.11850274
180	0x3d2584ad	0.040409733
181	0x3c2bb414	0.010479946
182	0x3dc9e2cb	0.098577105
183	0x3e0fed8d	0.14055462
184	0xbbe1f5e2	-0.0068957666
185	0xbd2e7ea4	-0.042601243
186	0xbdaa9d4c	-0.08330783
187	0xbcf3c571	-0.029757233
188	0xbd57cf13	-0.052687716
189	0x3c2f36d3	0.010694223
190	0x3d734683	0.059393417
191	0xbd2272cc	-0.03966026
192	0xbda98139	-0.082766004
193	0xbcb16bd5	-0.021657864
194	0x3de61414	0.11234298
195	0x3c80b886	0.015712988
196	0xbc6066ee	-0.013696415
197	0xbd360771	-0.04444069
198	0xbd8088a0	-0.06276059
199	0x3e27e428	0.16395628
200	0x3df953a0	0.12174153
201	0x3cb28546	0.021792065
202	0xbd710ec9	-0.05885199
203	0xbd8c291a	-0.06843777
204	0xbd78bd48	-0.060727388
205	0x3cc78156	0.024353664
206	0x3c93c2ff	0.018037317
207	0x3d1220f0	0.035675943
208	0xbd566bf1	-0.052349035
209	0x3df75530	0.12076795
210	0x3aa5aa5a	0.001263927
211	0x3d0875b2	0.033315368
212	0x3aeb313d	0.0017943751
213	0xbab5e372	-0.0013876988
214	0x3c8ac3fb	0.016939154
215	0x3e0a4362	0.13502267
216	0xbd3d3e08	-0.046201736
217	0xbcb0815e	-0.021546062
218	0x3dc2dab9	0.09514374
219	0x3c01bfb1	0.007919238
220	0xbc786555	-0.015160878
221	0x3e3e6668	0.18593752
222	0x3d589ee0	0.05288589
223	0xbda45ca4	-0.08025482
224	0x3ce691f3	0.028145766
225	0xbd33fd47	-0.043942716
226	0xbd94931e	-0.07254623
227	0xbe4094f5	-0.18806823
228	0x3d9556af	0.07291924
229	0xbde24325	-0.11047963
230	0x3dbf5317	0.0934202
231	0xbde7ea28	-0.11323959
232	0xbab6a6ab	-0.0013935169
233	0xbc8e9eb6	-0.017409664
234	0x3e070596	0.13185725
235	0xbc3ac0ec	-0.011398535
236	0x3cb0311c	0.021507792
237	0x3da3e055	0.08001772
238	0xbe27aaf1	-0.16373803
239	0x3d0f4616	0.03497895
240	0x3e0827bb	0.13296406
241	0x3d99eb77	0.075156145
242	0xbd88a446	-0.06671958
243	0xbe2d6f06	-0.16936883
244	0x3da9641f	0.0827105
245	0x3cd2ed52	0.025747929
246	0xbd97ebc6	-0.07418017
247	0xbcf36eee	-0.029715981
248	0x3d93eb9b	0.072226726
249	0x3d2eb9a4	0.04265751
250	0x3c282041	0.010261596
251	0xbe0761d8	-0.13220918
252	0x3dbccb32	0.09218444
253	0xbe00ec98	-0.12590253
254	0x3ea7c28b	0.32765612
255	0x3c4f388b	0.012647758

network_body._body_endoder.seq_layers.4.bias f4 [128]
0	0xb9bd897f	-0.00036151332
1	0xb8b98f6d	-8.8482026e-05
2	0xbb2a5c30	-0.002599489
3	0xbac30e37	-0.0014881556
4	0x3aca3a2c	0.0015428714
5	0x3aa94795	0.001291501
6	0xba56a92b	-0.000818866
7	0xba9838b7	-0.0011613582
8	0x38d14f9a	9.9807236e-05
9	0x39957657	0.00028507665
10	0xb817fbee	-3.6235833e-05
11	0xba30c0d8	-0.0006742603
12	0x39fe7e64	0.00048540824
13	0xbb279b06	-0.002557458
14	0x3a0d9734	0.0005401254
15	0xbace757b	-0.0015751565
16	0x376fe55b	1.4298911e-05
17	0xba8f14fa	-0.0010916286
18	0xbac7efd2	-0.0015253967
19	0x3a1aef96	0.0005910335
20	0xb8e548d9	-0.0001093314
21	0x3a09092a	0.0005227501
22	0xb9c3476d	-0.00037246515
23	0x39257a2d	0.0001578114
24	0xb9431eab	-0.00018608074
25	0x36559025	3.1823377e-06
26	0xb93fd6bb	-0.00018295173
27	0xbb2f0383	-0.0026704974
28	0xbaa31c7f	-0.0012444406
29	0x38bcbf8c	9.000217e-05
30	0xbaf06414	-0.0018340372
31	0xb94bf3ea	-0.00019450454
32	0xb8938a09	-7.035217e-05
33	0xbad02b64	-0.0015882072
34	0xbb02fc24	-0.0019986713
35	0xba3c5739	-0.0007184628
36	0x3a08b1be	0.0005214474
37	0xb99a037d	-0.00029375768
38	0x385cda4b	5.265539e-05
39	0xbab80dcd	-0.0014042199
40	0xba2dd30a	-0.00066308735
41	0xba508486	-0.0007954318
42	0x39eb1b66	0.00044843106
43	0xbac79bd2	-0.0015228933
44	0x3993eb19	0.00028213186
45	0xba8d58dd	-0.001078393
46	0xba97f824	-0.0011594337
47	0xb9e54e54	-0.00043736643
48	0xbab773f9	-0.0013996355
49	0x39dfc1f2	0.00042678375
50	0xba50a08c	-0.00079584937
51	0x39732091	0.00023186418
52	0x39b9ef90	0.00035464438
53	0x3a5fb13a	0.0008533184
54	0x398c24bf	0.0002673026
55	0xb6b77771	-5.46773e-06
56	0xba1bcbd4	-0.00059431535
57	0xba9e32cd	-0.0012069583
58	0xba8f03b6	-0.001091114
59	0xb9657f90	-0.00021886663
60	0x39fdc681	0.00048403817
61	0x394e796f	0.00019690928
62	0xba0fb9ae	-0.00054826855
63	0x39fd798c	0.0004834648
64	0xba78a01e	-0.00094843085
65	0xba339aed	-0.0006851394
66	0x3a0af162	0.0005300251
67	0x39eb71c4	0.00044907455
68	0xba40b465	-0.00073510996
69	0x38a9fd12	8.105686e-05
70	0xbb7aeb6d	-0.0038287297
71	0x386658ed	5.491909e-05
72	0x3b2556de	0.0025228779
73	0xb7a05f72	-1.9117932e-05
74	0x39f65190	0.00046981545
75	0x39c8b9ae	0.00038285315
76	0xb9c5940a	-0.00037685066
77	0x3a570882	0.0008202867
78	0xbb23870c	-0.002495232
79	0xbab4c7e5	-0.0013792483
80	0xb9cd9417	-0.00039210983
81	0x39d093f6	0.0003978309
82	0xbada5dcd	-0.0016660035
83	0x395f8a14	0.00021318375
84	0x39fd852d	0.00048355144
85	0xb968d68f	-0.00022205173
86	0x39a7b7ae	0.00031989574
87	0xb9f7202a	-0.00047135475
88	0x39ed91ff	0.00045312938
89	0xba113db0	-0.0005540503
90	0xbb1fc58c	-0.0024379222
91	0xba5bab58	-0.0008379719
92	0x399cba98	0.00029893662
93	0xbb28b716	-0.0025743893
94	0x3aa96cf5	0.0012926148
95	0xb9e031d7	-0.00042761743
96	0xb96a9227	-0.00022370425
97	0xba583aa2	-0.0008248483
98	0x39b6bdc4	0.00034855132
99	0xba92555b	-0.0011164354
100	0xbb88de9e	-0.0041769287
101	0x3a65a946	0.00087608804
102	0x39bfc423	0.00036576492
103	0x394ef1f9	0.00019735833
104	0x39b93cd2	0.00035331264
105	0xb9af9fc1	-0.00033497627
106	0x39c77075	0.00038040025
107	0xb9a6afcd	-0.0003179297
108	0xba826d9c	-0.0009950879
109	0x37f08779	2.8673314e-05
110	0x3a19f961	0.0005873647
111	0xba6d94ab	-0.0009062986
112	0x39d964ef	0.00041464667
113	0x3b02340a	0.0019867443
114	0xba2fd5e6	-0.00067075936
115	0xba94e67c	-0.0011360194
116	0xbb27019a	-0.0025483132
117	0x3a6fc9d0	0.0009147199
118	0xba92a943	-0.001118936
119	0xba210d1e	-0.0006143617
120	0xba0ecfb3	-0.000544782
121	0xba80a3ef	-0.0009814481
122	0xbac54c71	-0.0015052689
123	0xba5094d0	-0.0007956745
124	0x3a10e5b7	0.0005527394
125	0x3a1e4979	0.000603817
126	0xb8b3194d	-8.540098e-05
127	0xbb73f5c2	-0.003722534

network_body._body_endoder.seq_layers.4.weight f4 [128, 128]
0	0xbc60c662	-0.013719173
1	0xbd2b2937	-0.041787352
2	0x3d8465b1	0.064647086
3	0xbc8e3dc8	-0.017363444
4	0xbc09b3f9	-0.008404725
5	0x3d69786b	0.056999605
6	0xbdaa71cf	-0.083224885
7	0xbd83abf9	-0.064292856
8	0x3d8a2882	0.067460075
9	0x3e061de2	0.13097337
10	0x3b776704	0.003775061
11	0xbd01c5b5	-0.03168269
12	0x3c5e1d79	0.0135568315
13	0xbd9922a2	-0.07477309
14	0xbe0f25d9	-0.13979281
15	0xbdafb42c	-0.08579287
16	0xbd8dc422	-0.06922175
17	0xbc96d736	-0.018413167
18	0xbca0d449	-0.019632475
19	0xbd9957af	-0.074874274
20	0x3deb19b8	0.11479515
21	0xbe027b52	-0.12742355
22	0xbdbe14bf	-0.09281301
23	0xbdc745fd	-0.09730146
24	0xbd47366d	-0.04863589
25	0xbd744696	-0.05963763
26	0x3d4d37a9	0.05010191
27	0xbcf0c772	-0.029391978
28	0xbd9d6981	-0.07686139
29	0xbd4307b9	-0.047614787
30	0x3d0a19e5	0.0337161
31	0x3e5908f9	0.21194829
32	0x3cfe3883	0.031032806
33	0x3d829aa0	0.06377149
34	0x3df44d77	0.11928838
35	0xbd8fe408	-0.070259154
36	0x3decd215	0.115635075
37	0x3d4765a2	0.04868091
38	0xbd53654d	-0.05161028
39	0x3dc38bcb	0.09548148
40	0xbdc8796b	-0.09788784
41	0xbdadaacb	-0.08479842
42	0xbc19c990	-0.009386435
43	0x3cefb573	0.029261326
44	0xbc23ca24	-0.009996925
45	0x3d896d46	0.067102954
46	0xbd315ae4	-0.04329957
47	0xbde1924e	-0.110142335
48	0x3d8ea816	0.069656536
49	0xbcaee355	-0.021348635
50	0x3d91daf8	0.07121843
51	0x3e32433d	0.17408462
52	0xbe0feb18	-0.14054525
53	0x3dc0d538	0.09415668
54	0xbc10547d	-0.008809206
55	0x3c36ce02	0.0111575145
56	0xbb82d0d0	-0.0039921775
57	0x3df808ae	0.121110305
58	0x3d005cc3	0.031338464
59	0xbddeea20	-0.108844995
60	0xbd5d0272	-0.05395741
61	0x3a992ead	0.0011686884
62	0x3a31aa36	0.00067773776
63	0xbd428749	-0.0474923
64	0xbd6b81c9	-0.05749682
65	0xbded87a8	-0.1159814
66	0xbd3b369c	-0.045706376
67	0xbd7b5730	-0.061362445
68	0xbd9376f3	-0.07200422
69	0x3dda9635	0.10673181
70	0xbe01273d	-0.12612624
71	0xbdd1a220	-0.10236001
72	0x3ddba4b4	0.10724774
73	0xbd669ac9	-0.05629996
74	0x3d008549	0.03137711
75	0x3d1f841a	0.03894434
76	0x3df6001b	0.12011739
77	0x3d2a20d1	0.041535202
78	0x3dd06956	0.10176341
79	0xbd6170db	-0.055039268
80	0xbc313e52	-0.010818081
81	0x3da3ac11	0.079918034
82	0x3be58c95	0.007005284
83	0x3c932775	0.01796315
84	0x3dedb789	0.11607272
85	0xbdfe0a4d	-0.124043085
86	0x3cd26db5	0.025687078
87	0xbe071c2b	-0.13194339
88	0xbe1d68fd	-0.15372081
89	0xbcbdb7bc	-0.0231589
90	0x3db00386	0.08594422
91	0x3d4815ba	0.048848845
92	0xbddbe927	-0.1073783
93	0xbd2c9bae	-0.042140655
94	0xbdfda287	-0.12384515
95	0xbda78a2a	-0.081806496
96	0xbe0fc90e	-0.1404154
97	0xbc47d98a	-0.012197861
98	0xbc5374c9	-0.012906262
99	0xbe15259e	-0.14565131
100	0xbad92917	-0.0016568032
101	0xbce6839d	-0.02813893
102	0x3dd04af7	0.101705484
103	0x3e0a66cc	0.13515776
104	0x3d3ed566	0.04659023
105	0xbe54bc21	-0.2077489
106	0xbe242ac4	-0.16031939
107	0xbda9282b	-0.082596146
108	0x3d88177b	0.066451035
109	0x3e64ce0b	0.22344224
110	0x3bd2fc0d	0.006438738
111	0x3ccc4355	0.02493445
112	0xbc448a54	-0.011995871
113	0xbd25ff0e	-0.040526442
114	0xbd7f41fd	-0.06231879
115	0x3e090794	0.13381797
116	0xbda614f8	-0.08109468
117	0xbb995025	-0.0046787434
118	0xbd6df754	-0.0580972
119	0xbe5107d2	-0.2041314
120	0xbd7deb94	-0.061992243
121	0x3c3ed01b	0.011646296
122	0xbcdd5d77	-0.027022107
123	0xbbecb705	-0.007223966
124	0xbd8b0653	-0.067883156
125	0x3dd89cac	0.10576758
126	0x3e2c9d28	0.16856825
127	0xbdd28eff	-0.102811806
128	0x3cc77a59	0.024350332
129	0x3ca81a78	0.020520434
130	0xbe0138c5	-0.12619312
131	0x3da93457	0.08261936
132	0xbde155ec	-0.110027164
133	0x3cf1d503	0.029520517
134	0xbc7dac12	-0.015482919
135	0x3d7a866d	0.061163355
136	0x3da7a4b9	0.08185715
137	0xb984b24a	-0.00025309838
138	0xbd078a58	-0.03309092
139	0xbe40484a	-0.18777576
140	0x3d9e249e	0.07721828
141	0xbd8d9b1a	-0.06914349
142	0x3cd839d3	0.02639476
143	0x3dfe09fd	0.12404249
144	0x3d90d6f3	0.07072248
145	0xbe138388	-0.14405644
146	0x3cd75229	0.026284294
147	0x3d92c10a	0.071657255
148	0xbccef26e	-0.025262084
149	0xbcb4a79d	-0.02205258
150	0xbcc31594	-0.023814
151	0xbd1c2374	-0.03811975
152	0xbd1431ea	-0.036180414
153	0x3d95acdc	0.07308361
154	0x3d0677df	0.03282916
155	0xbbd74d82	-0.006570519
156	0xbdb65e3c	-0.089046925
157	0xbe19f2a1	-0.15033962
158	0xbcf58e32	-0.02997503
159	0xbe20cfeb	-0.15704314
160	0x3d857937	0.065172605
161	0xbd1e74c3	-0.03868557
162	0xbe0bf74c	-0.13668555
163	0x3dedbda8	0.1160844
164	0x3e00f7d8	0.12594545
165	0xbd9ac5e5	-0.07557277
166	0xbe0d20cd	-0.13782044
167	0xbdc10fe9	-0.09426863
168	0x3b1bd70d	0.0023779303
169	0xbddb33bf	-0.10703229
170	0xbe27d0ed	-0.16388293
171	0x3d4107d9	0.047126625
172	0xbd4ed16c	-0.05049269
173	0x3da52a22	0.08064677
174	0x3c90a594	0.017657079
175	0xbdad28e8	-0.08455068
176	0x3c08de57	0.008353791
177	0xbbfa5028	-0.00763895
178	0xbca47b99	-0.020078467
179	0x3d9fa816	0.07795732
180	0xbda027d5	-0.07820097
181	0xbc398907	-0.011324174
182	0x3cc32eda	0.023826052
183	0xbdc9c366	-0.098517224
184	0xbd06c316	-0.032900892
185	0x3d405971	0.046960298
186	0xbc927a39	-0.017880546
187	0x3d200d8c	0.03907542
188	0xbd2e8412	-0.04260642
189	0x3d0b7bca	0.0340536
190	0xbdad8cff	-0.084741585
191	0x3ca470a9	0.020073252
192	0xbd90114b	-0.07034548
193	0x3d9aeed2	0.075650826
194	0xbe489be4	-0.19590718
195	0x3e039c6a	0.12852636
196	0xbd1acafe	-0.037791245
197	0xbdc1dc92	-0.094658986
198	0xbd9ddca6	-0.07708101
199	0x3d488e79	0.048963998
200	0x3d5129fa	0.051065423
201	0x3d41f79a	0.047355272
202	0x3c38e4b7	0.011284999
203	0x3dd269bd	0.10274074
204	0xbd8685dc	-0.065685004
205	0x3da88540	0.082285404
206	0xbd828de9	-0.063747235
207	0xbdbf6c80	-0.093468666
208	0xbd1b7650	-0.03795463
209	0xbe24adbd	-0.16081901
210	0x3d665e93	0.056242537
211	0xbcae3166	-0.02126379
212	0xbd8950c5	-0.06704859
213	0xbd6ed2e1	-0.05830658
214	0xbd5eda9c	-0.0544077
215	0xbd63a05a	-0.055572845
216	0x3de0ea71	0.10982216
217	0xbca46f50	-0.02007261
218	0x3ce39e9b	0.02778559
219	0x3da4e4f8	0.08051485
220	0x3daac7df	0.08338904
221	0x3d90ed99	0.07076568
222	0xbe09e8ff	-0.13467787
223	0xbd89b0c8	-0.067231715
224	0xbd438331	-0.047732536
225	0xbc8371c0	-0.016045451
226	0xbe2fbd0e	-0.17161962
227	0xbe67ad0c	-0.22624606
228	0xbde6a306	-0.11261563
229	0x3c0cd450	0.008595541
230	0xbe7e4ab6	-0.24833187
231	0x3cf69e6e	0.030104842
232	0xbdd4a7c3	-0.103835605
233	0x3c976e16	0.01848511
234	0x3d297102	0.04136754
235	0xbdc76d18	-0.09737605
236	0x3dcc20d6	0.099672005
237	0xbc16625f	-0.009178727
238	0x3d15e2d2	0.036593266
239	0xbc4dfaff	-0.012572049
240	0xbd8b44b7	-0.06800216
241	0x3d43de42	0.047819383
242	0x3ddc3e16	0.107540295
243	0xbdb5ec73	-0.0888299
244	0x3de85fe4	0.11346415
245	0x3db4ce8d	0.08828459
246	0x3e22d166	0.15900192
247	0xbb316486	-0.0027067973
248	0xbdb2c25c	-0.08728477
249	0x3e228f16	0.15874895
250	0x3d0a38e1	0.03374565
251	0x3cf316ac	0.029673897
252	0x3da5c2df	0.08093809
253	0x3d5b2411	0.053501192
254	0x399936ac	0.00029223168
255	0x3ddd8541	0.10816432
