mlagents/Assets/results/TestLearning2/RollerBall/RollerBall-143159.onnx (onnx, 141928 bytes, 9 tensors)

action_model._continuous_distribution.log_sigma f4 [1, 2]
00000000: fd79 d8bd 66ca a5bd
-0.105701424 -0.08095245

action_model._continuous_distribution.mu.bias f4 [2]
00000000: 003c 12bb e3dd 963c
-0.0022313595 0.01841635

action_model._continuous_distribution.mu.weight f4 [2, 128]
00000000: cc7e 813d 1c7c b63d 07e7 503d 3e07 083b
00000010: fd69 bc3d 6f61 9cbc f14b 6b3b d376 9b3c
00000020: 7fa6 883b 1342 8bbd 44d5 86bb e1b0 a3bc
00000030: 8d82 7fbc 8b69 aabb 512f 09bc db6b 8bbc
00000040: 0f3a d6b9 7327 dfbc aa9f 28bd ee15 e2bc
00000050: 4a10 3dbb 9268 a63c 906d 343d 2c38 893c
00000060: edf0 ed3c aa74 383d 2a02 26ba 746d 9dbb
00000070: 06e1 353c 25ab 9dbc 5b63 32bd eeb4 353c
00000080: 92e5 503d a6d2 a8bc 0d1b fdbc 073a e6bb
00000090: fbff d93b b830 c53c c907 34bd 0268 c4bc
000000a0: 3fdc 53bc f54d 1dbd 5d87 06bd 7d2b 033d
000000b0: 5717 513d 00bd 5fbc 2627 28bc db84 b73c
000000c0: 3edf 72bc 1fe3 f03b 9504 c83b 5927 64bc
000000d0: 10d3 11bd 80f0 8c3d b928 4abd f4d7 433d
000000e0: a9f5 48bd 95f9 513a 9a90 e7ba c4a6 1bbd
000000f0: 78b1 23bd 7ce0 2b3d 26b3 13bd c3a4 ce3c
00000100: 00df e63b 6032 3a3d 79a0 cabc d2de 0c3b
00000110: 5189 45bc 7702 81bd 283f b93c f811 0f3d
00000120: e625 d9bc f41c aabc 1810 19bc 95af 723c
00000130: f0dd 8f3d 8dcb 6bbb c77e 55bb 131b d3bc
00000140: 5383 0cbc a707 6c3a 0d1d e3ba b53c 803d
00000150: 29e6 a0bd a3e4 11be 42f3 91bc d9cc 77bc
00000160: 2437 903c 9d71 2c3d 825e 44bc fceb adbc
00000170: 2ef6 d839 f42c 253d c9bc 393d df7a 1b3b
00000180: 510a e3bc c939 e2bb a1db 06bd 7059 bebc
00000190: a1e5 a73c bdd9 5d3d 697f 23bd aea5 9b3b
000001a0: 1643 32bd 5455 363d 6308 2c3d cba9 d13c
000001b0: 6bd6 b3bc 4212 8f3c 61dd 6f3c e422 2b3d
000001c0: 895b 21bb 46f3 58bc 5875 e93c 0767 103d
000001d0: 74bc 84bc e28b 14bc ecc4 4c3a 87c6 17bd
000001e0: afc0 963d 8e9f 703b 9433 33bd bfd9 9dbc
000001f0: f7c2 08bc 8d10 6e3c f557 60bc b71d cfbb
00000200: e826 6c3d fc7d 6cbb bbdb 363d 6a9f 02bb
00000210: 7172 d53c 09f2 82bc 0bfc 92bd 2281 8dbd
00000220: ce45 6b3c 29e2 2a3d ccd6 04bb 00bd 59bd
00000230: 75b0 cbb9 d018 583d 0e98 04bd c32c 0c3c
00000240: 59b9 953c a4ab 093d b05e 823a 1825 aabb
00000250: 1f0f 803b 41b4 e33b b3dc 03bd ea5b a2bd
00000260: 2aef 84bc 7f49 413d 50ab 8c3c d983 ddbd
00000270: f917 0f3c 815a a5bc 3455 783b ae43 823c
00000280: f736 b1bc 40ae 23ba fd04 a33c d185 67bd
00000290: 0ca3 233d 3885 b83c be13 e7bb b32c f03c
000002a0: 4b21 aebc 460e 42bc 91a2 04bd c518 72bd
000002b0: 9eca f1bb cfdf 183d 8732 4abd 267e d8bc
000002c0: e213 0f3c 3c2f 223b c4bf d1bc f28d fbbc
000002d0: ba3f afbc e182 8abd 8595 43bd 21f2 b8bd
000002e0: 6e8f df3b 2772 ec3c 2fcb 12bd 9e2d 203d
000002f0: 99f7 32bd 3a39 ae3c 074f 34bb 6674 76bd
00000300: 60bb febd 10fc 9dbc e0c1 dd3b 2463 a63c
00000310: d352 2a3d 3454 7bbd 28c9 73bc 4cbe d1bb
00000320: 3a2e 4fbd 7f42 213d 8cf5 02bd 8a0e ff3c
00000330: 0a74 e83a 8849 52bd 1326 06bc 89b9 dc3c
00000340: edb9 9c3b 6a63 cb3b 62e0 c9bc d1c1 2e3c
00000350: 5e8c 0cbd 1ccc 8dbc b5cb 30bd 240d babd
00000360: acb3 cc3c 69b0 8ebd 5887 803a dd2d dbbc
00000370: c806 ab3b 2e7b 0c3d ad8d 93bd fcfe 133c
00000380: 05fe 3f3d abf9 24bd 6b6b 69bd c457 2dbd
00000390: 2fdd 8fbc 0770 e2ba e712 1e3d 2fd5 40bd
000003a0: ca03 6bbd 5e32 583d c455 dc3b 712e 82bd
000003b0: f1f9 213d 0d23 80bc 54a6 19bc e924 a3bd
000003c0: f625 333c 19db e8bb 7bbf 28bd f52b 83bd
000003d0: d4d9 b13c c1bc b33d ba0f 13bb 63a8 c1bc
000003e0: 8b85 983c adf8 97bd d0c2 4d3d 622a c9bc
000003f0: f85a 45bc 22d5 313c f198 3dbd afe6 543c
0.06323013 0.08910391 0.051001575 0.002075627 0.09199903 -0.019089429 0.003590342 0.018977558
0.0041702385 -0.06799712 -0.0041147787 -0.019981803 -0.015595091 -0.00520057 -0.0083730975 -0.017019203
-0.00040860518 -0.02724049 -0.041167893 -0.027598348 -0.002884882 0.020313535 0.0440498 0.016750418
0.029045546 0.045033135 -0.000633272 -0.0048043076 0.011101013 -0.019246647 -0.043551784 0.0110905
0.051000185 -0.020608258 -0.030896688 -0.0070259604 0.0066528297 0.024071082 -0.043952737 -0.023975376
-0.012930929 -0.038404424 -0.032843936 0.032023896 0.05104765 -0.013655901 -0.01026324 0.022402218
-0.014823733 0.0073512937 0.006104062 -0.013925397 -0.035601676 0.06881809 -0.049355242 0.04781337
-0.049062405 0.0008009908 -0.0017666996 -0.038000837 -0.03996417 0.04196213 -0.03605952 0.025225049
0.0070456266 0.045458198 -0.024734722 0.0021495116 -0.012056665 -0.06299298 0.022613123 0.034929246
-0.02650733 -0.020765759 -0.009342216 0.01481237 0.07024753 -0.003597948 -0.0032576786 -0.025769746
-0.008576232 0.0009003826 -0.0017327383 0.06261579 -0.078563996 -0.14247374 -0.01781619 -0.015124523
0.017604418 0.042100538 -0.011985423 -0.02123069 0.0004138215 0.040326074 0.045346055 0.002372436
-0.02771488 -0.006903861 -0.0329243 -0.023236006 0.020495238 0.05416273 -0.03991643 0.004749975
-0.04352101 0.04451497 0.042000186 0.025593659 -0.021952828 0.01746476 0.014640183 0.04178132
-0.002462121 -0.013241595 0.028498337 0.035254505 -0.016203143 -0.009066554 0.0007811326 -0.037054565
0.0736097 0.0036716196 -0.04375036 -0.019268868 -0.0083472645 0.014530313 -0.013692846 -0.006320681
0.05765429 -0.0036085835 0.044643145 -0.0019931444 0.026055546 -0.015984552 -0.0717698 -0.06909396
0.014359904 0.04171959 -0.002026963 -0.05315876 -0.00038850648 0.052758038 -0.032371573 0.008555594
0.018276857 0.033610955 0.0009946432 -0.00519241 0.0039080526 0.006948978 -0.032192897 -0.079276875
-0.016227324 0.047189232 0.017171532 -0.108161636 0.008733743 -0.020184757 0.0037892582 0.015901413
-0.021632655 -0.0006243922 0.01989984 -0.0565241 0.039950415 0.022524461 -0.007051914 0.02931819
-0.02125611 -0.011844223 -0.032381598 -0.059105653 -0.00737889 0.037322816 -0.049364593 -0.02642734
0.008732768 0.0024747392 -0.025604136 -0.030707333 -0.021392692 -0.067632444 -0.047750015 -0.090305574
0.006822518 0.028863026 -0.035838302 0.039106004 -0.04369316 0.021267522 -0.0027512924 -0.0601696
-0.12438083 -0.019285232 0.0067674965 0.020310946 0.041582894 -0.0613596 -0.014879502 -0.006400859
-0.050581194 0.039370056 -0.031972453 0.031134862 0.0017734778 -0.051339656 -0.008187789 0.026943939
0.0047829063 0.0062069194 -0.024643127 0.010666327 -0.034313552 -0.017309241 -0.04316302 -0.090845376
0.024988018 -0.06967241 0.000980596 -0.026755268 0.0052193142 0.03429716 -0.07204757 0.009032961
0.04687311 -0.040277164 -0.056987207 -0.042320028 -0.017561523 -0.0017275818 0.038592245 -0.047078308
-0.05737666 0.05278241 0.0067240912 -0.06356514 0.039545003 -0.015641714 -0.009378035 -0.079660244
0.010934344 -0.0071061966 -0.041198235 -0.064048685 0.021710314 0.08776236 -0.0022439794 -0.023639863
0.018618366 -0.07420478 0.050234616 -0.024556343 -0.012045614 0.0108540375 -0.046288434 0.012994452

network_body._body_endoder.seq_layers.0.bias f4 [128]
00000000: 2af1 f93c 052e bc3c e18e d63d 7f84 ef3b
00000010: 0047 63bd 68c1 9a3d e66a d6bc 9592 2abc
00000020: febb 5f3d 3724 b4bc f8c6 ceba aeda 3dbc
00000030: ae7f 4a3d f7da 283c 1d8c 62bc 7d8a 913c
00000040: c999 0ebd dd89 02bc e124 083d b581 53bd
00000050: b824 953c 646b 34bd 944a 3f3d 4372 75bc
00000060: 15f5 1a3d 8c23 013d 7708 80bc 751a f0bb
00000070: 0708 bdbc da3c 03bc 8f0b 8e3b 2afc 903d
00000080: 1d5c 27bd bc9d 32bd 43c7 243e ab84 2c3c
00000090: ba5a 143d 7942 e7bb 2706 9ebc 9ce7 f53c
000000a0: 72dc 7b3d c372 773d f119 2ebc f20b b63d
000000b0: 177e bf3d 05d5 ccbc 8c68 ba37 d2f7 14bc
000000c0: d856 64bb 9e1d 373d c05a fdbb 779e 6abb
000000d0: 40b8 23bc 1eb0 843c dab0 44bb f1b5 a53d
000000e0: 8c2e 46bb bf28 bfbc f190 c2bc daa7 6c3d
000000f0: e2c4 78bc 4006 593d 2c93 d53c 9719 5bbc
00000100: 452f fcbc 406a 3a3c 8ca5 a6bb e268 003c
00000110: 6c8a b03d 986a 43bd 7617 043d b780 d6bc
00000120: 6cf6 f7bb 0007 05bd 1488 313d a65d 0dbd
00000130: f5b8 40bc 56d0 07bd f7c1 2b3d e57d 91bc
00000140: cd69 7f3d 6c3f e63d bd80 47bd 906e babc
00000150: b99c dabc 7111 05bc f532 cb3b 03df 853c
00000160: bd12 9fbc f401 503c 2ea0 9abd 7b62 fc3c
00000170: 75dd 703c e206 acbc b88e a53d 7db1 5fbb
00000180: a408 e23c ec3c f3bc 1d59 cbbc 5fb0 27bc
00000190: 74cf 09bd 7b46 413d 0353 ba3b 5a3f 8c3d
000001a0: 8598 453d 84cc 343c 5d8b 4b3d 3820 f6bc
000001b0: fc94 013d b9da be3b 7636 f73c 419f 6ebc
000001c0: a9a9 f2bc 105f f4bc 3e25 22bd 21e4 113d
000001d0: cd14 84ba facc 7cbc d358 acbb e3a8 4cbd
000001e0: 3cf9 d1bc 4268 45bc 25ec 1ebc bfb3 ce3b
000001f0: be71 093d 6965 a33d 0eba 0dbd d1b6 e63c
0.030510504 0.022971163 0.10476471 0.007309496 -0.055487633 0.075564206 -0.02617402 -0.010410924
0.054622643 -0.021989925 -0.001577585 -0.011587782 0.04943817 0.010306112 -0.013827351 0.017766232
-0.03481463 -0.0079674395 0.033238295 -0.05163737 0.018205985 -0.04404773 0.046701983 -0.014980855
0.037831385 0.03152804 -0.015629036 -0.0073273727 -0.023075117 -0.008010114 0.004334874 0.070793465
-0.04085933 -0.04360746 0.16091637 0.010529677 0.036219336 -0.0070574847 -0.019290043 0.030017667
0.06148953 0.06041218 -0.010626302 0.08888997 0.093502216 -0.02500392 2.2221611e-05 -0.009092288
-0.0034841802 0.04470598 -0.0077317655 -0.0035800019 -0.009992659 0.01619726 -0.0030012638 0.08091343
-0.0030240146 -0.023334859 -0.023750754 0.057777263 -0.015183659 0.052984476 0.026071154 -0.0133728
-0.030784259 0.011377871 -0.0050856527 0.007837506 0.08620152 -0.047709078 0.032248937 -0.026184423
-0.0075672176 -0.03247738 0.043342665 -0.03451314 -0.011762847 -0.03315767 0.041933026 -0.017760227
0.06235676 0.112425655 -0.04870676 -0.022757798 -0.02668606 -0.008121834 0.006201143 0.016341692
-0.019418115 0.012695778 -0.07550083 0.030808678 0.014701237 -0.020999376 0.08083862 -0.003413289
0.02759201 -0.029692136 -0.024822766 -0.010234921 -0.03364511 0.047186356 0.0056861653 0.06848021
0.048241157 0.011035088 0.049693454 -0.03004466 0.031636223 0.0058244136 0.030177336 -0.014564336
-0.029621916 -0.029830486 -0.0395863 0.03561795 -0.0010077 -0.01542973 -0.005259612 -0.04996575
-0.02563154 -0.012048783 -0.009699856 0.0063080485 0.03355574 0.07978327 -0.034601264 0.028163346

network_body._body_endoder.seq_layers.0.weight f4 [128, 12]
00000000: cdf7 6c3d 64a0 a1be dc46 133f bd02 febe
00000010: 219c 973e f0bd 58bd 4174 76be eb78 abbd
00000020: d857 51bf 3db1 bbbc e7e4 733c e45b 673e
00000030: 6f85 783d df97 1e3d ad20 093f 359c debc
00000040: c511 7ebe 4195 a93e 0cb0 6bbe 2465 8bbb
00000050: f281 f0be 1b96 c33e b519 5bbe c936 a13d
00000060: 5e50 80be 7b09 2b3d 80bf 9b3b 894a c8be
00000070: 7fd8 5e3e 600f 62be ed28 253f f2c4 b33e
00000080: c7b6 1ebd 831c bfbe c3a9 033e 6b72 9cbe
00000090: f284 b3be b2f2 ebbd 5a89 d1bd f918 13be
000000a0: f634 4dbe 401d 9a3e d10f 8bbe 6b8b e93d
000000b0: d593 933d e4f1 773e f3b9 ba3e 8e0e 53bc
000000c0: 2e9c 96bd e8ee 3b3e 6a7a 8d3e f25d df3e
000000d0: baa4 963e e56c 5a3e e202 c83e a1c9 903d
000000e0: deee 06be 960d 293e 8a84 cf3c 96ac 29be
000000f0: eade 903d b961 6dbd 3961 1f3e cf88 bfbe
00000100: b335 21bd 4268 46be 44b2 133f c4fb 903e
00000110: f570 86be cef9 88be a3e2 9d3e 55b1 0a3f
00000120: ca56 723e c9d3 2bbe 9032 2abe 31bd 283e
00000130: dc32 09bd 1015 8f3d 2c14 cdbe 2f94 33be
00000140: 402a 2a3f 7bf2 d5bd ea81 03bf 8ea5 4d3e
00000150: e751 9e3e 8f96 0bbf 21b5 9fbd 6765 ce3d
00000160: 6627 343e 1666 64be 423b 6fbe 1da3 d13c
00000170: 0f5c b03e baf1 27bd b5b0 c8be b3ba 74be
00000180: ae18 973e c349 203e 6372 823e 7a0b 14be
00000190: f630 e1bb 4acc 083e cadb 563e 4e86 5fbe
000001a0: 11cb ae3e 1ef1 1ebe aa5e f1be 238e 903d
000001b0: 28ee 6d3f 3491 9ebe ac05 3abe cabc bc3d
000001c0: 35e0 3b3d 2522 aa3e 64cc 20be cbab 533e
000001d0: beef 703e 4220 893a d9b8 96be a8cd 273f
000001e0: e631 fa3d dc0a 973d 77d8 55be bfc3 c23c
000001f0: d2d2 65be 56ec 063e 17c4 8f3e 24ee 1bbd
00000200: bd29 9d3e 65cf b43d 0802 ccbe 9bb7 8fbd
00000210: 3bb7 653e 9f19 99bd 34f6 a33d 815f 693c
00000220: 826c 5d3d 210e 7f3d 2b2d a93d 5a29 d1be
00000230: ffb5 15bf 6d5b 86be 61c9 77bd ecb2 33be
00000240: 1202 803e cf0a 07bd 7834 0fbe 99f8 21be
00000250: d915 cbbe fd3a 8c3e ff11 bfbd 5144 79be
00000260: f84e a63e ea1e be3b 1e10 f7bd b357 883e
00000270: 1734 633d 0fbf 01be 71b4 3fbe e8ea 0dbf
00000280: d9a3 8e3d f96f 883e e443 b53d 9e4f fcbe
00000290: 23a1 603d 51ae 15bf ac66 f7be 200e a33e
000002a0: 57d9 1f3f 7dbf 58bd 9fac d23e f3eb 84be
000002b0: 5f73 67be e316 b4be d158 86be a732 043f
000002c0: 4377 dcbd b644 29bf 3a65 523d e5e2 9dba
000002d0: 018c 02bf 6cce 52be 7549 8c3e d634 f23d
000002e0: 01a2 203f aa93 c83e 44e2 6c3e 4beb ae3e
000002f0: abba a03e fb7a d0bd 2f6d 7e3d 5ca4 c9be
00000300: 7a4f a1be ccfb a43e 983f 813d d27a 70bd
00000310: db6f cb3d bd7f 023e 6891 1d3e fd10 0abf
00000320: 3f2c 893c 9a64 883d cff4 14bf c3fa e9bd
00000330: cd86 b0bd 00d7 f0bd d722 1b3e 5e52 5abd
00000340: 9bad 99bd f518 4d3e f7ea 953d 2c0c e33e
00000350: 4be7 5f3e e679 e8bd efe9 8ebe 24c2 423e
00000360: aa4e 7ebe 52a5 e13e 9e01 843d bd8d 233e
00000370: fdde b1bd 0d6f 1ebf bea4 f83d aae5 813e
00000380: 47ae bc3b 6ba5 743e c4ab 82be af72 9f3e
00000390: ac37 003f 2366 913e 4d2b 983e d35f 373f
000003a0: 32c2 3dbe b08e 8d3e b91e 3e3e 8968 49be
000003b0: e597 2ebe 7b49 e1bd e1c2 803e 1862 873e
000003c0: c97d 78be 0a8b b8bd 73f2 313f 56d4 9f3e
000003d0: 0f93 42bd ee9f 3bbe 46ad 263f 6f4d 533e
000003e0: 997a 583e f86d c23e 90f3 29bd d40b aebe
000003f0: c5ff 703d bddd 83be a3aa 12be 3e32 bb3e
0.05785351 -0.3156768 0.5753 -0.49611464 0.29611304 -0.052915514 -0.24067785 -0.08372673
-0.81774664 -0.022911662 0.014886118 0.22593647 0.060674127 0.038719054 0.53565484 -0.027174095
-0.24811466 0.33121684 -0.23016375 -0.0042540003 -0.4697414 0.3820046 -0.21396525 0.078717776
-0.25061315 0.04175709 0.004753053 -0.39119366 0.21762274 -0.22076178 0.6451557 0.35111195
-0.03874853 -0.3732644 0.12857728 -0.30556044 -0.35062367 -0.115209 -0.10231276 -0.14364995
-0.20039734 0.3010044 -0.27160504 0.11403545 0.07205931 0.24213368 0.36469993 -0.012881888
-0.07354008 0.18352854 0.27632457 0.43626362 0.2942255 0.21330602 0.390647 0.07069708
-0.13177058 0.16509089 0.025331754 -0.16569743 0.070737675 -0.057954524 0.15564431 -0.37409064
-0.039357852 -0.19375709 0.57693887 0.28317082 -0.26258054 -0.26753086 0.30836973 0.5417684
0.2366592 -0.16780008 -0.1662085 0.16478421 -0.03349577 0.06986439 -0.40054452 -0.17536996
0.6647072 -0.1044664 -0.5137011 0.20082685 0.30921862 -0.5452661 -0.077982195 0.10077935
0.17593154 -0.22304568 -0.23362449 0.025590474 0.34445235 -0.041002013 -0.39197317 -0.23899345
0.29511017 0.15653138 0.25477895 -0.14457503 -0.0068722917 0.1335918 0.2098228 -0.21828577
0.34139302 -0.15521666 -0.47142535 0.070583604 0.9294152 -0.30970156 -0.18166226 0.09215696
0.045868117 0.33229175 -0.15702969 0.20671003 0.23528954 0.0010461884 -0.29437903 0.6554818
0.122165486 0.07375118 -0.20883356 0.02377498 -0.22443703 0.13176093 0.28079292 -0.038068905
0.30695906 0.0882862 -0.398453 -0.07017442 0.22433178 -0.0747559 0.08005944 0.014243961
0.05405856 0.062269334 0.08260568 -0.4085186 -0.5848083 -0.26241627 -0.060494784 -0.17548722
0.2500158 -0.032969292 -0.13984859 -0.15817489 -0.39665106 0.27388754 -0.09329604 -0.24342467
0.32482123 0.005802025 -0.12063621 0.2662941 0.0554696 -0.1267054 -0.18721177 -0.55436563
0.06964845 0.26647928 0.0885084 -0.49279493 0.054841172 -0.5846911 -0.4832052 0.31846714
0.6244101 -0.052916992 0.41147324 -0.25961265 -0.22602604 -0.3517371 -0.26239637 0.5163979
-0.10764935 -0.6612047 0.05136607 -0.0012045769 -0.5099488 -0.20586556 0.27399793 0.11826484
0.627472 0.3917516 0.23133188 0.3416389 0.31392416 -0.10179707 0.062115844 -0.3938321
-0.31505948 0.32223356 0.06310958 -0.05871088 0.09933444 0.12744041 0.153875 -0.5393217
0.016744731 0.06659813 -0.5818605 -0.11424782 -0.08619461 -0.11759758 0.15150009 -0.053301208
-0.07503816 0.20029052 0.073202066 0.44345224 0.21865575 -0.11351375 -0.27912852 0.19019371
-0.24834695 0.44071442 0.06445621 0.15972038 -0.0868511 -0.618882 0.12140797 0.25370532
0.00575808 0.23891227 -0.25521672 0.31142184 0.5008495 0.28398237 0.29720536 0.7163059
-0.18531111 0.27647924 0.18566407 -0.19668783 -0.1705013 -0.110003434 0.2514868 0.26442027
-0.24266733 -0.090108946 0.69510573 0.31216687 -0.047503527 -0.18322727 0.65108144 0.20635007
0.21140517 0.37974524 -0.041492045 -0.339934 0.05883767 -0.2575511 -0.14322905 0.3656177

network_body._body_endoder.seq_layers.2.bias f4 [128]
00000000: 756c dd3b f018 263c 9294 50b9 c645 a4bc
00000010: 6cbf d7bb 3234 0ebb 454f 15bc a03d 23bc
00000020: 4fa8 1ebc 615d 123c e8be 6bbc df1b d03c
00000030: 8295 7d3a 844c cdba 77d0 f73b 1651 85bc
00000040: a860 43bb e854 263b 1f98 443c f78e 9bbc
00000050: adc9 4e3d aaff 62bc 0502 213c b73f b8bc
00000060: 3359 113b 1e1f 143a 3d46 42bc ba7c 43bb
00000070: 05be d0bb 2eac e73b d8d6 e9bb 5eea 2e3c
00000080: 14c0 963b 85e6 483c 6d73 343b 3e05 d33b
00000090: 2005 0abd c172 bcba e570 acbc 3e30 babb
000000a0: 543b 09bd 99ad 53bc d899 13bc 313e c0bc
000000b0: 7a1b 67bc 8037 0b3c 9d33 28bb 7a8b e6bc
000000c0: de83 203b 8a90 b73a 829d 653b 0f32 4a3c
000000d0: 0ac5 d53b 2b5d b13c 44e4 ad3c 48c8 073c
000000e0: 84b5 b2bc bb58 b0bc c4ab b13c f109 5a3b
000000f0: eeb2 b63b a373 91bb 73cb 433c 881a a4ba
00000100: 4e29 81bb eadd 463c a1b1 adbc d517 803b
00000110: 008f c93c 776e 4dbc 0130 973b 7985 dcbc
00000120: 4b0c ddbb d739 d6bb 1e9b 84b9 4ac1 063c
00000130: 4152 d5bc 5f98 64bc e111 a6ba 759f 1e3c
00000140: 010b 943c 642a f5bc fa9c 23b9 7de0 2a3c
00000150: 4963 3abc 2429 ee3b 82e5 cbb9 793f 783b
00000160: 5b7f a73b 2952 063b 8b4d cfbc 969b 0bbd
00000170: 5dab 01bb da36 72bc 6ec8 d43c 11a1 07bc
00000180: 8041 d9bc c9d4 d03c c80e 56bc a374 8bba
00000190: 9c41 b0bc bd19 383c 2fcf cfbc 5e9b e8bb
000001a0: 9634 163c 99c8 1cbd b458 90bc 99be a5bb
000001b0: e559 4c3c 3d2c edbc 8336 b0bc c37e be3a
000001c0: 4df4 b2bc 8cdb a9bc a9b0 7d3c 89de 3d3b
000001d0: 7fa3 7dbc bf93 e7bc ff9a 27bc 7be3 d8bb
000001e0: e3bd b43b 2a4d 633c f238 acba a8ea 1ebd
000001f0: 02c0 2cbc 7199 4b3b 375e 68bb 3f64 a5bc
0.006757314 0.0101377815 -0.00019891773 -0.020052802 -0.0065840986 -0.0021698591 -0.009113138 -0.009963423
-0.009683683 0.008933396 -0.014388777 0.025403915 0.00096734625 -0.0015663062 0.0075626927 -0.016274016
-0.002981225 0.0025380198 0.011999159 -0.01898907 0.0504853 -0.0138549 0.009827142 -0.02249132
0.002217841 0.0005650389 -0.011857566 -0.0029828981 -0.0063703083 0.007070086 -0.007136207 0.010675995
0.004600534 0.012261991 0.002753462 0.006439834 -0.033696294 -0.0014377461 -0.021049926 -0.0056820204
-0.033503845 -0.012919807 -0.009008847 -0.023467155 -0.014105672 0.008497119 -0.002566553 -0.02814268
0.0024492661 0.0014004868 0.003503651 0.012341036 0.006523733 0.021650871 0.02122701 0.008287497
-0.021815069 -0.021526685 0.02168835 0.0033270086 0.0055755293 -0.004438834 0.011950362 -0.0012520114
-0.0039416915 0.012137869 -0.021202864 0.003909091 0.02460432 -0.012538544 0.004613877 -0.026919113
-0.00674585 -0.0065376568 -0.00025292573 0.008224795 -0.026040198 -0.013952344 -0.0012670123 0.009681572
0.018071653 -0.02992744 -0.0001560337 0.010429499 -0.0113762105 0.007268088 -0.00038890174 0.003787963
0.0051116175 0.0020495749 -0.02530553 -0.034083925 -0.0019785978 -0.014783585 0.025974479 -0.008278147
-0.02652049 0.025492089 -0.013065048 -0.0010639619 -0.02151566 0.011236605 -0.025367348 -0.0070985993
0.009167811 -0.038277242 -0.017620422 -0.0050581214 0.012472604 -0.028951759 -0.021510368 0.0014533628
-0.021845007 -0.02073457 0.015484014 0.0028971753 -0.015480875 -0.028268693 -0.010229825 -0.0066189147
0.0055158003 0.013873378 -0.001313953 -0.038798004 -0.010543825 0.00310668 -0.0035456547 -0.020189403

network_body._body_endoder.seq_layers.2.weight f4 [128, 128]
00000000: fc03 803d 11f7 96bc 4382 0c3d a9c4 adbd
00000010: 8b57 debc 4cd0 47bd 7488 a5bd 3d80 07be
00000020: 43e1 9abd 5b5c c93d 34d2 b13d c433 d93d
00000030: 32a8 d33d a64c 1d3e aa38 87bd df89 f53c
00000040: e360 8a3d e705 3dbe e82b 9fbe aa72 373c
00000050: 00ea 96bd ddaf 8dbd cf93 ebbd 2833 2cbc
00000060: d1d3 ef3d 6e42 94bd fde8 e43c eec8 d83d
00000070: 1c01 133e c9c5 e53d b2d4 81bd 8e27 c6bd
00000080: 4634 053c 5247 3dbc 472e 933d 5708 2e3e
00000090: 9c3d 283e 0efa b0ba 3cc7 10be c6b7 72bb
000000a0: 95cd 4ebe a7e1 ab3c e5b7 97be 6150 70bd
000000b0: e0e2 a13c 33d1 2a3e 20e6 aa3d 0a3b 70be
000000c0: f816 6b3d af76 89bd 3a91 233d 095c f0bc
000000d0: 725a 143d f48d 8fbb eaf4 9dbd 075d 1e3e
000000e0: 9b9f 81bd 37c3 4bbd a8e2 013e 316c ddbe
000000f0: 4477 82bd 22aa 0bbd 7fc2 aebd b478 2dbe
00000100: cd40 83be c8e7 393e df1a eabb 10f3 903d
00000110: 19a6 203d 34af 95bc b3ab 4a3e 3cdc 0abe
00000120: 7a18 4c3d 81ff 713d d2bb 7b3c 4a05 f13c
00000130: 20b4 d7bc 924b 12be 40bf 533d 6ad2 0dbe
00000140: aa13 1ebd fc3f 2a3d 7834 19be 3f7a 3b3d
00000150: 18d1 7c3c 1e06 11bd cd56 063d 17d2 6cbe
00000160: 1118 c3bd 406f 2f3d 985f 86bd cb37 98be
00000170: d09b bd3d fce3 fcbd 61cb 47bd f56a c9bc
00000180: f315 ff3d 84c9 a73d 1aea 4fbe d0fa 26bd
00000190: 2792 0dbe f3aa dfbc 0aa2 243c b608 cc3c
000001a0: 2e0b ecbd 63df 483d b8c1 723d f830 0c3d
000001b0: 6d3f 2dbc 2672 fdbc ba54 283e 74de cc3d
000001c0: 7035 d63d 86ef 30bd 45bf 61bd e365 00be
000001d0: 2172 e2bc 2a84 ebbd 843d 06be b13d 13bb
000001e0: a44f 7a3b 5289 263c aec1 aebd 6491 82be
000001f0: 8215 d23d e024 043d d30d 843d d3bc 1bbe
00000200: 190e 8ebd 114b c9bd dcc4 e6bd f09c a9bd
00000210: 9444 1dbd 98d5 40bd 297b a1bc 6813 c6bd
00000220: c490 163e 9640 583e 85ce 92bd 69b0 cf3c
00000230: 7287 e93a b728 393e 2648 ac3d 6baa 68bd
00000240: 1062 d93d 8ba1 a2bd a368 89bc f07a 383e
00000250: 813f 40be 3d1d 83be 55f7 373b 285e 8a3c
00000260: 32a2 dbbc 22e4 9bbd cf17 a63d a5b5 0c3e
00000270: a1e6 273d 8406 1ebe 29bd efbd f8fb b33c
00000280: 6c84 983d 8659 14be 5b7f 02be 1379 dfbd
00000290: 49ca c33d cb03 863d f37d 4bbc 071c 16ba
000002a0: 5284 0dbe 7c4e 043e 3b8e ed3d 0ced 903d
000002b0: 540a 20bd 83d6 c03d ba27 713c 5c5d edbc
000002c0: cfb9 333e 9875 52bd ec08 113c bd53 d8bb
000002d0: ce60 0a3e b5b5 2bbc 5392 d83d 5387 ecbb
000002e0: 34bd 02be d06b e03d 450a 3fbe bd60 6fbe
000002f0: 8f44 ffbc afa2 66be a96b 25bd f1a3 8fbb
00000300: cc2f 123b 10f1 6c3d 4ed1 c7bb 085c 6bbc
00000310: 7b02 b73d 56b8 62bd 43c1 84bc 3450 993d
00000320: 2db6 0c3e 8df5 1f3e 25ed 0a3c 19a9 b13d
00000330: 628b 7bbc 5f76 85bd 3dd9 f93b f2a1 a4bc
00000340: 16ce 60bd a06d 1b3e 4dea 5bbd 7e74 cb3d
00000350: f47c c8bd ddcd eb3d 244d 1abe a1b5 65bd
00000360: f1c7 f8bd e015 a23d 0d26 533d 5ce5 d63d
00000370: b180 063d 97b4 8fbc 6df4 03bd 6a9f 9bbd
00000380: 27b6 45bd a198 db3d 1844 ae3c b0b5 8fbd
00000390: 9bc0 fbbc e0c2 36be 6877 2fbd 3725 1ebe
000003a0: c678 f4bd 7d96 2fbd 1466 1d3d e2f3 693d
000003b0: 085a 85bd f76b bb3c 54d9 61bd 1863 893b
000003c0: a972 ba3d 7ff0 e03d 7651 3c3a d4c9 dfbc
000003d0: 92a5 f23d 5c74 4cbd 4590 283e 02a5 1e3d
000003e0: b16b a23c ea32 41bd a442 16bd 23f7 aa3c
000003f0: 92f8 433d 6a5f 5d3d 7348 673c 1525 1fbe
0.0625076 -0.018428357 0.034303915 -0.084847756 -0.027141353 -0.04878263 -0.08082667 -0.13232513
-0.075624965 0.098320685 0.08682671 0.10605577 0.10334815 0.1536127 -0.06602605 0.029972969
0.06756761 -0.18459283 -0.31088185 0.011196772 -0.07368851 -0.06918309 -0.115028016 -0.0105102435
0.11710323 -0.07239233 0.027943129 0.10585199 0.14355892 0.11219365 -0.063393965 -0.09675513
0.008130139 -0.011552649 0.07186561 0.16995369 0.16429752 -0.0013502256 -0.14138502 -0.0037035807
-0.20195611 0.020981623 -0.29632488 -0.058670405 0.019761503 0.16681366 0.08344674 -0.23460022
0.05739495 -0.0671209 0.03993342 -0.02934076 0.036219068 -0.004380936 -0.07712729 0.15465175
-0.063292705 -0.04974672 0.12684119 -0.43246606 -0.06370404 -0.0340978 -0.08533191 -0.16940576
-0.25635377 0.18154824 -0.0071443166 0.070776105 0.039220903 -0.01827202 0.1979206 -0.13560575
0.04982803 0.05908156 0.015364604 0.029421467 -0.026331007 -0.1428664 0.051696062 -0.13849798
-0.03859297 0.041564927 -0.14961421 0.04577088 0.015430711 -0.035406224 0.032797623 -0.23127018
-0.09526075 0.042830706 -0.06561202 -0.29730067 0.092582345 -0.12348172 -0.04877794 -0.024587134
0.12455358 0.08192733 -0.20304146 -0.040766537 -0.13825284 -0.027303195 0.010048399 0.024906497
-0.1152557 0.049041163 0.059266776 0.034226388 -0.010574204 -0.03093822 0.1643857 0.10003367
0.10459411 -0.043197177 -0.05511405 -0.12538867 -0.027642312 -0.11499818 -0.13109404 -0.002246719
0.0038194442 0.010164576 -0.08533035 -0.2550155 0.102580085 0.03226173 0.06447949 -0.1520875
-0.06936283 -0.09828771 -0.11268017 -0.082818866 -0.03839548 -0.0470787 -0.019712048 -0.0967167
0.14703661 0.21118388 -0.07168297 0.025352674 0.0017816855 0.18081938 0.08412199 -0.05680315
0.10614407 -0.07940968 -0.016773527 0.18015647 -0.18774225 -0.25608245 0.0028071005 0.0168906
-0.02681074 -0.07611872 0.0811001 0.13741167 0.04099143 -0.15432173 -0.11706001 0.021970734
0.074471325 -0.14487275 -0.12743895 -0.10911765 0.09560067 0.06543692 -0.012420165 -0.00057262223
-0.13820007 0.12920564 0.11599394 0.07076463 -0.03907235 0.09415915 0.014718944 -0.028975181
0.17551349 -0.051381677 0.008852225 -0.0066017793 0.1351349 -0.010480334 0.10574784 -0.0072182803
-0.12767488 0.109580636 -0.18656261 -0.23376746 -0.031160621 -0.22522996 -0.040385876 -0.004383557
0.0022306321 0.057847083 -0.006097949 -0.014365204 0.0893602 -0.055351578 -0.016205436 0.07486001
0.1374137 0.15621014 0.008479391 0.08674831 -0.015353056 -0.06516718 0.007624774 -0.020096753
-0.05488404 0.15178537 -0.053690244 0.099343285 -0.09789458 0.11513875 -0.1506849 -0.056081418
-0.12147511 0.079143286 0.05154996 0.104929656 0.032837573 -0.017542167 -0.032215524 -0.07598765
-0.048269417 0.10722471 0.021272704 -0.07017076 -0.03073149 -0.17847776 -0.042838484 -0.15443884
-0.11937098 -0.042868126 0.038427427 0.05711735 -0.06511313 0.02287863 -0.0551389 0.004192721
0.09103901 0.10983371 0.00071837695 -0.027317919 0.11847986 -0.049915656 0.16461284 0.038731582
0.019826742 -0.047167696 -0.036684647 0.020869797 0.047844477 0.054046072 0.014116394 -0.1554149

network_body._body_endoder.seq_layers.4.bias f4 [128]
00000000: 4c7b f23c 182a dd3c bcd0 1f3c e57f fcbc
00000010: 56e8 163d 10c0 e6bb c3cf e23b d588 c0bc
00000020: e188 31bc 9374 1bbc 636f 2cbd 8a88 10bc
00000030: 7895 27bc c4a3 89bc f948 e3bb 00cf 763b
00000040: 9dda 1cbc 2a86 153c fdbe c8bc b8e6 7dbc
00000050: 166c 71bc 58fe bdbc b9c9 903c ddd8 853c
00000060: d596 cebb 81b7 ef3c 9006 3c3c 72d8 4d3c
00000070: d385 27bc b384 fcbc 4c42 95ba 46de 4bbc
00000080: 9f33 85ba 7385 24bc 5533 08bd 99be 843c
00000090: eee9 ce3b 02b8 eebb 656b adbc 879c 52bb
000000a0: 6b37 9dbc 6e5e 803c 042e 263c 21b8 fd3b
000000b0: d853 b9bc 0287 813c f396 b73a ca82 a3bb
000000c0: 5b05 70bc 76d5 04bd 6a0f 04bd 483b 7f3b
000000d0: a460 e7bc 36e7 2e3b fa1b dc3b 68e4 8abc
000000e0: 78aa 60bc 672c 7dbb 2503 f0ba e796 303c
000000f0: 339c 77bc 74de adbc efb0 323c 8560 77bc
00000100: 9efd 953c 3a17 dfbc 0640 31bb 38fa d9ba
00000110: 8003 2d3c 18ec 16bb c510 1cbd 156e f3bb
00000120: 544e 7dbc 0d3a 66bb e921 dabc 6a81 ebba
00000130: a9db 39bc fe31 0fbb 9718 d5bc 982c b23b
00000140: 151f 11bd 45ac a6bc 7705 50bc 8088 813c
00000150: 7192 4d3b ff8a b53c 7566 a13c 250c 9fbb
00000160: 7211 76bc 7712 a6bc 4075 03bd 62d6 183c
00000170: 5794 d3bc 6daa 4e3c f52b ef3b d0c1 adbc
00000180: 655a 983c 9b90 a2bc 9cba 54bb 2a0c 0abd
00000190: cd08 11bc 8616 a83a 7925 843b a95e 413a
000001a0: 0595 49bc bd9b 573c da2b 9bbb bd87 ba3a
000001b0: bcc6 b1bc 5c72 89bc 2444 cebc 1fca c93b
000001c0: 6978 7ebb 6408 f9bc c67b 5abc 0678 a4bc
000001d0: 9e10 343a 1938 2f3c c61c 83bc 9aff c4ba
000001e0: 2500 ae3c 6558 f73b acd6 83bc 3bbf 09bc
000001f0: 69f1 8cbb 9c07 12bc 8fc4 10bc 6ec0 55bc
0.029599808 0.02699761 0.009754356 -0.030822704 0.036842667 -0.0070419386 0.00692174 -0.023502747
-0.010835857 -0.009488243 -0.042098414 -0.008821616 -0.010228507 -0.016801722 -0.0069361893 0.0037660003
-0.009573606 0.0091262255 -0.024505133 -0.015496902 -0.014735242 -0.02319257 0.017674314 0.01633876
-0.0063046017 0.029262306 0.011476174 0.012563812 -0.010224777 -0.030824995 -0.0011387556 -0.012443131
-0.0010162479 -0.010041582 -0.03325208 0.016204165 0.0063145077 -0.007285119 -0.021169374 -0.0032136755
-0.019191464 0.015670028 0.010142807 0.007742897 -0.022622988 0.015811447 0.0014006778 -0.0049899565
-0.014649714 -0.032430135 -0.032241262 0.0038945246 -0.028244324 0.0026688105 0.0067172023 -0.016954616
-0.013712518 -0.0038631202 -0.0018311484 0.010778165 -0.015112924 -0.021224238 0.010906442 -0.015098696
0.01830941 -0.027232755 -0.0027046218 -0.0016630357 0.0105599165 -0.0023028906 -0.03810193 -0.0074288943
-0.015460569 -0.0035129816 -0.026627498 -0.0017967646 -0.011343875 -0.0021849866 -0.026012702 0.005437445
-0.035430033 -0.020345816 -0.012696615 0.015812159 0.0031367803 0.022161005 0.019702176 -0.0048537427
-0.015018808 -0.020272477 -0.03209424 0.009328457 -0.02582757 0.012613875 0.0072989413 -0.021210581
0.018597791 -0.019844344 -0.003245986 -0.033703007 -0.008852196 0.0012824095 0.0040327874 0.0007376471
-0.012303595 0.0131596895 -0.004735452 0.0014231127 -0.02170121 -0.016778164 -0.025178976 0.006158128
-0.0038829094 -0.030399509 -0.013335174 -0.020076763 0.0006868931 0.010694527 -0.016004931 -0.0015029788
0.021240303 0.0075483792 -0.016093574 -0.008407409 -0.0043012393 -0.008912947 -0.008835926 -0.013046367

network_body._body_endoder.seq_layers.4.weight f4 [128, 128]
00000000: 2dfb 96bd 36d4 ab3d 879c 0abd 453b d83c
00000010: c919 343e 5dcd 13bd 713f 48be 568a 163e
00000020: 6ead dabc 9042 84bd 0705 c23c eb6e 53be
00000030: c205 96bd 843c bebd 6eb4 2c3d 43a7 083e
00000040: 5e5d 0e3e a152 3bbd 7e15 1ebe d2af 07be
00000050: defe 9bbd 896a 1bbe 2727 2a3d a981 0abd
00000060: 13f9 3f3e 676c 193e 9e4f 093d 4a9e 33bd
00000070: 4c53 343d b7a0 5e3b d2ed 13bc 1f03 493c
00000080: ddb5 0c3e 6d3c 27bc 37dc 083e af39 133e
00000090: db1a b2bd aea5 dbbc bd81 6cbe da8b 0a3e
000000a0: 8676 133c 5b85 63be ea11 25be ef4e 923d
000000b0: 0c0f 0abe 6ef5 81be 7d74 b8bd 0638 2e3c
000000c0: fa50 be3c f408 b7bd bfd7 b3bd 5d6b 0e3d
000000d0: 9de1 d63d c11c 1c3e 9bb9 4f3e 2b31 e03b
000000e0: 75da adbb 6722 433d 6cc8 4ebd e6fd 8fbe
000000f0: 4329 27be 8e04 2bbd 3ada 233d 90ca 133d
00000100: 0ca9 673d 1e41 07bd 471c 08be df7b b73d
00000110: eeec d0bc 160f 03be 1ba6 3d3d c370 043e
00000120: dc39 2ebe 6090 f0bc 31cc 36bd 573e 17be
00000130: a8b1 b4bb 0ee7 803c 7d23 b3bd 7073 18bc
00000140: 901a 4d3d b63a cdbb 60ee 90bd e00e 81be
00000150: 7529 eebc 8f4a 873c d1c6 2cbd faaf abbc
00000160: 6c64 4bbc e605 003c 08a6 d93d 9395 93bd
00000170: 3cf2 8ebb 17f4 12bd 169e 23bd 29ec 203e
00000180: 968b e2bc d376 b7bd 0ef4 fc3d 5135 0dbe
00000190: c1ae f8bd ee73 7036 665a 5ebd 46b6 abbd
000001a0: d0b0 0fbe a0e2 7cbd d9ad 333c 179f 15be
000001b0: b56e a73d b523 073c 0b62 2cbe 263c 593d
000001c0: 5c05 15be 74d6 ad3c 3ba6 7ebd 5093 0f3e
000001d0: c0f4 e6bd acf9 393d b6cc 50bd 5e05 4e3d
000001e0: 3324 f3bd b307 1d3c 3810 263d 31b0 a6bd
000001f0: c23a 203e ed73 3b3d 28be cabd 147f 9c3d
00000200: 73fb 97bd 436c e03d 1eb0 6b3d 62a5 46bd
00000210: d400 32bc df7b a53d 0547 00bc 91e8 253d
00000220: 3a58 b8bd 46e6 023e c424 7e3d d11a 42be
00000230: ed6c 993d 9521 ffbc 8e8f dcbb 51f9 bbbd
00000240: 559f b33d 3b35 db3d 0dcf c13c 4d29 aabd
00000250: c167 583d fbf6 c3bd 32f2 aa3d 875f 40be
00000260: 0f00 11be 7141 5abe 99c8 2c3c 2466 033e
00000270: 4eb3 d33d 8226 b73c 2d13 b3bd c12f 0d3d
00000280: 45e1 8abd 11bd 87be 9459 47bd a6b1 47bd
00000290: 497b 22be 0ac1 acbd 5313 573c 6cd3 233d
000002a0: 180a 8b3d 51bb 5fbd 08bd 80bd 2151 57bb
000002b0: e93d 34be 7853 c33d 41f9 9f3d 438b 0abe
000002c0: 4b08 e93d 3fa2 6fbe 889e d0bc b437 fb3c
000002d0: daee 15bd e78c 29be 4c76 3abd a302 5abd
000002e0: 9408 43be b9d4 1a3c 6905 cb3b 532e 37be
000002f0: 617d 7ebd 2f69 d7bd 38bf 01be 2b7e ccbd
00000300: 1d0d ae3c 43ec 143e ab8e 39bd 1ef3 4cbe
00000310: 5fbb 3ebd a2dc 52be 5f96 f5bb 8b41 3abb
00000320: a0ec 83bd 085a 2d3e f162 613d b258 7dbe
00000330: 8bcb 123e fb0f 373e 43ff cfbd c59e 063e
00000340: 4656 273c b937 443e da13 4dbe 8d95 1bbd
00000350: e7e7 adbd c069 dfbd ff44 2dbd 9906 493c
00000360: 48e0 3c3e 80a4 ca3c 0962 f7bc 7df1 c13c
00000370: 7567 453e a497 fc3c acc6 8bbd 4c1d c8bc
00000380: 60ab 1bbe 91fc 50be ce88 1bbe a22f 723c
00000390: a4cc 8dbd 583a dbbc c8ef 053c fc06 3abd
000003a0: 89dd c1bd 6575 ef3c 38be 8b3b 933d f4bd
000003b0: ca58 08bd cea1 c1ba 8b3c 07bc e7b6 133d
000003c0: 071c 4abd 46cd 9cbd 23b0 f83c 8f57 69bd
000003d0: f68b ea3c 11f2 8dbd 6024 473e 142b 9d3b
000003e0: 3def 0abe 91f8 c5bc f527 63bd ab25 843d
000003f0: a77e 84bd fc33 ec3b a43d 8abd dd24 61be
-0.07372127 0.083900854 -0.033840682 0.02639545 0.17587961 -0.03608452 -0.19555451 0.14701208
-0.026694026 -0.06458008 0.023684038 -0.2064778 -0.07325317 -0.09288886 0.04216426 0.13345055
0.13902804 -0.045733098 -0.15437886 -0.13250664 -0.076169714 -0.15177359 0.041541245 -0.03381506
0.18747358 0.14982758 0.033523194 -0.043852128 0.04402475 0.0033970305 -0.009028869 0.0122688105
0.1374125 -0.010207278 0.13365255 0.14377473 -0.086965285 -0.0268124 -0.23096366 0.13529912
0.009000426 -0.2221884 -0.16120115 0.07143962 -0.13482302 -0.2538256 -0.090065934 0.010633474
0.023231972 -0.089372545 -0.08781385 0.03477036 0.10492251 0.15245344 0.20285647 0.006841799
-0.005305583 0.04764023 -0.050484106 -0.28123397 -0.16324334 -0.04175239 0.04000304 0.03608185
0.0565577 -0.033021085 -0.13292037 0.089591734 -0.025503602 -0.12798724 0.04630099 0.1293364
-0.17014259 -0.029365718 -0.044628326 -0.14769875 -0.0055143423 0.015735175 -0.08747003 -0.009304866
0.05007416 -0.0062631024 -0.070767164 -0.2520666 -0.029072503 0.016515044 -0.042181794 -0.020957936
-0.012414079 0.007813906 0.10627371 -0.072062634 -0.0043623727 -0.035877313 -0.039945684 0.15715088
-0.02765445 -0.08958211 0.12351237 -0.1378987 -0.12142707 3.5830267e-06 -0.05428543 -0.08384375
-0.14032292 -0.061739564 0.0109667415 -0.14611469 0.081754126 0.008248259 -0.16834275 0.053035878
-0.14552826 0.021220423 -0.06217025 0.14021039 -0.11277151 0.04540412 -0.050976478 0.050298087
-0.11872139 0.009584355 0.04054281 -0.081390746 0.15647414 0.045764852 -0.09899551 0.07641426
-0.07421007 0.10958149 0.057541005 -0.048497565 -0.010864455 0.08080267 -0.007829432 0.040504996
-0.09001203 0.12783155 0.06204678 -0.18955542 0.07491479 -0.031143943 -0.0067309802 -0.09178413
0.087706245 0.10703512 0.0236583 -0.08308659 0.052833322 -0.09568592 0.08346976 -0.18786441
-0.14160179 -0.21314026 0.010545873 0.12831932 0.10336934 0.02235723 -0.08743892 0.03446937
-0.06781248 -0.26511434 -0.048669413 -0.048753403 -0.15867342 -0.08435257 0.013127166 0.03999655
0.067890346 -0.054622 -0.06286055 -0.0032854753 -0.17601742 0.09537405 0.07811213 -0.13529687
0.11378535 -0.23401736 -0.025466219 0.03066621 -0.03660474 -0.16557656 -0.045522973 -0.05322517
-0.19046241 0.009450131 0.0061957133 -0.17888765 -0.06213129 -0.10518109 -0.126706 -0.09985002
0.021246487 0.14543252 -0.045302074 -0.20014617 -0.04656541 -0.20591977 -0.0074947323 -0.0028420414
-0.06441617 0.16928875 0.055026 -0.24740866 0.14335458 0.1787719 -0.10156109 0.13146503
0.01021344 0.19161882 -0.20027104 -0.03798442 -0.084914975 -0.10908842 -0.042302128 0.012269639
0.18444932 0.024736643 -0.030198114 0.02367472 0.19277747 0.030834027 -0.06825003 -0.024428032
-0.15202093 -0.20408846 -0.15188906 0.014781864 -0.06923798 -0.026761219 0.008174844 -0.045416817
-0.094660826 0.029230783 0.004264619 -0.11925807 -0.0332878 -0.0014772953 -0.008254181 0.0360631
-0.049343135 -0.0765634 0.030357426 -0.056968268 0.028631192 -0.06930936 0.1944747 0.004796395
-0.13567825 -0.024166377 -0.055458028 0.06452497 -0.064694695 0.0072083455 -0.06750038 -0.21986718
