mlagents/Assets/results/testdia2enero/RollerBall/checkpoint.pt (torch, 845759 bytes, 48 tensors)

network_body._body_endoder.seq_layers.0.weight f4 [128, 8]
0	0x3ef6987c	0.4816321
1	0xbf0ba90c	-0.5455482
2	0xbede3146	-0.43396968
3	0x3d77c8d6	0.060494266
4	0xbdcc60aa	-0.09979375
5	0x3e851709	0.25994137
6	0xbf93faa5	-1.1560866
7	0x3ca3861c	0.01996141
8	0xbe2998ef	-0.16562246
9	0xbc64aeae	-0.0139576625
10	0xbee926ab	-0.45537314
11	0xbe959e20	-0.29222202
12	0xbe4b54de	-0.19856593
13	0x3efc23c7	0.49246046
14	0xbee00948	-0.4375708
15	0xbe92cd4d	-0.28672257
16	0x3dfc9d73	0.123347186
17	0x3da04103	0.078249
18	0x3d9c9394	0.07645336
19	0xbd009ee2	-0.031401522
20	0x3e4a1da2	0.19737867
21	0xbcbbeb12	-0.022939239
22	0x3f32cc2a	0.6984278
23	0xbf8a0c16	-1.0784938
24	0xbd98ce8e	-0.07461272
25	0xbf06d417	-0.52667373
26	0xbea3055e	-0.31840032
27	0xbd9b7d4f	-0.0759226
28	0xbed735bb	-0.4203318
29	0xbebb74f5	-0.3661267
30	0xbf46b7f8	-0.77624464
31	0xbf3799c1	-0.71718985
32	0x3d6df2f3	0.058093023
33	0xbf5b2dc1	-0.8561669
34	0xbec08c47	-0.37607023
35	0x3e4116c0	0.18856335
36	0x3dd10bdc	0.1020734
37	0xbeffbe0d	-0.49949685
38	0x3c794096	0.015213152
39	0xbe4179b0	-0.18894076
40	0xbea7f3b9	-0.32803133
41	0xbdb1476a	-0.08656199
42	0x3d907589	0.07053668
43	0xbef125a0	-0.47099018
44	0x3f046b9c	0.517267
45	0x3d9d4a5f	0.07680201
46	0x3e682fdf	0.22674511
47	0xbf0a7928	-0.5409112
48	0xbe552e2c	-0.20818394
49	0xbe0f0d62	-0.13969949
50	0x3ea8a15a	0.329356
51	0x3d02049a	0.03174267
52	0xbcb41c74	-0.021986224
53	0xbe740f7a	-0.23834029
54	0xbf75b28e	-0.9597558
55	0xbec8373a	-0.39104635
56	0xbe788692	-0.24270085
57	0xbdd53570	-0.10410583
58	0xbe9afea0	-0.30272388
59	0xbeb76b2a	-0.35823947
60	0x3ea16733	0.31524047
61	0x3db6ca75	0.08925334
62	0x3f7dbee9	0.9911943
63	0x3f2b527e	0.6692275
64	0x3dc3bb14	0.09557167
65	0x3cb8b14f	0.022545485
66	0xbeb4a128	-0.35279202
67	0xbea32ad4	-0.31868613
68	0xbd8ea86d	-0.069657184
69	0x3e56f2b6	0.20991024
70	0xbf714f6f	-0.9426183
71	0xbf0fdeb0	-0.5619917
72	0x3ec5ed50	0.38657618
73	0xbe020846	-0.12698469
74	0xbf3bc1b9	-0.7334247
75	0xbf20ef9c	-0.62865615
76	0xbf1b54db	-0.60676354
77	0x3e07b7a3	0.13253646
78	0x3e0a98b1	0.1353481
79	0xbdbdfe98	-0.092770755
80	0x3f392bad	0.7233227
81	0x3f69a2b9	0.9126392
82	0x3e25e159	0.16199245
83	0xbf834b15	-1.0257288
84	0x3e2b1fa7	0.16711293
85	0xbe96e4a7	-0.29471323
86	0xbe12afb8	-0.14324844
87	0xbeb3207b	-0.34985718
88	0x3df04c66	0.11733322
89	0xbc4cabfe	-0.012492178
90	0xbed7a12f	-0.4211516
91	0xbe4fffe6	-0.20312461
92	0xbeb596f7	-0.3546674
93	0xbe85dc65	-0.2614471
94	0xbefc1713	-0.49236354
95	0x3eaeee1e	0.34166044
96	0xbdb32610	-0.08747494
97	0x3e8ea6c0	0.27861595
98	0xbe31d725	-0.17367227
99	0xbde8384b	-0.11338862
100	0xbdbbecae	-0.091760024
101	0xbebb8ec7	-0.36632368
102	0x3e8d97a6	0.2765476
103	0x3f0ad22b	0.5422694
104	0x3e88ad67	0.26694795
105	0x3ebfca08	0.37458825
106	0xbef86213	-0.48512325
107	0xbe0577e5	-0.13034017
108	0xbef9937d	-0.48745337
109	0x3d8df4da	0.06931467
110	0x3e8c522a	0.27406436
111	0xbf52bbd9	-0.8231788
112	0xbed51802	-0.4161988
113	0x3f0362e2	0.5132276
114	0x3e9c2fe0	0.30505276
115	0x3ead3004	0.33825696
116	0x3ed4f30f	0.4159169
117	0xbe2598d1	-0.16171576
118	0x3fb173c2	1.3863451
119	0xbf4ac59d	-0.79207784
120	0x3f11e65f	0.56992143
121	0xbf0b40ae	-0.5439557
122	0x3eb96e87	0.36217138
123	0xbef94f33	-0.48693237
124	0x3eb368b9	0.35040835
125	0xbe539048	-0.20660508
126	0xbf2b390f	-0.6688394
127	0xbe0ffd56	-0.14061484
128	0xbd23af4a	-0.03996209
129	0xbe022e5e	-0.12713
130	0x3e3e1ae1	0.18564941
131	0x3e84bf46	0.2592718
132	0xbe996b9d	-0.29964915
133	0xbeb1ddde	-0.34739584
134	0xbe8dc3e4	-0.27688515
135	0x3f876e95	1.0580622
136	0xbe0659db	-0.13120215
137	0x3f4ff66b	0.8123538
138	0xbc253f1f	-0.01008585
139	0xbf1d9fc2	-0.61571896
140	0x3edf51a0	0.43616962
141	0x3ed402f2	0.41408497
142	0x3f5931a5	0.84841377
143	0x3f1af9f2	0.60537636
144	0xbe54d198	-0.20783079
145	0xbccbfab3	-0.024899816
146	0xbed8f027	-0.42370722
147	0xbef94dbd	-0.48692122
148	0x3e6bc3cf	0.23023914
149	0x3e1dc863	0.15408473
150	0x3d671359	0.056414936
151	0x3f2779d9	0.654203
152	0xbdc446d2	-0.095838204
153	0x3ec43c53	0.38327274
154	0xbecb2e93	-0.3968397
155	0xbd2ed4ca	-0.0426834
156	0x3d951afc	0.072805375
157	0x3ce15013	0.027504003
158	0xbe89d2d9	-0.26918676
159	0x3f2532cf	0.6453065
160	0xbe6ff84a	-0.23434559
161	0xbebef7a5	-0.37298313
162	0xbbbea666	-0.005818176
163	0xbd4a3f13	-0.04937656
164	0xbe823993	-0.2543455
165	0xbd948806	-0.07252507
166	0xbf7fa131	-0.99855334
167	0xbe66dd54	-0.22545367
168	0x3f0fd6c7	0.561871
169	0x3d144998	0.036202997
170	0xbefe939d	-0.49721995
171	0xbf29138f	-0.6604547
172	0xbf0a3cef	-0.5399923
173	0x3f3b880d	0.7325447
174	0xbeb6a7d5	-0.3567492
175	0x3f375a43	0.71622103
176	0xbf23b0a0	-0.63941383
177	0xbf3cec64	-0.73798203
178	0xbe92743e	-0.2860431
179	0xbe8f476c	-0.27984178
180	0xbf186286	-0.59525335
181	0xbf2c1c2f	-0.67230505
182	0x3f826c5e	1.0189321
183	0xbe9515f0	-0.291183
184	0xbde695f5	-0.11259071
185	0xbe682f7e	-0.22674367
186	0xbe25c7f1	-0.16189553
187	0xbd3efa06	-0.04662516
188	0xbe80a8f9	-0.25128916
189	0xbe3ee6d0	-0.18642735
190	0x3f3c16b1	0.73472124
191	0x3e9a47b0	0.30132818
192	0x3d167d8e	0.036740832
193	0xbe247af7	-0.16062532
194	0xbe8e0088	-0.2773478
195	0xbc8042ca	-0.015656848
196	0xbf0cc38c	-0.5498588
197	0xbefcaa5e	-0.4934873
198	0xbfa88b2e	-1.3167474
199	0x3e96eac0	0.29475975
200	0x3c0bb2e1	0.008526535
201	0x3e5a85e3	0.21340136
202	0xbe8b6929	-0.27228668
203	0xbdf09571	-0.11747254
204	0xbd1ecb64	-0.038768187
205	0xbe0ea16a	-0.13928762
206	0x3fa38dca	1.2777646
207	0x3dc91ba4	0.09819725
208	0xbf385430	-0.7200346
209	0x3e87b90a	0.2650836
210	0xbf556571	-0.8335791
211	0xbf0659ff	-0.52481073
212	0x3e43515e	0.19074008
213	0xbdf03579	-0.11728949
214	0xbb1a8bc9	-0.0023581854
215	0xbef6390f	-0.48090407
216	0xbe76f0f6	-0.24115357
217	0x3c8856c7	0.016642941
218	0x3d4d125e	0.050066344
219	0x3ed4cf18	0.4156425
220	0x3f29c72e	0.6631955
221	0xbef9b456	-0.48770398
222	0x3ee54646	0.44780177
223	0xbef48bb1	-0.47762826
224	0x3f06e0f3	0.52686995
225	0xbe413697	-0.1886848
226	0x3cba76f0	0.022761792
227	0x3e081850	0.13290524
228	0x3f026954	0.5094197
229	0x3e009c32	0.12559584
230	0x3fb56d99	1.4174072
231	0x3dbc799e	0.09202884
232	0x3e592958	0.21207178
233	0xbeabadb2	-0.33530957
234	0xbd7bb356	-0.061450325
235	0x3ebcac94	0.36850417
236	0x3ea5498e	0.3228268
237	0x3eb7ab08	0.35872674
238	0x3c4fe5e9	0.012689092
239	0x3f1a5166	0.60280454
240	0xbec21682	-0.37907797
241	0x3cb37a37	0.021908863
242	0x3f0aabe6	0.54168546
243	0x3f0f4085	0.55957824
244	0xbefbc698	-0.49174953
245	0x3d3f9111	0.046769205
246	0xbe4378c7	-0.19089042
247	0x3e0c7b17	0.1371883
248	0x3dca1c82	0.09868719
249	0x3d236137	0.039887633
250	0xbdf3f18f	-0.11911308
251	0x3e2c7ddd	0.16844888
252	0x3e41f255	0.18940099
253	0x3d2ecaaf	0.042673763
254	0xbe604a2d	-0.21903296
255	0xbf131e97	-0.5746855

network_body._body_endoder.seq_layers.0.bias f4 [128]
0	0xbc3dfd0b	-0.011595975
1	0xbbaa1bc5	-0.0051912987
2	0x3df89874	0.12138453
3	0x3d08e535	0.033421714
4	0xbe140340	-0.14454365
5	0x3de77968	0.11302453
6	0xbdb33cfd	-0.08751867
7	0x3e26c9e2	0.1628795
8	0x3e1da1cf	0.15393756
9	0xbcef57a0	-0.029216588
10	0x3d2f3d8d	0.04278331
11	0xbdfae3bf	-0.1225047
12	0xbd82c40e	-0.06385051
13	0x3c9f64ab	0.019457182
14	0xbc99f1e7	-0.018792106
15	0xbd25bfb6	-0.040466033
16	0x3bf92381	0.0076031093
17	0x3da84bb1	0.08217562
18	0xbc683afd	-0.01417422
19	0x3dcfa7b0	0.10139406
20	0x3cf95f31	0.030440899
21	0xbd8fd860	-0.07023692
22	0xbc6b5d04	-0.014365438
23	0x3d1bbcf7	0.038022008
24	0xbcaef15c	-0.021355323
25	0x3dd6946e	0.104775295
26	0x3a4d1793	0.0007823642
27	0xbdbdcea5	-0.0926793
28	0xbda6b8e7	-0.08140736
29	0x3cdedaff	0.027204035
30	0xbdbaaa9f	-0.09114575
31	0xbdae572e	-0.08512722
32	0x3dd7bd0c	0.10534105
33	0x3d5218c2	0.051293142
34	0xbd6e14ae	-0.05812519
35	0xbce4c2a4	-0.027924843
36	0x3df9369f	0.12168621
37	0xbc0373ee	-0.008023245
38	0x3d5ece8b	0.054396193
39	0x393f6a4b	0.00018254777
40	0xbe003052	-0.12518433
41	0x3d1627ee	0.036659174
42	0x3d563ca1	0.052303914
43	0x3cc95c6e	0.024580207
44	0x3d2c4ef0	0.04206747
45	0xbd74ca2f	-0.05976313
46	0xbd636850	-0.055519402
47	0xbc67fb1a	-0.014158988
48	0x3d2f8728	0.042853504
49	0xbda5de81	-0.0809908
50	0xbd600d20	-0.054700017
51	0xbcf61268	-0.030038074
52	0xbdc377a9	-0.09544308
53	0x3d5d82a1	0.054079656
54	0xbd8fc358	-0.07019681
55	0xbd23fa9e	-0.04003393
56	0xbd6fa2e9	-0.058504973
57	0xbe00fbc1	-0.12596036
58	0xbdb9cc57	-0.09072178
59	0xbcb98cbf	-0.02265012
60	0xbd7258e1	-0.059166793
61	0xbded40cd	-0.115846254
62	0xbd80a296	-0.06281011
63	0x3df90e7e	0.12160967
64	0x3c2aba53	0.0104204
65	0xbdaed690	-0.08537018
66	0xbd275b4e	-0.04085856
67	0x3ccf083f	0.025272487
68	0xbd928c12	-0.071556225
69	0x3ca6f878	0.020382151
70	0xbcdd534b	-0.027017256
71	0xbd64eb71	-0.055888597
72	0x3dac0097	0.0839855
73	0xbd61cbe2	-0.05512608
74	0x3d83e0fa	0.06439395
75	0x3c772832	0.015085267
76	0x3aab4938	0.0013068086
77	0xbd1baf2c	-0.038008854
78	0x3cab3ad6	0.020902079
79	0x3d53dbc1	0.051723246
80	0x3d5c7642	0.053823717
81	0x3df6183d	0.12016342
82	0xbcd4f73a	-0.025996793
83	0xbde98fa1	-0.11404348
84	0x3d58a541	0.052891973
85	0xbde6d166	-0.11270408
86	0xbd7b26d5	-0.06131633
87	0x3d0c67fd	0.03427886
88	0xbd152f7e	-0.036422245
89	0xbd9e19f6	-0.077197954
90	0xbb1de9ab	-0.0024095576
91	0xbd4155d8	-0.047201008
92	0x3b9a22bc	0.0047038477
93	0xbd9fb925	-0.077989854
94	0xbd9dec4d	-0.077110864
95	0x3d9b8410	0.07593548
96	0x3db410e1	0.08792282
97	0xbd72f888	-0.05931905
98	0xbbcfdd45	-0.006343516
99	0xbc8ec60b	-0.017428419
100	0x3d5c256a	0.05374662
101	0x3cb146c7	0.021640195
102	0x3cd9f6d1	0.026606949
103	0xbce5c635	-0.028048614
104	0x3d71dfc8	0.059051305
105	0x3cc1054b	0.023562094
106	0xbe4a570a	-0.19759765
107	0x3dc3f426	0.09568052
108	0xbcd424df	-0.025896488
109	0x3d6df9c0	0.05809951
110	0xbcd236d1	-0.025660904
111	0x3dae56fe	0.08512686
112	0xbdf10e53	-0.1177031
113	0x3c45ed60	0.01208052
114	0xbe097f2c	-0.13427418
115	0xbcc0e615	-0.023547212
116	0x3d1c7f10	0.038207114
117	0xbda7aced	-0.0818728
118	0xbdcf0ee3	-0.10110261
119	0x3da16e55	0.07882372
120	0x3db5dc08	0.08879858
121	0x3c72cc25	0.01481918
122	0x3d0be141	0.034150366
123	0xbd3b280b	-0.045692485
124	0xbd17b6d4	-0.037039593
125	0xbde93eca	-0.11388929
126	0x3c815eff	0.015792368
127	0xbd02dd1b	-0.031949144

network_body._body_endoder.seq_layers.2.weight f4 [128, 128]
0	0xbdf2423b	-0.11829039
1	0xbe294a6e	-0.16532299
2	0xbcc677a2	-0.024226967
3	0xbeb3d0d7	-0.3512027
4	0xbde3484b	-0.11097773
5	0xbd7de676	-0.061987363
6	0xbd75e147	-0.060029294
7	0xbdb3d65c	-0.0878112
8	0xbdb5d2e4	-0.08878115
9	0x3b9d1321	0.00479354
10	0xbd829936	-0.06376879
11	0xbcc5c93e	-0.024143811
12	0xbdc97f45	-0.09838728
13	0xbdcf9aa3	-0.101369165
14	0xbe1edeca	-0.15514675
15	0xbd7ac1a9	-0.061219845
16	0xbea83f7b	-0.32860932
17	0x3c860bec	0.016363107
18	0xbdf4e191	-0.11957086
19	0xbd604b00	-0.054759026
20	0x3eb1f04a	0.34753639
21	0x3da9e5f7	0.082958154
22	0xbd23b2d1	-0.039965454
23	0xbdc79daf	-0.09746873
24	0xbe07d93a	-0.13266459
25	0x3dd74455	0.1051108
26	0x3bf7977c	0.0075559
27	0xbdde82b1	-0.10864771
28	0xbda7260b	-0.08161553
29	0x3ad7c19a	0.0016460896
30	0x3deaf1ce	0.11471902
31	0xbd292be3	-0.04130162
32	0x3e816a26	0.25276297
33	0xbc8d6a36	-0.01726256
34	0x3e053204	0.1300736
35	0xbe466f89	-0.19378485
36	0x3e699da6	0.22814044
37	0xbc9ffd9f	-0.019530116
38	0x3cffbbeb	0.031217536
39	0xbdf44a09	-0.119281836
40	0xbd2dfcd9	-0.042477462
41	0xbe57e50d	-0.2108347
42	0xbe8ab2f2	-0.2708965
43	0xbdef2c74	-0.11678401
44	0x3e086da8	0.1332308
45	0xbd254b85	-0.040355224
46	0xbca28840	-0.01984036
47	0x3e622320	0.22083712
48	0xbe977502	-0.29581457
49	0xbd4d93cd	-0.050189782
50	0xbdb4c579	-0.088267274
51	0x3a88b208	0.0010429034
52	0x3d4852af	0.04890698
53	0xbdbf7560	-0.093485594
54	0x3cc33063	0.023826784
55	0x3ceb861f	0.028750477
56	0xbe2dbfdf	-0.16967724
57	0xbcd47fe2	-0.025939886
58	0xbd687441	-0.056751493
59	0xbe8be922	-0.27326304
60	0x3c82d7c6	0.01597203
61	0xbdc12b9b	-0.09432145
62	0x3e084d08	0.13310635
63	0xbdea6649	-0.114452906
64	0xbc09b222	-0.008404287
65	0xbe2c908f	-0.1685202
66	0xbd99a707	-0.07502561
67	0x3d74bf53	0.059752773
68	0xbe2bdf0c	-0.16784304
69	0x3c44ceee	0.0120122265
70	0x3c726d4c	0.014796566
71	0x3df0b90b	0.11754044
72	0xbe691b4b	-0.22764318
73	0x3cef2901	0.029194357
74	0xbd739628	-0.059469372
75	0x3cf4e599	0.029894637
76	0xbde5384a	-0.11192377
77	0x3b6f7f41	0.0036544355
78	0x3d8bf217	0.06833284
79	0x3e2fb8fb	0.17160408
80	0xbe1360eb	-0.1439244
81	0xbee4be6d	-0.44676533
82	0xbe24f868	-0.16110384
83	0xbd803889	-0.06260783
84	0x3e8a1c13	0.26974544
85	0xbd8df9d7	-0.06932419
86	0xbe2a4290	-0.16626954
87	0xbc5718aa	-0.013128439
88	0x3d23d6d2	0.03999979
89	0xbe648c17	-0.22319065
90	0xbb4ad7dd	-0.0030951418
91	0xbdda2b06	-0.10652737
92	0xbd276dce	-0.040876202
93	0xbe019e4a	-0.12658039
94	0x3bdacaf3	0.0066770255
95	0x3dbe6078	0.09295744
96	0x3d9e6c4c	0.077355
97	0x38a82af1	8.018863e-05
98	0x3d5659a8	0.052331597
99	0x3e1a6bca	0.15080181
100	0xbc583cf0	-0.013198122
101	0xbe482c58	-0.19548166
102	0xbd285c01	-0.041103367
103	0x3e83323c	0.25624263
104	0x3df8a4a0	0.12140775
105	0xbe2e1283	-0.16999249
106	0xbd366491	-0.0445295
107	0x3e03b553	0.12862138
108	0x3e3e1649	0.18563189
109	0x3df450a9	0.11929447
110	0x3dd46cf7	0.10372346
111	0xbe61e741	-0.22060873
112	0xbc7e12e6	-0.015507435
113	0x3e03df2d	0.12878104
114	0xbe2ae0a9	-0.16687264
115	0xbe7ecb9b	-0.24882357
116	0x3e1d8c2e	0.15385506
117	0xbdef2c1f	-0.11678337
118	0x3caf7bcb	0.021421334
119	0x3e23b0fb	0.15985481
120	0xbe271730	-0.16317439
121	0x3db6d2ee	0.089269504
122	0xbd8c0006	-0.06835942
123	0xbdb85d84	-0.09002212
124	0xbe64cb58	-0.22343194
125	0xbdcf142c	-0.10111269
126	0x3d3cd196	0.046098314
127	0x3e19cedc	0.15020317
128	0xbe9910e7	-0.29895708
129	0x3ed8d61d	0.42350855
130	0x3e807d3f	0.25095555
131	0xbd8dd558	-0.06925458
132	0xbdcfb3bb	-0.10141703
133	0x3e075cc3	0.1321898
134	0x3a2ebcd2	0.00066657097
135	0x3e7130ac	0.23553723
136	0x3e846863	0.2586089
137	0xbe703da5	-0.23461016
138	0xbd44372b	-0.047904175
139	0xbdc68aa4	-0.09694412
140	0x3e36b02e	0.17840645
141	0xbe6f58fe	-0.23373792
142	0xbcf7e5ab	-0.030260881
143	0xbd22d036	-0.039749347
144	0x3d924d9d	0.0714371
145	0x3eaed938	0.341501
146	0x3ec7606a	0.38940746
147	0x3d8d99e5	0.06914119
148	0x3d42e2e5	0.047579665
149	0x3e05bed9	0.13061084
150	0x3e3add58	0.18248498
151	0xbdb1a7ac	-0.08674559
152	0x3e19f9a8	0.15036643
153	0x3df741e3	0.12073114
154	0x3dc21c0a	0.09478004
155	0xbd8850c1	-0.066560276
156	0x3dc560dc	0.09637615
157	0xbe4b11d3	-0.19831018
158	0xbe2130f7	-0.15741335
159	0xbe48d628	-0.19612944
160	0x3d65384e	0.0559619
161	0xbeaff495	-0.3436629
162	0xbe5789b4	-0.21048623
163	0x3d90330e	0.07040988
164	0x3e5599f6	0.20859513
165	0xbdce29ba	-0.100665525
166	0xbd28da77	-0.04122397
167	0x3e374150	0.17896008
168	0xbe521d27	-0.20518933
169	0x3c63b2ab	0.013897578
170	0x3d83330b	0.0640622
171	0xbdb5b429	-0.088722534
172	0x3e46e150	0.19421887
173	0xbe37e59c	-0.17958683
174	0xbdb2cfc8	-0.087310374
175	0xbe5a0359	-0.2129034
176	0x3e8217d7	0.25408813
177	0xbdd54fc5	-0.104156055
178	0xbe5ed71a	-0.21761742
179	0xbd904ca7	-0.0704587
180	0x3bb7792c	0.0055991616
181	0xbd8a0848	-0.06739861
182	0xbdd97ec6	-0.10619883
183	0x3e2c07a5	0.16799791
184	0xbe2b0da9	-0.1670443
185	0xbd870ea1	-0.06594587
186	0x3d49c0be	0.04925608
187	0xbdb82d3a	-0.08993001
188	0xbc78d114	-0.015186567
189	0x3d96f069	0.07370073
190	0x3daf193e	0.085497364
191	0xbe25617a	-0.16150466
192	0xbc74867e	-0.014924644
193	0xbcdfbaf5	-0.027310828
194	0x3e55aeba	0.20867434
195	0x3e995946	0.29950923
196	0x3d82b134	0.06381455
197	0x3d1ab473	0.037769746
198	0xbec3cef6	-0.38243836
199	0xbe13f189	-0.14447607
200	0x3cfaf19d	0.030632788
201	0xbd204910	-0.039132178
202	0x3df05861	0.11735607
203	0x3dc438d5	0.09581152
204	0xbea4126c	-0.32045305
205	0x3e5c9617	0.2154163
206	0xbe16f1b8	-0.14740646
207	0xbc897884	-0.0167811
208	0xbeaee529	-0.3415921
209	0xbe4e8cd4	-0.20170909
210	0x3d9ea55c	0.077463835
211	0x3dd79930	0.10527265
212	0xbc3907ab	-0.011293332
213	0xbd539d7a	-0.051663853
214	0xbe0dbb2b	-0.1384093
215	0x3d051ac4	0.03249623
216	0x3e2ed499	0.17073287
217	0xbd82fbd7	-0.06395691
218	0xbc289895	-0.010290285
219	0x3d622c95	0.055218298
220	0xbe9ce928	-0.30646634
221	0x3dddcaea	0.108297184
222	0x3ce37213	0.027764356
223	0xbe1586a4	-0.14602143
224	0x3e90da70	0.28291655
225	0xbe41a651	-0.18911101
226	0x3e265507	0.16243373
227	0xbe30f4f9	-0.1728095
228	0x3d9ee671	0.07758797
229	0x3e3d1317	0.18464313
230	0xbd467616	-0.04845246
231	0xbd3f9151	-0.046769444
232	0x3e99e8f4	0.30060542
233	0x3e4b6b06	0.19865045
234	0x3d68f9ed	0.056878973
235	0x3e863782	0.26214224
236	0x3e6dac26	0.232102
237	0xbebaf8e1	-0.36518005
238	0xbe7a73a0	-0.2445817
239	0x3db44d75	0.08803836
240	0xbe09d154	-0.13458759
241	0xbdf577b3	-0.119857214
242	0xbc0f96e8	-0.008764006
243	0xbd0f2db9	-0.034955714
244	0x3e222098	0.15832746
245	0xbd849fbc	-0.064757794
246	0xbe2e003f	-0.16992281
247	0x3e7befae	0.2460315
248	0xbd1d3aaf	-0.038386043
249	0xbe3a252f	-0.18178247
250	0xbe88d6a5	-0.2672626
251	0xbdab70df	-0.08371138
252	0xbaa26d13	-0.0012392126
253	0x3ddbd336	0.10733645
254	0x3eda02e7	0.4258034
255	0xbe51fab5	-0.20505793

network_body._body_endoder.seq_layers.2.bias f4 [128]
0	0xbd0a6e50	-0.03379661
1	0xbd080a4d	-0.03321295
2	0xbbcb099e	-0.006196215
3	0xbd1104ad	-0.03540485
4	0xbd25b340	-0.04045415
5	0xba8893fc	-0.0010420079
6	0xbc26fe86	-0.010192519
7	0xbcf3afec	-0.029746972
8	0xbbf1fb36	-0.007384683
9	0xbd7f1ec5	-0.062285203
10	0xbdc0e397	-0.09418409
11	0xbd05bee8	-0.032652766
12	0x3bee2d01	0.0072685485
13	0xbc5ab8b3	-0.0133497
14	0xbd04b0b9	-0.0323951
15	0xbbf863be	-0.0075802496
16	0x3c9e6a21	0.019337716
17	0x3b00ea8d	0.0019671053
18	0xbd35c7a1	-0.044379834
19	0xbbba7027	-0.005689639
20	0xbcf35b2e	-0.029706564
21	0x3c930b35	0.01794968
22	0xbd2358b5	-0.03987952
23	0x3b994f98	0.004678678
24	0x3c1b720a	0.009487638
25	0xbc601b16	-0.013678333
26	0xbc652e1a	-0.013988042
27	0xbdac662e	-0.08417927
28	0xbd80f796	-0.06297223
29	0xbd80af64	-0.06283453
30	0xbdd45b6d	-0.103690006
31	0x3ca16a2e	0.01970395
32	0x3c96c95a	0.018406559
33	0xbd43ae1f	-0.047773477
34	0x3c800967	0.015629483
35	0x3cc32fef	0.023826567
36	0x3c57557c	0.01314294
37	0xbcb1ff57	-0.0217282
38	0xbc5b4257	-0.013382516
39	0xbd37ed2f	-0.04490393
40	0xbc8184e5	-0.01581044
41	0x3c44edbd	0.012019572
42	0xbc652eb0	-0.013988182
43	0x3c77b290	0.015118256
44	0xbd4f2dc2	-0.050580747
45	0xbcf8e16e	-0.03038093
46	0x3c81addc	0.015829973
47	0xbb2d161b	-0.002641088
48	0x3b701c94	0.0036638128
49	0x3c64912e	0.013950629
50	0xbccbea01	-0.024891855
51	0xbc0d8f07	-0.008640057
52	0x3c2e6dc4	0.010646287
53	0xbd7c5450	-0.061603844
54	0x3c196260	0.009361833
55	0x3b0d97ff	0.002160549
56	0xbd86a724	-0.06574848
57	0xbd0ef0e0	-0.034897685
58	0xbcd7cd05	-0.026342878
59	0x3cf01ae1	0.029309692
60	0x3d1888c5	0.03723981
61	0xbcc0b31e	-0.02352291
62	0xbcc4a5df	-0.024004875
63	0xbd1ff461	-0.039051417
64	0xb73e129a	-1.13292135e-05
65	0xbc807eec	-0.015685521
66	0xbc3a9679	-0.011388415
67	0xbd49a66d	-0.04923098
68	0xbcc1876a	-0.02362414
69	0xbda5f737	-0.08103793
70	0xbd1e80d7	-0.03869709
71	0xbc988d02	-0.018621925
72	0xbc36ed3c	-0.0111649595
73	0x3993d447	0.00028196184
74	0xbc07973d	-0.008275804
75	0xbcdd1686	-0.02698828
76	0xbcfc5a9a	-0.030804921
77	0x3c89695c	0.016773872
78	0xbd7d23d2	-0.06180174
79	0xbc2e50e1	-0.0106394
80	0xbd2248e2	-0.039620288
81	0xbd7406c7	-0.059576776
82	0x3d26f62e	0.04076212
83	0x3cb8950a	0.022532005
84	0xbd23f29b	-0.04002629
85	0xbc6f5f48	-0.014610119
86	0xbd8a2ee5	-0.06747226
87	0x3c3e3287	0.011608726
88	0xbc4aa27e	-0.012367843
89	0xbd86757e	-0.065653786
90	0xbd9b650e	-0.07587634
91	0xbd5eeb08	-0.054423362
92	0xbdb344e7	-0.087533765
93	0xbdc5649f	-0.096383326
94	0x3bfef3cb	0.007780527
95	0xbcfb902f	-0.0307084
96	0xbc680526	-0.014161384
97	0xbd15dd13	-0.036587786
98	0xbd1e738a	-0.038684405
99	0xbd89dc0c	-0.06731424
100	0xbd62eed3	-0.05540354
101	0x3b37c91d	0.0028043457
102	0xbd9dd1d1	-0.07706035
103	0xbdab77ce	-0.0837246
104	0xbda5a706	-0.08088498
105	0x3d366e1c	0.044538602
106	0xbca4e316	-0.020127814
107	0xbd697e23	-0.05700506
108	0x3b527889	0.0032115302
109	0x3cf3720d	0.02971747
110	0x3ca16713	0.01970247
111	0xbcfc6d06	-0.030813705
112	0xbcc1f10f	-0.023674516
113	0xbda5ae14	-0.080898434
114	0xbd1f8dd4	-0.038953617
115	0xbca000cb	-0.019531628
116	0xbd2c8213	-0.042116236
117	0x3bf85782	0.007578791
118	0xbcce49ef	-0.025181739
119	0xbce8bf3d	-0.028411502
120	0x3d71a8d4	0.058998898
121	0xbc75c1ac	-0.014999788
122	0xbce9df3b	-0.028548827
123	0xbcd53508	-0.026026264
124	0xbd50bed3	-0.050963234
125	0xbd40e795	-0.047095854
126	0xbc8d0295	-0.017213145
127	0xbd9c253f	-0.07624292

network_body._body_endoder.seq_layers.4.weight f4 [128, 128]
0	0xbc7715ac	-0.015080851
1	0x3e35ec61	0.17765953
2	0xbcd7c907	-0.026340974
3	0x3dfb5db5	0.122737326
4	0x3e72437c	0.23658556
5	0xbda2452f	-0.07923352
6	0xbdca6cfe	-0.0988407
7	0x3cc13c89	0.023588436
8	0xbb904647	-0.004402909
9	0x3dea7367	0.114477925
10	0xbe3b1bce	-0.18272325
11	0x3d0b0990	0.033944666
12	0xbc8d4f62	-0.017249767
13	0xbe5ec1b1	-0.21753575
14	0x3e8991ea	0.26869136
15	0x3e16d983	0.14731412
16	0x3c4b6598	0.012414359
17	0xbc358bc4	-0.011080686
18	0xbd6f6b80	-0.05845213
19	0xbd99b9fb	-0.07506176
20	0xbe94d802	-0.2907105
21	0x3e3e8474	0.18605214
22	0x3dad6687	0.08466821
23	0xbe57e466	-0.21083221
24	0xbe5e2a6c	-0.2169587
25	0xbd693c4b	-0.056942265
26	0xbe105237	-0.14093862
27	0x3dc6f83a	0.09715314
28	0xbcdfa284	-0.027299173
29	0xbd507e11	-0.050901476
30	0xbdcb8535	-0.099375166
31	0x3dd94686	0.106091544
32	0xbdc7c798	-0.09754866
33	0xbd3fe919	-0.04685316
34	0xbd957eca	-0.07299574
35	0x3d2a60b0	0.041596115
36	0xbe0c8e39	-0.13726129
37	0xbe1dbc5f	-0.15403889
38	0x3abee19c	0.0014563086
39	0xbea4918e	-0.321423
40	0x3d7180b3	0.058960628
41	0xbde45f98	-0.111510456
42	0xbd8b995e	-0.06816362
43	0xbe3d2650	-0.18471646
44	0x3e594214	0.21216613
45	0x3d339822	0.043846257
46	0x3c356e8c	0.01107372
47	0xbd15d44c	-0.036579415
48	0x3de51c50	0.11187041
49	0xbe5035d8	-0.2033304
50	0xbbf9fb34	-0.0076288227
51	0xbdd77ff0	-0.10522449
52	0x3c614a05	0.013750558
53	0x3dd685b8	0.104747236
54	0xbec4ac1a	-0.38412553
55	0xbcfb2793	-0.030658519
56	0xbd12a0cf	-0.03579789
57	0x3c0016d1	0.00781794
58	0xbcd0ccdd	-0.025488311
59	0xbcd62a0b	-0.026143095
60	0xbca1520d	-0.019692445
61	0xbdedc55c	-0.11609909
62	0x3c0c4dcb	0.008563469
63	0xbda8d077	-0.082428865
64	0x3b75d298	0.0037509557
65	0xbdff994c	-0.12480411
66	0xbe4de9f6	-0.2010878
67	0x3dbe5dcf	0.09295236
68	0xbdc618dc	-0.0967271
69	0x3c063e5f	0.008193581
70	0x3dda33ca	0.10654409
71	0x3cd48911	0.025944265
72	0xbe18a2ce	-0.14905855
73	0x3dc09a73	0.09404459
74	0x3e15231b	0.14564173
75	0x3d87f857	0.06639164
76	0xbd249e5c	-0.040190086
77	0xbd891594	-0.06693569
78	0x3ea8c7a2	0.32964808
79	0x3d42e082	0.04757739
80	0xbe3bdc5d	-0.1834578
81	0x3d85e4ac	0.06537756
82	0xbdf61e15	-0.120174564
83	0x3d5050c0	0.05085826
84	0x3e061dce	0.13097307
85	0xbe37203a	-0.17883387
86	0x3daf2076	0.08551113
87	0xbddc0209	-0.10742576
88	0x3d509129	0.050919686
89	0x3c5945ad	0.013261241
90	0xbcaff612	-0.02147964
91	0xbdf40634	-0.11915246
92	0x3ea23ccd	0.31687012
93	0x3e02a3b0	0.12757754
94	0xbe0706c9	-0.13186182
95	0xbe681f9a	-0.22668305
96	0x3e5b2a4a	0.21402851
97	0x3e05a469	0.13050999
98	0x3da68626	0.081310555
99	0xbe994ac9	-0.2993987
100	0xbd84fcd1	-0.064935334
101	0x3d8306ca	0.06397779
102	0x3d8daa78	0.0691728
103	0x3db52732	0.088453665
104	0x3de4deab	0.11175283
105	0x3e8bcf67	0.27306673
106	0x3e625d76	0.22105965
107	0xbca1e5f9	-0.01976298
108	0x3bbad663	0.0057018264
109	0xbe8f7ae9	-0.2802346
110	0x3ddf598f	0.10905754
111	0xbe8e279d	-0.27764598
112	0xbd85e0b2	-0.06536998
113	0xbc27a713	-0.010232705
114	0xbd86adec	-0.06576142
115	0xbdac7133	-0.084200285
116	0xbdb5af3e	-0.088713154
117	0xbe00dadb	-0.12583487
118	0x3d69eb15	0.057108957
119	0xbe0ab110	-0.13544106
120	0xbe2b5b9e	-0.16734168
121	0x3e564d23	0.20927863
122	0xbd7a17a9	-0.06105772
123	0x3b6086db	0.0034260068
124	0xbe36794d	-0.1781971
125	0xbd9decc2	-0.077111736
126	0xbd3841a5	-0.04498448
127	0xbc8e9b4c	-0.017408036
128	0xbdc8b542	-0.09800197
129	0xbc27b23f	-0.010235368
130	0x3e2501ab	0.16113918
131	0xbd6813a1	-0.056659345
132	0xbdb00340	-0.0859437
133	0xbe22b743	-0.15890221
134	0x3e098e09	0.13433088
135	0xbe33e397	-0.17567287
136	0x3d35ac52	0.04435379
137	0x3dfade6d	0.122494556
138	0xbddf4c14	-0.109031826
139	0x3cf5fca2	0.030027691
140	0x3df6a392	0.12042917
141	0xbdc80776	-0.09767048
142	0x3dfb2068	0.122620404
143	0x3daef776	0.08543293
144	0x3e8d73d6	0.27627438
145	0x3e28ac97	0.16472088
146	0xbe0abb0d	-0.13547917
147	0x3d64afb6	0.055831634
148	0x3b7b66b7	0.0038360783
149	0xbe862c6b	-0.26205763
150	0x3e7f7bee	0.24949619
151	0xbe720e8c	-0.23638362
152	0xbdcd294b	-0.10017642
153	0x3df8e4cb	0.12153014
154	0x3d2b9cd6	0.041897617
155	0xbca16d46	-0.019705426
156	0xbcaf9fa9	-0.021438437
157	0xbdb9973b	-0.09062048
158	0xbd6151cb	-0.055009644
159	0x3d85d67c	0.0653505
160	0x3c169d74	0.009192813
161	0x3df939f4	0.12169257
162	0x3de1ec76	0.110314295
163	0xbd0a6567	-0.03378811
164	0xbe1d9a05	-0.15390785
165	0xbda5abb2	-0.08089389
166	0xba8da842	-0.0010807591
167	0xbde6b1c6	-0.11264376
168	0xbe1a3889	-0.15060629
169	0xbd955ae6	-0.07292728
170	0xbe8032ff	-0.25038907
171	0xbe5de0cb	-0.21667783
172	0x3df5142a	0.119667366
173	0xbd092ca4	-0.03348984
174	0xbe07e3a1	-0.13270427
175	0x3e08daf1	0.1336477
176	0xbc3ae535	-0.011407186
177	0xbd698d7b	-0.057019692
178	0xbbc68b09	-0.0060590548
179	0x3cddce7a	0.027075995
180	0x3c7a1b7e	0.015265344
181	0xbdffc178	-0.12488073
182	0x3d7f3d76	0.062314473
183	0xbe0f83e4	-0.14015156
184	0x3d86e0c5	0.0658584
185	0xbd94934d	-0.07254658
186	0x3ad3885b	0.001613866
187	0xbe0ace73	-0.13555317
188	0x3d6691f8	0.05629155
189	0x3ccb9f4d	0.024856234
190	0xbe1db0f0	-0.15399528
191	0xbd724a40	-0.05915284
192	0x3dfcad7e	0.123377785
193	0x3da6637d	0.08124445
194	0xbdaa46bc	-0.08314273
195	0xbd0c5da3	-0.034268986
196	0xbc03ef92	-0.0080527235
197	0xbc5666a0	-0.013085991
198	0xbd8f8870	-0.07008445
199	0x3c022698	0.007943772
200	0x3bf8d4da	0.0075937333
201	0x3da4ce6f	0.080471866
202	0x3e064233	0.1311119
203	0xbe146345	-0.14490993
204	0x3d9d6c56	0.07686679
205	0xbe10f000	-0.14154053
206	0x3e1d8d96	0.15386042
207	0x3cdfb496	0.02730779
208	0xbda11c12	-0.07866682
209	0xbd95a121	-0.073061235
210	0xbdefdeff	-0.11712455
211	0x3dd8e738	0.105909765
212	0xbce2308e	-0.027611043
213	0xbdf78809	-0.120864935
214	0xbdc13515	-0.09433953
215	0xbcf5786f	-0.029964654
216	0x3dce7bcb	0.100822054
217	0x3974260e	0.0002328383
218	0xbde316eb	-0.11088356
219	0xbe03682a	-0.12832704
220	0xbe2d3423	-0.1691442
221	0x3b824cb7	0.0039764303
222	0xbe96feb6	-0.29491204
223	0xbd0a7984	-0.033807293
224	0xbd00ad4d	-0.031415273
225	0x3dd875ec	0.10569367
226	0xbe4842d5	-0.19556744
227	0xba48a39a	-0.0007653773
228	0x3db5f8c9	0.08885343
229	0x3a94a014	0.0011339211
230	0xbd137b5b	-0.036006313
231	0x3e910756	0.2832591
232	0xbd7d467b	-0.061834794
233	0xbd28802b	-0.041137855
234	0x3e2bab0a	0.16764465
235	0x3e1f43a6	0.1555315
236	0x3ca3c479	0.019991146
237	0x3e104332	0.14088133
238	0xbc0f3469	-0.008740523
239	0xbdf429f2	-0.11922063
240	0xbdbf6987	-0.093462996
241	0xbdda8310	-0.106695294
242	0x3d7fc709	0.062445674
243	0x3d183d80	0.037168026
244	0xbdc99944	-0.09843686
245	0xbd43c090	-0.047791064
246	0xbd231612	-0.03981597
247	0xbe7c94c3	-0.24666123
248	0xbc5bdf57	-0.013419948
249	0xbe2cdc0d	-0.16880818
250	0x3c307930	0.010771081
251	0x3e2e6617	0.17031132
252	0xbd08723d	-0.03331207
253	0xbe4c74f2	-0.19966486
254	0x3d2eb3c8	0.04265192
255	0xbd1a4e8a	-0.037672557

network_body._body_endoder.seq_layers.4.bias f4 [128]
0	0xbdb9d712	-0.090742245
1	0x3aea09e5	0.0017855732
2	0xbdbe64ae	-0.09296547
3	0xbd11a601	-0.035558704
4	0xbdac9a3b	-0.084278546
5	0xbc3f63a0	-0.011681467
6	0xbc90ca24	-0.017674513
7	0xbd9e4400	-0.07727814
8	0xbd531df6	-0.051542245
9	0xbd213908	-0.03936103
10	0xbdc386e8	-0.09547216
11	0xbdd5025e	-0.10400842
12	0xbcca2f81	-0.024680855
13	0xbdc58aeb	-0.09645637
14	0xbe5d84f7	-0.21632753
15	0x3cef184a	0.029186387
16	0xbddc0bbd	-0.107444264
17	0xbe050366	-0.12989578
18	0xbdabee47	-0.08395057
19	0x3bcf3e4a	0.006324564
20	0xbcb881c4	-0.022522815
21	0xbcaa254e	-0.020769741
22	0x3a3b110e	0.0007136025
23	0xbd740827	-0.059578087
24	0x3b1defe7	0.0024099292
25	0x3d15dfc0	0.036590338
26	0x3cc49e59	0.024001287
27	0xbe32e6c6	-0.17470846
28	0xbd0f6aef	-0.03501409
29	0xbe08ddee	-0.1336591
30	0xbd4c4c7b	-0.049877625
31	0xbd37ec95	-0.044903357
32	0x3b8c194f	0.004275478
33	0xbe1b6531	-0.1517532
34	0xbd765dba	-0.06014798
35	0xbd1aa976	-0.037759267
36	0x3d1d3e01	0.03838921
37	0xbd37a520	-0.04483521
38	0xbd7a40b6	-0.06109687
39	0xbc3f8df2	-0.011691557
40	0x3d1aa31f	0.03775322
41	0xbd92674b	-0.07148608
42	0xbe2857a5	-0.16439684
43	0xbdc9a907	-0.098466925
44	0xbc916af4	-0.017751195
45	0xbde9599f	-0.11394047
46	0xbcbf4fd7	-0.0233535
47	0xbcca3756	-0.02468459
48	0xbdcee88d	-0.10102949
49	0xbd8c1cdc	-0.06841442
50	0xbde660a1	-0.11248899
51	0xbd21adbf	-0.039472338
52	0xbd7cd3f8	-0.061725587
53	0xbdb2becf	-0.087278
54	0xbbc416ed	-0.0059841783
55	0xbd6b5a46	-0.05745914
56	0xbca2e7ae	-0.019885864
57	0x3b22fc19	0.00248695
58	0xbdb5decf	-0.08880388
59	0xbd0c0f6d	-0.0341944
60	0xbda2230d	-0.07916842
61	0xbcfceef3	-0.030875659
62	0xbdec6dbd	-0.115443684
63	0xbda430f0	-0.080171466
64	0xbd8546e4	-0.06507662
65	0xbd5253ea	-0.051349558
66	0xbca70ef7	-0.020392878
67	0xbd961d14	-0.07329765
68	0xbd9fceb1	-0.07803095
69	0xbcd692bd	-0.026193017
70	0x3d114411	0.035465304
71	0xbd067749	-0.032828603
72	0xbe32bf15	-0.17455705
73	0xbcc675d0	-0.0242261
74	0xbd11cbad	-0.03559463
75	0xbb1aace7	-0.0023601593
76	0xbc720510	-0.014771715
77	0xbcbba560	-0.022906005
78	0xb986a5aa	-0.000256819
79	0xbd9db25a	-0.077000335
80	0xbc8b7bc0	-0.017026782
81	0xbd2f9916	-0.042870604
82	0xbd6c27e3	-0.057655226
83	0x3c5e5a9e	0.0135714095
84	0xbd468e49	-0.048475537
85	0xbd8262b1	-0.0636648
86	0xbbd75ecb	-0.0065725795
87	0xbd7e3c39	-0.06206915
88	0xbc4fec70	-0.012690648
89	0xbd95f908	-0.073228896
90	0xbd2a35a9	-0.04155508
91	0xbca39f20	-0.019973338
92	0xbd59fab9	-0.053217623
93	0xbd883d87	-0.066523604
94	0xbd11f599	-0.03563461
95	0xbca13cae	-0.019682255
96	0xbd5fb884	-0.054619327
97	0xbd923c8c	-0.07140455
98	0xbd438280	-0.047731876
99	0xbca4d075	-0.020118931
100	0xbd9da1c6	-0.076968715
101	0xbe27a7f3	-0.16372661
102	0xbd4364f1	-0.047703687
103	0xbdc97891	-0.09837449
104	0xbb5a08c7	-0.0033269392
105	0xbd8b5e18	-0.06805056
106	0xbb55c561	-0.0032618868
107	0xbd9d68ed	-0.07686029
108	0xbcb9b5af	-0.022669641
109	0xbd7d6b83	-0.06187011
110	0xbd6257e9	-0.05525962
111	0x3b5e61cb	0.00339328
112	0xbd5f7a5a	-0.054560043
113	0xb9160231	-0.00014305931
114	0xbc4aff32	-0.012389945
115	0x3c75bac8	0.014998145
116	0xbd900877	-0.070328645
117	0xbc8ef869	-0.017452436
118	0xbc4431df	-0.011974781
119	0xbd920cca	-0.071313456
120	0xbc14cbec	-0.009081822
121	0xbcfb12ad	-0.030648554
122	0xbcf85d60	-0.030317962
123	0xbd52bda1	-0.051450375
124	0xbd5ee1fd	-0.054414738
125	0xbd88cc37	-0.06679576
126	0xbd49cd85	-0.049268264
127	0xbd7860c9	-0.060639177

action_model._continuous_distribution.log_sigma f4 [1, 2]
0	0xbfba0979	-1.4534141
1	0xbfdb8fe7	-1.715329

action_model._continuous_distribution.mu.weight f4 [2, 128]
0	0x3d40498a	0.046945132
1	0xbd6df3a7	-0.058093693
2	0xbc783ab0	-0.015150711
3	0x3cc15464	0.02359981
4	0x3cc749c8	0.024327174
5	0xbd8e07fa	-0.06935115
6	0x3c83059e	0.01599389
7	0x3dfa6979	0.122271486
8	0x3c147243	0.009060445
9	0xbd3a332a	-0.04545895
10	0x3d81bd2a	0.06334908
11	0x3c4fdb23	0.012686524
12	0xbd3f1eb6	-0.046660148
13	0xbceb2990	-0.028706342
14	0xbb78fbfa	-0.0037991987
15	0x3c890e39	0.016730415
16	0x3caf7e9a	0.021422673
17	0x3ddc0ff6	0.10745232
18	0xb817644d	-3.6094618e-05
19	0x3d96d86c	0.07365498
20	0xbc833759	-0.016017603
21	0xbdaa41a6	-0.08313303
22	0x3cb2d192	0.021828447
23	0x3d261684	0.040548816
24	0x3ca882f3	0.020570254
25	0x3d9b772f	0.07591092
26	0x3bbe4242	0.0058062384
27	0xbccf2000	-0.025283813
28	0x3c67b911	0.014143244
29	0xbc06e628	-0.008233584
30	0x3da80f21	0.082060106
31	0xbcf4b8e9	-0.029873328
32	0xbd46f776	-0.04857584
33	0xbc179dc4	-0.009253923
34	0x3c8c3661	0.017115774
35	0x3bf3142b	0.0074181757
36	0xbd5eb9d5	-0.054376442
37	0xbdddc561	-0.10828663
38	0x3d2f4b3c	0.04279636
39	0x3e27b3b1	0.1637714
40	0xbdabd031	-0.08389319
41	0xbc953d76	-0.018217783
42	0xbc68790a	-0.014189014
43	0xbda0d815	-0.078537144
44	0xbd53cd2d	-0.051709343
45	0x3d523a50	0.051325142
46	0xbdb7b692	-0.089703694
47	0x3d4f06b3	0.0505435
48	0x3b9ee27a	0.0048487755
49	0x3dada7be	0.0847926
50	0xbb4ee5ab	-0.0031569998
51	0xbb3bc3ce	-0.0028650644
52	0x3c90ea08	0.01768972
53	0xbd1aacb3	-0.037762355
54	0xbc822143	-0.015885001
55	0x3d2128f0	0.03934568
56	0xbcb9d00d	-0.022682214
57	0x3e10804a	0.14111438
58	0x3d349f23	0.044097077
59	0xbba9d8f4	-0.0051833335
60	0xbb22cc01	-0.0024840834
61	0xbe220db9	-0.15825547
62	0x3e45d1af	0.19318269
63	0x3d7273b5	0.059192378
64	0xbb32ad62	-0.0027263989
65	0xbcba9d59	-0.022780107
66	0xbc968f94	-0.01837901
67	0xbc46fdae	-0.012145443
68	0xbb9db8c6	-0.0048132865
69	0xbd131391	-0.03590733
70	0x3d693c23	0.056942116
71	0xba94ea90	-0.0011361409
72	0xbd248702	-0.040167816
73	0xbd8c02f0	-0.06836498
74	0xbda6ef04	-0.08151057
75	0x3b8a2f16	0.004217039
76	0xbe0dbb94	-0.13841087
77	0x3d90719c	0.07052919
78	0x3ce569fc	0.028004639
79	0xbd09f20f	-0.03367811
80	0x3d4234bb	0.04741357
81	0x3c276c77	0.010218731
82	0xbd31ec8b	-0.043438476
83	0x3bd73f29	0.0065688086
84	0xbcd99f18	-0.02656512
85	0xbd3e12b2	-0.046404548
86	0xbe205f69	-0.15661396
87	0xbd6b8b6d	-0.057506014
88	0x3dedcbb7	0.11611121
89	0xbc428b15	-0.01187398
90	0xbd62b69b	-0.055349927
91	0xbe11fc67	-0.1425644
92	0xbd7e1fb4	-0.062041953
93	0x3db56835	0.088577665
94	0xbd511029	-0.051040802
95	0x3d54d244	0.051958337
96	0xbcb04370	-0.021516532
97	0xbd984c41	-0.07436419
98	0xbc0f5b60	-0.008749813
99	0x3ce029ef	0.027363745
100	0xbd2dab2d	-0.042399574
101	0xbc4d739c	-0.01253977
102	0x3d111ab3	0.035425853
103	0xbc280207	-0.01025439
104	0xbd296133	-0.041352462
105	0xbd586725	-0.05283274
106	0xbd826bf8	-0.0636825
107	0xbc5c6b24	-0.013453279
108	0xbd88c5e5	-0.066783704
109	0xbdcb0750	-0.09913504
110	0x3c95d54d	0.018290186
111	0x3d0b24b1	0.03397054
112	0xbcd0e40b	-0.025499364
113	0xbdb2c80b	-0.087295614
114	0x3bc40a22	0.0059826532
115	0xbd108123	-0.035279404
116	0x3cb3f364	0.021966644
117	0xbcec9c08	-0.028882995
118	0x3c2d216d	0.010567051
119	0xbd0f220d	-0.034944583
120	0xbd8439de	-0.0645635
121	0xbd9d582a	-0.076828316
122	0x3d436bea	0.047710337
123	0x3c2a4fcb	0.010395001
124	0xbc0e2ba1	-0.008677394
125	0x3d6ebe43	0.058286916
126	0x3c48307e	0.012218593
127	0xbc7eddb4	-0.015555788
128	0xbd9c3051	-0.07626403
129	0x3d223fb4	0.039611533
130	0xbb8e1983	-0.0043365373
131	0x3d2e019e	0.04248201
132	0xba7c4190	-0.00096228067
133	0x3ce73000	0.02822113
134	0x3d95699b	0.07295533
135	0x3dad809d	0.08471797
136	0xbd17ba5f	-0.03704297
137	0x3c65982f	0.014013334
138	0xbd61977f	-0.05507612
139	0xbc981346	-0.018563878
140	0xbdaa2a44	-0.08308843
141	0x3d937512	0.07200064
142	0x3b03df0d	0.0020121962
143	0xbdc46408	-0.09589392
144	0x3cb17191	0.021660598
145	0xbe2d295b	-0.16910307
146	0x3e05eaa0	0.13077784
147	0xbd23c7d5	-0.039985497
148	0x3b2177aa	0.0024637976
149	0x3daac1be	0.08337735
150	0x3c992121	0.018692555
151	0xba8c06cb	-0.0010683177
152	0xbd0f34be	-0.03496241
153	0x3d2cb406	0.04216387
154	0x3def8004	0.11694339
155	0xbb43c2ac	-0.0029870672
156	0xbcec3d97	-0.028837962
157	0x3ca31d72	0.019911502
158	0x3bdcbdb7	0.006736483
159	0x3c726610	0.014794841
160	0x3d12fff2	0.03588862
161	0xbbc4c6ea	-0.0060051577
162	0xbce05ecc	-0.027388953
163	0x3ddf0dfc	0.10891339
164	0x3bf46939	0.0074588326
165	0x3d8bc14f	0.0682398
166	0xbca32949	-0.019917147
167	0x3dc33836	0.09532206
168	0xbc85cfec	-0.016334496
169	0x3c0801a1	0.00830117
170	0xbdae28f4	-0.08503905
171	0xbc5c3697	-0.01344075
172	0x3c853f29	0.016265469
173	0x3cfc53dd	0.030801708
174	0x3c7625e7	0.015023685
175	0xbc11e014	-0.008903522
176	0x3d4d0c84	0.050060764
177	0x3d72d418	0.0592843
178	0xbca9f611	-0.020747216
179	0x3db6a668	0.08918458
180	0xbd1ae47c	-0.037815556
181	0xbc16c69b	-0.009202625
182	0x3d8a6dac	0.067591995
183	0xbd5cd08d	-0.053909827
184	0x3d3c2c20	0.04594052
185	0xbba29dd3	-0.004962662
186	0xbc16be62	-0.009200664
187	0x3d949d92	0.07256617
188	0xbd403ee1	-0.046934966
189	0xbd23fb60	-0.04003465
190	0x3ce213ad	0.027597273
191	0x3bb323cc	0.005466914
192	0xbd53d09b	-0.051712614
193	0x3d1f2b2f	0.038859542
194	0xbc550750	-0.013002232
195	0xbd6d2f2d	-0.05790632
196	0x3c5236ef	0.01283048
197	0xbc1e3af6	-0.009657612
198	0x3d64cd19	0.05585966
199	0xbd5bacb8	-0.053631514
200	0xbd047df5	-0.032346684
201	0x3d6db8a0	0.0580374
202	0x3cd3e2c9	0.025864976
203	0xbe1dad60	-0.15398169
204	0xbd935118	-0.07193202
205	0x3d1996d1	0.037497345
206	0xbd0bd389	-0.034137283
207	0x3d329db3	0.043607425
208	0x3c05fe78	0.008178346
209	0xbe42213b	-0.18957989
210	0xbb17ebb9	-0.0023181273
211	0xbb462de9	-0.0030239767
212	0xbd753ccf	-0.059872445
213	0x3c6e3626	0.014539277
214	0xbd308128	-0.043091923
215	0x3d12c46e	0.03583186
216	0x3d833670	0.064068675
217	0xbd20b2d5	-0.039233048
218	0x3cafda15	0.021466294
219	0xbdebe0f6	-0.11517517
220	0xbc932810	-0.01796344
221	0xbc2e493c	-0.010637578
222	0x3d880399	0.06641311
223	0xbd1e7e7c	-0.038694844
224	0xbdbf0b5e	-0.0932834
225	0x3d518027	0.051147606
226	0x3c74a73d	0.014932451
227	0x3d8d470d	0.068983175
228	0xbd2eb73e	-0.042655222
229	0x39d2de9b	0.00040220175
230	0x3d0bd524	0.034138814
231	0xbd7bd75e	-0.061484687
232	0x3d58a257	0.052889194
233	0xbbecd454	-0.00722746
234	0xbd0a1edd	-0.03372084
235	0xbc8ba19b	-0.017044833
236	0x3d0e89f9	0.03479955
237	0x3dc613a9	0.096717186
238	0x3c50cc85	0.012744074
239	0xbd5245b9	-0.051336024
240	0x3cbfb4df	0.023401676
241	0x3d62d2ab	0.05537669
242	0xbd31f8d7	-0.043450203
243	0xbceee5f1	-0.029162379
244	0x3cb847c9	0.022495167
245	0xbd28332c	-0.041064426
246	0xbcf1f7f2	-0.029537175
247	0xbce97940	-0.0285002
248	0xbdcc8657	-0.09986561
249	0x3ce4fdae	0.027952995
250	0xbcf25b66	-0.029584598
251	0xbbda1f54	-0.0066565666
252	0x3d62c974	0.055367902
253	0x3de72ff3	0.112884425
254	0x3b02946d	0.0019924894
255	0xbc825203	-0.015908247

action_model._continuous_distribution.mu.bias f4 [2]
0	0x3c6a0758	0.014283977
1	0xbd448e60	-0.047987342

exp_avg f4 [128, 8]
0	0x3b5ba771	0.003351655
1	0x3902430b	0.00012422742
2	0xba10973a	-0.00055156986
3	0x3c11eb14	0.008906145
4	0x39014bff	0.0001233071
5	0xbb42cb43	-0.0029723204
6	0x396db032	0.00022667719
7	0x3b206d4e	0.0024479213
8	0x3a7133b6	0.0009201126
9	0x380f0a5c	3.4103505e-05
10	0xb91ec663	-0.00015141959
11	0x3a4610d7	0.000755561
12	0x380f1bed	3.4119865e-05
13	0x38cfce19	9.908918e-05
14	0xb9219588	-0.00015409861
15	0x37044d52	7.885816e-06
16	0x3d99f2ad	0.0751699
17	0x3b369793	0.0027861341
18	0xbc4aad5f	-0.012370436
19	0x3d960e1d	0.07326911
20	0x3b369570	0.0027860068
21	0xbd9bdc2b	-0.07610353
22	0x39c959e0	0.0003840467
23	0xbad579c1	-0.0016286896
24	0x3c5ba767	0.013406611
25	0x3a024303	0.0004969092
26	0xbb109731	-0.0022062773
27	0x3cad4be1	0.021154346
28	0x3a024a51	0.00049701805
29	0xbc5118e4	-0.012762282
30	0x39f33de5	0.00046394687
31	0xbaa05f24	-0.0012235385
32	0x3c6a6260	0.014305681
33	0x3a0aff53	0.00053023285
34	0xbb1a497e	-0.002354234
35	0x3c459037	0.012058309
36	0x3a0adf03	0.00052975136
37	0xbca373b6	-0.019952636
38	0x3a8c400b	0.0010700239
39	0xba0342c8	-0.00050072046
40	0x3822e805	3.8839895e-05
41	0x35c13796	1.4395798e-06
42	0xb6d6789b	-6.3917373e-06
43	0x372bd33b	1.0241575e-05
44	0x35c13ee1	1.4397921e-06
45	0xb89057c8	-6.8828056e-05
46	0xb6be0fc1	-5.6642752e-06
47	0xb5338cb6	-6.688746e-07
48	0xbbbb0dbc	-0.0057084244
49	0xb95ddb88	-0.00021157984
50	0x3a76430b	0.00093941455
51	0xbb4308f8	-0.0029759984
52	0xb95dcc4e	-0.00021152312
53	0x3bc97a86	0.006148639
54	0x38a23389	7.734361e-05
55	0xb6350200	-2.6972266e-06
56	0x397dbfb1	0.00024199371
57	0x37167b2f	8.969378e-06
58	0xb82708bc	-3.9824037e-05
59	0x38a2c28d	7.761e-05
60	0x371663a8	8.9639e-06
61	0xb9aadfbe	-0.00032591628
62	0x379851c6	1.815789e-05
63	0x387c3656	6.0132086e-05
64	0x3c28a9ad	0.01029436
65	0x39c80b7b	0.00038155526
66	0xbade0cbc	-0.0016941051
67	0x3b4e01c3	0.0031434156
68	0x39c80a3f	0.00038154607
69	0xbaa2dfb8	-0.0012426293
70	0xba9ce44a	-0.0011969891
71	0xb7cc2904	-2.4337794e-05
72	0xbabc6a03	-0.0014374856
73	0xb85f7897	-5.327965e-05
74	0x39780d96	0.00023656184
75	0xb8ffa59a	-0.00012190193
76	0xb85f7599	-5.3276864e-05
77	0xbad0e8cb	-0.0015938518
78	0x3988d794	0.0002610056
79	0xb6b6d0ba	-5.4483216e-06
80	0x3c95a300	0.018266201
81	0x3a317a8a	0.0006770274
82	0xbb450059	-0.0030060022
83	0x3c826876	0.015918951
84	0x3a318223	0.0006771406
85	0xbc9af9db	-0.018917968
86	0x3910aaeb	0.00013796582
87	0xb94a36cb	-0.00019284633
88	0xbb21f2e3	-0.0024711422
89	0xb8c014ef	-9.1591726e-05
90	0x39d535f8	0.00040666736
91	0xbac0c12a	-0.0014706005
92	0xb8c00665	-9.1564645e-05
93	0x3b50d8c7	0.003186749
94	0x3934c2bb	0.0001723868
95	0xb79452d7	-1.768155e-05
96	0x3c3baadb	0.011454309
97	0x39de95e5	0.0004245482
98	0xbaf711e7	-0.001884994
99	0x3b94d861	0.004542396
100	0x39de97da	0.00042456278
101	0xbc3864ee	-0.011254532
102	0x39a128e8	0.0003073879
103	0xba1ec41f	-0.0006056446
104	0x3d2321f4	0.039827302
105	0x3ac17c57	0.0014761788
106	0xbbd6c4e4	-0.006554233
107	0x3d275578	0.040852994
108	0x3ac17098	0.0014758287
109	0xbd08dc48	-0.0334132
110	0xba416dcc	-0.0007378727
111	0xba884531	-0.0010396597
112	0x3c82cee3	0.015967792
113	0x3a1b2596	0.00059183815
114	0xbb2c3689	-0.0026277623
115	0x3c2bccc5	0.010485833
116	0x3a1b1957	0.00059165567
117	0xbc3713b4	-0.011174131
118	0xb9d07d5a	-0.00039766246
119	0xba1378e2	-0.0005625618
120	0xba0b9e73	-0.000532604
121	0xb7a598d1	-1.9740693e-05
122	0x38b7cff4	8.764854e-05
123	0x3a1bd7a4	0.0005944914
124	0xb7a65561	-1.98285e-05
125	0x3c8f5e8b	0.017501136
126	0xbafd3cd5	-0.0019320498
127	0x39ea035b	0.00044634458
128	0xbcfb9d59	-0.030714678
129	0xba95372e	-0.0011384243
130	0x3ba5a117	0.005054604
131	0xbced2697	-0.028949065
132	0xba952b54	-0.0011380711
133	0x3ca33218	0.019921347
134	0x3ac31ae5	0.0014885335
135	0x3a0e1222	0.0005419572
136	0xb943326a	-0.0001861543
137	0xb6e78416	-6.8997133e-06
138	0x38007dca	3.063473e-05
139	0x3823a0ef	3.901211e-05
140	0xb6e7878a	-6.9001153e-06
141	0x387f9e35	6.094408e-05
142	0x379032af	1.7189739e-05
143	0x376a5883	1.3968095e-05
144	0x3887df97	6.4789485e-05
145	0x3621278e	2.4013893e-06
146	0xb732e19d	-1.06621565e-05
147	0x3892a13c	6.991855e-05
148	0x36212702	2.4013575e-06
149	0xb84756fc	-4.7526308e-05
150	0x373a89cc	1.1118547e-05
151	0x37dd7d56	2.6403617e-05
152	0xbb1c5339	-0.0023853316
153	0xb8b9695d	-8.841113e-05
154	0x39cdce8c	0.00039254536
155	0xbbff260f	-0.0077865194
156	0xb8b8ed14	-8.817963e-05
157	0x3af9f8c6	0.0019071333
158	0x39247c7b	0.00015686631
159	0xba86373e	-0.0010239852
160	0x3a9cf237	0.0011974041
161	0x383a25f2	4.4381195e-05
162	0xb94e9fdd	-0.00019705245
163	0x3ab84f25	0.0014061673
164	0x383969a0	4.4205808e-05
165	0xbace1961	-0.0015724116
166	0x3896c805	7.189814e-05
167	0x3881d1a8	6.190251e-05
168	0x3c41cc8a	0.011828551
169	0x39e5dba3	0.00043841926
170	0xbaff2470	-0.0019465815
171	0x3c3bf100	0.011471033
172	0x39e60a42	0.0004387666
173	0x3b270e44	0.002549068
174	0xbaf80d72	-0.0018924905
175	0x3a7d26fc	0.0009656993
176	0xbb715240	-0.0036822706
177	0xb90f1c7a	-0.00013648151
178	0x3a1eda7d	0.0006059779
179	0xbb383021	-0.002810486
180	0xb90f2057	-0.0001364959
181	0x3c0be3f9	0.00853824
182	0xb87a75fc	-5.9714526e-05
183	0x38bea18d	9.089997e-05
184	0xbc90cffd	-0.017677302
185	0xba2bc1c2	-0.00065520045
186	0x3b3ea66f	0.0029090901
187	0xbccf69e4	-0.025319047
188	0xba2bbb66	-0.0006551057
189	0x3c9c5577	0.019083722
190	0xb9f51f4c	-0.0004675336
191	0xba8264c0	-0.0009948239
192	0x3c0ed165	0.008716916
193	0x39a96420	0.0003230879
194	0xbabc062d	-0.0014345102
195	0x3c52194a	0.012823412
196	0x39a92c4a	0.0003226719
197	0xba2c6cc8	-0.0006577489
198	0xb9c5aede	-0.00037705054
199	0x3a91a471	0.001111163
200	0xbd57aeac	-0.052656814
201	0xbaffd020	-0.0019516982
202	0x3c0df9e7	0.008665538
203	0xbd685b23	-0.05672754
204	0xbaffd1b0	-0.0019517448
205	0x3d56b2de	0.052416675
206	0xbaa888c9	-0.0012858148
207	0x39b0f73c	0.0003375354
208	0x382e65e9	4.1579744e-05
209	0x35ced8e3	1.5411318e-06
210	0xb6e599b7	-6.8426266e-06
211	0x35d2d180	1.5707192e-06
212	0x35ceddb3	1.5412719e-06
213	0xb8938ce3	-7.0357484e-05
214	0xb324f229	-3.840447e-08
215	0x34896e70	2.5598592e-07
216	0x3c22cae9	0.009936073
217	0x39c11518	0.00036827545
218	0xbad6524d	-0.0016351432
219	0x3c3860c4	0.0112535395
220	0x39c086d4	0.00036721549
221	0xbc6387de	-0.013887374
222	0x3a3c9fdf	0.00071954535
223	0xba9b7b1b	-0.001186225
224	0xbc42151a	-0.011845851
225	0xb9e631bb	-0.0004390607
226	0x3aff83fd	0.0019494292
227	0xbc55b777	-0.01304423
228	0xb9e6349f	-0.00043908224
229	0x3ba6fd44	0.0050961096
230	0x3a1adcb3	0.00059075205
231	0xbab72dd4	-0.001397545
232	0xbd0e6c7c	-0.034771428
233	0xbaa8ec76	-0.0012887854
234	0x3bbb8157	0.0057222056
235	0xbcf93d29	-0.030424671
236	0xbaa8ef0d	-0.0012888625
237	0x3cdbeb93	0.026845729
238	0x3a5335f5	0.00080570515
239	0x3ae83c77	0.0017718215
240	0xbc8b607c	-0.01701378
241	0xba254f54	-0.00063060713
242	0x3b377e75	0.0027998958
243	0xbca6e362	-0.020372096
244	0xba2534ef	-0.0006302138
245	0x3c6638a0	0.014051586
246	0x398f4463	0.00027326038
247	0xba6f885a	-0.00091374444
248	0x3cc79a62	0.024365608
249	0x3a6cbdf4	0.0009030991
250	0xbb83644c	-0.004009759
251	0x3ccb48c7	0.024814976
252	0x3a6c8a61	0.00090233056
253	0xbcb6a705	-0.022296438
254	0xb923bcf0	-0.00015615276
255	0xb9a551e5	-0.0003153227
