mlagents/Assets/results/testdia2enero/RollerBall/RollerBall-16262.onnx (onnx, 155754 bytes, 9 tensors)

action_model._continuous_distribution.log_sigma f4 [1, 2]
00000000: 82d8 adbd c279 fc3b
-0.08488561 0.0077049443

action_model._continuous_distribution.mu.bias f4 [2]
00000000: 6715 2d3a 573d 363c
0.00066026155 0.011123023

action_model._continuous_distribution.mu.weight f4 [2, 128]
00000000: 9454 bf3b dff3 ddbc e44a 413b d41b cfbb
00000010: ef4f d3bc 3550 d33b 3771 c3bb 0601 d3bc
00000020: daed 753b 0ab7 55bc 326e 58bb 2b2d 9739
00000030: cb72 aa3c ffad f33b fb47 f03b 1494 63bc
00000040: fdf0 30bc d887 ce3a fdb1 18bd 0b30 823a
00000050: 8bf3 babb c154 183d 37c0 583b d3cc d63c
00000060: 7d63 3d3c c65f 0ebb f1b2 8a3c 2a87 b23a
00000070: 7d52 f43b a9bf 683b a0de b039 9291 39bc
00000080: b76f c7bc 1243 453c 048e 8a3c f745 5bbc
00000090: 14d4 bebc df63 a13b 3d23 0cbc 34f0 48b8
000000a0: 323b 38bd fead 273c 4149 e1ba 158f de3b
000000b0: 5f23 e23c b853 2f3b f1ba 533c 3590 85bc
000000c0: 9e44 e5bc 4b6a 123d f92c dcbb b60d b0ba
000000d0: 83c7 7fbb 8298 a03b 0f39 6b3c 092a fbbb
000000e0: 3cf6 bcbc 9381 403c f505 033d 95c5 503a
000000f0: 04cd 26ba dfc0 25bc 5c37 58bb e7a2 143c
00000100: a791 dc3b d6d3 873c 78d8 bb3b 1b1c 3f3b
00000110: 1012 d8bc 5a20 033b ca20 2a3a 3d27 2bbc
00000120: e8af c83b e0b9 9d3b 2812 6cbb cf56 db3b
00000130: 4d5d 47bc 8511 e0bc 9a70 433c 18c2 2bbd
00000140: 54f8 74bc ba73 e73b 1c95 193c dcb3 863b
00000150: 7950 d7bc b32f 393c 0a2d 0ebc 9e84 57bc
00000160: 4781 973b 7c75 53bd 38fb 03bd 22c1 733c
00000170: 806d 77bc 5657 c53c 07c4 093d ec64 ccbc
00000180: aa87 d8bb 7cc9 fabc 7ddd 21bc 35f2 e0ba
00000190: ac13 90bc faa2 b53c 8687 63bc b592 35bd
000001a0: 897e b3bc 701d ffba 29ea ccbc 72ef 1dba
000001b0: 1441 3dbd ff02 83bc e02a 8d3b e309 dc3b
000001c0: d3ca 27bc 787d dfbb 92a2 b83a 27da 63bc
000001d0: d40f 02bd 2772 8dbc a91a 17bd 5e47 8abc
000001e0: 6394 19bd 624b 1cbc 2838 aa3c a27b d83b
000001f0: dd6a df3c ced8 213c 2674 1fbc 5a36 0ebc
00000200: 8385 583c 6eb4 e33c df78 aebb c431 c4bc
00000210: 1fac e2bb 3dc2 a13b d864 5fbb f4cc 163c
00000220: 8053 aabb a926 02bc f61f 0bbd 1eb6 263b
00000230: c196 9a3c 2817 363b 5a9b d83b 8399 b13b
00000240: 23a5 d1b9 ded4 4b3d 72f4 f9bc 5586 333d
00000250: 0329 a5bb 8b4b 91bb ec57 0236 fd2e 0bbc
00000260: 6b0d f03b 25e6 f33c c4a9 d7bc 3a14 763d
00000270: ff36 88bc 7def 84bc 2096 e93c 4bb7 af3c
00000280: c94c 143c 6795 363c 19c0 d13b e563 acbb
00000290: 3168 3bbd 91de 4fbd 02db 94bc 6d8b 9cbb
000002a0: 93dd 10bc c9eb 01bd 9173 083d ab23 bdbc
000002b0: b643 09bd 2f87 b6bb d19e c63b 0066 97bc
000002c0: f99d 943b db25 b7bc af18 51bc 0e9a 07bd
000002d0: cbc9 85bc 6a50 2ebc b8ff a53b 42ed cebc
000002e0: f796 d2bc b285 08bb 43f8 16bb 27ec 52bc
000002f0: 415c f0bc 1917 24bd c6e3 003d 5945 abbc
00000300: bd20 b5bc 9b96 793c 8794 553c 785a 71bc
00000310: 299c cbbc b58c b23c 3204 383d a259 b3bc
00000320: f612 6ebd 1423 fe3b c23b 6f3c 4d4c 4dbc
00000330: a665 8ebc bb3f b0bc 6048 22bc 2da4 003d
00000340: ed7f 52bc 82ad 31bb 9d45 e2bc 8067 18bd
00000350: c1e7 c5bc 2175 3a3b 7c38 0bbc 7374 5cbd
00000360: 285d af3c d291 c53b 9209 2e3c 5f1a 8e3c
00000370: d152 01bb 5e10 053c 103a 1fbd 7840 893c
00000380: ee48 a7bb 363c afbc bb70 3bbd 7fcc 89bc
00000390: 60c5 0cbd 0631 353b 66ef 7a3c 5c48 5f3c
000003a0: 4da0 c3bc 1762 b6bb 787f ca3c 3b96 d2bb
000003b0: 1995 81bc 918b 0fbd 989c d7bb df97 f33c
000003c0: 04be 513c 99b8 75bc e457 25bc e599 30bd
000003d0: 60a8 07bd 7cbf 81bc 406e 1fbd e7e4 80bc
000003e0: 0135 39bd 7bb3 40bc b29a 72bc 4c54 cabc
000003f0: c487 34bd bd5e dcbb a52f 043c 42b9 02bc
0.00583894 -0.027093826 0.0029494101 -0.006320456 -0.025794951 0.0064487704 -0.005964424 -0.025757324
0.0037525804 -0.013044128 -0.0033024666 0.00028834617 0.02080669 0.0074365134 0.0073327995 -0.013890285
-0.010799644 0.0015757037 -0.037279118 0.0009932531 -0.005705302 0.037190203 0.0033073553 0.026220715
0.011559364 -0.0021724566 0.016931029 0.0013620604 0.0074561224 0.003551463 0.00033735204 -0.011326211
-0.024345262 0.012039917 0.016913421 -0.01338338 -0.023294486 0.0049252356 -0.008553323 -4.7907422e-05
-0.044978328 0.010234354 -0.0017187969 0.006791959 0.027604757 0.002675278 0.012922988 -0.016304115
-0.02798682 0.0357459 -0.0067192283 -0.001343182 -0.003902883 0.004900993 0.014356866 -0.007664923
-0.023066632 0.011749643 0.031988103 0.00079640123 -0.0006362947 -0.010116785 -0.003299198 0.009072042
0.0067312303 0.016580503 0.005732592 0.002916104 -0.0263758 0.0020008297 0.00064898713 -0.010446367
0.0061244853 0.004813418 -0.0036021564 0.006693698 -0.012168241 -0.027352104 0.011928702 -0.04193315
-0.014951784 0.007063356 0.009373929 0.0041107964 -0.02628349 0.011302876 -0.00867773 -0.013154177
0.0046235654 -0.051625714 -0.032222003 0.014877589 -0.01510179 0.024089497 0.033634212 -0.024950467
-0.0066079693 -0.030613653 -0.009879467 -0.0017162027 -0.017587505 0.02217244 -0.013887292 -0.044329364
-0.021910923 -0.0019463729 -0.025014 -0.0006024755 -0.04620464 -0.01599264 0.0043080896 0.006715046
-0.010241228 -0.006820377 0.0014086536 -0.013906992 -0.031753376 -0.017266346 -0.03689066 -0.016879734
-0.03749503 -0.009539457 0.02077873 0.006606535 0.027272636 0.00987835 -0.009732282 -0.008679951
0.013215425 0.027795997 -0.0053244676 -0.023949511 -0.006917491 0.004936485 -0.0034087207 0.009204138
-0.0051979423 -0.007943788 -0.033966027 0.002543814 0.018870713 0.0027784798 0.006610316 0.0054199114
-0.00039986623 0.049763553 -0.030512068 0.04382928 -0.0050402894 -0.0044340543 1.9422687e-06 -0.00849509
0.0073258183 0.029772827 -0.026326068 0.060077883 -0.016627787 -0.016227478 0.028513968 0.021449706
0.00905151 0.011144019 0.0064010737 -0.005260932 -0.04575366 -0.050749365 -0.018170837 -0.004777363
-0.00884189 -0.031719003 0.033313338 -0.023088297 -0.03351184 -0.0055703144 0.006061413 -0.018481255
0.0045354334 -0.022356918 -0.012762233 -0.033105902 -0.016331574 -0.010639289 0.0050658844 -0.025259618
-0.025706751 -0.0020831642 -0.002303616 -0.012873686 -0.029340865 -0.04006109 0.03146722 -0.020907091
-0.022110337 0.015233661 0.0130359 -0.014731042 -0.024854736 0.02179561 0.044925876 -0.021893326
-0.05812355 0.0077556465 0.01460165 -0.012530399 -0.017382454 -0.021514764 -0.009904951 0.03140657
-0.012847883 -0.0027111475 -0.027621085 -0.03720808 -0.02415836 0.0028451162 -0.008497354 -0.053821992
0.021406725 0.006029346 0.010622399 0.01734656 -0.00197332 0.008121578 -0.038873732 0.016754374
-0.0051051294 -0.021391015 -0.045761805 -0.016821144 -0.03436792 0.0027647628 0.015315866 0.013628092
-0.023880148 -0.0055658924 0.024718985 -0.0064266003 -0.015818166 -0.03504521 -0.0065799467 0.029735504
0.012801651 -0.014997625 -0.010091756 -0.043115515 -0.03311956 -0.015838377 -0.038923502 -0.01573415
-0.045216564 -0.0117615415 -0.01480739 -0.024698399 -0.04407479 -0.006725161 0.008068 -0.007978739

network_body._body_endoder.seq_layers.0.bias f4 [128]
00000000: 0e58 91bc cfd6 573b ecea 43bc b188 38bc
00000010: 2e6e 11bd 1008 9dbc fd8c 133c 7b86 b8bc
00000020: ad48 553c 9fdf babb 4d82 51bc a40f 273c
00000030: 9978 23bc 9c9f 9d3b fa01 51bc e823 e53b
00000040: 986c eabc 2f55 54bc ad51 143c c147 9c38
00000050: 831e 27bc 5c96 30bc 82e9 70bb ecb9 283c
00000060: 1128 0dbc b38e 95bc 58e7 6dbc fc46 2c3d
00000070: fb0c 943c c63a 49bc d336 873a 9006 b4bb
00000080: f986 10bd ddcd a9bb 054b 32bc 360e dc3c
00000090: 9451 4a3d 718c 443c 5111 0fbc e31e 97bc
000000a0: 21f5 cbba b66e ce3c 13b1 a73c 12ba 0aba
000000b0: b609 85bc 6ef1 3abb 8c04 00bc da32 ea3c
000000c0: 4161 4ebc e337 c53a 31c9 0cbc 2e5b 19bb
000000d0: 18ac 373d b67b cebc 97d4 0e3d 3996 723c
000000e0: a951 ecbb 93b8 6dbb b41d 48bc ac2b 72bc
000000f0: 46a8 fc3b 2230 653c 3ea6 4fbc c2b6 e03c
00000100: ffca 223c 9483 61bc 6de7 0a3c 1e62 473c
00000110: 1dbc 96bc db03 36ba baeb 043c 73d8 0abc
00000120: fac7 aabb 3870 153c e0c8 4739 82a5 1e3c
00000130: 4230 b63b 7933 223c ece4 3abc 8fe0 30bc
00000140: 1e30 3bbc ccb1 46bb 830a b1bc 8fc9 a2bc
00000150: 9078 53bc d153 e7bb 369c 843b c91e 55bd
00000160: 8775 ab3b 1878 81bc e677 183c 52aa 14bc
00000170: 0680 86bc 033d 693c 7c1a 10bc e2b9 273d
00000180: d6eb 36b8 c161 56bc 5873 f7bb 814b 2d3c
00000190: d184 bfbb 3667 f8bb 0537 b2bc 4db1 02bc
000001a0: 75d5 8dbc 6718 10bc 4843 8ab7 9ac7 96ba
000001b0: 19fc 52bc c814 76bc 4d61 a03a 0522 f838
000001c0: 4226 10bc 7222 29bc 3431 4cbc 3a0d 443c
000001d0: caa7 b13c b9aa 303b 64cd febb 37d6 8bbb
000001e0: ed2e a3bc 6191 073d 664a f3bc 1b9e c93c
000001f0: cd4a 95bb 8ec0 68bc 55be 3aba 219d 7a3c
-0.017742183 0.0032934432 -0.011957865 -0.0112630585 -0.035505466 -0.019168884 0.009005782 -0.022525063
0.013017816 -0.0057029272 -0.012787414 0.0101966 -0.009977483 0.0048102867 -0.012756819 0.0069928057
-0.028616235 -0.0129597625 0.009052676 7.452025e-05 -0.010200146 -0.010778036 -0.0036760275 0.0102982335
-0.00861551 -0.01825652 -0.014520489 0.042059883 0.018072596 -0.012282079 0.0010316022 -0.0054939464
-0.03528497 -0.0051820115 -0.010882144 0.026862245 0.049394205 0.011996374 -0.008732156 -0.018447345
-0.0015560725 0.025199275 0.020470178 -0.0005292009 -0.016239982 -0.002852525 -0.007813584 0.028588701
-0.012596429 0.0015046563 -0.00859289 -0.0023400295 0.044841856 -0.025205474 0.03487071 0.014806324
-0.007211883 -0.0036273345 -0.012214113 -0.01478092 0.0077104894 0.013988527 -0.012673913 0.027430896
0.009936093 -0.013764281 0.008478028 0.012169389 -0.018400246 -0.00069433235 0.008112842 -0.008474457
-0.0052118273 0.009120993 0.0001905295 0.009683015 0.005559952 0.009899967 -0.011407118 -0.010795726
-0.011425046 -0.0030318378 -0.021611458 -0.019871501 -0.012907162 -0.0070595522 0.004046942 -0.052031312
0.005232516 -0.015804335 0.00930593 -0.009073811 -0.016418468 0.014235738 -0.008795377 0.040948756
-4.361182e-05 -0.01308483 -0.007551592 0.010577084 -0.0058446904 -0.007580663 -0.021754751 -0.007976842
-0.017313698 -0.0087948805 -1.6482212e-05 -0.0011503578 -0.012877488 -0.015019603 0.0012236029 0.00011831898
-0.008798184 -0.010323154 -0.012462903 0.011966044 0.021686453 0.0026957227 -0.0077759493 -0.0042674798
-0.019919837 0.03309763 -0.029698562 0.024611523 -0.004556036 -0.014206065 -0.00071236986 0.0152962515

network_body._body_endoder.seq_layers.0.weight f4 [128, 39]
00000000: 73e6 20be 3217 313d b7bc 9cbe 4823 a13d
00000010: c323 2fbe f151 b53b dd85 8fbe 4fe8 7dbd
00000020: 5696 12bf 91c7 df3c c658 ee3e 2f52 41be
00000030: 3ce6 bfbe 41e4 b3bd 110a 0fbb 100c 56be
00000040: 02f1 a53d 8ff9 a23c 1fa0 633d 0a49 34bd
00000050: 1cff e7bd c034 9bbc dc1d 1a3d b450 70bd
00000060: a3e5 e53d 6e51 88be 8084 c93c a7f8 f23d
00000070: 2738 9d3e 5ec5 a73e 0bb1 fa3c bea1 e03d
00000080: f0d4 d33c 7629 883e 9dea d6bd 57ad c1bd
00000090: 454c 983e 39ad b5bd 281c ce3b faae ffbd
000000a0: 2d5f bc3d b99a 2abe 6e98 83be 3169 66bd
000000b0: 9901 8fbe b3cf 1bbe c76f 2abe fa28 7f3d
000000c0: 75bd ebbc 24ac dc3d 6ce3 2b3e 428f ab3b
000000d0: 5f48 94be fba6 bc3d 4392 2f3e c64a 25be
000000e0: 471a cdbd e7e8 ec3d e5b8 0b3e 73cb 57be
000000f0: 0365 623e 63e4 303e a032 24be b44c 01bd
00000100: 2ac8 0dbe a04e 5cbe 38d7 2d3e f4e5 0fbe
00000110: 81ad dc3e 2d66 583d 947a 17be f5ac e9bd
00000120: adc6 b2bd 75ef ce3c 4c09 193e 354e 103c
00000130: bbe0 a53e 2d84 0ebe ab57 c7bd 14a7 033e
00000140: e6ae ddbe 0a5e 003e 82d5 b13e 4cec be3d
00000150: e848 553e 1f0a 523e 7acf c5bd 4b60 b63e
00000160: 4563 53be dcf5 b3bd eb5a 3bbe 4de7 df3d
00000170: 39a9 9a3d 2e14 59be fc25 8f3e 1fea f73c
00000180: e3f3 c53e e418 b53d 1488 743e 4106 403e
00000190: 2044 283e 29be 883b 4a5c 89bc b391 e33c
000001a0: 4087 49be 9c6c 7abe 1c69 ad3e b8be 1b3e
000001b0: 1bd9 24be 6e3a 88bd 7a6e d13d ec84 a2be
000001c0: b0a8 663d 53d0 fd3c bb71 553e 3e4c 9f3e
000001d0: 6782 963e a7f1 223e f1d5 74be 51ee 8bbe
000001e0: 7706 6c3e 9518 593c ad54 813d ef1d b43d
000001f0: 7f1a b13e 87fb fbbd 626a 31bd 0b28 793e
00000200: 98a6 783e d530 a43c 025b c3bd 4807 3bbc
00000210: 384d ab3e e05d 3fbe a700 4fbe 4c64 1e3e
00000220: c454 8cbe f2bd 44bd f72b 143e 6338 723d
00000230: 6c4c 45be 00dc c9bd 81db 273e 3261 d23d
00000240: 6601 a6bd e41a 13be 74c5 57bd 16be 1cbe
00000250: 15fc 25be f8ea 6c3e 2272 273d c4d7 143e
00000260: c2d1 6b3e 0ea3 86be aeed 55bd ac6b e03d
00000270: 952e 233d 0f40 863e 2c64 b03e 4a24 933d
00000280: 64e7 6b3e d356 2a3d 1257 47be 357a cbbd
00000290: f8fd 093e 838f 033d 916a b0be be0e f23d
000002a0: e7f0 1fbd d06b 173e ceed cabb 10ec 6e3b
000002b0: 9741 bfbd 3ad7 90bd e4c2 6c3e fb00 a2bc
000002c0: 2198 0ebd 06c1 843d a55d adbb 6722 113e
000002d0: dfd2 b43e 898c 03be ddd6 d1bc 29ec 79bd
000002e0: 3050 86be d721 db3d 10e7 2fbe 163c 8fbe
000002f0: c93e 83be 912d 4c3e 408f f6bb 7be5 ce3d
00000300: 852b 9bbc 2152 db3a 4466 07be 8efd a53d
00000310: e13a 10be 9be3 223e 3db2 3f3e f2bd 303e
00000320: f441 d4bd ceb9 98be 0f59 8f3d 07b6 8fbd
00000330: e8f2 0ebe 95f7 9d3b 0c81 b33e 8edf c7bc
00000340: f0bc 85bd fc22 2dbe a988 e2bb 7e6f a2bd
00000350: f1ce ba3c b5bf ad3e 0fb7 97be fa3c 483c
00000360: 792a 1dbc d16c 95bd 2a55 44bd 8a31 65bd
00000370: 289b 9dbd 3896 aabd 023e 183c c8f3 e8bd
00000380: 57af 5bbe dde5 70be f610 273e 4023 a5bd
00000390: 0440 9abe 79dc bfbe 8974 383c 18c1 523e
000003a0: 28f9 82be 3d95 1f3e 78c7 15bc d661 5e3e
000003b0: 30f3 a43d a8d3 46bd 384e 243e 4f0d 3a3e
000003c0: 2b2f 02be e995 603e e176 be3e 0566 c2bc
000003d0: 37a3 973d 4107 17bd c753 04bd 93cc af3e
000003e0: 83b8 4f3d 40e4 4c3e c5f2 303c d194 f0bd
000003f0: 92a7 733e a235 67bd 56e5 e13d 3fce 893c
-0.1571291 0.04323501 -0.30612728 0.078680575 -0.17103486 0.00553345 -0.28031817 -0.061989125
-0.57260644 0.02731684 0.46552104 -0.18879007 -0.37480342 -0.0878377 -0.0021826068 -0.20903039
0.08102609 0.01989439 0.055572625 -0.044014968 -0.11327955 -0.018946052 0.037626132 -0.058670714
0.1122544 -0.26624626 0.024599314 0.11863833 0.30706903 0.32767767 0.030601999 0.1096835
0.025858372 0.26594132 -0.10493968 -0.0945689 0.2974569 -0.0887093 0.0062899776 -0.12484546
0.09197841 -0.16660585 -0.25702232 -0.056252662 -0.27930906 -0.1521595 -0.16644202 0.062294938
-0.028776864 0.10775021 0.16785973 0.0052355835 -0.28961465 0.092115365 0.17145638 -0.16141805
-0.10014778 0.1156786 0.1364475 -0.21073703 0.22108845 0.17274623 -0.16034937 -0.03156729
-0.13845888 -0.21514368 0.1697663 -0.14052564 0.43101123 0.052831817 -0.14792854 -0.11409942
-0.08729301 0.025260666 0.14944953 0.0088077085 0.32398018 -0.13917609 -0.09733518 0.12856704
-0.432975 0.12535873 0.34733206 0.09322414 0.20828593 0.20511673 -0.09658714 0.3562034
-0.20643337 -0.08787128 -0.18296401 0.10932789 0.07551808 -0.21199104 0.27958667 0.030263005
0.38662633 0.08842638 0.23880035 0.18752386 0.16432238 0.0041730595 -0.01676764 0.027779436
-0.196805 -0.24455494 0.33869255 0.15209472 -0.16098444 -0.066517696 0.1022615 -0.31742036
0.056313217 0.030983126 0.20844166 0.31112856 0.29396364 0.15912496 -0.23909737 -0.27330258
0.23049341 0.01325049 0.06314979 0.08794772 0.34590527 -0.123038344 -0.043314345 0.24331681
0.242823 0.020042816 -0.09538843 -0.01141531 0.3345735 -0.18688154 -0.20215093 0.15467948
-0.2740842 -0.04803271 0.14469896 0.059135806 -0.19267434 -0.09856415 0.16392328 0.10272445
-0.081057355 -0.14365727 -0.05267854 -0.15306887 -0.16209443 0.23136508 0.04088033 0.14535433
0.23029235 -0.26296276 -0.052228622 0.10958037 0.039839346 0.26220748 0.34451425 0.07184656
0.23037487 0.04158671 -0.19466808 -0.099354185 0.13475788 0.032119285 -0.34456304 0.11819218
-0.0390481 0.14787221 -0.0061928993 0.0036456622 -0.09338682 -0.07072301 0.2312122 -0.019775858
-0.03481305 0.06482129 -0.0052907043 0.1417328 0.35317132 -0.12846579 -0.02561515 -0.061016236
-0.26233053 0.10699814 -0.17177987 -0.2797553 -0.2563384 0.19939257 -0.007524401 0.10102364
-0.01894165 0.001673285 -0.13222605 0.08105002 -0.1408496 0.15907137 0.18720336 0.17259958
-0.10364142 -0.29829258 0.069994085 -0.07017141 -0.13959849 0.004820774 0.35059392 -0.024398591
-0.065301776 -0.16907877 -0.006913264 -0.07931422 0.022803755 0.33935323 -0.2963185 0.012221569
-0.009592646 -0.07296146 -0.04793278 -0.055955447 -0.07695609 -0.08329433 0.009292128 -0.113746226
-0.21453606 -0.23525186 0.16315064 -0.08063364 -0.30126965 -0.37472895 0.011258253 0.20581472
-0.25580716 0.15584274 -0.009141795 0.21717009 0.08054197 -0.048541695 0.16045463 0.1816914
-0.12713306 0.21932186 0.37200072 -0.023730287 0.07404178 -0.036872152 -0.03230646 0.34335765
0.050713073 0.20008945 0.010800068 -0.117471345 0.23794392 -0.056447633 0.110300705 0.016821979

network_body._body_endoder.seq_layers.2.bias f4 [128]
00000000: 5cc8 29bc be83 70bb bede cfbb 5f4c c3bb
00000010: 3021 cd3a 1910 9abb 8e88 c9bb 4731 49bc
00000020: 388c 09bc 1f4d fdbb 7c04 83bb cc7d 383b
00000030: fe8c 5bbc 044f aebb e235 92ba fce4 13bc
00000040: 2625 ad3a ba6b 32bc 70c4 43bc cfb3 01bc
00000050: d7e1 21bc b456 18bc d82b 6abc f09b 87bc
00000060: b8da 98bc a349 a4bb c2a4 2bbb 02d5 4abc
00000070: c554 1dbc de44 723c e501 11bc 612d f8bb
00000080: 895e adbb eaa4 00bc 1bde 39bc 2ddd 81bb
00000090: 08b0 51bc 33db 87ba eeec 10bc 3a38 55bc
000000a0: 832b ba3b b17b 4ebc 6e2c a1bb ef34 3fbc
000000b0: 8514 28bc 331b 18bc 9676 24bb ace5 98bb
000000c0: 4334 97bc fa5c a9bc b1b2 24bc 1556 93bc
000000d0: 1730 92ba 55c7 9ebb def8 26bc 4dce 423c
000000e0: 5d07 14bc e06c 63bc 5398 55bc 5fd7 1bbb
000000f0: f2df 27bc 5904 d0bb d804 b83b b4f6 acbc
00000100: 1655 87bc c0c5 69bb d37e 9bbb 9613 cdbb
00000110: 1467 8ebc 809f b1ba bc18 b1bb 08f0 28bc
00000120: 9cf1 193b dafb 82bb d1d1 43bc 9f7c 47bc
00000130: 1059 bcbb 5768 77bc 457b b7ba 2eb5 d5bb
00000140: e550 88bb c9ba ffbb c9bf feba c1f5 82bb
00000150: 9d84 3cbc f733 ecbb 960c 47bc 4133 6cbc
00000160: dac9 82b9 f7b7 6bbc 88fd 17bc e354 15bc
00000170: 5b2a 37bc 5d31 40bc 4cba 5fbc 5592 78bb
00000180: b695 49bb c405 97bc 3523 0bbc 0b6e 82ba
00000190: 4480 e9bb 2719 b5bb 0851 21bc 52a3 7d3b
000001a0: 4d4d 833c 31ec 9139 cd4e 2abc e189 adbc
000001b0: dcf9 babb d435 9abb 7e56 d5bb 7866 ebbb
000001c0: bc9c 40bb d5d7 81bb 8fa4 0bbb ebc2 2dbc
000001d0: 5470 8bbc c9e2 a1bb 2cc5 9bba bf06 0fbc
000001e0: 527d 503b 4728 3abc 4345 f0bb b26c 71bc
000001f0: 8f5c 52bc 1637 273c b368 6eba adf9 91bc
-0.010362711 -0.0036699618 -0.0063436916 -0.005960032 0.001565015 -0.004701626 -0.006150312 -0.012279815
-0.008395247 -0.007730141 -0.0039983373 0.0028151153 -0.013400314 -0.005319478 -0.0011154974 -0.009026762
0.0013209924 -0.010889942 -0.01194869 -0.007916405 -0.009880505 -0.009298015 -0.01429268 -0.016553849
-0.01865898 -0.005013661 -0.0026190733 -0.012379887 -0.00960273 0.014786927 -0.008850549 -0.007573769
-0.0052908105 -0.007851819 -0.011344458 -0.003963134 -0.012798317 -0.0010365009 -0.008845551 -0.013013894
0.0056814565 -0.0126027325 -0.0049186265 -0.011670335 -0.0102587985 -0.009283829 -0.0025095097 -0.004666051
-0.018457538 -0.020674217 -0.010052369 -0.017985383 -0.0011153248 -0.0048455396 -0.0101911705 0.011890006
-0.009034959 -0.013880938 -0.013036805 -0.0023779494 -0.010246264 -0.0063481745 0.005615812 -0.021113731
-0.016520064 -0.0035670847 -0.0047453432 -0.0062584383 -0.017383136 -0.0013551563 -0.00540456 -0.010311134
0.0023489958 -0.003997308 -0.01195188 -0.012175708 -0.0057479218 -0.01510056 -0.0013998529 -0.0065218424
-0.004160034 -0.007804249 -0.0019435819 -0.0039965813 -0.011506227 -0.007208343 -0.012148997 -0.014416517
-0.00024945923 -0.014387122 -0.009276755 -0.009114477 -0.011179532 -0.011730519 -0.0136552565 -0.0037929018
-0.00307594 -0.018435366 -0.008492281 -0.0009951008 -0.007125886 -0.00552668 -0.0098459795 0.0038702083
0.01602807 0.00027832531 -0.010394764 -0.02118391 -0.005706055 -0.004706124 -0.006510555 -0.007183846
-0.0029390296 -0.0039624968 -0.0021307801 -0.010605554 -0.017021336 -0.004940365 -0.0011884323 -0.008729636
0.0031812978 -0.011362142 -0.0073324754 -0.014735388 -0.0128394505 0.010206005 -0.0009094581 -0.01781925

network_body._body_endoder.seq_layers.2.weight f4 [128, 128]
00000000: 1a1d dcb7 ee13 57be e378 b53d 0843 2cbd
00000010: 6eec 383d 6574 5abc a788 af3c 52b5 1bbd
00000020: 8657 74bd ae21 47bc 9154 a33d f10c ae3c
00000030: ad12 c9bd cc1c 5bbd bec7 913d ada8 b63d
00000040: f5e9 3e3e 9179 ddbd 8760 babd 5e15 b03c
00000050: 9d34 67bd 1b95 0abe ee4a 013e 66b9 07be
00000060: 8932 803d 21b2 29be 32e6 0f3e 637e 013e
00000070: 01e1 b63c ae6d d1bd 142d 41bd c03c 0c3e
00000080: c410 93ba 7193 773c 6502 963c db84 22be
00000090: 0575 6a3a ab81 053e 1ed2 e4bd 3c46 e93d
000000a0: 51c2 933c a9c9 1fbd 6a19 20bd 86e6 aebd
000000b0: 56df a0bd f044 7cbd bc37 003e fa23 11bd
000000c0: f68a c93c db2e c6bd fea0 663d 368a 93bc
000000d0: 2298 8b3c c4ff 933d 0a82 f43d 176a 9ebd
000000e0: f1ef 0fbd 70c3 283e af6a 59bd 98d0 18bd
000000f0: a0b2 063d 16b2 8f3c 6c1a e63d c494 e23d
00000100: 95cf 04bd 821c c43c 6177 193e 3cc5 8dbd
00000110: 195f b0bd 6162 75bc 530d 0e3e 7efa 0bbb
00000120: cfbc 193e e9eb 5b3d 3047 383d dc95 6bba
00000130: f279 533d f78e 033e a6ac 53bc 60b7 0abd
00000140: a949 37bd 5c85 dbbd db3c 013e 7465 73bd
00000150: e6b0 eb3c f98f 6ebd 1064 e3bb 0735 cebc
00000160: 3ee1 e93c b20b 843b 89f6 98be 090c f83d
00000170: 4630 ba3c 8e85 e3bc aa24 39be fc4f 0e3e
00000180: 5b66 03bc f35b 393e 3277 a73d 30af 40be
00000190: 4e85 cfbc d67f f83c 6e32 c03d 08e7 2b3e
000001a0: 194b c6bc 741d 9b3b ea08 30bd e513 a43d
000001b0: 7025 06bc 6fbe 91bd 1e97 f23d 6b45 34bc
000001c0: d8c5 2abb 2e71 fa3c d0a1 c23d ff5e 193d
000001d0: 33aa 34bd 9c41 5dbe ed6f a3bd 7bcd 8dbd
000001e0: 551c 983c f44d c9bd 39c4 a63d fb7d 1abe
000001f0: c620 30be 778d eb3d 9bf9 343d ff50 0a3c
00000200: b883 cabd 091c 18bd 2662 fb3c 885f bd3d
00000210: 1954 983d 2b28 e63d 5d6d f4bb ae05 f4bc
00000220: 0f05 d73c 27e4 eabd 3a6e bfbd 0e95 74bc
00000230: a32f e6bd c8a3 ba3d 1978 cfbd 41a7 57be
00000240: b377 7abb fe8b 28bd 8afa 353d 53aa 37be
00000250: 209e b2bb afaa a4bd c99f b2bd 39af 08ba
00000260: 30a8 6d3d 8698 6dbd a8be 253e 8568 513c
00000270: 0815 873b c683 033d 9512 cb3d 79f6 f83d
00000280: 10b5 c0bd 584f 383d e2ba 1b3d fd82 b63c
00000290: 8058 b4bc 8ee1 233d 626a da3d c4f6 e5bd
000002a0: 9ffa 2ebd b715 a3bd 0863 1dbc b98c 233c
000002b0: ed9a c83c 5f2d e0bc ce13 49bd 1b78 e33d
000002c0: 55b0 fcbd 34e2 69bd c4a3 063e cd86 5a3e
000002d0: 8cf4 36be 4ebc 7b3d 2f55 b83d 0e57 473e
000002e0: 620b 9f3c 2aa8 9e3d ccf1 08bd 4272 743d
000002f0: 4b1f 943d b096 183e 4c95 7a3c 223d 52bd
00000300: 3d06 f43c a0fb 593d b5c7 f43b 2a2c b13c
00000310: f648 3fbd c1da 553c 62aa c33d 9a7d 413e
00000320: 7645 05be 216f 3d3d 5cd6 583e 8692 a43d
00000330: fe72 8e3a c79b 18bc 2aac 943d d195 74bd
00000340: 1974 a83d 5ccf 863b 7522 78bd 545c 793d
00000350: 0475 0c3e 06b7 d3bd 2c67 75bd cb1e d6bd
00000360: 5265 27bc e9e2 473d 82ca eebd 2354 b7bb
00000370: 6424 cfbd f838 f2bd 4877 4bbb 0982 90bd
00000380: aeb1 d83b f220 b63d 4292 dc3d 67d0 30bb
00000390: 8bb4 273e 3cf0 da3c f8da 8cbe 9c3d 0c3c
000003a0: 015b cdbb 695c 2fbe 33de 37bd acb2 a33b
000003b0: b784 33bd 4d1f afbc d06f 1e3e 99cf 503d
000003c0: 6768 e33d 6c1a 25b9 9d98 f83c f1f8 91bd
000003d0: 8838 fc3d 6f40 293d 0d3b bc3d 49b7 a7bd
000003e0: a8c2 00bc a8b3 003d 9f1b f7bc 29f6 d83d
000003f0: ce3e 68bd f7c9 c43b 427f 7c3d 4637 483a
-2.6239595e-05 -0.21003696 0.08860948 -0.042056113 0.045147352 -0.013333415 0.021427466 -0.038014717
-0.05965378 -0.012154026 0.07975114 0.021246405 -0.09818015 -0.05349426 0.07118176 0.08918891
0.18643935 -0.108142026 -0.091004424 0.021494564 -0.05644666 -0.13533442 0.1262624 -0.13254318
0.06259639 -0.16571857 0.14052656 0.12645869 0.022324087 -0.10225998 -0.04716213 0.1369505
-0.0011220207 0.015110836 0.018311689 -0.15870993 0.0008943829 0.13037746 -0.11172889 0.11390349
0.018036993 -0.039010677 -0.039086737 -0.085400626 -0.07855098 -0.06158918 0.12521261 -0.0354347
0.024602395 -0.09676906 0.056305878 -0.01801024 0.017040316 0.07226518 0.119388655 -0.07735079
-0.035140935 0.16480803 -0.053080257 -0.037308306 0.032885194 0.017540973 0.11235508 0.11063531
-0.03242453 0.023939375 0.14986946 -0.06922385 -0.086118884 -0.014977069 0.1387227 -0.0021359022
0.15013431 0.05369178 0.044989765 -0.00089868694 0.051629968 0.12847506 -0.012919581 -0.033866286
-0.044747982 -0.10718796 0.12620871 -0.059422925 0.028770875 -0.05824277 -0.0069394186 -0.02517177
0.028549787 0.0040297145 -0.2987559 0.121116705 0.022728097 -0.027773645 -0.18080392 0.13897699
-0.008020009 0.18101482 0.081770316 -0.18816829 -0.02533212 0.030334394 0.09384619 0.1678735
-0.024205731 0.0047337357 -0.04297725 0.08011607 -0.008187637 -0.071164005 0.118452296 -0.011002879
-0.0026057865 0.030571546 0.095035195 0.03744411 -0.044107627 -0.21607059 -0.079803325 -0.06923958
0.018568197 -0.098293215 0.08142895 -0.1508712 -0.17200002 0.11501592 0.044183355 0.008442163
-0.098884046 -0.03713611 0.03068645 0.09246737 0.07437915 0.1123813 -0.007459326 -0.029787865
0.02624753 -0.11469298 -0.09347196 -0.0149281155 -0.11239555 0.0911327 -0.10130329 -0.21059896
-0.003821832 -0.041149132 0.044428386 -0.17936067 -0.005450979 -0.08040368 -0.08721883 -0.00052140985
0.058021724 -0.058006786 0.16186011 0.012781267 0.00412238 0.03210809 0.099156536 0.12156386
-0.09409535 0.044997543 0.038020022 0.022279257 -0.022014856 0.040010028 0.10664822 -0.112287074
-0.04271948 -0.07963126 -0.00960613 0.009982281 0.024487937 -0.027365385 -0.049091153 0.11106893
-0.1233832 -0.05710049 0.13148409 0.21340485 -0.17866725 0.06145888 0.090006225 0.19466802
0.019414607 0.077469185 -0.03343372 0.059679277 0.07232531 0.14901233 0.015294384 -0.051327832
0.02978813 0.053218484 0.007470096 0.021627504 -0.04670044 0.013052643 0.09553982 0.1889557
-0.13014778 0.04624856 0.21175522 0.0803576 0.001086801 -0.009314484 0.072594 -0.05971319
0.08225269 0.0041140746 -0.060579736 0.060879067 0.13716513 -0.10337643 -0.059912845 -0.10455092
-0.010217028 0.048800383 -0.11659719 -0.0055947467 -0.10114363 -0.11827272 -0.003104644 -0.07056052
0.006612978 0.088930026 0.10770084 -0.0026979686 0.16377465 0.02672588 -0.2751081 0.008559611
-0.006266952 -0.17125095 -0.04488964 0.0049956646 -0.04382774 -0.02137723 0.1547234 0.05097923
0.111038975 -0.00015745469 0.03034621 -0.0712756 0.1231547 0.041321214 0.091909505 -0.08189256
-0.00785891 0.031421334 -0.030164538 0.10593826 -0.05670052 0.0060055214 0.0616448 0.0007637631

network_body._body_endoder.seq_layers.4.bias f4 [128]
00000000: 2c17 24bc edd5 ae3a f2ec 28bc b410 91bb
00000010: 8fd6 59bc 289c d3bc d4e4 b7bc cc90 633b
00000020: e34a 02bd f5b3 62ba 11a5 38bc a128 9dbc
00000030: ad12 92bc 0a95 3bbc db25 6fbc 914b 1a3b
00000040: a351 eabc 83d5 083c 198a 7cbc fecc 2f3c
00000050: 0a76 f0bc e078 243c d350 a9bc 9812 a3bb
00000060: d5f1 fcbb c8f9 bbbb 961e 32bb dee8 6f3b
00000070: 634f f8bb 351a 9bbb 7786 2d3b f156 a33b
00000080: 9299 28bb 7782 1abb 92fc bc3b b757 bfbc
00000090: 79ef 4abc 9b82 63bc f06c 84bc 0b8f f0bc
000000a0: af1c dc3a 24b8 d9bc 5cb4 5d3b 175f 4ebb
000000b0: 2c98 b0bb 8655 cfbb af4d d7bb c80d e1bb
000000c0: e934 39bc 0ff4 c43a 9923 91bc 8d80 3cbc
000000d0: ecc1 c3bc 603d 47bc edb1 d6bb 1cc0 d0bc
000000e0: ca38 75bc c095 9ebc 0474 7ebc a527 27bd
000000f0: df06 72bc 2f92 b2bc 1612 22bc a954 63bc
00000100: b73e 23bd c313 dbba 9dd4 60bb c9d3 66bc
00000110: 97f0 55bb b004 343b c35e ec3b 9d15 f2bc
00000120: 3762 333c d366 2abc 7363 1e3c 72e2 c1bc
00000130: 15e6 dcbc fcce 163b 4ecb c7bb ddf3 2b3c
00000140: 9925 c1bb 1a78 53bc 3a08 e6bb 9654 eeb9
00000150: a150 28bc dc1d 85bc 5ed4 6dbc f34d b9bb
00000160: 71c2 68b9 97eb 033c d6a6 28bc a578 ecb9
00000170: 8353 ddbc 9400 54bc 950f 083c 8bb6 96bc
00000180: 5e8f 06bd 37a3 88bc 0160 e6bc d082 4dbc
00000190: a543 e2bc 749e 1b3c da77 843b abf6 d4bc
000001a0: 1999 40bc b78f debc 85cf 8f39 fee3 edbc
000001b0: 7653 a5bc 2385 a9bb bfed c8bc 8b64 333b
000001c0: 73a7 56bb ec52 83bb 4809 a3bc 5286 213b
000001d0: 200e c2bc 1e2a 15bd 67b3 86bb 85ce b8bc
000001e0: 4b91 0bbc ec07 2fbc f65f 0abc b505 b13b
000001f0: aa13 99bc 72c4 13bd 3852 58bc 6223 bebc
-0.01001529 0.0013338901 -0.010310398 -0.00442704 -0.013295784 -0.025831297 -0.022447981 0.0034723757
-0.0318097 -0.00086480315 -0.011269824 -0.019184412 -0.017831171 -0.011449108 -0.014596428 0.0023543576
-0.02860338 0.008351686 -0.015413784 0.010730026 -0.02935316 0.0100385845 -0.020668423 -0.004976582
-0.0077192583 -0.0057365634 -0.0027178875 0.0036607306 -0.007577823 -0.0047333487 0.0026477852 0.0049847295
-0.00257263 -0.0023576298 0.0057674134 -0.023357255 -0.012386196 -0.013886119 -0.016165227 -0.029365083
0.0016793216 -0.026577063 0.0033829426 -0.0031489783 -0.005389234 -0.006327334 -0.00657054 -0.006868098
-0.011304119 0.0015026348 -0.01771717 -0.011505258 -0.02389618 -0.012160629 -0.006551972 -0.02548223
-0.014967153 -0.019358516 -0.01553059 -0.040809292 -0.014772146 -0.021798221 -0.009892007 -0.013875165
-0.03985473 -0.0016714263 -0.0034306415 -0.014088579 -0.0032644623 0.0027468614 0.007213445 -0.029551322
0.010948709 -0.010400492 0.009667265 -0.023667548 -0.02696518 0.0023011556 -0.006097234 0.010495153
-0.0058943746 -0.012907052 -0.0070200237 -0.0004545792 -0.01027313 -0.01624959 -0.014515964 -0.005655044
-0.00022197679 0.008051774 -0.010293683 -0.00045103315 -0.02701736 -0.012939591 0.008304496 -0.01839759
-0.03285157 -0.01667939 -0.02812195 -0.012543395 -0.027620146 0.009498227 0.0040426077 -0.025996527
-0.011755251 -0.027168138 0.000274297 -0.02903938 -0.020181399 -0.005173342 -0.024527429 0.002737316
-0.0032753616 -0.004007688 -0.019901887 0.0024646712 -0.023688376 -0.03641712 -0.004110742 -0.022559414
-0.008518527 -0.010683041 -0.00844573 0.0054022917 -0.018686134 -0.036076017 -0.013203196 -0.023210231

network_body._body_endoder.seq_layers.4.weight f4 [128, 128]
00000000: e388 073e 089f debd 62a3 5dbd f509 3d3d
00000010: ef4f 55bd 8614 26be 1564 a7bd d564 2a3c
00000020: e9aa 083d fcd0 11be 1e4c 0e3e c312 ffbd
00000030: 3900 073e f488 cbbd 8939 e33d a910 61be
00000040: aff0 0bbe 8f6a a63d 9df9 ae3d f2ea c23c
00000050: 99e6 b7bd 45e9 e439 c1e0 adbd a1b6 c83d
00000060: d39c 02bc 87cd dcbb 6a39 65bd 4deb f23a
00000070: f055 e03d 777a cd3d fad2 013e 2816 933d
00000080: ea94 523d 60a1 3f3e 9eba dfbd 35cf d3bc
00000090: ce47 943d 5b47 7cbd e400 7fbc 5981 bc3c
000000a0: 29d2 7f3b b1b0 ebbd 4616 453d 5958 e4bd
000000b0: 1915 19bc 808d 43bd 1751 2b3a 278a 8a3c
000000c0: 00d2 c73c 7dd5 08be a5d9 5abd 82bd 3dbe
000000d0: 7c54 0ebd f4f6 55bc 6a59 e13b 2880 ccbd
000000e0: 1a9f 263d b83c 473c 997e 0ebc aaad bd3d
000000f0: a47b 813d 9766 24bd bb7f 0cbd 422c 36bd
00000100: 0531 043c c7d9 2d3c 3884 cb3b acc9 b0bd
00000110: fc16 0d3d 4443 d93d 8d6b dfbd 2102 f73d
00000120: a8e0 a23d 0152 89bc 31fe c83c f9cd 2f3e
00000130: 3083 23bd 1f66 8fbd 409b 783d 0e33 ca3c
00000140: b732 fb3d 00a0 b23c aa53 cc3d 8fe6 eebd
00000150: f66d f1bd 779d abbd f8d2 673d 8b65 f3ba
00000160: a836 aebd 4d99 c0bc 44c9 bb3c ec0a f5bb
00000170: e780 59bd 056b 54bd 04be 18bd e168 a43d
00000180: 571c 1d3d 7d7d d2bc f28b 873d e37f 2ebd
00000190: db8d a2bd 8f7a f13d dbb5 37bc d440 4e3d
000001a0: bf3e a7bd 7934 bb3d c055 a0bd a782 2d3b
000001b0: 9bbe 0bbe 58ec a0bd e8aa 323c 2f51 68bc
000001c0: 6dc9 25bc 630d 31be 4980 f83d cdfb 90bd
000001d0: e177 3e3d dc5d 383e e55c a23d 6378 18be
000001e0: 5f76 c43d 5f11 e03d 88ee 183d cb5f c0bd
000001f0: 3f44 803c cc0c d0bd 3eec 023e 4b68 dbbb
00000200: f208 8ebd bfba 31be b844 94bd 523a bdbc
00000210: f2b0 14be 22df 333e 293d 02bc c3c2 79bd
00000220: d66a 133b 1083 29bd a832 903d b5de 88bd
00000230: 11f8 bebc 3122 b5bd 8691 06be f826 57bc
00000240: d1e0 6e3b 654b 2c3d be5a 873d 4fae 793d
00000250: bcbb 103d 77d2 103d d59b 413d b6db dfbb
00000260: 2fc2 fe3c 1136 b4bd 014d 0c3e 73bb d4bd
00000270: 8937 013e dda0 1f3d 9e04 0b3e 7a8f b83b
00000280: 43ed 623d d3ee 9a3d 171f 943d 06ba 94bc
00000290: e025 0abe f43a 023d 5469 49bd ff17 b23d
000002a0: 281e 1e3e 7aeb efbd ed49 da3c 455e 1fbe
000002b0: 742b 1abe 24b7 15be 6bc0 d13c 0cd6 04bd
000002c0: f289 49bd ae47 6dbd b06e babc 71e5 4f3d
000002d0: 65fb 69bd 8407 a0bc 49d3 38bd ebda 9a3c
000002e0: 2e50 c6bd 9dd2 a23c 2a8d 8bbc 2cfa 1dbc
000002f0: daef fcbd 5185 c43d 5805 a5bd 190f 943c
00000300: c8c5 363d 8367 48bd 21c2 003d 5c6e 963c
00000310: 322b 5e3d b767 333d 5425 58b9 2c00 563c
00000320: 6548 0ebc b03c ef3c 8248 dc3d c5d2 af3c
00000330: 2f4a 42be 6980 85bd aa16 683b 3c3b 163d
00000340: 703e 6b3d 6e1c 1cbe 643a cc3d 103e 893c
00000350: 0936 0a3d 75de 8e3d 14b8 5ebd 0d57 31bd
00000360: be36 b93c 2f95 b23c d5aa 05be ba5e 0b3d
00000370: ee70 f83c f723 fa3d ae0f 59bd 9442 363d
00000380: b69f 76bd edb4 7a3d 8e33 2abd d65f dd3d
00000390: 8cb1 47bc 7f5a 5bbc 9d94 5dbd 74e1 7e3d
000003a0: 4630 403d 7362 a4bd 2ccc 40be d4de 04bb
000003b0: fc38 53bd 5d34 873d 46f3 00bd c217 07be
000003c0: dcb1 b73c 9c10 b93d fd6a 863d 319e b53d
000003d0: c534 48bc 374e e93c 507c 903d 4b1f 383c
000003e0: 1a30 f6bb 82ed 453c 081c 593d 137a bf3c
000003f0: 07da 59bd d683 f83d c7a7 c13d 94de aebd
0.13235812 -0.108701766 -0.054110892 0.046152074 -0.052078184 -0.16218767 -0.08173386 0.010400017
0.033366118 -0.14239877 0.13896224 -0.124547504 0.13183679 -0.09938231 0.11094958 -0.21979012
-0.13666032 0.08125793 0.08543704 0.023793671 -0.0897953 0.00043661348 -0.08490134 0.09800459
-0.00797196 -0.006738368 -0.055962957 0.001853326 0.10953891 0.10033124 0.12678137 0.0718196
0.051411547 0.18713903 -0.10924266 -0.02585564 0.07240258 -0.061591487 -0.015564177 0.023010897
0.0039035177 -0.115083106 0.048116945 -0.111496635 -0.009343409 -0.047742367 0.00065352157 0.01691158
0.024392128 -0.1336269 -0.05343022 -0.18529323 -0.03474854 -0.0130593665 0.006877114 -0.09985381
0.040679075 0.012160473 -0.008697175 0.092616394 0.06322411 -0.0401369 -0.0343015 -0.0444758
0.008068328 0.010611004 0.00621083 -0.08632216 0.034445748 0.10608533 -0.109091856 0.12060953
0.07953006 -0.016762735 0.02453527 0.17168416 -0.039920032 -0.070019 0.060694933 0.024682548
0.122655325 0.02180481 0.09976895 -0.11665069 -0.117885515 -0.083796434 0.05659768 -0.0018569691
-0.085065186 -0.0235106 0.02292312 -0.0074781086 -0.053101446 -0.051859874 -0.037290588 0.080278166
0.038357105 -0.025694603 0.06618489 -0.04260243 -0.07937213 0.11790954 -0.011212791 0.050354794
-0.08166265 0.09140868 -0.078288555 0.002647558 -0.13646929 -0.07857579 0.010905005 -0.014179512
-0.010118824 -0.17290263 0.121338435 -0.07079277 0.046501044 0.18004555 0.079278745 -0.14889674
0.0959289 0.10940813 0.037336856 -0.09393271 0.015657542 -0.10158691 0.12785432 -0.0066957823
-0.069353 -0.17356394 -0.072396696 -0.023099098 -0.14520624 0.17565587 -0.007949152 -0.060976755
0.00224941 -0.041384757 0.07040912 -0.06683103 -0.023311647 -0.08844412 -0.1314145 -0.0131318495
0.003644992 0.04206409 0.066091046 0.06095725 0.035335287 0.035356965 0.047267754 -0.0068316115
0.031098453 -0.08799375 0.1370125 -0.103873156 0.12618841 0.03897177 0.1357598 0.005632338
0.05540205 0.07565083 0.072324924 -0.01815511 -0.1349101 0.031794503 -0.049172714 0.08695983
0.15441191 -0.117148355 0.026646579 -0.15563305 -0.15055639 -0.14620644 0.025604447 -0.032430694
-0.04920382 -0.057929687 -0.022757858 0.05075592 -0.057124514 -0.019534834 -0.045123372 0.018903216
-0.09683262 0.019875819 -0.017035086 -0.009642165 -0.123504356 0.095957406 -0.0805766 0.018073605
0.044622213 -0.04892684 0.031435136 0.01836317 0.054240413 0.043800082 -0.00020613271 0.013061564
-0.008684252 0.029203743 0.10756017 0.021462807 -0.18973611 -0.06518633 0.00354139 0.036677584
0.057432592 -0.1524522 0.09972075 0.016753227 0.03374294 0.06976024 -0.05437477 -0.04329591
0.02260911 0.021799652 -0.13053448 0.034025885 0.030327287 0.12213891 -0.05299347 0.044497088
-0.060210906 0.0612077 -0.041553073 0.10809295 -0.012188327 -0.013388275 -0.054096807 0.062226728
0.046921037 -0.0802659 -0.18827885 -0.0020274417 -0.051568016 0.066017844 -0.031482004 -0.13192657
0.022423677 0.09036371 0.06563375 0.08868063 -0.0122196125 0.028479679 0.07054961 0.01123793
-0.0075130584 0.012080552 0.05300525 0.02337364 -0.053186443 0.12134521 0.09455829 -0.08538547
