mlagents/Assets/results/TestLaberint1/RollerBall/RollerBall-1657.onnx (onnx, 108815 bytes, 7 tensors)

action_model._continuous_distribution.log_sigma f4 [1, 2]
000000 aa ea 9c bb 64 cf 80 bc
       -0.0047887163 -0.015723892

action_model._continuous_distribution.mu.bias f4 [2]
000000 29 b6 17 3b 2d e4 93 3a
       0.0023149347 0.0011283212

action_model._continuous_distribution.mu.weight f4 [2, 128]
000000 22 4f 1c 3c 2c bd 7a 3c 5c 08 80 3b a4 94 ae 3c
       0.009540351 0.015303891 0.0039072465 0.021311112
000010 4c 7f 2e 3c 21 2a ba bc be 84 89 3c af 48 14 3c
       0.010650467 -0.022725167 0.01678693 0.009050532
000020 20 1c 61 3c 04 ad 82 bb 01 e1 99 bc d7 61 dd 3c
       0.013739616 -0.00398791 -0.018784048 0.027024193
000030 6c 7a 31 3c 84 95 ba 3c e2 e4 34 bb 97 2c 90 bc
       0.01083241 0.022776373 -0.0027602245 -0.017599387
000040 5d b4 22 bd f3 35 e2 bc 8b 47 be ba 51 a4 2f bb
       -0.03972279 -0.027613616 -0.0014517171 -0.002680082
000050 ea e5 ae 3c 35 fa f6 ba c0 5c c2 bc a4 c9 d7 3c
       0.021349866 -0.0018842878 -0.023725867 0.026341267
000060 28 25 44 bd 6b 34 f9 ba d0 41 3d 3c 95 b9 dc b9
       -0.047886997 -0.0019012814 0.011551335 -0.0004209994
000070 5a 03 42 3c 73 e3 9c 3c e4 33 7f bb 5c d2 d5 38
       0.011841619 0.019151425 -0.0038940841 0.00010195814
000080 a3 c1 9c bc 67 57 07 3c 94 0b 24 3c 1e 5b 7c bc
       -0.019135302 0.008260584 0.010012526 -0.015402583
000090 fa 5c 3e 3c 73 46 8b 3c fc 08 c0 bc 82 80 e7 bb
       0.011618847 0.017001366 -0.023441784 -0.00706488
0000a0 b6 a5 b9 3b 0a db a6 bc de 5f 72 bc 0e cf e1 ba
       0.0056655062 -0.020368118 -0.014793364 -0.0017227845
0000b0 d6 ce 3c 3c 99 93 b1 bc 45 fe 9d 38 54 73 a1 3c
       0.011523923 -0.021676825 7.533705e-05 0.019708313
0000c0 17 80 a4 ba 90 10 76 b9 4c 17 14 bc 9a fb 94 3b
       -0.0012550381 -0.00023466558 -0.0090387575 0.004546595
0000d0 37 80 4b 3c c5 01 39 3c f9 2d 7d 3c 57 33 c3 bc
       0.0124207055 0.011291926 0.015452855 -0.023828192
0000e0 79 50 c0 ba ab 7f a4 bb 43 85 a3 bc 72 bf c7 3c
       -0.001467242 -0.005020102 -0.019961005 0.02438328
0000f0 36 86 fc bb d2 30 74 3b b1 b6 9f bb fa 7e 6b 3b
       -0.007706429 0.0037260544 -0.0048740734 0.0035933838
000100 64 aa 92 bc b5 79 10 3a db 4b 6d bc b6 57 01 3c
       -0.017903514 0.00055113 -0.014483417 0.007894447
000110 0d 73 84 bb 45 fa 30 bc 01 a2 e5 bb 49 d0 ed bc
       -0.0040420354 -0.010801856 -0.0070078378 -0.029029982
000120 55 34 4e 3b a4 1f 4f 3c a8 44 2c bb b0 e8 80 bc
       0.0031464298 0.012641821 -0.002628604 -0.015735954
000130 67 00 c3 bb 27 cb 31 3b f7 b4 7b 3c 4e 05 00 3c
       -0.0059509757 0.0027129145 0.01536297 0.007813765
000140 d5 62 88 3b b6 17 ee 3b 76 80 8b 3c 9d 0e 18 3c
       0.0041621723 0.00726601 0.017029028 0.009280828
000150 a2 e9 60 37 d0 e3 19 bd 7a 1d 52 3b 74 c3 a4 3c
       1.3405837e-05 -0.037570775 0.0032061026 0.02011273
000160 5c 94 19 3c 1b 4f d1 3b cc 35 84 bb 63 07 d4 bb
       0.009373751 0.006387604 -0.0040347334 -0.006470607
000170 6c 76 f1 bc 50 1a 2f bc 2f 24 c1 3c 30 b5 13 3d
       -0.029475413 -0.010687426 0.023576824 0.036061466
000180 cc 6d a7 bc 74 96 a0 bc fa 7c 08 3c f2 35 00 3c
       -0.020438097 -0.019602992 0.008330578 0.007825362
000190 25 e0 18 3d 67 da 64 3c b4 0f 57 bc 29 bb 4a 3b
       0.037323136 0.013968087 -0.0131263025 0.003093431
0001a0 e8 e9 d4 3c ad d7 8f ba 57 65 e8 bb ca e3 75 3c
       0.025990441 -0.001097431 -0.007092159 0.015007922
0001b0 cd b7 80 3c 89 24 f1 bc b5 f7 b3 bc 46 39 b3 ba
       0.015712643 -0.029436367 -0.021968702 -0.0013673685
0001c0 57 9f be bc 35 14 d9 37 b8 69 67 bc ff 06 80 bc
       -0.023269339 2.5877825e-05 -0.014124326 -0.015628336
0001d0 e4 72 81 bb 6b 1f a9 3c 43 45 a5 bc be ed 34 bb
       -0.0039504636 0.020644864 -0.020174628 -0.0027607526
0001e0 60 64 4e bc 3d ca cd bc cd 96 36 bc 47 12 c6 ba
       -0.012597173 -0.025120849 -0.011144352 -0.0015111648
0001f0 47 7d f6 3c 91 6f 7c 3c 7c 84 ca bc 10 d0 35 3b
       0.030089034 0.015407459 -0.024721377 0.0027742423
000200 1d ff e5 bb 91 0a 1f 3a 92 fe 86 ba f8 f3 09 bd
       -0.0070189373 0.0006066943 -0.0010299257 -0.033679932
000210 ef bd 15 bd 69 14 d0 ba 25 6a 83 3c da 00 0a 3c
       -0.036558088 -0.0015875223 0.016041825 0.008423055
000220 a0 17 62 bc c1 a8 11 bc 1c 96 15 bd e6 59 f2 bc
       -0.013799578 -0.008890332 -0.03652011 -0.029583883
000230 1d 47 82 3a af b4 e1 bb 62 aa 8a bc 48 25 99 3b
       0.0009939406 -0.0068879942 -0.016926948 0.0046736337
000240 7a 15 cf 3c 23 c9 75 bc a0 5f 86 bc 57 3b dd 3c
       0.025278796 -0.015001568 -0.01640302 0.027005835
000250 80 be a0 39 c1 8d 10 bb 5a 32 89 3c 83 4b ee 3c
       0.00030659512 -0.0022057148 0.016747642 0.029088741
000260 ee 36 04 3d 0c 6b 11 3b 63 0b ba bc 3e 15 e6 3b
       0.032278948 0.002218905 -0.022710508 0.0070215752
000270 50 4d a3 bb 8a f2 0b bb 02 28 44 b9 38 e8 d1 bc
       -0.0049835816 -0.0021354281 -0.0001870692 -0.025623426
000280 bf 3a b7 3c e4 37 07 3c b5 7f c5 bc ab 16 cb bb
       0.02236688 0.008253071 -0.024108747 -0.0061977706
000290 c3 5e 04 bd b6 ca ec b9 86 87 8a 3c 1a ec 6e ba
       -0.032316934 -0.0004516446 0.016910326 -0.00091141614
0002a0 3f 03 60 bc e8 90 ae 3b 45 11 70 3b 0f f6 01 bc
       -0.013672649 0.0053273328 0.0036631387 -0.0079322
0002b0 f9 ca 85 3c a8 95 d7 3c 23 5a d8 ba e9 6d 19 bc
       0.016332136 0.026316479 -0.0016506355 -0.0093645835
0002c0 94 12 e6 3b 1b f2 8c 3c 0a b7 7b bc 52 4b e9 3a
       0.0070212577 0.017205289 -0.015363464 0.0017798936
0002d0 66 06 e0 bc 48 14 dd 3a d2 c8 1a 3c f3 98 a7 3b
       -0.027346801 0.0016867006 0.009447293 0.0051146685
0002e0 98 11 0c bc ef 78 92 bc 70 a1 d3 bc a3 ee 17 39
       -0.008549117 -0.017879931 -0.025833815 0.00014489381
0002f0 60 82 66 3c db 43 05 3c 76 8a 33 bc 54 73 95 bc
       0.01406917 0.008133854 -0.010958305 -0.01824347
000300 66 32 11 bc 1f 1e aa ba 8b 36 97 3c 33 0c 20 3c
       -0.008862114 -0.0012978947 0.018458625 0.0097685335
000310 c7 6e 28 3c d5 3d 9d 3c 8d 43 24 bb 81 94 05 3c
       0.010280318 0.019194523 -0.0025064677 0.008153082
000320 ac 3a 7f 3c ba 3b e4 3c 26 5c 29 3c ee e1 95 3a
       0.015577953 0.027860511 0.010336911 0.001143513
000330 06 63 29 3c 0d a9 98 bc cb 8e 49 3c ad fc 70 3b
       0.01033855 -0.018635297 0.012302111 0.00367717
000340 de 76 e6 3c 45 90 6a bb 4d c4 1b bc 91 e3 d1 3b
       0.028132852 -0.0035791558 -0.009507251 0.006405302
000350 8a f8 64 3b b9 3c 0b 3c 6d 59 77 bc 18 74 69 bb
       0.003493818 0.008498364 -0.015097004 -0.0035622176
000360 11 d7 93 3c 9c 25 69 3c 3a b1 58 b9 11 6a bf bb
       0.018046888 0.014230158 -0.00020665387 -0.0058415015
000370 ca 92 d6 ba b4 7a 3a 3c 23 ab b6 3c f6 5c ee 3b
       -0.0016370651 0.011381794 0.022298401 0.0072742654
000380 1d 27 81 3a b5 52 fc 3a 4a f8 4c 3b 33 ec 92 bc
       0.0009853576 0.0019250723 0.0031275922 -0.017934894
000390 67 a8 cb bb a9 d6 2d bd d6 db 38 3c a9 0c b3 bb
       -0.0062151435 -0.042441044 0.011282882 -0.0054641557
0003a0 e6 8a 90 3c e4 3e f8 3c 17 54 9f 3c 7b 35 d3 bc
       0.017644357 0.030303426 0.019449277 -0.025782337
0003b0 6b cd 21 bb 77 4d bd 3b 5a ac b0 3c ee 03 7f 3b
       -0.002468909 0.005777057 0.021566559 0.0038912254
0003c0 00 82 08 3b ab 40 a9 bb 3a 88 e0 bb e3 9b 05 bc
       0.002082944 -0.0051651797 -0.006852177 -0.008154842
0003d0 9e b8 85 bb 42 1d 63 3c f7 7c 03 3c 0a f4 85 bc
       -0.004080846 0.013861956 0.008025399 -0.016351718
0003e0 26 9c 31 3c f1 79 90 3a b4 81 e2 bc 67 ce 8a 3c
       0.010840451 0.001102267 -0.027649738 0.016944123
0003f0 c6 1f 24 bd cb b8 5a 3c 11 11 93 bb bb ce be 3b
       -0.040069364 0.013349722 -0.0044881185 0.005822984

network_body._body_endoder.seq_layers.0.bias f4 [128]
000000 cb 59 a5 bb d5 d8 3c bb d2 09 1c bb f3 7b f0 3b
       -0.0050461045 -0.0028815765 -0.0023809564 0.0073389946
000010 f1 e6 d8 33 b0 d2 4a 3b bf e6 93 3b d4 e4 0a bc
       1.0100292e-07 0.0030948333 0.004513591 -0.008477408
000020 78 b4 77 3b 35 0e 37 bc eb 7d 27 bb 38 70 a7 bb
       0.0037796777 -0.011172821 -0.002555723 -0.005109813
000030 25 b3 f3 bb 4a 6c 2e 3a 39 5c 75 36 27 9d 1d ba
       -0.007437127 0.00066537096 3.6561526e-06 -0.0006012492
000040 82 b9 0f bb 2c f4 79 3a 5e 51 80 ba b7 08 8f 39
       -0.002193064 0.00095349806 -0.0009789874 0.00027281579
000050 36 75 2d b9 50 30 3c 3a 14 c5 fb ba 52 05 dd ba
       -0.0001654223 0.000717883 -0.0019208514 -0.0016862547
000060 e2 54 54 bb 0f b6 7e bb 4e 5c 84 ba 13 d7 23 3c
       -0.0032399227 -0.003886584 -0.001009831 0.010000008
000070 37 73 25 bc 6e 66 a7 bb 21 62 f2 3a 22 8b e5 3a
       -0.01009827 -0.005108646 0.001849238 0.0017512778
000080 6f e8 c2 bb 7d 88 2b bb fb a5 f5 39 2f 94 6a 3b
       -0.0059481184 -0.0026173883 0.00046853707 0.003579389
000090 c0 3e 05 bb 74 75 ef bb 36 5c 56 bb e4 2a 32 ba
       -0.0020331591 -0.0073077027 -0.003270877 -0.00067965523
0000a0 d8 43 a1 bb 34 0f 2a bb b4 99 d5 bb 8b a9 0b bb
       -0.0049214177 -0.0025949003 -0.006518567 -0.0021310772
0000b0 7c 48 5f ba 48 ba bd 3a e2 e1 d0 bb 50 c7 c6 3b
       -0.0008517576 0.0014475072 -0.0063745836 0.0060662404
0000c0 2e dd eb ba d8 fd 79 bb f9 b7 fd 3b 85 57 4f bb
       -0.0017994994 -0.0038145687 0.0077428785 -0.003163786
0000d0 f0 91 e9 39 75 73 9e 3b a3 1f ca 3b 2f 9e 8a bb
       0.00044549955 0.004835541 0.006168322 -0.0042302827
0000e0 ba 69 a9 bb 75 4e 03 bc 21 98 79 bb 13 fe bc bb
       -0.0051700743 -0.008014311 -0.003808506 -0.0057675927
0000f0 d9 00 af 35 32 70 8c bb 6b 63 b1 ba 7b 4f 8c ba
       1.3038763e-06 -0.0042858357 -0.0013533657 -0.0010704839
000100 49 41 5b ba 44 b8 bf bb fc 54 a1 bb 0e 1f 05 bb
       -0.0008363915 -0.0058508236 -0.004923461 -0.00203127
000110 84 e3 19 bc 0f 48 4d bb 57 91 2f bb 96 13 71 bb
       -0.009392623 -0.0031323468 -0.002678951 -0.0036785356
000120 ce 95 ec b9 5f b1 ff bb 88 25 d2 bb d7 9d 3a bb
       -0.0004512504 -0.0078031267 -0.0064131655 -0.0028475428
000130 e4 1a 84 ba 12 6d b4 b9 8d 3c cb 39 92 4d 80 ba
       -0.0010078815 -0.0003441354 0.0003876429 -0.0009788743
000140 c5 94 87 3b 54 6d f3 bb b2 8a f9 3b 4d f5 a9 3c
       0.0041376078 -0.0074288044 0.0076154107 0.020746851
000150 64 ab 6b 3a d4 42 26 bc f8 0c c1 bb 23 b2 40 bb
       0.0008990078 -0.010147769 -0.0058914386 -0.0029403053
000160 15 ec 09 bb 64 80 3e 3a 0e 26 19 3a fc 22 ae 39
       -0.0021045257 0.00072670565 0.00058421574 0.00033213932
000170 8e 18 75 3b 92 01 44 ba 0f ee 90 2f c2 f8 26 3c
       0.003739867 -0.00074770406 2.6362598e-10 0.010191144
000180 86 22 0c 3c a5 2b e7 bb a2 44 e9 bb 3a 59 ab 3b
       0.008553153 -0.0070547634 -0.0071187774 0.0052291425
000190 86 45 29 3b c6 dc 6a bb 38 ab 60 ba 04 fb d1 bb
       0.0025828793 -0.0035837158 -0.00085704355 -0.006408097
0001a0 d8 ed a6 3b 5e 88 8f 30 3b d0 af bb 8e 4b ed 3b
       0.005094271 1.0443377e-09 -0.005365399 0.007241673
0001b0 f3 57 80 bb 8c cd 87 ba 76 7e cf ba 12 5b 22 38
       -0.0039167344 -0.001036094 -0.0015830535 3.8708626e-05
0001c0 81 f7 02 bc cb b4 32 bb d5 ff 8c bb 59 c2 1f bc
       -0.00799358 -0.0027268406 -0.0043029585 -0.009750926
0001d0 a1 0c 29 3c 5e bc 93 bb 6f 08 ea bb e0 a8 94 bb
       0.010317952 -0.004508539 -0.0071421186 -0.004536733
0001e0 19 4e 9d bb 1c c1 8e bb 17 b3 95 ba 4e 16 0f 3a
       -0.0048005697 -0.0043565165 -0.0011421171 0.0005458341
0001f0 9f 60 2e ba 91 a6 d0 bb d8 78 97 ba 00 77 6e bb
       -0.0006651971 -0.0063675125 -0.00115564 -0.0036386847

network_body._body_endoder.seq_layers.0.weight f4 [128, 77]
000000 26 0d c5 bd 94 fa 0c be 85 bf d1 3d 71 c0 80 bb
       -0.096216485 -0.13767463 0.102416076 -0.003929191
000010 23 25 6c bd 5b 4d 0e be 52 fc 1d be a6 5a e0 3c
       -0.057652604 -0.13896696 -0.15428284 0.027386975
000020 b0 0b 6b 3c ca 4b 38 be dc 62 ba bd e3 62 e4 bd
       0.014346048 -0.17997661 -0.09100887 -0.11151674
000030 f7 92 23 3e fa 7c e2 3d 7f b8 b2 bd 1f dc ed 3d
       0.15974031 0.11058994 -0.08726596 0.116142504
000040 a4 12 03 3d 8e 9a e1 3d cb 04 14 be 7a de 15 3e
       0.0320002 0.11015807 -0.14454953 0.1463565
000050 c8 36 88 bd 3f 6e 4c bd 73 29 59 3e 99 74 9d bc
       -0.06651074 -0.049909826 0.21207218 -0.019220637
000060 49 17 ad 3c a9 f6 89 3d 4c 1c ad bd b5 10 de bd
       0.021129267 0.067365 -0.08452663 -0.1084303
000070 a0 37 84 bc 3d ae c7 bd e0 8b df 3c 92 d3 44 3d
       -0.016139805 -0.0975003 0.027288377 0.04805333
000080 76 63 0d 3c d9 0c d4 bc 32 7c 07 3e 6b 8b eb bd
       0.00862967 -0.025885032 0.1323097 -0.11501201
000090 80 bf 00 bd 08 97 ac bc bc 4b 4f be 22 86 fc 3d
       -0.03143263 -0.021068111 -0.20243734 0.12330271
0000a0 ea 89 97 bd 91 85 4c bd c8 06 8f ba ab 69 45 3d
       -0.07399352 -0.049932066 -0.0010912055 0.048196476
0000b0 fc dd 51 bb 20 4b 75 3d 85 84 36 3e cf 98 1b be
       -0.0032023182 0.059886098 0.1782399 -0.1519501
0000c0 c9 25 85 3c c7 93 7d be d8 fc 6b bc 35 a3 51 3e
       0.016253369 -0.24763404 -0.014403544 0.20472415
0000d0 30 0c 1b be ac 90 28 be 33 d4 08 be d6 41 0b 39
       -0.15141368 -0.16461438 -0.13362198 0.00013280599
0000e0 68 8b 21 3e 10 98 64 bc d9 0a 41 bd 12 a7 1d 3d
       0.15775836 -0.01395227 -0.047129486 0.03848941
0000f0 42 d0 a2 bd b0 7a 15 be d6 33 61 be 86 d6 02 be
       -0.07949878 -0.14597583 -0.2199243 -0.12777147
000100 c7 58 bf bd d0 ca 2d 3e cd 8e 23 be 35 92 31 bb
       -0.09343105 0.16971898 -0.15972443 -0.0027095203
000110 ff 41 c0 bd 01 be 1f 3e 71 8f b8 bd 06 8f a4 bd
       -0.09387588 0.15599824 -0.09011734 -0.08035092
000120 ad 5b a4 3c cf e9 e4 3c 0c b0 ee 3d 6a 5b cb bd
       0.020063246 0.02794352 0.11654672 -0.09929545
000130 41 7c ae 3d 87 27 11 bd c8 3c af 3d 03 cb 85 bd
       0.08519793 -0.035438087 0.08556515 -0.06532862
000140 43 dc ba bd fe 25 f0 bd 6a f8 bf 3c 0d e0 06 3e
       -0.09124043 -0.117259964 0.023433883 0.13171406
000150 69 0e 89 3d a0 b1 a6 bc 56 2a fb 3d 14 00 48 bc
       0.06692202 -0.02034837 0.12263934 -0.01220705
000160 37 f8 1d bd 0d 41 dc bd cf 90 c4 bd e3 95 5a 3e
       -0.038566794 -0.10754595 -0.095979325 0.2134624
000170 a7 13 88 3d 8e 80 60 bd 59 b3 7a 3d cf 8e cc bd
       0.066443734 -0.0548101 0.061206196 -0.09988176
000180 15 8b 20 be c0 c0 b9 bd e8 c2 a9 bd 21 68 16 3e
       -0.15678056 -0.09069967 -0.082891285 0.1468816
000190 c1 4c 31 3e 71 04 be 3d 29 68 da bc dd 75 47 bd
       0.17314436 0.09278191 -0.026660996 -0.048696388
0001a0 5e 43 ad 3d cb c5 de bd af fa 84 bd 32 b6 e0 3d
       0.08460115 -0.1087757 -0.064931266 0.10972251
0001b0 b2 2b 82 bd 57 5b 59 3e 87 34 ae bd 14 1b e4 3d
       -0.063559905 0.2122625 -0.085061125 0.11137977
0001c0 1f 67 53 be 39 7d 8e 3d d0 d9 06 bd 1b 9e a7 bd
       -0.20644806 0.06957478 -0.032922566 -0.08184453
0001d0 ff ab 0e 3d 86 25 ca 3d bc 2a f0 bd 38 0e b8 3b
       0.034831997 0.09870438 -0.11726901 0.0056169294
0001e0 0d 2f 66 bd d0 28 78 3d 5c ed 8e bd 01 a0 ec 3d
       -0.056197215 0.060585797 -0.069788665 0.11553956
0001f0 4e bc 91 3e c7 7f c4 bd 7e c1 43 3e 6d ea 1a 3e
       0.28463978 -0.09594684 0.1911678 0.15128489
000200 e3 11 48 3e 97 28 04 be 1e 72 d6 bd f4 78 66 3d
       0.19538073 -0.12906109 -0.10470985 0.056267694
000210 d1 63 1c 3e 52 43 1b be a1 14 68 be bb a4 37 bd
       0.15272452 -0.151624 -0.2266412 -0.044834834
000220 65 7c 31 bc 0f 54 1b 3c ad a9 ec bd 93 06 04 3e
       -0.010832881 0.00948049 -0.115558006 0.12893133
000230 e9 cc 8b bd a8 99 17 3e 1d f7 35 bd fa f1 04 3e
       -0.06826193 0.14804709 -0.04442512 0.12982932
000240 6d c5 46 be cf c6 f2 bd 43 97 77 bc fc 2d 61 bd
       -0.1941125 -0.11854326 -0.015111747 -0.054975495
000250 f2 b4 50 3d 9a b0 70 3e a8 2f cd 3d 3a 16 92 3c
       0.050953813 0.23504868 0.10018855 0.017832864
000260 b8 2f b7 39 0e f7 be 3c 98 d5 5b bd 5d 29 12 be
       0.00034940033 0.023311164 -0.053670496 -0.14273591
000270 f6 fd 39 3d 76 72 ab 3d e5 74 d6 bd ca 38 0a bd
       0.04540821 0.08371441 -0.104715146 -0.033745565
000280 30 ff f3 3c ce 59 06 bd d2 33 f2 3c d1 0a 8d bd
       0.029784769 -0.03280049 0.029565725 -0.06886829
000290 cc 5a f1 3d 86 ee 0b bc 76 f0 1e bd d9 c1 aa 3d
       0.11784896 -0.008540755 -0.03880354 0.08337755
0002a0 78 82 ed 3c 5b 3f e0 3c 24 99 80 be f4 7d 8b 3d
       0.028992876 0.02737396 -0.25116837 0.06811133
0002b0 a8 0c e4 bc e6 e3 63 bc fd fa ec bc 67 d4 1a be
       -0.027838066 -0.013909316 -0.028928274 -0.15120088
0002c0 d4 84 90 3c 5c a6 3b 3e 71 24 2f 3d 2c 34 45 3d
       0.017641462 0.1832518 0.042759363 0.048145458
0002d0 5d c5 b2 3c eb d8 fb bd a3 b1 68 be 7b 63 f4 bc
       0.021822626 -0.12297233 -0.22724013 -0.029832592
0002e0 61 60 17 3d 2b 75 1b be d6 f9 74 3d 58 32 77 bd
       0.03695715 -0.15181415 0.059808575 -0.060350746
0002f0 e3 90 5e 3d 60 26 f5 bc 82 a2 04 be 29 5d 47 3e
       0.054337393 -0.029925525 -0.12952617 0.19469132
000300 57 c7 73 3d 54 6f d3 bd 06 e1 84 3d a1 3f 6e bd
       0.059516277 -0.103239685 0.06488232 -0.05816615
000310 76 98 58 3c 52 2c 88 bd 57 51 c5 be a4 36 09 3e
       0.013219943 -0.066490784 -0.3853862 0.1339975
000320 0a 33 61 bd 9a 7d bb bd 83 8f ae bc 96 ea 7c bd
       -0.054980315 -0.09154816 -0.021308666 -0.061747156
000330 18 51 ba 3b 32 7a de 3d aa d4 ab bd 5e 2f 3d 3d
       0.0056859367 0.10863151 -0.08390172 0.04618775
000340 0e 84 41 be f4 23 d3 bc 02 51 36 bc 06 9b af bd
       -0.18898031 -0.02577398 -0.011127712 -0.0857449
000350 1e 7a ec bd 24 2d e0 bd 5d 3b 0c be 3d 94 35 be
       -0.115467295 -0.1094611 -0.1369452 -0.1773233
000360 1f 19 9f 3d 60 e1 19 3d dc 82 f0 bc ab 9e 27 bd
       0.07768463 0.03756845 -0.029359274 -0.040922802
000370 75 3e 33 3e c8 92 30 3e 27 0a 0c 3e 7d c4 c3 bd
       0.17504294 0.17243493 0.13675748 -0.095589615
000380 5b 90 af 3d ae 31 01 3e 96 0b 8b bd b5 85 a7 bd
       0.085724555 0.12616608 -0.06789319 -0.081797995
000390 c5 b6 96 3d 6e ba 36 bd 9c d0 06 3e 96 2e af bd
       0.07359079 -0.044611387 0.13165516 -0.085538074
0003a0 57 7a 54 be 69 cb d2 3c 33 db d9 bd 1e e2 bd 3d
       -0.20749794 0.02573176 -0.10637512 0.09271644
0003b0 9d 91 d4 3d 1e cd 8c 3d 81 39 33 3e e6 be a8 bd
       0.10379336 0.068750605 0.17502405 -0.08239536
0003c0 d5 cd c2 bc d9 fc 35 bd ef 08 aa 3d 13 8f 8c bc
       -0.023779789 -0.044430587 0.08302485 -0.017158067
0003d0 5c ab 02 3e 61 ae 39 3e 73 32 ce 3d c0 a9 94 bd
       0.12760681 0.18132927 0.10068216 -0.0725894
0003e0 ca dc 71 3d c5 ad 45 3c 61 89 8e bd 38 69 6b 3d
       0.05904845 0.012065356 -0.06959797 0.05747339
0003f0 20 cf 1d be c6 60 22 bc 68 8b 0a be 63 31 07 3c
       -0.15411043 -0.009910768 -0.13529742 0.008251521

network_body._body_endoder.seq_layers.2.bias f4 [128]
000000 7d ce 3d bb 63 23 95 bb b5 2d 84 bb 15 88 c6 b9
       -0.0028962188 -0.0045513376 -0.004033769 -0.00037866892
000010 77 1f 8d ba f4 16 2e bb 7e d0 87 bb be 64 af 3b
       -0.0010766824 -0.0026563974 -0.0041447273 0.0053525856
000020 44 1b b0 ba c4 10 e0 ba 6d 64 9c 3a 7e fa 2e bb
       -0.001343586 -0.001709484 0.0011931785 -0.0026699598
000030 54 8b 9c ba 83 1f a4 bb db 3a 9c bb 43 aa 35 ba
       -0.0011943378 -0.0050086393 -0.0047677583 -0.0006929973
000040 53 84 6d bb 42 cf 30 3b 71 e3 39 bb 2c 3b 8b ba
       -0.0036242201 0.0026979004 -0.0028364325 -0.0010622493
000050 34 4f b4 bb 91 8b 8e bb 5b 92 2f ba af b3 4e ba
       -0.005502606 -0.0043501337 -0.0006697529 -0.00078850513
000060 7d 8d ab bb b6 a6 f4 bb 24 f3 14 3b 24 05 b6 bb
       -0.0052353726 -0.0074661626 0.002272793 -0.005554812
000070 d6 7b 6e ba d7 ae fe bb 61 a3 aa bb b7 5d 13 bb
       -0.00090974325 -0.0077723074 -0.0052074646 -0.0022486278
000080 e7 d9 cd ba 6e 10 05 bb c8 0f 42 bb 09 97 f9 b9
       -0.0015705199 -0.0020303982 -0.0029611457 -0.0004760551
000090 df 6c 4b bb 9d 8a 63 3b b1 b1 14 bb 8f 94 9d bb
       -0.0031040234 0.003472007 -0.002268892 -0.0048089693
0000a0 e6 07 18 bb 31 e6 57 bb 9b 14 1f bb af 25 08 bb
       -0.0023198067 -0.0032943601 -0.0024273756 -0.0020774414
0000b0 00 80 a2 bb 06 5d 01 bb 9c c9 b8 bb 4b e4 eb b9
       -0.0049591064 -0.0019739284 -0.005639268 -0.00044992784
0000c0 dd 10 ae bb 3f 1b 62 3b d0 ca 35 3a 47 4a 58 bb
       -0.005312069 0.0034501103 0.00069348235 -0.0033003257
0000d0 dc 8c c0 bb 4a 73 7b ba f8 0f 38 3b 69 83 20 3a
       -0.0058761667 -0.00095920695 0.002808569 0.0006123097
0000e0 a5 58 2b bb 81 0e 15 3b 3d 89 2a b9 d6 e4 d8 bb
       -0.0026145366 0.002274424 -0.00016263589 -0.0066190762
0000f0 22 a6 2e bb 3f d6 d4 39 3c a7 68 bb b5 a6 cf b9
       -0.0026649316 0.00040595417 -0.003550007 -0.00039606323
000100 48 20 69 bb 51 da f6 bb c8 3b b7 3b c5 74 6d b9
       -0.003557222 -0.0075333496 0.0055918433 -0.00022645581
000110 2e b2 1f bc f3 f6 b3 bb 0a b8 96 bb ec db b1 3b
       -0.009747071 -0.005492085 -0.004599576 0.005427828
000120 3e a5 ba b9 48 0a 9f 3b 73 c9 07 3b 6b 5e 4d bb
       -0.000355998 0.0048535205 0.0020719438 -0.0031336795
000130 78 a4 45 bb 78 80 d2 ba 93 f1 36 3a b9 2c ba ba
       -0.0030157845 -0.0016060015 0.00069787464 -0.0014204002
000140 d1 f0 66 3b 98 b0 1c bb 3a fb 05 ba 96 09 ea b9
       0.0035238753 -0.002390897 -0.0005110983 -0.000446391
000150 90 3d 64 bb be 57 30 bb 6b 5c 57 bb 72 e4 5f b9
       -0.0034826733 -0.0026907767 -0.0032861482 -0.0002135204
000160 58 f4 d1 bb f9 8c 03 bb 5c 72 93 bb 75 50 9f bb
       -0.006407302 -0.002007304 -0.0044997167 -0.004861886
000170 00 79 f3 b9 69 57 b9 ba e8 eb 55 3b 15 5e 08 3b
       -0.00046438724 -0.001414043 0.0032641832 0.002080803
000180 39 d7 33 bb 23 46 42 bb e7 4e 87 ba a1 2a f0 ba
       -0.0027441515 -0.0029643856 -0.0010323197 -0.0018323251
000190 48 d5 78 b4 80 7a 58 ba a5 fc 9a bb 8b 53 f3 b9
       -2.3174391e-07 -0.0008258 -0.0047298246 -0.00046410816
0001a0 5a 37 ca 3a bf 29 f7 b8 9b 17 22 3b 04 9f 88 b8
       0.0015427873 -0.000117856536 0.0024733308 -6.514604e-05
0001b0 50 21 e0 bb 97 9d 94 3a 7b 13 49 bb 90 ef e1 bb
       -0.0068399087 0.0011338469 -0.0030681777 -0.006895013
0001c0 0f 87 42 ba 4a d6 16 bb 71 58 8c bb e7 75 aa bb
       -0.0007420638 -0.002301591 -0.004283004 -0.0052020433
0001d0 6e c5 20 31 e1 5c c1 3b 40 ee 46 bb 5a 14 bf bb
       2.339529e-09 0.0059009646 -0.003035441 -0.0058312835
0001e0 c1 04 38 ba 8a e6 6e 3b ba 2a cb ba 12 2b 4f ba
       -0.00070197514 0.003645333 -0.0015500404 -0.00079028413
0001f0 fe 47 0b 38 3a b3 54 bb 7b 3d 22 3b 4c 1b b9 b9
       3.320723e-05 -0.003245546 0.0024755883 -0.00035306287

network_body._body_endoder.seq_layers.2.weight f4 [128, 128]
000000 fd 38 0c be 3f c8 10 be d2 91 9c bd af 93 f4 bc
       -0.13693614 -0.14138888 -0.076450005 -0.029855577
000010 d3 01 0f be 7c 8c a5 3a 56 2b 9d 3c c2 c1 36 be
       -0.1396554 0.0012630369 0.019185703 -0.1784735
000020 1d b9 18 be 1a 47 19 be d7 1a b3 bc 67 0b ab bc
       -0.14914365 -0.1496853 -0.021863384 -0.02087946
000030 ca 80 b4 3d ff ae fd 3c 22 1d 97 3d a0 0b 18 bd
       0.08813627 0.030967234 0.073786035 -0.03712046
000040 46 19 94 bd c6 e0 88 3d 34 70 ae ba 78 ed 1c 3d
       -0.07231383 0.06683497 -0.0013308586 0.038312405
000050 de 66 75 bd 7b e6 85 bd ed 9d 66 3d a0 57 1f 3d
       -0.059912555 -0.06538101 0.056302954 0.038901925
000060 33 e3 24 be 9e 1f e8 bc 90 61 86 bc f9 54 ad bd
       -0.16102295 -0.028335389 -0.016403943 -0.08463473
000070 a8 06 dd bc ed eb 0e 3e 65 85 85 3d 1b dd 04 be
       -0.026980713 0.13957186 0.065195836 -0.1297497
000080 98 d0 5d 3d 7c ce f1 3d 08 b8 76 bd 90 11 3b bd
       0.05415401 0.11806962 -0.0602341 -0.045671046
000090 30 38 ab bd 39 46 70 3e 33 29 be 3d 9f b6 9c 3c
       -0.08360326 0.23464288 0.09285202 0.01913005
0000a0 3f 9c 4f be 8c 5f 91 bd 9a bc cf 3d 71 dd bf 3d
       -0.20274447 -0.07098302 0.10143395 0.093684085
0000b0 47 89 a0 bd 6e c3 8e 3d 13 1c 66 bd 16 1e 9e 3d
       -0.078386836 0.06970869 -0.056179117 0.07720582
0000c0 22 e8 21 3e 16 2e 61 bd fa c3 2d be 86 a1 86 3c
       0.15811208 -0.05497559 -0.1696929 0.016434442
0000d0 0b 48 83 3d 43 85 71 3d 31 31 93 3c 73 a8 e4 bc
       0.064102255 0.05896498 0.017967792 -0.027912354
0000e0 83 58 ab bd 6b d8 cb 3c 6d b2 0c be dc a2 38 3c
       -0.08366492 0.02488347 -0.13739939 0.011269297
0000f0 b1 50 c9 bd ef 30 dd 3c 33 57 e2 3b f6 30 00 bd
       -0.09829844 0.027000872 0.0069073676 -0.031296693
000100 9b 52 9a 3c 8d ef 3b bd 40 0d 52 bc 88 1b 4b 3d
       0.018838217 -0.04588275 -0.012820542 0.049586803
000110 c2 30 83 3d bc 62 38 be 87 70 07 3d 84 ab 09 be
       0.06405784 -0.18006414 0.0330663 -0.13444334
000120 f0 28 42 3e 02 96 48 3c a9 43 02 bd 43 ba 67 3d
       0.18960929 0.012242796 -0.031802807 0.056574117
000130 26 7d 3b be f8 a4 90 bd cf 1e e8 bd 15 04 59 bc
       -0.18309459 -0.07062715 -0.11334001 -0.013245602
000140 4b 40 b8 3d 08 d7 d0 bd 95 67 9a bc fe 3e 4b bc
       0.08996638 -0.10197264 -0.01884822 -0.012405155
000150 82 ba c2 3d b4 e0 1c be ca 01 0e bc 80 6c 58 be
       0.0950823 -0.15320092 -0.008667419 -0.2113514
000160 cf e5 ae bc e4 bc 69 bd 4a 26 77 bd 8f 47 81 bc
       -0.021349816 -0.057064906 -0.06033925 -0.015781192
000170 52 b1 b6 bd 86 88 1b be a9 04 c9 3d 4f 2b ca bd
       -0.0892054 -0.15188798 0.09815342 -0.09871542
000180 da e1 4b be d7 56 7a 3c 6e 94 04 bd 3f 1f bd bc
       -0.19910374 0.015279493 -0.032368116 -0.023086188
000190 89 e0 44 3d cf dd 56 3d b1 15 29 3d 55 d5 e0 3c
       0.048065696 0.052457627 0.041280452 0.027445475
0001a0 13 9f 2b ba 5c 8a 74 bd 61 d0 15 be 4b 79 e0 3d
       -0.0006546836 -0.059702262 -0.14630271 0.10960635
0001b0 d0 f2 2c 3d 62 1b 46 bd 27 f5 85 bb 46 ed 10 be
       0.04222375 -0.048365958 -0.0040880623 -0.14153013
0001c0 93 9a af bc 00 39 67 3d 2d 76 33 be 65 6c 15 be
       -0.021436011 0.056450844 -0.17525549 -0.1459213
0001d0 7d 00 92 bd 26 aa 70 bd 6e 2b 18 3d 35 39 58 3b
       -0.071289994 -0.058756016 0.037150793 0.0032993082
0001e0 82 fc c3 bc 88 8f 0f bd a0 38 2c be 90 70 69 bd
       -0.023924116 -0.03504899 -0.16818476 -0.056992114
0001f0 0b 39 45 3e 5a ec 37 3d 0e 95 7c 3c f3 75 8c bb
       0.19260041 0.044903137 0.015416397 -0.0042865216
000200 66 86 42 bd 9a 15 ee bd 7e c4 bb 3d 93 7b 06 be
       -0.047491454 -0.11625214 0.09168337 -0.13133077
000210 88 50 0c 3e 64 2d 86 bd da 8d e5 bc 6a d5 3c 3d
       0.13702595 -0.06551626 -0.028021742 0.046101965
000220 e0 b6 22 bd 2c 18 13 3d d3 15 dc 3d 9c 76 ae bd
       -0.039725184 0.035911724 0.1074635 -0.08518717
000230 46 68 24 3d e5 db 0a 3d 9d 73 00 3d 68 06 18 3d
       0.040138505 0.033901114 0.031360257 0.037115484
000240 a2 91 63 bc 6c bb 0c bd e7 76 aa 3d 84 4b 6c 3d
       -0.013889702 -0.034358427 0.0832346 0.057689205
000250 c7 8b cb 3c 14 a9 f2 bd 75 64 92 bd ad 86 6a bd
       0.024846924 -0.11848655 -0.07148067 -0.057257343
000260 cf 69 54 bd eb 33 5b bd d9 ea cc bc ed 22 51 3d
       -0.05185872 -0.05351631 -0.025014328 0.0510587
000270 9a 01 0f bd ea eb d7 3d f8 32 ab bd 57 bc c0 bd
       -0.034913637 0.10543044 -0.08359331 -0.09410923
000280 fc 9d 95 bc a8 b8 11 be 53 3a 54 3e 34 41 cc bc
       -0.01826381 -0.14230597 0.20725374 -0.024933435
000290 d0 c9 ab bd 30 77 61 bd ce cd 41 3d cb e1 a0 3d
       -0.08388102 -0.055045307 0.04731541 0.078555666
0002a0 2f f6 68 bd 2b 57 77 3d ad 0e 30 3b dd 76 a8 3d
       -0.056875404 0.060385864 0.0026864216 0.08225796
0002b0 2f 64 a9 bd ed ac a1 3d b5 2b 13 bd 74 54 cc 3d
       -0.08271062 0.07894311 -0.035930354 0.09977046
0002c0 cd 53 1d 3e 17 8e 56 bc f4 35 2e 3d b6 d4 43 bd
       0.15363999 -0.0130954 0.042531922 -0.04781028
0002d0 44 e8 04 3e e1 e0 0a 3d ad 01 12 3d fa e5 69 be
       0.12979227 0.033905867 0.03564613 -0.22841635
0002e0 7f c1 3f 3d 41 91 8f 3d 7f c7 1e bd 9f 1b 33 3e
       0.04681539 0.07010127 -0.038764473 0.17491005
0002f0 a9 e6 85 3d 3f dc 26 3e 51 df 4e bd b2 d1 91 3b
       0.065381356 0.16294955 -0.05050594 0.0044500465
000300 08 42 79 ba f1 b7 0a be 30 a9 48 3e a4 bb 27 3d
       -0.00095084356 -0.1354673 0.1959579 0.040950432
000310 ce a3 be bd 76 aa bb bd 6f 09 9a 3c 2f b3 49 3c
       -0.09308587 -0.09163372 0.018803326 0.012310787
000320 07 fc 27 bd 14 06 78 3d a3 64 84 3e 8e 14 2b bd
       -0.041011836 0.06055267 0.2585803 -0.04176765
000330 ef 4b 13 be cb 9e 7d 3d 5a 08 61 3e 6d 21 91 bd
       -0.14384435 0.061919015 0.21975842 -0.070864536
000340 b8 4e 48 bb e0 00 d2 3d 8a 14 b7 bc 3e f2 5b 3d
       -0.0030564498 0.10254073 -0.022348661 0.053697817
000350 03 cc d6 3c 2b 93 09 3d 60 ac d6 bc bc 7a 82 3d
       0.026220327 0.033587616 -0.026205242 0.06371066
000360 13 91 02 be d1 a9 bd 3c 0d 09 06 bd c1 7d f6 3d
       -0.12750654 0.023152264 -0.032723475 0.120357044
000370 78 d2 32 3d 2e 3d 32 bb 9e 98 05 3d 3f 70 3c bd
       0.04365775 -0.002719711 0.03261625 -0.046005484
000380 a4 9b 28 3d 28 23 f3 3c 2f f0 45 bd f4 67 50 3d
       0.041164055 0.02967985 -0.04832476 0.050880387
000390 73 77 85 3d a2 53 23 bd e5 a0 25 3e 16 f0 8e bd
       0.06516924 -0.03987468 0.16174658 -0.069793865
0003a0 c6 50 e7 3d c5 79 ea 3c a1 04 0a bd fc 3d 09 3d
       0.11294703 0.028622517 -0.03369582 0.03350638
0003b0 aa ad 82 3d 03 16 04 bd 7f cf 76 bd f5 f4 20 bc
       0.0638078 -0.032247555 -0.060256477 -0.009824027
0003c0 5f 2d 88 bd 74 ac 75 3d d5 e8 9a bc ca 69 72 3d
       -0.06649279 0.059978917 -0.018909851 0.05918292
0003d0 40 3b 0f 3d fa a7 5b bd c5 94 be 3d a5 ba 8c 3c
       0.034968615 -0.05362699 0.09305719 0.017178843
0003e0 a0 64 d2 bd 0d 59 a6 bd 34 a7 90 3d f4 ab cb 3d
       -0.10273099 -0.08122454 0.070631415 0.09944907
0003f0 fb be 0b 3d 55 72 0c be dc 40 6a bd 71 ec df bd
       0.03411768 -0.13715489 -0.05719076 -0.109337695
