mlagents/Assets/results/RollerBallTest3/RollerBall/RollerBall-96964.onnx (onnx, 73485 bytes, 7 tensors)

action_model._continuous_distribution.log_sigma f4 [1, 2]
-0.25518677 -0.16000104
00000000: d7a7 82be 50d7 23be

action_model._continuous_distribution.mu.bias f4 [2]
0.03197638 0.008646617
00000000: aaf9 023d 8aaa 0d3c

action_model._continuous_distribution.mu.weight f4 [2, 128]
-0.017498521 -0.02613271 -0.008977959 -0.0022761 -0.0072641047 -0.005612508 0.0036874067 -0.014346516
-0.008360585 -0.016673962 -0.00823275 0.020538133 -0.024705727 -0.014195894 -0.08770566 -0.023672627
-0.017867247 -0.0040928395 -0.0182215 -0.01957703 -0.015414806 -0.01641337 0.005401227 0.0059785917
-0.014042528 0.008428723 -0.028366035 -0.015218987 -0.0030519515 -0.026572267 0.0021577305 0.011615097
0.0059581148 0.054927252 -0.011830389 -0.04435472 -0.0073122564 -0.010045822 -0.015992232 -0.0042931703
-0.0128691485 -0.0016696109 0.0078850975 -0.015373239 0.010653897 -0.009887983 -0.009847169 -0.04136801
-0.007913514 -0.1352579 -0.01983355 -0.008603304 -0.013652213 0.008808763 0.002673205 -0.042575415
-0.052873746 0.005238937 -0.012864417 -0.023724576 -0.0035398344 -0.068725005 -0.0023042974 -0.011940802
-0.016513111 -0.029526401 -0.063236356 0.0030435803 -0.07582351 -0.025271796 -0.027943308 -0.011157724
-0.0069265696 -0.0020682295 -0.027887294 -0.03424128 -0.008693931 -0.010395241 0.013471233 -0.0289305
-0.015872825 -0.011683545 0.005811909 -0.0021261 -0.0040970715 -0.021460546 -0.025729628 -0.010502848
-0.07313662 -0.042360008 -0.007256044 0.0019099945 -0.037619825 -0.0062457705 -0.005108734 -0.019834476
-0.023999251 -0.02518653 0.003435309 -0.01652716 -0.0070067295 -0.012038818 -0.004722119 -0.0133539215
0.03885824 -0.005862894 -0.0189269 -0.0047187605 -0.03177646 -0.014754325 -0.006028478 -0.016766619
0.03927291 0.0041471417 0.0064821136 -0.019280387 0.03329887 -0.021675713 -0.0081837475 -0.0021523498
-0.06737673 0.0171024 -0.0059637576 -0.018949326 0.050425224 -0.005758729 -0.045066044 0.01153366
-0.0009349721 -0.0011263099 -0.015374955 0.00047964454 0.05999113 0.015150781 -0.04164799 0.028107863
-0.0038310878 0.023827692 0.0022019942 0.014449866 -0.0058971993 -0.0016841652 0.014168645 0.015410702
-0.017982386 0.0043313312 -0.063274816 0.006626019 -0.00648656 0.016690219 0.026914658 -0.0065600243
0.012972772 -0.0065782443 -0.012506584 -0.07995986 0.020320881 0.037737083 0.036724646 -0.00795076
0.005651372 0.04570097 -0.041945633 -0.0025594083 -0.0038174158 -0.033745687 0.0025760143 -0.02151707
-0.0015218701 -0.0005325397 -0.02643687 -0.004652564 0.011205884 0.011006049 0.025431005 -0.011707589
0.015468258 0.02290733 0.029653732 0.041929163 -0.04294082 -0.016580092 -0.0045108516 -0.007221307
0.0009311902 -0.008417627 -0.020677242 0.0019971412 -0.0027553036 -0.038556535 0.0086997505 0.006850427
0.013840569 -0.006477603 0.019181756 -0.0025008155 0.018253727 0.028347647 -0.003779495 -0.024099179
0.011004159 0.0049280943 0.024035323 0.027335856 0.028757859 -0.017259251 0.0007937629 0.0048264805
0.012768669 -0.056704514 -0.0013682022 -0.029357325 -0.048397858 -0.00083965965 -0.005806306 -0.021729156
-0.020117287 0.030664446 0.010464492 0.0058640284 0.004196858 0.0046665906 0.0017042792 -0.0059231822
-0.078193314 -0.012854015 0.013179267 -0.011595632 -0.0041803396 -0.006873276 0.013251706 -0.0073139467
-0.021798484 -0.051820803 0.026476089 -0.009761109 0.031074122 0.0037852135 -0.00812262 -0.014281008
0.012169043 0.0015277051 -0.014132989 0.02266029 0.013792915 -0.02535753 0.0041796826 -0.009171258
-0.012440564 0.005477832 0.0020757867 -0.00494237 0.0004000958 0.0010074652 0.023186909 0.01165626
00000000: 0f59 8fbc 4414 d6bc 4a18 13bc 9f2a 15bb
00000010: ba07 eebb 21e9 b7bb 6ba8 713b a60d 6bbc
00000020: d6fa 08bc d597 88bc a8e2 06bc 963f a83c
00000030: aa63 cabc e595 68bc 069f b3bd 19ed c1bc
00000040: 555e 92bc 3a1d 86bb 4145 95bc 0260 a0bc
00000050: 628e 7cbc 5575 86bc c7fc b03b 10e8 c33b
00000060: a212 66bc a018 0a3c e35f e8bc 0f59 79bc
00000070: 4003 48bb 15ae d9bc b668 0d3b 3f4d 3e3c
00000080: 4a3c c33b 66fb 603d 3fd4 41bc 4bad 35bd
00000090: a79b efbb 3b97 24bc 2402 83bc b9ad 8cbb
000000a0: 1fd9 52bc d8d6 daba 7f30 013c 0ae0 7bbc
000000b0: af8d 2e3c 3501 22bc 0556 21bc 8171 29bd
000000c0: afa7 01bc 0c81 0abe f879 a2bc dff4 0cbc
000000d0: 88ad 5fbc a152 103c f030 2f3b 8f63 2ebd
000000e0: 2492 58bd 64ab ab3b 47c5 52bc 0b5a c2bc
000000f0: 91fc 67bb b2bf 8cbd b203 17bb 5ba3 43bc
00000100: 8146 87bc 5ae1 f1bc 1082 81bd ce76 473b
00000110: 5b49 9bbd cc06 cfbc 5de9 e4bc e3ce 36bc
00000120: 47f8 e2bb 228b 07bb e573 e4bc 9640 0cbd
00000130: fd70 0ebc cd50 2abc 72b6 5c3c a8ff ecbc
00000140: ba07 82bc 576c 3fbc d471 be3b 0a56 0bbb
00000150: ba40 86bb 07ce afbc f1c6 d2bc 2314 2cbc
00000160: a7c8 95bd b081 2dbd 1cc4 edbb c858 fa3a
00000170: 3f17 1abd 52a9 ccbb 2b67 a7bb e97b a2bc
00000180: 149a c4bc fb53 cebc ec22 613b f763 87bc
00000190: b598 e5bb 763e 45bc 01bc 9abb 68ca 5abc
000001a0: d129 1f3d 851d c0bb 960c 9bbc d59f 9abb
000001b0: 0928 02bd 20bc 71bc 8a8a c5bb 265a 89bc
000001c0: a2dc 203d bfe4 873b e967 d43b e7f1 9dbc
000001d0: 6564 083d 4491 b1bc 2015 06bc 700e 0dbb
000001e0: d0fc 89bd 551a 8c3c a06b c3bb 9e3b 9bbc
000001f0: ae8a 4e3d b8b3 bcbb 2c97 38bd adf7 3c3c
00000200: ea18 75ba b0a0 93ba 3ce7 7bbc cd78 fb39
00000210: 42b9 753d fb3a 783c 1597 2abd 7642 e63c
00000220: fd12 7bbb 4b32 c33c 554f 103b 21bf 6c3c
00000230: 4b3d c1bb 35bf dcba 9b23 683c 2b7d 7c3c
00000240: cc4f 93bc d7ed 8d3b 3a96 81bd 131f d93b
00000250: 368d d4bb edb9 883c 217c dc3c 79f5 d6bb
00000260: c08b 543c 508e d7bb 6ae8 4cbc ffc1 a3bd
00000270: fa77 a63c 3392 1a3d 956c 163d e843 02bc
00000280: 252f b93b f130 3b3d 2fcf 2bbd bfbb 27bb
00000290: 9c2d 7abb eb38 0abd 59d2 283b 9144 b0bc
000002a0: 7d79 c7ba 229a 0bba 2392 d8bc 8974 98bb
000002b0: e298 373c b752 343c af54 d03c 30d1 3fbc
000002c0: 946e 7d3c 27a8 bb3c 62ec f23c eabd 2b3d
000002d0: b7e2 2fbd f9d2 87bc c4cf 93bb b7a0 ecbb
000002e0: 1e1b 743a 16ea 09bc 5263 a9bc 78e2 023b
000002f0: 5392 34bb 75ed 1dbd 6689 0e3c 8c79 e03b
00000300: 8ec3 623c 1342 d4bb 0f23 9d3c b9e4 23bb
00000310: d788 953c 5339 e83c 67b1 77bb a46b c5bc
00000320: ca4a 343c da7b a13b bae5 c43c 72ef df3c
00000330: 9a95 eb3c 4663 8dbc 8714 503a 7427 9e3b
00000340: ae33 513c fe42 68bd 3f55 b3ba c67e f0bc
00000350: d53c 46bd 9b1c 5cba d342 bebb 5801 b2bc
00000360: 02cd a4bc 0134 fb3c 4373 2b3c 0927 c03b
00000370: cc85 893b 33ea 983b 1f62 df3a 4117 c2bb
00000380: d123 a0bd a699 52bc daed 573c 9bfb 3dbc
00000390: 3bfb 88bb 3839 e1bb af1d 593c d5a9 efbb
000003a0: bc92 b2bc 0d42 54bd 62e4 d83c 0fed 1fbc
000003b0: 288f fe3c 5811 783b bd14 05bc e4fa 69bc
000003c0: aa60 473c 473d c83a 0d8e 67bc 13a2 b93c
000003d0: aefb 613c 98ba cfbc b8f5 883b 0b43 16bc
000003e0: 82d3 4bbc 637f b33b ec09 083b 9bf3 a1bb
000003f0: f3c3 d139 ec0c 843a 79f2 bd3c e6f9 3e3c

network_body._body_endoder.seq_layers.0.bias f4 [128]
-0.020664021 0.021514319 -0.086938605 -0.02078213 -0.043565832 -0.03772751 -0.03820593 -0.0055823987
0.097836375 -0.0014860275 0.001042365 0.018049665 -0.010297943 -0.0530007 -0.1151397 0.023353498
-0.028332505 -0.051326588 0.07525245 0.08506323 -0.09155276 0.0045130393 0.0010709872 -0.11393408
-0.0002524537 -0.060408466 -0.0429444 -0.0012191603 0.03421201 0.007893683 0.08358074 -0.011177293
-0.02431398 -0.010032961 -0.06480813 0.03692131 0.027751302 -0.018659815 -0.013142236 0.021519894
0.027659798 -0.003926622 0.021303717 0.060791843 0.05920226 -0.033129465 -0.007921992 -0.016453903
0.037648924 0.004873547 -0.007488817 0.09934197 -0.022167206 0.04202514 0.016300213 -0.023769699
0.11032963 0.01156952 -0.034742072 -0.03709905 -0.00026625863 -0.085448086 0.08954078 0.15546502
-0.12139169 -0.018657716 0.0164732 -0.0054273712 0.052739237 0.08130158 0.017736884 -0.0094075035
0.07093905 0.100720674 -0.016165476 0.0039218506 -0.012787655 -0.021334715 -0.017925851 0.019144755
0.08574458 -0.039864272 -0.08798431 -0.02472502 -0.025288878 -0.025564188 0.04979397 -0.004943456
-0.01034536 -0.014488659 -0.014049659 0.06864539 -0.028692473 0.015571355 -0.011086137 -0.06864273
-0.00027121813 0.04599989 0.018697936 0.06821092 0.0128568625 0.06276721 0.04788846 -0.011817211
0.021409633 -0.040885877 -0.034675535 -0.009913278 0.012849897 -0.13775283 -0.046898335 0.004969845
-0.009320631 -0.029569011 0.03646538 -0.10835553 -0.014102411 -0.04851855 -0.004378233 -0.02277199
0.027302532 -0.032622375 0.0046376064 0.022921436 -0.01802044 -0.07341902 -0.081584856 -0.02070347
00000000: 9847 a9bc cc3e b03c de0c b2bd 493f aabc
00000010: 1672 32bd 2988 1abd d27d 1cbd 8eec b6bb
00000020: 705e c83d cfc6 c2ba f79f 883a e4dc 933c
00000030: b4b8 28bc 4317 59bd 5dce ebbd d64f bf3c
00000040: 9219 e8bc d43b 52bd f51d 9a3d a135 ae3d
00000050: 0380 bbbd 1ee2 933b 5e60 8c3a 4556 e9bd
00000060: c35b 84b9 de6e 77bd 78e6 2fbd 3bcc 9fba
00000070: e521 0c3d 8254 013c 612c ab3d f720 37bc
00000080: 1d2e c7bc 4a61 24bc 20ba 84bd cd3a 173d
00000090: b356 e33c 78dc 98bc 8852 57bc 7d4a b03c
000000a0: cd96 e23c e5aa 80bb 2285 ae3c de00 793d
000000b0: 127e 723d c3b2 07bd 3ecb 01bc 56ca 86bc
000000c0: c235 1a3d 46b2 9f3b c064 f5bb ce73 cb3d
000000d0: 0098 b5bc 8e22 2c3d 0688 853c acb8 c2bc
000000e0: 80f4 e13d 168e 3d3c b44d 0ebd 2cf5 17bd
000000f0: a198 8bb9 68ff aebd 2861 b73d 3932 1f3e
00000100: 359c f8bd 11d8 98bc cef2 863c 17d8 b1bb
00000110: 1905 583d 7181 a63d f14c 913c ee21 1abc
00000120: 7e48 913d a446 ce3d 766d 84bc de82 803b
00000130: 5083 51bc 24c6 aebc 3cd9 92bc 76d5 9c3c
00000140: db9a af3d b848 23bd 1e31 b4bd 208c cabc
00000150: 9f2a cfbc fd6b d1bc c3f4 4b3d b7fc a1bb
00000160: 967f 29bc d761 6dbc 8a30 66bc f495 8c3d
00000170: 7a0c ebbc ff1e 7f3c a1a2 35bc 8f94 8cbd
00000180: 4832 8eb9 616a 3c3d 6a2c 993c 2bb2 8b3d
00000190: 97a5 523c 188c 803d b126 443d fa9c 41bc
000001a0: 4163 af3c f377 27bd ef07 0ebd 4d6b 22bc
000001b0: 6088 523c 140f 0dbe 7818 40bd 15da a23b
000001c0: 8fb5 18bc b63a f2bc b95c 153d 81e9 ddbd
000001d0: cd0d 67bc 63bb 46bd 4877 8fbb 538c babc
000001e0: 8fa9 df3c 0a9f 05bd 10f7 973b bcc5 bb3c
000001f0: 9a9f 93bc b65c 96bd f615 a7bd 539a a9bc

network_body._body_endoder.seq_layers.0.weight f4 [128, 8]
-0.122282505 -0.17806502 -0.22703353 0.2217787 0.35695687 -0.19140393 -0.3658694 0.036629878
0.30533728 -0.022809012 0.3937332 -0.25697872 0.47936478 0.4961279 0.06302301 0.7586064
-0.028154338 0.16118528 0.021797746 0.794393 0.22566809 -0.50088096 0.5269694 -0.5773281
0.014241838 0.15169384 0.28030422 0.22974351 -0.23110195 -0.18080656 -1.1045617 0.16308424
0.26641756 -0.5211835 -0.042956147 -0.14187503 0.1820162 -0.5673656 -0.4350939 0.20628472
-0.14887506 -0.19446684 0.61828953 0.21848942 -0.32156923 -0.5715648 0.6701124 0.020627163
0.17062071 0.23805028 -0.3713545 -0.08706348 -0.6933471 0.41717824 -0.25894636 0.09543131
-0.34814766 0.07180108 0.26221526 0.17498867 0.05757233 -0.2890492 0.2984098 -0.39176732
-0.59731185 0.032345477 -0.39773962 0.5408599 0.3670087 0.37994257 0.6359538 -0.03550712
0.033630267 -0.3346225 -0.45869055 -0.5113111 -0.26127505 0.11914933 0.028195377 0.21711807
-0.050246883 -0.32091185 0.08634244 0.12639275 -0.33279416 0.42050356 0.31119025 0.23039876
0.16432296 -0.1598759 -0.03489277 0.013654804 -0.2572594 -0.0070209126 -0.45080888 -0.58783257
0.51987916 0.2695302 -0.33599508 0.16973591 0.041128516 0.7620437 0.15695472 0.44484892
0.5407272 -0.35723123 0.051420394 0.6040993 0.20787685 0.16442473 -0.5432929 0.3145498
0.12151888 -0.49015513 -0.22656293 0.45449984 -0.32212368 -0.471738 -0.3620602 0.13461965
-0.14839163 0.03540599 -0.11996086 0.06522413 -0.04648004 -0.16112418 -0.9940291 0.29804644
-0.3210803 -0.5552475 0.28391266 0.19886069 -0.008740081 -0.64221764 0.7665245 -0.16425389
-0.16037233 -0.0068483073 -0.10257768 0.28547558 0.36102518 0.07462393 0.6089777 -0.56946844
-0.10697014 -0.18294594 0.41412193 0.08113704 0.34071565 -0.11639085 -0.9194135 0.713249
-0.20297122 0.15616764 0.009955283 -0.07428722 0.37069154 -0.00027386556 1.1122457 -0.27549034
-0.27300113 -1.1292422 -0.63679165 0.3228405 -0.35971642 -0.2327367 0.20859724 0.20825598
-0.23142284 0.01268689 -0.33398476 -0.60195017 -0.46183276 -0.37477338 0.20327958 -0.70970094
0.5362447 0.23764436 -0.50162685 -0.15194647 -0.11532826 -0.004678311 -0.55687714 -0.9209384
0.2594496 0.111579694 0.43356693 0.32187897 -0.029017463 -0.6689327 -0.7446711 0.6560243
0.31633803 -0.73851556 0.616619 -0.17932764 -0.5844537 -0.01151351 1.4306768 0.09114849
-0.07269976 0.042687584 0.34676385 0.18317227 -0.51873773 -0.5935799 -0.36229366 -0.50020325
-0.119602844 -0.041947737 -0.26858595 0.08732419 0.16913462 -0.029868819 0.37816268 0.3169094
-1.0669891 -0.210665 -0.2062021 -0.17506967 -0.18444607 0.047130797 0.58237493 -0.22875533
0.26763138 0.11568153 -0.5086109 -0.35760674 -0.31029603 0.015303258 -0.664806 -0.08484473
0.17971273 0.22170372 0.0893791 -0.5987173 -0.21454161 0.29673198 -0.1830069 0.8034038
0.45964894 0.1345758 0.024176931 -0.13105446 -0.16159382 0.09815368 -0.77815735 0.2890688
0.39992392 -0.30710834 0.11313583 -0.86320287 0.008626502 -0.061012097 0.8643027 -0.14460589
00000000: 406f fabd ad56 36be 7a7b 68be f519 633e
00000010: 0dc3 b63e 64ff 43be 3c53 bbbe 3609 163d
00000020: 2b55 9c3e f7d9 babc 6697 c93e b792 83be
00000030: 4d6f f53e 7a04 fe3e 3512 813d 0734 423f
00000040: eda3 e6bc c10d 253e 3091 b23c 575d 4b3f
00000050: 8915 673e bc39 00bf 77e7 063f c6cb 13bf
00000060: 9956 693c a155 1b3e 0984 8f3e e241 6b3e
00000070: fda5 6cbe 5b25 39be 4762 8dbf 8eff 263e
00000080: e267 883e 486c 05bf c9f2 2fbd b047 11be
00000090: 7462 3a3e df3e 11bf a1c4 debe 4d3c 533e
000000a0: b472 18be 5122 47be 3948 1e3f b1bb 5f3e
000000b0: b9a4 a4be 1252 12bf 7c8c 2b3f 4cfa a83c
000000c0: 32b7 2e3e 74c3 733e 2d22 bebe 564e b2bd
000000d0: 327f 31bf 6398 d53e 9e94 84be 7e71 c33d
000000e0: 6940 b2be 720c 933d 1441 863e 3b30 333e
000000f0: f7d0 6b3d 42fe 93be 2bc9 983e ba95 c8be
00000100: 6ee9 18bf b17c 043d 87a4 cbbe cb75 0a3f
00000110: 90e8 bb3e d587 c23e decd 223f ea6f 11bd
00000120: e4bf 093d a453 abbe 7dd9 eabe 49e5 02bf
00000130: d8c5 85be 9004 f43d fef9 e63c 3354 5e3e
00000140: adcf 4dbd 8f4e a4be 4ed4 b03d 1a6d 013e
00000150: ff63 aabe 3e4c d73e 5454 9f3e a7ed 6b3e
00000160: 4744 283e 82b6 23be b9eb 0ebd 66b8 5f3c
00000170: 81b7 83be af0f e6bb 6cd0 e6be 327c 16bf
00000180: cd16 053f ddff 893e 8c07 acbe 40cf 2d3e
00000190: 6076 283d 4c15 433f bdb8 203e 3dc3 e33e
000001a0: 196d 0a3f 03e7 b6be 319e 523d 40a6 1a3f
000001b0: abdd 543e f55e 283e 3e15 0bbf ac0c a13e
000001c0: e4de f83d 9df5 fabe 1d00 68be 34b4 e83e
000001d0: 65ed a4be a587 f1be f45f b9be bcd9 093e
000001e0: faf3 17be df05 113d 0aae f5bd 3b94 853d
000001f0: db61 3ebd bdfd 24be b178 7ebf 8b99 983e
00000200: a364 a4be b324 0ebf 005d 913e 23a2 4b3e
00000210: 8f32 0fbc 6068 24bf f33a 443f 2c32 28be
00000220: a538 24be c467 e0bb 3f14 d2bd db29 923e
00000230: 4bd8 b83e 6ed4 983d f6e5 1b3f afc8 11bf
00000240: 2913 dbbd 2e56 3bbe ca07 d43e 2d2b a63d
00000250: 4872 ae3e 535e eebd af5e 6bbf 7d97 363f
00000260: b0d7 4fbe 69ea 1f3e 7c1b 233c e623 98bd
00000270: 48cb bd3e 9d95 8fb9 115e 8e3f 120d 8dbe
00000280: cec6 8bbe 028b 90bf c704 23bf 5a4b a53e
00000290: c02c b8be 8852 6ebe 849a 553e 0e41 553e
000002a0: 1cfa 6cbe acdc 4f3c 0d00 abbe 6819 1abf
000002b0: 5875 ecbe 4ce2 bfbe 8628 503e f6ae 35bf
000002c0: 5547 093f 0b59 733e 9e6a 00bf db97 1bbe
000002d0: 3931 ecbd 844c 99bb 808f 0ebf 9ec2 6bbf
000002e0: 94d6 843e e583 e43d 7cfc dd3e 52cd a43e
000002f0: 08b6 edbc 2c3f 2bbf c4a2 3ebf 35f1 273f
00000300: 0ff7 a13e 5b0f 3dbf beda 1d3f aaa1 37be
00000310: c29e 15bf 29a3 3cbc 6b20 b73f 0fac ba3d
00000320: 9de3 94bd 2dd9 2e3d 088b b13e 8391 3b3e
00000330: ffcb 04bf daf4 17bf 8e7e b9be 520d 00bf
00000340: 56f2 f4bd 64d1 2bbd 1984 89be 06d7 b23d
00000350: a031 2d3e 74af f4bc 8a9e c13e f341 a23e
00000360: 1993 88bf 91b8 57be a526 53be 7745 33be
00000370: 6edf 3cbe 390c 413d 8616 153f d63e 6abe
00000380: fb06 893e 70ea ec3d 5334 02bf 3b18 b7be
00000390: 1fdf 9ebe 84ba 7a3c ba30 2abf 13c3 adbd
000003a0: 9d06 383e 4d06 633e 640c b73d 8945 19bf
000003b0: ccb0 5bbe 41ed 973e 2966 3bbe dfab 4d3f
000003c0: 1b57 eb3e 3dce 093e b30e c63c 2433 06be
000003d0: da78 25be cc04 c93d 5235 47bf d300 943e
000003e0: d4c2 cc3e 4e3d 9dbe c2b3 e73d ddfa 5cbf
000003f0: 2c56 0d3c d2e7 79bd f142 5d3f 9113 14be

network_body._body_endoder.seq_layers.2.bias f4 [128]
-0.009063658 -0.023900462 -0.02214709 -0.038699254 -0.020119078 -0.02409559 -0.011748123 -0.010163391
-0.028221032 -0.016528316 -0.034078315 0.0064018373 -0.005271209 -0.031073166 0.016292246 -0.019219473
-0.025392454 -0.027069708 -0.010854451 -0.03169398 -0.024395462 -0.035415843 -0.010792707 -0.06705517
-0.02553881 -0.03852853 -0.04160803 -0.000643568 -0.029582659 -0.01921975 -0.018694542 -0.050837968
-0.046929106 0.009382214 -0.012915671 -0.009148537 -0.042847957 -0.0051539973 -0.02846554 -0.01342942
-0.030270102 -0.045984704 -0.015139623 -0.022528544 -0.033096094 -0.01541575 -0.04065064 -0.01662134
-0.029095627 -0.013513519 -0.0183602 -0.03218142 -0.01973844 -0.027158877 -0.03486162 0.004320894
-0.011891055 -0.026824761 -0.0355762 -0.017268656 -0.038603153 -0.018641144 -0.024987485 -0.050580814
-0.024063895 -0.016759038 0.011888954 -0.033164334 -0.010405859 -0.02018244 -0.032952596 -0.0009122083
-0.04718031 -0.04291083 -0.013325757 -0.004146164 -0.027114687 -0.023567522 -0.017584264 -0.021998731
-0.032510363 -0.013326214 -0.028868724 -0.02379843 0.019773578 -0.019439884 -0.023250915 -0.0092589725
0.013442025 -0.0065847915 -0.033563722 -0.030546958 -0.00017711417 -0.046017088 -0.031639565 -0.01660462
0.0005850166 0.011795695 -0.031170921 -0.026856136 -0.025400376 -0.014894453 -0.033618446 0.0070525687
-0.0001922378 -0.021118348 -0.008077009 -0.021224651 -0.0045906473 -0.027215367 -0.028043337 -0.026577124
-0.0009276517 -0.038561262 -0.03004413 -0.03119659 -0.0015479352 -0.011198167 -0.027673945 -0.042039648
-0.031279966 -0.02919653 -0.03280652 -0.026543988 0.004391458 -0.03015122 -0.011186237 -0.025576789
00000000: bd7f 14bc e7ca c3bc d06d b5bc 1c83 1ebd
00000010: c4d0 a4bc 1d64 c5bc 337b 40bc 5a84 26bc
00000020: cb2f e7bc 6466 87bc b495 0bbd 81c6 d13b
00000030: 1bba acbb 278d febc 5177 853c 2872 9dbc
00000040: d603 d0bc 4bc1 ddbc ded6 31bc 8cd1 01bd
00000050: fed8 c7bc 3410 11bd e5d3 30bc 3954 89bd
00000060: c436 d1bc 18d0 1dbd 2f6d 2abd 1eb5 28ba
00000070: 5557 f2bc bd72 9dbc 4c25 99bc 793b 50bd
00000080: bc38 40bd dcb7 193c 409c 53bc bfe3 15bc
00000090: 5781 2fbd dde2 a8bb 9030 e9bc 1207 5cbc
000000a0: 01f9 f7bc 755a 3cbd 2e0c 78bc c88d b8bc
000000b0: c58f 07bd 5892 7cbc 4981 26bd 7a29 88bc
000000c0: f459 eebc cf67 5dbc 2168 96bc aad0 03bd
000000d0: 82b2 a1bc 4b7c debc 0fcb 0ebd 4996 8d3b
000000e0: b3d2 42bc 9abf dbbc 59b8 11bd ff76 8dbc
000000f0: 571e 1ebd 50b5 98bc 8eb2 ccbc d42d 4fbd
00000100: a521 c5bc 404a 89bc e3c9 423c 53d7 07bd
00000110: 567d 2abc a555 a5bc 4df9 06bd 4321 6fba
00000120: 2440 41bd 44c3 2fbd 4754 5abc 8bdc 87bb
00000130: 9f1f debc ad10 c1bc e00c 90bc af36 b4bc
00000140: 9629 05bd 3156 5abc 1a7e ecbc edf4 c2bc
00000150: 33fc a13c 6440 9fbc b478 bebc f2b2 17bc
00000160: f03b 5c3c 3cc5 d7bb 1d7a 09bd 9d3d fabc
00000170: b9b7 39b9 6a7c 3cbd 7d98 01bd 6906 88bc
00000180: cd5b 193a bb42 413c 295a ffbc 6601 dcbc
00000190: 7314 d0bc dd07 74bc 7fb3 09bd 3c19 e73b
000001a0: 7193 49b9 6300 adbc 6e55 04bc 52df adbc
000001b0: 246d 96bb c3f2 debc 24bb e5bc 45b8 d9bc
000001c0: a72d 73ba 6af2 1dbd 1b1f f6bc fe8f ffbc
000001d0: 16e4 caba 8478 37bc 78b4 e2bc c431 2cbd
000001e0: 6c1f 00bd 902d efbc 2160 06bd c772 d9bc
000001f0: 38e6 8f3b b1ff f6bc 7b46 37bc 6a86 d1bc

network_body._body_endoder.seq_layers.2.weight f4 [128, 128]
-0.11885298 0.05834769 -0.057855863 -0.06282833 0.018191962 0.04024167 0.03771206 -0.12715861
-0.089592956 0.032650024 -0.013960797 -0.14428243 -0.19522743 -0.056426223 0.07415284 -0.06126288
-0.03401649 0.027439518 0.09350403 0.10939801 -0.004280617 0.01863998 0.0053735436 -0.08299132
-0.04607964 0.013674618 -0.11321356 -0.3310458 0.056439955 0.063033305 0.02358668 -0.042358536
-0.19353347 0.055554528 -0.0989449 0.028650768 0.03496176 -0.061311033 0.035887036 0.014593122
0.21993063 -0.01951075 0.02372704 0.0055527645 0.020096568 -0.12899028 0.013377819 -0.11839721
0.0015483309 0.024912348 0.13677736 -0.020922808 -0.12857315 0.0140224565 0.09733999 0.14406662
-0.075971924 -0.05759209 -0.034159772 -0.14731182 -0.039528053 0.027278509 -0.01245583 -0.10632303
-0.1539262 0.13601723 -0.13096479 0.019822365 -0.10085424 -0.08875302 -0.052189745 0.16862686
-0.13395207 0.038994238 -0.12856853 -0.07949337 -0.014938825 -0.101283446 0.049818356 -0.0521681
-0.07944092 0.046598792 0.08407786 0.058059692 0.011104586 -0.12260173 0.049367923 0.047253948
-0.15939516 0.06962516 -0.074735895 0.016242748 -0.035553616 -0.009775908 -0.0124327475 -0.023693636
-0.0058051785 0.016602669 -0.011554279 -0.16194482 0.09029775 -0.07762364 0.1238571 0.02498445
0.0149230985 0.05976926 0.015569364 0.047673635 -0.04221449 -0.08641789 -0.0936564 -0.09931372
-0.15743293 -0.093902156 -0.11219013 -0.1430544 -0.061485115 -0.075000234 0.22061543 -0.048219997
-0.04215992 0.058456656 0.037367683 0.12537356 0.025425026 -0.0044783065 -0.16374418 0.038033377
-0.059854925 -0.10139879 0.017639315 -0.057548936 0.10898963 -0.05316446 -0.10163061 -0.111571535
-0.34775507 0.012666242 0.007267991 0.06998143 -0.10943574 0.02220779 0.058101434 0.21955478
-0.11229816 -0.11963234 -0.0013882901 0.20597781 0.0460467 0.115268335 -0.0964291 0.05703947
0.17310193 0.006323396 0.11799005 0.061392736 -0.157157 0.12319807 0.22345069 -0.17774859
0.24231112 -0.036081426 -0.16695051 -0.2201435 0.004486194 0.02427555 -0.117228955 -0.01623421
0.20622452 0.058579776 -0.13620277 -0.1157872 -0.009290064 -0.07111136 -0.014775861 0.096317515
-0.08439073 0.07994303 0.09209187 -0.14719974 0.01081716 -0.25992003 -0.044541012 -0.12615903
-0.07532283 -0.07417453 -0.07477856 -0.0328285 -0.00757609 -0.042115927 -0.0871557 -0.08309907
0.06401833 0.014585808 -0.09495423 0.02499909 -0.017683648 0.08579966 0.1242553 0.057381734
-0.13835041 -0.1711656 -0.098891996 -0.22144902 0.05612639 -0.035385396 -0.046327446 -0.009863326
-0.120183565 -0.12777452 -0.10206961 -0.12198594 0.04096033 0.120530315 0.012946986 -0.12086009
-0.074358486 -0.0043628383 0.035494454 0.0133786565 -0.18690483 -0.16357608 -0.25786275 -0.056376535
0.089692615 0.030731026 0.15458214 -0.1567627 4.0882172e-05 0.07265023 -0.027664635 0.0082317805
0.083355576 0.10858542 -0.10197289 -0.10747231 -0.07818297 0.09648549 -0.12213602 0.055877067
0.02947112 -0.052472215 -0.020484569 0.062654406 0.10727145 -0.031567387 -0.008715167 -0.030675968
0.03776442 -0.05047895 0.027004989 -0.116455905 -0.022336056 -0.16956687 -0.11209613 0.18564732
00000000: 3169 f3bd fdfd 6e3d 45fa 6cbd 24ac 80bd
00000010: 4f07 953c 73d4 243d f677 1a3d de35 02be
00000020: 837c b7bd 08bc 053d d4bb 64bc c6be 13be
00000030: b3e9 47be 2f1f 67bd 72dd 973d c9ee 7abd
00000040: e054 0bbd d7c8 e03c 0a7f bf3d 100c e03d
00000050: 6b44 8cbb dfb2 983c 8d14 b03b 5af7 a9bd
00000060: 01be 3cbd 810b 603c 83dc e7bd d67e a9be
00000070: 952d 673d 9b17 813d da38 c13c 2580 2dbd
00000080: a32d 46be 258d 633d a0a3 cabd 04b5 ea3c
00000090: 1034 0f3d 4721 7bbd 49fe 123d fd17 6f3c
000000a0: 7f35 613e 02d5 9fbc 365f c23c f7f3 b53b
000000b0: 8fa1 a43c 0716 04be a42e 5b3c 3d7a f2bd
000000c0: 5df1 ca3a fb14 cc3c 5d0f 0c3e 4f66 abbc
000000d0: aea8 03be 72be 653c 305a c73d 3386 133e
000000e0: 2b97 9bbd afe5 6bbd 1eeb 0bbd e9d8 16be
000000f0: 2be8 21bd 2e77 df3c 8a13 4cbc e4bf d9bd
00000100: d49e 1dbe 1a48 0b3e a21b 06be 8362 a23c
00000110: ab8c cebd 25c4 b5bd eac4 55bd 85ac 2c3e
00000120: bb2a 09be 6cb8 1f3d 78a7 03be 6ccd a2bd
00000130: f9c1 74bc b26d cfbd 550e 4c3d 38ae 55bd
00000140: ecb1 a2bd 60de 3e3d 0331 ac3d 00d0 6d3d
00000150: 02f0 353c 9e16 fbbd 0536 4a3d 5b8d 413d
00000160: 7c38 23be a397 8e3d 220f 99bd 830f 853c
00000170: aba0 11bd 212b 20bc b9b2 4bbc 2819 c2bc
00000180: 5e39 bebb 5202 883c 294e 3dbc ddd4 25be
00000190: 07ee b83d 25f9 9ebd cba8 fd3d 30ac cc3c
000001a0: 0380 743c 9dd0 743d a516 7f3c 6e45 433d
000001b0: 1ae9 2cbd ddfb b0bd edce bfbd fe64 cbbd
000001c0: 1936 21be c64f c0bd f0c3 e5bd da7c 12be
000001d0: d1d7 7bbd b999 99bd 03e9 613e 5582 45bd
000001e0: e1af 2cbd 3f70 6f3d db0e 193d ed61 003e
000001f0: 2548 d03c c2be 92bb 8eac 27be e3c8 1b3d
00000200: 702a 75bd 2baa cfbd 5380 903c 6fb8 6bbd
00000210: f535 df3d fac2 59bd b623 d0bd 9e7f e4bd
00000220: f40c b2be 1286 4f3c 5428 ee3b 6d52 8f3d
00000230: d81f e0bd 1ced b53c c5fb 6d3d f8d2 603e
00000240: 94fc e5bd cd01 f5bd 49f7 b5ba d9eb 523e
00000250: 779b 3c3d ce11 ec3d 9f7c c5bd 38a2 693d
00000260: a241 313e 7e34 cf3b c4a4 f13d f376 7b3d
00000270: c4ed 20be 454f fc3d 42d0 643e ba03 36be
00000280: 6820 783e 1eca 13bd 13f5 2abe 4c6d 61be
00000290: ec00 933b 85dd c63c bc15 f0bd 9bfd 84bc
000002a0: 852c 533e 59f1 6f3d bd78 0bbe d721 edbd
000002b0: 5a35 18bc d5a2 91bd 7416 72bc 1e42 c53d
000002c0: 0cd5 acbd 2cb9 a33d aa9a bc3d 87bb 16be
000002d0: 753a 313c 3d14 85be a370 36bd d52f 01be
000002e0: db42 9abd d1e8 97bd 8025 99bd 2d77 06bd
000002f0: d940 f8bb c081 2cbd b07e b2bd d82f aabd
00000300: 0b1c 833d 50f9 6e3c 5d77 c2bd e4ca cc3c
00000310: 4cdd 90bc bbb7 af3d 9079 fe3d 1c09 6b3d
00000320: bbab 0dbe 0946 2fbe e387 cabd 88c3 62be
00000330: c9e4 653d 47f0 10bd d9c1 3dbd ca99 21bc
00000340: cd22 f6bd 53d7 02be df09 d1bd c4d3 f9bd
00000350: 05c6 273d 99d8 f63d 981f 543c 7f85 f7bd
00000360: 4349 98bd 24f6 8ebb a262 113d 2732 5b3c
00000370: fb63 3fbe 7d80 27be 9606 84be 15eb 66bd
00000380: c3b0 b73d a2bf fb3c c84a 1e3e 6786 20be
00000390: e678 2b38 a5c9 943d f2a0 e2bc 97de 063c
000003a0: 54b6 aa3d 0862 de3d 2ad7 d0bd 711a dcbd
000003b0: 651e a0bd 2f9a c53d 7322 fabd 5adf 643d
000003c0: 6b6d f13c 1bed 56bd 41cf a7bc f450 803d
000003d0: 22b1 db3d ce4c 01bd 0fca 0ebc 2b4c fbbc
000003e0: ddae 1a3d 04c3 4ebd 9139 dd3c 6f80 eebd
000003f0: 1bfa b6bc f0a2 2dbe a892 e5bd 551a 3e3e
