mlagents/Assets/results/RollerBallTest3/RollerBall/RollerBall-5804.pt (torch, 445343 bytes, 36 tensors)

network_body._body_endoder.seq_layers.0.weight f4 [128, 8]
0	0xbdc56f78	-0.096404016
1	0xbe1af5a4	-0.15132767
2	0xbe81ee4e	-0.25377125
3	0x3e7fbe54	0.24974948
4	0x3ec473b8	0.38369536
5	0xbe4606b1	-0.1933849
6	0xbebdef60	-0.3709669
7	0x3e27d52c	0.16389912
8	0x3e9956d3	0.29949054
9	0xbd0aedb9	-0.033918116
10	0x3ecf5012	0.40490776
11	0xbe89f804	-0.26947033
12	0x3eefc4cc	0.46829832
13	0x3ef43346	0.4769537
14	0x3c63a900	0.013895273
15	0x3f367292	0.7126857
16	0x3d0a4332	0.03375549
17	0x3e680701	0.22658922
18	0xbd329cba	-0.043606497
19	0x3f5760d7	0.8413214
20	0x3e9506bc	0.291067
21	0xbf065ae9	-0.5248247
22	0x3e0c6f28	0.13714278
23	0xbef1ec10	-0.47250414
24	0x3cf80827	0.030277325
25	0x3e2c5041	0.1682749
26	0x3e870727	0.26372644
27	0x3e88d266	0.2672302
28	0xbe5baa63	-0.21451716
29	0xbe52985d	-0.20565934
30	0xbf1e9a91	-0.619546
31	0x3e28976b	0.16464011
32	0x3e99895e	0.29987615
33	0xbef93e49	-0.48680332
34	0xbd9e6396	-0.07733838
35	0xbdd94959	-0.10609693
36	0x3e5da0ad	0.21643324
37	0xbf17d5bf	-0.59310526
38	0xbe802cdd	-0.25034228
39	0x3e9e9402	0.30972296
40	0xbde0f14f	-0.10983526
41	0xbe1cbd3e	-0.15306565
42	0x3f13aee7	0.57688755
43	0x3e773341	0.24140646
44	0xbe8f7280	-0.28017044
45	0xbf14b178	-0.58083296
46	0x3e802755	0.25030008
47	0x3dc20b7a	0.09474845
48	0x3e5d73fa	0.21626273
49	0x3e91accf	0.28452155
50	0xbed5ed09	-0.41782406
51	0xbd171ee5	-0.036894698
52	0xbf259ae6	-0.6468948
53	0x3eb3ba39	0.35103014
54	0xbe0d3751	-0.13790633
55	0x3dbefdff	0.0932579
56	0xbeb37dfa	-0.3505705
57	0x3d8f81d6	0.07007186
58	0x3e8723d7	0.2639453
59	0x3e1f51cd	0.15558548
60	0x3d64bb8e	0.05584293
61	0xbe8bee3a	-0.2733019
62	0xbe13ee5c	-0.14446396
63	0xbeb8dabb	-0.36104378
64	0xbf350df9	-0.70724446
65	0xbda2cf24	-0.07949665
66	0xbe925f23	-0.2858821
67	0x3ed8dd2c	0.4235624
68	0x3e82a5bd	0.25517073
69	0x3efd499b	0.4947022
70	0x3e9a8407	0.30178854
71	0xbe124188	-0.1428281
72	0x3d32cde2	0.043653376
73	0xbea7a918	-0.32746196
74	0xbeee7117	-0.46570656
75	0xbefd2a3d	-0.49446288
76	0xbe822ba5	-0.25423923
77	0x3e2eec4b	0.17082326
78	0x3e02ff5d	0.12792726
79	0x3e7501ff	0.23926543
80	0xbcd77258	-0.02629964
81	0xbe99be75	-0.3002812
82	0x3d86938d	0.06571112
83	0x3e16d497	0.14729534
84	0xbe9fd459	-0.31216696
85	0x3ec194b8	0.37808776
86	0x3e55ea0c	0.20890063
87	0x3e36d666	0.17855224
88	0x3e14eed1	0.14544226
89	0xbe36f08a	-0.17865196
90	0xbc8405ec	-0.016116105
91	0xb984538a	-0.00025239243
92	0xbe8d5569	-0.27604225
93	0x3c8d1bb7	0.01722513
94	0xbe20a3a3	-0.15687422
95	0xbefbfab9	-0.49214724
96	0x3f07ad01	0.5299836
97	0x3e8e81d9	0.2783344
98	0xbeb0898d	-0.34479943
99	0x3e2fac80	0.17155647
100	0x3d4c849a	0.049931146
101	0x3f38ca41	0.72183615
102	0x3cf067eb	0.029346427
103	0x3eabb314	0.33535063
104	0x3f14e299	0.5815826
105	0xbea1670e	-0.31523937
106	0x3c1a7aab	0.00942866
107	0x3f2b044c	0.6680343
108	0x3e7fdded	0.24987002
109	0x3de799ed	0.11308656
110	0xbd87b042	-0.066254154
111	0x3ea2d9e8	0.31806874
112	0x3e6cf52f	0.23140405
113	0xbec07948	-0.3759253
114	0xbeae7c5e	-0.3407926
115	0x3f147b7c	0.5800092
116	0xbe54e17b	-0.20789139
117	0xbf1c08c6	-0.6095089
118	0xbd96a008	-0.07354742
119	0x3e36b805	0.17843635
120	0xbe29f03d	-0.1659555
121	0x3c8824fe	0.016619202
122	0xbdcf3460	-0.101174116
123	0x3d893de4	0.06701258
124	0xbd85a9bd	-0.06526516
125	0xbe22fe9b	-0.15917437
126	0xbef99b1a	-0.48751146
127	0x3ea6146f	0.32437465
128	0xbe93ecfc	-0.28891742
129	0xbf05b4b9	-0.52228886
130	0x3e807c7f	0.25094983
131	0x3e58fdf7	0.2119063
132	0x3cc667ce	0.02421942
133	0xbf2903e6	-0.66021574
134	0x3e9b2088	0.30298257
135	0xbe16c316	-0.14722857
136	0xbde97500	-0.11399269
137	0x3d29e2a3	0.041475903
138	0xbe1a8627	-0.15090238
139	0x3ea12c32	0.3147903
140	0x3ed1969b	0.40935215
141	0x3cbf29de	0.023335394
142	0x3e072094	0.13196021
143	0xbf19ed24	-0.6012747
144	0xbe2e1ad6	-0.17002425
145	0xbe7d0f0e	-0.24712774
146	0x3ef4e45e	0.4783048
147	0x3d0aa41d	0.033847917
148	0x3e8d9578	0.27653098
149	0xbdbcfdc0	-0.092280865
150	0xbf094a06	-0.53628576
151	0x3f373e0d	0.71579057
152	0xbe8e0537	-0.27738354
153	0x3dae07fe	0.08497618
154	0x3da54834	0.08070412
155	0xbe40584f	-0.18783687
156	0x3e994d0a	0.2994159
157	0x3e033393	0.12812643
158	0x3f2fa076	0.6860422
159	0xbe832c04	-0.2561952
160	0xbe45311e	-0.19257018
161	0xbf85ccff	-1.0453185
162	0xbf3880d7	-0.72071594
163	0x3ec98423	0.39358625
164	0xbe8d356b	-0.27579817
165	0xbe9f2d07	-0.3108904
166	0xbdf3357a	-0.11875434
167	0x3e3eb32a	0.18623033
168	0xbe6679f7	-0.22507463
169	0x3c7b5420	0.015339881
170	0xbeabbe8a	-0.33543807
171	0xbf231c04	-0.63714623
172	0xbeeaee8b	-0.4588512
173	0xbeafdfc0	-0.34350395
174	0x3d5320c8	0.051544935
175	0xbf37c8d7	-0.7179083
176	0x3f0829bd	0.5318869
177	0x3e6e1102	0.23248675
178	0xbefe30ac	-0.4964651
179	0xbe0d6025	-0.13806207
180	0xbdf6bccb	-0.12047728
181	0xbbb2aefd	-0.005452989
182	0xbda040b0	-0.07824838
183	0xbf60c01b	-0.8779313
184	0x3eb76be0	0.3582449
185	0x3e5c0b83	0.21488766
186	0x3ea91739	0.3302553
187	0x3ee189d6	0.44050473
188	0x3d98259e	0.0742905
189	0xbf44ec6e	-0.76923263
190	0xbeeb1d1f	-0.45920655
191	0x3f278749	0.65440804
192	0x3e9aac68	0.3020966
193	0xbf42b8fc	-0.76063514
194	0x3f23846e	0.63873947
195	0xbe623607	-0.22090922
196	0xbf1b4896	-0.6065763
197	0x3cb04804	0.021518715
198	0x3f889e51	1.0673314
199	0x3d0eeed5	0.034895737
200	0xbcabb73e	-0.0209614
201	0x3dca93ba	0.09891458
202	0x3e94c0ed	0.2905344
203	0x3e7068d8	0.23477495
204	0xbeeccb83	-0.46249017
205	0xbf1c1811	-0.6097422
206	0xbeceb441	-0.40371898
207	0xbea0d722	-0.31414133
208	0xbd9ec7ee	-0.07752977
209	0xb82a8bee	-4.0661478e-05
210	0xbe9ef8f0	-0.310493
211	0x3e0672c8	0.13129723
212	0x3e581bb4	0.21104318
213	0xbdb6e8f3	-0.0893115
214	0x3eadcc23	0.33944806
215	0x3e834bb8	0.25643706
216	0xbf865a6b	-1.0496343
217	0xbe57690c	-0.21036166
218	0xbe5b938f	-0.21443008
219	0xbe16d117	-0.14728199
220	0xbe3c9921	-0.18417789
221	0x3c9535ae	0.018214073
222	0x3f166637	0.5874972
223	0xbe6f17d5	-0.23348935
224	0x3e72b748	0.23702729
225	0x3d9e8267	0.07739716
226	0xbef0cead	-0.4703268
227	0xbec31f1a	-0.38109666
228	0xbeb288db	-0.34870037
229	0x3d8b01c5	0.06787447
230	0xbe6ec9d0	-0.23319173
231	0xbdd33676	-0.10313122
232	0x3e3d2f9d	0.18475194
233	0x3e686f13	0.22698621
234	0x3dabe735	0.083937086
235	0xbf155527	-0.5833306
236	0xbe565a66	-0.20932922
237	0x3ead88f6	0.33893555
238	0xbe17cd2d	-0.14824362
239	0x3f510c35	0.8165925
240	0x3ec56195	0.38551012
241	0x3d51ad8f	0.05119091
242	0x3ddc4963	0.10756185
243	0xbe48adcf	-0.19597553
244	0xbe7ad34c	-0.24494666
245	0x3e2770a3	0.16351561
246	0xbebd0ffa	-0.36926252
247	0x3e7345e1	0.23757125
248	0x3ed2c1c9	0.4116347
249	0xbe975c68	-0.29562688
250	0x3dcec4f2	0.10096158
251	0xbf5b9b60	-0.8578396
252	0x3ca45371	0.02005932
253	0xbd78b078	-0.06071517
254	0x3f591a70	0.84805965
255	0xbe15a003	-0.14611821

network_body._body_endoder.seq_layers.0.bias f4 [128]
0	0x3bc70034	0.0060730223
1	0x3c29e282	0.010368945
2	0xbcb06810	-0.021533996
3	0xbb89b3f3	-0.00420236
4	0xbc167725	-0.00918368
5	0x3b70c460	0.0036738142
6	0x3c076ca5	0.008265649
7	0xbbef92da	-0.0073112072
8	0xbc65a22a	-0.014015714
9	0x3bb766e4	0.0055969823
10	0x3cb18ccf	0.021673588
11	0xba3e9276	-0.0007269749
12	0xbac3aa00	-0.0014927983
13	0xbc345fb8	-0.011009149
14	0xba6ebe1b	-0.00091073074
15	0x3b95a40e	0.004566676
16	0x3b97b4ab	0.0046296916
17	0xbb44c2ca	-0.003002333
18	0x3c355edc	0.0110699795
19	0x3c6708cd	0.014101219
20	0xbbf9fbe2	-0.0076289037
21	0x3bd548e2	0.0065089324
22	0xbb85f342	-0.0040878365
23	0xbc2e118c	-0.010624301
24	0xbcb74656	-0.022372406
25	0xbb890096	-0.004180978
26	0xba87ed92	-0.0010370484
27	0xb54c2246	-7.6045797e-07
28	0xbb857fcc	-0.0040740725
29	0x3c5986ff	0.0132768145
30	0x394d66d1	0.00019588626
31	0x3a411522	0.0007365515
32	0xbb52bfd8	-0.0032157805
33	0x3a18a5e7	0.0005823061
34	0xbbea7073	-0.0071545183
35	0xbb285201	-0.0025683644
36	0x389da9fe	7.518007e-05
37	0x3b83b0a5	0.0040188604
38	0xbc7538f4	-0.014967192
39	0x3a912a66	0.0011075258
40	0xbc78805f	-0.015167325
41	0x3bada979	0.0052997437
42	0xbbab0c2f	-0.0052199583
43	0x3a951ae6	0.0011375814
44	0x3ce92b7c	0.028463118
45	0xbb9e16dd	-0.004824503
46	0xbbe2582a	-0.0069074826
47	0xbc1a26c0	-0.009408653
48	0xbbaac7cb	-0.0052118055
49	0xbbc2240f	-0.0059247087
50	0x3919d08e	0.0001466891
51	0x3bca48a7	0.0061732116
52	0xbc1da624	-0.009622131
53	0xbb1ba92e	-0.0023751962
54	0x3c16f446	0.009213513
55	0xbc7c73fc	-0.015408512
56	0x3d2860b2	0.04110784
57	0x3ae5e3bc	0.0017539184
58	0xbb5886d2	-0.0033039344
59	0xbc6b2108	-0.014351137
60	0xbca6f734	-0.020381548
61	0xbca1cd70	-0.01975128
62	0x3d0ecbc1	0.034862284
63	0x3c893d21	0.016752781
64	0xbc3a6a80	-0.011377931
65	0xb9a983ea	-0.00032332476
66	0xbc8b5d5d	-0.017012293
67	0x38bbe02e	8.9586116e-05
68	0xba7a6e72	-0.0009553201
69	0x3d4d452b	0.05011479
70	0xbc0c3a1b	-0.008558775
71	0xbbc98490	-0.006149836
72	0xb891d467	-6.953702e-05
73	0x3cfc23e4	0.030778833
74	0xb9e0f07e	-0.0004290379
75	0xbc07f2ad	-0.0082976045
76	0x39bd412e	0.00036097452
77	0x3b978edb	0.004625184
78	0xbd07fdf7	-0.033201184
79	0xbbd20e9b	-0.0064104325
80	0x3d2027d5	0.039100487
81	0x398f263e	0.00027303578
82	0xbd050a16	-0.03248032
83	0xbc3397d9	-0.010961496
84	0xbc5e6ae4	-0.013575289
85	0xba90945e	-0.0011030545
86	0x3d4ab86d	0.04949229
87	0x3b478c86	0.0030448749
88	0xbba138ba	-0.0049200924
89	0xbbf1f833	-0.007384324
90	0xbc289914	-0.010290403
91	0xbb26c414	-0.0025446462
92	0x3a3efc87	0.00072855543
93	0xbc07017f	-0.008240103
94	0xba869e4e	-0.0010270567
95	0x3af670e1	0.0018801951
96	0xbaf34c2c	-0.001856213
97	0xbc00f55e	-0.007871
98	0xbad908d7	-0.0016558421
99	0x39912427	0.0002768349
100	0xbb95cab1	-0.004571282
101	0x3bdb3265	0.006689357
102	0x39b80002	0.0003509522
103	0xba27384e	-0.00063789345
104	0x3910850a	0.00013782471
105	0xbba18547	-0.004929218
106	0xbc1801cd	-0.009277773
107	0x3c699946	0.014257735
108	0x3c0bee8d	0.008540762
109	0xbcc76584	-0.024340399
110	0x3b4b9f65	0.0031070348
111	0xbb460d56	-0.0030220351
112	0x3bbd8b1c	0.0057844054
113	0xbcdbb31f	-0.02681881
114	0x3bac3900	0.0052558184
115	0xbbea36a3	-0.0071476265
116	0xbb65d383	-0.0035068698
117	0xbbbe2965	-0.0058032745
118	0x3b79a6cd	0.0038093806
119	0xbcf67b76	-0.030088168
120	0x3d00f251	0.03148109
121	0xbaff27dd	-0.0019466836
122	0xaf83c6e3	-2.397008e-10
123	0xb90fb3f0	-0.00013704575
124	0xbb9ee143	-0.0048486306
125	0xb95da0af	-0.00021136062
126	0xbbbc32f0	-0.005743377
127	0xbc2c8231	-0.010529087

network_body._body_endoder.seq_layers.2.weight f4 [128, 128]
0	0xbde787b8	-0.11305183
1	0x3d7542d6	0.059878193
2	0xbd024ba9	-0.031810436
3	0xbd7f95a3	-0.062398564
4	0x3d1d787f	0.038444992
5	0x3d453321	0.048144463
6	0x3d1f7904	0.03893377
7	0xbdfba531	-0.12287367
8	0xbd9183f0	-0.07105243
9	0x3d2e1286	0.042498134
10	0xbcb99e00	-0.022658348
11	0xbe0a517c	-0.13507646
12	0xbe5584cd	-0.2085144
13	0xbd5fba9a	-0.054621316
14	0x3dbdb8b5	0.09263746
15	0xbd65a386	-0.05606415
16	0xbcccf9d7	-0.025021477
17	0x3cef7f46	0.029235493
18	0x3da6cd4f	0.08144628
19	0x3dd6595d	0.104662634
20	0x3ca029a2	0.019551102
21	0x3d00c9e5	0.03144254
22	0x3c9433a9	0.01809104
23	0xbda76a6a	-0.08174594
24	0xbd5baa89	-0.053629432
25	0x3c574983	0.013140085
26	0xbdc807d1	-0.09767116
27	0xbeaa28fa	-0.33234388
28	0x3d86355c	0.06553146
29	0x3d9425d6	0.07233779
30	0x3ceaf6c0	0.028682113
31	0xbd00633e	-0.031344645
32	0xbe4eddb5	-0.20201762
33	0x3d89d9fd	0.06731031
34	0xbdd14846	-0.10218863
35	0x3d2621aa	0.04055945
36	0x3d2f3cc8	0.042782575
37	0xbd18fb79	-0.037349198
38	0x3cd67060	0.026176631
39	0x3d25e3fd	0.04050063
40	0x3e67b155	0.2262624
41	0xbcd58b3e	-0.026067372
42	0x3cb14049	0.021637099
43	0x39f943e4	0.00047543563
44	0x3c78ccda	0.015185559
45	0xbe00f713	-0.12594251
46	0x3c961e90	0.01832512
47	0xbdd15370	-0.102209926
48	0xbbe084d3	-0.0068517714
49	0x3c50ab72	0.012736188
50	0x3df60043	0.12011769
51	0xbbfb21ae	-0.007663927
52	0xbde82a85	-0.11336235
53	0x3ca89e48	0.020583287
54	0x3de80029	0.113281555
55	0x3e131d55	0.14366658
56	0xbd7b3621	-0.06133092
57	0xbd3234f9	-0.04350755
58	0xbcacdc83	-0.021101242
59	0xbe0edc27	-0.13951169
60	0xbd020cb3	-0.031750392
61	0x3cec6f42	0.028861646
62	0xb9eda65a	-0.00045328104
63	0xbdc4f8e2	-0.09617783
64	0xbdfe0b86	-0.12404542
65	0x3e194580	0.14967918
66	0xbdea0d27	-0.1142829
67	0x3d053392	0.032519884
68	0xbdae91c4	-0.08523896
69	0xbd8d6047	-0.06903129
70	0xbd4a1193	-0.049333166
71	0x3e41884c	0.1889965
72	0xbdf90a8e	-0.12160216
73	0x3d4b604e	0.04965239
74	0xbdffc15d	-0.12488053
75	0xbd8f5e58	-0.070004165
76	0xbbf1e370	-0.007381849
77	0xbd9a23aa	-0.07526334
78	0x3d6dc587	0.058049705
79	0xbd2a1e96	-0.041533075
80	0xbd6218a6	-0.055199288
81	0x3d6294a9	0.055317555
82	0x3ddf7ef3	0.109128855
83	0x3d8dd586	0.06925492
84	0x3c73a1a1	0.014870078
85	0xbdc269d5	-0.09492842
86	0x3d2e544e	0.042560868
87	0x3d3deca4	0.046368256
88	0xbe2c7617	-0.16841923
89	0x3d677d90	0.05651623
90	0xbd75aebc	-0.059981093
91	0x3ca9597d	0.020672554
92	0xbcef6f87	-0.029227985
93	0x3be23fa5	0.0069045597
94	0x3c923e79	0.017852055
95	0xbcef405d	-0.029205495
96	0xbc61b7b8	-0.013776712
97	0x3cd3ead1	0.025868805
98	0xba8c2a6c	-0.0010693795
99	0xbe189cd7	-0.1490358
100	0x3da599a1	0.08085943
101	0xbd7d14f9	-0.06178758
102	0x3defdbbd	0.117118336
103	0x3cc3d476	0.02390502
104	0x3cbe68cf	0.023243336
105	0x3d71d459	0.0590404
106	0x3ce77518	0.028254077
107	0x3d8f95e4	0.07011011
108	0xbcf8d7ee	-0.0303764
109	0xbd932b4d	-0.07185993
110	0xbd9b26a2	-0.07575728
111	0xbdbf777a	-0.0934896
112	0xbe21433f	-0.15748309
113	0xbdb3e347	-0.08783584
114	0xbdf883c1	-0.12134505
115	0xbe02c64f	-0.12770961
116	0xbd82deb5	-0.06390134
117	0xbd989f41	-0.0745225
118	0x3e66d29e	0.22541282
119	0xbd2ee039	-0.042694304
120	0xbd2adc22	-0.04171384
121	0x3d7bb1b3	0.061448764
122	0x3cc907bf	0.024539826
123	0x3df297a5	0.1184533
124	0x3ccb01ee	0.024781194
125	0x3ba05018	0.0048923604
126	0xbe107cd0	-0.14110112
127	0x3d141d08	0.0361605
128	0xbd075bdb	-0.033046585
129	0xbdc46373	-0.09589281
130	0x3d672823	0.05643476
131	0xbd1bd02b	-0.03804032
132	0x3e0d9fe7	0.13830529
133	0x3bcf7abd	0.00633177
134	0xbd8fec62	-0.07027508
135	0xbc96be9c	-0.018401437
136	0xbe428c68	-0.18998873
137	0x3d6a29f4	0.057168916
138	0x3d5c7354	0.053820923
139	0x3d4183f3	0.047244977
140	0xbe00b3e7	-0.12568627
141	0x3d3dc086	0.046326183
142	0x3dbb4e46	0.09145789
143	0x3e65aa73	0.22428302
144	0xbd3ea7bc	-0.046546683
145	0xbd8a2166	-0.067446515
146	0xbc515d84	-0.0127786435
147	0x3ddbf379	0.10739798
148	0x3da99ecd	0.08282242
149	0x3d9ca5bb	0.07648798
150	0xbdcbf9ca	-0.09959753
151	0x3db5dee6	0.08880405
152	0x3d929f29	0.07159264
153	0x3d344436	0.044010364
154	0x3e27aa40	0.16373539
155	0x3d724652	0.059149094
156	0xbd935996	-0.071948215
157	0x3def1df6	0.116756365
158	0x3e0ba6c5	0.13637836
159	0xbe2e32c3	-0.17011552
160	0x3e75139d	0.23933263
161	0xbc64abb0	-0.013956949
162	0xbe105724	-0.14095742
163	0xbe2bc254	-0.16773349
164	0xbc77276b	-0.015085082
165	0x3d8d2d3f	0.06893396
166	0xbda6c103	-0.08142283
167	0x3da7d397	0.081946544
168	0x3e4e8b44	0.20170313
169	0x3dc98786	0.09840302
170	0xbd8311e1	-0.063998945
171	0xbd837868	-0.0641945
172	0x3c8345af	0.016024439
173	0xbd392eef	-0.045210775
174	0xbbdaa1c5	-0.0066721165
175	0x3dfa1478	0.12210935
176	0xbd4c002a	-0.049804844
177	0x3d7667ad	0.060157467
178	0x3d9b5077	0.07583707
179	0xbd8d33ff	-0.06894683
180	0x3d2c3583	0.04204322
181	0xbe53afb4	-0.20672494
182	0xbba6c2c4	-0.005089136
183	0xbdb81b30	-0.089895606
184	0xbcbfc305	-0.023408422
185	0xbd2188ca	-0.039437093
186	0xbdb79c62	-0.089653745
187	0xbd335446	-0.04378154
188	0xbd66cee8	-0.056349665
189	0xbc3081a7	-0.010773099
190	0xbe186c05	-0.14884956
191	0x3cd17039	0.025566207
192	0x3dd2712b	0.10275491
193	0x3c5dae8a	0.013530383
194	0xbd14dfeb	-0.036346357
195	0x3cda1bf5	0.02662466
196	0x3c2a2dd1	0.0103869
197	0x3daaee47	0.08346229
198	0x3d264a9f	0.040598508
199	0x3dbad879	0.0912332
200	0xbddb5fb7	-0.107116155
201	0xbdc29144	-0.095003635
202	0xbdc748c6	-0.09730677
203	0xbe29eb77	-0.16593729
204	0x3d4e6209	0.050386462
205	0x3c05f363	0.008175704
206	0x3c3afe90	0.0114132315
207	0x3d93f83c	0.07225081
208	0x3d055be1	0.032558326
209	0xbd9fe9a0	-0.07808232
210	0xbd8ea657	-0.069653206
211	0xbdb4257b	-0.08796211
212	0x3dc6e5c9	0.09711797
213	0x3e200f07	0.15630732
214	0x3a127907	0.00055874925
215	0xbdd2a0b3	-0.10284557
216	0xbd605ac7	-0.054774072
217	0x3c056d40	0.008143723
218	0x3d77f9e5	0.060541052
219	0x3dc02c33	0.0938343
220	0xbe0f27ef	-0.13980077
221	0xbd4223ba	-0.047397353
222	0xbe099432	-0.13435438
223	0xbd176985	-0.036965866
224	0x3db95e5d	0.090512015
225	0x3dc7ad46	0.09749846
226	0x3e337683	0.17525677
227	0xbe101196	-0.14069209
228	0x3ca2aeaf	0.019858686
229	0x3da5dbc9	0.08098561
230	0xbc21dd4c	-0.009879421
231	0x3c46f894	0.012144227
232	0xbbcd57fe	-0.006266593
233	0x3dd9a2d6	0.106267616
234	0xbdac8be5	-0.0842512
235	0xbd2356ae	-0.039877586
236	0xbd87f65e	-0.06638788
237	0x3df7ad01	0.12093545
238	0xbd9b68f0	-0.075883746
239	0x3d692271	0.05691761
240	0xbd1037a4	-0.035209313
241	0xbcc44773	-0.02395985
242	0x3c7354b3	0.014851737
243	0x3dacc848	0.08436638
244	0x3e0ac7de	0.13552806
245	0xbb5415a3	-0.003236153
246	0x3dccb0a2	0.099946275
247	0x3cb234b4	0.021753646
248	0x3e2c189b	0.16806261
249	0xbc4af53e	-0.012387572
250	0x3ccf8de6	0.025336217
251	0xbd954966	-0.0728939
252	0xbca46143	-0.02006591
253	0xbdfc43c7	-0.12317615
254	0xbd9d4b42	-0.0768037
255	0x3e4ee598	0.2020477

network_body._body_endoder.seq_layers.2.bias f4 [128]
0	0xbad303fc	-0.001609921
1	0xbbef5c3f	-0.0073046978
2	0xbbcdb97d	-0.0062782154
3	0xbc32ebc6	-0.010920471
4	0x3ac90454	0.0015336373
5	0xbbe83cbe	-0.007087319
6	0xbbab37dd	-0.0052251653
7	0xbbd60562	-0.0065314034
8	0xbc01a166	-0.007912016
9	0xbbdd6691	-0.0067566116
10	0xbbe23c09	-0.0069041294
11	0xbc04dc36	-0.008109143
12	0xbbb60361	-0.005554602
13	0xbbb8199a	-0.0056182863
14	0xb9fb4c93	-0.00047931503
15	0xbc0ab5c5	-0.008466189
16	0xbc03bfa7	-0.008041299
17	0xbc31ffef	-0.010864242
18	0xbb34915b	-0.002755246
19	0xbb7d70df	-0.0038672013
20	0xbc1e0200	-0.0096440315
21	0xba5bec17	-0.0008389367
22	0xba222854	-0.0006185819
23	0xbb9eaf61	-0.004842684
24	0xb20a193e	-8.038397e-09
25	0xbbb386c8	-0.0054787137
26	0xbad486e8	-0.0016214522
27	0xbbb9a1f5	-0.0056650587
28	0xb922ed90	-0.00015538023
29	0xbbf38346	-0.0074314205
30	0xbb262b14	-0.0025355266
31	0xbb94054f	-0.0045172344
32	0xbbd7f18e	-0.006590075
33	0x3ab2442d	0.001360064
34	0xbabae116	-0.0014257755
35	0xbacad3e5	-0.0015474526
36	0xbbc41fea	-0.0059852498
37	0x36658252	3.4199516e-06
38	0xbc1f5cca	-0.0097267125
39	0xbb97df1a	-0.00463475
40	0xbb148bf1	-0.002266642
41	0xbbc9d31a	-0.0061591985
42	0xbbe4bc58	-0.00698046
43	0x3a827e24	0.0009955806
44	0xbbd894c3	-0.0066095307
45	0xbb995cea	-0.0046802657
46	0xbadb74fa	-0.0016743236
47	0x3adaa24b	0.0016680447
48	0xbbd1899b	-0.0063945777
49	0x3c0182a0	0.007904679
50	0x3a36ca25	0.0006972871
51	0xbcc5089a	-0.024051953
52	0xbc01f54a	-0.007932017
53	0xbbaa8939	-0.0052043465
54	0xbc3628b8	-0.011118107
55	0x390fa855	0.00013700251
56	0xbafb7ec3	-0.0019187558
57	0xbc496ab0	-0.012293503
58	0xbba6289c	-0.005070759
59	0xba0bf393	-0.00053387246
60	0xbc378fe6	-0.011203742
61	0x39128ad9	0.0001397537
62	0xbbab3a95	-0.0052254894
63	0xbc0edbbc	-0.008719381
64	0xbc29ea03	-0.010370734
65	0xbbcc62d4	-0.006237367
66	0xbaa36fa5	-0.0012469186
67	0xbbd9857e	-0.006638228
68	0x3b2cad9b	0.0026348594
69	0xbbc9744a	-0.006147896
70	0xb92f395f	-0.00016710673
71	0xbb80395b	-0.0039130873
72	0xbc29c92c	-0.0103629045
73	0xba1d088f	-0.000599035
74	0xbb08aee7	-0.0020856203
75	0xbbd64c47	-0.0065398547
76	0xbb93db20	-0.0045122057
77	0xbbb8403c	-0.0056228917
78	0xbb23e320	-0.0025007203
79	0xbbb82f78	-0.005620893
80	0xbbdd315a	-0.006750268
81	0xbba90076	-0.0051575257
82	0xbb6dc49d	-0.003628052
83	0xbbd118cc	-0.00638113
84	0xbb0d1648	-0.0021528173
85	0xbb80f6e5	-0.003935682
86	0xbbac3218	-0.005254995
87	0xbbae5143	-0.0053197457
88	0xbbfc016b	-0.0076905987
89	0xbbaf0f8b	-0.005342429
90	0xbbb39497	-0.00548036
91	0xbb9e6146	-0.0048333732
92	0x3be19f11	0.0068854173
93	0xbbd65e71	-0.00654202
94	0xbc01ae44	-0.007915083
95	0xbaa7216a	-0.0012751047
96	0x3a1eee06	0.000606269
97	0xbaa1533d	-0.0012308132
98	0xbbf823db	-0.0075726337
99	0xbb35e34f	-0.0027753895
100	0xbb8029c7	-0.0039112302
101	0xbb4eb35d	-0.0031540014
102	0x3b26a704	0.002542914
103	0xbc13e6b0	-0.009027168
104	0xbbb2f501	-0.0054613356
105	0xbba33e79	-0.0049818126
106	0xbaca5a27	-0.0015438244
107	0xbbf73ea6	-0.00754531
108	0xba2c5411	-0.0006573806
109	0xba51d063	-0.00080037693
110	0xbb502195	-0.0031758298
111	0xbc0253d3	-0.007954556
112	0xbb2b3c2a	-0.002612839
113	0xbc1d0435	-0.009583523
114	0xbbb702ae	-0.0055850362
115	0xbaa6924c	-0.0012708395
116	0xbafaacb5	-0.0019124957
117	0xb8938bc2	-7.035538e-05
118	0xbc08757c	-0.008328792
119	0xbbaaafae	-0.005208931
120	0xbb466c08	-0.0030276794
121	0xba93d800	-0.0011279583
122	0xbb1c8555	-0.0023883183
123	0xbbb073c3	-0.0053848936
124	0xbb4df6f5	-0.0031427715
125	0xbb25c366	-0.0025293468
126	0xbbeba956	-0.0071918173
127	0xbc26ae13	-0.010173338

action_model._continuous_distribution.log_sigma f4 [1, 2]
0	0xbc5008a5	-0.0126973735
1	0x3c0201ae	0.007934971

action_model._continuous_distribution.mu.weight f4 [2, 128]
0	0xbc86b646	-0.016444337
1	0x3c509fd5	0.012733419
2	0x3c29091a	0.010317111
3	0xbbbaca2b	-0.00570037
4	0xbc8d6474	-0.017259814
5	0x3c8f6f49	0.01750912
6	0xbb3d657e	-0.0028899605
7	0x3c2f159e	0.010686306
8	0xbc240271	-0.010010348
9	0xba9e2144	-0.0012064357
10	0xbb320fa9	-0.0027169979
11	0x3c8d8885	0.017277012
12	0xb9c69026	-0.00037872902
13	0xba1b2942	-0.00059189287
14	0xbd0ec15e	-0.034852378
15	0x3af0af39	0.0018362767
16	0x3b7f75f4	0.0038980218
17	0xbbfa5c87	-0.0076404247
18	0xbcb114a2	-0.021616284
19	0x3b226390	0.0024778582
20	0xbc865751	-0.016399058
21	0x3bf72f86	0.007543507
22	0xbb4730ed	-0.0030394152
23	0xbc3bf5f0	-0.01147221
24	0x3997d6f3	0.00028961114
25	0x3ce58f4d	0.028022433
26	0xbcf0302f	-0.02931985
27	0xbc2d1764	-0.010564659
28	0xbba536a1	-0.0050419127
29	0x3b1bf4be	0.0023797
30	0x3cd7d546	0.026346814
31	0xbc6b1a4c	-0.014349531
32	0xbc258558	-0.010102592
33	0x3caae60b	0.020861646
34	0xbbbb3411	-0.005712994
35	0xbd2cf5a6	-0.042226456
36	0x3bc3071a	0.0059517743
37	0x3c445b28	0.011984624
38	0xbc97d2c1	-0.018533112
39	0x3b3b00a9	0.002853433
40	0x3b906697	0.004406761
41	0x3bfb774d	0.007674134
42	0xbc0c39d7	-0.008558712
43	0x3c9aded7	0.018905086
44	0x3b0c0f40	0.0021371394
45	0x3b910c54	0.0044265185
46	0xbc0d388d	-0.00861944
47	0xbd0f440c	-0.034977004
48	0xbb736342	-0.003713802
49	0xbd427bb8	-0.04748127
50	0xbbbd3ec8	-0.0057753064
51	0x3b087b70	0.0020825528
52	0xbc3012b2	-0.010746645
53	0xbb0dffe4	-0.0021667415
54	0x3c1fde19	0.009757542
55	0xbd1067bc	-0.03525518
56	0xbd4dcc5e	-0.050243728
57	0x3b4a05ca	0.0030826204
58	0x3b8eaee7	0.004354346
59	0xbcbb99a9	-0.02290042
60	0xbc1bf64b	-0.00951917
61	0xbcbea47f	-0.023271797
62	0xbc463e61	-0.012099833
63	0xbaae1090	-0.0013280082
64	0xbc84ba03	-0.016201979
65	0xba4353dc	-0.00074511557
66	0xbb364120	-0.0027809814
67	0x3b2f2e1f	0.0026730371
68	0xbd19013d	-0.037354697
69	0x3c8cadbc	0.017172687
70	0xbce8175d	-0.028331453
71	0x3b4f7cd7	0.0031660104
72	0x3d06bc95	0.03289469
73	0xbc75a695	-0.0149933295
74	0xbc815aba	-0.015790332
75	0x3bf9b453	0.0076203733
76	0x3cd0fcb9	0.025511133
77	0xbb3e7d54	-0.00290664
78	0xbcea9058	-0.028633282
79	0xbbce5617	-0.006296884
80	0x3ca19930	0.019726366
81	0x3c8730d1	0.01650277
82	0xbb566601	-0.0032714608
83	0xbbba4d7c	-0.0056855064
84	0x3cc945db	0.024569442
85	0x3c38dc4c	0.011282992
86	0x3cb53aa7	0.022122694
87	0x3bb4919d	0.0055105225
88	0xbb265476	-0.0025379932
89	0xb98cd1c6	-0.00026859174
90	0x3bcff90e	0.0063468283
91	0xbb444b44	-0.0029952088
92	0xbcb2c90c	-0.021824382
93	0xbb051ead	-0.0020312474
94	0xbc30d65a	-0.010793293
95	0x3bfcfab4	0.007720316
96	0xbc48a251	-0.0122457305
97	0x3bc6f04d	0.0060711266
98	0x3caf960e	0.021433856
99	0x3b914a34	0.0044338945
100	0x3c1cadbb	0.009562905
101	0xbc0985b9	-0.008393698
102	0xbcd01a6a	-0.02540322
103	0xbc032759	-0.008004987
104	0x3cd30dca	0.025763411
105	0xbc8e4b54	-0.017369904
106	0x3ca7be8f	0.020476608
107	0xbb40a5ce	-0.0029395702
108	0x3cf192b9	0.029488908
109	0x3c5175d8	0.012784444
110	0xbc2f4738	-0.010698132
111	0xbc9fd5f7	-0.019511206
112	0x3d2ff02f	0.042953666
113	0x3caead48	0.021322861
114	0xbc945ca2	-0.018110577
115	0x3bbdb87a	0.0057898136
116	0x3d0e0833	0.034675788
117	0x3a2e1bb9	0.0006641704
118	0xbb162913	-0.0022912666
119	0xbbee600e	-0.007274634
120	0xbcc64378	-0.024202093
121	0x3d010349	0.031497274
122	0xbad356d9	-0.0016123905
123	0xbaa2d081	-0.0012421758
124	0x3d1bc904	0.0380335
125	0xbb8f3b16	-0.0043710573
126	0xbc719b6e	-0.01474653
127	0x3c7429fe	0.01490259
128	0x3c121a4b	0.008917402
129	0xbbc013e5	-0.0058617466
130	0xbc58c925	-0.01323155
131	0xba9cabac	-0.0011953018
132	0x3cd5cc36	0.026098352
133	0x3ba697f6	0.005084033
134	0xbc081323	-0.008305344
135	0xba3fd8e5	-0.00073183916
136	0xbba5d18f	-0.0050603817
137	0x3c594d2b	0.013263027
138	0xbc035eb7	-0.008018187
139	0x3cabdd37	0.020979507
140	0xbc4aa0a6	-0.012367403
141	0x3c92dee7	0.017928554
142	0xbb915f51	-0.0044364114
143	0x3ada7f56	0.0016670029
144	0xbb5192c8	-0.0031978358
145	0x3b88dfc8	0.0041770674
146	0xbbdc2f5e	-0.006719514
147	0x3bfbf47e	0.007689058
148	0xbc29bb41	-0.010359586
149	0x3ca1ad63	0.019735998
150	0x3d25515d	0.040360797
151	0x3a94ed86	0.0011362291
152	0x3c9801bd	0.018555516
153	0x3a3b694b	0.0007149174
154	0x39da3ee9	0.00041627072
155	0xbc4dd6aa	-0.012563387
156	0x39beb5ce	0.0003637508
157	0x3b82ab7d	0.003987728
158	0x3b8b7447	0.0042558047
159	0xbbf6e05b	-0.0075340695
160	0xba0bdfb3	-0.0005335763
161	0x3d444f14	0.047926977
162	0x3bbac608	0.0056998767
163	0xbb6e85c2	-0.0036395644
164	0xbc889ac7	-0.016675366
165	0xbc8f3609	-0.01748182
166	0x3b5e895d	0.0033956387
167	0xbc9bcc84	-0.01901842
168	0x3c1f03c8	0.009705491
169	0x3ac0f3c7	0.0014721089
170	0xbc15011a	-0.009094501
171	0xbbd39408	-0.0064568557
172	0xbc9f0d50	-0.019415528
173	0xbce5cbdc	-0.02805131
174	0x3c170451	0.009217338
175	0xbd0b1eec	-0.033965036
176	0xbb5d09c0	-0.0033727735
177	0xba8c9cf0	-0.0010727923
178	0x3c4e75af	0.0126013
179	0xba7e9c36	-0.00097126083
180	0x39d2d9e2	0.00040216657
181	0xb9e8d45d	-0.0004440871
182	0xbb107da8	-0.0022047553
183	0x3b9edf0d	0.004848367
184	0xbcb3cb09	-0.0219474
185	0x3ae5a292	0.0017519763
186	0xbcf29f08	-0.029616848
187	0x3c24ee37	0.0100665605
188	0x3aa34494	0.0012456351
189	0x3b784830	0.0037884824
190	0x3ca68996	0.020329278
191	0x3bbecc68	0.005822707
192	0xbbc211b5	-0.005922521
193	0xbc4ee566	-0.012627935
194	0xbca59d98	-0.020216748
195	0xbbef9e1d	-0.0073125497
196	0x3b8fd010	0.0043888167
197	0xbc19a7c9	-0.009378382
198	0x3c1ea25c	0.009682264
199	0x3c196c03	0.009364131
200	0xbcd937b1	-0.026515814
201	0x3c33b9cb	0.010969589
202	0x3bc47f8c	0.00599665
203	0x3a967971	0.0011480284
204	0x3bb15612	0.0054118717
205	0xbabc8d20	-0.001438532
206	0xbc7b077d	-0.01532161
207	0xbb8e03a4	-0.00433393
208	0xbace9fc8	-0.0015764171
209	0xbcbf7b77	-0.023374302
210	0xbc0cef3c	-0.00860196
211	0x3b24f834	0.0025172355
212	0xbb12a5b9	-0.002237661
213	0x3b927769	0.004469801
214	0xbc26e2ac	-0.010185879
215	0xbab3191d	-0.00136641
216	0xba04718b	-0.00050523196
217	0x3cb08ffb	0.02155303
218	0x3b655a11	0.003499631
219	0xbcaef872	-0.021358702
220	0xbc8a6e43	-0.01689828
221	0xbc977905	-0.018490324
222	0x3b87b0c5	0.0041409456
223	0x3c4cccb3	0.012499976
224	0x3b292ca2	0.0025813957
225	0x3b01c69f	0.0019802225
226	0x3c4ff1e5	0.0126919495
227	0x3bface98	0.0076540224
228	0xbbd1fe36	-0.006408478
229	0x3b4acb1f	0.0030943824
230	0x3b51bcdc	0.0032003438
231	0xba15af53	-0.0005710024
232	0xbcab82af	-0.020936338
233	0xbc3d7408	-0.011563309
234	0x3c765b0f	0.0150363585
235	0x3c1488e0	0.009065837
236	0x3bc1710d	0.0059033693
237	0xba102d4f	-0.00054999156
238	0xbbec5875	-0.0072126933
239	0xbcfd47f3	-0.030918097
240	0x3b7b7836	0.0038371212
241	0xbc87dc71	-0.016584607
242	0xbc805372	-0.01566479
243	0x3c30c25f	0.010788529
244	0x3c5ebd67	0.013594962
245	0xbc281012	-0.010257738
246	0xbaf50771	-0.0018694234
247	0xbbce23f7	-0.0062909084
248	0xbbdc6c05	-0.006726744
249	0xbc9408a6	-0.01807053
250	0xbbd84acd	-0.006600714
251	0xbbd953f6	-0.0066323234
252	0x3a7fb8c0	0.0009755008
253	0x3c34311c	0.010998037
254	0xbc93fe50	-0.018065602
255	0x3c8c04e3	0.017092174

action_model._continuous_distribution.mu.bias f4 [2]
0	0xba9dacf7	-0.0012029697
1	0x3b6c7449	0.0036080054

exp_avg f4 [128, 8]
0	0xba7aaad3	-0.0009562198
1	0xb7b52696	-2.159485e-05
2	0x3959d570	0.00020774244
3	0xba60868c	-0.0008564971
4	0xb7b525e2	-2.1594522e-05
5	0x3ab656a4	0.0013911319
6	0x39694475	0.00022246114
7	0xb88302c7	-6.247084e-05
8	0x39839997	0.000251007
9	0x36be352c	5.6686313e-06
10	0xb864b989	-5.453223e-05
11	0x3989b9a3	0.00026268986
12	0x36be357a	5.6686667e-06
13	0xb8bb4432	-8.929557e-05
14	0xb6f14336	-7.190184e-06
15	0x3816c583	3.5946734e-05
16	0xbc524be6	-0.012835478
17	0xb997f9cd	-0.0002898708
18	0x3b36c03a	0.0027885572
19	0xbc54362d	-0.01295237
20	0xb997f9cb	-0.00028987075
21	0x3c26538a	0.010151753
22	0x3a0152ae	0.00049332797
23	0xba48fcbb	-0.00076670543
24	0x3c9d0ea0	0.019172013
25	0x39e3008e	0.00043297227
26	0xbb887c2d	-0.0041651935
27	0x3ca1b09e	0.019737538
28	0x39e3009a	0.00043297262
29	0xbc74a3ef	-0.014931663
30	0xba0159e1	-0.00049343525
31	0x3a91e4eb	0.0011130845
32	0x3c5bdeb3	0.013419795
33	0x399ee4ee	0.00030306674
34	0xbb3f1201	-0.0029155018
35	0x3c5e5ad1	0.013571457
36	0x399ee4ef	0.00030306677
37	0xbc2fbcfe	-0.010726212
38	0xba0393ab	-0.00050192577
39	0x3a53f9b8	0.0008086222
40	0xbba421af	-0.005008898
41	0xb8ed3a2a	-0.000113118746
42	0x3a8ea202	0.0010882022
43	0xbb946e4f	-0.0045297514
44	0xb8ed39e9	-0.00011311827
45	0x3b676b6f	0.0035311838
46	0x3a1934d4	0.0005844359
47	0xba200a6f	-0.00061050704
48	0x3acb99d5	0.0015533516
49	0x38132315	3.5080204e-05
50	0xb9b0eeaa	-0.00033747155
51	0x3b0b4c92	0.0021255356
52	0x38132397	3.5080677e-05
53	0xb8114070	-3.4630706e-05
54	0x3900c620	0.00012280839
55	0x399db6b3	0.00030081495
56	0xbc1a2ed0	-0.009410575
57	0xb95ed90b	-0.00021252425
58	0x3b05fcbd	0.0020444833
59	0xbc23b6c7	-0.009992308
60	0xb95ed902	-0.00021252412
61	0x3c1888d4	0.009309966
62	0xb72bf51e	-1.0249465e-05
63	0xb966f624	-0.00022026204
64	0x367e1045	3.785842e-06
65	0x33b79ae9	8.5497796e-08
66	0xb55cc901	-8.2248886e-07
67	0x367ffe3c	3.8145945e-06
68	0x33b79b1c	8.549816e-08
69	0xb5be4f64	-1.4179209e-06
70	0xb4714a35	-2.247187e-07
71	0x351dc21d	5.876953e-07
72	0x37995a57	1.8281089e-05
73	0x34dda5f4	4.1285205e-07
74	0xb6854419	-3.9716365e-06
75	0x3792a450	1.748107e-05
76	0x34dda60c	4.1285273e-07
77	0xb6f4fbe1	-7.301089e-06
78	0xb55486a9	-7.917211e-07
79	0x362df256	2.5920067e-06
80	0x3aa1b8cd	0.00123384
81	0x37e9be92	2.7864506e-05
82	0xb98c89f2	-0.00026805658
83	0x3ab63634	0.0013901652
84	0x37e9beed	2.7864671e-05
85	0xb9ada614	-0.0003312087
86	0xb7bf4ca7	-2.2804668e-05
87	0x39887526	0.00026027224
88	0xbbe5e953	-0.00701634
89	0xb92626a8	-0.00015845394
90	0x3ac7cbea	0.0015243266
91	0xbbf87b02	-0.007583023
92	0xb92626ce	-0.0001584545
93	0x3b9f3b07	0.0048593315
94	0xb8b26275	-8.5060405e-05
95	0xba02400f	-0.0004968652
96	0xbc55ec0a	-0.013056764
97	0xb99a9889	-0.00029486816
98	0x3b39e6c9	0.0028366318
99	0xbc5f8754	-0.013643105
100	0xb99a989c	-0.00029486872
101	0x3c251a82	0.010077121
102	0x393c6839	0.00017967903
103	0xba3143e2	-0.00067621295
104	0x3c3a3f57	0.01136764
105	0x3986989e	0.0002567218
106	0xbb21da14	-0.0024696635
107	0x3c43601b	0.011924769
108	0x398698b3	0.00025672241
109	0xbc07c05b	-0.008285607
110	0xb75789ac	-1.2847053e-05
111	0x3a1a43c1	0.000588473
112	0xb97f00dc	-0.00024319015
113	0xb6b848c5	-5.492099e-06
114	0x385d9a0d	5.2833977e-05
115	0xba13dda7	-0.0005640634
116	0xb6b84b96	-5.4924267e-06
117	0xb9036fa1	-0.00012534719
118	0xb989d32f	-0.0002628802
119	0x3883957b	6.27441e-05
120	0x3ca6f904	0.020382412
121	0x39f1556a	0.0004603074
122	0xbb911a14	-0.0044281576
123	0x3ca62084	0.020279177
124	0x39f15557	0.00046030685
125	0xbc8ae592	-0.01695517
126	0xba915ff1	-0.0011091215
127	0x3aa68ec7	0.0012707346
128	0xbca66739	-0.020312892
129	0xb9f082b0	-0.00045873737
130	0x3b909b61	0.004413054
131	0xbcaa13d3	-0.020761406
132	0xb9f082bb	-0.0004587377
133	0x3c72fbaa	0.014830509
134	0x3a0acd7a	0.00052949006
135	0xbab74811	-0.001398327
136	0x3a06146c	0.00051147374
137	0x3741cabb	1.1550898e-05
138	0xb8e908d7	-0.00011111952
139	0x39b1a674	0.00033884088
140	0x3741c992	1.1550628e-05
141	0xba39e0de	-0.0007090698
142	0xb9328d3e	-0.0001702802
143	0x38f33f61	0.00011598948
144	0x395615a0	0.00020416686
145	0x369ab69a	4.6108153e-06
146	0xb83a0aef	-4.435604e-05
147	0x394ffabf	0.00019834469
148	0x369ab693	4.610812e-06
149	0xb9405066	-0.00018340498
150	0x36ec91ba	7.050313e-06
151	0x37e2b4a8	2.7025424e-05
152	0xb3c0ae30	-8.972381e-08
153	0xb10b3ebd	-2.0262825e-09
154	0x32a7713a	1.9492848e-08
155	0xb3943fc5	-6.903387e-08
156	0xb10b3e76	-2.0262667e-09
157	0x33a1f8fc	7.542437e-08
158	0x32842af3	1.5386354e-08
159	0xb2228fe2	-9.462356e-09
160	0xbd085641	-0.033285383
161	0xba450de4	-0.00075170235
162	0x3becf52f	0.0072313766
163	0xbd0a89db	-0.033822875
164	0xba450dea	-0.0007517027
165	0x3cd33f5a	0.025787044
166	0x3a95122c	0.0011373213
167	0xbb051f1a	-0.0020312727
168	0xb588538e	-1.0157107e-06
169	0xb2c50a00	-2.2938366e-08
170	0x346cf07f	2.2066705e-07
171	0xb59045a5	-1.0749105e-06
172	0xb2c509f3	-2.2938343e-08
173	0x35849f30	9.881096e-07
174	0x31376bfa	2.6691382e-09
175	0xb28a7952	-1.6120485e-08
176	0x3d23d57a	0.03999851
177	0x3a6ccc05	0.0009033087
178	0xbc0e5fc9	-0.008689829
179	0x3d25911f	0.0404216
180	0x3a6ccc04	0.0009033086
181	0xbd013e31	-0.03155345
182	0xbacb8bd9	-0.0015529349
183	0x3b2336c2	0.0024904464
184	0xb97bb15e	-0.000240033
185	0xb6b5e46c	-5.420812e-06
186	0x385ab973	5.2147963e-05
187	0x38d88d20	0.00010325969
188	0xb6b5e1d1	-5.420509e-06
189	0x39310657	0.00016882397
190	0x3989991e	0.00026244757
191	0xb8d73c48	-0.00010263227
192	0xba5f4422	-0.00085169275
193	0xb7a15940	-1.9234256e-05
194	0x3942058f	0.00018503352
195	0xba586c66	-0.0008255899
196	0xb7a1593b	-1.9234247e-05
197	0x3a161648	0.0005725366
198	0x38825a1b	6.2156665e-05
199	0xb8817a9b	-6.1740364e-05
200	0x39aefc6b	0.00033375932
201	0x36fcea5f	7.5374696e-06
202	0xb89810c3	-7.251047e-05
203	0x395f4ddb	0.0002129594
204	0x36fce796	7.5371454e-06
205	0xba7ce7ae	-0.000964756
206	0xb965360d	-0.00021859277
207	0x3801d20b	3.0951614e-05
208	0x3c8ec527	0.017427994
209	0x39ce5a3e	0.00039358618
210	0xbb78238d	-0.0037862987
211	0x3c905d6c	0.017622672
212	0x39ce5a41	0.00039358626
213	0xbc5c8ecc	-0.01346178
214	0xba2cd59f	-0.00065931113
215	0x3a9344fc	0.0011235769
216	0x2a5b1840	1.9459521e-13
217	0x279e557e	4.39465e-15
218	0xa93e658b	-4.227655e-14
219	0x2a45690a	1.7533558e-13
220	0x279e5533	4.3946183e-15
221	0xaa460733	-1.758843e-13
222	0xa8c78001	-2.2148951e-14
223	0x2811dced	8.0970226e-15
224	0x3a2015cd	0.0006106764
225	0x376760f4	1.3791247e-05
226	0xb90b1dcf	-0.00013267178
227	0x3a24d3de	0.0006287674
228	0x376760ca	1.3791208e-05
229	0xba32c4d7	-0.00068194926
230	0xb84d2256	-4.8907787e-05
231	0x35e769f2	1.7241675e-06
232	0x37cc841f	2.4380219e-05
233	0x3513cc67	5.505921e-07
234	0xb6b1ba44	-5.2966952e-06
235	0x37c1ddda	2.31107e-05
236	0x3513cc72	5.5059274e-07
237	0xb7287e20	-1.0042946e-05
238	0xb58bc35c	-1.0413164e-06
239	0x367960a2	3.716014e-06
240	0x3c61dd1c	0.013785627
241	0x39a339d1	0.0003113286
242	0xbb444770	-0.0029949807
243	0x3c4e946a	0.012608627
244	0x39a339b2	0.0003113277
245	0xbc2c4811	-0.010515229
246	0xbab602f5	-0.0013886379
247	0x3ab109c1	0.0013506935
248	0x36e0dbd8	6.7013134e-06
249	0x34227fe4	1.5133952e-07
250	0xb5c367de	-1.4558861e-06
251	0x36eaa0e6	6.9924745e-06
252	0x34227fec	1.5133963e-07
253	0xb6ca0d76	-6.021636e-06
254	0x34125fa7	1.3632108e-07
255	0x33045823	3.0813805e-08

exp_avg_sq f4 [128, 8]
0	0x39c35fc6	0.00037264655
1	0x344c1228	1.9005586e-07
2	0x37938b42	1.7588613e-05
3	0x39d06079	0.0003974473
4	0x344c1227	1.9005584e-07
5	0x399523e1	0.00028446226
6	0x35870e9a	1.0062533e-06
7	0x369061d1	4.3029218e-06
8	0x36079087	2.0200694e-06
9	0x308d9969	1.0302702e-09
10	0x33ccc0dc	9.534571e-08
11	0x3611fa5e	2.1752417e-06
12	0x308d9969	1.0302702e-09
13	0x348ca89b	2.619971e-07
14	0x319a015e	4.4821453e-09
15	0x3353c319	4.9304706e-08
16	0x3a95c32f	0.0011425967
17	0x351c6dd6	5.827436e-07
18	0x38623293	5.39297e-05
19	0x3a9f73fa	0.0012165301
20	0x351c6dd7	5.8274367e-07
21	0x3a4b18da	0.00077475386
22	0x35fd3dfe	1.8868011e-06
23	0x3789fff3	1.6450858e-05
24	0x3a813786	0.0009858466
25	0x3506f815	5.0279897e-07
26	0x38432a8a	4.653124e-05
27	0x3a890b41	0.0010455624
28	0x3506f815	5.0279897e-07
29	0x3a2ef41b	0.0006673948
30	0x35e2163e	1.6844785e-06
31	0x377b00a0	1.4960911e-05
32	0x3a94b0bb	0.0011344174
33	0x351b4f2a	5.78572e-07
34	0x3860941a	5.3543692e-05
35	0x3a9e5f26	0.00120828
36	0x351b4f28	5.7857187e-07
37	0x3a6e28b3	0.0009085044
38	0x361e9b89	2.3634368e-06
39	0x3742ac82	1.1603466e-05
40	0x3b646fa2	0.0034856577
41	0x35ee9add	1.7777453e-06
42	0x392c831f	0.00016452045
43	0x3b71e600	0.0036910772
44	0x35ee9ada	1.777745e-06
45	0x3b214769	0.0024609214
46	0x3701d3d1	7.7383165e-06
47	0x38342a05	4.2954478e-05
48	0x3a096217	0.0005240752
49	0x348f7fb4	2.6728742e-07
50	0x37cf8014	2.4735964e-05
51	0x3a11470a	0.00055418967
52	0x348f7fb8	2.6728753e-07
53	0x38f844aa	0.00011838351
54	0x3589ac34	1.0257413e-06
55	0x374b91a7	1.2133655e-05
56	0x3a804f54	0.0009789267
57	0x35060588	4.992694e-07
58	0x3841cbe1	4.6204663e-05
59	0x3a88cd31	0.0010437128
60	0x35060587	4.9926933e-07
61	0x3a858260	0.001018595
62	0x3605f786	1.9962622e-06
63	0x3620d7fb	2.3967575e-06
64	0x31efccf0	6.979114e-09
65	0x2c7a79a8	3.559467e-12
66	0x2fb5182e	3.294089e-10
67	0x320d0db0	8.210392e-09
68	0x2c7a79aa	3.5594674e-12
69	0x2fdd02d7	4.0201684e-10
70	0x2e2dedd5	3.9546883e-11
71	0x2f2bb1a9	1.5615477e-10
72	0x3087ef77	9.890603e-10
73	0x2b0dfc8d	5.044375e-13
74	0x2e4d5049	4.668291e-11
75	0x308a94d0	1.0083117e-09
76	0x2b0dfc8b	5.0443737e-13
77	0x2f6174e1	2.0505155e-10
78	0x2be558fd	1.6296128e-12
79	0x2dd83905	2.4581679e-11
80	0x38fcb15c	0.00012049332
81	0x3383f87e	6.145363e-08
82	0x36bed498	5.6871904e-06
83	0x390f0ab1	0.00013641526
84	0x3383f883	6.145367e-08
85	0x37429a64	1.1599248e-05
86	0x348664e8	2.5032864e-07
87	0x36396390	2.7625101e-06
88	0x3aff32cc	0.0019470095
89	0x35854786	9.930088e-07
90	0x38c0b905	9.189736e-05
91	0x3b07bbf7	0.00207114
92	0x35854781	9.930083e-07
93	0x3ac832af	0.0015273894
94	0x36c7003b	5.930689e-06
95	0x37a1799f	1.924933e-05
96	0x3b181a05	0.0023208868
97	0x359edf59	1.183692e-06
98	0x38e5bb2b	0.00010954434
99	0x3b211432	0.0024578688
100	0x359edf5c	1.1836923e-06
101	0x3ada07ea	0.0016634439
102	0x36a5e88f	4.9444566e-06
103	0x37f8371f	2.9589572e-05
104	0x3a9ace5a	0.0011810765
105	0x3521b26e	6.0236823e-07
106	0x3869d0b4	5.57459e-05
107	0x3aa4b2c2	0.0012565481
108	0x3521b26f	6.023683e-07
109	0x3a500dae	0.0007936609
110	0x3609be04	2.0525194e-06
111	0x3795cf04	1.7858583e-05
112	0x39fee3a5	0.00048616264
113	0x34851e27	2.479512e-07
114	0x37c07d42	2.2946511e-05
115	0x3a07e962	0.0005184618
116	0x34851e27	2.479512e-07
117	0x39998998	0.0002928495
118	0x35721d01	9.019423e-07
119	0x3707b659	8.089083e-06
120	0x3b1b2168	0.0023671035
121	0x35a20946	1.207264e-06
122	0x38ea4e2d	0.00011172551
123	0x3b24ad63	0.002512776
124	0x35a20944	1.2072637e-06
125	0x3ad88c64	0.0016521332
126	0x36492348	2.997187e-06
127	0x3811903e	3.470503e-05
128	0x3b44055f	0.0029910428
129	0x35ccbf40	1.5254845e-06
130	0x39140864	0.00014117506
131	0x3b4e1c49	0.0031449965
132	0x35ccbf3d	1.5254842e-06
133	0x3b01959b	0.001977301
134	0x36b7c3c4	5.476615e-06
135	0x383615e9	4.3412587e-05
136	0x3a0a5031	0.00052762317
137	0x34907868	2.6909697e-07
138	0x37d0e7a9	2.4903407e-05
139	0x3a102fdb	0.0005500295
140	0x34907869	2.69097e-07
141	0x39d11ead	0.00039886442
142	0x35aa695f	1.2696654e-06
143	0x36ea17af	6.9765006e-06
144	0x3704efc3	7.923637e-06
145	0x318adab3	4.041192e-09
146	0x34c8c8bf	3.7398965e-07
147	0x370cb90f	8.387738e-06
148	0x318adaad	4.041189e-09
149	0x36c90e24	5.991913e-06
150	0x327c6c28	1.4692922e-08
151	0x33fa6b68	1.1661069e-07
152	0x2cae7c84	4.9592015e-12
153	0x273640eb	2.5292766e-15
154	0x2a83c51b	2.3407044e-13
155	0x2cc284cb	5.5285546e-12
156	0x273640f0	2.5292776e-15
157	0x2b8dc402	1.0073056e-12
158	0x288da8c4	1.5727335e-14
159	0x29ddc24c	9.848077e-14
160	0x3bd5c402	0.00652361
161	0x365f480b	3.3271524e-06
162	0x39a16eea	0.0003079095
163	0x3be1914b	0.0068837753
164	0x365f4807	3.3271515e-06
165	0x3b99618d	0.0046808184
166	0x373ecb64	1.1372238e-05
167	0x38baf911	8.9155634e-05
168	0x2f0ac3d7	1.2620603e-10
169	0x2990f130	6.436724e-14
170	0x2cd19658	5.9568288e-12
171	0x2f0fd31c	1.3080775e-10
172	0x2990f12f	6.436723e-14
173	0x2f13ad91	1.3431235e-10
174	0x2a635775	2.0191993e-13
175	0x2a9f21f4	2.8267633e-13
176	0x3bede9fc	0.007260559
177	0x36788120	3.703004e-06
178	0x39b3ab62	0.0003426923
179	0x3bfd90b2	0.0077381963
180	0x36788125	3.7030052e-06
181	0x3b9c5abf	0.00477156
182	0x3735ae4b	1.0829021e-05
183	0x38e385b1	0.000108491055
184	0x39dc9680	0.000420738
185	0x3466684f	2.1458366e-07
186	0x37a695d8	1.9858518e-05
187	0x39ebe639	0.00044994222
188	0x34666851	2.145837e-07
189	0x39a09a7c	0.00030632678
190	0x35784452	9.248662e-07
191	0x36b42df2	5.3697668e-06
192	0x38998695	7.3206764e-05
193	0x33205c25	3.7336708e-08
194	0x3667e1a1	3.4553016e-06
195	0x38a9e487	8.1011145e-05
196	0x33205c26	3.733671e-08
197	0x385cc26b	5.2633153e-05
198	0x34f377f9	4.534957e-07
199	0x3573102d	9.0548093e-07
200	0x39f47cf6	0.0004663241
201	0x347f5f13	2.3783313e-07
202	0x37b8a260	2.2010121e-05
203	0x3a020df8	0.0004961188
204	0x347f5f10	2.3783309e-07
205	0x39c0aaad	0.00036748257
206	0x35ac876e	1.2854414e-06
207	0x369a8881	4.605449e-06
208	0x3b13be81	0.002254397
209	0x359a5230	1.1497814e-06
210	0x38df2636	0.00010640586
211	0x3b1c71eb	0.0023871611
212	0x359a522f	1.1497813e-06
213	0x3ae6ecc8	0.0017618174
214	0x36943b5e	4.417655e-06
215	0x37d8c980	2.5843037e-05
216	0x1a27b191	3.4678228e-23
217	0x14af2898	1.7686496e-26
218	0x17fd47cb	1.6367865e-24
219	0x1a38bcb4	3.820274e-23
220	0x14af2892	1.7686486e-26
221	0x1a08b92e	2.8273728e-23
222	0x16511d68	1.6892165e-25
223	0x16b28aa9	2.8844958e-25
224	0x378a7717	1.6506337e-05
225	0x3210a10b	8.41852e-09
226	0x35512270	7.790868e-07
227	0x3792de3b	1.750804e-05
228	0x3210a108	8.418517e-09
229	0x37327f23	1.0639228e-05
230	0x32d43037	2.4701974e-08
231	0x34804f4b	2.389955e-07
232	0x3080c6a4	9.369683e-10
233	0x2b06822a	4.7787e-13
234	0x2e428007	4.4224204e-11
235	0x3081265d	9.396889e-10
236	0x2b068229	4.7786997e-13
237	0x2f166377	1.3677758e-10
238	0x2b93c224	1.0498863e-12
239	0x2dd0c737	2.3735331e-11
240	0x3c057fce	0.008148147
241	0x368b7129	4.1556964e-06
242	0x39c9a249	0.0003845862
243	0x3c0cbfa3	0.008590612
244	0x368b712c	4.1556978e-06
245	0x3b8d5584	0.004313173
246	0x378464b1	1.5782514e-05
247	0x391c06cc	0.00014879851
248	0x30a8ad55	1.2272873e-09
249	0x2b302f92	6.259378e-13
250	0x2e7ec3f3	5.792695e-11
251	0x30af50eb	1.2755924e-09
252	0x2b302f8f	6.259376e-13
253	0x309c9d0e	1.1395132e-09
254	0x2c9b87e3	4.4204514e-12
255	0x2cfbafd2	7.153369e-12

exp_avg f4 [128]
0	0xb8352697	-4.3189702e-05
1	0x373e352c	1.1337263e-05
2	0xba17f9cd	-0.0005797416
3	0x3a63008f	0.0008659446
4	0x3a1ee4ef	0.00060613354
5	0xb96d3a2b	-0.0002262375
6	0x38932315	7.016041e-05
7	0xb9ded90c	-0.00042504852
8	0x34379ae7	1.7099556e-07
9	0x355da5f2	8.25704e-07
10	0x3869be92	5.572901e-05
11	0xb9a626a7	-0.00031690786
12	0xba1a9889	-0.00058973633
13	0x3a06989d	0.00051344355
14	0xb73848b6	-1.0984184e-05
15	0x3a71556a	0.0009206148
16	0xba7082b1	-0.0009174748
17	0x37c1cab6	2.3101788e-05
18	0x371ab69a	9.2216305e-06
19	0xb18b3ec1	-4.0525667e-09
20	0xbac50de5	-0.0015034048
21	0xb3450a00	-4.587673e-08
22	0x3aeccc05	0.0018066174
23	0xb735e460	-1.0841613e-05
24	0xb821593f	-3.8468508e-05
25	0x377cea7e	1.5074967e-05
26	0x3a4e5a3e	0.00078717235
27	0x281e557d	8.789299e-15
28	0x37e760f3	2.7582491e-05
29	0x3593cc67	1.1011842e-06
30	0x3a2339d1	0.0006226572
31	0x34a27fe3	3.02679e-07
32	0xb81bf1c7	-3.7180052e-05
33	0x2f3ef9bc	1.7369123e-10
34	0x3a42fff4	0.00074386527
35	0x2fe8808c	4.2291892e-10
36	0x3a92559d	0.0011164431
37	0x39af0bff	0.0003338754
38	0x393a28fb	0.00017753609
39	0xb95a58cc	-0.0002082318
40	0x39ffa8d7	0.00048763186
41	0xba137949	-0.0005625678
42	0xb8cecfb1	-9.861531e-05
43	0x353e77ee	7.0955036e-07
44	0xb8d8c0dc	-0.000103356055
45	0x308e630a	1.0360008e-09
46	0x365b9a93	3.2723517e-06
47	0x3ab7beca	0.0014018652
48	0xb77a800d	-1.4930975e-05
49	0x3a396578	0.000707231
50	0x2e14b346	3.381053e-11
51	0x34e3579b	4.2345786e-07
52	0xba2e112e	-0.0006640133
53	0x33512bb4	4.8701352e-08
54	0x397b5bc0	0.00023971405
55	0x38985e8c	7.2655355e-05
56	0x3788a2d9	1.6288295e-05
57	0x3123ae2b	2.3818625e-09
58	0xb1906485	-4.2023793e-09
59	0x3342703a	4.5271214e-08
60	0x394ef535	0.00019737038
61	0xba5e1eae	-0.00084731996
62	0x3b1b9048	0.0023737121
63	0x368860b8	4.0643754e-06
64	0xb8e7621e	-0.00011033214
65	0xaf028820	-1.1871792e-10
66	0x382a9b83	4.067599e-05
67	0xadcb77c7	-2.313162e-11
68	0x3a46234a	0.0007558359
69	0x3ad38477	0.00161375
70	0x39120e36	0.00013928939
71	0x3a2bbea3	0.00065515394
72	0x2f7808d3	2.2558604e-10
73	0x389dbc7f	7.5214535e-05
74	0xb9821563	-0.00024811467
75	0x38a69241	7.942739e-05
76	0xae25d88e	-3.7708996e-11
77	0xba29f045	-0.00064826413
78	0x3719b0b2	9.160651e-06
79	0x3815a462	3.567746e-05
80	0xb88499a7	-6.3228705e-05
81	0xba130a65	-0.0005609154
82	0x3944f185	0.0001878199
83	0x398b795b	0.00026602563
84	0x37d6a993	2.5589752e-05
85	0x3aea30ff	0.0017867385
86	0xb7b7491f	-2.184935e-05
87	0xb832a191	-4.2588978e-05
88	0x39b40fc5	0.00034344025
89	0xb12cd8dc	-2.5152564e-09
90	0x3a327422	0.0006807466
91	0x3a023c00	0.0004968047
92	0xbaa2e006	-0.0012426383
93	0x3968b885	0.00022193983
94	0xbad8a117	-0.0016527501
95	0x38a62611	7.922587e-05
96	0x3a18b499	0.0005825251
97	0x37059272	7.961515e-06
98	0xb70b415a	-8.3002615e-06
99	0x2f592d44	1.9752117e-10
100	0xb17c2f00	-3.6697543e-09
101	0x3a3b88ec	0.0007153887
102	0x34bdb973	3.5338925e-07
103	0xb73dd356	-1.1314483e-05
104	0xb01938de	-5.574189e-10
105	0xb081fd20	-9.457928e-10
106	0xb1ed51ac	-6.906893e-09
107	0xbb1949f4	-0.0023390027
108	0x3a8105da	0.0009843663
109	0xb712da84	-8.753155e-06
110	0xb8365b98	-4.3477485e-05
111	0x3af12cbd	0.0018400174
112	0x378899e1	1.6284119e-05
113	0x37c50d8e	2.3490542e-05
114	0xb7250278	-9.835341e-06
115	0xba8861c1	-0.001040511
116	0x372228b2	9.665428e-06
117	0xba8f7fbd	-0.0010948103
118	0xba552031	-0.0008130102
119	0xb80c8c0a	-3.3509023e-05
120	0xb934b2ed	-0.00017232793
121	0xb09dca49	-1.1480746e-09
122	0xa41f40bb	-3.4532458e-17
123	0x38894a0a	6.54646e-05
124	0x383a1dec	4.4373723e-05
125	0xb55a6f80	-8.137358e-07
126	0xba1f09b0	-0.0006066812
127	0xb999c246	-0.0002932718

exp_avg_sq f4 [128]
0	0x354c1228	7.6022343e-07
1	0x318d9969	4.121081e-09
2	0x361c6dd5	2.3309742e-06
3	0x3606f816	2.011196e-06
4	0x361b4f2b	2.3142882e-06
5	0x36ee9add	7.110981e-06
6	0x358f7fb4	1.0691497e-06
7	0x3606058a	1.997078e-06
8	0x2d7a79a8	1.4237868e-11
9	0x2c0dfc8d	2.01775e-12
10	0x3483f87e	2.4581453e-07
11	0x36854786	3.9720353e-06
12	0x369edf57	4.734767e-06
13	0x3621b26e	2.409473e-06
14	0x35851e27	9.918048e-07
15	0x36a20945	4.8290553e-06
16	0x36ccbf40	6.101938e-06
17	0x35907868	1.0763879e-06
18	0x328adab3	1.6164767e-08
19	0x283640eb	1.0117106e-14
20	0x375f480b	1.330861e-05
21	0x2a90f130	2.5746896e-13
22	0x37788120	1.4812016e-05
23	0x35666850	8.583347e-07
24	0x34205c26	1.4934685e-07
25	0x357f5f13	9.5133254e-07
26	0x369a522f	4.599125e-06
27	0x15af2898	7.074598e-26
28	0x3310a10a	3.3674077e-08
29	0x2c06822b	1.9114803e-12
30	0x378b7128	1.6622784e-05
31	0x2c302f94	2.5037515e-12
32	0x343e49ac	1.772193e-07
33	0x21135563	4.9918546e-19
34	0x3656be3f	3.1999223e-06
35	0x23b15ce5	1.922972e-17
36	0x36de186e	6.6189596e-06
37	0x36a114f1	4.800612e-06
38	0x35b9dded	1.3848163e-06
39	0x3612615c	2.1812366e-06
40	0x371601a6	8.9410805e-06
41	0x3699d466	4.5844818e-06
42	0x350f6454	5.341765e-07
43	0x2df50818	2.785687e-11
44	0x35ccdc24	1.5263254e-06
45	0x23d0ef24	2.2652685e-17
46	0x2ec7726d	9.0697984e-11
47	0x36e97955	6.958066e-06
48	0x35990f7a	1.1403893e-06
49	0x3709e6be	8.21956e-06
50	0x2089351e	2.3243853e-19
51	0x2b80590d	9.119664e-13
52	0x36adc2cb	5.1784787e-06
53	0x278f1255	3.971035e-15
54	0x35a211c3	1.207511e-06
55	0x34608f58	2.0913774e-07
56	0x30464f3d	7.2144585e-10
57	0x2404967c	2.8750403e-17
58	0x283504ef	1.0048588e-14
59	0x2c0bd992	1.9873864e-12
60	0x3518c8c8	5.691659e-07
61	0x361827e9	2.2672996e-06
62	0x371d4b1b	9.375416e-06
63	0x2da2a23f	1.848932e-11
64	0x359df28d	1.1768003e-06
65	0x22627d22	3.0694956e-18
66	0x3319a139	3.576972e-08
67	0x1de499a3	6.0509954e-21
68	0x35637dd3	8.474719e-07
69	0x363fc97b	2.8578495e-06
70	0x346d99e7	2.2128334e-07
71	0x3601c2b3	1.9335828e-06
72	0x20a95462	2.8685553e-19
73	0x319ee9cb	4.6249844e-09
74	0x35d189d9	1.5611832e-06
75	0x32cf7c0e	2.4154385e-08
76	0x1f3b553e	3.96693e-20
77	0x35b6efa7	1.3629805e-06
78	0x31cf410e	6.0318888e-09
79	0x33a12221	7.503355e-08
80	0x3291db57	1.6979966e-08
81	0x36606f1c	3.3443275e-06
82	0x35615740	8.3946e-07
83	0x365588e1	3.1819147e-06
84	0x34f867c3	4.6269096e-07
85	0x376fc956	1.4292387e-05
86	0x3406fe88	1.257232e-07
87	0x36a9e0ef	5.062778e-06
88	0x35c7adb9	1.4877215e-06
89	0x285d837c	1.22964756e-14
90	0x36a72625	4.9814284e-06
91	0x36245145	2.448521e-06
92	0x371dfe33	9.417115e-06
93	0x35d42331	1.5805473e-06
94	0x36f86511	7.4027416e-06
95	0x36a57db8	4.932019e-06
96	0x3671c8b6	3.6028628e-06
97	0x305653f8	7.7972073e-10
98	0x32a45f05	1.9135323e-08
99	0x1f4e413f	4.3676167e-20
100	0x2942c112	4.3244115e-14
101	0x36b08071	5.2601613e-06
102	0x2c9d7d76	4.4761373e-12
103	0x31f9941b	7.2636914e-09
104	0x248405a7	5.725545e-17
105	0x248033df	5.5599024e-17
106	0x36dba0d3	6.545431e-06
107	0x373c1001	1.1209399e-05
108	0x36828944	3.8902817e-06
109	0x348845cb	2.5382755e-07
110	0x35400279	7.152917e-07
111	0x37ad3785	2.064906e-05
112	0x3110f254	2.1092506e-09
113	0x32fe8e86	2.9634304e-08
114	0x3192c377	4.271381e-09
115	0x36c09ed3	5.7405355e-06
116	0x31227838	2.364244e-09
117	0x36c940cf	5.9978115e-06
118	0x36606ad4	3.3440783e-06
119	0x34c5ba55	3.6829684e-07
120	0x344a59dd	1.8845408e-07
121	0x2298d5c6	4.1426024e-18
122	0x0b25f850	3.1964654e-32
123	0x346c2dde	2.1995899e-07
124	0x3169fc6e	3.4049452e-09
125	0x2d8f4f88	1.6292537e-11
126	0x3655f631	3.1882776e-06
127	0x3619a2cc	2.2893537e-06
