mlagents/Assets/results/testdia2spawnpoints/RollerBall/RollerBall-460068.pt (torch, 845759 bytes, 48 tensors)

network_body._body_endoder.seq_layers.0.weight f4 [128, 8]
00000000: 7bfb ccbd 125e d2be f039 d9be 221f 783e
00000010: 888b 233d 27ce 05be fc37 ae3f 28aa 2fbf
00000020: 418c 2f3e 5a4a d03e 8777 943e 7d68 4cbe
00000030: 86a5 08bf 3745 35be 0167 0fbf 153b 0e3f
00000040: 1e51 d23e bae3 123e 2f2b 823e 8c8a a13e
00000050: 54e9 103f 88d5 d93e b2d3 a73f 536d 2abb
00000060: bf9b 5abe 0277 d53e 3645 54be 4ee0 043e
00000070: ee46 01be 5e11 89be e9c2 9c3e 17ab 4ebd
00000080: 394b b7be d9b6 9d3e 26be 32bd 7c46 6b3e
00000090: bff5 f93e b07f 803d 1262 eb3e 30f6 52bf
000000a0: 431c 10be d26b 16bf 1242 d4be dae4 963e
000000b0: 1524 89bd 4a27 a43e 23ef 2cbf 3a42 693e
000000c0: caeb 4a3d 4a30 b8bd 6a93 223f b604 5bbe
000000d0: 8e5a 1a3f d9dc 99be 0610 4d3f ea27 debe
000000e0: 93ea dcbd 15ba 3fbe 24e8 94bc 338b 7a3e
000000f0: 51de 98be fb99 813e d0b1 843d 6cad db3e
00000100: 3eb9 353e 0b3a 8b3e e3ad 7bbd 7fca 913d
00000110: 2b7b a63e c38d b0be 7cf2 243f 578d 02bf
00000120: a115 843e 5580 023e 65da 4dbf 54ae dbbe
00000130: 0e37 133f 37b8 123f 6777 f1be 9159 5d3e
00000140: 392e aebe d139 133e 360f 07bf f849 4ebe
00000150: f97e 0bbe 48cc a4be 0d23 5d3e 57c0 333f
00000160: 60ca fb3b f2c8 78be e824 0dbe a2dc ca3d
00000170: 3911 08bf ec73 25be 400d 08bf 7c3d 2dbf
00000180: 81d6 af3e 13f6 79be 928a dbbd a4ad 403c
00000190: 0028 273e 28dd fc3d 82a2 d33e aa9c aabe
000001a0: 1c64 973e 23f2 5a3d 0d5c 1abf 7cd4 50bf
000001b0: 7458 173e 8919 1b3e cbce ebbe 5a97 70bf
000001c0: 22e6 f63d 8d1f f1bc 48c2 173e 01ab b5bd
000001d0: 2c1f 593d c2d8 05be 6d55 64be e326 843e
000001e0: a7ed 8cbe 2241 313e c616 043f 3be7 b03e
000001f0: db12 71bd b6b6 7f3d 319b cc3e a0ea 083f
00000200: 10c0 563e 5446 853e 40a8 7e3e 0f72 62be
00000210: 5a32 713e 1ad1 9e3e a6d1 49be c588 00bf
00000220: ac31 b5be 41e0 c23d 642f d0be ef22 0c3f
00000230: cf26 2c3e 39e3 1c3f ae8e 893e b5ce 2c3f
00000240: fe10 383e 77a6 643e e5fe 15bf 8a84 edbe
00000250: 9ce8 a8be 5900 adbb 4a8e b3be 45d2 043f
00000260: 1ad7 183e 5553 ebbe 783a 383f 0332 0c3e
00000270: dc21 57bd 9c8b acbd cdbb 793b e45e 9b3f
00000280: b93e 7bbc 8524 6d3e 2d55 0a3e aa9c 483e
00000290: a16d 093e f1f0 de3e 00cd 893e ee1b 2bbf
000002a0: 89a7 833e d6f4 52be 6a1c e5bd f400 e6be
000002b0: fac6 b13d 1785 233e fd85 46be 2c70 cb3e
000002c0: 3b24 00bf f38b 2e3e f397 88be 9222 3e3e
000002d0: 2b99 f0be 9dd4 f3be 1281 c7be 1ae9 50be
000002e0: ce0e 653e c6b3 e2bd fde6 b3be 4c42 b53e
000002f0: 5779 e1bd 46f2 833c 21ea 65bf 5d47 9e3d
00000300: 303c a4bd 0a95 91be 3a26 18be abd4 d73e
00000310: 9750 9abc 952c f23e d8a0 5cbd 5364 d0be
00000320: ac4e babe d634 25be 08a3 24bf 8589 0a3d
00000330: 1493 a83d 4fb6 603e 271a b23c d54e 413f
00000340: 781b af3e 5f39 2f3f 9ea1 9e3c 0a34 c93e
00000350: 27ff 983e 7ac5 ce3e 1158 823f feca 4a3e
00000360: bc8c 983e 8c45 f6bd b0f2 9fbd 423d d7bd
00000370: 8368 33be b223 cf3d 714c f0be 3114 d13e
00000380: 5607 843e be3f 2a3e bb98 75be a43f 2fbe
00000390: 6cee 8dbe ab90 093d 6404 483f d6ea fd3e
000003a0: fede ddbe 61b5 03bb 44c0 87be a16b 153f
000003b0: be1c 4f3e da50 dd3e ec65 1fbe 4c67 41be
000003c0: f56a eebe 814c a5be 70f7 d03e 8d07 c23e
000003d0: 7998 25bf 02a6 4ebe b326 5ebf 9c30 d93e
000003e0: ed99 163f 72e0 0e3f da1a 213f 0963 1bbf
000003f0: 13d4 c63e 1031 e3be 0972 42bf 907b a83e
-0.100089036 -0.41087395 -0.42427015 0.24230626 0.03992799 -0.13066922 1.3610835 -0.6861901
0.17143346 0.40681726 0.28997442 -0.19961734 -0.5337757 -0.17702185 -0.56016546 0.555589
0.41077513 0.14344683 0.2542357 0.31551015 0.5660603 0.42545724 1.3111479 -0.0026005104
-0.21348475 0.41692358 -0.20729527 0.1297619 -0.12624714 -0.26771063 0.30617455 -0.050456133
-0.35799578 0.30803564 -0.04363837 0.22976106 0.48820302 0.062743545 0.4597326 -0.824069
-0.14073281 -0.5875827 -0.41456658 0.29471475 -0.06696335 0.32061225 -0.67552394 0.2277917
0.049541272 -0.089935854 0.63506186 -0.21388516 0.60294425 -0.30051306 0.80102575 -0.43389827
-0.10786929 -0.18723328 -0.0181771 0.24467163 -0.29857114 0.2531279 0.064792275 0.42905748
0.17746446 0.2719272 -0.06144513 0.07118701 0.32515845 -0.34483156 0.644325 -0.5099692
0.25797752 0.12744267 -0.8041137 -0.4290644 0.5750588 0.5731234 -0.4716141 0.21616198
-0.3401964 0.14377524 -0.52757585 -0.20145404 -0.13622655 -0.32187104 0.21595402 0.7021536
0.007684037 -0.24295405 -0.1378361 0.099053636 -0.5315128 -0.16157502 -0.5314522 -0.6767194
0.3434334 -0.24410276 -0.107197896 0.011760149 0.16323853 0.1234687 0.4133492 -0.3332265
0.29568565 0.053453576 -0.6029671 -0.81574225 0.14779836 0.1514646 -0.46056208 -0.93980944
0.12055613 -0.02943399 0.14820206 -0.08870507 0.053008243 -0.13070968 -0.22298212 0.25810918
-0.27525064 0.17310002 0.5159725 0.34551415 -0.058855873 0.062430106 0.39962152 0.5348301
0.20971704 0.2603022 0.2486887 -0.22113822 0.23554364 0.31018907 -0.19708881 -0.50208694
-0.3538946 0.09515429 -0.40661156 0.54740804 0.1681168 0.61284214 0.26866668 0.6750291
0.17975232 0.22329126 -0.58592063 -0.46390182 -0.32989967 -0.0052795825 -0.35069495 0.51883346
0.14925805 -0.45962015 0.71964216 0.13690953 -0.052522525 -0.08425066 0.0038106323 1.2138333
-0.015334778 0.23158462 0.13509054 0.19591013 0.13420726 0.435432 0.26914215 -0.6683949
0.25713757 -0.2060121 -0.1118706 -0.44922602 0.0868053 0.15968738 -0.1938705 0.39734018
-0.50055283 0.17045574 -0.26678428 0.18567875 -0.46991858 -0.4762315 -0.3896566 -0.20401421
0.22368929 -0.11069445 -0.35137168 0.35402143 -0.11009472 0.016106736 -0.8981038 0.07728455
-0.08019292 -0.2843402 -0.14858332 0.4215444 -0.018837256 0.47299638 -0.05386433 -0.4070154
-0.36388147 -0.16133437 -0.64311266 0.033822555 0.08231178 0.21944545 0.021740986 0.75510913
0.34200644 0.68446916 0.019364174 0.39297515 0.29882166 0.40385038 1.0183126 0.19803998
0.29794872 -0.12024984 -0.07809961 -0.10509731 -0.17520337 0.1011423 -0.4693332 0.40835717
0.25786847 0.16625878 -0.23984043 -0.1711412 -0.27720964 0.03358523 0.781317 0.49593228
-0.43334192 -0.0020097124 -0.26513875 0.58367354 0.20225808 0.43225747 -0.15566224 -0.18887061
-0.46565977 -0.3228493 0.4081378 0.37896386 -0.6468578 -0.20180514 -0.867778 0.424199
0.5882862 0.55811226 0.629316 -0.6069799 0.38833675 -0.4437337 -0.75955254 0.3290677

network_body._body_endoder.seq_layers.0.bias f4 [128]
00000000: cc34 febc de46 dabd b82e 433d e1af 0bbe
00000010: a0ce 6e3e 7382 43bd d0a1 0e3e 7410 15be
00000020: 348f 0bbe 00fa c73e e438 00be 42a0 02bd
00000030: 6322 613d 2873 923e 6d7e 14be 19e5 803d
00000040: 1602 2d3d 2bb3 0b3d 8f94 d33d 509a 23be
00000050: 99e7 e43d e143 023e c20a 9c3b 6908 26be
00000060: 695c 293e 0fe9 a3bc 6a20 63bd baaf 16bd
00000070: c792 edbd 018a 073e bb4d 12be b1ae 36bd
00000080: 377a 8abd ecb8 953d 1655 a3bd 78dc 86bd
00000090: 8fad e9bc 05a8 973d c568 86bd 0add 8cbb
000000a0: c77d 713c ce0a 663d a431 c5bd 674e 963d
000000b0: c018 2ebe 0fcb 013e 7e88 f9bd dd15 283e
000000c0: 9ed3 0dbe cf12 c63d ca14 5b3e e6d3 a83d
000000d0: 681c 153d d833 09be e6f6 98bd d674 e0bb
000000e0: b0b0 863c 19bc 1e3c 522a 5bbd 5667 6ebe
000000f0: e793 05be fb1a 92bc 94ff 733d 270a fdbd
00000100: 8b52 163d 08ab 5d3d 4ea2 c13d d844 de3d
00000110: da2d d7bd 7559 dcbd 10f0 d13d c5dd a5bd
00000120: 5724 443d 6310 e03d 018b fe3d 12a1 a5bd
00000130: ab00 c63b 2286 053e 9cda 0d3e 8d6d 3bbe
00000140: 655c 153c 35ae 9f3d c4e8 c3bd 1856 02be
00000150: abff 46be ac1e 21bd 671b ddbd d1b4 09be
00000160: 41a3 8fbd c5d5 033e f0f9 b2bd 7321 0a3e
00000170: 51f8 273e 7229 a93d d14e 1cbd abd4 b13c
00000180: 26de f73d 6d34 123e 10b1 90bd 1a9c 21bd
00000190: 65a2 023e 6b33 ebbd 488b f2bd 1a41 24bd
000001a0: 1165 38be fd9e 553c 26be babd 7135 11be
000001b0: 3e0e 883c a5a8 aebd 0e03 1d3e 5c71 973d
000001c0: e9f3 653d 3362 21bd 3a7e 3d3e 8165 5fbe
000001d0: 3ebd ddbc 2ec8 4e3d 6637 713d bdcc c73d
000001e0: e2be 513e e6eb 0fbd fdb0 e63c ed9c 9cbc
000001f0: 4631 7939 6e40 d93d e89f 21bc 6325 83bc
-0.031031035 -0.10658048 0.047651976 -0.13641311 0.23321009 -0.047731828 0.13928914 -0.14557058
-0.13628846 0.39057922 -0.12521702 -0.031891115 0.054964434 0.28603482 -0.14501353 0.06293697
0.042238317 0.034106415 0.1033107 -0.15976834 0.11176986 0.12721206 0.0047620246 -0.16214146
0.16539158 -0.020008592 -0.055450834 -0.03678868 -0.11600261 0.13236238 -0.14287464 -0.044600192
-0.06761592 0.07310662 -0.07975213 -0.0658502 -0.028525142 0.07405094 -0.06562952 -0.004298811
0.01473946 0.056162648 -0.09628609 0.07339173 -0.17001629 0.12675117 -0.12184237 0.1641459
-0.13850257 0.09671556 0.21394649 0.082435414 0.036404043 -0.13398683 -0.07468967 -0.0068498654
0.016441673 0.009688401 -0.053507157 -0.23281607 -0.13044702 -0.01783513 0.05956991 -0.12355452
0.036699813 0.054118186 0.09454785 0.10852975 -0.10506792 -0.1075925 0.102508664 -0.0809894
0.04788622 0.109406255 0.12428857 -0.08087362 0.00604256 0.13039449 0.13852924 -0.18303509
0.009116267 0.07796899 -0.09565881 -0.12728155 -0.19433467 -0.03933589 -0.10796242 -0.13447882
-0.0701356 0.12874515 -0.08739078 0.13489322 0.16403319 0.08259858 -0.038161103 0.021707853
0.12102918 0.14277811 -0.07065022 -0.03945551 0.12757261 -0.114844166 -0.11842972 -0.04010115
-0.18007304 0.013038394 -0.09118299 -0.14180543 0.016608354 -0.0852826 0.15333197 0.073946685
0.056140814 -0.03940029 0.18505183 -0.21816064 -0.027067777 0.050483875 0.058890723 0.097558476
0.20482972 -0.03513708 0.028160566 -0.019117797 0.00023764846 0.10607992 -0.009864785 -0.016009038

network_body._body_endoder.seq_layers.2.weight f4 [128, 128]
00000000: af6d 4ebe 0d2c dfbd e7a3 103e 2fcc 99bd
00000010: 2ab2 1bbd 86d6 65bc d250 4d3e ca4b 21be
00000020: 2ec0 d9bd 6ad6 103c 3631 5b3e b656 88bc
00000030: c63f 22bd 4f8e 8f3e d46f 85be 672d 70bd
00000040: b4a8 253e 5529 413e 10b4 703e ab36 343d
00000050: 8523 293e e791 f03d 4cba bdbe 04b7 93bb
00000060: 2008 1f3e d369 503d bc7b 0c3e ec00 45bc
00000070: a6e2 aabe 9aa0 813e 0dc6 debd a90e 4cbe
00000080: 3d8f 883d a8a2 81bd 128a 86bc a7c6 a3bd
00000090: 550a 333e 8e2a 333c e0e4 7bbc de67 fdbd
000000a0: c98f 9e3e 3b1d 563e 7fbc 113d b6f9 d83d
000000b0: f984 06bc 3b72 1e3e cf77 39be bb2e 053d
000000c0: 625c 1ebd 4ebd cebd 175c 9b3d 234f 3e3d
000000d0: d3f7 7c3e ab6a 7ebd 25ab 813c 290f 783d
000000e0: 8967 bbbe 16ce ad3d a9a8 d7bd 04c8 e6bd
000000f0: d320 3fbe fde8 95bc 5e38 133e 8eb3 a9be
00000100: d42c 213e baf8 d03d c5a8 703d 7dcf 8f3c
00000110: d05e 473d 2c39 803d a3d3 f53c 6f42 60bd
00000120: 99d2 ee3d 6c8d 3f3e 83dc 4b3e 4c67 a2bd
00000130: bf05 4b3e be56 18bd 749d 923e d18a c6bd
00000140: bb17 423d 23eb 4bbc 67b6 6d3c 17de 3dbd
00000150: d6e1 6dbe 3a65 353c 2e9b 8fbe 30da e6bd
00000160: 022b 523d 3693 57be 2323 cfbd c62a 533d
00000170: 3f5e c2bc e992 7e3e 3850 8fbe a70b 093e
00000180: 5254 7fbe 0ac6 883d 8172 043f f2ab 453e
00000190: d06f 2f3e 6bcc 2dbd 9e92 943a 9bf3 cb3c
000001a0: 010a 29be 06f0 333c d69a d3be 24c6 f8be
000001b0: 9995 093d 192f 05be ceda 2a3e b3b0 2cbe
000001c0: 738d 6e3d edca 473d 6fc9 debd b56f 4fbe
000001d0: 5065 cd3d 5535 d13d bc69 0c3e 580e d6be
000001e0: 27da ea3c 82f5 fe3d 5211 3dbe 548a 233e
000001f0: 8256 1abd 50be 923e abb1 56be da17 9dbd
00000200: 2dea 51bd 721b 2fbe 0cba d23c 692d 97bc
00000210: 2ae2 183d 31fe b2bb 58ee 523d 92b8 8b3d
00000220: 6702 f73d cf9e 8c3e 1cec a93d 1e99 b5be
00000230: 2f46 953b 4c40 96be f7b6 a8bd a7bb 373d
00000240: e579 d33d d913 bb3d 5590 783d 828f 623e
00000250: 5325 f43b 4c1e 903a 0a29 01be 4929 04be
00000260: 0716 033d f7ab b7bd fbd4 aebd 5ced c53c
00000270: 61de 6e3d 6562 fc3d 76f2 c8bd 32dd 083e
00000280: f441 1a3e 39f7 0b3d 9e27 09be ff8b 8c3d
00000290: 6305 063e 563e 3f3e 119b 403c 481b a4bd
000002a0: 4ead 113c c79d 2cbd 099c 51bd ce56 3dbe
000002b0: ad7b 92bd 38a1 9abe d372 213b f794 6d3e
000002c0: 9558 12bd df7d a83e 2bc4 9fbc 6d1f 83bd
000002d0: 9d57 0cbe bd5a ca3d 41ac 17bd 1fa8 97bb
000002e0: eac6 fabb 4140 21be ad14 37be 2af8 dd3d
000002f0: 506c 403d d473 2dbe eb6d 8dbd ff52 963d
00000300: 7f65 08bb 7e91 ca3d fd32 27be ac34 d03d
00000310: 86e5 673b 2924 5cbd 9c2f f73d 11fb b1bd
00000320: 1a9c fbbd e4bb ecbd 3687 ddbb d5c8 013e
00000330: 0199 9e3d 73dc 623d ba94 be3d 6c8b 5fbe
00000340: 0b2d 5bbe 31da 753d df94 07be 3010 64bd
00000350: 3d60 133e a00c 0cbe 866f 023e 55a8 d33c
00000360: 089f 193d 2b58 fa3d d654 16be ba14 76be
00000370: 8d06 03bd 717b 493d 59ac 1fbe 7197 c83c
00000380: 3e64 b9bc f1a2 ff3c bf78 113b 5281 303e
00000390: 87b1 acbd 0c7d 373d 517a dabd 045a a13d
000003a0: 3139 3cbd 1853 f2bd 72f2 2d3d 52fd 413e
000003b0: 98ba acbd c666 9cbd 50fe 30be 82e8 95bb
000003c0: 1c59 9d3d f6ff 80be 70b5 673e 0f8b 203c
000003d0: 089e df3d 0fff 2b3e 3962 2dbd f702 8fbc
000003e0: 52f8 6cbd 82d1 c8bd 3c18 6c3c 0321 d0bd
000003f0: e68a fe3a 9cf8 9ebd aac4 38be 98f9 0b3c
-0.20159028 -0.10897074 0.14125024 -0.07509648 -0.038011707 -0.014028197 0.20050362 -0.15751567
-0.106323585 0.008840183 0.21405491 -0.01664291 -0.0396116 0.2803826 -0.2606188 -0.05863705
0.16177636 0.18863423 0.23506188 0.043997448 0.16517456 0.11746579 -0.37056196 -0.004507901
0.15530443 0.05088217 0.13719076 -0.012024146 -0.33376044 0.25317842 -0.10877619 -0.19927467
0.066679455 -0.06329852 -0.016423259 -0.07996874 0.1748441 0.010935439 -0.015374392 -0.12373327
0.30969074 0.20909588 0.035580155 0.105945036 -0.008210414 0.15473263 -0.1811211 0.03251527
-0.038662322 -0.10094701 0.07585924 0.04646219 0.24703912 -0.062113445 0.015828678 0.060561333
-0.3660243 0.084865734 -0.10530216 -0.11268619 -0.18664865 -0.018299574 0.14376971 -0.33144802
0.15739757 0.10203691 0.0587547 0.017554993 0.048674405 0.06260905 0.030008143 -0.054750856
0.11661262 0.18706292 0.19908337 -0.079298586 0.1982641 -0.0371921 0.28635752 -0.09694446
0.047385912 -0.012446198 0.01450882 -0.04635438 -0.23230681 0.011071498 -0.2804808 -0.11272085
0.051310547 -0.2105225 -0.10114124 0.051554464 -0.02372658 0.2486073 -0.2799089 0.13383351
-0.2493451 0.06678398 0.5173722 0.19303873 0.17132497 -0.042431276 0.0011335199 0.024896434
-0.16507722 0.010982519 -0.41329068 -0.4858867 0.033589933 -0.13006248 0.1668503 -0.1686428
0.058240365 0.04877751 -0.10878264 -0.20257457 0.100290895 0.102152504 0.1371221 -0.41807818
0.028668476 0.12449171 -0.18463638 0.15970737 -0.037680157 0.28660822 -0.20966212 -0.07670565
-0.051248718 -0.17100313 0.02572348 -0.01845427 0.03732506 -0.005462431 0.051496834 0.06822313
0.12061005 0.2746491 0.082969874 -0.35468382 0.0045554857 -0.2934593 -0.08238023 0.044856694
0.10325984 0.09134645 0.06068452 0.22125056 0.0074507385 0.0010995357 -0.12613311 -0.12906374
0.03200343 -0.089683466 -0.085367166 0.024161033 0.058317546 0.12323455 -0.09811871 0.1336563
0.15064222 0.034171317 -0.13394019 0.0686264 0.13087992 0.18676123 0.011755721 -0.08013016
0.008891417 -0.042142656 -0.051174197 -0.18490145 -0.071524955 -0.30201125 0.002463509 0.23201357
-0.03572901 0.32908532 -0.01950272 -0.06402478 -0.13705297 0.09880588 -0.03702951 -0.004628196
-0.007653107 -0.15747167 -0.17878981 0.10838349 0.046978295 -0.16938716 -0.06905731 0.07340049
-0.002081245 0.09891032 -0.16328044 0.10166296 0.003538461 -0.053745423 0.12069628 -0.08690465
-0.122856334 -0.11559275 -0.006760503 0.12674268 0.07744027 0.055386018 0.09305711 -0.21830529
-0.21403901 0.060022537 -0.13240384 -0.0556795 0.1439218 -0.13676691 0.12737855 0.025837103
0.03750518 0.12223848 -0.146808 -0.24031344 -0.03198867 0.04918999 -0.15593089 0.024486275
-0.022630807 0.031205626 0.0022197214 0.17236832 -0.08432298 0.04479699 -0.10667861 0.07878497
-0.04595298 -0.11832255 0.042467542 0.1894429 -0.084340274 -0.0763679 -0.17284513 -0.004574836
0.07683012 -0.25195283 0.22627807 0.009798779 0.10918814 0.16796516 -0.04233 -0.017457468
-0.057854004 -0.098055854 0.014410075 -0.101625465 0.0019420057 -0.07762262 -0.18043771 0.0085433945

network_body._body_endoder.seq_layers.2.bias f4 [128]
00000000: 4360 56bd f3c2 ecba e5cd 0abc 4222 f63c
00000010: 7a1e c2bc 6129 36bd 2d46 773c b64c 7a3d
00000020: dd4c a7bc 4b41 c3bd c583 fdbc c771 89bc
00000030: db9b bebb 42d6 053d fb02 60bb 4bb7 11bb
00000040: 9ff7 c5bc bacf 563c 78b7 e3bb 7015 4bbd
00000050: 08f3 7abd 2e32 6ebd c293 853d f385 e73c
00000060: 7b32 bc3b d90a 9d3c f091 143c 1d43 69bc
00000070: efa5 0dbd b570 ed3c 9b49 16bb 81f4 cb3c
00000080: 0083 363d 831a 07bd 8f3d 323d 29eb 89bd
00000090: ff2d a3bd 9dba 86bd 539e 88bc de55 6dbd
000000a0: 3163 6cbd 148d 22bd 5a59 4bbd db10 ccbc
000000b0: 7d6f 60bd 816f 90bc a4d3 f7bc 607c 6cbd
000000c0: ab99 d7bc 78b9 93bd 56b9 543c 47d9 27bd
000000d0: a63b 1c3c 0cd2 d5bb 9bda 0ebd 9a85 9a3d
000000e0: d3ba fbbc d34d 6f3c 2500 c8bc 0679 8fbb
000000f0: ad0e 0ebd 41d5 2fbd 9c2a 1bbd 2f72 90bc
00000100: bb33 6fbd 92e8 c73b ef32 d83b a8f4 233c
00000110: 5f0c c6bd 2b94 a9bc ecb5 86bb 5883 b93c
00000120: 1a7f d0ba e021 32bd e80a 533d d6ce 61bc
00000130: 6bb3 8bba 8643 39bd 8da1 053d 164a 2e3d
00000140: 7aba 58bc 8bdc 51bd 49d6 a1bc 93c7 743d
00000150: 1910 063d 5eac 7abd da4a 5ebd 6226 d4bc
00000160: 4d29 57bd 6db3 96bc c85c aabd 566e 193c
00000170: 0fc9 1bbd 2dce 3f3d 8e58 8d3d c11f 63bc
00000180: 8dfe 08bd c9ad cabc 8389 90bd da8b b6bc
00000190: dc8e b5bc 398b db3b 1a82 85bc c44b 04bc
000001a0: 400a 58bb 1b8d db3b b3a3 21bc 9d83 29bb
000001b0: 02bd c4bc bd60 1ebc da86 353c 64b9 573a
000001c0: 7305 c4bd de1a 1ebd e327 d2bd e806 94bc
000001d0: 7218 75bd 717a d63b aedc 273c 6a25 0c3d
000001e0: 5c61 42bb 1bc6 71bc c53e e93c 0ec7 46bc
000001f0: f170 38bd 0d4d 81bd 2c8e acbc 490f 743a
-0.052337896 -0.001806347 -0.008471941 0.030045632 -0.023696173 -0.044473056 0.015092415 0.061108314
-0.020422393 -0.09533938 -0.030946622 -0.016777886 -0.0058169193 0.032675035 -0.0034181464 -0.0022234495
-0.024165927 0.013111049 -0.0069493614 -0.04958099 -0.06126693 -0.058153324 0.06522323 0.028262114
0.0057433224 0.019170212 0.009067997 -0.014237192 -0.034582075 0.028984407 -0.0022932056 0.024896862
0.044558525 -0.032984268 0.043515738 -0.06734306 -0.079677574 -0.065785624 -0.016677057 -0.057943217
-0.057711784 -0.039685324 -0.04964576 -0.024910381 -0.054793824 -0.017631294 -0.030252285 -0.0577358
-0.026318392 -0.0721311 0.012983641 -0.040978696 0.009535706 -0.0065252837 -0.034876447 0.07545014
-0.030728733 0.014605957 -0.024414131 -0.004378441 -0.034681965 -0.042927984 -0.037882432 -0.017632572
-0.058398943 0.0061007226 0.0065978686 0.010007061 -0.09670328 -0.020700535 -0.0041110422 0.022645637
-0.001590702 -0.043489337 0.051524073 -0.013782224 -0.0010658329 -0.04523041 0.03262477 0.042551123
-0.013228053 -0.051235717 -0.0197555 0.05976064 0.032730196 -0.06119954 -0.054270603 -0.025897209
-0.052529622 -0.018396104 -0.08318478 0.009364685 -0.03803354 0.046827484 0.06901656 -0.013862551
-0.033445884 -0.02474107 -0.07057478 -0.022283483 -0.022162847 0.0066999462 -0.016297389 -0.008074705
-0.0032965094 0.0067001707 -0.009865689 -0.00258658 -0.024015907 -0.009666619 0.011079514 0.00082292245
-0.09571352 -0.03859984 -0.10261514 -0.0180697 -0.059837766 0.006545358 0.010245485 0.03421537
-0.0029660081 -0.014756705 0.028472314 -0.012132419 -0.045029584 -0.063135244 -0.021063887 0.0009310139

network_body._body_endoder.seq_layers.4.weight f4 [128, 128]
00000000: 9182 203e fed4 72be 0843 e7bd 9fa3 153c
00000010: a6cd 94bd c4dd 93be 244c b93c e226 363d
00000020: f0f8 2f3d cafb 333a 4e82 5ebe b654 0a3e
00000030: e6be fe3b 8b70 063d a694 aebd bed8 063e
00000040: 2fb9 2dbd 5d3b 56bd 19a6 aa3d 8092 993d
00000050: aef6 bc3d 04e6 013e a87b 74bd 70c4 5ebe
00000060: 65a2 2bbe 5642 cbbc 86c6 d8ba 97a4 57be
00000070: afb2 983c d736 a93d 9cfe ce3d bacd 7dbd
00000080: de8c 523e 5a80 8dbe 9aed 0c3e f263 753d
00000090: 1d74 c33e 5232 67bd 3f77 233d 2fa9 4a3d
000000a0: b781 533d 6aa7 11be 91de 22bd 1bbc c0bd
000000b0: 04ee 2abe 17ad 24be 32ec fa3d 2912 1e3e
000000c0: 9c19 453e 8ad9 373e e23b 803d 7cae edbc
000000d0: 14d8 41be 7e3a 2dbe 874e 2abe 93a7 12be
000000e0: 9f3c f43d 4b4e 41be be8a b43c c1fb 363e
000000f0: bf9a 5dbd 2ca0 9b3e f2f7 423d b050 43bd
00000100: 931c ec3d 6984 34bc 7761 4f3e e784 4cbd
00000110: 3d00 c13d b183 9c3d 9b21 21be 0593 37be
00000120: 17a0 173d 96bc 7bbe 8e74 b33e b818 643d
00000130: b059 c6bc eb5d 2abe e977 a83d 9e59 0e3d
00000140: 1187 3abb c490 2e3e d37a 5f3d 44fd adbe
00000150: bfe9 9a3d 09e4 89bd b6f8 a4bd 35d9 57be
00000160: e7ad 51be 5f49 eabd 5ee4 323d 1c53 2e3d
00000170: 650f 83be 7ebd 843e d727 0ebd b6f7 ebbd
00000180: 094f 8e3e 24e4 703e b50b ba3b 2062 14be
00000190: 1d34 17bd f4ff 9abe 65b3 99bc 080b 22be
000001a0: 4b15 74bd 0cbd 80bd 33cf 39be 0ef3 04bd
000001b0: c5fc 613d 1766 06be c189 073d a6d2 19bd
000001c0: 269e 45be 8bee 05bd 7462 e43d 02fe aebc
000001d0: 1488 9a3a f391 0b3e eb02 983d d5c0 103e
000001e0: 44fe d7bd 54e9 37be a89b 583d bef6 0abe
000001f0: 48b8 07bd 556a f53b 2b0a 0cbd f10b 873e
00000200: 7f6e 03be 7f0e 623d 9880 913e 47f6 08bd
00000210: b052 aabd bc91 c1be ed8b dcbd b98a c1bd
00000220: a49e 92be 9c9d 263e 7426 00be 2979 b03d
00000230: b762 2ebd 5135 633d c14a e93b cb1b 183d
00000240: 6c06 52bc cc3f 86be 96a4 103e 770e b0bd
00000250: 6b33 163e 16da 8b3e db4f 203d a78a bd3e
00000260: 077e c9be b142 75be 1305 4d3e 5351 a5bd
00000270: e1dc 5bbd 3ff8 c3be 0d4c e53d c403 bd3e
00000280: b637 4bbe 6765 973d 25f5 d33d cdee e43d
00000290: b492 7f3e 28f2 b83e cae4 a6bc 677d d03c
000002a0: 4abf 9dbb 7bca 4cbe a474 ed3d 4a33 e7be
000002b0: dc6d 81bd 862f f93c d985 bfbe 5693 28bd
000002c0: c6ca 9c3d 8869 1e3e f325 f0bd 26e5 a9bc
000002d0: dbd4 72be 7791 ddbd 7240 72be 50ee 9fbe
000002e0: cf2b 2b3e 15f1 00be 5ea3 013e 8f5c 7dbe
000002f0: 7b8e 543d 2efa 4cbe a0d5 933c 8751 42bd
00000300: 7e49 063c 9adc 183d 5f85 cb3d 9128 193e
00000310: 9792 cc3c f5de 9b3e 720a ca3c 05ae 163e
00000320: 939a 8ebd 70b9 69bd fcb5 753e 89ff a13e
00000330: 1b93 ee3d add2 b2bc 443a 40be d8fd b33e
00000340: b4c5 b1bc 00d6 4a3e 9b4a 873e 79c3 e73d
00000350: fa13 1bbe 2121 a03d d16e ab3e fdb9 02be
00000360: be2a abbd 9445 a2bc 1d76 a03d 05ca 713e
00000370: a419 8fbe b835 fe3c 5a10 923d 66d1 abbb
00000380: 54e5 19be ad87 143d 3ed8 2f3d ad26 343e
00000390: ab28 563e 512d 95bc 01c7 b73b 8930 49be
000003a0: f040 283e 2794 483d 75a2 b4bd d763 153e
000003b0: d3a0 813e 80e7 a73c 83d2 f23d 9a04 883d
000003c0: e398 11be 6f41 063e 79a6 1dbe 8aeb 9a3c
000003d0: 0a82 18bd f1b2 483d c7f7 80bd 9555 c2bd
000003e0: 670e 853d 54df 323e f006 2e3d 1eb1 2f3e
000003f0: 5574 38ba a822 a83d 3fc6 173e da0f 8fbc
0.15674807 -0.23714063 -0.11292082 0.009133249 -0.07265787 -0.2888013 0.022619314 0.044470675
0.042962015 0.00068658276 -0.21729395 0.13508877 0.0077742217 0.032822173 -0.08524446 0.13168618
-0.042412933 -0.052302707 0.08332462 0.07498646 0.09226738 0.126854 -0.05968824 -0.21754622
-0.16761167 -0.024811905 -0.0016538657 -0.2105888 0.01863989 0.08262413 0.10107157 -0.061963774
0.20561549 -0.27636987 0.13762513 0.05990977 0.38174525 -0.056444474 0.039908644 0.049477752
0.051637378 -0.1422402 -0.039763037 -0.09410878 -0.16692358 -0.16081654 0.12252082 0.15436615
0.1924805 0.17954078 0.06261422 -0.029013865 -0.18930084 -0.16916844 -0.16631518 -0.14321737
0.11925625 -0.18877523 0.022038814 0.17869474 -0.054102656 0.3039564 0.04759974 -0.04768437
0.115288876 -0.011017897 0.20252024 -0.049931433 0.094238736 0.07642306 -0.15735476 -0.17927177
0.037017908 -0.24583659 0.35049862 0.055687636 -0.024212688 -0.1663739 0.08225996 0.034753434
-0.0028461854 0.17047411 0.054560494 -0.3398229 0.07564115 -0.067329474 -0.0805525 -0.21078952
-0.20476495 -0.11439776 0.04367482 0.042559728 -0.25597683 0.2592582 -0.034705963 -0.115218565
0.27794674 0.23524529 0.005677665 -0.14490557 -0.036914933 -0.30273402 -0.0187623 -0.1582452
-0.05959062 -0.06286058 -0.18145446 -0.032458358 0.0551727 -0.13124882 0.033090357 -0.037554406
-0.1929861 -0.032698195 0.11151591 -0.021361355 0.0011789822 0.13629894 0.074224316 0.1413606
-0.10546544 -0.17960101 0.05288282 -0.13570687 -0.03313473 0.0074894824 -0.034189384 0.26376298
-0.1283512 0.055189606 0.28418422 -0.033437993 -0.08316553 -0.378065 -0.10768876 -0.09450287
-0.28636658 0.1627106 -0.12514669 0.086168595 -0.04257461 0.05547077 0.007119507 0.03713588
-0.012818914 -0.26220548 0.14125285 -0.08596509 0.14668052 0.27314824 0.039138656 0.37019846
-0.39353964 -0.23951222 0.20021467 -0.08072152 -0.053677443 -0.38275334 0.11196146 0.36916935
-0.19845471 0.07392388 0.10349492 0.1117836 0.24958307 0.3612225 -0.020372767 0.025450421
-0.004814063 -0.19999115 0.11594513 -0.45156318 -0.06319782 0.030418169 -0.37406805 -0.041156135
0.076558635 0.15469944 -0.11725988 -0.02073915 -0.2371401 -0.10818761 -0.23657396 -0.31236506
0.1671593 -0.12591965 0.12659976 -0.2474234 0.051893692 -0.20017311 0.0180462 -0.04744103
0.008196233 0.037319757 0.09937548 0.14956881 0.024972243 0.3044354 0.024663184 0.1471482
-0.069630764 -0.057061613 0.23995203 0.3164027 0.11649152 -0.021828974 -0.18772227 0.35154605
-0.021700718 0.19808197 0.26424107 0.1131658 -0.15144339 0.07818819 0.33482984 -0.12766261
-0.08357762 -0.019808568 0.07835028 0.2361222 -0.2794925 0.031031474 0.07132025 -0.005243468
-0.15028888 0.036262203 0.042930834 0.17592879 0.20913951 -0.018210085 0.00560844 -0.19647421
0.16431022 0.048969414 -0.08820049 0.14588867 0.25318012 0.02049613 0.11856558 0.06641503
-0.14218478 0.13110898 -0.15395536 0.018911142 -0.03723339 0.048998777 -0.0629726 -0.0948898
0.06496888 0.17468005 0.042487085 0.17157409 -0.0007036378 0.08209735 0.14821719 -0.017463613

network_body._body_endoder.seq_layers.4.bias f4 [128]
00000000: da76 02be 78a1 a8bd 540b 1fbd 5fc8 ba3c
00000010: 69e7 8cbd b8d1 55bd 9bac 5cbd 43a9 b13c
00000020: efe9 9fbd 3ae8 953d 6d3e 40bd 6ab5 dbbd
00000030: 5da3 5fbd 24b9 20bd bcdf ebbc 44f7 bcbd
00000040: a3da 24be b7f3 96bd 3f99 34be 8714 3dbd
00000050: 5540 993d f4e2 663b 6e6e 023d bd4a abbc
00000060: d2d2 a2bd d3ff 8dbd 348b a73c 00f0 81bd
00000070: 33fa a3bd 24b6 20bc 7f45 1dbd ca02 04be
00000080: 5a49 57bd dfdb 2c3b 762c 083d 5823 983d
00000090: fc24 e1bd 7c4b 09bc 92eb 8abd 6602 83bc
000000a0: af4a 2f3d 8233 70bc 97a6 42bd ae61 89bd
000000b0: 9231 e83b e076 623d 27f8 353c c4c0 9ebc
000000c0: 4092 65bc 65e1 4b3d 8235 69bd 5b11 3bbb
000000d0: 036d b4bd 325c d23c 4592 babd 9402 d0bd
000000e0: f7cd 67bd ac3b 79bc 9a48 87bd 5f16 92bc
000000f0: 7a51 c4bd 05f4 a7bc 5744 eabd 0af9 7abd
00000100: 0aa5 f53c 5154 d43c 7369 e0bc 60f2 ed3c
00000110: fd90 1ebe a87a a9bc 49a8 92bd 1adb 78bd
00000120: b35f cfbd c250 56bd d7b1 823b a055 88bb
00000130: 8392 eeba 7071 a93a 672b ffbc cb9f 5b3d
00000140: 571d 5bbd cf30 57bc 0c77 a73d 6549 84bd
00000150: 5e84 c83b 1c0c e53c 8328 73bd 8096 1ebd
00000160: 36fe 21bd 0647 fcbd ef62 1d3d 6965 23bd
00000170: a0bd b9bd 7a2a 3dbc 887d 0ebe f21e 1c3d
00000180: b896 1ebd 92e2 f23b 1a54 bc3d 1a62 283a
00000190: 5862 193d 9c7e 2bbd ace0 9c3b 35c3 1dbe
000001a0: eed2 eabc dfe1 903c 0fa7 473d 3c52 91bd
000001b0: acc8 1cbd 9073 eabd 2cb1 71bc 26e2 31bb
000001c0: 0e70 b4bd 91fe 81bc b9d5 89bc 1d70 20bd
000001d0: e329 99bd 7138 debd d5b8 9abd 9d84 60bd
000001e0: f396 d1bd aa5d e53c fbdc 88bd 18dd 9ebc
000001f0: c225 433b 25f3 ddbd a3e4 94bd 86e4 debd
-0.12740651 -0.08233923 -0.038829163 0.022800623 -0.068800755 -0.052201957 -0.053875547 0.021687156
-0.07808291 0.07319684 -0.046934534 -0.10727961 -0.054599155 -0.039239064 -0.028793208 -0.0922685
-0.16099028 -0.07370704 -0.17636584 -0.046162155 0.074829735 0.003523049 0.031843595 -0.020909661
-0.07950367 -0.0693356 0.02045212 -0.063446045 -0.08006706 -0.009809051 -0.038396355 -0.12891689
-0.052560188 0.002637617 0.033245526 0.07428616 -0.10993382 -0.008379813 -0.06783213 -0.015992355
0.042795833 -0.014660718 -0.047522154 -0.06708084 0.0070859874 0.05528915 0.011106527 -0.019379027
-0.0140119195 0.0497755 -0.056935795 -0.002854428 -0.08809855 0.025678728 -0.0910993 -0.10156742
-0.056592908 -0.015211981 -0.066056445 -0.017832933 -0.09585853 -0.0205021 -0.11438816 -0.06127266
0.029985923 0.025919111 -0.027394032 0.029046237 -0.15484996 -0.02068837 -0.07161004 -0.060755827
-0.10125675 -0.05232311 0.0039884853 -0.004160598 -0.0018201623 0.0012927484 -0.031148626 0.053619187
-0.053494778 -0.0131341955 0.08177003 -0.064593114 0.006119295 0.027959876 -0.059364807 -0.038717747
-0.039549075 -0.12318234 0.03842443 -0.039891634 -0.09069371 -0.011545772 -0.13915074 0.03811545
-0.038717955 0.007412263 0.091957286 0.00064233097 0.037447304 -0.04186879 0.004787525 -0.15406497
-0.028665032 0.017685829 0.048743304 -0.07095763 -0.038277313 -0.11447823 -0.014751714 -0.0027142852
-0.08810435 -0.015868457 -0.016825544 -0.03916942 -0.074786924 -0.10850609 -0.07554785 -0.05481397
-0.102338694 0.027998764 -0.06682774 -0.019392535 0.0029777144 -0.10837392 -0.072701715 -0.10883431

action_model._continuous_distribution.log_sigma f4 [1, 2]
00000000: 2480 debf e80c aabf
-1.7382855 -1.3285189

action_model._continuous_distribution.mu.weight f4 [2, 128]
00000000: de86 1e3d 1299 58be 9b7b d03b 8269 99bd
00000010: a075 50bd 7d6e edbd da26 7abd dbf4 7fbd
00000020: 6c63 35bc 6121 e739 cb5f b73c 2f37 89bd
00000030: c4a3 fcbd 878d 3a3d a967 94bc bc29 efbc
00000040: 931b 8ebd 513a 473c 5a33 d2bd ccc0 a4bd
00000050: 2568 b8bb 2adb 273d 27d8 84bd a251 08bd
00000060: 8808 8a3d bc3f 303d 17bf 003e 92c1 b3bc
00000070: 7b97 f93d 1ddb 03be f31b 7eba 2b42 e43c
00000080: 7201 a53c f721 17bd 0a1f ebbd e7ed b0bc
00000090: 9a35 8c3d c4c3 61bd 610d e13d 2d55 1c3d
000000a0: 9312 8c3d a37f 323d 648c aa3d 3db7 48bd
000000b0: 3200 0cbe 5681 e13b 0471 d4bd 8402 633d
000000c0: a5a1 663c 5c3b 033e 8f7b bd3d db49 6e3d
000000d0: bd13 c83c 68c6 2ebd 22bc b8bd 239d 5f3d
000000e0: 0fd0 89ba 4c37 6cbd aa84 34bd 18e3 65bd
000000f0: 199d 63be 3493 8d3d 4148 d5bd 80a2 03bd
00000100: f4c1 543d 6845 0f3e 549b a23c 9b12 053e
00000110: 6843 af3c 7b8d 4e3d 6338 a0bc 68ed a639
00000120: b98b 803d fd09 633d 86bb 4fbd 0057 8ebd
00000130: 4782 a1bd 5947 d13d 04a7 7fbe 8a42 433e
00000140: 3ec6 5d3d a49c 45bd 3362 10be 0571 0dbd
00000150: d5ad 403c a178 f8bd 1dd6 11bd 0f9e 68bc
00000160: 2a47 0bbe 098d 68be 9f5f b23d 4332 213d
00000170: 7bb3 adbc c03b 053d ca34 29bd 12c1 81bd
00000180: a0d7 a83d 0a09 adbd 18d3 f03c 60c6 1dbd
00000190: 66c3 1b3e f82a c83d dad4 f9bd 3d9d 9f3d
000001a0: b0e9 8dba bfb2 d43d e526 883c 7318 80bd
000001b0: 2c59 b6bc 1fc6 3a3d 40ca 9f3d d5d7 9d3d
000001c0: 765c 88bd 377a 743c 68df b33c 01f3 2b3e
000001d0: a7b0 e43d 9559 b13d 7ae7 e4b7 87d5 893c
000001e0: a778 893c d034 a7bd 0b4a a53c 9c8a cf3d
000001f0: c12d f33d b7a4 18bd cd68 543e cd09 e1bc
00000200: 19b9 adbd 9307 933c ff3a 32be af8b 61be
00000210: 1a86 7ebd 4dad 39be d2a3 893c aa12 8abe
00000220: f8ed 6dbe 8e94 a23d 8274 fe3d e953 1fbd
00000230: 586b 8dbd ffb2 a73c 4b6f b5bd 4e97 d93e
00000240: f461 4dbd f433 86be 4dbb 69bd 7a23 febc
00000250: 96cb 223e c395 8a3d 7d7a 52be bdd7 03be
00000260: 945f 423b 8827 303d b11f b1bb e8e5 c53d
00000270: 02b4 013e dd15 2bbd 6e03 9dbd e50c 18bd
00000280: 1ac3 f5bd 36e7 26be e438 b13d 291d b23d
00000290: a4b1 593d db23 33bd 2daf b4bc 060f bfbd
000002a0: e36f e13d 57db 9a3e 0a55 c9bc 83b0 63be
000002b0: 3b5d e3bc 8c86 753d 827b 83bc 5f03 58bd
000002c0: 1b0a 9cbd e5d6 773b 1ae6 243d 13dd 95bd
000002d0: dd7b 65bd 3d4b 00be ac22 5ebe 88f9 cf3c
000002e0: 057b 0cbe a143 dabd dcf5 3fbd f145 9ebd
000002f0: eb14 3bbd a363 0dbe 3784 bbbb b6df f6bd
00000300: 980d 5b3d b4cd b4bd 5fbf 13be f851 fa3d
00000310: b056 fcbc 6c5b 25be db52 8a3d 7d92 4cbe
00000320: 1fe7 143d 96a5 19bd 7dca 40bd 5c14 b43d
00000330: ab85 12be 47bd 9cbb 2d21 93bd 81d3 003e
00000340: 7619 50bb a75e 09bd e696 45be 39fa 12be
00000350: 011d 6c3d 1ed6 a2bd 7c3b aabd 0eee 06be
00000360: e6b3 5dbd 8a9b b2bc 6cf6 f33c 02b3 12bd
00000370: d300 fabc 3973 d2bd 466f a5bd d2d8 b5bd
00000380: 8b92 02be 3f7d cf3b 26b1 fd3d dbfa ee3d
00000390: 1a0c 80bd 96b1 aebd 5ae6 c8bd 21f0 87bd
000003a0: a4a5 b3bd 695e a0be a188 ac3d 827f 72bd
000003b0: 2899 ddbd 16ec 1dbe 886e fcbd 3641 333c
000003c0: d318 73bd de53 473e 9e7a 0f3d d4ef bfbd
000003d0: 240a 9fbd 7446 0abd 8354 b83d c148 d4bd
000003e0: 9aed c4bd ec91 f53d 955e ea3c 7af1 763c
000003f0: e76e d33c 0aff 9a3d 6bb9 5eba 38df bb3c
0.038702838 -0.21152142 0.006362391 -0.07490827 -0.050893426 -0.115933396 -0.061072208 -0.06248937
-0.011071067 0.00044084623 0.022384545 -0.066999786 -0.12335923 0.045545127 -0.018115835 -0.029194705
-0.06938853 0.0121599 -0.10263701 -0.080445856 -0.0056276494 0.040980496 -0.0648654 -0.033280976
0.067399085 0.04302953 0.12572895 -0.021942887 0.12187096 -0.12876554 -0.0009693496 0.027863583
0.02014229 -0.036897626 -0.114805296 -0.021597816 0.06846161 -0.055118337 0.1098888 0.038167167
0.0683948 0.043578755 0.08327559 -0.049002875 -0.1367195 0.006881873 -0.103731185 0.05542232
0.014076625 0.12815613 0.092520826 0.058175903 0.024423474 -0.042669684 -0.090202585 0.054593217
-0.0010514277 -0.057669923 -0.04407183 -0.056124777 -0.22227897 0.069128424 -0.10414172 -0.032137394
0.05194278 0.1399132 0.019849457 0.12995379 0.021394446 0.050427895 -0.019558137 0.0003183887
0.0627665 0.055429447 -0.050715946 -0.06950188 -0.078861766 0.102186866 -0.24966055 0.19068351
0.054144137 -0.048245087 -0.1409996 -0.034531612 0.011760195 -0.12132383 -0.035604585 -0.01419784
-0.13601366 -0.2271005 0.087096445 0.039354574 -0.021203747 0.032527685 -0.04131011 -0.06335653
0.08244252 -0.0844899 0.029397532 -0.038519263 0.15211257 0.09773821 -0.12198801 0.07793663
-0.0010827091 0.103856556 0.016620109 -0.06254663 -0.022259317 0.0455991 0.07802248 0.07707182
-0.066582605 0.014921716 0.021957114 0.16791917 0.11166506 0.086596645 -2.7287508e-05 0.01682545
0.016781164 -0.0816437 0.020176908 0.101338595 0.11873961 -0.03726646 0.20743103 -0.027470494
-0.0848257 0.017947948 -0.17405318 -0.22025941 -0.062139608 -0.18132515 0.016801748 -0.26967365
-0.23235309 0.07938491 0.12424566 -0.038898382 -0.0690524 0.020471094 -0.08859118 0.4249825
-0.050142244 -0.26211512 -0.05706339 -0.031022776 0.15897974 0.06766846 -0.20554538 -0.12875266
0.002965902 0.04300645 -0.0054053892 0.09662992 0.12666324 -0.041768897 -0.0766667 -0.037121672
-0.12000103 -0.16299137 0.08653429 0.08696968 0.053147927 -0.043735366 -0.022056187 -0.09329037
0.11007669 0.30245468 -0.024576683 -0.22235303 -0.027754417 0.059942767 -0.016050104 -0.05273759
-0.07619115 0.0037817296 0.040258504 -0.07317557 -0.05602633 -0.12528701 -0.21692914 0.02538754
-0.13718803 -0.106574304 -0.04686533 -0.07728184 -0.045674246 -0.1380754 -0.0057225483 -0.12054388
0.05347976 -0.08828297 -0.14428471 0.122226655 -0.030803055 -0.16148156 0.06754085 -0.19977756
0.036353227 -0.03751143 -0.047068108 0.08792946 -0.14308803 -0.004783306 -0.07184062 0.12580682
-0.0031753457 -0.033537533 -0.19295844 -0.14353265 0.057644848 -0.07950996 -0.08312127 -0.13176748
-0.054126643 -0.021802682 0.029780589 -0.035815246 -0.030517971 -0.10275883 -0.08077864 -0.08879246
-0.12751214 0.006332069 0.12387304 0.11668941 -0.06252308 -0.085299656 -0.09809561 -0.06637598
-0.08771828 -0.3132203 0.084244974 -0.059203632 -0.10820228 -0.15422091 -0.1232577 0.0109408405
-0.059349846 0.19465587 0.035029046 -0.093719155 -0.07765606 -0.033758596 0.09000494 -0.10365439
-0.096156314 0.11990723 0.028609553 0.015072221 0.025809718 0.07568176 -0.00084962574 0.022933587

action_model._continuous_distribution.mu.bias f4 [2]
00000000: 0fb5 983c 0afe 053e
0.018641023 0.1308519

exp_avg f4 [128, 8]
00000000: 370b 85bc a679 19ba 835b 2a3b b71b a8bc
00000010: 5b73 19ba 3124 dc3c 217c beba 41a9 a3bb
00000020: e468 bf3c e7cd 5c3a c017 75bb 4990 d53c
00000030: 0fc8 5c3a f194 ebbc 0aae 0b39 f128 b23b
00000040: 071c 15bd 1002 acba cded be3b 4181 5fbd
00000050: 8607 acba 53fb 333d 45f9 643b d63d 5fbc
00000060: b4ca 51bc 6102 f2b9 af50 063b 96b6 93bc
00000070: 750a f2b9 4ca5 853c 7712 053a ba09 80bb
00000080: 792d 29bb 7428 c3b8 19a0 d839 bfb8 59bb
00000090: 1424 c3b8 9a7a 503b 642c 6cb8 1cd6 e0b9
000000a0: 11d8 93bc 5b8c 2aba fe4e 3d3b a653 dfbc
000000b0: 5897 2aba c134 7e3c 6edb 443b 5054 adbb
000000c0: c779 573c e890 f839 41f4 09bb 5261 8e3c
000000d0: f691 f839 f3c9 b3bc e35e 963a a589 203b
000000e0: 556f c1bc f523 5fba 97af 773b 4e09 17bd
000000f0: 7d30 5fba 3b34 9e3c 4ebb 873b 44d7 b8bb
00000100: 0121 0ebc 9bf4 a3b9 98fd b53a b1e4 2abc
00000110: cdee a3b9 ee0b 753c 8633 4fba 479f 3ebb
00000120: 7d82 d7b8 f49a 78b6 d5f9 8937 1e56 01b9
00000130: 70e0 78b6 d991 cb38 c7a9 df37 b54d 8838
00000140: 92c5 bd3c 2eea 5a3a d2fe 72bb c25c df3c
00000150: d5e9 5a3a a72c 05bd ae12 db38 342e 0d3c
00000160: 55af 08bb e6ac 9db8 0f05 af39 57ef ba3b
00000170: d720 9db8 167d 403c 0d8d 64bb ee58 7d3a
00000180: 4d1c a6bc b69e 3fba bbb2 543b 3ee9 dbbc
00000190: 30ae 3fba 4ab6 af3c 1d33 fa3a 11a3 babb
000001a0: aada 693a 28e2 0638 7ab8 15b9 67ca 8a39
000001b0: 69e2 0638 36db 88ba 6969 0138 6962 1937
000001c0: 7c9d 7b3c b220 113a 8017 21bb e4a3 983c
000001d0: 3a2c 113a 57b4 b1bc 474d 9d39 e46e 9a3b
000001e0: 1fd2 dfbb aa18 81b9 044c 8f3a de60 48bc
000001f0: 7426 81b9 c1f1 b53b fcfd 803a f789 88ba
00000200: 8a0a 55b9 f7c1 f5b6 3e65 0838 3327 6db8
00000210: e63f f5b6 6476 9639 0eb5 52b7 c2fb c2b7
00000220: e914 f9bc 9daa 8fba 4278 9f3b 191b 45bd
00000230: 06b6 8fba 8962 e63c 3aea a43b 38db 23bc
00000240: 881a 9bbb 37ec 32b9 ae9a 463a 634a 1abb
00000250: 4be7 32b9 bc56 c53b 546d 7bb8 7217 b3ba
00000260: 7991 973b 2cd8 2e39 ca13 42ba 5e9e 59bb
00000270: f9d0 2e39 f49f f4bb 1531 013b 533d b3ba
00000280: 70ed ca3a 4617 6a38 a1eb 81b9 db49 2e3b
00000290: d636 6a38 5ca8 96b9 b33b 0cb9 b79f c5b8
000002a0: 1a15 a938 450c 4336 f780 58b7 225f a9b8
000002b0: bd43 4336 7a56 b3b9 85c0 c838 39c3 3238
000002c0: 97aa fd3c 904f 923a af67 a2bb 7e83 523d
000002d0: 695d 923a 788f aebc 40ff 01bc 61be 1d3c
000002e0: 5c3a 27bc b5e8 c0b9 0521 d63a ec9c 16bc
000002f0: 17e3 c0b9 d5a3 0f3c 7b5a 4e3a 7baf 35b9
00000300: e12d 9ebc 7b78 36ba dc8a 4a3b 6473 ebbc
00000310: 9d80 36ba 502a 6f3c 5754 5e3b 66fe 86bb
00000320: a603 9d3a 6e20 3538 fb0c 49b9 eb1c 093b
00000330: 4015 3538 cf9a 00bb 9efc dfb8 b65b 3e3a
00000340: 1f0d 7bbc 6ecd 10ba 12bb 203b 9193 acbc
00000350: b2dd 10ba 53ce 823c d8c3 f43a 561f 9ebb
00000360: 9db5 04ba e016 99b7 cfed a938 4949 573a
00000370: 366e 9ab7 345f 8fbb 8183 7d3a 7975 1d3b
00000380: e48a 0a3c 80d1 9f39 fd65 b1ba 80f6 f93b
00000390: 68d1 9f39 3ad4 79bc 8e36 033b 9b78 743a
000003a0: 818e 86bc 6a38 1bba 6b4b 2c3b fa17 cbbc
000003b0: 9927 1bba d091 593c 77cb 403b 5378 86bb
000003c0: 5b48 9d3c b66f 353a f364 49bb cb17 ec3c
000003d0: 4a64 353a 7731 a7bc f4cb 40bb 008b 053c
000003e0: 5f97 f03c f0c4 8a3a b108 9abb ef3a 293d
000003f0: b9ca 8a3a ffef f4bc c0f0 2dbb b40d 0d3c
-0.0162407 -0.0005854614 0.0025994487 -0.020521028 -0.0005853676 0.026872726 -0.0014532843 -0.004994542
0.023365445 0.0008423016 -0.003739819 0.026069777 0.0008422145 -0.028757544 0.00013320908 0.0054370095
-0.036403682 -0.0013123173 0.005826688 -0.054566626 -0.0013124801 0.043940853 0.0034938615 -0.013625583
-0.012804676 -0.0004615961 0.0020494869 -0.0180314 -0.00046165628 0.016314171 0.0005076299 -0.0039074095
-0.0025814457 -9.3058596e-05 0.00041318013 -0.003322169 -9.305045e-05 0.0031811357 -5.6308127e-05 -0.00042884133
-0.018047364 -0.00065059 0.0028886194 -0.027261566 -0.00065075373 0.015515507 0.0030038017 -0.005289592
0.013151593 0.0004741021 -0.0021050128 0.01738039 0.00047410995 -0.021946883 0.001147237 0.0024496105
-0.023612658 -0.0008512133 0.0037793869 -0.036874108 -0.0008514 0.019312015 0.0041422015 -0.005640896
-0.008674861 -0.00031272028 0.0013884781 -0.010430501 -0.00031267703 0.014956458 -0.0007904101 -0.0029086636
-0.00010276304 -3.7045074e-06 1.644801e-05 -0.0001233448 -3.708552e-06 9.7069606e-05 2.666273e-05 6.4994594e-05
0.023165498 0.00083509355 -0.0037078154 0.02726591 0.0008350884 -0.032513287 0.00010446213 0.008616973
-0.002085646 -7.518548e-05 0.0003338237 0.005704801 -7.49246e-05 0.011748573 -0.0034874112 0.00096644356
-0.020277167 -0.00073097215 0.0032455164 -0.026844617 -0.0007312028 0.021449227 0.0019088719 -0.0056957086
0.0008920828 3.2158714e-05 -0.0001427847 0.00026472213 3.215895e-05 -0.0010441307 3.0854168e-05 9.142424e-06
0.015357371 0.0005536183 -0.0024580657 0.018632837 0.00055379013 -0.021692438 0.0003000295 0.004712926
-0.0068304683 -0.00024623174 0.0010932689 -0.012230126 -0.00024633447 0.005552501 0.0009841318 -0.0010417093
-0.00020317189 -7.3241495e-06 3.2519216e-05 -5.654171e-05 -7.3090077e-06 0.00028698437 -1.25591305e-05 -2.3243836e-05
-0.030405479 -0.0010960881 0.004866631 -0.048121545 -0.0010964281 0.028123157 0.005032805 -0.010000996
-0.0047333874 -0.000170634 0.00075761497 -0.0023542873 -0.00017061566 0.0060223024 -5.9944883e-05 -0.0013663603
0.004625496 0.00016674463 -0.00074034615 -0.0033205966 0.00016671781 -0.007465357 0.0019713093 -0.0013674892
0.0015482139 5.5811623e-05 -0.00024780355 0.0026594314 5.5841017e-05 -0.00028735667 -0.0001337368 -9.423441e-05
8.0624784e-05 2.9064406e-06 -1.290463e-05 -8.076268e-05 2.9096693e-06 -0.0003420597 9.572603e-05 4.2620322e-05
0.030965133 0.0011162627 -0.0049562077 0.051394932 0.0011166754 -0.021308646 -0.0079343915 0.009627909
-0.010206785 -0.00036794474 0.0016336745 -0.0091926865 -0.0003679029 0.008767088 0.0007871759 -0.00017326877
-0.019308986 -0.0006960702 0.003090552 -0.028741546 -0.0006961914 0.01459749 0.0033924782 -0.004119682
0.0011979237 4.3183965e-05 -0.0001917369 0.0020921777 4.3173553e-05 -0.0019623523 -0.00010680522 0.0007261591
-0.0153229525 -0.00055237755 0.0024525565 -0.021066459 -0.0005526199 0.015967524 0.0018674089 -0.004825513
-0.0005062463 -1.8249673e-05 8.102843e-05 0.00082125195 -1.8409552e-05 -0.004375363 0.00096707797 0.0024026318
0.008455966 0.00030482933 -0.0013534423 0.007628262 0.00030482863 -0.015248353 0.002002153 0.0009325833
-0.016425373 -0.0005921187 0.002629007 -0.024791706 -0.0005918681 0.013279393 0.002941815 -0.0041036992
0.01919954 0.0006921248 -0.0030730336 0.02881994 0.0006919546 -0.020409329 -0.002941844 0.008150816
0.029369054 0.0010587256 -0.004700743 0.04131597 0.001058898 -0.029899595 -0.0026541203 0.008609224

exp_avg_sq f4 [128, 8]
00000000: 93cd 3e3d dde7 7d38 296b 9c3a d53a fe3c
00000010: 60e7 7d38 cf36 993d 3332 7039 b812 db3a
00000020: 9090 833c 6913 af37 f8b5 d739 1380 4f3c
00000030: a416 af37 448e d43c 8c08 4039 6b88 573a
00000040: 35bd 4a3d 1ce5 8638 2234 a63a 1ed3 aa3d
00000050: 89e5 8638 1a90 8c3d 1e18 2a3a 7460 053c
00000060: 3f93 db3b a118 1237 5d01 3439 68bc 043c
00000070: cf19 1237 5981 193c af33 5f38 4009 9f3a
00000080: 11c5 1b39 3c49 4f34 9465 7f36 cbc3 8239
00000090: fb4c 4f34 eaab 8639 7bc4 1f36 e599 a336
000000a0: af4d d53b 94ec 0d37 54dd 2e39 b02b 593c
000000b0: abef 0d37 c27d 9a3b fa74 2a39 8581 773a
000000c0: 5b91 473d d2c8 8438 959a a33a ee14 b43c
000000d0: 5ecc 8438 bae1 a93d 8f8b 2039 df5d ee39
000000e0: 9e05 7f3c 77ae a937 8710 d139 6a0b 0e3d
000000f0: 18b0 a937 27d0 283c cf3a cf39 f318 b33a
00000100: 203a eb3b ac82 1c37 38d6 4039 431e fd3b
00000110: 6786 1c37 4468 213c eb90 a038 9252 1c3a
00000120: e243 f937 e7d9 2533 4658 4c35 69ee be37
00000130: b446 2633 73ce a337 3df8 f634 39a2 7136
00000140: 69d7 023d 221d 2e38 9286 563a b142 4a3d
00000150: 111d 2e38 6037 643d 3919 8039 44dc 993b
00000160: 8a45 b73c 42e2 f337 943e 163a fe1b 153d
00000170: e5e2 f337 d9c7 0f3d 8a9e ad39 8a4f de3a
00000180: e973 b33c 3ecd ee37 151d 133a 6b55 da3c
00000190: 77d3 ee37 b1c1 fb3c 0da8 6939 e156 d43a
000001a0: 995d 373b 5e02 7436 5252 9638 7aa6 8e39
000001b0: 6703 7436 b3b9 813b 6207 4d36 3a34 de36
000001c0: 31ef cd3b 4105 0937 a1d2 2839 d65c 233c
000001d0: c508 0937 f267 443c d5b5 ae38 26cc 153a
000001e0: fa6c c63c 5a06 0438 e8aa 223a c7cb 493d
000001f0: 5206 0438 59ab 153d 4c14 b039 da35 253b
00000200: 54cc cf38 b442 0a34 d459 2a36 0635 a737
00000210: 2d48 0a34 2f38 0b39 619a c334 73ed cd34
00000220: 2f7a 9c3c 503a d037 5547 003a 8f92 3b3d
00000230: 1e3d d037 c6a2 823c 65fd e139 05db 4d3b
00000240: 8aa0 e23c fac9 1638 7dc9 393a 5607 c53b
00000250: 9ac9 1638 f4f7 213d b3fb 0838 64f1 963a
00000260: 521f d73c 3322 0f38 d05a 303a c563 483d
00000270: 3222 0f38 ebf5 4d3d 58f2 8439 a69b 303b
00000280: 1841 113b fb4a 4136 1928 6e38 fb16 b03b
00000290: 4f4c 4136 5e89 8f39 3cda 8338 d5b1 cb36
000002a0: 5644 dd39 ec38 1335 7264 3537 929a a939
000002b0: a339 1335 6dab a639 70bb de35 949e 1e39
000002c0: e350 6a3d 8be7 9b38 0c17 c03a a8d0 ca3d
000002d0: 99e9 9b38 3501 773d 69f9 793a e291 e23b
000002e0: cce6 b03c 2268 eb37 b605 113a 81c8 493c
000002f0: ac67 eb37 d59b 003d 0e1e 0939 d99e 193a
00000300: 9910 313c c69f 6b37 0228 9139 08e5 c63c
00000310: c5a3 6b37 1365 cb3b fc42 9639 0af6 143a
00000320: 3541 8b3a 034f b935 a851 e437 ee0b cc3a
00000330: 034f b935 e1a7 493a 594b cf36 842c e439
00000340: f90b bc3c d63c fa37 b028 1a3a 3acb aa3c
00000350: fa3e fa37 a45d 1b3d b991 8a39 c7be d53a
00000360: caaa c03c 7931 0038 5cf2 1d3a 6302 cd3c
00000370: 5132 0038 f7be f93c 6f0f 3939 1901 963a
00000380: 4ede 553c b14c 8e37 ba53 af39 6566 883c
00000390: a44c 8e37 9b42 df3c 2a6d b438 a7d6 0c3a
000003a0: 6397 0c3c 7f16 3b37 db82 6639 d72b a23c
000003b0: d31e 3b37 518c a93b 17ab 6f39 c032 0d3a
000003c0: 1b01 333c 5034 6e37 ebbe 9239 84b1 bc3c
000003d0: 2f35 6e37 8ebf 6f3c e0ba 2539 486e 113b
000003e0: 2af7 a63c 442f de37 75e0 083a bac0 0d3d
000003f0: 8534 de37 e820 e83c 874b ab39 bc57 033b
0.04658277 6.053584e-05 0.0011933792 0.031033913 6.0535385e-05 0.07481157 0.00022906884 0.0016713953
0.016060144 2.0870664e-05 0.00041143573 0.012664813 2.0872169e-05 0.025946744 0.00018313731 0.0008221927
0.049496848 6.432293e-05 0.0012680332 0.08341049 6.432372e-05 0.06863423 0.0006488579 0.008140672
0.0067009027 8.7080125e-06 0.00017166646 0.00810156 8.708287e-06 0.009369218 5.3215477e-05 0.0012133494
0.00014855365 1.930502e-07 3.8057087e-06 0.0002494141 1.9306383e-07 0.00025686558 2.3807213e-06 4.8756942e-06
0.0065095047 8.459338e-06 0.00016676384 0.013255045 8.460057e-06 0.0047146985 0.0001625604 0.0009441602
0.048722606 6.331656e-05 0.0012481982 0.021982636 6.332317e-05 0.08295007 0.00015310779 0.00045464837
0.015565304 2.0227611e-05 0.000398759 0.034678854 2.022837e-05 0.010303534 0.00039525933 0.0013664052
0.00717856 9.328749e-06 0.0001839035 0.0077245547 9.329618e-06 0.009851519 7.6563876e-05 0.00059632317
2.9714723e-05 3.8615237e-08 7.6124377e-07 2.2760783e-05 3.871419e-08 1.952725e-05 4.6001688e-07 3.6006224e-06
0.031943712 4.1511965e-05 0.00081835047 0.049380008 4.1511903e-05 0.055716872 0.00024432855 0.004695447
0.022372026 2.9073217e-05 0.0005731371 0.03640365 2.9073513e-05 0.0351027 0.00033115252 0.001696096
0.021905856 2.8467384e-05 0.00056119385 0.026652059 2.8470282e-05 0.030732008 0.00022283215 0.0016200208
0.0027979373 3.6360211e-06 7.167891e-05 0.00027208385 3.6360814e-06 0.0039589047 3.0551678e-06 6.6221955e-06
0.0062846174 8.16706e-06 0.00016100194 0.009970864 8.167878e-06 0.011987673 8.3308354e-05 0.00057143194
0.024221886 3.1477168e-05 0.00062052766 0.049266603 3.147714e-05 0.036540363 0.00033584458 0.00252091
9.908588e-05 1.2876518e-07 2.538426e-06 1.9932642e-05 1.2878509e-07 0.00013277003 3.6433906e-07 3.8356993e-07
0.01910123 2.4822686e-05 0.0004893442 0.045794066 2.4823992e-05 0.015946757 0.00043104138 0.0031411063
0.027664442 3.5950892e-05 0.0007087214 0.0060128374 3.5950543e-05 0.039543107 3.265934e-05 0.0011516032
0.026260052 3.4125707e-05 0.00067273993 0.048923273 3.4125704e-05 0.050283354 0.00025357562 0.0026948242
0.0022164043 2.8802885e-06 5.6780966e-05 0.0053738332 2.8803659e-06 0.00027377432 6.287216e-05 6.070574e-06
0.0004220332 5.48446e-07 1.0811827e-05 0.00032349356 5.484564e-07 0.0003178971 1.659484e-06 0.00015127129
0.057206046 7.434104e-05 0.0014655306 0.09903079 7.434487e-05 0.060303885 0.0009535761 0.0069143632
0.021594428 2.8062674e-05 0.0005532162 0.01231587 2.8062459e-05 0.031398613 0.00013076534 0.0005860157
0.01080718 1.4044292e-05 0.00027686363 0.024279132 1.4045222e-05 0.0062071173 0.00028660137 0.00056824146
0.0010624292 1.380657e-06 2.7217742e-05 0.001556752 1.380657e-06 0.00076925574 6.1778524e-06 0.00043520716
0.022954928 2.9830651e-05 0.00058806967 0.02084886 2.9831648e-05 0.0379311 0.00026429983 0.0016307466
0.023518939 3.0563653e-05 0.0006025189 0.025025552 3.056444e-05 0.030486567 0.00017648724 0.0011444419
0.01305349 1.6963431e-05 0.00033440982 0.016650388 1.6963408e-05 0.02725344 8.603402e-05 0.0005372562
0.008581015 1.1151306e-05 0.00021983257 0.019796295 1.1153245e-05 0.0051741977 0.00022856552 0.00053862855
0.0109255565 1.4198085e-05 0.00027989535 0.023033865 1.4198288e-05 0.014633073 0.00015805243 0.0022190977
0.020381529 2.6486472e-05 0.0005221435 0.034607626 2.6488919e-05 0.028336003 0.00032671934 0.0020041307
