mlagents/Assets/results/testdia2spawnpoints/RollerBall/RollerBall-499998.pt (torch, 845759 bytes, 48 tensors)

network_body._body_endoder.seq_layers.0.weight f4 [128, 8]
-0.096914105 -0.40769938 -0.4274447 0.2451496 0.043101106 -0.13285454 1.3596741 -0.68413466
0.17333478 0.4087216 0.28807005 -0.19628537 -0.5318561 -0.17801115 -0.5630217 0.5593801
0.40820336 0.14087632 0.2568075 0.31603163 0.5634974 0.42729652 1.3129753 -0.0046102777
-0.21293572 0.41747195 -0.20784433 0.13028024 -0.12569097 -0.26859462 0.30670762 -0.04925531
-0.36190507 0.30412653 -0.039729495 0.2264574 0.48426884 0.062390417 0.46364227 -0.8232784
-0.13975568 -0.5866049 -0.41554403 0.29650775 -0.065969214 0.31769702 -0.6711327 0.2337883
0.04642106 -0.09305641 0.63817954 -0.22092164 0.5998265 -0.2970624 0.80005515 -0.4375546
-0.106768385 -0.18613154 -0.019278465 0.24572374 -0.29745045 0.25202957 0.066854455 0.4322552
0.17458309 0.26904663 -0.058564074 0.069674715 0.32227835 -0.34505904 0.648709 -0.51490176
0.25501627 0.124480665 -0.8011521 -0.43252108 0.5721058 0.57508564 -0.46447924 0.2146979
-0.3399334 0.14403902 -0.5278405 -0.20217195 -0.13596267 -0.3224571 0.21504661 0.70338875
0.012644642 -0.23799396 -0.1427962 0.10130406 -0.5265689 -0.1657761 -0.5309742 -0.6746538
0.34104523 -0.24649175 -0.10480935 0.012518566 0.16086712 0.12575695 0.41504872 -0.33671698
0.28776014 0.04552757 -0.5950404 -0.82391906 0.13987349 0.15885597 -0.46399254 -0.93321276
0.120336294 -0.02965369 0.14842093 -0.08511211 0.052795637 -0.12966561 -0.22963661 0.2637874
-0.27236268 0.17598666 0.51309043 0.3479328 -0.055959333 0.059303775 0.40239242 0.53810924
0.20980388 0.26038978 0.24860166 -0.22072767 0.23562397 0.31039673 -0.19672562 -0.5112994
-0.34844604 0.1006021 -0.41206014 0.55287826 0.17358136 0.60588676 0.26771164 0.6812309
0.17556246 0.2191013 -0.58172816 -0.4680822 -0.33409593 0.0010096813 -0.34682533 0.517106
0.14680322 -0.46207428 0.72209376 0.13614127 -0.054967657 -0.08273736 0.004513683 1.2135432
-0.01311591 0.23380302 0.13287213 0.1986625 0.1364224 0.43323478 0.26791278 -0.67707616
0.26281273 -0.20033608 -0.11754751 -0.44577277 0.09248062 0.15155187 -0.18382658 0.40002385
-0.4996012 0.17140675 -0.26773724 0.18554711 -0.46898192 -0.4789621 -0.39139152 -0.2039914
0.22308087 -0.11130308 -0.350762 0.353267 -0.11070818 0.018570067 -0.9004042 0.07192692
-0.082383744 -0.2865314 -0.1463919 0.41897318 -0.021049315 0.47639886 -0.052517522 -0.41199887
-0.3621818 -0.1596356 -0.64480996 0.034316927 0.084013544 0.22015026 0.020363977 0.75795144
0.34090698 0.683373 0.020462956 0.3924341 0.29773483 0.4052991 1.019602 0.19371775
0.2977467 -0.12045218 -0.07789731 -0.104956865 -0.17537545 0.101867154 -0.4706563 0.40889585
0.25412503 0.16251552 -0.23609714 -0.1701253 -0.28095463 0.036248103 0.77656925 0.49750015
-0.43556362 -0.0042325575 -0.26291704 0.5817191 0.20000966 0.43501008 -0.15361862 -0.19230323
-0.46380597 -0.3209957 0.4062841 0.3786331 -0.64499533 -0.20383307 -0.8664582 0.426226
0.5858737 0.55569994 0.63172835 -0.60760134 0.3859493 -0.44084188 -0.7632703 0.32924375
00000000: e77a c6bd f9bd d0be 08da dabe 7f08 7b3e
00000010: c98a 303d 050b 08be cd09 ae3f 7323 2fbf
00000020: ac7e 313e f543 d13e eb7d 933e 08ff 48be
00000030: b927 08bf 8e48 36be 3122 10bf 8933 0f3f
00000040: 0800 d13e e241 103e 467c 833e e6ce a13e
00000050: 5e41 103f 9cc6 da3e 930f a83f d011 97bb
00000060: d20b 5abe e2be d53e 25d5 54be 2f68 053e
00000070: 22b5 00be 3c85 89be c808 9d3e f0bf 49bd
00000080: 9f4b b9be 79b6 9b3e 65bb 22bd 73e4 673e
00000090: 16f2 f73e 188d 7f3d 8562 ed3e 60c2 52bf
000000a0: 1d1c 0fbe bd2b 16bf 30c2 d4be ddcf 973e
000000b0: de1a 87bd 2fa9 a23e 5acf 2bbf 3366 6f3e
000000c0: 0224 3e3d 5c94 bebd bc5f 233f 4839 62be
000000d0: 3b8e 193f 9018 98be 6ad0 4c3f 2807 e0be
000000e0: 62a9 dabd 4499 3ebe dfed 9dbc 019f 7b3e
000000f0: 6d4b 98be 050a 813e fdea 883d 8e50 dd3e
00000100: e9c5 323e 7bc0 893e e2e0 6fbd 9eb1 8e3d
00000110: ab01 a53e 94ab b0be cb11 263f 9ad0 03bf
00000120: 7e91 823e b8ef fe3d 4e18 4dbf 6773 ddbe
00000130: 8775 123f d038 133f 39d0 edbe c4d9 5b3e
00000140: c00b aebe f77e 133e 8e20 07bf 2a06 4fbe
00000150: cc39 0bbe 1919 a5be 2e35 5c3e 4911 343f
00000160: 792b 4f3c b0b4 73be 2b39 12be 8178 cf3d
00000170: 38cd 06bf 36c1 29be eded 07bf 1db6 2cbf
00000180: 7b9d ae3e 5568 7cbe 49a6 d6bd ac1a 4d3c
00000190: 5aba 243e 6ec6 003e 4481 d43e 2b66 acbe
000001a0: 4c55 933e 1e7b 3a3d 9154 18bf 5cec 52bf
000001b0: ff3a 0f3e 24ab 223e 6e90 edbe 08e7 6ebf
000001c0: e072 f63d 4cec f2bc a8fb 173e 424f aebd
000001d0: 3d40 583d 10c7 04be dc25 6bbe 240f 873e
000001e0: 1f73 8bbe d935 343e e559 033f 3f24 b23e
000001f0: 9d35 65bd 84e8 723d 6106 ce3e 87c1 093f
00000200: d4d6 563e cf51 853e 6f91 7e3e 6f06 62be
00000210: 6947 713e 52ec 9e3e 7172 49be 84e4 02bf
00000220: 8567 b2be 7908 ce3d 8cf9 d2be 6e89 0d3f
00000230: 50bf 313e 651b 1b3f 8011 893e 2665 2e3f
00000240: a5c6 333e 175c 603e 23ec 14bf 78a8 efbe
00000250: 9f0e abbe 4857 843a 1793 b1be 0f61 043f
00000260: 9553 163e 0095 ecbe 23db 383f 9e68 0b3e
00000270: c425 61bd 3472 a9bd 84e7 933b 6255 9b3f
00000280: 1de4 56bc 0f6a 6f3e a20f 083e 2f6e 4b3e
00000290: 50b2 0b3e f3d0 dd3e dd2b 893e dd54 2dbf
000002a0: 648f 863e e724 4dbe c0bc f0bd 543c e4be
000002b0: 7b66 bd3d 6a30 1b3e 093d 3cbe edcf cc3e
000002c0: bacb ffbe 4085 2f3e db14 89be 1000 3e3e
000002d0: 661e f0be 853a f5be 7864 c8be 1fe3 50be
000002e0: 506f 643e dff2 e3bd 1497 b3be 6adf b43e
000002f0: f8ba e2bd 4120 983c e480 66bf 6c4e 933d
00000300: cfb8 a8bd 3eb4 92be c2e7 15be a783 d63e
00000310: 9d6f acbc 8dea f33e 9d1c 57bd 84f1 d2be
00000320: e56f b9be 8477 23be 4412 25bf e88f 0c3d
00000330: 4b0f ac3d 126f 613e 5bd2 a63c 1b09 423f
00000340: 5c8b ae3e 88f1 2e3f eea1 a73c 1fed c83e
00000350: b370 983e 5d83 cf3e 5182 823f f25d 463e
00000360: 4172 983e a2af f6bd a088 9fbd a0f3 d6bd
00000370: 9f95 33be ba9f d03d ddf9 f0be cc5a d13e
00000380: ad1c 823e 786a 263e 73c3 71be 5435 2ebe
00000390: 49d9 8fbe e478 143d 3ecd 463f 57b8 fe3e
000003a0: 3202 dfbe 44b1 8abb 109d 86be 8beb 143f
000003b0: 55cf 4c3e a4b9 de3e 334e 1dbe 23eb 44be
000003c0: fa77 edbe 8c59 a4be 7804 d03e 33dc c13e
000003d0: 6a1e 25bf 9eb9 50be 34d0 5dbf 4b3a da3e
000003e0: d2fb 153f 5a42 0e3f f3b8 213f c38b 1bbf
000003f0: 269b c53e 07b6 e1be af65 43bf a392 a83e

network_body._body_endoder.seq_layers.0.bias f4 [128]
-0.027856428 -0.104677595 0.04508137 -0.13586414 0.22930072 -0.046753727 0.13616872 -0.1444689
-0.13916984 0.3876185 -0.12495346 -0.02693061 0.05257606 0.2781095 -0.1452324 0.06582424
0.042325508 0.039554194 0.09912063 -0.16222319 0.11398889 0.13288829 0.005713641 -0.16274986
0.1632001 -0.018309612 -0.056549463 -0.036990955 -0.11974653 0.13013946 -0.14101999 -0.04701015
-0.06927266 0.07726719 -0.08102214 -0.06518889 -0.039034292 0.079027064 -0.06672297 -0.006823587
0.009130209 0.057417333 -0.093489505 0.07321553 -0.17352515 0.12908152 -0.11780003 0.17012954
-0.13803163 0.096626684 0.22183354 0.08218061 0.03439462 -0.13880047 -0.07341774 -0.0069680386
0.016552202 0.00956168 -0.054697663 -0.2347058 -0.13176638 -0.017918538 0.05655791 -0.12571263
0.037354626 0.059034724 0.095744446 0.105961695 -0.10424822 -0.10797672 0.10463981 -0.078645736
0.04842921 0.106456034 0.12655075 -0.085548274 0.0066644647 0.12626183 0.13109592 -0.18465157
0.012426163 0.07876235 -0.09155514 -0.12795465 -0.19780035 -0.032752104 -0.10753071 -0.13522218
-0.07170418 0.12930845 -0.08526175 0.13253075 0.17078884 0.083822906 -0.036938865 0.023706537
0.12017054 0.14067078 -0.07135787 -0.040845204 0.1278509 -0.11471781 -0.12229365 -0.04362866
-0.18316859 0.01370351 -0.09125305 -0.14202428 0.019722432 -0.08699195 0.15649933 0.07624728
0.055183556 -0.03830901 0.18305413 -0.21580437 -0.028978156 0.044779643 0.06139569 0.098911196
0.21129024 -0.031153576 0.030527186 -0.015556516 -0.00033358764 0.10483124 -0.010703826 -0.018378811
00000000: 2a33 e4bc 3561 d6bd 3ea7 383d f81f 0bbe
00000010: cfcd 6a3e d680 3fbd d06f 0b3e a8ef 13be
00000020: 8a82 0ebe ef75 c63e 9ae7 ffbd 959d dcbc
00000030: ff59 573d 5e64 8e3e cdb7 14be dcce 863d
00000040: 835d 2d3d 9403 223d c2ff ca3d d61d 26be
00000050: 0273 e93d de13 083e 7f39 bb3b e6a7 26be
00000060: ed1d 273e 0afe 95bc 69a0 67bd d483 17bd
00000070: ab3d f5bd 4743 053e 8b67 10be b78d 40bd
00000080: d3de 8dbd 433e 9e3d f0ee a5bd c181 85bd
00000090: 6ce2 1fbd f1d8 a13d 0da6 88bd 6698 dfbb
000000a0: df96 153c 702e 6b3d 6d77 bfbd 06f2 953d
000000b0: 94b0 31be f22d 043e 2441 f1bd 7036 2e3e
000000c0: 2a58 0dbe 36e4 c53d 5528 633e 4f4e a83d
000000d0: 60e1 0c3d b621 0ebe 0a5c 96bd 2554 e4bb
000000e0: 7c98 873c 98a8 1c3c a80a 60bd b856 70be
000000f0: c4ed 06be e6c9 92bc 44a9 673d d0ba 00be
00000100: 2a01 193d 65ce 713d aa15 c43d 7202 d93d
00000110: 1780 d5bd e622 ddbd 664d d63d 0411 a1bd
00000120: b55d 463d 9f05 da3d 8596 013e ef33 afbd
00000130: 9561 da3b c84a 013e 023e 063e 4d15 3dbe
00000140: 1b97 4b3c 284e a13d 4381 bbbd 8b06 03be
00000150: 2d8c 4abe 1227 06bd 1039 dcbd af77 0abe
00000160: a4d9 92bd 6f69 043e b69d aebd 24b6 073e
00000170: 45e3 2e3e 58ab ab3d 354d 17bd 3634 c23c
00000180: f91b f63d 000c 103e 1324 92bd 4d4d 27bd
00000190: 59eb 023e 2cf1 eabd 1875 fabd f7b3 32bd
000001a0: 8c90 3bbe b084 603c e1e2 babd d06e 11be
000001b0: f090 a13c d628 b2bd 5c41 203e 8927 9c3d
000001c0: 2708 623d e9e9 1cbd 8b72 3b3e d2fb 5cbe
000001d0: 9963 edbc dc6a 373d 0c7a 7b3d f491 ca3d
000001e0: 785c 583e c935 ffbc 2614 fa3c c2e0 7ebc
000001f0: 60e5 aeb9 c3b1 d63d 1a5f 2fbc 298f 96bc

network_body._body_endoder.seq_layers.2.weight f4 [128, 128]
-0.21222293 -0.10802399 0.13693725 -0.08156006 -0.03507728 -0.015100881 0.20949091 -0.15669337
-0.11264931 0.004743446 0.21725383 -0.020629968 -0.044695795 0.27963576 -0.26157817 -0.05913171
0.16312927 0.18914767 0.23587328 0.042666152 0.16041721 0.11734394 -0.37385157 -0.0073628775
0.15289716 0.049681775 0.13351096 -0.012734494 -0.33114228 0.2515331 -0.11000583 -0.20165159
0.06450208 -0.06528479 -0.018684512 -0.082072996 0.17676418 0.010674151 -0.017272316 -0.12178936
0.3162557 0.20749873 0.03246174 0.11331769 -0.012435764 0.15126188 -0.1863096 0.03908849
-0.042289916 -0.100437045 0.077128366 0.04909323 0.25006804 -0.066006854 0.013366037 0.058198646
-0.37010843 0.0815752 -0.107454814 -0.11687822 -0.19373444 -0.018712288 0.13875099 -0.33364627
0.1548041 0.102899 0.056552947 0.018849738 0.04325067 0.05748805 0.027480463 -0.054794803
0.12420862 0.19222383 0.20484067 -0.07889591 0.2015265 -0.042703945 0.28430483 -0.09328256
0.04184264 -0.013243815 0.0043433034 -0.057656728 -0.22957627 0.0065732263 -0.2819728 -0.11587232
0.04994963 -0.20327625 -0.10326191 0.05483038 -0.028995233 0.2493102 -0.28999305 0.1355149
-0.25146604 0.066400275 0.50901127 0.19720994 0.17031133 -0.046022575 0.0055188863 0.02269901
-0.1682958 0.007643009 -0.41576442 -0.48596254 0.03734672 -0.13343492 0.16607153 -0.17158215
0.05751643 0.044823665 -0.10765187 -0.20582701 0.09788774 0.09975519 0.13623668 -0.41974658
0.039325777 0.12537144 -0.18526965 0.15537252 -0.042682447 0.29323062 -0.21313977 -0.07942727
-0.050491605 -0.17031367 0.03124804 -0.019409906 0.035523273 -0.009862823 0.051253494 0.069657564
0.12077009 0.26642686 0.08534125 -0.35643068 0.0085671665 -0.30313432 -0.081757165 0.047311828
0.09968567 0.087220564 0.067237414 0.22309044 -0.00086915767 0.0012517149 -0.12891263 -0.12962896
0.037692077 -0.081709124 -0.082057 0.025328867 0.062132042 0.1246335 -0.097577676 0.13522033
0.15106471 0.035448607 -0.13993765 0.06973255 0.12809405 0.1926643 0.011873376 -0.0780979
0.007159745 -0.049745128 -0.0611895 -0.18757533 -0.06934743 -0.30870673 0.0012987262 0.24256566
-0.03964265 0.3252884 -0.022227466 -0.06639717 -0.12475444 0.09937294 -0.03654822 -0.005737343
-0.009617913 -0.15813409 -0.18055171 0.10786804 0.04651776 -0.15989007 -0.06949115 0.074430026
-0.007886302 0.107920945 -0.170165 0.09759467 0.0055791154 -0.05133204 0.1288174 -0.08451129
-0.1220857 -0.115908824 -0.0073010945 0.13032202 0.07388311 0.055937827 0.101434745 -0.21587196
-0.21304908 0.058330096 -0.13304974 -0.056008343 0.1453123 -0.13498718 0.1276615 0.027200816
0.038044456 0.13271567 -0.15055363 -0.24457783 -0.033318337 0.042271134 -0.15714085 0.020323558
-0.017916655 0.038489714 0.002002151 0.17431296 -0.086111136 0.047219485 -0.10794361 0.08031086
-0.044581324 -0.1179198 0.043501332 0.1899107 -0.08293196 -0.07630152 -0.17371053 0.00850717
0.087874405 -0.26291215 0.21702164 0.009231564 0.11630587 0.17390762 -0.03507618 -0.02063743
-0.04584221 -0.093998894 0.008617316 -0.10335608 0.004080199 -0.07848152 -0.18241736 0.0124512175
00000000: f850 59be af3b ddbd 4739 0c3e f608 a7bd
00000010: 32ad 0fbd b069 77bc c984 563e 3a74 20be
00000020: aeb4 e6bd e96e 9b3b ca77 5e3e 2e00 a9bc
00000030: f012 37bd 6b2c 8f3e 93ed 85be 1834 72bd
00000040: 5c0b 273e edaf 413e c488 713e b4c2 2e3d
00000050: 6944 243e 0552 f03d 7969 bfbe 4b44 f1bb
00000060: 1391 1c3e 1e7f 4b3d 19b7 083e 57a4 50bc
00000070: 7b8b a9be f2c8 803e bd4a e1bd c17d 4ebe
00000080: ab19 843d 08b4 85bd 4310 99bc e315 a8bd
00000090: ab01 353e a2e2 2e3c ac7e 8dbc b36c f9bd
000000a0: 44ec a13e 8c7a 543e 9af6 043d 1b13 e83d
000000b0: 60bf 4bbc 65e4 1a3e f2c7 3ebe 411b 203d
000000c0: 3138 2dbd f0b1 cdbd 7af5 9d3d fc15 493d
000000d0: eb08 803e 9a2e 87bd 39fd 5a3c b461 6e3d
000000e0: da7e bdbe e610 a73d 4511 dcbd d95d efbd
000000f0: 5262 46be 834a 99bc bd14 0e3e afd3 aabe
00000100: f784 1e3e b6bc d23d 10a4 673d c46a 9a3c
00000110: 9d27 313d 9778 6b3d b51e e13c 8470 60bd
00000120: 1761 fe3d 53d6 443e c1c1 513e 2e94 a1bd
00000130: f65c 4e3e 55ea 2ebd 6790 913e ed0a bfbd
00000140: 3063 2b3d 96fc 58bc 4552 8e3b 7629 6cbd
00000150: 0b16 6bbe 3864 d73b bd5e 90be 784e edbd
00000160: fc97 4c3d a627 50be fb7a d3bd d295 603d
00000170: 6987 edbc 2c4b 7f3e f879 94be 6bc4 0a3e
00000180: 28c0 80be defc 873d 904e 023f 67f1 493e
00000190: 1866 2e3e 2b82 3cbd c6d7 b43b 46f3 b93c
000001a0: bc55 2cbe 3572 fa3b 13df d4be 15d0 f8be
000001b0: e0f8 183d 2aa3 08be a80e 2a3e 3bb3 2fbe
000001c0: 5996 6b3d 0599 373d 9578 dcbd 51c4 52be
000001d0: 5e79 c83d 734c cc3d a181 0b3e 06e9 d6be
000001e0: 1114 213d 5f61 003e 54b7 3dbe f919 1f3e
000001f0: cad3 2ebd 5322 963e 5041 5abe c4aa a2bd
00000200: 49d0 4ebd b566 2ebe e4fb ff3c 8601 9fbc
00000210: da80 113d ae97 21bc 2fef 513d a0a8 8e3d
00000220: 4f56 f73d 1a69 883e 65c7 ae3d 157e b6be
00000230: 4d5d 0c3c 6c34 9bbe 4d70 a7bd 0cca 413d
00000240: 0028 cc3d b2a0 b23d c5b3 893d d271 643e
00000250: 2fd8 63ba 9510 a43a ac01 04be 74bd 04be
00000260: 0263 1a3d 1d57 a7bd 800d a8bd 7c7e cf3c
00000270: 2b7e 7e3d d93f ff3d ced6 c7bd 3377 0a3e
00000280: b5b0 1a3e 8f32 113d d14b 0fbe f0cf 8e3d
00000290: 162b 033e ca49 453e 8c88 423c cbf1 9fbd
000002a0: 4b9c ea3b 8cc1 4bbd d7a1 7abd bf13 40be
000002b0: 0606 8ebd cf0e 9ebe 053a aa3a 2263 783e
000002c0: 5560 22bd 338c a63e 6016 b6bc 3dfb 87bd
000002d0: 417f ffbd 0a84 cb3d 96b3 15bd 5200 bcbb
000002e0: 7394 1dbc e7ed 21be 8ce2 38be ebe9 dc3d
000002f0: 6889 3e3d 39ba 23be 6051 8ebd c56e 983d
00000300: 8c35 01bc a805 dd3d bc3f 2ebe b7df c73d
00000310: 03d1 b63b 8c41 52bd b5e8 033e 4114 adbd
00000320: 1108 fabd 9b61 edbd 053e efbb 2373 053e
00000330: 0750 973d 101f 653d 05bd cf3d 8a0d 5dbe
00000340: 8a29 5abe 8aeb 6e3d 313e 08be 0169 65bd
00000350: bfcc 143e 143a 0abe b2b9 023e 3fd4 de3c
00000360: 81d4 1b3d 9ee6 073e bb2a 1abe 9c72 7abe
00000370: cf78 08bd 7f24 2d3d 88e9 20be 977d a63c
00000380: f3c5 92bc 64a7 1d3d 8536 033b 197f 323e
00000390: 095b b0bd 3869 413d 8a11 ddbd 057a a43d
000003a0: e89a 36bd f07f f1bd 742e 323d f377 423e
000003b0: 3bd8 a9bd f943 9cbd 2ce1 31be a861 0b3c
000003c0: 7ff7 b33d 6c9c 86be ec3a 5e3e fc3f 173c
000003d0: c631 ee3d d714 323e 0aac 0fbd d40f a9bc
000003e0: 0bc5 3bbd 7e82 c0bd a52f 0d3c 5aac d3bd
000003f0: 31b3 853b ebba a0bd 9ecb 3abe 3100 4c3c

network_body._body_endoder.seq_layers.2.bias f4 [128]
-0.05575623 -0.00073349447 -0.0030911155 0.02990933 -0.024073178 -0.04423792 0.01294008 0.059499193
-0.018489111 -0.09640877 -0.03135639 -0.017311808 -0.003913875 0.034546353 -0.00044382206 0.0011705385
-0.020392029 0.0081463 -0.002828353 -0.04459699 -0.058207512 -0.054435927 0.06622735 0.020412428
0.003628747 0.018483993 0.007951601 -0.01648946 -0.0364866 0.031234272 0.003054854 0.014397335
0.043196514 -0.038020566 0.03867152 -0.06653911 -0.079235025 -0.06970671 -0.018815514 -0.062978335
-0.05791552 -0.044223297 -0.048712168 -0.019785216 -0.055417676 -0.018476283 -0.037448127 -0.06546825
-0.016212238 -0.07298505 0.009609914 -0.032349918 0.011474453 -0.0042250953 -0.03494083 0.07403656
-0.021418981 0.016983997 -0.025468748 0.0007542486 -0.03791414 -0.039783753 -0.04842124 -0.0056705065
-0.058409687 -0.0024131539 0.0015721513 0.012739368 -0.096786514 -0.011878667 -0.0020953666 0.019991357
-0.0034535169 -0.045207117 0.053586815 -0.0072131357 -0.0075550186 -0.04377841 0.027619658 0.037619863
-0.017014118 -0.042347472 -0.015517119 0.06585965 0.03771625 -0.06126053 -0.05755399 -0.026349263
-0.05221305 -0.019034836 -0.08331714 0.0073314263 -0.03522832 0.04455631 0.07591625 -0.01209708
-0.034367137 -0.026215177 -0.070592694 -0.014434062 -0.021615176 0.008763553 -0.01718392 -0.0062674074
-0.004622408 0.008959009 -0.009942426 -0.0037311655 -0.025044072 -0.011081309 0.008602394 0.002189523
-0.10063923 -0.03868137 -0.10137793 -0.010280865 -0.060748033 0.0076153707 0.010132679 0.036372297
-0.0036351583 -0.014117096 0.02631209 -0.018614406 -0.04471598 -0.062946804 -0.030227223 0.00020569604
00000000: a560 64bd fb47 40ba 5094 4abb 6904 f53c
00000010: 1d35 c5bc d232 35bd a102 543c 6db5 733d
00000020: 7a76 97bc f671 c5bd 8f6f 00bd 7ed1 8dbc
00000030: f73f 80bb 7a80 0d3d cab0 e8b9 c16c 993a
00000040: 2f0d a7bc 0f78 053c e45b 39bb 55ab 36bd
00000050: 006b 6ebd 35f8 5ebd 34a2 873d f737 a73c
00000060: 46d0 6d3b be6b 973c 6f47 023c e714 87bc
00000070: f972 15bd 04df ff3c f233 483b cde2 6b3c
00000080: d4ee 303d 74bb 1bbd 0766 1e3d a845 88bd
00000090: f945 a2bd 64c2 8ebd fe22 9abc c9fa 80bd
000000a0: d338 6dbd 7d23 35bd 6986 47bd 9b14 a2bc
000000b0: a5fd 62bd 935b 97bc 3563 19bd 3814 86bd
000000c0: 87cf 84bc 3079 95bd e772 1d3c 5981 04bd
000000d0: 58ff 3b3c ab72 8abb 1e1e 0fbd 7ba0 973d
000000e0: dc76 afbc 0622 8b3c d6a3 d0bc c4b8 453a
000000f0: db4b 1bbd 4af4 22bd 5a55 46bd a8cf b9bb
00000100: ff3e 6fbd 0126 1ebb a510 ce3a c8b8 503c
00000110: 0238 c6bd be9e 42bc 6b52 09bb eac4 a33c
00000120: 6654 62bb 192b 39bd d97d 5b3d 2b5c ecbb
00000130: 1790 f7bb fd50 33bd 9f42 e23c 4917 1a3d
00000140: 3161 8bbc 8b74 2dbd 843b 7ebc 6de1 863d
00000150: 5b7c 1a3d 52ec 7abd bcbd 6bbd 69da d7bc
00000160: 5add 55bd f2ee 9bbc 2da2 aabd 763c f03b
00000170: 924b 10bd ad80 363d fb79 9b3d d532 46bc
00000180: 8ec4 0cbd 36c1 d6bc e792 90bd d87c 6cbc
00000190: 4f12 b1bc 0195 0f3c 4bc5 8cbc d35e cdbb
000001a0: 9277 97bb cfc8 123c 8fe5 22bc 9286 74bb
000001b0: 3a29 cdbc 618e 35bc 0ef1 0c3c 1a7e 0f3b
000001c0: f11b cebd 5b70 1ebd 3b9f cfbd 1371 28bc
000001d0: eed2 78bd 5c8a f93b 8903 263c 1efb 143d
000001e0: d63b 6ebb 644b 67bc 748c d73c 3d7d 98bc
000001f0: 1a28 37bd 41ea 80bd 159f f7bc 1cb0 5739

network_body._body_endoder.seq_layers.4.weight f4 [128, 128]
0.15480706 -0.23867364 -0.110484555 0.022281272 -0.08346233 -0.28118095 0.017895576 0.048193056
0.055204995 0.0013521399 -0.22094287 0.13360147 0.0019579919 0.042456385 -0.08372447 0.12280841
-0.04118757 -0.057365716 0.08466447 0.082601115 0.09827639 0.12859656 -0.0601978 -0.2081226
-0.16645046 -0.02381378 -0.0088038705 -0.20833369 0.014937592 0.0845363 0.09591177 -0.06259516
0.20460568 -0.27383995 0.13365813 0.058529075 0.38171434 -0.050979916 0.03839556 0.05698243
0.04449387 -0.12958853 -0.03493132 -0.09129613 -0.16820695 -0.1577713 0.12483704 0.15101197
0.1765064 0.17895874 0.06192105 -0.030085795 -0.18798797 -0.16945972 -0.16181792 -0.14091344
0.11896475 -0.18554902 0.012507444 0.18101235 -0.058243982 0.26334777 0.05068811 -0.033405237
0.11792506 -0.010811577 0.20028673 -0.057636302 0.09409605 0.060671248 -0.15448086 -0.17877775
0.03773149 -0.24197641 0.3430568 0.05467822 -0.053062793 -0.16082565 0.094903775 0.03486297
-0.0073521766 0.17378442 0.05416362 -0.3353885 0.07869669 -0.06730095 -0.08064424 -0.21031992
-0.20441906 -0.104745574 0.043850265 0.047017496 -0.25759983 0.25984555 -0.026900657 -0.11514712
0.27371237 0.2476122 0.0056882324 -0.14239708 -0.035648413 -0.29764768 -0.019169567 -0.14868656
-0.057605147 -0.062598094 -0.16924831 -0.026481282 0.050700728 -0.11979258 0.032868803 -0.031997666
-0.19306925 -0.032286845 0.11390092 -0.017843978 0.012061262 0.14013626 0.07457239 0.1435323
-0.09934797 -0.17153238 0.056343783 -0.12885071 -0.023503175 0.0073280293 -0.028660618 0.26501492
-0.13578172 0.058456108 0.2824036 -0.02961939 -0.116651334 -0.375552 -0.13223875 -0.07546419
-0.27670872 0.1626902 -0.12224934 0.08189048 -0.06450526 0.052291047 0.023589885 0.019633258
-0.012360355 -0.24713966 0.14232753 -0.1198781 0.14791024 0.26986828 0.039699208 0.35511178
-0.37372634 -0.22725551 0.1703427 -0.07892592 -0.054180827 -0.36890656 0.1054209 0.3709136
-0.19399673 0.070318036 0.108713575 0.113780774 0.24967287 0.35179842 -0.030658722 0.0200586
-0.033564925 -0.18809733 0.12325966 -0.46585652 -0.05845549 0.034577526 -0.3852618 -0.026610661
0.10397268 0.14804769 -0.118750125 -0.026083037 -0.23068851 -0.09757034 -0.23911515 -0.30171987
0.1695897 -0.118533246 0.08566673 -0.22621725 0.037677374 -0.20100832 0.017214822 -0.08037098
0.0072405296 0.027630279 0.10671947 0.13501908 0.025011204 0.29765034 0.025045512 0.14694534
-0.0669401 -0.07556223 0.22128807 0.3203999 0.104022235 -0.017303811 -0.18139288 0.35127777
-0.031254724 0.19327295 0.2653295 0.115729414 -0.1549695 0.078328416 0.34106386 -0.1264665
-0.09171977 -0.029839322 0.07841605 0.2433177 -0.27998507 0.03484466 0.06848261 -0.007704731
-0.15412574 0.045085408 0.04293547 0.15321745 0.21280026 -0.025969137 0.0039094277 -0.17793109
0.16332279 0.05538906 -0.11704705 0.13731879 0.25179031 0.026210748 0.11690187 0.06020379
-0.1421306 0.13123444 -0.15380865 0.003086126 -0.027378056 0.054084007 -0.06774084 -0.08952947
0.07324346 0.17028168 0.046207957 0.17117855 -0.0041873264 0.082123585 0.1435581 -0.01640999
00000000: be85 1e3e dd66 74be ba45 e2bd 3787 b63c
00000010: 4cee aabd f3f6 8fbe be99 923c 1566 453d
00000020: a21e 623d 493a b13a d93e 62be d3ce 083e
00000030: a751 003b bfe6 2d3d bc77 abbd fa82 fb3d
00000040: 4cb4 28bd 50f8 6abd 9164 ad3d c62a a93d
00000050: 2245 c93d d1ae 033e f891 76bd 171e 55be
00000060: fd71 2abe 1e15 c3bc 1c3e 10bc 6d55 55be
00000070: cdbc 743c 5e21 ad3d 646d c43d e431 80bd
00000080: 2784 513e c034 8cbe addd 083e 2fbc 6f3d
00000090: 1070 c33e 51d0 50bd aa44 1d3d 6966 693d
000000a0: 343f 363d dbb2 04be 2514 0fbd 77f9 babd
000000b0: 713e 2cbe cd8e 21be 90aa ff3d e2a2 1a3e
000000c0: 18be 343e f640 373e eda0 7d3d 7c76 f6bc
000000d0: eb7f 40be d986 2dbe 99b3 25be 9d4b 10be
000000e0: caa3 f33d 9000 3ebe 06ec 4c3c 4d5b 393e
000000f0: 3e91 6ebd 85d5 863e 569e 4f3d eed3 08bd
00000100: b282 f13d 0a23 31bc f717 4d3e 0b14 6cbd
00000110: 6eb5 c03d 6a82 783d 3b30 1ebe 8411 37be
00000120: 568c 1a3d aac8 77be 24a5 af3e 45f6 5f3d
00000130: 5f58 59bd 7baf 24be e95c c23d 79cc 0e3d
00000140: 87ea f0bb 8bf4 313e acda 5d3d 0bb8 abbe
00000150: bb2b a13d 15d5 89bd cf28 a5bd 1b5e 57be
00000160: 3b53 51be d984 d6bd 569c 333d 6b95 403d
00000170: 20e4 83be 7a0a 853e c45e dcbc 41d2 ebbd
00000180: 0724 8c3e 0d8e 7d3e 5a64 ba3b 8ad0 11be
00000190: 1204 12bd 4765 98be 7f09 9dbc 4a41 18be
000001a0: 60f3 6bbd 6e33 80bd 6e4f 2dbe 46ef d8bc
000001b0: 91ab 4f3d d055 f5bd 70a1 063d fc0f 03bd
000001c0: f2b3 45be 363f 04bd e344 e93d 892d 92bc
000001d0: 999c 453c e17f 0f3e 69b9 983d 22fa 123e
000001e0: f376 cbbd 2fa6 2fbe bdc8 663d 71f1 03be
000001f0: bb89 c0bc f71f f03b acc9 eabc 09b0 873e
00000200: 5d0a 0bbe ac6f 6f3d 3497 903e 5da4 f2bc
00000210: e5e6 eebd 5a48 c0be 9869 07be f88c 9abd
00000220: c4ac 8dbe 4398 263e dd5d fabd 32b6 a73d
00000230: 551b 84bd 232f 563d 933f c13c edd5 a03c
00000240: 1683 4abc 2e12 7dbe 4fbe 113e a682 f5bd
00000250: c875 173e 2d2c 8a3e a39b 223d 36d1 b53e
00000260: 0f59 bfbe abb5 68be 516e 2e3e eaa3 a1bd
00000270: b7ec 5dbd 52e1 bcbe eae6 d73d 63e8 bd3e
00000280: 14a7 46be e702 903d 39a5 de3d e505 e93d
00000290: 3faa 7f3e ec1e b43e 0028 fbbc ef51 a43c
000002a0: 607b 09bd 969c 40be 906f fc3d bf84 eebe
000002b0: 066f 6fbd 2aa1 0d3d 0941 c5be 9afe d9bc
000002c0: a1ef d43d d099 173e 4433 f3bd 18ac d5bc
000002d0: 9c39 6cbe f5d2 c7bd 9ada 74be 077b 9abe
000002e0: eca8 2d3e 8fc1 f2bd 0a72 af3d 7fa5 67be
000002f0: 9753 1a3d 20d5 4dbe 1906 8d3c 8a99 a4bd
00000300: f741 ed3b e558 e23c bd8f da3d 7142 0a3e
00000310: 4ce4 cc3c a065 983e 3f2c cd3c d778 163e
00000320: e417 89bd 5fc0 9abd 5799 623e 750b a43e
00000330: 9c09 d53d b9c0 8dbc 0ebf 39be aeda b33e
00000340: f404 00bd 58e9 453e 45d9 873e 8b03 ed3d
00000350: 53b0 1ebe a66a a03d ec9f ae3e 6f80 01be
00000360: 93d7 bbbd 9871 f4bc 9898 a03d 4628 793e
00000370: 345a 8fbe 46b9 0e3d 9c40 8c3d f877 fcbb
00000380: 23d3 1dbe 7aab 383d 1add 2f3d 09e5 1c3e
00000390: 50e8 593e 3abd d4bc a81a 803b 9133 36be
000003a0: 173e 273e a4df 623d 5db6 efbd 4c9d 0c3e
000003b0: a9ea 803e ecb7 d63c 3f6a ef3d 4098 763d
000003c0: af8a 11be 5262 063e 0480 1dbe 9a40 4a3b
000003d0: f247 e0bc 3187 5d3d b6bb 8abd 3a5b b7bd
000003e0: ab00 963d 525e 2e3e 8e44 3d3d 6e49 2f3e
000003f0: d735 89bb 6930 a83d e500 133e 3e6e 86bc

network_body._body_endoder.seq_layers.4.bias f4 [128]
-0.12865578 -0.08234222 -0.0313175 0.025226982 -0.06259528 -0.055179983 -0.046927318 0.019950483
-0.07297842 0.07212487 -0.04784929 -0.10479265 -0.050325062 -0.04680963 -0.028543392 -0.114097856
-0.16232386 -0.06450758 -0.18247782 -0.043971673 0.08231348 0.0067144344 0.0240666 -0.026554622
-0.08226415 -0.061644517 0.009505311 -0.06112997 -0.08190752 -0.0132162785 -0.035764202 -0.12171797
-0.04592925 0.0026237203 0.032343797 0.07563398 -0.112626724 -0.011456193 -0.067948036 -0.009146819
0.047541004 -0.015815029 -0.043100122 -0.068429485 0.0070187836 0.053740807 0.014493396 -0.014302657
-0.015280519 0.048318435 -0.058968138 -0.0009810699 -0.09278947 0.03300186 -0.09697626 -0.09326787
-0.04959268 -0.01421957 -0.0744205 -0.021167554 -0.09914886 -0.02976543 -0.112426065 -0.060024593
0.027784973 0.027012285 -0.021033002 0.030145701 -0.15028292 -0.019878674 -0.07094701 -0.06126825
-0.101189196 -0.05643662 0.0020265977 -0.0019728418 -0.005470876 -0.0003488414 -0.04205788 0.05763543
-0.05399026 -0.014444399 0.0790865 -0.06298669 0.009162062 0.028412843 -0.060373936 -0.039441697
-0.033448953 -0.120178334 0.04033167 -0.042315647 -0.091691084 -0.009891122 -0.13714132 0.03534145
-0.030628705 0.0097284885 0.08898592 -0.0002027148 0.039569605 -0.04576558 -0.0018748217 -0.15235984
-0.026236637 0.025704619 0.046883587 -0.075513266 -0.035911333 -0.1146764 -0.017676802 -0.0038051663
-0.08883198 -0.018595664 -0.018540002 -0.035235073 -0.07315695 -0.11599848 -0.07963735 -0.05159013
-0.09962233 0.027617607 -0.07099573 -0.015747176 0.0023449438 -0.10368257 -0.07601515 -0.10459122
00000000: 57be 03be 0aa3 a8bd c746 00bd d1a8 ce3c
00000010: f431 80bd 6804 62bd dc36 40bd 326f a33c
00000020: b675 95bd 34b6 933d 9efd 43bd 879d d6bd
00000030: a721 4ebd 74bb 3fbd d5d3 e9bc 23ac e9bd
00000040: 3a38 26be 8d1c 84bd 77db 3abe a41b 34bd
00000050: f893 a83d c204 dc3b 5127 c53c 1489 d9bc
00000060: 1b7a a8bd f67e 7cbd 2abc 1b3c 6b63 7abd
00000070: 21bf a7bd 1789 58bc 7c7d 12bd 4547 f9bd
00000080: 4f20 3cbd b9f2 2b3b ee7a 043d fde5 9a3d
00000090: d7a8 e6bd c2b2 3bbc 5728 8bbd 8adc 15bc
000000a0: 5bba 423d 858e 81bc c189 30bd c224 8cbd
000000b0: d3fd e53b 521f 5c3d b575 6d3c b155 6abc
000000c0: 245b 7abc 8de9 453d 9388 71bd 3e97 80ba
000000d0: 6808 bebd f52c 073d 7d9b c6bd 3a03 bfbd
000000e0: b221 4bbd 33f9 68bc c669 98bd 9467 adbc
000000f0: 8f0e cbbd a2d6 f3bc a33f e6bd 59dc 75bd
00000100: 509d e33c de48 dd3c 674d acbc 1ef4 f63c
00000110: c4e3 19be 9ad8 a2bc aa4c 91bd 6bf4 7abd
00000120: 483c cfbd 162a 67bd abd0 043b cb4a 01bb
00000130: 0945 b3bb b3e4 b6b9 e244 2cbd 2113 6c3d
00000140: e424 5dbd 33a8 6cbc 1af8 a13d 2aff 80bd
00000150: 791c 163c 0dc2 e83c a94a 77bd 9e8d 21bd
00000160: c501 09bd 0f20 f6bd d232 253d 2c53 2dbd
00000170: 89c8 bbbd 5f0e 22bc c66e 0cbe 32c2 103d
00000180: 0de9 fabc 3d64 1f3c 403e b63d d78f 54b9
00000190: bd13 223d b074 3bbd 94bc f5ba 3804 1cbe
000001a0: 37ee d6bc 7e92 d23c 0109 403d b3a6 9abd
000001b0: c317 13bd 76db eabd f1ce 90bc 1960 79bb
000001c0: 8bed b5bd ef55 98bc 34e1 97bc a752 10bd
000001d0: 50d3 95bd 9c90 edbd e818 a3bd 2c50 53bd
000001e0: cb06 ccbd 523e e23c 3666 91bd 3900 81bc
000001f0: a1ad 193b 8757 d4bd d5ad 9bbd ec33 d6bd

action_model._continuous_distribution.log_sigma f4 [1, 2]
-1.8063186 -1.3395361
00000000: 7335 e7bf eb75 abbf

action_model._continuous_distribution.mu.weight f4 [2, 128]
0.039758302 -0.20811135 0.005796342 -0.07490321 -0.05184765 -0.11182458 -0.059860595 -0.0629954
-0.007918132 -0.0005146032 0.024417592 -0.06911309 -0.12751302 0.043615196 -0.013157523 -0.025627254
-0.063585915 0.018298563 -0.10479906 -0.07896985 -0.009783432 0.041785084 -0.06686949 -0.028945204
0.06569092 0.052180275 0.11744429 -0.011991027 0.12085036 -0.12961143 0.00031699782 0.029303903
0.019013058 -0.03905637 -0.11422445 -0.019492712 0.07082487 -0.05172558 0.111793555 0.040596735
0.074121356 0.05204736 0.094892494 -0.046249863 -0.1357098 0.004157619 -0.10598492 0.06925652
0.006568693 0.13260294 0.09340703 0.06114748 0.02685399 -0.051431127 -0.09281486 0.083276436
-0.007509644 -0.054228567 -0.040347576 -0.05793671 -0.21484022 0.06500757 -0.10382055 -0.03039122
0.051767047 0.13944532 0.016443564 0.12302519 0.024606934 0.04799404 -0.01773927 0.00071414956
0.06300329 0.05555973 -0.04561782 -0.06807756 -0.080794215 0.09899301 -0.24630381 0.18976265
0.055032104 -0.047938876 -0.12714309 -0.03756569 0.015712047 -0.120824486 -0.035098247 -0.016937941
-0.14010404 -0.22796927 0.08756722 0.03843471 -0.015446849 0.03474956 -0.036781818 -0.06550371
0.08399009 -0.08346777 0.02430387 -0.037289936 0.15470192 0.09768351 -0.11944684 0.07805106
-0.005006718 0.1100822 0.013612046 -0.06167191 -0.026858656 0.03741381 0.08424863 0.0692208
-0.06573734 0.014455069 0.02062272 0.17384905 0.109094135 0.07663791 0.0008700377 0.018287785
0.016559238 -0.08022381 0.016917568 0.10616056 0.12394904 -0.029840486 0.20915581 -0.029649675
-0.085162014 0.014297254 -0.17218207 -0.22385125 -0.07122318 -0.17971104 0.020412749 -0.2729853
-0.24086349 0.07707518 0.12502657 -0.040187776 -0.069466166 0.018135188 -0.08792284 0.40263075
-0.044823315 -0.26987112 -0.060277045 -0.030663554 0.15969971 0.07120984 -0.1992461 -0.1274141
0.0011975945 0.04441024 -0.008534915 0.10724569 0.12582849 -0.050560765 -0.07801494 -0.050525643
-0.12913254 -0.15682007 0.08950111 0.08861135 0.048938334 -0.04652235 -0.027559081 -0.09717849
0.111745685 0.29645514 -0.041130804 -0.22590281 -0.031066563 0.060655866 -0.014808401 -0.0519069
-0.081009485 0.0035753862 0.037969477 -0.07741378 -0.055542704 -0.13373913 -0.2101947 0.007893461
-0.141007 -0.1088964 -0.047074057 -0.07593886 -0.04640883 -0.1387163 -0.006699916 -0.11591601
0.055825498 -0.08245506 -0.15164502 0.13336276 -0.03558176 -0.17099714 0.06997038 -0.20208931
0.035921697 -0.04092756 -0.05201357 0.0852194 -0.14235137 -0.0059668925 -0.087159745 0.12925561
-0.0043385755 -0.030099992 -0.19648965 -0.14980741 0.061120417 -0.07810834 -0.08025755 -0.12920955
-0.05433421 -0.032636464 0.028911702 -0.041172195 -0.033337977 -0.1008454 -0.09678445 -0.09128059
-0.13273665 0.013827846 0.122616276 0.11725327 -0.054149114 -0.08098534 -0.09804575 -0.06536693
-0.08621766 -0.32075727 0.08204924 -0.060255658 -0.106266536 -0.16142584 -0.116535366 0.015258537
-0.06471624 0.1976899 0.034500867 -0.1154894 -0.073262334 -0.038863845 0.0907005 -0.10916444
-0.099809326 0.1193821 0.029393692 0.0150506 0.030956088 0.095090434 -0.004880099 0.012029571
00000000: 9ad9 223d 241b 55be 3eef bd3b db66 99bd
00000010: 345e 54bd 4904 e5bd 6230 75bd bb03 81bd
00000020: 0dbb 01bc 70e6 06ba 6707 c83c 2a8b 8dbd
00000030: c692 02be d9a5 323d a792 57bc 3ff0 d1bc
00000040: 5539 82bd dee6 953c e4a0 d6bd f2ba a1bd
00000050: b04a 20bc d626 2b3d dff2 88bd 7e1e edbc
00000060: f688 863d fcba 553d a286 f03d 0376 44bc
00000070: 6580 f73d dcb8 04be ba32 a639 bd0e f03c
00000080: 46c1 9b3c 92f9 1fbd 82ee e9bd 2eaf 9fbc
00000090: a10c 913d 34de 53bd 05f4 e43d c348 263d
000000a0: f0cc 973d 9d2f 553d ff56 c23d 7f70 3dbd
000000b0: 83f7 0abe a33c 883b 9f0e d9bd 5dd6 8d3d
000000c0: 313e d73b 11c9 073e 2f4c bf3d c875 7a3d
000000d0: e6fc db3c 72a9 52bd b815 bebd d68c aa3d
000000e0: 7613 f6bb c61e 5ebd 8043 25bd 0b4f 6dbd
000000f0: 13ff 5bbe b022 853d de9f d4bd 02f7 f8bc
00000100: af09 543d c1ca 0e3e a7b4 863c a1f4 fb3d
00000110: 7b94 c93c 6695 443d f251 91bc c435 3b3a
00000120: de07 813d 9992 633d c0d9 3abd 3f6c 8bbd
00000130: 7077 a5bd d9bc ca3d 1137 7cbe 2451 423e
00000140: 5869 613d 8e5b 44bd cc31 02be 7bde 19bd
00000150: 8db6 803c d472 f7bd 2ec3 0fbd 70c1 8abc
00000160: 6f77 0fbe c770 69be 7156 b33d b76d 1d3d
00000170: c814 7dbc 8e55 0e3d 88a8 16bd cf26 86bd
00000180: ff02 ac3d 26f1 aabd e918 c73c 55bd 18bd
00000190: 2e6a 1e3e 4b0e c83d 8ba0 f4bd 3cd9 9f3d
000001a0: 650f a4bb c772 e13d 0f05 5f3c af9b 7cbd
000001b0: af06 dcbc 393f 193d 8c8a ac3d a3c3 8d3d
000001c0: 4ca1 86bd f4d4 6c3c faf0 a83c 7c05 323e
000001d0: bf6c df3d 56f4 9c3d 3e13 643a 44d0 953c
000001e0: 3da7 873c 624c a4bd b696 8a3c b56a d93d
000001f0: ffd8 fd3d 0974 f4bc f12c 563e e0e3 f2bc
00000200: 6c69 aebd 083f 6a3c 7f50 30be 4339 65be
00000210: 75dd 91bd 2c06 38be a338 a73c bbc4 8bbe
00000220: eba4 76be 98d9 9d3d f706 003e f09b 24bd
00000230: 4744 8ebd 3f90 943c e410 b4bd 9e25 ce3e
00000240: a798 37bd 8c2c 8abe 10e5 76bd 2232 fbbc
00000250: 5288 233e 77d6 913d 2b07 4cbe d878 02be
00000260: 9af8 9c3a 83e7 353d 07d6 0bbc a1a3 db3d
00000270: 2fd9 003e ce18 4fbd 4cc6 9fbd faf3 4ebd
00000280: 523b 04be 7195 20be 5c4c b73d de79 b53d
00000290: 9073 483d 388e 3ebd 95c3 e1bc 8405 c7bd
000002a0: ecda e43d f8c8 973e c678 28bd 1153 67be
000002b0: 4e7f febc 4972 783d f09e 72bc 549c 54bd
000002c0: 4de8 a5bd 0751 6a3b e285 1b3d 1e8b 9ebd
000002d0: bf80 63bd e9f2 08be 483d 57be 9353 013c
000002e0: 2464 10be 1305 dfbd bad0 40bd d585 9bbd
000002f0: 2f17 3ebd a50b 0ebe f88a dbbb 6065 edbd
00000300: 47a9 643d 33de a8bd d548 1bbe 3f90 083e
00000310: 2ebe 11bd e019 2fbe a14c 8f3d 80f0 4ebe
00000320: a122 133d a8a3 27bd 2e0c 55bd 8287 ae3d
00000330: 8fc4 11be ec85 c3bb cf80 b2bd 955b 043e
00000340: 9c2a 8ebb 4294 f6bc 9534 49be 1d67 19be
00000350: 6759 7a3d 44f7 9fbd 125e a4bd 824f 04be
00000360: 8c8d 5ebd d0ad 05bd 3cd8 ec3c 2da4 28bd
00000370: 678d 08bd 0888 cebd ed36 c6bd 51f1 babd
00000380: 1eec 07be 318e 623c 3e1e fb3d 7b22 f03d
00000390: 76cb 5dbd a4db a5bd 36cc c8bd 19df 85bd
000003a0: e292 b0bd 4c3a a4be 6f09 a83d a3ce 76bd
000003b0: 45a2 d9bd d14c 25be 18aa eebd f1fe 793c
000003c0: f389 84bd 396f 4a3e c850 0d3d b585 ecbd
000003d0: 900a 96bd b22f 1fbd 2fc1 b93d 9b91 dfbd
000003e0: d568 ccbd 9a7e f43d 0acb f03c cb96 763c
000003f0: 9f97 fd3c c6be c23d 3de9 9fbb ae17 453c

action_model._continuous_distribution.mu.bias f4 [2]
0.016858118 0.13126634
00000000: 091a 8a3c af6a 063e

exp_avg f4 [128, 8]
0.033346675 0.0012021154 -0.0053373915 0.04800678 0.0012018087 -0.03799359 0.000260852 0.0065518823
0.037132006 0.0013385726 -0.0059432625 0.068565436 0.0013390592 -0.048048925 -0.0025120657 0.015965138
0.0256479 0.0009245822 -0.0041051456 0.028180353 0.00092512625 -0.031494346 0.00017972023 0.007463696
0.03678103 0.0013259202 -0.0058870865 0.058145102 0.0013261836 -0.04928491 -0.00044763816 0.013655423
-0.002291233 -8.259669e-05 0.00036672936 -0.003602046 -8.26274e-05 0.0019550046 0.00063966785 -0.00085642555
-0.045509934 -0.0016405889 0.0072842147 -0.07338773 -0.0016401164 0.053985726 0.0026427074 -0.0145638855
-0.011792447 -0.00042510632 0.0018874726 -0.012280006 -0.0004250978 0.024053909 -0.0036910945 -0.0007458806
-0.02672653 -0.00096346554 0.0042777886 -0.043804463 -0.0009627858 0.03608925 0.00055666035 -0.0082033295
0.027133215 0.0009781261 -0.0043428796 0.042955503 0.000978006 -0.032997545 -9.3603834e-05 0.009158145
-0.0008848299 -3.189726e-05 0.00014162381 -0.001056269 -3.188758e-05 0.0005362698 0.00013765918 -0.00027835835
0.06866478 0.0024752985 -0.010990324 0.10555335 0.0024753176 -0.09306006 -0.0012435587 0.029189117
-0.016071815 -0.00057937315 0.0025724168 -0.010532655 -0.0005800475 0.027254686 -0.0007745551 -0.0069665345
-0.042576134 -0.0015348283 0.0068146377 -0.05878723 -0.001534321 0.058414467 0.00016263082 -0.01680778
0.0005937853 2.1405376e-05 -9.5039904e-05 0.00016477965 2.1405269e-05 -0.0006448113 -1.8593344e-05 -7.662684e-06
0.006430213 0.00023180299 -0.0010292047 0.002069364 0.00023172543 -0.0065177665 -0.00071459037 0.003527606
0.087552845 0.0031561945 -0.0140135065 0.13652563 0.0031565763 -0.11222392 -0.0025888502 0.032126788
-0.00027750482 -1.0003777e-05 4.4416745e-05 -0.00017140023 -1.0026857e-05 0.00035300045 1.7363554e-05 -3.6117835e-05
-0.04039253 -0.0014561119 0.0064651356 -0.066816054 -0.0014551012 0.057414655 -0.0007368179 -0.01361474
0.003318938 0.0001196445 -0.00053122157 0.004026499 0.00011962356 -0.004565165 0.00040969462 0.00045755185
0.07091309 0.002556348 -0.011350184 0.096539535 0.0025565815 -0.100834 -0.00030401966 0.025949663
0.015240891 0.0005494194 -0.0024394216 0.024168056 0.0005493459 -0.003756955 -0.0033457302 0.00032554378
-0.0017451671 -6.2911575e-05 0.00027932742 -0.0025671273 -6.291186e-05 0.0016935716 0.0001735407 -0.0006049328
0.012534771 0.00045186633 -0.002006286 0.018562576 0.0004508415 -0.023639305 0.001503387 -0.00087239454
-0.025351305 -0.0009138898 0.0040576705 -0.04852419 -0.00091396517 0.02397913 0.004307132 -0.008462063
0.02054058 0.00074046786 -0.0032876763 0.036355503 0.0007404808 -0.015459751 -0.0025430357 0.0071111065
-0.0009045419 -3.260787e-05 0.00014477853 -0.0028766615 -3.2573284e-05 0.0021394296 0.00039525164 5.561839e-05
0.036700018 0.0013229995 -0.0058741192 0.040764313 0.0013235137 -0.050928652 0.0021400235 0.0076752403
0.0025600956 9.228927e-05 -0.0004097631 -0.00016709024 9.30223e-05 -0.0023015086 -0.0008856685 0.0033545094
0.024496814 0.0008830861 -0.0039209025 0.029489554 0.0008830677 -0.029613003 -0.0014323471 0.0076559847
0.0370069 0.0013340625 -0.005923239 0.06295761 0.0013332303 -0.031616423 -0.0041591176 0.012839727
0.022105163 0.0007968694 -0.0035381 0.02948325 0.00079704303 -0.041423697 0.0027856848 0.0059060226
0.0033101293 0.00011932685 -0.00052981125 0.0131193595 0.00011939856 0.0028284541 -0.0030397526 0.0043376144
00000000: 8696 083d 4d90 9d3a 49e5 aebb c2a2 443d
00000010: 0286 9d3a 2b9f 1bbd f6c2 8839 2cb1 d63b
00000020: bb17 183d 0b73 af3a b3bf c2bb 096c 8c3d
00000030: 5f83 af3a f3ce 44bd 78a1 24bb 52c9 823c
00000040: 8b1b d23c a95f 723a 7584 86bb 7cda e63c
00000050: 2c84 723a 3700 01bd 4873 3c39 0592 f43b
00000060: b5a7 163d 80ca ad3a 76e8 c0bb 8f29 6e3d
00000070: 56d3 ad3a f9de 49bd fab0 eab9 ffba 5f3c
00000080: 8328 16bb c337 adb8 9545 c039 4e10 6cbb
00000090: 3f48 adb8 891f 003b 62af 273a bf81 60ba
000000a0: a068 3abd 0709 d7ba 6cb0 ee3b 4e4c 96bd
000000b0: 2df9 d6ba 2320 5d3d 4631 2d3b 5d9d 6ebc
000000c0: 1c35 41bc cee0 deb9 1265 f73a 1432 49bc
000000d0: a9df deb9 b40c c53c 4ae6 71bb 3387 43ba
000000e0: 99f1 dabc 1491 7cba b12c 8c3b 4f6c 33bd
000000f0: 7663 7cba 52d2 133d d8ec 113a 4267 06bc
00000100: 7a46 de3c 7734 803a b74e 8ebb 1cf2 2f3d
00000110: 7030 803a 6f28 07bd 2d4d c4b8 0b0c 163c
00000120: eef3 67ba 6cc9 05b8 da80 1439 8272 8aba
00000130: 07bf 05b8 7594 0c3a 9b58 1039 a0f0 91b9
00000140: 1fa0 8c3d 9e38 223b c310 34bc 5b2c d83d
00000150: f038 223b 4696 bebd e8fe a2ba 041e ef3c
00000160: 0aa9 83bc 13e1 17ba fe95 283b 2891 2cbc
00000170: 540e 18ba 3845 df3c 830b 4bba 8747 e4bb
00000180: 5064 2ebd 4b2c c9ba 534d df3b e1ca 70bd
00000190: 451b c9ba 0244 6f3d e187 2a39 78b0 89bc
000001a0: 42a8 1b3a b28f b337 2950 c7b8 b3c8 2c39
000001b0: 778f b337 8e08 29ba e7f8 9bb7 fa8e 00b7
000001c0: 89b4 d23b 2410 7339 61e6 86ba 2b9e 073b
000001d0: 52fb 7239 fd92 d5bb 5953 3bba 682f 673b
000001e0: e84e b33d 28d8 4e3b e898 65bc 60cd 0b3e
000001f0: 90de 4e3b a8d5 e5bd b3a9 29bb 6197 033d
00000200: 117e 91b9 e5d5 27b7 1e4c 3a38 e6b9 33b9
00000210: 0639 28b7 eb12 b939 f3a7 9137 3b7d 17b8
00000220: a372 25bd 02db beba 7dd9 d33b dbd6 88bd
00000230: 18b9 beba a12b 6b3d 0327 41ba 5c10 5fbc
00000240: 8a82 593b a7e9 fa38 ad41 0bba b9f0 833b
00000250: 69de fa38 6197 95bb 48cc d639 92e3 ef39
00000260: e23a 913d 6788 273b 1ff6 39bc 85b6 c53d
00000270: 528c 273b 0e82 cebd d464 9fb9 6394 d43c
00000280: eeb4 793c e906 103a b4de 1fbb 16fc c53c
00000290: fb01 103a 3f37 76bb 0a44 5bbb bfad aa39
000002a0: 17be e4ba 65ef 83b8 b172 9239 403d 28bb
000002b0: 8cef 83b8 d5fa dd3a 7af8 3539 5a94 1eba
000002c0: a45e 4d3c 79e8 ec39 e57b 03bb 8b10 983c
000002d0: ec5e ec39 37a7 c1bc 4c0d c53a 68b1 64ba
000002e0: 8aad cfbc 1b92 6fba 35f6 843b 4dc1 46bd
000002f0: 2a97 6fba e16f c43c d822 8d3b 77a4 0abc
00000300: b844 a83c f51b 423a 0e76 57bb 82e9 143d
00000310: d31c 423a e54a 7dbc 0fa9 26bb 4904 e93b
00000320: c81e 6dba 6fc4 08b8 b1cf 1739 5f86 3cbb
00000330: 4c9f 08b8 ac35 0c3b c739 cf39 cb47 6938
00000340: c252 163d 7f68 ad3a af7b c0bb 7bf8 263d
00000350: c079 ad3a 909a 50bd a33f 0c3b 9580 fb3b
00000360: 47c7 273b 6d8b c138 79d5 d6b9 f234 2fb9
00000370: f814 c338 e8d4 16bb 352c 68ba 54d7 5b3b
00000380: 8bad c83c e87e 673a ea7a 80bb 1494 f13c
00000390: ac7d 673a f896 f2bc 98bd bbba 0edf fa3b
000003a0: 8c94 173d b6db ae3a bb17 c2bb ebef 803d
000003b0: c9bf ae3a 3980 01bd 3549 88bb b85d 523c
000003c0: e315 b53c 00e5 503a 78df 67bb db86 f13c
000003d0: a7f0 503a e5ab 29bd 0990 363b 4f87 c13b
000003e0: c1ee 583b 1d3f fa38 08e3 0aba 95f2 563c
000003f0: 9d65 fa38 965d 393b 9636 47bb 8c22 8e3b

exp_avg_sq f4 [128, 8]
0.04631317 6.018542e-05 0.001186473 0.06759878 6.0187132e-05 0.06805588 0.00048991793 0.0031816748
0.02131292 2.7696828e-05 0.0005460038 0.04451611 2.7697704e-05 0.03039961 0.0003257771 0.0026228796
0.09424962 0.00012248044 0.002414533 0.21813707 0.00012248805 0.1189886 0.0016912305 0.019281302
0.009050795 1.1761778e-05 0.00023186715 0.017124481 1.1762759e-05 0.0108659845 0.00013184585 0.0015092493
0.00020057165 2.6064947e-07 5.1383345e-06 0.00041490566 2.6068275e-07 0.00027833515 5.031195e-06 9.693752e-06
0.017407922 2.2622153e-05 0.00044596448 0.039874535 2.263e-05 0.013259526 0.000570698 0.0016837138
0.025925042 3.3690387e-05 0.00066416006 0.0210364 3.369043e-05 0.047322307 0.00010977898 0.00048537343
0.05252982 6.826415e-05 0.0013457326 0.12332992 6.8279565e-05 0.037068073 0.0014599425 0.0043215174
0.011198562 1.4552871e-05 0.0002868891 0.01941273 1.4553159e-05 0.014207391 0.00018258087 0.0010518328
1.9967096e-05 2.5947903e-08 5.1152676e-07 1.96724e-05 2.5949225e-08 1.1456481e-05 2.5251882e-07 6.395945e-06
0.041710228 5.4203745e-05 0.0010685513 0.09290291 5.420376e-05 0.073068395 0.0003826973 0.007976482
0.04048015 5.2605203e-05 0.0010370384 0.08407145 5.261487e-05 0.044321395 0.0009982252 0.0043204897
0.02498649 3.2470736e-05 0.000640114 0.043234494 3.2475185e-05 0.032858677 0.00030559784 0.0024335843
0.000553364 7.191121e-07 1.41762675e-05 4.7582478e-05 7.1911245e-07 0.00078545196 1.4106135e-07 4.983813e-08
0.009067092 1.1782987e-05 0.00023228486 0.019824952 1.17836025e-05 0.011968556 0.00020325604 0.0012083682
0.05632745 7.3199386e-05 0.0014430231 0.13048746 7.320674e-05 0.062433 0.0010867798 0.0053247837
5.2721673e-05 6.851338e-08 1.3506448e-06 2.5947049e-05 6.8518865e-08 6.2803694e-05 5.457202e-07 1.844282e-07
0.07588491 9.86149e-05 0.0019440553 0.19270541 9.8636636e-05 0.072211474 0.0019198203 0.012961064
0.014123785 1.8354312e-05 0.000361829 0.0046643093 1.8354325e-05 0.019244118 2.5863053e-05 0.001274523
0.036604516 4.7568727e-05 0.0009377516 0.08357809 4.7570775e-05 0.05284847 0.00057266233 0.0048447344
0.0035997469 4.677988e-06 9.222002e-05 0.008798524 4.678257e-06 0.00048158577 0.00015019177 1.44389915e-05
0.00095421344 1.2400304e-06 2.4445466e-05 0.0006813612 1.2400259e-06 0.0005988802 2.726873e-06 0.00044586224
0.10868501 0.00014123968 0.0027843371 0.2558583 0.0001412622 0.104764484 0.0023815413 0.017550277
0.017726824 2.303658e-05 0.0004541341 0.026990466 2.3037523e-05 0.02138888 0.0002762298 0.0012578947
0.022061016 2.8668996e-05 0.00056516955 0.051456586 2.8671615e-05 0.013375805 0.0006324934 0.0012407295
0.0024715492 3.2118598e-06 6.331731e-05 0.0047556 3.211851e-06 0.0021909245 2.9646906e-05 0.0009958153
0.023273045 3.0244073e-05 0.00059621944 0.032627076 3.0245816e-05 0.0362217 0.00033480028 0.0026079002
0.027838303 3.6176785e-05 0.0007131748 0.05627711 3.6182435e-05 0.031055396 0.00045647565 0.0023019589
0.010715229 1.3924799e-05 0.0002745079 0.020646561 1.3924779e-05 0.021114582 6.4749125e-05 0.0009644808
0.023168284 3.0107944e-05 0.0005935361 0.055090655 3.0113648e-05 0.015399214 0.0006291164 0.0016739112
0.021950556 2.852544e-05 0.00056233874 0.055246 2.8525443e-05 0.027804593 0.00040031152 0.005712019
0.03769545 4.8986563e-05 0.0009657006 0.08654324 4.8990525e-05 0.04537852 0.000725112 0.0042470917
00000000: e1b2 3d3d 9a6f 7c38 6d83 9b3a 3b71 8a3d
00000010: 7171 7c38 e260 8b3d d66d 003a a583 503b
00000020: 6f98 ae3c 7c56 e837 b221 0f3a 8656 363d
00000030: 5e58 e837 9a08 f93c 10cd aa39 9ee4 2b3b
00000040: f205 c13d 186e 0039 243d 1e3b 535f 5f3e
00000050: 2370 0039 4cb0 f33d 47ac dd3a d2f3 9d3c
00000060: c949 143c 7454 4537 5d21 7339 a448 8c3c
00000070: aa58 4537 3e07 323c 1a40 0a39 01d2 c53a
00000080: 8b50 5239 64ef 8b34 f569 ac36 b287 d939
00000090: f7f3 8b34 83ed 9139 a3d1 a836 59a2 2237
000000a0: 0f9b 8e3c b4c4 bd37 57d0 e939 7b53 233d
000000b0: 8ed5 bd37 7c3e 593c e59a 153a 0fb0 dc3a
000000c0: c160 d43c c74e 0d38 071b 2e3a 8754 ac3c
000000d0: d34e 0d38 09d5 413d 2439 e638 b879 fe39
000000e0: 8229 573d 0929 8f38 4b63 b03a 6694 fc3d
000000f0: 5031 8f38 b1d4 173d 8b5b bf3a 849b 8d3b
00000100: 2c7a 373c 1b28 7437 9a69 9639 7207 9f3c
00000110: 5829 7437 1ec6 683c 2e73 3f39 a7dd 893a
00000120: 037f a737 0be4 de32 da4f 0935 2806 a537
00000130: f3e6 de32 3635 4037 ec91 8734 c09c d636
00000140: 58d8 2a3d d458 6338 a20e 8c3a e243 be3d
00000150: d858 6338 e2a4 953d c3a4 c839 caaf 023c
00000160: 84ce 253d 68a4 5c38 3ced 873a a72d ac3d
00000170: c9ae 5c38 5a8a 353d e1d6 823a e592 8d3b
00000180: 78b0 cc3c 3031 0838 53cd 273a a716 313d
00000190: f735 0838 d296 063d a638 a039 c57c 1f3b
000001a0: a10f 113a 0209 4135 9bd6 6d37 4c93 4738
000001b0: 0809 4135 cae6 4d3a a676 1734 9a0d 5633
000001c0: 248e 143c 8baf 4537 7e91 7339 f067 a23c
000001d0: 30b2 4537 c317 443c 2121 5539 1c62 9e3a
000001e0: 9db7 663d 9f82 9938 d223 bd3a 819e 053e
000001f0: 9286 9938 bfb9 7f3d 4772 8e3a 867b ae3b
00000200: 7721 5d38 a121 9333 cd47 b535 dda8 d937
00000210: a524 9333 7ab5 8338 9b7d 1235 3d07 4634
00000220: 8c69 9b3d 79cf ce38 accf fe3a 9154 453e
00000230: 24db ce38 9ce3 933d 7ba2 fb3a a55a 543c
00000240: 7367 673c 96f7 9937 deb3 bd39 10d7 983b
00000250: 9df7 9937 d7a5 9d3c 7cf4 d837 e50d a73a
00000260: 9eee 153d 8884 4738 72d3 753a fd2a ab3d
00000270: bb86 4738 a377 583d b81e 163a 94c0 9e3b
00000280: bbe9 6b3b 9cf7 9c36 3f66 c138 af27 103c
00000290: ecf9 9c36 597d fc39 cc7c 1d39 ff3e 7237
000002a0: 2e24 7a3a 1f6f a635 3d10 cd37 609d 323a
000002b0: f76e a635 2bfe 1c3a 52ff 3636 9ec2 e939
000002c0: 3f96 de3d bd19 1439 6d79 363b dcff 823e
000002d0: c81f 1439 c38e d63d a213 1c3b 99c5 8f3c
000002e0: d837 913c ae3e c137 d918 ee39 1c1b dd3c
000002f0: b440 c137 bc37 af3c f0d2 9039 f1df a43a
00000300: 4eb9 b43c 337e f037 e327 143a 24c4 523d
00000310: d383 f037 3126 5b3c eacd 253a f99f a23a
00000320: b7f9 213b 558b 5736 39c9 8438 ddd4 9b3b
00000330: 2e8b 5736 9d95 0f3b 3fb2 f837 0486 823a
00000340: 1da7 be3c a7b4 fd37 9c4b 1c3a f8a3 053d
00000350: 65b8 fd37 355d 143d 2288 af39 4ee9 2a3b
00000360: 270d e43c 87bc 1738 5af4 3a3a d482 663d
00000370: 98c2 1738 e367 fe3c 2053 ef39 76dc 163b
00000380: ee8e 2f3c 8e9e 6937 d4eb 8f39 fa22 a93c
00000390: 789e 6937 7df8 ac3c ecc9 8738 36d5 7c3a
000003a0: 6acb bd3c 5190 fc37 8997 1b3a bda6 613d
000003b0: 919c fc37 fc4c 7c3c 49eb 243a 2467 db3a
000003c0: a7d1 b33c ea49 ef37 ea69 133a a149 623d
000003d0: ec49 ef37 75c6 e33c e7e0 d139 e32b bb3b
000003e0: 8b66 1a3d ec76 4d38 1227 7d3a 953d b13d
000003f0: 2d7b 4d38 d4de 393d 7115 3e3a 302b 8b3b
