mlagents/Assets/results/testdia2spawnpoints/RollerBall/RollerBall-546177.onnx (onnx, 139880 bytes, 9 tensors)

action_model._continuous_distribution.log_sigma f4 [1, 2]
0	0xbfebbc95	-1.8416926
1	0xbfac6fae	-1.3471582

action_model._continuous_distribution.mu.bias f4 [2]
0	0x3c91f202	0.017815594
1	0x3e06ae7f	0.13152502

action_model._continuous_distribution.mu.weight f4 [2, 128]
0	0x3d23f850	0.04003173
1	0xbe5448e6	-0.20730934
2	0x3bc6aa1a	0.006062758
3	0xbda3dad4	-0.080007225
4	0xbd669a82	-0.056299694
5	0xbde5c938	-0.1122002
6	0xbd7214d1	-0.059101883
7	0xbd865962	-0.06560017
8	0xbb78a6ea	-0.0037941285
9	0xbb1c1279	-0.0023814721
10	0x3ca95f3e	0.020675298
11	0xbd8ac81c	-0.06776449
12	0xbe0208b9	-0.1269864
13	0x3d308495	0.04309519
14	0xbc24d09a	-0.0100595
15	0xbd20d68a	-0.0392671
16	0xbd81bfe0	-0.063354254
17	0x3c8bc8b2	0.017063472
18	0xbdcb8d78	-0.099390924
19	0xbd9fad24	-0.07796696
20	0xbc1d03ae	-0.009583397
21	0x3d329864	0.043602362
22	0xbd80c094	-0.06286731
23	0xbce4ef3a	-0.027946103
24	0x3d8cceec	0.06875405
25	0x3d69981f	0.05702984
26	0x3dfd9d56	0.12383525
27	0xbc5c8a98	-0.013460778
28	0x3df97bf9	0.12181849
29	0xbe065a92	-0.13120487
30	0x3a12ba89	0.0005597254
31	0x3d0b7198	0.03404388
32	0x3c528581	0.012849213
33	0xbd1d74e1	-0.038441543
34	0xbde6990f	-0.11259662
35	0xbc8dff1f	-0.017333565
36	0x3d908d25	0.07058171
37	0xbd619c75	-0.05508085
38	0x3de54857	0.11195438
39	0x3d246bbc	0.040141806
40	0x3d956ce0	0.07296157
41	0x3d66f8b0	0.05638951
42	0x3dc3834b	0.095465265
43	0xbd241070	-0.04005474
44	0xbe09a150	-0.13440442
45	0x3bf2058c	0.007385915
46	0xbdd36e75	-0.103238024
47	0x3d8e1ebf	0.06939458
48	0x3b95a6dc	0.0045670103
49	0x3e0377dd	0.12838693
50	0x3dba91c5	0.091098346
51	0x3d7f65b9	0.06235287
52	0x3ce36e33	0.027762508
53	0xbd4879e1	-0.048944358
54	0xbdb74daf	-0.08950364
55	0x3d9c43e2	0.07630135
56	0xbbc113bf	-0.0058922465
57	0xbd48cd16	-0.04902371
58	0xbd22bdd2	-0.039731808
59	0xbd6aa951	-0.05729038
60	0xbe5babcd	-0.21452256
61	0x3d7d7a72	0.06188435
62	0xbdce6f25	-0.10079793
63	0xbd0203b0	-0.031741798
64	0x3d507710	0.050894797
65	0x3e1ebd40	0.1550188
66	0x3c4e2c71	0.012583838
67	0x3dfca573	0.123362444
68	0x3ceebb23	0.029141968
69	0x3d255564	0.040364638
70	0xbc79fdc2	-0.0152582545
71	0x3b38ef48	0.0028218795
72	0x3d8d3e98	0.068967044
73	0x3d732205	0.059358615
74	0xbd1f5a7f	-0.038904663
75	0xbd8834e8	-0.06650716
76	0xbda490db	-0.080354415
77	0x3dc8f064	0.09811476
78	0xbe7ef834	-0.2489937
79	0x3e3fd57f	0.18733786
80	0x3d625159	0.05525336
81	0xbd3f1a20	-0.046655774
82	0xbdeec1d0	-0.116580606
83	0xbd56c37d	-0.052432526
84	0x3c705135	0.014667799
85	0xbdf4207b	-0.11920258
86	0xbd1dfaf4	-0.038569406
87	0xbc7bd72e	-0.015371127
88	0xbe0fe8de	-0.14053676
89	0xbe5d10cd	-0.2158844
90	0x3db5f133	0.08883896
91	0x3d27246c	0.04080622
92	0xbc9a1d00	-0.018812656
93	0x3cf5b9b7	0.029995782
94	0xbcd73ceb	-0.026274165
95	0xbd8328da	-0.06404276
96	0x3dc14913	0.09437766
97	0xbda29180	-0.07937908
98	0x3cc569e0	0.024098337
99	0xbd1d9acb	-0.0384777
100	0x3e1f2bc1	0.15544035
101	0x3dc51e18	0.096248806
102	0xbdfbee10	-0.12301266
103	0x3d9f0c94	0.07766071
104	0xbbf5acdb	-0.0074974126
105	0x3de148aa	0.11000188
106	0x3c4f95f8	0.012670033
107	0xbd6c41a7	-0.0576798
108	0xbcc33206	-0.023827564
109	0x3d287b9d	0.04113351
110	0x3db8f62c	0.090313286
111	0x3d8c948d	0.06864271
112	0xbd7cd0b4	-0.061722472
113	0x3ca11bfc	0.019666664
114	0x3c9e6329	0.019334393
115	0x3e30ec02	0.1727753
116	0x3de07e65	0.10961608
117	0x3d91391c	0.07090971
118	0x3adf6d7a	0.0017046176
119	0x3cc03496	0.023462575
120	0x3c9d8c8c	0.019232057
121	0xbda559bc	-0.08073756
122	0x3c8572b9	0.016290056
123	0x3dd25a48	0.10271126
124	0x3dfca66d	0.12336431
125	0xbce9a0a2	-0.028518979
126	0x3e53fb92	0.20701435
127	0xbd0927a2	-0.033485062
128	0xbdad0ce9	-0.08449728
129	0x3c7f8e76	0.01559793
130	0xbe35e6b2	-0.17763785
131	0xbe6518ce	-0.22372743
132	0xbd8dcaa0	-0.06923413
133	0xbe372458	-0.17884958
134	0x3cbe83d2	0.023256216
135	0xbe88cd6c	-0.26719224
136	0xbe738060	-0.2377944
137	0x3d9e0cf1	0.07717312
138	0x3e047d35	0.12938388
139	0xbd255842	-0.040367372
140	0xbd84e8fc	-0.06489751
141	0x3c92b9fc	0.01791095
142	0xbdb55796	-0.08854596
143	0x3ecde6f9	0.4021528
144	0xbd4aac17	-0.049480524
145	0xbe8a0fcd	-0.2696518
146	0xbd7e260a	-0.062047996
147	0xbcef1355	-0.029184023
148	0x3e248e0b	0.1606981
149	0x3d8fb1fc	0.0701637
150	0xbe46594d	-0.19370003
151	0xbe02e373	-0.12782077
152	0x3ae66e2c	0.0017580441
153	0x3d224647	0.039617803
154	0xbc7ca53c	-0.015420254
155	0x3de03d02	0.10949136
156	0x3dfee40c	0.1244584
157	0xbd552930	-0.052041233
158	0xbd9cb43b	-0.07651564
159	0xbd3c2acf	-0.045939263
160	0xbe04c69e	-0.12966391
161	0xbe1fd4d4	-0.15608531
162	0x3dc05950	0.09392035
163	0x3db3a426	0.08771543
164	0x3d4f7b70	0.05065483
165	0xbd2c13ad	-0.04201095
166	0xbcd8ca79	-0.026463734
167	0xbdc1a771	-0.09455765
168	0x3de19d71	0.11016358
169	0x3e979cbb	0.29611763
170	0xbd4df82b	-0.0502855
171	0xbe65d961	-0.22446205
172	0xbd030ede	-0.0319966
173	0x3d70b0fc	0.058762535
174	0xbc73d367	-0.014881945
175	0xbd620ac1	-0.055186037
176	0xbda4bf0d	-0.080442525
177	0x3b6d1a79	0.003617911
178	0x3d1adcb6	0.037808143
179	0xbd96d9b5	-0.07365743
180	0xbd610947	-0.05494049
181	0xbe0464b1	-0.12929036
182	0xbe597520	-0.21236086
183	0x3cab68d0	0.020924002
184	0xbe0c9bc3	-0.13731293
185	0xbdd76a07	-0.1051827
186	0xbd3c8831	-0.04602832
187	0xbd89e878	-0.06733793
188	0xbd4b3d59	-0.049619053
189	0xbe11a915	-0.14224656
190	0xbab1b416	-0.0013557698
191	0xbddca95e	-0.10774492
192	0x3d5f8edd	0.054579604
193	0xbd921f3e	-0.07134865
194	0xbe1757fb	-0.14779656
195	0x3e028a20	0.12748003
196	0xbd16f2ff	-0.036852833
197	0xbe36e136	-0.17859349
198	0x3d8aa904	0.067705184
199	0xbe4cc250	-0.19996
200	0x3d0cae49	0.0343459
201	0xbd21fdb1	-0.03954858
202	0xbd53f110	-0.051743567
203	0x3dac98b3	0.084275626
204	0xbe119e04	-0.14220434
205	0xbbf1245c	-0.0073590707
206	0xbdabc9eb	-0.08388122
207	0x3e040096	0.12890849
208	0xbacf4e5a	-0.0015816197
209	0xbcfeb0cb	-0.03109016
210	0xbe4e3c3a	-0.20140162
211	0xbe16226e	-0.14661571
212	0x3d6f241d	0.05838405
213	0xbd9a38db	-0.075303756
214	0xbd9f84eb	-0.07789024
215	0xbe05af11	-0.13055064
216	0xbd543434	-0.051807597
217	0xbce11e93	-0.0274804
218	0x3ce00e23	0.02735049
219	0xbd25a21e	-0.04043781
220	0xbd015be7	-0.031581786
221	0xbdcec8b8	-0.10096878
222	0xbdd0b587	-0.101908736
223	0xbdb89d48	-0.09014374
224	0xbe114f1d	-0.14190336
225	0x3c17281e	0.009225873
226	0x3df7ccfa	0.12099643
227	0x3df0ed4b	0.1176401
228	0xbd4e4818	-0.050361723
229	0xbda0800b	-0.07836922
230	0xbdc59775	-0.09648029
231	0xbd879c0b	-0.0662156
232	0xbdaab922	-0.083360925
233	0xbe9f67fb	-0.31134018
234	0x3da93813	0.082626484
235	0xbd5c19aa	-0.053735413
236	0xbdd1e812	-0.10249342
237	0xbe2a6aab	-0.16642253
238	0xbdef1136	-0.116732046
239	0x3c8758c5	0.01652182
240	0xbd6b2411	-0.057407442
241	0x3e4ca1d1	0.19983603
242	0x3d0c121e	0.034196965
243	0xbde4ede7	-0.11178189
244	0xbd97e1f8	-0.07416147
245	0xbd14af40	-0.036299944
246	0x3dbc3e01	0.09191514
247	0xbdd88816	-0.10572831
248	0xbdc9ee26	-0.09859876
249	0x3df59078	0.11990446
250	0x3d01c7bf	0.031684633
251	0x3bd3cff2	0.006463998
252	0x3d0d002b	0.03442399
253	0x3dd2f9da	0.10301562
254	0xbb8241fb	-0.0039751506
255	0x3b4c22ab	0.0031148593

network_body._body_endoder.seq_layers.0.bias f4 [128]
0	0xbcdb0726	-0.026736807
1	0xbdd17aba	-0.10228486
2	0x3d3cb98b	0.046075385
3	0xbe086afe	-0.13322064
4	0x3e6b0b48	0.22953522
5	0xbd388072	-0.04504437
6	0x3e09ecef	0.13469289
7	0xbe13b801	-0.1442566
8	0xbe0d15c2	-0.13777831
9	0x3ec4383e	0.3832416
10	0xbdfe9a8e	-0.12431823
11	0xbceea998	-0.029133603
12	0x3d5f578d	0.054526854
13	0x3e86565b	0.2623776
14	0xbe145212	-0.14484432
15	0x3d846936	0.0646538
16	0x3d31c8cb	0.04340438
17	0x3d1d8a99	0.038462255
18	0x3dd0701f	0.101776354
19	0xbe268246	-0.16260633
20	0x3de6f3bd	0.11276958
21	0x3e0ae12d	0.1356246
22	0x3b8df4ca	0.0043321596
23	0xbe271b8e	-0.16319105
24	0x3e27b2e0	0.16376829
25	0xbca6891f	-0.020329056
26	0xbd5698d7	-0.052391853
27	0xbd0f560e	-0.034994178
28	0xbdf5dba5	-0.120047845
29	0x3e0a8455	0.13527043
30	0xbe131939	-0.1436509
31	0xbd4a6835	-0.049415786
32	0xbd8e6128	-0.06952125
33	0x3da2508a	0.07925518
34	0xbda57f88	-0.08080965
35	0xbd838f30	-0.06423795
36	0xbd17acfe	-0.037030213
37	0x3da7a401	0.08185578
38	0xbd86e357	-0.065863304
39	0xbc4eeb0c	-0.012629282
40	0x3c0b169f	0.00848928
41	0x3d753fdc	0.059875354
42	0xbdc0986b	-0.094040714
43	0x3d92bc43	0.07164814
44	0xbe2fb25e	-0.17157885
45	0x3e01a783	0.12661557
46	0xbdf2fce8	-0.11864644
47	0x3e2f6594	0.17128593
48	0xbe10e457	-0.14149605
49	0x3dbdafca	0.09262045
50	0x3e65bd80	0.2243557
51	0x3da89d42	0.082331195
52	0x3d02b6c8	0.031912595
53	0xbe0dffce	-0.13867113
54	0xbd9c8e6b	-0.076443516
55	0xbc168adc	-0.00918838
56	0x3c8c444f	0.017122416
57	0x3c37040e	0.0111704
58	0xbd611665	-0.054952998
59	0xbe75e14e	-0.24011728
60	0xbe07a04e	-0.13244745
61	0xbc801901	-0.015636923
62	0x3d698d1f	0.05701935
63	0xbe00e44a	-0.12587085
64	0x3d1cf5bd	0.03832029
65	0x3d664024	0.056213513
66	0x3dc43e35	0.095821775
67	0x3ddca97f	0.10774516
68	0xbdd9a189	-0.106265135
69	0xbdde3fb8	-0.10851997
70	0x3dd51fbf	0.10406446
71	0xbd9fb995	-0.07799069
72	0x3d3e383f	0.04644036
73	0x3dd6f06e	0.10495077
74	0x3e004ae5	0.1252857
75	0xbdb1a677	-0.08674329
76	0x3bea7a39	0.0071556834
77	0x3e0636b8	0.13106811
78	0x3e05ca7b	0.13065521
79	0xbe3836f8	-0.17989719
80	0x3c32f995	0.010923763
81	0x3da1131e	0.078649744
82	0xbdc1b201	-0.0945778
83	0xbe01e5f4	-0.12685376
84	0xbe49cec1	-0.19707777
85	0xbd082a5a	-0.033243515
86	0xbddcde3c	-0.10784575
87	0xbe0b72ad	-0.13617964
88	0xbd951b79	-0.072806306
89	0x3e0c40c6	0.13696584
90	0xbdb30282	-0.08740713
91	0x3e06e5d4	0.1317361
92	0x3e2f03d7	0.17091309
93	0x3db5856c	0.08863339
94	0xbd1420cd	-0.036164094
95	0x3ce3d6d7	0.027812405
96	0x3dfb2071	0.12262047
97	0x3e128000	0.1430664
98	0xbd91e1cc	-0.071231455
99	0xbd21efa1	-0.03953517
100	0x3e025808	0.12728894
101	0xbdebb9b2	-0.11510028
102	0xbe00b283	-0.12568097
103	0xbd2eec6a	-0.04270593
104	0xbe3d4d20	-0.18486452
105	0x3c808c27	0.01569183
106	0xbdb95b4d	-0.09050617
107	0xbe13961c	-0.14412731
108	0x3cae4476	0.02127288
109	0xbdab4f12	-0.08364691
110	0x3e24a9e0	0.16080427
111	0x3d968804	0.07350162
112	0x3d53e741	0.051734213
113	0xbd22b420	-0.03972256
114	0x3e443a8f	0.19162963
115	0xbe5da547	-0.2164508
116	0xbd03e166	-0.03219738
117	0x3d3bdafb	0.045863133
118	0x3d845812	0.064621106
119	0x3dccdf46	0.100035235
120	0x3e57c954	0.21072894
121	0xbd0efcdc	-0.034909114
122	0x3cf3f002	0.02977753
123	0xbc78e871	-0.015192137
124	0xba8e5782	-0.001085982
125	0x3dd24db3	0.10268726
126	0xbbda7d33	-0.006667757
127	0xbc87bb2b	-0.01656874

network_body._body_endoder.seq_layers.0.weight f4 [128, 8]
0	0xbdc42fd6	-0.095794365
1	0xbed02b07	-0.40657827
2	0xbedb6cf9	-0.42856577
3	0x3e7cb154	0.2467702
4	0x3d3516fe	0.04421138
5	0xbe070469	-0.13185276
6	0x3fad17bf	1.3522872
7	0xbf2f6d35	-0.6852601
8	0x3e33f1e4	0.17572743
9	0x3ed27db0	0.41111517
10	0x3e92442e	0.28567642
11	0xbe4487f9	-0.19192494
12	0xbf078a62	-0.5294553
13	0xbe395324	-0.18098122
14	0xbf1008be	-0.5626334
15	0x3f111083	0.5666582
16	0x3ed1825e	0.40919775
17	0x3e114675	0.14187033
18	0x3e82f9ee	0.25581306
19	0x3ea21152	0.3165384
20	0x3f1082bf	0.564495
21	0x3edaed19	0.42759016
22	0x3fa804a9	1.3126422
23	0xbb9ae000	-0.00472641
24	0xbe5756db	-0.21029226
25	0x3ed71962	0.42011553
26	0xbe578a1e	-0.21048781
27	0x3e0a6976	0.13516793
28	0xbdfc0188	-0.123049796
29	0xbe8a6cee	-0.27036232
30	0x3e9a3f0b	0.30126223
31	0xbd3e8c33	-0.046520423
32	0xbeb92cae	-0.361669
33	0x3e9bd560	0.3043623
34	0xbd23b277	-0.03996512
35	0x3e6938f8	0.22775638
36	0x3ef8113b	0.48450646
37	0x3d8182ad	0.063237526
38	0x3eeadb3c	0.45870388
39	0xbf519097	-0.8186125
40	0xbe0d5bd8	-0.13804567
41	0xbf15bb92	-0.58489335
42	0xbed5a248	-0.41725373
43	0x3e9933f0	0.29922438
44	0xbd839651	-0.06425155
45	0x3ea1a9b4	0.31574786
46	0xbf2c9f30	-0.674304
47	0x3e709826	0.2349554
48	0x3d381772	0.044944234
49	0xbdc19aca	-0.09453352
50	0x3f23c098	0.6396575
51	0xbe657c3d	-0.22410674
52	0x3f192d97	0.5983519
53	0xbe9736ac	-0.295339
54	0x3f4bd495	0.7962125
55	0xbee1f162	-0.44129473
56	0xbdda39f7	-0.10655587
57	0xbe3e619f	-0.18591927
58	0xbc9fab1d	-0.019490773
59	0x3e7ca7b0	0.24673343
60	0xbe982fea	-0.29724056
61	0x3e80de76	0.25169724
62	0x3d841f0b	0.064512335
63	0x3edcb95c	0.43110168
64	0x3e3432b2	0.17597464
65	0x3e8a76cf	0.2704377
66	0xbd7593bc	-0.059955344
67	0x3d92c2d3	0.07166066
68	0x3ea5b79f	0.32366654
69	0xbeb0ff6b	-0.34569868
70	0x3f25aa1e	0.64712703
71	0xbf03bf73	-0.51464003
72	0x3e8053da	0.25063974
73	0x3df5f908	0.120103896
74	0xbf4bf950	-0.79677296
75	0xbedf64a9	-0.43631485
76	0x3f11563a	0.56772196
77	0x3f1422e8	0.5786576
78	0xbeec8969	-0.46198586
79	0x3e52f02e	0.20599434
80	0xbeadb8a7	-0.3392994
81	0x3e142579	0.1446742
82	0xbf074a7c	-0.5284803
83	0xbe4d8b90	-0.2007277
84	0xbe0a92f0	-0.13532615
85	0xbea5288c	-0.32257497
86	0x3e5a25b3	0.21303444
87	0x3f3470be	0.7048453
88	0x3c2b129a	0.010441447
89	0xbe75f606	-0.24019632
90	0xbe0ff7d3	-0.14059381
91	0x3dcb0682	0.09913351
92	0xbf075df4	-0.52877736
93	0xbe27d8fb	-0.16391365
94	0xbf084cbe	-0.532421
95	0xbf2d9f7e	-0.6782149
96	0x3eaf9d27	0.34299585
97	0xbe7a6900	-0.24454117
98	0xbddaa552	-0.106760636
99	0x3c7a2ede	0.015269963
100	0x3e26bc0c	0.16282672
101	0x3e007caa	0.12547556
102	0x3ed1dc6a	0.40988475
103	0xbeab5322	-0.33461863
104	0x3e8b4740	0.27202797
105	0x3cf417d9	0.029796528
106	0xbf144db5	-0.5793107
107	0xbf56db87	-0.8392872
108	0x3dfe3c93	0.12413897
109	0x3e31e67d	0.1737308
110	0xbeef8250	-0.46779108
111	0xbf6f163a	-0.9339329
112	0x3df73e06	0.12072377
113	0xbcefbf3b	-0.02926599
114	0x3e1795ee	0.14803287
115	0xbda7ddfc	-0.08196637
116	0x3d59d8b9	0.0531852
117	0xbe04863d	-0.12941833
118	0xbe6deb60	-0.2323432
119	0x3e890bc3	0.26766786
120	0xbe8c0cce	-0.2735352
121	0x3e33033d	0.17481704
122	0x3f03a643	0.5142557
123	0x3eb1a42f	0.34695575
124	0xbd6a0546	-0.057133935
125	0x3d76707e	0.060165875
126	0x3ecea224	0.40358078
127	0x3f094062	0.53613865
128	0x3e57f14b	0.2108814
129	0x3e85df5e	0.26146978
130	0x3e7d76f1	0.24752404
131	0xbe61430f	-0.21998237
132	0x3e72611b	0.23669855
133	0x3e9ec310	0.31008196
134	0xbe490644	-0.19631296
135	0xbf02dd6c	-0.5111911
136	0xbeb2f6af	-0.3495383
137	0x3dcbcc0f	0.099510305
138	0xbed26a62	-0.4109679
139	0x3f0d6ce4	0.5524428
140	0x3e30a0f3	0.17248897
141	0x3f1b75ec	0.6072681
142	0x3e8876bc	0.26653087
143	0x3f2dd96b	0.6790988
144	0x3e367eb4	0.17821771
145	0x3e631428	0.22175658
146	0xbf159a43	-0.5843851
147	0xbeee6c48	-0.46566987
148	0xbea9b279	-0.33143976
149	0xbb1435f2	-0.0022615162
150	0xbeb2b6f6	-0.34905213
151	0x3f04bb17	0.51847976
152	0x3e15ef25	0.14642008
153	0xbeecc768	-0.46245885
154	0x3f38f433	0.7224762
155	0x3e0c7299	0.1371559
156	0xbd62b91f	-0.055352326
157	0xbda96d0c	-0.08272752
158	0x3be18a56	0.006882946
159	0x3f9b7f61	1.2148248
160	0xbc6adcfb	-0.014334912
161	0x3e6e2aa7	0.23258458
162	0x3e094f0e	0.13409063
163	0x3e49c8be	0.19705483
164	0x3e0a727e	0.13520238
165	0x3eddf2d3	0.43349323
166	0x3e89e1b9	0.26930025
167	0xbf2da6bf	-0.6783256
168	0x3e87f5ea	0.26554805
169	0xbe4a5795	-0.19759972
170	0xbdf657ae	-0.12028442
171	0xbee3df0e	-0.44506115
172	0x3dc30295	0.09521977
173	0x3e17ca53	0.14823274
174	0xbe38ca44	-0.18045908
175	0x3ecd3b3d	0.40084258
176	0xbf00406a	-0.5009829
177	0x3e2e1b4f	0.17002605
178	0xbe885fc0	-0.2663555
179	0x3e3cf689	0.1845342
180	0xbef0d484	-0.47037137
181	0xbef495ae	-0.47770447
182	0xbec855b5	-0.3912789
183	0xbe5230aa	-0.20526376
184	0x3e63fbac	0.22263974
185	0xbde4d9a1	-0.11174322
186	0xbeb35d96	-0.35032338
187	0x3eb43f90	0.35204744
188	0xbde39fce	-0.11114465
189	0x3c9c53c1	0.019082906
190	0xbf6704e9	-0.9024187
191	0x3d8e3d04	0.069452316
192	0xbda78fb0	-0.08181703
193	0xbe926a02	-0.28596503
194	0xbe167cb5	-0.1469601
195	0x3ed6f345	0.41982475
196	0xbca7cf43	-0.020484572
197	0x3ef34b81	0.47518542
198	0xbd57e0dd	-0.05270468
199	0xbed229b2	-0.41047436
200	0xbeba7893	-0.36420116
201	0xbe25891f	-0.16165589
202	0xbf248dda	-0.6427895
203	0x3d03c7aa	0.032172836
204	0x3da7edc9	0.08199651
205	0x3e6437d3	0.2228692
206	0x3c86c9a5	0.016453573
207	0x3f415eeb	0.7553546
208	0x3eb0ac82	0.34506613
209	0x3f3001fb	0.6875302
210	0x3c859259	0.016305136
211	0x3ecb1ad9	0.3966892
212	0x3e9a91e9	0.30189446
213	0x3ece4179	0.40284327
214	0x3f827804	1.0192876
215	0x3e49dd09	0.19713224
216	0x3e997822	0.29974467
217	0xbdf298e1	-0.118455656
218	0xbda39f5f	-0.07989382
219	0xbdd25fc4	-0.10272172
220	0xbe318863	-0.17337184
221	0x3dcc3890	0.09971726
222	0xbef02168	-0.46900487
223	0x3ed2da7e	0.4118232
224	0x3e81f549	0.2538245
225	0x3e261b7d	0.16221423
226	0xbe717478	-0.23579586
227	0xbe2cbaa1	-0.16868068
228	0xbe900083	-0.2812539
229	0x3d1596d6	0.0365208
230	0x3f47e3ef	0.78082174
231	0x3efec4fd	0.49759665
232	0xbedc61b9	-0.43043306
233	0x3a6bb16a	0.00089909753
234	0xbe893d88	-0.26804757
235	0x3f1648c9	0.5870481
236	0x3e520201	0.20508577
237	0x3edbbfa1	0.4291964
238	0xbe227008	-0.15863049
239	0xbe3f17d6	-0.18661436
240	0xbeeed09c	-0.4664353
241	0xbea5b22e	-0.32362503
242	0x3ed15d19	0.4089134
243	0x3ec04012	0.37548882
244	0xbf25ca5f	-0.6476192
245	0xbe4f2fd5	-0.2023309
246	0xbf5c71ab	-0.86110944
247	0x3ed93465	0.42422786
248	0x3f155e52	0.58347046
249	0x3f0da4dd	0.55329686
250	0x3f225671	0.6341315
251	0xbf1c41de	-0.61038005
252	0x3ec45ec8	0.38353562
253	0xbee130fd	-0.43982688
254	0xbf42e2bb	-0.76127213
255	0x3ea7d43f	0.32779118

network_body._body_endoder.seq_layers.2.bias f4 [128]
0	0xbd586963	-0.05283488
1	0xbb8f8197	-0.004379462
2	0x3a3e8628	0.00072679156
3	0x3cef8f88	0.029243246
4	0xbca54a48	-0.020177022
5	0xbd3c9bc6	-0.046046995
6	0x3c7c11b2	0.015385078
7	0x3d79e24f	0.06100684
8	0xbca2a3c3	-0.019853478
9	0xbdc7fb95	-0.09764782
10	0xbd058938	-0.032601565
11	0xbc9aaf6b	-0.018882474
12	0xbc92ebcb	-0.0179347
13	0x3d0f0f5c	0.034926757
14	0x3912ba66	0.00013993084
15	0x3b1f4a42	0.0024305736
16	0xbca50763	-0.020145124
17	0x3bf376c1	0.007429928
18	0xbb90a78b	-0.004414504
19	0xbd40cead	-0.0470721
20	0xbd726eff	-0.059187885
21	0xbd51f58f	-0.051259574
22	0x3d8e036a	0.06934245
23	0x3cad7ad2	0.02117673
24	0x3bcfca1b	0.0063412315
25	0x3c943d7f	0.01809573
26	0x3bc8c7db	0.0061273403
27	0xbc8e7c89	-0.017393367
28	0xbd2c35e9	-0.0420436
29	0x3cda894d	0.026676798
30	0x3b55643f	0.0032560972
31	0x3cc54d42	0.024084691
32	0x3d2221b8	0.039582938
33	0xbd1fd9fe	-0.039026253
34	0x3d1d39ed	0.03838532
35	0xbd8f86b8	-0.070081174
36	0xbd9ffa48	-0.07811409
37	0xbd98c3ed	-0.07459245
38	0xbca2d08e	-0.019874837
39	0xbd8561cd	-0.06512795
40	0xbd6195db	-0.055074554
41	0xbd273086	-0.04081776
42	0xbd2b0494	-0.041752413
43	0xbcaafca8	-0.020872429
44	0xbd6b1d72	-0.057401128
45	0xbc91a003	-0.017776495
46	0xbd0d07e4	-0.034431353
47	0xbd72bb2b	-0.05926053
48	0xbc58ca92	-0.01323189
49	0xbd91b5a3	-0.071147226
50	0x3c628e62	0.013827892
51	0xbd1ad08c	-0.037796542
52	0x3c4a9dfe	0.01236677
53	0xbb81e095	-0.00396354
54	0xbd0d9890	-0.034569323
55	0x3d96c059	0.07360906
56	0xbcc0781e	-0.023494776
57	0x3c8ed71c	0.017436557
58	0xbcdbbf86	-0.026824724
59	0x3b44e367	0.003004277
60	0xbd081ea4	-0.033232346
61	0xbd02c772	-0.031928487
62	0xbd23c7ef	-0.039985593
63	0xbba83bc3	-0.0051340773
64	0xbd73a502	-0.059483536
65	0xbbbad2ee	-0.0057014143
66	0x396337d1	0.000216692
67	0x3c558de4	0.013034318
68	0xbdc4bb68	-0.096060574
69	0xbb76d6be	-0.0037664617
70	0x3b272449	0.0025503805
71	0x3c8083b1	0.015687795
72	0xbb993cb1	-0.0046764244
73	0xbd33c669	-0.04389039
74	0x3d52388e	0.051323466
75	0xbadf74a1	-0.0017048308
76	0x3b5d8b00	0.0033804774
77	0xbd3ba246	-0.045809053
78	0x3ceebfed	0.029144252
79	0x3d14a7ba	0.03629277
80	0xbc863785	-0.016383896
81	0xbd196200	-0.037446976
82	0xbc83f861	-0.016109647
83	0x3d88b5fc	0.06675336
84	0x3d27789c	0.040886506
85	0xbd7935dc	-0.06084238
86	0xbd634107	-0.055481937
87	0xbcdd7690	-0.027034074
88	0xbd53b284	-0.051683918
89	0xbcacb018	-0.021080062
90	0xbdaaf52a	-0.083475426
91	0x3c2c3f7a	0.010513181
92	0xbd165394	-0.0367008
93	0x3d27fb16	0.04101094
94	0x3da6fedb	0.081540786
95	0xbc208e95	-0.009799619
96	0xbd168fa6	-0.036758088
97	0xbcc99b91	-0.024610313
98	0xbd908058	-0.0705573
99	0xbc67e877	-0.014154545
100	0xbcb4516c	-0.022011481
101	0x3c633f30	0.013870046
102	0xbc8834af	-0.016626684
103	0xbc05cfcb	-0.0081672175
104	0xbbbb0f7c	-0.005708633
105	0x3c09ad59	0.008403146
106	0xbc1a7337	-0.009426883
107	0xbb0029b0	-0.0019556098
108	0xbcc532ac	-0.024072014
109	0xbb95055b	-0.0045477576
110	0x3c6348f9	0.0138723785
111	0xbb1697ba	-0.002297862
112	0xbdbbc0d2	-0.09167637
113	0xbd224140	-0.03961301
114	0xbdcd4f5e	-0.10024904
115	0xbc4a4ecc	-0.012347888
116	0xbd82b26b	-0.06381687
117	0x3b9c7cdf	0.004775628
118	0x3c49eb6e	0.012324197
119	0x3d2271a3	0.039659154
120	0xba2fe3ea	-0.0006709682
121	0xbc6c7253	-0.014431554
122	0x3ccd3c99	0.02505331
123	0xbc74847c	-0.014924165
124	0xbd36c5e2	-0.04462231
125	0xbd824e39	-0.06362576
126	0xbd08bca1	-0.033383016
127	0x37d4081b	2.5276144e-05

network_body._body_endoder.seq_layers.2.weight f4 [128, 128]
0	0xbe55cc58	-0.20878732
1	0xbdd389d5	-0.10329024
2	0x3e0ef35e	0.13960025
3	0xbd9f5634	-0.07780114
4	0xbd06a848	-0.03287533
5	0xbc4e9d52	-0.01261075
6	0x3e512ccf	0.2042725
7	0xbe1d824e	-0.15381739
8	0xbde112be	-0.10989903
9	0x39dea868	0.00042468612
10	0x3e59e75a	0.2127966
11	0xbc9a3977	-0.01882623
12	0xbd2de7a1	-0.042457227
13	0x3e86dfdc	0.26342666
14	0xbe840728	-0.2578671
15	0xbd605941	-0.05477262
16	0x3e25e07b	0.16198914
17	0x3e43ffce	0.1914055
18	0x3e6c8392	0.23097065
19	0x3d3f5079	0.046707604
20	0x3e2485cf	0.16066669
21	0x3de72d43	0.1128793
22	0xbebe93ed	-0.37222233
23	0xbb96adc6	-0.004598352
24	0x3e1de01f	0.15417527
25	0x3d3b0959	0.04566321
26	0x3e0baff7	0.13641344
27	0xbc1bc874	-0.009508241
28	0xbeaae174	-0.33375132
29	0x3e817501	0.2528458
30	0xbddb38ad	-0.107041694
31	0xbe491bf4	-0.1963957
32	0x3d89f172	0.06735505
33	0xbd905553	-0.07047524
34	0xbc870a90	-0.016484529
35	0xbd9e9aa3	-0.07744338
36	0x3e32503f	0.17413424
37	0x3c010ecd	0.007877064
38	0xbc75583c	-0.01497465
39	0xbe0100a4	-0.125979
40	0x3ea13f35	0.31493536
41	0x3e56b45f	0.20967244
42	0x3d0dc6d0	0.03461343
43	0x3de86b70	0.11348617
44	0xbc1e8ccf	-0.009677126
45	0x3e1ce24f	0.15320705
46	0xbe3cb13b	-0.18426983
47	0x3d3a5ee6	0.04550066
48	0xbd239673	-0.0399384
49	0xbdcd584c	-0.10026607
50	0x3d983d81	0.07433606
51	0x3d35291a	0.04422865
52	0x3e7b2a1d	0.24527784
53	0xbd80b0ee	-0.06283747
54	0x3c826a46	0.015919816
55	0x3d797c83	0.06090976
56	0xbebc2374	-0.367458
57	0x3dabb5e7	0.083843045
58	0xbdd7aed9	-0.105313964
59	0xbde9f88b	-0.11424359
60	0xbe432b26	-0.19059429
61	0xbcb43af9	-0.022000777
62	0x3e1055fe	0.14095303
63	0xbea85197	-0.32874748
64	0x3e20f4f6	0.15718445
65	0x3dcc4bed	0.09975419
66	0x3d7134e8	0.058888346
67	0x3c893e2d	0.01675328
68	0x3d3def3d	0.046370734
69	0x3d76e22c	0.060274288
70	0x3cfdcaa4	0.030980416
71	0xbd4ac3fb	-0.049503308
72	0x3df6de29	0.120540924
73	0x3e448d6b	0.19194572
74	0x3e50bc64	0.20384365
75	0xbda899d4	-0.082324654
76	0x3e4a5497	0.19758831
77	0xbd4a7372	-0.049426503
78	0x3e91bd2e	0.28464645
79	0xbdb3a573	-0.08771791
80	0x3d33a7ad	0.04386108
81	0xbc2e5657	-0.010640702
82	0x3bb43092	0.005498954
83	0xbd67dd83	-0.056607734
84	0xbe6f2ebf	-0.23357676
85	0x3c0e9271	0.008701907
86	0xbe9180ef	-0.2841868
87	0xbde74efe	-0.112943634
88	0x3d58cc46	0.052929185
89	0xbe4b6bb2	-0.19865301
90	0xbdce5bb6	-0.10076086
91	0x3d4f8c8e	0.050671153
92	0xbcf3fa33	-0.02978239
93	0x3e7ca660	0.24672842
94	0xbe94581f	-0.2897348
95	0x3e08ec68	0.13371432
96	0xbe7b5a28	-0.2454611
97	0x3d79f924	0.061028615
98	0x3f015b79	0.505302
99	0x3e454c2b	0.19267337
100	0x3e30c382	0.1726208
101	0xbd2c1218	-0.042009443
102	0x3aeacb07	0.001791329
103	0x3cd03497	0.025415702
104	0xbe2a0bbc	-0.16606039
105	0x3c4b6dd5	0.012416323
106	0xbed27e4a	-0.41111976
107	0xbef9c272	-0.48781163
108	0x3d25f87e	0.040520184
109	0xbe05c11a	-0.13061944
110	0x3e2a21f4	0.16614515
111	0xbe32f9f6	-0.17478165
112	0x3d5a641b	0.053318124
113	0x3d3dbe23	0.046323907
114	0xbde02560	-0.10944629
115	0xbe4fca64	-0.2029205
116	0x3dc9cc19	0.09853382
117	0x3dcd16d5	0.100141205
118	0x3e067174	0.13129216
119	0xbed77bb1	-0.42086557
120	0x3d2cf3e6	0.042224787
121	0x3df7d938	0.12101978
122	0xbe3b524f	-0.18293117
123	0x3e214930	0.15750575
124	0xbd23febb	-0.04003785
125	0x3e96cb10	0.294518
126	0xbe5be50f	-0.21474098
127	0xbd9c9f81	-0.076476105
128	0xbd31b02c	-0.0433809
129	0xbe3464e9	-0.17616619
130	0x3cee9e30	0.029128164
131	0xbcbbd21c	-0.022927336
132	0x3cd3510c	0.025795482
133	0xbc7ac23f	-0.015305101
134	0x3d767d28	0.060177952
135	0x3d86f47c	0.065896004
136	0x3df4f5bf	0.11960935
137	0x3e881bf5	0.2658383
138	0x3da6e2ab	0.08148702
139	0xbeb50171	-0.35352662
140	0x3c89b115	0.016808072
141	0xbe9ff19b	-0.31239018
142	0xbdb22248	-0.08697945
143	0x3d254229	0.0403463
144	0x3dba6a9d	0.09102366
145	0x3da591dd	0.08084462
146	0x3d869151	0.06570686
147	0x3e5d2ff2	0.21600321
148	0xbc14f50c	-0.009091627
149	0x3bd33a64	0.0064461697
150	0xbe094aa2	-0.13407376
151	0xbe0c44f3	-0.13698177
152	0x3d47b89f	0.048760053
153	0xbda01d0a	-0.07818039
154	0xbdb471ee	-0.08810793
155	0x3c9a5e5c	0.018843822
156	0x3d75ea66	0.060037993
157	0x3debdfd3	0.115173005
158	0xbdda1b42	-0.1064973
159	0x3e080768	0.13284075
160	0x3e11c32c	0.14234608
161	0x3d38c0b1	0.04510564
162	0xbe183238	-0.14862907
163	0x3d8dd9fd	0.069263436
164	0x3df9cc35	0.121971525
165	0x3e4e78c7	0.2016326
166	0x3c0e9ca2	0.008704336
167	0xbda5e41d	-0.0810015
168	0x3c2c7622	0.010526212
169	0xbd64ce1e	-0.05586063
170	0xbd8e96fb	-0.06962391
171	0xbe3347a6	-0.175078
172	0xbd969a6b	-0.07353672
173	0xbea02046	-0.31274623
174	0x3bac1426	0.0052514253
175	0x3e64c1b7	0.22339521
176	0xbd442a32	-0.047891803
177	0x3ea452db	0.32094464
178	0xbca7d945	-0.020489344
179	0xbd9f011e	-0.07763885
180	0xbdfabb36	-0.12242739
181	0x3dc32529	0.09528572
182	0xbd3057f4	-0.04305263
183	0xbc73638d	-0.014855278
184	0xbc631f37	-0.013862423
185	0xbe1ebd10	-0.15501809
186	0xbe3d0c9e	-0.18461844
187	0x3dd65b3a	0.10466619
188	0x3d35d4f8	0.044392556
189	0xbe1e008b	-0.15429895
190	0xbd98d6b5	-0.07462827
191	0x3d8ef4aa	0.0698026
192	0xbc7d8f54	-0.015476067
193	0x3ddfa162	0.10919453
194	0xbe39898f	-0.1811888
195	0x3dd0d95d	0.10197709
196	0x3a43d918	0.0007471009
197	0xbd64cdab	-0.055860203
198	0x3e09fe57	0.13475929
199	0xbdb3a830	-0.087723136
200	0xbdf3ab4e	-0.11897908
201	0xbdf30222	-0.11865641
202	0x3b30e1ea	0.0026990124
203	0x3e01b552	0.12666824
204	0x3d99b204	0.07504657
205	0x3d581b46	0.052760385
206	0x3dec5527	0.11539679
207	0xbe63d2f0	-0.22248435
208	0xbe5c34f2	-0.21504572
209	0x3d46bc71	0.048519555
210	0xbe0500df	-0.12988614
211	0xbd516a97	-0.051127043
212	0x3e115a59	0.14194621
213	0xbe04a065	-0.1295181
214	0x3dfe205f	0.12408518
215	0x3c9b69cd	0.018971348
216	0x3cf00113	0.029297387
217	0x3dfe6c37	0.12422984
218	0xbe2386c4	-0.15969378
219	0xbe781e4c	-0.24230307
220	0xbd042825	-0.032264847
221	0x3d254531	0.04034919
222	0xbe219d24	-0.157826
223	0x3c69912d	0.014255804
224	0xbcac30db	-0.02101939
225	0x3d08f9e7	0.03344145
226	0x3a09a7ed	0.0005251158
227	0x3e31ad02	0.17351153
228	0xbdbd9c8f	-0.09258377
229	0x3d256d8d	0.04038768
230	0xbdcd946a	-0.10038073
231	0x3d90b1cf	0.07065164
232	0xbd2fbfa0	-0.042907357
233	0xbdf43e4a	-0.11925943
234	0x3d1e0273	0.038576555
235	0x3e3cddcf	0.18443988
236	0xbdbb6f8b	-0.091521345
237	0xbda49eb8	-0.08038086
238	0xbe2aceaf	-0.16680406
239	0x3c205bb0	0.009787485
240	0x3dbde441	0.092720516
241	0xbe89d4eb	-0.26920256
242	0x3e5b12f5	0.2139395
243	0x3baf2394	0.0053448174
244	0x3e02e692	0.12783268
245	0x3e39a405	0.18128975
246	0xbcf6d30e	-0.030129936
247	0xbcb20b27	-0.021733833
248	0xbd37fc33	-0.04491825
249	0xbdd02559	-0.101633735
250	0x38723548	5.7746918e-05
251	0xbdcf4c3e	-0.10121964
252	0xbb1342d1	-0.0022470246
253	0xbd942071	-0.0723275
254	0xbe38aaa6	-0.18033847
255	0x3c042b19	0.008066916

network_body._body_endoder.seq_layers.4.bias f4 [128]
0	0xbe045cb4	-0.12925988
1	0xbda82be1	-0.08211494
2	0xbd0da45c	-0.034580573
3	0x3cde7229	0.027154045
4	0xbd79c01a	-0.060974218
5	0xbd665380	-0.056231976
6	0xbd3d4249	-0.046205793
7	0x3cb27e81	0.021788837
8	0xbd9c04ee	-0.07618128
9	0x3d8fc4f6	0.07019989
10	0xbd4bc1e1	-0.049745444
11	0xbde0fdd1	-0.10985912
12	0xbd3d611d	-0.046235193
13	0xbd411b97	-0.047145452
14	0xbce565e9	-0.028002696
15	0xbde878f9	-0.11351199
16	0xbe252148	-0.16125977
17	0xbd86b256	-0.06576984
18	0xbe3b0113	-0.18262129
19	0xbd400f9e	-0.046889894
20	0x3da0b333	0.078466795
21	0x3b06edf9	0.002058862
22	0x3c85d7d5	0.016338268
23	0xbce4f6da	-0.02794974
24	0xbdab41c9	-0.08362157
25	0xbd80a9f3	-0.06282415
26	0x3c04748e	0.008084429
27	0xbd841e31	-0.06451071
28	0xbda83062	-0.08212353
29	0xbc4ec07a	-0.012619132
30	0xbd1853b8	-0.037189215
31	0xbdf9895f	-0.121844046
32	0xbd3def68	-0.046370894
33	0x3b12d0bd	0.002240225
34	0x3d189df9	0.03726003
35	0x3d9eac22	0.077476755
36	0xbde27f8b	-0.11059483
37	0xbc82e2d8	-0.015977308
38	0xbd8dbed5	-0.06921164
39	0xbc6046d4	-0.013688762
40	0x3d36d967	0.044640925
41	0xbc665f52	-0.014060812
42	0xbd34909f	-0.044083234
43	0xbd8f2bf1	-0.06990803
44	0x3c0dda7e	0.00865805
45	0x3d55c396	0.05218848
46	0x3c2c0c22	0.01050094
47	0xbc618251	-0.01376398
48	0xbc8f857f	-0.01751971
49	0x3d3f43a0	0.04669535
50	0xbd80f2e9	-0.062963314
51	0x3b409153	0.0029383495
52	0xbdb6c1a3	-0.08923652
53	0x3cf60a0c	0.030034088
54	0xbdc42616	-0.09577577
55	0xbdc90199	-0.09814758
56	0xbd52931e	-0.051409833
57	0xbca9ed46	-0.020743024
58	0xbd9a34e4	-0.07529619
59	0xbcccc6d0	-0.024997145
60	0xbdcd5356	-0.10025661
61	0xbced0955	-0.028935114
62	0xbde3084b	-0.11085566
63	0xbd8514b4	-0.064980894
64	0x3ce6107f	0.028084038
65	0x3cf69852	0.030101929
66	0xbcd9260d	-0.026507402
67	0x3d07ceca	0.033156194
68	0xbe1627fc	-0.1466369
69	0xbc9f6b2c	-0.019460283
70	0xbd8fdc1b	-0.07024404
71	0xbd740fc5	-0.05958535
72	0xbdc3acae	-0.095544204
73	0xbd6b8e98	-0.057509035
74	0x3b99d4f8	0.0046945773
75	0xbaaad4a6	-0.0013033345
76	0xbb7bb865	-0.0038409468
77	0xbb00ef13	-0.001967375
78	0xbd342bc4	-0.04398705
79	0x3d6ccb83	0.05781127
80	0xbd607dad	-0.054807354
81	0xbc820a81	-0.01587415
82	0x3d9faa3c	0.077961415
83	0xbd77cdf1	-0.060499135
84	0x3ba66c67	0.0050788405
85	0x3cd923b9	0.026506292
86	0xbd7c8854	-0.06165345
87	0xbd20c075	-0.03924604
88	0xbcf0add2	-0.029379759
89	0xbdf9f08b	-0.12204083
90	0x3d1843d1	0.03717405
91	0xbd3764bf	-0.044773813
92	0xbdb9dde3	-0.09075525
93	0xbc5d38c2	-0.013502302
94	0xbe0d4e47	-0.13799392
95	0x3d1e9e99	0.03872547
96	0xbceb7208	-0.028740898
97	0x3c5e06bf	0.013551413
98	0x3db67d7b	0.08910652
99	0x3a97cdef	0.0011581759
100	0x3d1e1ec2	0.03860355
101	0xbd3d3e82	-0.04620219
102	0x3b48b23b	0.0030623812
103	0xbe1a8542	-0.15089896
104	0xbcfe9073	-0.031074738
105	0x3cba8a60	0.02277106
106	0x3d45c864	0.04828681
107	0xbd9ff6f9	-0.07810778
108	0xbd2b74af	-0.041859325
109	0xbde1d7ac	-0.11027464
110	0xbc8dabae	-0.017293777
111	0xbb9c37e9	-0.004767407
112	0xbdb2fb83	-0.08739378
113	0xbca96175	-0.020676354
114	0xbca3c7a1	-0.019992651
115	0xbd1de814	-0.038551405
116	0xbd943d6d	-0.072382785
117	0xbdf89dfb	-0.121395074
118	0xbda1ab39	-0.07893986
119	0xbd619aaf	-0.05507916
120	0xbdcd850f	-0.100351445
121	0x3ce4aa4e	0.027913239
122	0xbd91f1ea	-0.071262196
123	0xbc823818	-0.015895888
124	0x3ae2b5c1	0.0017296599
125	0xbdc29702	-0.09501459
126	0xbd9ac207	-0.07556539
127	0xbdd1560e	-0.10221492

network_body._body_endoder.seq_layers.4.weight f4 [128, 128]
0	0x3e2bc804	0.16775519
1	0xbe6b8799	-0.23000945
2	0xbde2a9e7	-0.110675626
3	0x3c9ec911	0.019382985
4	0xbdaf8ee9	-0.0857218
5	0xbe8eda5e	-0.27900976
6	0x3c3e4390	0.011612788
7	0x3d6402d3	0.055666756
8	0x3d6896b3	0.056784343
9	0x3b35a8b8	0.0027718972
10	0xbe6f35f7	-0.2336043
11	0x3e092d0b	0.13396089
12	0x3a77291d	0.00094284286
13	0x3ce35f05	0.02775527
14	0xbda8d5b2	-0.08243884
15	0x3def6742	0.11689617
16	0xbd1aedb5	-0.03782435
17	0xbd868c2a	-0.06569703
18	0x3daef704	0.08543208
19	0x3dad4011	0.08459485
20	0x3dd4a365	0.103827275
21	0x3de0d4a5	0.10978059
22	0xbd7c9962	-0.061669715
23	0xbe5b21a9	-0.21399559
24	0xbe3024fb	-0.17201607
25	0xbcbb5e8a	-0.022872228
26	0xbc20e81e	-0.009820966
27	0xbe4bad8a	-0.19890419
28	0x3c8ac1b0	0.01693806
29	0x3db44d9e	0.08803867
30	0x3dcc0533	0.09961929
31	0xbd829bcb	-0.063773714
32	0x3e5221af	0.20520662
33	0xbe8dc1bd	-0.27686873
34	0x3e1056f4	0.1409567
35	0x3d90064e	0.070324525
36	0x3ec41835	0.38299718
37	0xbd0de62b	-0.034643333
38	0x3d1e0e2c	0.038587734
39	0x3d5a4c62	0.0532955
40	0x3d283f87	0.04107621
41	0xbdff44e4	-0.12464312
42	0xbce987cc	-0.028507136
43	0xbdb58c2a	-0.08864625
44	0xbe22eec6	-0.15911397
45	0xbe13a085	-0.14416702
46	0x3e034e9c	0.12822956
47	0x3e1c0334	0.15235597
48	0x3e36af41	0.17840292
49	0x3e3dd522	0.18538335
50	0x3d7b2cb1	0.061321918
51	0xbc9c27bb	-0.019061914
52	0xbe3f092d	-0.18655844
53	0xbe27dfeb	-0.16394012
54	0xbe262895	-0.16226418
55	0xbe0daca4	-0.13835388
56	0x3e071c8e	0.13194486
57	0xbe3c040c	-0.18360919
58	0x3abdc487	0.0014478125
59	0x3e3d13c9	0.18464579
60	0xbd71bfc3	-0.05902077
61	0x3e7d1981	0.2471676
62	0x3d6cd683	0.05782176
63	0xbd0e7703	-0.034781467
64	0x3df71363	0.120642446
65	0xbb04121d	-0.0020152398
66	0x3e527278	0.20551479
67	0xbd744d96	-0.059644304
68	0x3dc2eca5	0.095177926
69	0x3d7cea24	0.06174673
70	0xbe191f1d	-0.14953275
71	0xbe372da9	-0.17888512
72	0x3d191cf8	0.037381142
73	0xbe80f4fe	-0.25186914
74	0x3eaec4f5	0.3413464
75	0x3d5b98f5	0.053612668
76	0xbd6226fa	-0.055212952
77	0xbe21356b	-0.15743034
78	0x3dc25598	0.09488982
79	0x3cfc6ab9	0.030812608
80	0x3bc81c7a	0.0061069103
81	0x3e371d6e	0.1788232
82	0x3d68a63c	0.05679916
83	0xbea9a1cc	-0.33131254
84	0x3d9e81b3	0.07739582
85	0xbd88b4e4	-0.06675127
86	0xbda19e92	-0.07891573
87	0xbe48def2	-0.19616297
88	0xbe516025	-0.20446832
89	0xbdd21e0b	-0.102596365
90	0x3d348a0c	0.044076964
91	0x3d7da801	0.0619278
92	0xbe83ba62	-0.25728136
93	0x3e8449e3	0.2583762
94	0xbce7de97	-0.028304381
95	0xbdf7de99	-0.12103004
96	0x3e8d82d1	0.27638867
97	0x3e7f48e4	0.2493015
98	0x3bbd6035	0.005779291
99	0xbe08762f	-0.13326333
100	0xbd1ffc78	-0.039059132
101	0xbe9c3434	-0.30508578
102	0xbc98f56d	-0.018671716
103	0xbe0b1815	-0.13583405
104	0xbd71871a	-0.058966734
105	0xbd58bf3d	-0.052916754
106	0xbe27ea11	-0.16397883
107	0xbccf52d2	-0.025308046
108	0x3d59cc99	0.053173635
109	0xbdd9ad94	-0.106288105
110	0x3cffed72	0.031241152
111	0xbcf9046d	-0.030397618
112	0xbe44c5d8	-0.19216096
113	0xbcfbaf2d	-0.030723179
114	0x3deeb76b	0.11656078
115	0xbc05902f	-0.008152052
116	0x3c61ef0a	0.0137899015
117	0x3e12bb75	0.14329322
118	0x3d885286	0.06656365
119	0x3e1425b3	0.14467506
120	0xbdb3e26b	-0.0878342
121	0xbe2ff296	-0.17182383
122	0x3d809865	0.06279067
123	0xbdd9ffa0	-0.1064446
124	0xbcc229f6	-0.02370165
125	0x3c00231e	0.007820873
126	0xbd10565d	-0.035238612
127	0x3e8753c8	0.26431108
128	0xbe157ff8	-0.14599597
129	0x3d6d0e39	0.057874892
130	0x3e8de92c	0.2771696
131	0xbcd9d93c	-0.026592843
132	0xbe0140ae	-0.1262233
133	0xbec084c4	-0.37601292
134	0xbe14bb5c	-0.14524597
135	0xbd9e5ac6	-0.077321574
136	0xbe9170c0	-0.28406334
137	0x3e269bb7	0.16270338
138	0xbdf449d7	-0.11928146
139	0x3da79fd7	0.08184784
140	0xbd90a713	-0.07063117
141	0x3d3c69b2	0.045999236
142	0x3c8ddebf	0.017318128
143	0x3cb1be66	0.021697234
144	0xbc4f55a1	-0.012654693
145	0xbe7bbb01	-0.24583055
146	0x3e10ef7a	0.14153853
147	0xbdf125c4	-0.11774781
148	0x3e15f5b9	0.14644517
149	0x3e87c4d4	0.26517355
150	0x3d220384	0.039554134
151	0x3eb2627a	0.34840757
152	0xbebe012b	-0.37110266
153	0xbe6ab22f	-0.22919534
154	0x3e326b00	0.1742363
155	0xbd9ff124	-0.07809666
156	0xbd56e063	-0.052460086
157	0xbebd6fe2	-0.36999422
158	0x3dce5b10	0.100759625
159	0x3ebcfcd2	0.36911637
160	0xbe46f847	-0.19430648
161	0x3d8c9a96	0.068654224
162	0x3dd7d45a	0.1053855
163	0x3de9af02	0.11410333
164	0x3e7fc38a	0.24976936
165	0x3eaeec02	0.34164435
166	0xbd1f0c9b	-0.03883038
167	0x3cc7f5c1	0.024409177
168	0xbd067981	-0.03283072
169	0xbe23fa99	-0.16013564
170	0x3e0fcc0c	0.14042681
171	0xbeefd673	-0.468433
172	0xbd6715f7	-0.05641743
173	0x3d1089f5	0.035287816
174	0xbec3ecf4	-0.38266718
175	0xbc0d8323	-0.008637222
176	0x3e0115da	0.12605992
177	0x3e0c7438	0.13716209
178	0xbdf1f796	-0.118148014
179	0xbcff0e3c	-0.031134717
180	0xbe6d9b91	-0.23203875
181	0xbdd4a1b5	-0.10382406
182	0xbe83fc9e	-0.2577867
183	0xbe979624	-0.29606736
184	0x3e2b2437	0.16713034
185	0xbdf30cc3	-0.118676685
186	0x3dad7725	0.08469991
187	0xbe64c874	-0.22342092
188	0x3d12b4b4	0.035816863
189	0xbe57b38b	-0.21064584
190	0x3ce64709	0.028110044
191	0xbda2db67	-0.07952004
192	0x3bcc1041	0.0062275236
193	0x3c7e8089	0.015533575
194	0x3dd2b1c0	0.10287809
195	0x3e08488e	0.13308927
196	0x3ccd10b0	0.025032371
197	0x3e98e127	0.29859278
198	0x3cece900	0.028919697
199	0x3e166ba6	0.14689502
200	0xbd907c3a	-0.07054944
201	0xbd9b933f	-0.07596444
202	0x3e5b53fe	0.21418759
203	0x3ea7658b	0.3269466
204	0x3e02966d	0.12752695
205	0xbc87d081	-0.016578915
206	0xbe3df210	-0.18549371
207	0x3eb1a0cd	0.34692994
208	0xbd40d228	-0.04707542
209	0x3e47715a	0.19476834
210	0x3e8b440d	0.27200356
211	0x3de9591f	0.113939516
212	0xbe256f6a	-0.16155782
213	0x3da07451	0.078346856
214	0x3eb3c9a9	0.35114792
215	0xbe038c67	-0.12846528
216	0xbdc33502	-0.09531595
217	0xbd24f72c	-0.040274784
218	0x3da0935a	0.07840605
219	0x3e77c1fc	0.24195093
220	0xbe916e9d	-0.28404704
221	0x3d0ae2a4	0.033907548
222	0x3d7ad2a2	0.06123603
223	0xbb889f73	-0.0041693985
224	0xbe1b2cfb	-0.15153877
225	0x3d313b86	0.043269657
226	0x3d2ff291	0.04295594
227	0x3e174019	0.14770545
228	0x3e578ca5	0.21049745
229	0xbcc64d63	-0.024206823
230	0x3b83f6fe	0.0040272465
231	0xbe3241a4	-0.17407852
232	0x3e24febe	0.16112801
233	0x3d5de84f	0.054176625
234	0xbde4ed6c	-0.11178097
235	0x3e027886	0.12741289
236	0x3e7eb302	0.24872974
237	0x3cc24bba	0.02371775
238	0x3df1ebf9	0.11812586
239	0x3d7d0257	0.06176981
240	0xbe116a73	-0.14200763
241	0x3e06d142	0.13165763
242	0xbe1c6ab4	-0.15275079
243	0xbbed2f5e	-0.0072383126
244	0xbcfee1f6	-0.031113606
245	0x3d50612a	0.050873913
246	0xbd91652b	-0.070993744
247	0xbdbabad1	-0.09117664
248	0x3d906fd8	0.070525825
249	0x3e2ad87e	0.16684148
250	0x3d3b6714	0.0457526
251	0x3e2ef7d1	0.17086722
252	0xbbc2f949	-0.0059501273
253	0x3da83138	0.08212513
254	0x3e0db871	0.1383989
255	0xbc7fa042	-0.015602173
