mlagents/Assets/results/testdia2spawnpoints/RollerBall/RollerBall-189573.onnx (onnx, 139880 bytes, 9 tensors)

action_model._continuous_distribution.log_sigma f4 [1, 2]
000000 b7 3b a4 bf 91 86 80 bf
       -1.2830724 -1.0041066

action_model._continuous_distribution.mu.bias f4 [2]
000000 fc 4e 1d 3d 70 93 a4 3b
       0.038405403 0.0050224587

action_model._continuous_distribution.mu.weight f4 [2, 128]
000000 58 82 b9 3d 66 41 21 bd 63 c7 ee 3c 5a 91 02 3e
       0.09058064 -0.03936901 0.02914781 0.1275076
000010 aa b3 79 3d 48 45 2a bd 69 30 60 3c 1e 9c 11 be
       0.060962357 -0.041569978 0.013683417 -0.1421971
000020 e7 d3 c4 bd e3 2e 56 be 1b ad bf 3b 40 ce f5 3d
       -0.0961073 -0.20916323 0.005849493 0.1200223
000030 b6 ea c8 bd 30 6f b8 3d 29 85 3b bd 3a a4 2b bc
       -0.098103926 0.09005582 -0.04578129 -0.010476166
000040 48 5d 6e bc 42 24 0e bd a8 61 ba 3c 12 bc 95 bc
       -0.014548607 -0.034702547 0.022751644 -0.018278155
000050 ab 7b 10 be e9 d6 e3 bd 17 79 0c 3e 62 3f 11 3c
       -0.14109676 -0.11124975 0.13718067 0.008865209
000060 be d5 fc 3b b3 36 dc bd 5e bc b3 3d 21 5b 10 be
       0.0077159097 -0.107526205 0.087761626 -0.14097263
000070 e6 28 48 bd 7b 9a 1c bd cf 75 8a bd 61 9f ab 3b
       -0.04886713 -0.03823326 -0.067607515 0.0052375053
000080 fa c3 56 be 21 18 b4 3d 1a 76 be 3c 7c 70 b7 bc
       -0.20973197 0.08793665 0.023249675 -0.022392504
000090 aa 00 a0 3c 33 71 9d bd ca 0e ea bd 92 90 97 bd
       0.019531567 -0.07687607 -0.11428602 -0.074006215
0000a0 50 e5 bf bd 96 1a d7 bc af fe 09 3b 5b f6 88 bd
       -0.0936991 -0.026257794 0.0021056344 -0.066876136
0000b0 30 ee 17 bd 02 16 fd 3c bb f6 09 3d 77 27 1e bd
       -0.037092388 0.030894283 0.033682566 -0.038611855
0000c0 07 46 0d be 3c 17 4d bd 8c 49 d6 bd a8 ec 26 3d
       -0.13796245 -0.050070986 -0.10463247 0.040753037
0000d0 b6 15 f0 bd 0e f5 6b bd 7d 4f 7f bc 52 3a b1 bc
       -0.11722891 -0.05760675 -0.015582916 -0.021634255
0000e0 09 f2 f5 3c 73 60 e9 3d 03 ef 9f 3c 9b 18 31 3d
       0.030022638 0.11395349 0.01952315 0.043236356
0000f0 b8 86 13 bd bf 29 8a bd 09 c1 9e bd 5f 4b 12 3e
       -0.03601715 -0.06746244 -0.07751662 0.14286564
000100 c7 19 88 bd 07 f1 67 bc d8 27 98 bd 19 66 09 3c
       -0.06645542 -0.0141565865 -0.074294746 0.008386158
000110 52 0c 6c 3d 2f 54 e4 bd a6 06 dd bd 98 69 86 bd
       0.057628937 -0.11148869 -0.10792284 -0.06563109
000120 f8 a0 2f bd e4 f8 b0 3c 2d 7d 43 bc 5e db f3 bd
       -0.04287812 0.021603055 -0.0119317 -0.11907075
000130 c3 cc 14 3d c7 f0 44 bd a2 f6 95 bd 1b ef da bd
       0.03632809 -0.048081186 -0.07322432 -0.10690137
000140 90 97 90 bd f8 e0 94 bd cb aa ed bd 91 54 93 bd
       -0.07060158 -0.07269472 -0.11604842 -0.07193864
000150 ec 6b 8f bd d4 c6 3f bd 46 2d b0 bc e4 ac 87 bd
       -0.07003006 -0.046820477 -0.021505963 -0.06624773
000160 2a f4 6c 3d 3b 40 9c bd 0f e9 2d 3d 83 c6 91 bd
       0.05785004 -0.076294385 0.04245859 -0.07117941
000170 26 0f a6 bd 9f 42 88 bd ff e1 91 bd e4 e3 36 be
       -0.08108358 -0.06653332 -0.071231835 -0.17860371
000180 28 df fc 3d bd d3 2c be 7a 24 b0 bd 95 69 50 3e
       0.12347251 -0.16877647 -0.08600707 0.20352776
000190 22 fa 3e 3d 8f 97 db 3d b7 a1 88 bd d7 c9 14 bd
       0.046625264 0.10722267 -0.0667147 -0.036325302
0001a0 16 d2 7f 3d 8c f4 9b 3c e4 19 e6 3d ff 25 e9 3d
       0.062456213 0.019037507 0.11235407 0.113842
0001b0 cc 80 79 bd de b6 c7 bd e7 ee f8 3c 58 17 78 bc
       -0.060913846 -0.09751676 0.030387355 -0.015142284
0001c0 aa d3 2e 3c 22 bb 23 be d2 07 91 bd 47 7f 14 bd
       0.010670582 -0.15989354 -0.0708157 -0.036254194
0001d0 36 e0 09 bd 73 e6 6b 3c 73 cc 85 bd fb b1 c1 bc
       -0.03366109 0.014398205 -0.06533136 -0.023644438
0001e0 df 99 7b 3d 56 3b 1e 3c ae d0 c0 bd ae 95 d6 3d
       0.06142604 0.0096577015 -0.094148025 0.10477768
0001f0 bb 5d 86 bd 10 e2 90 bd be 4c 42 bc 82 84 39 be
       -0.065608464 -0.07074368 -0.011859117 -0.18116954
000200 4c 95 7b 3d f4 22 12 be 3c 45 5f bd 64 90 cc bc
       0.061421677 -0.14271146 -0.054509386 -0.024971195
000210 5e 72 ba 3d 2d a2 b6 3d 1d 2e 51 bd 28 3b 22 bd
       0.09103845 0.08917651 -0.051069368 -0.039607197
000220 ca ff 05 bc a8 14 33 3e a1 27 ac bc ef 06 f5 3c
       -0.008178661 0.17488348 -0.02101499 0.029910533
000230 54 73 ea 3c 40 58 56 3d fd 05 bb 3c e3 d4 6d 3c
       0.028619446 0.052330256 0.022830004 0.014516088
000240 7b 8d 53 3c a6 c3 43 be f8 65 a5 3d a3 2c 2a bd
       0.01291215 -0.19117603 0.080760896 -0.041546475
000250 0e 0a d2 bc af 23 2e bd 73 7f 97 bd 48 18 20 3e
       -0.02563956 -0.0425145 -0.07397356 0.15634263
000260 5e bb 88 bc 20 dd 94 be 63 43 4f be 02 83 2a bd
       -0.016690906 -0.29074955 -0.2024055 -0.041628845
000270 75 43 93 bd 66 29 af 3d 7f 1a d5 3c fa b0 f7 bc
       -0.07190601 0.08552818 0.02601361 -0.030235756
000280 7c 0e 7c 3c 8c 23 77 bc 3c b5 f5 bd cc df 80 bb
       0.015384313 -0.015084159 -0.11997458 -0.0039329287
000290 37 13 70 3b 8a 9b 3b be f3 50 34 3c 61 7e 5a bc
       0.0036632547 -0.18321052 0.011005628 -0.013335795
0002a0 d6 e9 e4 bd f7 23 9a 3c d9 e3 d3 bc 76 e7 48 bd
       -0.11177413 0.018815977 -0.025865482 -0.049048863
0002b0 03 c8 19 3d 4c b9 ff bd 02 00 5f 3d 71 ef 7d 3d
       0.03754426 -0.124865144 0.054443367 0.061995927
0002c0 f0 b3 d6 bd 0e d4 bc bc 62 fc 85 bd 56 59 b2 b8
       -0.10483539 -0.023050334 -0.06542279 -8.5043415e-05
0002d0 94 ed df bc 40 8a 4b 3b 27 f5 93 3d 9f 43 72 3d
       -0.027334966 0.0031057745 0.072244935 0.05914652
0002e0 59 11 9d bd 90 76 b3 3d 0c 4f c8 bc 36 3d f7 bc
       -0.076693244 0.087628484 -0.024451755 -0.030180555
0002f0 69 47 15 3c 10 03 56 3c 1e 0f be 3c fe 91 ad 3b
       0.009111264 0.013062254 0.023200568 0.0052969446
000300 93 d4 20 3d 5a 2c 09 be 83 17 30 bd 0d a6 63 bd
       0.039265227 -0.13395825 -0.042991173 -0.05557828
000310 c6 3f 81 3d f1 11 c8 bc ec ed c0 bd b5 9b 45 be
       0.06310992 -0.024422618 -0.0942038 -0.19297679
000320 b3 85 20 be fa cd cf bc df c5 dd bd 8d d2 2d be
       -0.15676002 -0.025366772 -0.108287565 -0.1697485
000330 72 ba fc 3c 05 16 5f bc 2f c3 f6 bc e4 fb 3d 3d
       0.030850623 -0.01361609 -0.030122368 0.0463828
000340 6f 5e f9 3c 73 ed 14 ba 29 a3 aa bd a8 29 d0 bd
       0.030440537 -0.00056811346 -0.083319016 -0.10164195
000350 8a c3 c4 bb a0 58 c9 bd 69 ae 57 bd 7d e8 f6 bd
       -0.0060047554 -0.09831357 -0.052656565 -0.12056062
000360 df 33 0b be 65 fe 5e 3c ef de 1c be 4c 67 bb 3d
       -0.13594006 0.013610457 -0.15319417 0.09150562
000370 73 9c 4f 3d 1b 03 49 bd 58 fc a0 3d b7 f4 20 be
       0.05068631 -0.049075227 0.07860631 -0.15718351
000380 84 c8 4c bd a0 de c3 bc 1f 94 37 3d f1 8b 19 be
       -0.049995914 -0.023909867 0.044818994 -0.1499479
000390 51 48 78 3a 53 10 ee bd 9e 82 78 3d 58 a9 a4 bd
       0.0009471225 -0.11624207 0.06067144 -0.08040112
0003a0 05 b1 79 3d 5e 09 ac bd 1c 37 d5 bb 6d 31 97 bb
       0.060959835 -0.08400224 -0.0065068137 -0.0046140463
0003b0 2e 3b 8b 3d 4c ad b6 bc 11 44 84 bc c6 57 92 3d
       0.06798397 -0.022299431 -0.016145738 0.07145648
0003c0 51 d5 51 3d 84 90 a7 3d 22 b5 ee bc 81 6b c9 bb
       0.051228825 0.08181861 -0.029139105 -0.0061468487
0003d0 4f 0c 65 bc 61 ce 55 3e 78 47 a7 bc 10 ad 72 bc
       -0.013979985 0.20879509 -0.020419821 -0.014811769
0003e0 f9 08 ae bd be a5 0f 3d c1 ec fb bb b3 f0 1c 3e
       -0.08497805 0.035070173 -0.0076881354 0.15326194
0003f0 cc f7 a1 3b f6 65 d9 bc cb 06 ee 3c 94 fd a8 bc
       0.00494287 -0.026537877 0.029055974 -0.020628728

network_body._body_endoder.seq_layers.0.bias f4 [128]
000000 f5 7c 1a 3c 5d aa 9a bc 9c b9 c5 3d 52 d9 f9 3d
       0.009429206 -0.018880064 0.09654543 0.12199654
000010 8d f5 95 bd 16 2e 90 3b 9b 28 a9 bd 1c 34 62 3e
       -0.07322226 0.004400025 -0.08259698 0.2209019
000020 77 0b db 3d 00 48 4d 3d 46 97 25 3d 36 17 4e 3d
       0.10695546 0.050117493 0.04042747 0.050315104
000030 32 cd 21 be 03 28 b7 3d fe d2 e6 bb e8 94 60 3d
       -0.15800932 0.089431785 -0.007044195 0.054829508
000040 38 9b ff 3c d4 68 bf 3b e9 ea f3 bc 04 68 db bd
       0.031201944 0.005841354 -0.0297751 -0.10713199
000050 61 8c 0b 3e 6a 0c d8 3d 30 29 e2 3c fa 1f cf bc
       0.13627769 0.10549243 0.02760753 -0.025283802
000060 0d 75 cf 3d 99 b1 c9 bd 15 9c 5c bd 50 54 11 3d
       0.101297475 -0.09848327 -0.05385979 0.035480797
000070 de 0a d5 bd 0b 1f 30 be fa 36 6e 3d a0 ab 91 3d
       -0.104024634 -0.17199342 0.0581579 0.07112813
000080 31 76 a3 3d 5c 97 00 3e 23 1d 03 be 68 97 f7 bd
       0.079815276 0.12557739 -0.12804084 -0.12089425
000090 3a 0e 11 be 7b 8a 8c 3d 4f 66 c9 bb 80 af aa 3d
       -0.14165583 0.068623506 -0.0061462293 0.08334255
0000a0 e7 bd 86 3d 34 e6 03 bd a5 b7 2d 3d 9f 3c 88 bd
       0.0657919 -0.03220196 0.042411465 -0.066521876
0000b0 07 ab cf 3c 65 ee 0b be 49 85 aa bd 30 3f 8b bd
       0.025350107 -0.13665159 -0.083262034 -0.067991614
0000c0 68 f1 c1 bd 2e 27 ba bd 7a 58 98 bd d5 75 69 bd
       -0.09469873 -0.09089504 -0.074387506 -0.05699714
0000d0 df d6 10 3d 58 a1 90 bc 39 14 aa 3c 97 a5 e3 bc
       0.035361167 -0.01765506 0.020761596 -0.02778892
0000e0 c0 b8 bb 3a ea c2 64 bb a7 68 d0 bd be b5 aa 3c
       0.0014322028 -0.0034906217 -0.10176211 0.020838615
0000f0 e4 7b a1 3c 4a 11 d3 bc e1 c8 31 bb 00 fe 44 bd
       0.019712396 -0.02576508 -0.002712779 -0.048093796
000100 c9 b7 a1 bd 25 13 77 bd e7 e6 83 bd 57 0d c0 3d
       -0.07896382 -0.060320992 -0.064405255 0.093775444
000110 ac ec d9 bc c4 45 66 3d e5 fc 06 3d a0 ef af 3d
       -0.026602112 0.056218877 0.032956023 0.08590627
000120 2f 0a 95 3d ad 9c f6 bc 1d 75 3b 3d 12 df 40 3e
       0.07277333 -0.030104006 0.045765985 0.18835095
000130 c9 b4 bb bc f2 8c 7d 3d 90 41 06 3c af fb ce bd
       -0.022913354 0.061901994 0.008194342 -0.101065986
000140 48 8c b4 3d fc f1 0d be 44 06 0d bd 96 73 8a 3d
       0.08815819 -0.13861841 -0.034429803 0.067603275
000150 40 25 b6 bb 12 ee fb 3d 5c 79 aa bd 59 d3 0e 3d
       -0.0055586398 0.12301268 -0.08323929 0.034869526
000160 99 67 a4 3d 4f 05 be 3d 7b af 5d 3d 80 f7 90 3d
       0.08027572 0.09278356 0.05412243 0.07078457
000170 b8 6d 21 3e 4e 35 60 3d d2 d2 ea bd f5 75 b6 bd
       0.1576451 0.054738335 -0.11465992 -0.08909217
000180 25 26 f5 bd ea bc a8 3c 12 24 c7 bc 8d 40 0b be
       -0.11970166 0.020597894 -0.024309192 -0.13598843
000190 7c 24 71 3d 86 06 7e bd fe 1a 9e 3d 38 2d f0 3d
       0.058872685 -0.06201794 0.07719992 0.11727375
0001a0 44 38 34 bd f1 0d bd bd 83 06 9e 3d 54 2c f9 3d
       -0.04399897 -0.09231175 0.07716086 0.12166658
0001b0 a4 4a 5f 3d 86 b7 b0 3d 57 73 86 3d 58 11 1c bd
       0.054514542 0.08628754 0.06564968 -0.038102478
0001c0 dc 7f da 3c cb 01 2e 3e 5d 01 85 bd 40 4c ee 3c
       0.026672296 0.16992871 -0.06494401 0.029089093
0001d0 54 c8 08 bd f2 a3 7a 3c cf 27 b5 3d 78 2c 21 3e
       -0.033394173 0.015297877 0.088454835 0.1573962
0001e0 8f 23 c7 3c db fa e4 3c 6f 4f 44 3d 45 3d 17 3e
       0.024308948 0.027951648 0.047927316 0.14769466
0001f0 e0 24 cc bd 2f 87 d8 3c 48 33 2f bb d4 77 a9 bc
       -0.09967971 0.026431648 -0.0026733447 -0.020687021

network_body._body_endoder.seq_layers.0.weight f4 [128, 8]
000000 df 26 53 3f b5 a5 94 3e 7e da 84 be 59 fb d6 3e
       0.8248119 0.29032674 -0.25947946 0.41988638
000010 ab de b0 3e ed 5a 7d 3f 77 41 42 3e 45 90 40 3f
       0.34544882 0.98966867 0.18970285 0.7522014
000020 04 93 b6 3e f6 c5 32 3e 6c 74 f1 be de c7 06 be
       0.3565904 0.17458329 -0.47159135 -0.13162181
000030 70 97 1c bf e1 4d 0d 3e e6 e9 04 bf 76 79 7d 3e
       -0.61168575 0.1379924 -0.519194 0.24753365
000040 7d 10 f9 be 52 7f b2 3d e4 ee a2 bd 4f 07 e7 3c
       -0.48645392 0.08715691 -0.07955721 0.028201727
000050 91 21 87 3d 96 ec cf be f8 1f 03 bf ea cb c7 bf
       0.06598199 -0.40610188 -0.51220655 -1.5609105
000060 ba 2d ea 3d 8f 46 91 be e9 89 37 3e f2 b1 5b be
       0.11434503 -0.28374144 0.17923702 -0.214546
000070 49 bd 85 3d 18 f1 9b 3e 05 82 0c bf 99 9e d9 3d
       0.06530244 0.30457377 -0.54885894 0.10625953
000080 17 28 85 ba 78 1e 52 3d e2 b5 c0 be 45 91 d6 3e
       -0.0010159042 0.05129859 -0.37638766 0.41907707
000090 94 a5 e3 be 7f e6 ed bd 2a 43 9e bf 94 a9 93 be
       -0.44462264 -0.11616229 -1.2364247 -0.28840315
0000a0 c2 45 dd bd 28 34 a1 3d b6 1c 9c bf 12 d7 92 3e
       -0.10804321 0.07871276 -1.2196262 0.2867971
0000b0 d8 c5 35 be 82 e5 ac 3e dc d9 9a bf 0e 4d 27 be
       -0.17751253 0.3376885 -1.2097735 -0.16337988
0000c0 4e ee 97 bd 6a 27 91 3e ab 9d fc bd 3d d3 bf 3e
       -0.074185 0.28350383 -0.1233476 0.3746585
0000d0 b7 41 e3 be 66 8b 9b 3d 5a 40 98 bc 44 fd 73 3f
       -0.44386074 0.075949475 -0.018585373 0.9530833
0000e0 66 b7 1a bf ca 1c 9f 3e 34 0d d4 bd 0d 55 0e 3e
       -0.60436094 0.31076652 -0.10354081 0.13899632
0000f0 b1 82 83 bd 10 ca c2 3e 67 38 4e be 14 92 72 3f
       -0.06421412 0.38044786 -0.20138703 0.9475415
000100 3b ab 35 bd 2f 0f 1a 3f 50 6a 6f bf 27 4b d7 be
       -0.04435275 0.6017942 -0.93521595 -0.42049524
000110 bb 48 e5 3e 70 db 5e bc ce 2b ab 3d 31 ec 3e 3f
       0.4478205 -0.013602123 0.083579645 0.7457915
000120 2f 55 32 3b 20 a3 f2 bd 4a bc 82 be f1 97 c3 3d
       0.0027211418 -0.1184752 -0.25534278 0.09550465
000130 8a d9 72 3e e7 78 07 3f 71 63 36 3f 1c d6 1f be
       0.23715797 0.5291886 0.71245486 -0.1560902
000140 d2 99 be be af 66 7e 3e d1 ac 87 3e 75 08 80 3e
       -0.3722673 0.24843858 0.26499036 0.25006452
000150 ec 37 d7 3d d2 48 c8 bd f2 66 7c 3f 26 a2 19 3f
       0.10508713 -0.09779514 0.9859458 0.60013044
000160 55 83 66 be b3 a8 0c 3f 52 15 d0 bd 1c 4a cf bc
       -0.22511037 0.54944915 -0.101603165 -0.025303893
000170 3f d7 05 bc 70 5f a3 be 03 6d 0c bf 38 97 81 3e
       -0.008168994 -0.3190875 -0.5485384 0.25310683
000180 bc c3 42 be 36 f5 1a be ec 88 f5 be 14 f6 f3 3e
       -0.19019979 -0.15132603 -0.47956026 0.4764868
000190 dc 76 de be cf d0 0d 3e 90 95 a5 3e b4 c0 82 3e
       -0.43450058 0.13849185 0.3234067 0.25537646
0001a0 13 ed fd 3e c3 f7 0f 3f 59 ae 19 3f 74 7f 5c bf
       0.49594936 0.5623743 0.6003166 -0.8613198
0001b0 18 bf 2d be 77 cb d6 bd 5f 3f c0 be 02 21 c9 be
       -0.16967428 -0.104880266 -0.37548348 -0.39282995
0001c0 0d b2 45 3e 47 82 96 be 8e 8a 2e bf e1 3d 8a 3e
       0.19306202 -0.2939627 -0.6818017 0.27000335
0001d0 b3 fe f7 3d 5b 40 4b 3e 3e 45 e0 be 2a 79 80 3e
       0.12109127 0.19848768 -0.43802828 0.2509244
0001e0 d6 73 08 3d f5 90 1c be ef e9 98 bc ae 6d 34 3d
       0.033313595 -0.15289672 -0.018666236 0.04404991
0001f0 a3 8b 24 3e 14 44 8a 3e fc b1 5c bf 5d 21 ce be
       0.16068892 0.27005064 -0.8620908 -0.4025983
000200 6b 1e a5 be b6 e1 f8 3e 29 27 b9 be b9 37 16 bf
       -0.3224977 0.48609704 -0.3616269 -0.58678776
000210 c6 65 53 3e 33 3c bb be eb 64 73 be ee b0 f9 be
       0.20644292 -0.36569366 -0.23768966 -0.487678
000220 ac 20 c9 bd c4 ab 43 3e 49 1d 4a bd 7b d5 ba be
       -0.09820685 0.19108492 -0.049344335 -0.36490998
000230 e2 7e 06 bf cd 5f 11 bf bf c5 0b bf 21 56 fb bd
       -0.5253736 -0.56786805 -0.5459861 -0.12272287
000240 03 4c 12 be 1b 81 92 bd b1 4d 21 bf b2 2e 83 3e
       -0.14286809 -0.07153531 -0.6300917 0.25621563
000250 fc 67 2c 3f bb d4 dd 3d 66 df b2 bc 55 41 aa be
       0.6734617 0.10831591 -0.02183504 -0.3325297
000260 f5 f2 1b 3e ce d1 37 bf e3 1c c6 bd 4b d4 88 3e
       0.152294 -0.7180451 -0.096734785 0.26724467
000270 0c 7e 7c bd 42 31 70 be 33 75 f3 3e 81 24 79 bf
       -0.061643645 -0.2345629 0.47550353 -0.97321326
000280 ac 28 11 bf 8e 20 07 3d 24 14 6f be 60 63 15 bf
       -0.56702685 0.03299003 -0.23347527 -0.5835476
000290 12 dd 46 3f 6c 77 cc be e3 55 82 be d0 32 b3 3e
       0.77681077 -0.39934862 -0.2545615 0.34999704
0002a0 af 93 2b bc b1 03 7f 3e 68 3f 95 3d 61 3a a9 3d
       -0.010472222 0.24903752 0.072874844 0.08263088
0002b0 28 91 d9 be 98 77 d8 3e 68 11 52 3f 1c d9 ba 3d
       -0.42493558 0.42278743 0.8205781 0.091234416
0002c0 4c 71 8c 3e 35 76 ca 3e 38 98 94 be 28 4c 59 be
       0.2743019 0.3954331 -0.29022384 -0.21220458
0002d0 08 3c d5 be 13 c2 a4 3d c9 12 58 3f 63 09 09 bf
       -0.41647363 0.08044829 0.84403664 -0.5352995
0002e0 88 b6 11 be dc 64 0e 3e 48 46 8c be 8c 47 07 bf
       -0.14229786 0.13905662 -0.2739737 -0.52843547
0002f0 51 27 ca be eb e6 84 be bc 12 3c 3f e0 1b 26 bd
       -0.3948312 -0.25957426 0.73466086 -0.040553927
000300 5a 15 4c bd 74 76 66 3e 2d 33 a3 be f4 3d c1 be
       -0.04982505 0.22506124 -0.31874982 -0.3774258
000310 d2 96 03 3e 7d de a4 3e e5 c5 df 3d fa ff 08 bb
       0.12850502 0.32200995 0.10926417 -0.0020904527
000320 0a b7 ab 3e 02 da c6 be f9 3a 18 bf 0b bb b1 bd
       0.33538085 -0.38838202 -0.59464985 -0.08678254
000330 46 fa 58 bf eb d5 0c be 96 da 50 3c 23 9e 37 bf
       -0.84756887 -0.13753478 0.012747427 -0.7172567
000340 56 5f 62 3e 46 78 c4 3e 11 9e d6 bc 5e c4 b7 3c
       0.2210668 0.3837301 -0.026198419 0.022432502
000350 bc 2a b8 be 34 31 23 3e 59 09 98 be aa c9 19 bf
       -0.35970104 0.15936738 -0.29694632 -0.6007334
000360 00 a3 0f 3e 86 a8 42 be d6 33 a5 3e ed 44 b5 3d
       0.14027023 -0.19009599 0.3226611 0.08851037
000370 74 da 27 3e 2a d8 56 3d 3a 2a 83 3f 92 1d 9e bb
       0.16391927 0.052452244 1.0247262 -0.0048253024
000380 72 67 92 3e 40 4e 82 bd 32 54 62 3f ad 3e 88 3d
       0.28594548 -0.06362581 0.8840972 0.066525795
000390 07 22 85 3f 8b 1a f1 3d 8d 29 f0 be b1 d3 28 3f
       1.0401009 0.11772641 -0.469067 0.65948015
0003a0 06 f5 37 3d 29 9f 50 bd e3 c2 35 3e bd 84 07 3f
       0.044911407 -0.050933037 0.17750125 0.5293692
0003b0 2e ab 4c 3e bf b4 10 be 37 4a 47 3e 0c 74 ac be
       0.19987175 -0.14131449 0.19461904 -0.33682287
0003c0 17 95 6c be c8 a3 0d bf fa f1 b2 3c 43 ec 05 bf
       -0.23103748 -0.55328035 0.021843899 -0.5231363
0003d0 12 a8 0d 3f 36 6c 90 bd 3d b6 a1 3e c7 d4 1a be
       0.5533458 -0.070518896 0.3158435 -0.1512023
0003e0 44 ca 62 be 26 6e a0 3e 00 5b 80 3e a4 0a 41 be
       -0.2214747 0.31334037 0.25069427 -0.18851715
0003f0 e1 da 2b be 10 93 1d bd 07 e4 4a 3f b4 0b c7 3e
       -0.16782714 -0.038470328 0.7925419 0.38876116

network_body._body_endoder.seq_layers.2.bias f4 [128]
000000 70 08 f3 3c 62 fe 22 bd 85 5c 1e bd 5a a8 16 bd
       0.02966711 -0.03979338 -0.038662452 -0.036781646
000010 38 e6 1e 3d a0 48 02 3c 19 69 51 bc 52 92 00 3b
       0.038793772 0.007951885 -0.012781405 0.0019618464
000020 fe c2 e6 bc da 8f d0 bc b9 8b 8b bd 65 4e c8 bd
       -0.028169151 -0.025459219 -0.06813759 -0.097805776
000030 bd 9e 0a bd d3 1d 55 3c b3 e3 47 bd 2c 09 f4 bc
       -0.03384279 0.013007599 -0.048801135 -0.02978953
000040 3b d3 08 bb 2a c2 b5 3b e7 f0 83 bd 28 76 39 bd
       -0.0020877856 0.005546828 -0.06442433 -0.0452787
000050 a6 82 90 3c 44 5f 1b bd 27 e6 70 bd ef 96 ff bc
       0.017640423 -0.03793265 -0.05881324 -0.0311999
000060 5e 30 6d bc 4a f2 aa bc dc fb 39 3d 7a 41 3a bd
       -0.014476864 -0.020867486 0.045406207 -0.0454726
000070 6e 86 0e 3c 1f cb 9b bc 9b 43 93 3d 51 0c 0a 3b
       0.008699043 -0.019017754 0.07190629 0.002106447
000080 58 80 74 bd 61 07 91 bd 70 74 cd bc c7 7a fa 3c
       -0.05969271 -0.070814855 -0.025079936 0.030576123
000090 d9 16 48 3c a4 01 97 3c 29 2a 3e bd 1a 12 f9 bb
       0.012212479 0.0184334 -0.046426926 -0.007601035
0000a0 9f 3d 08 bb fb 35 a5 bc 85 0b 03 bd 7a 4c a0 3b
       -0.0020788682 -0.020167341 -0.031993408 0.004891929
0000b0 4a 39 89 bc c8 0f 13 3c 8c 3c 4b bc ec 17 08 bd
       -0.01675095 0.0089759305 -0.012404572 -0.03322594
0000c0 fe 5a 85 3d 65 45 81 3b 3a 65 c2 bc c2 1d 2f 3d
       0.06511496 0.00394504 -0.02372991 0.04275299
0000d0 7d 07 20 3d 99 36 6d 3c 34 74 0c bd 6a 4a 08 3d
       0.03906964 0.014478349 -0.034290507 0.03327409
0000e0 92 e8 8e 3c 7e 77 54 3d 3a f9 18 bd 10 1b ba bc
       0.017444883 0.05187177 -0.037347056 -0.022717983
0000f0 36 d5 9c bc dc a4 25 bb 29 fb 4e bd 58 71 2c bc
       -0.019144636 -0.0025275266 -0.050532494 -0.01052507
000100 bc e7 2f bd 44 31 5d bd 19 a4 0c bc 6f 3c 49 bc
       -0.04294561 -0.05400206 -0.008584046 -0.012282475
000110 b6 3e ad bd 65 86 11 bd 59 ee 3f 3c e6 17 37 bd
       -0.08459227 -0.03552856 0.011714541 -0.044700526
000120 c9 9b ad bd d8 e6 ec bc 31 80 ac 3b ad 3f 13 bc
       -0.08476979 -0.028918669 0.005264305 -0.008987349
000130 e2 7a 11 bc 94 8e 9e bc 98 2b 7e bb 20 38 2a 3d
       -0.008879395 -0.019355096 -0.0038783308 0.04155743
000140 43 b2 e7 3b ed 22 10 bb 8b 1e 6e 3b f1 c9 ea 3a
       0.007070811 -0.0021993474 0.0036334123 0.0017912966
000150 6f f4 63 3c 2e f4 8d bb bb 5c ee 3c 09 ea ee bc
       0.013913258 -0.004332087 0.029096952 -0.029164331
000160 a5 db 50 bd 63 54 89 bc da 1a ef bc 81 88 c6 bc
       -0.05099072 -0.016763872 -0.029187609 -0.024235012
000170 f1 ad ed bc b8 eb 9e 3c 97 22 b5 bc 3e 94 f7 3b
       -0.029013606 0.019399509 -0.02211122 0.0075555136
000180 47 f0 97 bd 0b 09 63 bd 8d e9 46 bb 37 4f 12 bd
       -0.07418876 -0.055428546 -0.003035161 -0.035720076
000190 75 a3 b0 3c de 1c 3c bd f3 a0 8b b9 43 48 8a bb
       0.021562317 -0.045925967 -0.00026632063 -0.00422004
0001a0 86 82 e7 bc 91 24 10 3c 10 24 4f bd 27 41 c9 36
       -0.02826048 0.008797781 -0.0505715 5.9978515e-06
0001b0 a7 a4 e8 bc c4 57 84 bc d5 b7 3c 3c fb ac 71 bd
       -0.028398825 -0.016155131 0.011518438 -0.059002858
0001c0 33 47 d0 3c 33 d4 2f bc 96 a5 3d bd 8a 16 0b bd
       0.025424575 -0.010731745 -0.046300493 -0.03395704
0001d0 dd 8e d2 bc ae cf 91 bd d7 a2 51 bc 4a ee 57 bc
       -0.025702888 -0.0711969 -0.012795172 -0.013179371
0001e0 4c d3 8e bb 51 5e 10 bd 3f 77 06 bd 6d be 05 bd
       -0.0043586846 -0.035246197 -0.032828566 -0.032652307
0001f0 fe 5c 0f bd da 88 2a bc c5 6c 42 bd 8d 06 cb bc
       -0.035000794 -0.0104086045 -0.047467012 -0.024783397

network_body._body_endoder.seq_layers.2.weight f4 [128, 128]
000000 b3 f1 cb bd 73 a4 64 bb fe c7 23 bd e1 bd 0b 3d
       -0.0995821 -0.0034888058 -0.03998565 0.03411663
000010 4c 70 a2 bd ec cc 88 bd 36 d1 69 bd ea db 16 be
       -0.07931575 -0.06679711 -0.057084285 -0.14732328
000020 e5 93 c1 3d 1b fa ed bd 54 66 2d be 73 d3 1f bd
       0.09452037 -0.116199695 -0.16933566 -0.039020013
000030 f7 fb d5 3d 22 ee 7c 3d 2c 0f 9a 3d 94 64 0a bd
       0.10448449 0.06175054 0.07522425 -0.033787325
000040 2b a1 61 bd e1 99 65 bd 47 00 d9 bd eb e0 06 3d
       -0.055085342 -0.056054953 -0.10595756 0.032929342
000050 1a 52 95 be 62 e9 62 3d 1a d5 59 3e 50 ad d8 3d
       -0.291642 0.055398352 0.21272698 0.10579932
000060 98 a8 22 3e fb d2 18 3e a1 cc 5a 3e 9a e0 8c 3e
       0.15884626 0.14924233 0.21367122 0.27515107
000070 a0 64 87 bd 3d 5f 0a bd dd 40 2c be dc e4 6c bd
       -0.066109896 -0.033782233 -0.16821618 -0.057835445
000080 aa f0 f3 3c cc 3f 08 be 57 4f 16 3c 3a de 26 bd
       0.029777844 -0.13305587 0.0091741895 -0.040739276
000090 ae 62 7d bd 32 85 4b 3d 34 fd 94 3e fb 57 d7 3a
       -0.061861686 0.04968757 0.2909943 0.0016429418
0000a0 c6 43 8e 3d a5 4d c4 bd 3b 37 30 be cc 6c b7 bc
       0.069465205 -0.09585122 -0.17208569 -0.022390746
0000b0 1c e0 86 be b5 38 50 3c 2f 43 36 3e 15 76 7a 3e
       -0.26342857 0.0127088325 0.17799066 0.24459107
0000c0 c1 a7 f4 3d 3f 7e 06 be 3a f5 77 3c 3b 26 46 bc
       0.11946059 -0.13134097 0.01513415 -0.012094076
0000d0 0f f6 a5 bd ed 09 23 3e cc 2c 67 bd 22 df 67 bd
       -0.081035726 0.15921755 -0.056439206 -0.05660928
0000e0 e8 a4 7e 3d 65 0e 55 3d 3f ab c1 bd 1e aa 24 be
       0.062168986 0.05201568 -0.09456491 -0.1608052
0000f0 d8 78 4f 3e 6f 6c 20 bd 7c a0 d0 bd ee 49 bf be
       0.20260942 -0.03916591 -0.1018686 -0.3736109
000100 57 8a e3 bd 52 f0 1f be bc 22 4a bd a9 57 a0 bb
       -0.111103706 -0.15619019 -0.04934953 -0.0048932624
000110 53 54 8d bd 44 a1 f0 bd 7d d4 06 bd ec 26 4a 3d
       -0.06900849 -0.11749509 -0.03291749 0.049353525
000120 5d 31 69 bc 0f 59 a5 3e a8 c6 e0 bd 20 8e b6 3d
       -0.0142329605 0.3229451 -0.10975391 0.08913827
000130 38 a9 80 3d 90 73 82 3d 6a 97 34 be d4 8b a7 bd
       0.06282276 0.06369698 -0.17635885 -0.08180967
000140 80 3f 78 3e 6d 63 fd bd 55 7f a1 bc 94 f2 7b be
       0.24242973 -0.123724796 -0.019714037 -0.24604255
000150 d4 00 3b 3d 04 80 1e be 67 5f 5e 3d 63 e7 ba bd
       0.045655087 -0.15478522 0.0542902 -0.09126165
000160 41 06 02 bd 68 fa 5f be fd 56 2e be d8 f2 03 3e
       -0.031744245 -0.21872866 -0.17025371 0.12885606
000170 82 35 63 3b 07 c2 b8 bd dc 81 52 3c e5 73 92 3a
       0.0034669344 -0.09021383 0.012848344 0.0011173455
000180 ed b0 38 bb ca 37 8c 3d 58 d3 80 3c 61 de 32 be
       -0.0028181628 0.068465784 0.015725777 -0.17467643
000190 f7 cb 12 3d ac cc 70 3c 15 46 b6 bd 92 8a 14 be
       0.035839047 0.014697235 -0.08900086 -0.14505985
0001a0 04 0c e3 3d 7c 0f e7 3c bf b3 37 3e f4 94 9c bc
       0.11086276 0.028205626 0.17939661 -0.019113995
0001b0 fa 48 8c bc 7d 2f 03 3e 6d 62 5c be 54 37 f7 bd
       -0.017124642 0.12811084 -0.21521921 -0.120711
0001c0 31 c3 b7 bd 96 39 fc 3d 33 6e 6c 3d 91 5e 82 3d
       -0.08972777 0.12315671 0.05772228 0.06365693
0001d0 57 d6 a4 be af d7 81 bd 5b d0 5c be 5b 15 62 be
       -0.32194778 -0.063399665 -0.21563856 -0.22078459
0001e0 95 48 0f 3e 3f a8 fa bc 0f 03 1d 3c f4 68 e6 3c
       0.13992532 -0.030597804 0.009583249 0.028126217
0001f0 78 8f 3c 3c eb 48 1b be 31 a3 0b bb 9f 15 77 3e
       0.011508815 -0.15164535 -0.0021306986 0.24129342
000200 6e c6 41 be d1 6a d7 bd a8 f1 6b 3e f2 b5 0c be
       -0.18923351 -0.105184205 0.23041403 -0.13741282
000210 ab b6 e8 3d b6 0a 49 bd cc cb eb 3b 2a 05 45 3e
       0.11362966 -0.04908248 0.0071959253 0.19240251
000220 51 60 17 3d 00 0b d2 3d 8c 26 4c be f3 db a9 3d
       0.03695709 0.10256004 -0.1993658 0.08293905
000230 84 b2 07 be e2 aa 87 3e ff 30 b9 bd ef b9 bb bd
       -0.13251692 0.2649756 -0.090425484 -0.091663234
000240 a1 3b c1 bc ef 4f e7 bc 38 cd df bc 65 bf 65 3e
       -0.023588004 -0.028236357 -0.027319536 0.22436292
000250 03 c2 13 3d 83 67 66 bd a7 8d 87 3d 17 93 67 3d
       0.036073696 -0.05625106 0.06618815 0.05653676
000260 18 08 22 3d 53 01 06 3e 55 80 0d 3d 4c 11 c1 bd
       0.0395585 0.13086443 0.034546215 -0.09427127
000270 e2 ad ff bd 02 c8 2e 3d bf 4b 4f bd 43 d9 05 3e
       -0.124843374 0.04267121 -0.050609346 0.1307116
000280 38 28 ae 3c 8a 05 08 be f2 05 30 3d bc a2 17 bd
       0.021259412 -0.13283363 0.04297442 -0.03702043
000290 62 4a a1 bd d8 e3 55 bc 91 23 9c 3c ba 7c d0 3d
       -0.078755155 -0.01305481 0.019059928 0.1018004
0002a0 ee c3 80 3e 17 2c 2d bd 02 3e a2 bc d5 da 16 be
       0.25149482 -0.042278375 -0.019804958 -0.14731915
0002b0 50 2c d6 bb d5 ef d3 3c 47 d3 73 3c 3b f1 36 be
       -0.006536044 0.025871197 0.014881915 -0.1786546
0002c0 9e b6 a5 3d 9d eb 71 3c 22 b5 5a bc 2d 26 86 bc
       0.08091472 0.014765647 -0.0133488495 -0.016375626
0002d0 ab 0d 4a be c1 7e 91 ba b0 1b 79 3d 7e 04 a2 bc
       -0.19731776 -0.0011100398 0.06081742 -0.019777533
0002e0 32 a1 e0 3c a7 5d dd 3b f5 d5 07 bc 84 34 a3 3d
       0.027420614 0.006755549 -0.008290757 0.07969001
0002f0 e8 d6 b6 bc ab 60 9a 3d 69 9c 24 be 1f 92 ff bd
       -0.022319272 0.07537969 -0.1607529 -0.12479042
000300 93 23 5b 3e 9e d9 1c 3e 71 a6 38 be 36 76 75 be
       0.21400289 0.1531739 -0.18032242 -0.23970875
000310 b9 e1 e1 3d c3 d8 57 3d 62 6d f6 3c fe d0 a0 bd
       0.11029381 0.052696954 0.030081455 -0.07852362
000320 04 d9 f6 3d a8 2f ae bd 5a ef ab 3c d2 ee 1a 3e
       0.12053111 -0.085051835 0.020988155 0.15130165
000330 4f 0b 1b bd 7c c5 3e 3e 09 09 3c bc c8 60 dc bd
       -0.03785258 0.18630022 -0.0114767635 -0.10760647
000340 9a c2 45 be ac c2 14 be 7c 7e 3a 3e 7a 60 f0 bd
       -0.19312516 -0.14527386 0.18212312 -0.117371514
000350 b6 26 5b be 47 f4 7a 3d a2 12 11 bc 0d fd 89 bd
       -0.21401486 0.061268117 -0.00885454 -0.06737719
000360 f5 ee c6 bc b2 b5 2d bd 39 8f 46 3d ac 4a 36 bd
       -0.024283865 -0.042409606 0.04847643 -0.044504806
000370 71 6b 13 3e f9 09 8f 3d cd 59 14 3d 4e 22 0a 3d
       0.14396454 0.06984324 0.036218453 0.03372412
000380 54 a7 d3 bb f8 31 6d bd cb 97 02 3d a4 76 c7 3d
       -0.006459156 -0.057908982 0.031883042 0.09739426
000390 83 43 96 3d 86 6c ca 3d 7f d7 61 3c 82 6e 89 bd
       0.073370956 0.098839805 0.013784288 -0.06710531
0003a0 4a 17 50 3c 2d 72 a4 bc 50 47 9b bd 91 01 1c 3e
       0.012700865 -0.020073975 -0.07581961 0.15234973
0003b0 06 eb 45 be ec ae 91 3e c2 b2 f1 bc 8b e9 90 3d
       -0.19327936 0.28453767 -0.029504184 0.07075795
0003c0 4b 50 01 3e 8d 24 52 3e 07 1a bf 3d 8c ee 80 bd
       0.12628286 0.20521756 0.09331136 -0.06295499
0003d0 73 aa be bb f3 3c 8f bd 7d 91 19 3e 45 64 2e be
       -0.005818659 -0.06994047 0.14996906 -0.17030437
0003e0 83 ec 01 3c ed 60 0c bc d9 69 75 be c1 4c 16 3e
       0.007929924 -0.008568031 -0.23966159 0.14677717
0003f0 bb d0 18 3d 6c 96 08 be e3 20 ec bc 09 9e 42 bd
       0.037308436 -0.13338631 -0.028824275 -0.047513995

network_body._body_endoder.seq_layers.4.bias f4 [128]
000000 9c c8 d3 3b 97 8f 84 bd db 60 c4 bc f5 bb 00 3d
       0.0064631235 -0.064727 -0.023971966 0.03142925
000010 8c a4 a9 bc f4 ff 42 3d ca 4c 65 bd dc dc 4b bd
       -0.020708345 0.047607377 -0.055981435 -0.049771175
000020 36 3c 71 3c 2c fa ab 3d 5b bc 83 bd 6b 8f 46 3c
       0.014723828 0.08397326 -0.0643241 0.012119154
000030 50 f7 fa bc 72 48 1d bd d8 fd 5b bd f5 12 e4 bc
       -0.030635506 -0.038399167 -0.05370888 -0.02784107
000040 a5 74 bb bd 00 35 bd 3b ee ad e2 3c 95 76 26 bd
       -0.091531076 0.0057741404 0.027670827 -0.040640432
000050 9c e6 b4 bc f4 a6 36 bd 3c d9 ef bd 1a 41 1a bd
       -0.02208262 -0.044592813 -0.11711356 -0.037659742
000060 56 7b 05 bd 1d 56 70 bd fe a9 95 bc fa 5f e7 bc
       -0.032588325 -0.058675874 -0.018269535 -0.028244007
000070 36 87 8e bd 32 80 79 bc d0 01 24 bd 47 05 cd bc
       -0.06959383 -0.015228318 -0.04004079 -0.02502693
000080 e0 c4 38 bc 68 a5 aa 3c 54 27 9a bd bd be 3e bd
       -0.011277407 0.020830825 -0.075270325 -0.04656862
000090 0a 7b c0 bd bd e8 94 3d a3 94 88 bd ae 9c 70 bd
       -0.09398468 0.07270954 -0.06668975 -0.05874317
0000a0 7b 5e 23 bd f3 61 a3 bc 5a 43 83 bc a6 f6 79 bd
       -0.039885025 -0.019944167 -0.016023327 -0.061026238
0000b0 bd a7 76 bd 0b 0a 2b 3d 77 70 11 bd c0 7f 92 bd
       -0.06021856 0.041757625 -0.035507645 -0.07153273
0000c0 33 d0 30 be c8 c5 27 bc 72 be e2 3b b6 93 a8 bb
       -0.17266922 -0.010240026 0.0069196755 -0.0051445616
0000d0 4f 64 90 b9 33 ab ef bd de d3 b1 bd 09 99 39 bd
       -0.00027540556 -0.117025755 -0.086829886 -0.04531196
0000e0 e6 88 2e bd 20 fa 6e bd d5 c9 ca bd fe 30 01 be
       -0.042611025 -0.058344007 -0.09901778 -0.12616345
0000f0 a5 2f a4 bd 8e f4 61 bd 26 9e 13 bd d2 0c c7 bc
       -0.080169 -0.055164866 -0.036039494 -0.024298105
000100 44 5e 15 bd 91 c2 00 bc be 13 a8 bd 35 75 ad bd
       -0.03646685 -0.007858888 -0.082068905 -0.08469621
000110 09 40 23 bd e0 39 7a bc 36 2e 70 3b 29 a6 5d bc
       -0.03985599 -0.015272588 0.0036648638 -0.013528385
000120 0b d6 de bc 32 04 fd bd 78 82 33 bd b1 82 f1 3b
       -0.027201673 -0.12354316 -0.043825597 0.007370316
000130 a9 e0 2f bc 67 ad 7d bd fd 4b 02 bd 2a 73 b0 3a
       -0.0107347155 -0.061932947 -0.03181075 0.0013462056
000140 bc c9 d1 bd bf 8e e7 bd f5 43 88 3b 39 03 9c bd
       -0.10243556 -0.113065235 0.0041584917 -0.07617802
000150 83 71 4b bb a7 4f 94 bd 75 bd d9 bc b3 7a c5 bd
       -0.0031043 -0.07241755 -0.026579598 -0.09642544
000160 92 b1 80 bd 6d 8e 86 bc 0e 9c 44 bd 21 85 29 3c
       -0.06283869 -0.016425336 -0.048000388 0.010346682
000170 8d be 98 bd cf a8 1f 3c a7 76 08 bd 9c 3b af bc
       -0.0745822 0.009744837 -0.03331628 -0.021390729
000180 a0 9c 09 3d fd a8 7f bd 6a fe 8b bc 29 1f 8b bd
       0.033596635 -0.06241702 -0.017089088 -0.06793053
000190 ca ee e0 bd 43 66 e9 bc bc 78 eb bc 60 e0 b3 bd
       -0.109830454 -0.028491145 -0.028744094 -0.087830305
0001a0 cb 4e 84 3c 85 80 a1 bc 1f cf e1 bc 7e e9 a7 3b
       0.016150853 -0.019714603 -0.027564583 0.00512427
0001b0 1c 26 c9 bc 9e 23 7b bd 07 2f aa bd bb a5 24 bc
       -0.024554305 -0.061313264 -0.08309751 -0.010049279
0001c0 1b 1d 96 bd 66 3c c3 3c 9d 70 48 bd 69 28 90 bd
       -0.0732977 0.023832511 -0.04893552 -0.070389576
0001d0 59 c8 ec bd bd 46 4d bd a5 89 e9 3c 51 84 a8 bd
       -0.11561651 -0.05011629 0.028508017 -0.08228362
0001e0 18 70 db bc 15 12 4b bd 03 f7 2d bd 57 28 6f bd
       -0.026786849 -0.04957779 -0.042471897 -0.05838808
0001f0 e2 a0 0d bd 90 79 54 bd 87 e0 3b bd 1b b4 3d 3c
       -0.034577258 -0.051873744 -0.045868423 0.011578585

network_body._body_endoder.seq_layers.4.weight f4 [128, 128]
000000 2c 9a 6f 3e 6e 87 d6 bd 86 c5 7e bd c4 de 8f 3d
       0.23398656 -0.1047505 -0.06220009 0.07024911
000010 ee bc 03 bc dd c0 6d bb 19 f7 c0 3c 14 1c 52 bd
       -0.00804065 -0.0036278286 0.023555325 -0.05129631
000020 f2 42 aa be 5f 55 f1 3b 5a b2 8e bd c1 b4 c4 bd
       -0.332542 0.0073649134 -0.069676116 -0.096047886
000030 ac 94 25 3e ed fe 0d 3c 4a 1d 9e bc 7d eb 97 be
       0.16169995 0.008666736 -0.019301075 -0.2967185
000040 24 f5 d5 3d 49 e4 2a 3e 15 af e8 bd 3c 14 67 bc
       0.104471475 0.16688646 -0.11361519 -0.014103945
000050 ee 84 6a 3d 27 5e 0f 3e 08 80 a1 bd 81 30 ec 3d
       0.057255678 0.1400076 -0.07885748 0.11532689
000060 b2 d4 a6 bc bd 1a de 3d 62 df 9b bd 7f 58 02 3c
       -0.020365093 0.10844944 -0.07610966 0.007955669
000070 ac 95 93 3c 4b 7f 18 be 55 b1 e0 3e 3d 84 a2 3e
       0.018015705 -0.14892308 0.43885294 0.31741515
000080 ad e4 01 3d fe cc 4d 3d e4 f9 0c 3d 40 ec b6 bb
       0.031712223 0.050244324 0.034418 -0.0055823624
000090 5b f0 ba 3b 7d 13 7b be d9 52 39 bc bf cd da bd
       0.005704922 -0.24519153 -0.011311256 -0.10683774
0000a0 df e1 3e 3c 64 97 cd 3c 54 72 26 3e da 77 6e 3d
       0.011650532 0.025096603 0.1625455 0.058219768
0000b0 51 6d 1c 3e fd 33 9b bd 80 bf 39 3d 45 22 64 3c
       0.15276076 -0.07578275 0.045348644 0.013924186
0000c0 1e 66 77 3e 73 08 22 3e d0 bc 11 3d 4d d6 1f 3d
       0.24160048 0.15823536 0.035580456 0.039022733
0000d0 96 9f 17 be 64 1f 26 be 48 4e 7e bb 3d 3a fa bd
       -0.14806971 -0.16222912 -0.0038803983 -0.12218139
0000e0 29 2d 06 bd fa 1b 15 3d ff 84 53 3c ab 00 c4 bd
       -0.03275791 0.036403634 0.012910127 -0.0957044
0000f0 fe e5 9d 3d 31 3c 3a bd d1 48 f5 3d 0d 10 81 3d
       0.07709883 -0.04546756 0.11976779 0.063018896
000100 d3 13 29 3e 18 21 cc 3c 08 b4 77 3d bc f3 70 3d
       0.16511469 0.024918124 0.060474426 0.058826193
000110 f4 79 bf 3d 33 14 8b be b0 d3 ba 3d c5 21 44 3c
       0.093494326 -0.27163848 0.091224074 0.011970942
000120 1a 3d 1e bd ea d9 44 3e 0f 2b 2c 3e 2d e3 b8 3d
       -0.03863249 0.19223753 0.168133 0.09027705
000130 1b d4 89 bc 23 32 be bc d5 0a ac bc 53 a8 45 3e
       -0.016824773 -0.023217266 -0.021001259 0.19302492
000140 6e 03 a3 3d 71 6f 92 3e 05 c9 04 3e 95 cb 10 be
       0.079596385 0.28600648 0.12967308 -0.1414016
000150 62 9f 36 bc d4 40 84 3e 49 e8 f4 bd 2a cc be bd
       -0.011146398 0.2583071 -0.119583674 -0.09316285
000160 a1 a6 cd bd a9 d9 2d 3e 2a 27 4a be eb e3 46 3c
       -0.100415476 0.16977562 -0.19741502 0.012139301
000170 f1 a3 5d 3d 05 e7 21 be ae 0f 65 be 18 c4 e7 3c
       0.054111425 -0.15810783 -0.22369263 0.028291747
000180 20 2a a4 3d 89 cd fc 3c 8f 60 51 3e b2 66 c2 ba
       0.08015847 0.030859726 0.2044699 -0.0014831631
000190 7b 03 0c 3e cf a2 02 3e f2 47 29 3e a4 b0 00 be
       0.13673203 0.12757419 0.16531351 -0.12567383
0001a0 b2 6d 27 be 2e 70 0a 3d fb 5c 9e 3c 21 b2 59 be
       -0.16350439 0.03379839 0.019331446 -0.21259357
0001b0 66 26 a4 be 1c cd ea bc e2 92 22 be d1 41 ec bd
       -0.32060546 -0.028662257 -0.15876344 -0.11535991
0001c0 5a 3b c6 3d 84 8e c3 bd 74 fa 09 be 3e 44 24 3e
       0.09679289 -0.09548667 -0.13474447 0.16041657
0001d0 12 5e 98 3d 2d d3 7d 3d 1d b7 6e bd cd 98 21 3b
       0.074398175 0.06196897 -0.0582801 0.0024657727
0001e0 76 a7 f4 bd 59 6c 43 bc 5b ce 19 bd 15 56 0b 3e
       -0.11946003 -0.011927688 -0.03755031 0.13607056
0001f0 8f 77 21 ba f0 b7 76 be f8 0a 26 be b8 58 62 3d
       -0.0006159478 -0.24093604 -0.16215122 0.05526039
000200 95 cd b3 3d ed d1 c7 be 54 ea 97 bd 81 b5 54 bd
       0.08779446 -0.39027348 -0.074177414 -0.051930908
000210 98 d4 bf 3d fe 43 ca bd aa af 80 3c 45 85 e7 bd
       0.09366721 -0.0987625 0.015708763 -0.11304716
000220 08 74 a6 bc 59 7e 07 3e a1 8e fe bd e6 31 bb 3d
       -0.020319 0.13231792 -0.12429548 0.09140377
000230 87 27 f2 3d 73 bc 47 bd b4 9e 41 3e e1 20 33 be
       0.118239455 -0.048763704 0.18908197 -0.17493011
000240 14 5e f7 bd 00 f4 42 3d c8 e3 91 bd da 6a 85 be
       -0.12078491 0.047595978 -0.07123524 -0.26058084
000250 d8 c5 fe 3d 03 72 92 be 51 22 2a 3e 85 9f 88 3d
       0.124400795 -0.2860261 0.16614653 0.06671051
000260 0c 04 b0 bd 72 f9 b9 3d 0c 84 d8 3d 08 60 f4 3d
       -0.08594522 0.09080781 0.10572061 0.11932379
000270 04 0f 58 be 40 84 50 3d 90 4a 09 3e 38 0d 53 3d
       -0.21099478 0.050907373 0.1340735 0.05152628
000280 bc 57 a7 bd 19 a8 4b bd 09 1a b5 3d ce 73 ae bd
       -0.08171031 -0.049720857 0.088428564 -0.08518182
000290 39 05 b0 3e 12 15 55 be ff 05 ba bd 14 43 16 3d
       0.34378985 -0.20808819 -0.09083175 0.036685064
0002a0 9c e2 65 3d 03 11 68 bd ff fb 36 bc d8 ed 93 bd
       0.056124315 -0.05665685 -0.011168479 -0.072230995
0002b0 4e 3d ad bd ed de cf bc 50 e9 99 3c 53 de cd 3d
       -0.084589586 -0.025374854 0.01878801 0.100521706
0002c0 e2 e5 a2 3e 4a 90 8b 3c eb bd b8 3d 1f 44 0c bd
       0.31816012 0.017036576 0.09020599 -0.034244653
0002d0 a8 6e 92 3d 54 be bf be 89 4a e9 3b 94 c0 b9 3d
       0.07150012 -0.37449896 0.007119481 0.090699345
0002e0 17 93 ba bd 7f 98 19 3e ba 54 bd 3d 8b f8 1e bd
       -0.091100864 0.14999579 0.09244676 -0.038811248
0002f0 16 6a ba 3d 28 4a 52 3e 52 5d 33 be ee 97 eb bd
       0.091022655 0.20536101 -0.17516068 -0.11503588
000300 0e 4f 2e bd 5d 6a c2 3d 07 2e 78 be 8e d0 ec bb
       -0.04255586 0.094929434 -0.24236308 -0.00722701
000310 b8 9e 47 3e cb 02 21 bd db 9b 72 3d 5e 6c 3a be
       0.1949414 -0.039309304 0.059230667 -0.18205401
000320 1d 12 48 be 3b 45 74 bd b7 14 6c ba db bf b8 3c
       -0.1953816 -0.059636336 -0.00090057723 0.022552421
000330 a0 87 ef bd a2 2f 79 3c 11 42 a7 bd 33 a3 52 3e
       -0.1169579 0.01520911 -0.08166898 0.20570068
000340 5e 0a 71 3d 46 b2 39 bd 4c 0a 11 be 8b ce 5e 3d
       0.058847778 -0.04533603 -0.14164084 0.054396193
000350 01 d4 40 be c6 8b a2 bd d1 2d 45 bd 07 13 a2 be
       -0.18830873 -0.07936816 -0.048139397 -0.31655142
000360 81 e9 20 3c fa fc b3 be 6a 2b 41 3e 0d c2 9b bd
       0.009821297 -0.35153943 0.18864217 -0.076053716
000370 99 09 94 3d d7 f6 1e 3e c8 1f 34 39 16 d0 c1 3d
       0.07228393 0.1552385 0.00017177977 0.09463517
000380 51 c9 20 3e 9f bf 7f 3e 2b 49 c6 bd 7a ce 6d bc
       0.15701796 0.24975441 -0.096819244 -0.01451456
000390 07 4f 1c 3e 3b 1e 0b bd 8c 90 13 be f1 0e 8c be
       0.15264522 -0.033964377 -0.14410609 -0.2735515
0003a0 10 59 61 3c a8 bc 69 be a9 4d 34 bd cb 5e 83 be
       0.013754144 -0.22825873 -0.044019375 -0.2565826
0003b0 14 49 49 bc 62 46 0f 3d 19 07 d0 3d a2 27 89 bd
       -0.01228549 0.03497923 0.10157604 -0.066970125
0003c0 6e 0d 37 3e 4e f9 49 3d 04 4a 8c bd f3 df 7d 3d
       0.17876217 0.04931002 -0.06850055 0.061981153
0003d0 7c c7 f0 bd 2f 87 4b 3d fe fc 0f be f2 9c 2d be
       -0.117567986 0.049689468 -0.14061353 -0.16954401
0003e0 d5 55 85 be 68 40 2f be 80 84 0c be bf 7f cb bd
       -0.26042047 -0.17114413 -0.1372242 -0.09936475
0003f0 40 6f ba bc fd a7 21 3e 36 c1 f3 3d bd 6a d5 3d
       -0.022758126 0.15786739 0.119020864 0.10420749
