mlagents/Assets/results/Laberynth1/RollerBall/RollerBall-346126.pt (torch, 445343 bytes, 36 tensors)

network_body._body_endoder.seq_layers.0.weight f4 [128, 8]
0	0xbf238de4	-0.6388838
1	0xbecf40a6	-0.4047901
2	0x3e67bcdc	0.22630638
3	0x3bc2693f	0.0059329565
4	0xbf0c7ac8	-0.5487485
5	0x3c273047	0.010204381
6	0xbe5c900c	-0.21539325
7	0x3ec56116	0.38550633
8	0xbca33582	-0.019922975
9	0x3e54bc13	0.2077487
10	0xbd86f28c	-0.06589231
11	0x3e08c930	0.13357997
12	0x3d5485c4	0.05188538
13	0x3e8b83f4	0.2724911
14	0xbe938a05	-0.28816238
15	0x3e89e901	0.2693558
16	0x3e3abd02	0.18236163
17	0xbe3d4ab6	-0.18485531
18	0x3e48a187	0.19592868
19	0x3ed79fd6	0.42114133
20	0xbec7c27e	-0.39015573
21	0x3e89e7d0	0.2693467
22	0xbf0f9cdc	-0.56098723
23	0xbd49c4f5	-0.0492601
24	0xbeb1ed43	-0.3475133
25	0x3e158aac	0.1460368
26	0x3d800b8f	0.062522046
27	0xbe358574	-0.1772669
28	0xbebbe55d	-0.36698428
29	0x3e929e3b	0.28636345
30	0x3ddc410b	0.107545935
31	0xbea3aa57	-0.31965896
32	0xbd97e1cc	-0.07416114
33	0x3efe8d10	0.49716997
34	0xbf23b2e6	-0.6394485
35	0x3ee461d0	0.44605875
36	0x3e8ed158	0.27894092
37	0xbeab865d	-0.3350095
38	0xbf0548cb	-0.520642
39	0xbeb52c15	-0.35385194
40	0xbf1ad424	-0.6047995
41	0xbec3efab	-0.3826879
42	0x3e4f9c92	0.2027457
43	0xbf369916	-0.7132734
44	0xbeb37790	-0.35052156
45	0xbe3f9a84	-0.18711287
46	0x3be85c64	0.007091092
47	0x3e3f5deb	0.1868817
48	0xbe07119d	-0.13190313
49	0xbe7b7563	-0.24556498
50	0xbe2ebd22	-0.17064336
51	0x3ecc3361	0.3988295
52	0xbd68095a	-0.056649543
53	0xbdcd9f96	-0.10040204
54	0x3e18b8f3	0.14914303
55	0xbecb1b71	-0.39669374
56	0xbea32813	-0.31866512
57	0xbe6cdbb3	-0.23130684
58	0xbe7364b8	-0.2376889
59	0xbe4f0fce	-0.20220873
60	0xbe87789a	-0.264592
61	0xbeade1e6	-0.3396141
62	0xbeb6e0f1	-0.35718492
63	0x3dec8cfe	0.115503296
64	0x3dbff759	0.0937335
65	0x3f237a78	0.6385875
66	0x3e9a355e	0.3011884
67	0xbecd69c5	-0.40119758
68	0xbd9a70b7	-0.0754103
69	0xbd6c855a	-0.05774436
70	0x3f064372	0.52446663
71	0xbd874410	-0.06604779
72	0xbe8bf9f0	-0.27339125
73	0x3c138ee9	0.00900624
74	0xbd91fe94	-0.07128635
75	0x3ed180af	0.4091849
76	0xbd7f189b	-0.062279325
77	0xbccfc20e	-0.025361087
78	0x3ec86df4	0.39146388
79	0x3ee048a1	0.4380541
80	0x3e90ee8b	0.28306994
81	0xbf2d494c	-0.6768997
82	0xbec60b7b	-0.38680634
83	0x3d54ae8b	0.05192427
84	0xbe8f0778	-0.27935386
85	0x3e6a2ec9	0.2286941
86	0xbe5b8b07	-0.21439753
87	0x3f0df4fd	0.5545195
88	0xbdf0f4f2	-0.117654696
89	0x3de963b3	0.11395969
90	0x3ea0b59f	0.31388566
91	0xbe9013ef	-0.28140208
92	0xbe670ca9	-0.22563423
93	0x3e96b51b	0.29435048
94	0x3e1157d1	0.14193656
95	0x3f066233	0.5249359
96	0x3f119edd	0.5688303
97	0xbeac471f	-0.3364801
98	0xbedd9d82	-0.4328423
99	0xbf708d40	-0.9396553
100	0x3ae69276	0.0017591256
101	0x3e9bb769	0.30413368
102	0xbe081fa3	-0.13293318
103	0x3ebd3961	0.3695784
104	0xbd34fb10	-0.044184744
105	0xbea10a8f	-0.31453368
106	0x3f4b65d9	0.7945228
107	0x3dfeac43	0.124352
108	0xbee47c82	-0.44626242
109	0xbbe41ac5	-0.006961199
110	0xbf24897d	-0.6427229
111	0x3d36d412	0.04463584
112	0x3e2a7d46	0.1664935
113	0x3e8034f5	0.25040403
114	0xbd070e79	-0.032972787
115	0xbdd5e35d	-0.10443757
116	0x3ef49824	0.47772324
117	0xbe12f48e	-0.14351103
118	0x3f7b4a6c	0.98160434
119	0x3dbff818	0.09373492
120	0xbe311ca8	-0.17296088
121	0xbd3a9a56	-0.045557342
122	0x3e0811d7	0.13288055
123	0x3ebab61f	0.36467072
124	0x3e6e8c00	0.23295593
125	0x3ed0477e	0.40679544
126	0x3eb7d193	0.3590208
127	0xbf2734a5	-0.65314704
128	0xbc921652	-0.017832909
129	0xbdd703b7	-0.104987554
130	0xbe805baa	-0.25069934
131	0x3e1f3705	0.15548332
132	0x3ebd6bcb	0.36996302
133	0xbeb09632	-0.3448959
134	0x3f321fc5	0.69579726
135	0xbe46e896	-0.19424662
136	0x3b2de46e	0.002653386
137	0x3d985843	0.074387096
138	0xbe3fc224	-0.18726403
139	0x3dfba987	0.12288194
140	0xbdcbc358	-0.09949368
141	0x3d8079c5	0.06273226
142	0x3f57f495	0.8435758
143	0x3e560af1	0.20902611
144	0xbe81bc4c	-0.25338972
145	0x3e11b4ca	0.14229122
146	0x3e4ded60	0.20110083
147	0x3eba8a7f	0.3643379
148	0xbd894b39	-0.06703801
149	0x3e0421d0	0.12903523
150	0x3f74cb1d	0.95622426
151	0x3c8c1be8	0.01710315
152	0x3e269caa	0.162707
153	0xbecb1e53	-0.39671573
154	0x3e151027	0.14556943
155	0xbf0f6a3a	-0.56021464
156	0xbf196331	-0.5991698
157	0x3e8d2541	0.27567485
158	0x3e524603	0.2053452
159	0x3e3452e3	0.17609744
160	0x3eb12b68	0.3460343
161	0xbe5af44f	-0.21382259
162	0x3c5a8b35	0.013338854
163	0xbe5b8af5	-0.21439727
164	0x3ecaca86	0.39607638
165	0x3eace094	0.3376509
166	0x3f3e7b02	0.74406445
167	0x3d9b2096	0.07574575
168	0xbe5c6b5e	-0.21525332
169	0x3d065da9	0.032804165
170	0xbcc29db1	-0.023756834
171	0xbe2040cc	-0.15649718
172	0x3da8f49e	0.08249782
173	0xbe845f3e	-0.25853914
174	0x3ef41970	0.47675657
175	0x3e06bf95	0.1315902
176	0xbf23b0d8	-0.6394172
177	0x3de622c9	0.112371035
178	0x3eb34ad7	0.35018036
179	0x3fbfdf80	1.4990082
180	0x3dd3d228	0.103428185
181	0xbe1bb045	-0.1520396
182	0xbeaac77e	-0.33355325
183	0xbda665bf	-0.08124875
184	0x3f40c907	0.75306743
185	0xbe7bce57	-0.24590431
186	0x3e71f5bd	0.23628898
187	0x3da0b119	0.07846279
188	0xbc9e64ba	-0.01933514
189	0x3ef1457f	0.47123334
190	0xbeb24391	-0.34817174
191	0x3dcc159c	0.09965059
192	0x3d82151e	0.06351684
193	0x3e5a796b	0.2133538
194	0xbe948507	-0.29007742
195	0xbd713c2e	-0.058895282
196	0x3eba18bd	0.36347
197	0xbdc0e265	-0.09418181
198	0xbf524506	-0.8213657
199	0x3e149f98	0.14514005
200	0xbeec9e54	-0.46214545
201	0xbedbb019	-0.4290779
202	0xbe97ceec	-0.29650056
203	0x3da23398	0.07919997
204	0x3ecabc1b	0.39596638
205	0xbe101965	-0.14072187
206	0x3c04b1f8	0.008099072
207	0x3e22c94a	0.15897098
208	0xbe850281	-0.25978473
209	0x3dade3ba	0.08490701
210	0x3d096558	0.033543915
211	0x3ed6f14d	0.41980973
212	0xbe7b51c2	-0.24542907
213	0x3d43c70c	0.047797248
214	0xbe08e668	-0.13369143
215	0xbd20dedf	-0.039275046
216	0x3f2e492d	0.6808041
217	0x3d99a6bd	0.07502506
218	0x3f445b07	0.76701397
219	0xbe4689b0	-0.19388461
220	0xbef421c8	-0.47682023
221	0xbdf16a1c	-0.11787817
222	0xbf0495f8	-0.51791334
223	0x3e94a71c	0.29033744
224	0xbde8864a	-0.113537386
225	0xbf0b1cbc	-0.5434072
226	0xbe4f638c	-0.20252818
227	0xbd3d78b3	-0.046257686
228	0x3d794001	0.060852055
229	0xbe7e1459	-0.2481245
230	0xbf4f69ee	-0.8102101
231	0x3e832406	0.2561342
232	0x3de55796	0.11198346
233	0x3f73b48f	0.95197386
234	0x3e84e029	0.2595227
235	0xbdceb521	-0.10093141
236	0x3f9581a8	1.1680193
237	0x3e373b56	0.17893729
238	0xbf85c3a6	-1.0450332
239	0xbeb786eb	-0.35845122
240	0x3c978bab	0.018499216
241	0x3e8caa2e	0.27473587
242	0x3ebca6e8	0.3684609
243	0xbd723f0d	-0.05914216
244	0x3e283370	0.16425872
245	0x3ee6acfb	0.4505385
246	0xbe840644	-0.2578603
247	0xbf0a22b4	-0.539592
248	0x3e38b062	0.18036035
249	0x3e8536ec	0.26018465
250	0xbe988600	-0.29789734
251	0x3e9c399a	0.30512697
252	0x3e1e473a	0.15456858
253	0x3e6bba08	0.23020184
254	0x3f1523ce	0.5825776
255	0xbe52592c	-0.20541829

network_body._body_endoder.seq_layers.0.bias f4 [128]
0	0xbb60a02f	-0.0034275164
1	0x3d1e3642	0.038625963
2	0xbdfb77c6	-0.12278704
3	0x3cd99cbe	0.026563998
4	0xbc94e631	-0.01817617
5	0xbdabaeb0	-0.08382928
6	0xbdaa4ce6	-0.083154485
7	0x3e2a0093	0.16601782
8	0xbcddd638	-0.027079687
9	0x3d858eeb	0.065214
10	0xbdd3ebde	-0.103477225
11	0x3c049836	0.008092931
12	0x3bd9c55b	0.006645841
13	0xbd88882a	-0.06666596
14	0x3d2ece74	0.042677358
15	0xbb657d13	-0.0035017177
16	0x3c82c4b5	0.015962938
17	0x3cb5f248	0.022210255
18	0x3da408df	0.080095045
19	0xbdb32c76	-0.087487146
20	0xbd9934e8	-0.07480794
21	0x3ca6ba47	0.020352496
22	0xbd791aed	-0.060816694
23	0xbdd6798c	-0.10472402
24	0xbd0e1876	-0.034691297
25	0xbdbe417e	-0.092898354
26	0xbdba05f2	-0.09083165
27	0xbd2e81e8	-0.042604357
28	0xbcfce245	-0.030869612
29	0x3b4a7d79	0.0030897541
30	0x3da7186d	0.08158956
31	0xbca3bdc5	-0.01998795
32	0xbdb2fcd9	-0.08739633
33	0x3e0ffd85	0.14061554
34	0xbcc90dfb	-0.0245428
35	0xbccdef26	-0.025138449
36	0xbd89edbf	-0.067347996
37	0x3bf33332	0.0074218744
38	0x3d63d02b	0.055618446
39	0xbdbb0013	-0.091308735
40	0xbd75853d	-0.05994152
41	0xbaac17a9	-0.001312961
42	0xbcae8dbc	-0.021307819
43	0x3cb30b78	0.021856055
44	0x3d792dc2	0.060834654
45	0xbd2bc980	-0.041940212
46	0x3ddd1bed	0.10796342
47	0xbd966bec	-0.07344803
48	0xbc9d69db	-0.019215515
49	0xbd8745e6	-0.06605129
50	0xbdaf26c6	-0.08552317
51	0xbe0ea8e4	-0.13931614
52	0x3d81d297	0.06338995
53	0xbcd66e2c	-0.02617558
54	0x3d2b3dcf	0.041806992
55	0xbdabcb50	-0.08388388
56	0xbc6f9a63	-0.014624211
57	0x3e3ccc6d	0.18437357
58	0xbce621ea	-0.028092343
59	0xbcd06d84	-0.025442846
60	0xbdca189f	-0.09867977
61	0x3cf16c8d	0.029470706
62	0x3d087cf6	0.033322297
63	0xbcb6ddd9	-0.022322582
64	0xbd927b73	-0.07152452
65	0xbd3faa94	-0.046793535
66	0x3e00f382	0.12592891
67	0xbd924757	-0.07142513
68	0xbbb67847	-0.0055685374
69	0xbd810cde	-0.06301282
70	0x3dae0468	0.08496934
71	0x3df3144c	0.11869106
72	0x3b2d74f9	0.0026467426
73	0xbcb6f3e6	-0.022333097
74	0xbde363ae	-0.11102997
75	0x3e0cba56	0.13742957
76	0xb9a46261	-0.00031353816
77	0x3d2a112c	0.041520283
78	0x3da1d28f	0.07901489
79	0xbb391707	-0.0028242485
80	0xbd5acf9a	-0.05342064
81	0x3d7d3732	0.061820216
82	0xbde6ae46	-0.11263709
83	0x3c1c948c	0.009556901
84	0xbddcd341	-0.10782481
85	0xbbfa16e0	-0.0076321214
86	0xbda6a38d	-0.081366636
87	0xbdba01d3	-0.09082379
88	0x3d17e832	0.037086673
89	0xbe050ddf	-0.12993573
90	0xbc85e15c	-0.016342811
91	0xbd9e6aec	-0.077352375
92	0x3de91a13	0.113819264
93	0x3d5e405a	0.05426059
94	0x3dc62fdb	0.096770965
95	0xbdcc7745	-0.09983686
96	0xbce13894	-0.027492799
97	0x3d4cd76e	0.050010137
98	0xbdf0ae8c	-0.11752042
99	0xbd85bf9a	-0.06530686
100	0xbe042557	-0.12904869
101	0xbd7e09b7	-0.062020984
102	0x3d97915e	0.074007735
103	0xbdab86ca	-0.08375318
104	0x3d62bdef	0.055356916
105	0xbdeed3a6	-0.116614625
106	0x3d84898f	0.0647155
107	0xbd894ac8	-0.067037165
108	0xbd0e1664	-0.034689322
109	0xbc9a0283	-0.018800026
110	0x3d3bb49a	0.045826532
111	0xbc70f88a	-0.014707694
112	0x3aeddafe	0.001814693
113	0xbd2144b5	-0.039372165
114	0x3d94ff22	0.07275225
115	0x3dba51c4	0.09097627
116	0xbe1ed187	-0.15509616
117	0x3d7d4e34	0.06184216
118	0x3d4bc7c6	0.049751066
119	0x3e17ea22	0.14835408
120	0x3d1f6396	0.038913332
121	0xbd8284e5	-0.06373004
122	0x3d456ad6	0.04819759
123	0xbd7ddd9a	-0.061978914
124	0xbdb39516	-0.0876867
125	0x3c6a5b9d	0.014304069
126	0xbdb261ea	-0.08710082
127	0xbd0ec1a1	-0.034852628

network_body._body_endoder.seq_layers.2.weight f4 [128, 128]
0	0xbd7fbd02	-0.06243611
1	0x3c8796da	0.016551424
2	0xbd58554b	-0.052815717
3	0xbcb73161	-0.022362413
4	0xbc78ae08	-0.015178211
5	0xbd780bfe	-0.06055831
6	0xbd817790	-0.06321633
7	0xbd406d80	-0.046979427
8	0x3ca02692	0.019549642
9	0x3e19fb3c	0.15037245
10	0xbcc80030	-0.024414152
11	0x3db79c0e	0.08965312
12	0xbd18c968	-0.03730145
13	0x3df9cc52	0.12197174
14	0xbe6f6385	-0.23377807
15	0xbcf83231	-0.03029737
16	0xbd588db8	-0.05286953
17	0xbdb85cf5	-0.09002105
18	0xbdab2e09	-0.0835839
19	0x3d66781c	0.05626689
20	0xbde227ac	-0.11042723
21	0xbe0cd9e9	-0.13755001
22	0xbd22c5fd	-0.039739598
23	0xbdb9023e	-0.09033631
24	0x3c8de696	0.017321866
25	0x3cb8ccd9	0.022558616
26	0xbd1223fa	-0.03567884
27	0xbd980d33	-0.074243926
28	0x3d757f0d	0.05993562
29	0xbe3e8de3	-0.18608813
30	0xbda7c23f	-0.081913464
31	0xbe1e22e8	-0.15443003
32	0x3c919bce	0.017774489
33	0x3e16c633	0.14724045
34	0xbe26977c	-0.16268724
35	0xbe601a33	-0.21884994
36	0x3d6cdcaa	0.05782763
37	0xbc3341bf	-0.010940968
38	0xbe10cd35	-0.1414078
39	0xbda31a62	-0.079640165
40	0x3d9901aa	0.074710205
41	0xbc1776df	-0.00924465
42	0xbdd34f29	-0.10317833
43	0x3db98d72	0.09060182
44	0x3d27e4e4	0.04098977
45	0x3e805439	0.25064257
46	0x3d95d83e	0.073166355
47	0x3e01ce7b	0.12676422
48	0x3bdf4c3a	0.006814507
49	0x3dfc73e1	0.1232679
50	0xbdd30aae	-0.10304771
51	0xbd820bbf	-0.06349897
52	0xbba09d69	-0.0049015773
53	0xbdc18b00	-0.0945034
54	0xbd8c860b	-0.06861504
55	0xbd02f6c5	-0.03197362
56	0x3e13d923	0.144383
57	0xbd9d0161	-0.07666279
58	0xbe07789c	-0.13229603
59	0x3d2a844f	0.041630086
60	0xbd06458e	-0.032781176
61	0xbdec2f07	-0.11532407
62	0xbe178938	-0.14798439
63	0xbd0b30d8	-0.033982128
64	0xbea1f644	-0.31633198
65	0xbe1758df	-0.14779995
66	0xbdd1b762	-0.102400556
67	0xbe155f08	-0.14587033
68	0x3d526df5	0.051374394
69	0xba5ffd08	-0.00085444795
70	0xbd3d05ad	-0.04614799
71	0x3e45b50f	0.1930735
72	0xbd7f0b8f	-0.062266883
73	0x3de4ea60	0.11177516
74	0xbbd2a92d	-0.0064288587
75	0xbd007ee9	-0.03137103
76	0xbd26ff91	-0.04077107
77	0xbe1caddc	-0.15300697
78	0x3dfc9450	0.12332976
79	0xbe502cf2	-0.20329645
80	0xbd95f15b	-0.073214255
81	0x3d617c13	0.055049967
82	0x3ccdba37	0.025113208
83	0x3d5fc663	0.054632556
84	0x3d90cbb0	0.070701
85	0x3e485b60	0.19566107
86	0xbd618ef7	-0.055067983
87	0x3d1fa760	0.03897798
88	0xba2f91fe	-0.0006697475
89	0x3d73edea	0.059553064
90	0xbdc89e67	-0.09795838
91	0x3cbb9d16	0.022902053
92	0x3d46ef2a	0.04856793
93	0xbd519916	-0.051171385
94	0x3d128df2	0.0357799
95	0xbd8e3720	-0.06944108
96	0xbe897c4e	-0.2685265
97	0xbe3d7d01	-0.18504716
98	0xbdaa0859	-0.083023734
99	0xbc6a82c7	-0.014313406
100	0x3ce82b75	0.028341034
101	0xbd095a96	-0.033533655
102	0xbdac7197	-0.08420103
103	0x3d67aa89	0.05655912
104	0x3d32bb95	0.043635923
105	0x3e61dac2	0.22056106
106	0x3dcefc68	0.101067364
107	0xbd8726a2	-0.065991655
108	0x3cc4ff30	0.024047464
109	0xbc01d293	-0.00792374
110	0xbc5d1d4f	-0.013495757
111	0x3dabbb2d	0.0838531
112	0xbdeb1238	-0.11478084
113	0xbe7cb741	-0.24679281
114	0x3d810c37	0.06301158
115	0x3de77b8a	0.1130286
116	0x3e06bdf4	0.13158399
117	0xbbcf2049	-0.0063209874
118	0xbd290bbf	-0.041270968
119	0xbda89621	-0.0823176
120	0xbde75f10	-0.112974286
121	0xbd2330d0	-0.039841473
122	0x3dd17e8b	0.10229214
123	0xbdbfe1b5	-0.09369222
124	0x3dc3bb70	0.09557235
125	0xbd23a5e5	-0.03995313
126	0xbe17902e	-0.14801094
127	0xbe2d6494	-0.16932899
128	0xbcffd06d	-0.031227315
129	0x3bf23d11	0.0073925336
130	0xbe1c1b65	-0.15244825
131	0x3d3a3668	0.045462042
132	0x3dfab240	0.1224103
133	0xbb145231	-0.0022631998
134	0xbe434738	-0.19070137
135	0xbd30b5df	-0.043142196
136	0xbc678e25	-0.014133011
137	0xbe4f520d	-0.20246144
138	0x3d89d897	0.06730764
139	0xbe160fee	-0.14654514
140	0xbe1093b9	-0.14118852
141	0x3a9389e4	0.0011256305
142	0x3cd15936	0.025555234
143	0xbcc1f794	-0.023677625
144	0xbe2ca0ed	-0.16858263
145	0xbe1b2854	-0.15152103
146	0xbdc030a0	-0.093842745
147	0xbda50fbd	-0.080596425
148	0x3dfcdc2b	0.12346681
149	0x3da1d5c3	0.079021
150	0xbdb48aba	-0.088155225
151	0xbd8d5d5f	-0.06902575
152	0xbb83a9a7	-0.004018027
153	0xbd2c0607	-0.041997936
154	0xbd3a2146	-0.04544189
155	0xbc284354	-0.0102699585
156	0xbe84323f	-0.25819585
157	0xbdd088a3	-0.101823114
158	0xbd8b5b42	-0.068045154
159	0x3c06ede3	0.008235428
160	0x3dc30ae8	0.095235646
161	0xbde0c180	-0.10974407
162	0xbd1b501f	-0.037918206
163	0xbd9607a0	-0.07325673
164	0x3d82f0a4	0.06393555
165	0x3d4e8845	0.050422926
166	0x3d805bf6	0.0626754
167	0x3caa31d6	0.020775717
168	0xbc82abeb	-0.015951118
169	0xbdd32bf6	-0.10311119
170	0xbe11b824	-0.142304
171	0x3b2c872b	0.0026325684
172	0xbe1dfa1a	-0.15427437
173	0x3d775228	0.060381085
174	0x3cd6e7dc	0.026233606
175	0xbcd560af	-0.026047079
176	0x3de33232	0.11093558
177	0xbd51de38	-0.051237315
178	0xbc1a3269	-0.009411433
179	0xbbbb65ef	-0.0057189385
180	0x3d7b0554	0.06128438
181	0xbd25252c	-0.040318653
182	0x3c73fe78	0.014892213
183	0xbbf111bd	-0.007356851
184	0x3c194394	0.009354491
185	0xbe4f2607	-0.2022935
186	0xbcadd432	-0.021219347
187	0x3d14a831	0.036293212
188	0x3d12f5ef	0.03587907
189	0xbb2e16cc	-0.002656388
190	0xbd80c47f	-0.06287479
191	0xbd169027	-0.03675857
192	0xbd1cd262	-0.038286574
193	0x3c262aa1	0.010141999
194	0x3b2bc96c	0.0026212586
195	0xbe0101e9	-0.12598385
196	0x3d9d4b5d	0.0768039
197	0x3d6563a3	0.056003224
198	0xbd678d27	-0.056531098
199	0xbe0488c7	-0.12942801
200	0x3e2e5fbd	0.17028709
201	0x3d9ff07a	0.07809539
202	0xbd84b1e5	-0.06479243
203	0xbdbf101a	-0.09329243
204	0xbbd137b3	-0.0063848137
205	0x3d0615ad	0.032735515
206	0x3d3471f4	0.044053987
207	0xbc203f9a	-0.009780789
208	0xbd433cb8	-0.047665328
209	0x3e5fe60d	0.21865101
210	0x3db30172	0.0874051
211	0x3cf2d139	0.02964078
212	0xbcd36757	-0.025806112
213	0xbe3df8b1	-0.185519
214	0x3d379804	0.044822708
215	0xbd828cfb	-0.06374546
216	0x3e032e9b	0.12810747
217	0xbdd70012	-0.1049806
218	0x3ce86acb	0.028371235
219	0x3d882b71	0.06648911
220	0xbab31776	-0.0013663608
221	0xbdfbfda6	-0.12304239
222	0xbd85ec59	-0.0653922
223	0x3e0c91af	0.13727449
224	0xbc46daf1	-0.012137161
225	0x3dd79450	0.10526335
226	0xbd608a9c	-0.05481969
227	0xbe214f4c	-0.15752906
228	0x3d95a4ad	0.073068
229	0xbe71f1be	-0.23627374
230	0xbe00b56b	-0.12569205
231	0xbd91a596	-0.07111661
232	0x3c4e99c9	0.012609907
233	0xbd0ada0d	-0.033899356
234	0xbea67781	-0.3251305
235	0x3d1183d7	0.035526123
236	0xbda8b83e	-0.082382664
237	0x3e5ffbf5	0.21873458
238	0xbd32ad5a	-0.043622352
239	0x3dc27c1b	0.094963275
240	0xbe23230e	-0.15931341
241	0xbdd68924	-0.10475376
242	0x3c4ed613	0.012624281
243	0xbe8d4f42	-0.2759953
244	0xbbf78376	-0.007553513
245	0x3b65902e	0.0035028565
246	0xbe1e5886	-0.15463457
247	0xbd4a810c	-0.049439475
248	0x3d8e284d	0.069412805
249	0xbd618c81	-0.055065636
250	0xbd9ed0f1	-0.07754696
251	0xbce80147	-0.028320922
252	0xbcc38727	-0.023868157
253	0xbd2af4c7	-0.041737344
254	0xbc653a47	-0.013990945
255	0x3d1e2984	0.03861381

network_body._body_endoder.seq_layers.2.bias f4 [128]
0	0xbc9ebeb9	-0.019378053
1	0xbcb5ed9f	-0.022208033
2	0xbca5f9ab	-0.020260653
3	0x3d326d60	0.04356134
4	0x3cc9874e	0.024600651
5	0x3d0606f1	0.032721464
6	0xbcb77753	-0.022395765
7	0xbd227f3e	-0.03967213
8	0xbd12cdcd	-0.0358408
9	0xbcb25407	-0.021768583
10	0xbd4bf73e	-0.049796335
11	0xbd7ad435	-0.061237533
12	0x3ca079ae	0.019589271
13	0xbd825431	-0.063637145
14	0x3c87a6ab	0.016558966
15	0xbc83fe0d	-0.016112352
16	0xbc9934d4	-0.018701948
17	0xbcd62222	-0.026139323
18	0xbc7a6899	-0.015283727
19	0xbb916435	-0.0044369944
20	0xbc157042	-0.009121003
21	0x3b80220c	0.0039103087
22	0xba4b16e3	-0.0007747246
23	0xbd7d6800	-0.06186676
24	0xbb5e44aa	-0.0033915439
25	0xbcac3331	-0.021020504
26	0xbced32b2	-0.028954837
27	0xbc1ede9c	-0.009696629
28	0x3d46ca86	0.048532985
29	0xbd693684	-0.056936756
30	0xbaf7f7b5	-0.0018918427
31	0xbbb1f1d3	-0.005430439
32	0x3c1e7b81	0.009673
33	0xbc456c7f	-0.012049793
34	0xbc45639b	-0.012047674
35	0x3cacffd8	0.02111809
36	0xbc41d9cb	-0.011831711
37	0xbd09111f	-0.033463594
38	0x3c2c7bb5	0.010527541
39	0xbb51665f	-0.0031951887
40	0xbcaa9b9b	-0.020826152
41	0xbd6deab6	-0.058085166
42	0xbc3b6255	-0.011437018
43	0xbcfd9240	-0.030953526
44	0xbcd45a26	-0.025921892
45	0xbb4ae41c	-0.0030958718
46	0xbc37e7f6	-0.011224737
47	0x3d02191b	0.031762224
48	0xbd26e177	-0.040742364
49	0xbc4290c4	-0.011875335
50	0x399f09f9	0.00030334273
51	0xbca0bcc1	-0.019621255
52	0xbcdbaf49	-0.02681698
53	0x3c825123	0.01590783
54	0xbd609e6b	-0.05483858
55	0x3c9ce94c	0.019154213
56	0xbb915507	-0.004435185
57	0x3c79322b	0.015209715
58	0xba698939	-0.00089086924
59	0x3c877c8f	0.016538886
60	0xbd8906af	-0.06690728
61	0xbd7a41cd	-0.06109791
62	0x3b8b805e	0.004257246
63	0xbbb84c15	-0.005624304
64	0xbd415995	-0.047204573
65	0xbc838b04	-0.016057499
66	0x3bcfb6f6	0.0063389493
67	0x3cd01acc	0.025403403
68	0xbcd2a15b	-0.025711706
69	0x3c9cca7b	0.019139519
70	0x3d43b41a	0.04777918
71	0x3c71bfa5	0.014755164
72	0xbc3fff9e	-0.011718659
73	0xbc86f30c	-0.016473316
74	0xbd2bed74	-0.0419745
75	0x3c6c31e9	0.014416196
76	0xbc42295d	-0.011850682
77	0xbcb8045d	-0.022463018
78	0xbca0fa34	-0.019650556
79	0xbd04cdac	-0.032422706
80	0x3ca749e4	0.020420976
81	0xbd875385	-0.06607727
82	0xbd4bcccc	-0.049755856
83	0xbd149334	-0.036273196
84	0x3d01e0d1	0.031708542
85	0xbd2007dc	-0.039069995
86	0x3ceb3531	0.028711887
87	0xbb310fdb	-0.0027017507
88	0x3cae782b	0.021297535
89	0x3b791663	0.0038007728
90	0x3cf3cb1f	0.029759942
91	0xbbbdff38	-0.0057982467
92	0xbda95b48	-0.08269364
93	0xbcbeb33e	-0.023278829
94	0x3b905e65	0.004405784
95	0xbbb5b187	-0.0055448445
96	0xbc1ca810	-0.009561554
97	0xbc05499d	-0.008135227
98	0xbcac0887	-0.02100016
99	0xbc5ebc24	-0.013594661
100	0xbc145205	-0.009052758
101	0xbdc2b48e	-0.09507094
102	0x3983055f	0.0002499027
103	0xbc6f89f1	-0.01462029
104	0xbcd3f143	-0.025871878
105	0x3c9f8ee3	0.019477313
106	0xbc1b8a12	-0.009493368
107	0xbc993d23	-0.01870591
108	0xbb9aca15	-0.004723797
109	0x3c2b3075	0.010448565
110	0xbd2165e1	-0.0394038
111	0x3c7bb8c1	0.015363873
112	0x3b2346ed	0.0024914101
113	0xbc878d87	-0.016546978
114	0xbd1dbee1	-0.038512114
115	0x3ccb96f9	0.024852263
116	0xbc6e6bd7	-0.014552078
117	0xbcc1665f	-0.023608385
118	0x3c486282	0.012230517
119	0xbcdd8786	-0.027042162
120	0xbc5113a9	-0.012761035
121	0x3c8fff2d	0.017577732
122	0x3beae0e0	0.0071679205
123	0xbd409394	-0.04701574
124	0xbbac71f3	-0.0052626072
125	0x3b63632b	0.003469656
126	0xbc80ea4b	-0.01573672
127	0x3b22860d	0.0024799139

action_model._continuous_distribution.log_sigma f4 [1, 2]
0	0xbf1d815c	-0.6152551
1	0xbeb430e6	-0.35193557

action_model._continuous_distribution.mu.weight f4 [2, 128]
0	0xbd106754	-0.03525479
1	0xbde30291	-0.11084474
2	0xbcf166ff	-0.029468058
3	0x3d2afcb4	0.041744903
4	0x3cc8629a	0.02446108
5	0xbdf15554	-0.11783853
6	0x3d88af42	0.06674053
7	0x3c305c39	0.010764175
8	0xbd4c2866	-0.049843214
9	0x3cf9ce5f	0.030493913
10	0xbca47436	-0.020074945
11	0xbcdbaedc	-0.026816778
12	0xbe4ab4f9	-0.19795598
13	0xbc600d5f	-0.013675063
14	0xbe62716f	-0.22113584
15	0xbcfb472e	-0.03067359
16	0xbd8d52c4	-0.06900552
17	0xbd7152ec	-0.05891697
18	0xbdad78e1	-0.084703214
19	0xbe21a40a	-0.15785232
20	0xbdb2e4ee	-0.08735071
21	0x3d0fd19d	0.035112012
22	0xbdac4a13	-0.08412566
23	0xbcabb309	-0.020959394
24	0xbd303e39	-0.04302809
25	0x3de63c20	0.11241937
26	0xbd4c2ead	-0.0498492
27	0xbe085751	-0.13314559
28	0xbe3ea78b	-0.186186
29	0xbbaa3397	-0.0051941383
30	0xbd90c3ab	-0.07068571
31	0xbdb4583e	-0.08805893
32	0xbd71cbeb	-0.059032362
33	0xbdaf5c00	-0.085624695
34	0xbda8424b	-0.082157694
35	0xbde9f9db	-0.11424609
36	0xbd405e75	-0.04696508
37	0xbd36b98f	-0.044610556
38	0xbdd5a22c	-0.104313225
39	0xbdf500ec	-0.119630665
40	0xbe0ca344	-0.13734156
41	0xbd024a67	-0.031809237
42	0xbdadd845	-0.08488516
43	0x3dd2a13f	0.102846615
44	0xbcbb2ea5	-0.02284939
45	0xbd67b553	-0.05656941
46	0x3d940c7e	0.07228945
47	0xbdc8f6fd	-0.09812734
48	0xbd971840	-0.07377672
49	0xbe05bb9b	-0.13059847
50	0xbe1c822b	-0.1528403
51	0xbde2e4e6	-0.11078815
52	0x3d3f4fcc	0.04670696
53	0x3e356a99	0.17716445
54	0x39b47a56	0.00034423423
55	0xbd422174	-0.047395185
56	0xbdd7d151	-0.10537971
57	0xbde23bdf	-0.11046576
58	0xbda49575	-0.08036319
59	0xbe2b2af5	-0.16715606
60	0x3b505841	0.0031790885
61	0x3d28534c	0.041095063
62	0xbd7f7ceb	-0.06237499
63	0xbd93086b	-0.0717934
64	0xbced81fc	-0.028992645
65	0xbd991831	-0.07475317
66	0xbd9e02d6	-0.07715385
67	0x3de308ca	0.11085661
68	0xbd7741e4	-0.060365573
69	0xbd97b1b1	-0.07406939
70	0x3e1c5944	0.15268427
71	0xbe11a561	-0.14223243
72	0xbcc3a3dd	-0.023881847
73	0xbd74679c	-0.059669122
74	0x3ca13a5a	0.019681145
75	0xbdf31164	-0.118685514
76	0xbdd6ce54	-0.10488573
77	0xbd199dd4	-0.037504032
78	0xbd681275	-0.056658227
79	0xbbcb3d18	-0.0062023513
80	0xbe182ff8	-0.14862049
81	0xbbfa09a5	-0.0076305442
82	0xbdd70975	-0.10499851
83	0xbd6b6df1	-0.057477895
84	0xbdb62cb1	-0.08895243
85	0xbdbe48c1	-0.092912205
86	0xbd01cccf	-0.03168946
87	0xbd9c406a	-0.076294735
88	0x3df94c43	0.12172749
89	0xbca8ac22	-0.020589892
90	0xbdc4d046	-0.096100375
91	0xbda4ba88	-0.080433905
92	0xbbe78f70	-0.0070666596
93	0xbcce9126	-0.025215697
94	0xbe0383e2	-0.12843278
95	0xbd8da696	-0.06916539
96	0xbdc35afd	-0.09538839
97	0xbde97ac1	-0.114003666
98	0xbca54e27	-0.020178868
99	0xbe1ce739	-0.1532258
100	0xbd2fec74	-0.04295011
101	0xbc44cbc1	-0.012011469
102	0xbdce9a6f	-0.100880496
103	0xbdf8e55f	-0.12153124
104	0xbd845c1a	-0.064628795
105	0x3bc524de	0.006016358
106	0xbaa1b97e	-0.0012338606
107	0xbd9f9829	-0.07792694
108	0xbc87ee5b	-0.016593149
109	0xbe2ad141	-0.16681387
110	0xbd2cf3cd	-0.042224694
111	0xbdbae988	-0.09126574
112	0xbe280755	-0.16409047
113	0xbd95a651	-0.07307113
114	0xbda722ef	-0.0816096
115	0xbd1ef49a	-0.03880749
116	0xbdb94142	-0.0904565
117	0xbc5e305e	-0.013561336
118	0x3d46c4aa	0.048527397
119	0xbc9e2bba	-0.01930796
120	0x3dc127dd	0.094314314
121	0xbe21422f	-0.15747903
122	0xbddcea7a	-0.1078691
123	0x3dac4c77	0.08413022
124	0x3dd657ed	0.10465989
125	0xbe1776b7	-0.1479138
126	0xbdfb54cf	-0.12272035
127	0xbdeb3c7a	-0.11486144
128	0x3db21a12	0.08696379
129	0x3dde370e	0.108503446
130	0x3d306d96	0.04307326
131	0x3e09a2d4	0.1344102
132	0x3dd82bb4	0.10555211
133	0x3e367b1e	0.17820403
134	0xbd7c3811	-0.061576907
135	0xbd16bd95	-0.036801893
136	0x3dc50906	0.09620862
137	0x3be8c902	0.00710404
138	0x3d854412	0.06507124
139	0xbc746b3e	-0.014918147
140	0x3d942f4b	0.07235583
141	0x3d43168a	0.047628917
142	0x3d4a6eaf	0.049421962
143	0x3d9b80b1	0.07592905
144	0xbb8633a4	-0.0040955115
145	0x3d81c87d	0.06337068
146	0x3e13d6af	0.14437364
147	0x3dcbe3aa	0.09955533
148	0xbcd33e3d	-0.025786513
149	0xbd7ef5f0	-0.062246263
150	0xbdee5e11	-0.116390355
151	0x3d3c7ee5	0.046019454
152	0x3dd30a6f	0.103047244
153	0xbb7c2acc	-0.0038477657
154	0x3dc30008	0.0952149
155	0x3c7a93ac	0.015293997
156	0xbd682fde	-0.056686275
157	0x3d7a173f	0.061057325
158	0xbcdc8a81	-0.026921513
159	0xbbe32947	-0.006932411
160	0x3d227d7a	0.039670445
161	0x3df555ba	0.11979242
162	0x3da82bad	0.082114555
163	0x3e010984	0.12601286
164	0x3e08668d	0.1332037
165	0x3d3e5f43	0.046477567
166	0x3df0aacc	0.11751327
167	0x3c993b9f	0.018705187
168	0x3e597d8e	0.21239302
169	0xbc9c36cc	-0.019069098
170	0x3de77859	0.11302251
171	0xbd8b0f72	-0.06790055
172	0x3d8b5e85	0.068051375
173	0x3dea0c60	0.114281416
174	0xbcf04758	-0.029330894
175	0x3dfbc590	0.122935414
176	0x3da4a384	0.08039001
177	0x3d981a47	0.07426887
178	0x3dd22e5c	0.102627486
179	0x3cd27cd2	0.025694285
180	0x3cdb027c	0.026734583
181	0xbb78bb86	-0.003795357
182	0xbd2efe0d	-0.04272275
183	0x3cb16414	0.021654166
184	0x3debc00b	0.11511239
185	0x3e0db61f	0.13839005
186	0x3da5c59b	0.08094331
187	0x3da5aac7	0.08089214
188	0x3d0087cb	0.031379502
189	0xbbabfe89	-0.005248849
190	0x3dd2b381	0.10288144
191	0xba109a7b	-0.00055161834
192	0x3d7d8032	0.061889835
193	0xbdc72b4f	-0.09725057
194	0x3ce49083	0.02790094
195	0xbd11a88a	-0.035561122
196	0x3dedd97e	0.11613749
197	0x3e2c6307	0.16834651
198	0xbd96f145	-0.07370237
199	0x3e3e867f	0.18605994
200	0x3db4c0cd	0.08825836
201	0xbd4ca4c5	-0.049961824
202	0x3d7e035b	0.06201492
203	0x3dda333b	0.10654303
204	0x3e48320b	0.1955034
205	0x3c348fa1	0.011020572
206	0x3ddb5142	0.10708858
207	0x3d9407d8	0.072280586
208	0x3dbf1c6d	0.09331594
209	0xbd1b60f6	-0.037934266
210	0xbd84fdae	-0.06493698
211	0xbcc6f3c6	-0.024286162
212	0x3e10b49b	0.14131396
213	0x3d670204	0.056398407
214	0x3dc6f554	0.097147614
215	0x3e1ab29c	0.15107197
216	0xbe0fb08a	-0.14032188
217	0xbda644b1	-0.081185706
218	0x3e025e25	0.12731226
219	0x3dfeee74	0.12447825
220	0xbae296fc	-0.0017287428
221	0x3d8b8897	0.06813162
222	0xbd224fa5	-0.039626736
223	0x3df155a1	0.117839105
224	0x3dd75416	0.10514085
225	0x3dcbd854	0.09953371
226	0xbc0c9e7c	-0.0085827075
227	0x3dd3f155	0.10348765
228	0xbbdcb401	-0.0067353253
229	0x3cfa67bb	0.03056704
230	0x3d7ba795	0.061439116
231	0x3ddff0ce	0.10934602
232	0x3e2a0005	0.1660157
233	0x3d8cc399	0.06873245
234	0x3dd30fc1	0.10305739
235	0x3c924337	0.017854316
236	0x3df10c37	0.11769908
237	0x3d37cd81	0.04487372
238	0x3d805300	0.06265831
239	0xbdb1408b	-0.08654889
240	0x3dd632a1	0.104588754
241	0x3e4d290a	0.20035186
242	0xbd2bd41e	-0.041950338
243	0x3da45af6	0.08025162
244	0x3e032ea4	0.1281076
245	0x3de109dd	0.109882094
246	0x3e2c9df0	0.16857123
247	0x3dc98103	0.0983906
248	0xbb4ad514	-0.0030949758
249	0x3decac4c	0.115563005
250	0x3d6b0de5	0.057386298
251	0xba9e8704	-0.0012094681
252	0xbc93b254	-0.01802937
253	0xbd50b5f2	-0.050954767
254	0x3dea31e7	0.11435299
255	0xbc48d2ae	-0.012257261

action_model._continuous_distribution.mu.bias f4 [2]
0	0x3c80f238	0.015740499
1	0x3d41aa20	0.047281384

exp_avg f4 [128, 8]
0	0xb171571a	-3.5119627e-09
1	0xaea74e96	-7.6082404e-11
2	0x314d9416	2.9915603e-09
3	0xb1614cb8	-3.2785419e-09
4	0xaea74eae	-7.608257e-11
5	0x31631e3a	3.305003e-09
6	0x3040e213	7.0170464e-10
7	0xb02ff811	-6.401715e-10
8	0xbd76f473	-0.06029172
9	0xbaab32ff	-0.0013061463
10	0x3d525c70	0.051357687
11	0xbd5d2007	-0.05398562
12	0xbaab330f	-0.0013061481
13	0x3d59d7de	0.053184383
14	0x3c1bb1df	0.009502857
15	0xbc64b44c	-0.013959002
16	0xbce38e57	-0.027777834
17	0xba1dc04b	-0.00060177286
18	0x3cc1d631	0.023661705
19	0xbccb5793	-0.024822032
20	0xba1dc050	-0.00060177315
21	0x3cc79f49	0.024367945
22	0x3b84e9c3	0.004056187
23	0xbbd1bbbb	-0.006400553
24	0xb0ba2382	-1.3543373e-09
25	0xae0109fb	-2.934007e-11
26	0x309e8e7f	1.1536513e-09
27	0xb0ac4851	-1.2535201e-09
28	0xae0109fc	-2.9340072e-11
29	0x30aaac33	1.241807e-09
30	0x2f3ba4e8	1.7066137e-10
31	0xaf80ac3d	-2.3405447e-10
32	0x3d44fa81	0.04809046
33	0x3a888db9	0.0010418213
34	0xbd27ca4d	-0.040964413
35	0x3d2e200a	0.042511024
36	0x3a888dbf	0.001041822
37	0xbd2a75f3	-0.04161639
38	0xbbf4c7f5	-0.007470126
39	0x3c46115e	0.012089102
40	0xaab3c627	-3.1934283e-13
41	0xa7f940e2	-6.918173e-15
42	0x2a992296	2.7202258e-13
43	0xaaa33567	-2.8991672e-13
44	0xa7f940f1	-6.9181793e-15
45	0x2aa1992a	2.8705624e-13
46	0x2966232c	5.1100766e-14
47	0xa999cc2a	-6.829982e-14
48	0xbcc9897e	-0.024601694
49	0xba0bb6b9	-0.0005329657
50	0x3cabac5c	0.02095621
51	0xbcb98b5d	-0.022649461
52	0xba0bb6b8	-0.00053296564
53	0x3cb70e6b	0.022345742
54	0x3b28b811	0.0025744478
55	0xbb87c6be	-0.004143565
56	0xbdc14ea8	-0.094388306
57	0xbb06022d	-0.0020448074
58	0x3da4a9b7	0.08040183
59	0xbdb0e20d	-0.08636866
60	0xbb060232	-0.0020448086
61	0x3daf2ef0	0.085538745
62	0x3c61ad03	0.013774159
63	0xbc9758ae	-0.018474903
64	0xb60e306e	-2.1187839e-06
65	0xb3452484	-4.5900848e-08
66	0x35f23d35	1.8048219e-06
67	0xb6066a73	-2.0029518e-06
68	0xb3452488	-4.5900862e-08
69	0x36059761	1.9906659e-06
70	0x345584bf	1.9885464e-07
71	0xb48f5eb2	-2.6704726e-07
72	0x3df31cfc	0.11870763
73	0x3b28893c	0.0025716564
74	0xbdcf16b4	-0.10111752
75	0x3ddec200	0.10876846
76	0x3b28893d	0.0025716566
77	0xbddc764d	-0.107647516
78	0xbc8dd678	-0.01731418
79	0x3cbf583f	0.023357509
80	0x3c4a40e6	0.012344575
81	0x398c35dc	0.0002674301
82	0xbc2c4894	-0.010515351
83	0x3c372f3f	0.011180698
84	0x398c35d6	0.00026742992
85	0xbc3350aa	-0.010944525
86	0xbac089e2	-0.001468953
87	0x3b27ae67	0.002558613
88	0xb1a94893	-4.926798e-09
89	0xaeeab55e	-1.0673305e-10
90	0x319032f2	4.1967434e-09
91	0xb197a0e7	-4.412971e-09
92	0xaeeab565	-1.067331e-10
93	0x31952065	4.3401536e-09
94	0x3054d699	7.743011e-10
95	0xb0a01cc6	-1.164971e-09
96	0xbbca2de3	-0.006170021
97	0xb90c28af	-0.00013366596
98	0x3bac3865	0.005255746
99	0xbbb5bd27	-0.0055462304
100	0xb90c28bc	-0.00013366615
101	0x3bb361da	0.0054743113
102	0x3a82beec	0.0009975112
103	0xbab8922d	-0.001408165
104	0xb6070b20	-2.0123043e-06
105	0xb33b3c3d	-4.3594117e-08
106	0x35e610bc	1.7141206e-06
107	0xb5f36856	-1.8135277e-06
108	0xb33b3c47	-4.3594152e-08
109	0x35f06ae1	1.7912499e-06
110	0x34ac47ec	3.2089827e-07
111	0xb4f043bf	-4.4752775e-07
112	0x3e3c21e7	0.18372308
113	0x3b826bcd	0.003980136
114	0xbe204141	-0.15649892
115	0x3e2b41b1	0.16724278
116	0x3b826bcf	0.003980137
117	0xbe292850	-0.16519284
118	0xbce1c460	-0.02755946
119	0x3d1cd6da	0.038290836
120	0x37ed2019	2.8267548e-05
121	0x35246291	6.1238194e-07
122	0xb7c9fcf4	-2.4078858e-05
123	0x37ebfdde	2.81324e-05
124	0x3524627e	6.1238086e-07
125	0xb7ec1c5d	-2.81466e-05
126	0xb512daf8	-5.470788e-07
127	0x34f84f8c	4.6251478e-07
128	0xbcc0f317	-0.023553414
129	0xba05c2b1	-0.00051025586
130	0x3ca45bb6	0.020063262
131	0xbcb61049	-0.022224562
132	0xba05c2b3	-0.000510256
133	0x3cb577c2	0.022151832
134	0x3b32b825	0.0027270403
135	0xbb53aab6	-0.0032297797
136	0x3e0acf5c	0.13555664
137	0x3b407520	0.0029366687
138	0xbdec7b70	-0.11546981
139	0x3dfd303b	0.12362715
140	0x3b407524	0.0029366696
141	0xbdfa39a2	-0.12218024
142	0xbca49e06	-0.020094883
143	0x3ce36d21	0.027761998
144	0x3a1a0cbf	0.0005876533
145	0x37559652	1.27307885e-05
146	0xba0338fe	-0.0005005746
147	0x3a1395e0	0.0005629938
148	0x37559633	1.273076e-05
149	0xba12e856	-0.0005604079
150	0xb8763cdc	-5.870765e-05
151	0x3893cb17	7.047335e-05
152	0xb38c38da	-6.529599e-08
153	0xb0c26a54	-1.4145578e-09
154	0x336ee349	5.5620408e-08
155	0xb37d4fda	-5.8978777e-08
156	0xb0c26a60	-1.4145591e-09
157	0x337a2f8e	5.825091e-08
158	0x3232dbd3	1.0410946e-08
159	0xb27a6569	-1.4574973e-08
160	0x3ac81a3b	0.0015266606
161	0x380ab81c	3.307323e-05
162	0xbaaa7382	-0.0013004395
163	0x3ab45084	0.0013756906
164	0x380ab823	3.3073255e-05
165	0xbab1c3aa	-0.0013562341
166	0xb980e581	-0.00024585056
167	0x39b7934c	0.00035014225
168	0x3abfd071	0.0014634264
169	0x3804f935	3.1703345e-05
170	0xbaa36422	-0.0012465755
171	0x3ab58f8f	0.0013851988
172	0x3804f933	3.1703337e-05
173	0xbab55c81	-0.0013836772
174	0xb9471aa6	-0.00018988046
175	0x39571d82	0.0002051499
176	0x3d66f30a	0.056384124
177	0x3aa01a81	0.001221493
178	0xbd44ba2a	-0.048029102
179	0x3d52363a	0.051321246
180	0x3aa01a86	0.0012214936
181	0xbd4fa538	-0.050694674
182	0xbc0700c2	-0.008239927
183	0x3c3e0df1	0.011600004
184	0xbce0a66d	-0.027423108
185	0xba1bbc95	-0.00059408817
186	0x3cbf5c85	0.023359546
187	0xbcc45c2e	-0.023969736
188	0xba1bbc99	-0.0005940884
189	0x3cbf5c6a	0.023359496
190	0x3b9044a0	0.004402712
191	0xbbf3f63d	-0.0074451254
192	0xbcd5893a	-0.026066411
193	0xba14082b	-0.0005646969
194	0x3cb5e4e9	0.02220388
195	0xbcc56c65	-0.024099538
196	0xba14082b	-0.0005646969
197	0x3cc42b7c	0.023946516
198	0x3b83db26	0.0040239273
199	0xbba058af	-0.0048933844
200	0x3c35b355	0.011090119
201	0x397beca9	0.00024025388
202	0xbc1ac6ae	-0.009446783
203	0x3c1f819b	0.00973549
204	0x397becbe	0.00024025419
205	0xbc1c7a76	-0.009550681
206	0xbafec571	-0.0019437504
207	0x3b4172e1	0.0029517936
208	0x3d9d229a	0.07672615
209	0x3ad9dd72	0.0016621782
210	0xbd85d9cf	-0.06535684
211	0x3d9020e8	0.07037526
212	0x3ad9dd7a	0.0016621791
213	0xbd8eb2ec	-0.069677204
214	0xbc3261bd	-0.01088756
215	0x3c71152c	0.01471452
216	0xbc827514	-0.015924968
217	0xb9b4e06e	-0.00034499489
218	0x3c5e4091	0.0135651985
219	0xbc7202f8	-0.014771216
220	0xb9b4e078	-0.00034499518
221	0x3c71989b	0.014745857
222	0x3b2ffb90	0.0026852824
223	0xbb427954	-0.0029674368
224	0xbd82fa17	-0.06395357
225	0xbab598dd	-0.0013854761
226	0x3d5f2330	0.054476917
227	0xbd6d1f41	-0.057891134
228	0xbab598e4	-0.0013854769
229	0x3d6a795b	0.05724464
230	0x3c2a0053	0.010376054
231	0xbc65e40e	-0.014031423
232	0xba912636	-0.001107401
233	0xb7c93f2e	-2.3990488e-05
234	0x3a774833	0.0009433061
235	0xba83e060	-0.0010061376
236	0xb7c93f39	-2.3990508e-05
237	0x3a82a8e0	0.0009968542
238	0x393bb1fc	0.00017900014
239	0xb976734d	-0.00023503341
240	0xb207d3a2	-7.906154e-09
241	0xaf3c523d	-1.7127717e-10
242	0x31e76656	6.734619e-09
243	0xb1fd09bf	-7.364377e-09
244	0xaf3c523f	-1.712772e-10
245	0x31faf2ff	7.303583e-09
246	0x3076cc34	8.978447e-10
247	0xb0a9ddeb	-1.2359441e-09
248	0x3e0d71e9	0.13812985
249	0x3b441c60	0.002992414
250	0xbdf0f8a0	-0.117661715
251	0x3e01b674	0.12667257
252	0x3b441c65	0.002992415
253	0xbe007785	-0.12545593
254	0xbca82c9d	-0.020529086
255	0x3cde469c	0.027133279

exp_avg_sq f4 [128, 8]
0	0x316cc194	3.4452556e-09
1	0x2c46c1a7	2.824499e-12
2	0x2bc560f3	1.4024601e-12
3	0x3181439c	3.7620804e-09
4	0x2c46c1a4	2.8244984e-12
5	0x31821950	3.7863757e-09
6	0x2f0cb11e	1.279585e-10
7	0x2fb16a37	3.2271583e-10
8	0x3d102ea6	0.035200737
9	0x37939741	1.7594199e-05
10	0x3cc7d453	0.024393236
11	0x3cf7e902	0.030262474
12	0x37939742	1.75942e-05
13	0x3cef3bbf	0.029203294
14	0x3a755b67	0.00093596283
15	0x3ac151e6	0.0014749139
16	0x3c9f7f53	0.019469893
17	0x3727db6b	1.0005063e-05
18	0x3c50ebb2	0.012751507
19	0x3c8eb9b5	0.017422536
20	0x3727db71	1.0005068e-05
21	0x3c8c8dfb	0.017157545
22	0x39db54a7	0.00041834006
23	0x3a2195c5	0.000616398
24	0x30b7ae23	1.3364495e-09
25	0x2b9e3cd7	1.1243462e-12
26	0x2c082de9	1.9352248e-12
27	0x301f212e	5.7891014e-10
28	0x2b9e3cd1	1.1243455e-12
29	0x2e8c1780	6.3706374e-11
30	0x2f0d367c	1.2843232e-10
31	0x2dc430a3	2.230422e-11
32	0x3dc51f32	0.09625091
33	0x3850022f	4.9593098e-05
34	0x3d8083e5	0.06275157
35	0x3db0bccd	0.08629761
36	0x38500235	4.959312e-05
37	0x3db041fc	0.086063355
38	0x3af863af	0.0018950606
39	0x3b456255	0.0030118425
40	0x2dd81a37	2.4567999e-11
41	0x28c01e67	2.1329467e-14
42	0x29936411	6.54547e-14
43	0x2c1f5ab2	2.2645605e-12
44	0x28c01e69	2.132947e-14
45	0x2d4ed3ad	1.1756746e-11
46	0x29bc3b02	8.3591134e-14
47	0x2c60fb8b	3.197195e-12
48	0x3c8b0c4a	0.016973633
49	0x371db7bb	9.400707e-06
50	0x3c1f41dc	0.009720292
51	0x3c78834a	0.0151680205
52	0x371db7bf	9.400711e-06
53	0x3c691287	0.014225609
54	0x39e79651	0.00044171748
55	0x39b5b700	0.00034659356
56	0x3e15b646	0.14620313
57	0x3891983c	6.942495e-05
58	0x3de066ba	0.109570935
59	0x3e076857	0.13223396
60	0x3891983b	6.942494e-05
61	0x3e062221	0.13098957
62	0x3b311c35	0.002702487
63	0x3b827186	0.003980818
64	0x3ba4cbe7	0.00502919
65	0x368a7397	4.126177e-06
66	0x360d6863	2.1071398e-06
67	0x3a800232	0.0009766279
68	0x368a7390	4.1261737e-06
69	0x3a3417d6	0.0006870007
70	0x395bbfed	0.00020956965
71	0x38ff1230	0.00012162735
72	0x3e766b38	0.24064338
73	0x38fb0277	0.00011969072
74	0x3e2a5303	0.16633229
75	0x3e65bf17	0.22436176
76	0x38fb0278	0.000119690725
77	0x3e62d49e	0.2215142
78	0x3b8d22b8	0.0043071173
79	0x3bc7ed27	0.006101269
80	0x3c8a8de5	0.016913364
81	0x37267d65	9.923567e-06
82	0x3c09eb37	0.008417896
83	0x3c5842cf	0.013199522
84	0x37267d60	9.923562e-06
85	0x3c530fd7	0.0128821945
86	0x39b5f3b3	0.0003470458
87	0x3a0a858f	0.0005284184
88	0x3888b8a2	6.519376e-05
89	0x33689526	5.415236e-08
90	0x3382c73c	6.089837e-08
91	0x372ed7df	1.042147e-05
92	0x3368953d	5.415244e-08
93	0x373f0d05	1.13875185e-05
94	0x35c9b2e3	1.502773e-06
95	0x36d3ad40	6.308459e-06
96	0x3c41e40e	0.011834158
97	0x37217764	9.624146e-06
98	0x3957c8e1	0.00020578831
99	0x3af3ded8	0.0018605841
100	0x37217770	9.6241565e-06
101	0x3ace8382	0.0015755745
102	0x399001dc	0.00027467206
103	0x3a02d830	0.0004991321
104	0x3ac7c7b9	0.0015242017
105	0x35a648a1	1.2389102e-06
106	0x346fe003	2.2340105e-07
107	0x3b08d963	0.0020881526
108	0x35a6489c	1.2389096e-06
109	0x3b094d3e	0.002095058
110	0x387f36e6	6.0847866e-05
111	0x38e74e1b	0.000110294866
112	0x3f34ae66	0.7057861
113	0x39bd0b80	0.00036057457
114	0x3eee401e	0.46533293
115	0x3f257ad4	0.64640546
116	0x39bd0b80	0.00036057457
117	0x3f26561c	0.6497514
118	0x3c4eb2b6	0.01261585
119	0x3ca8fa4c	0.020627163
120	0x39a29616	0.0003101087
121	0x348d20f8	2.6287285e-07
122	0x351a08f0	5.7382476e-07
123	0x3962eb35	0.00021640661
124	0x348d20eb	2.6287248e-07
125	0x372a000a	1.0132799e-05
126	0x3814bafa	3.5460085e-05
127	0x36d2c51a	6.2814333e-06
128	0x3c9cff3a	0.01916467
129	0x373323d0	1.067757e-05
130	0x3c32b7d7	0.010908089
131	0x3c879192	0.016548906
132	0x373323df	1.0677583e-05
133	0x3c85d936	0.016338926
134	0x39b30054	0.00034141785
135	0x3a0a9f28	0.00052879984
136	0x3eb6f486	0.35733432
137	0x39372410	0.00017465674
138	0x3e81e1cf	0.2536759
139	0x3ea357af	0.31902835
140	0x3937240e	0.00017465671
141	0x3ea4310b	0.32068667
142	0x3bc84cd6	0.006112675
143	0x3c1a73c2	0.009427013
144	0x3b5c34ff	0.0033600924
145	0x3639216f	2.758661e-06
146	0x37a417a0	1.9561325e-05
147	0x3ac7480f	0.001520397
148	0x3639216f	2.758661e-06
149	0x3a1e1a44	0.00060311356
150	0x396bd10f	0.00022489227
151	0x38875d7d	6.454715e-05
152	0x38a7d7a5	8.0033475e-05
153	0x338eb1bd	6.644721e-08
154	0x339c23ea	7.270849e-08
155	0x3778ad97	1.4822369e-05
156	0x338eb1ba	6.6447186e-08
157	0x379ad778	1.8458566e-05
158	0x362cf8ed	2.577489e-06
159	0x36dc8613	6.572119e-06
160	0x3c399e02	0.011329176
161	0x371cf219	9.354692e-06
162	0x384e6960	4.9212365e-05
163	0x3aeb2683	0.0017940555
164	0x371cf215	9.354689e-06
165	0x3b2a6fbd	0.0026006543
166	0x3974cf50	0.00023346883
167	0x3a822f35	0.0009932282
168	0x39e9da6d	0.00044603963
169	0x34b7f1cf	3.4262345e-07
170	0x38747fed	5.8293273e-05
171	0x38e4a8ab	0.00010903304
172	0x34b7f1c8	3.4262325e-07
173	0x39a6d237	0.0003181861
174	0x367e4503	3.788912e-06
175	0x37d85557	2.5788946e-05
176	0x3da8b584	0.08237746
177	0x382a17c0	4.0553277e-05
178	0x3d6e691e	0.058205716
179	0x3d9a6b33	0.07539978
180	0x382a17c2	4.0553285e-05
181	0x3d948432	0.07251777
182	0x3acfa25a	0.0015841231
183	0x3ae379c2	0.0017355012
184	0x3d5477ba	0.051871993
185	0x37e80209	2.7657503e-05
186	0x3d030876	0.03199049
187	0x3d3e1574	0.046407178
188	0x37e80202	2.765749e-05
189	0x3d3c587d	0.045982827
190	0x3a73888d	0.0009290062
191	0x3acbfc52	0.0015562868
192	0x3caa0ba3	0.020757502
193	0x3744b7c3	1.1725296e-05
194	0x3c382a51	0.011240558
195	0x3ca7d7f7	0.020488722
196	0x3744b7c4	1.1725297e-05
197	0x3ca99653	0.020701563
198	0x39e89f93	0.0004436938
199	0x3a532ad5	0.00080553937
200	0x3b61dfa6	0.003446558
201	0x35dcd515	1.6453292e-06
202	0x3b2a95e2	0.0026029279
203	0x3b4a0981	0.0030828419
204	0x35dcd516	1.6453293e-06
205	0x3b47dd0f	0.0030496751
206	0x389bacd7	7.42317e-05
207	0x38e3ec87	0.0001086826
208	0x3dcd6572	0.10029115
209	0x384c3fdb	4.869686e-05
210	0x3d943faa	0.072387055
211	0x3dbf8382	0.09351255
212	0x384c3fd8	4.869685e-05
213	0x3dbabfa8	0.09118587
214	0x3ad1393c	0.0015962492
215	0x3b0884d4	0.0020831125
216	0x3c1ae8ed	0.009454948
217	0x36b68574	5.4395587e-06
218	0x3ba2a60c	0.004963642
219	0x3bec5169	0.0072118533
220	0x36b6857a	5.4395614e-06
221	0x3bedbdaa	0.0072552757
222	0x3984fb2c	0.0002536414
223	0x39fe2b58	0.0004847895
224	0x3d847eba	0.06469484
225	0x3805cc63	3.190002e-05
226	0x3d3a52d6	0.045489155
227	0x3d6b005f	0.0573734
228	0x3805cc61	3.1900014e-05
229	0x3d6d3332	0.05791015
230	0x3aa2af34	0.0012411834
231	0x3b023d8a	0.0019873106
232	0x3ac48d8d	0.0014995799
233	0x35a2ccca	1.2129542e-06
234	0x372ffe6c	1.049005e-05
235	0x3b08e8fe	0.0020890827
236	0x35a2ccbf	1.212953e-06
237	0x3b077af6	0.0020672656
238	0x38a32e4b	7.7810684e-05
239	0x38ec34db	0.00011263202
240	0x36b6b6be	5.4452967e-06
241	0x319be2b0	4.536865e-09
242	0x318ff27b	4.1894146e-09
243	0x36392acd	2.7592062e-06
244	0x319be2c8	4.5368758e-09
245	0x3460858e	2.0910213e-07
246	0x34c8a608	3.7373707e-07
247	0x33cb9796	9.4804975e-08
248	0x3eb7a05a	0.35864526
249	0x3942b3c6	0.00018568253
250	0x3e6cc94b	0.23123662
251	0x3eac5ae3	0.3366309
252	0x3942b3c6	0.00018568253
253	0x3ead5808	0.33856225
254	0x3bdff0b7	0.0068341154
255	0x3c37ba85	0.011213903

exp_avg f4 [128]
0	0xaf274e96	-1.5216481e-10
1	0xbb2b3300	-0.0026122928
2	0xba9dc04a	-0.0012035456
3	0xae8109fa	-5.868013e-11
4	0x3b088db7	0.0020836422
5	0xa87940e2	-1.3836346e-14
6	0xba8bb6b9	-0.0010659314
7	0xbb86022c	-0.0040896144
8	0xb3c52486	-9.180171e-08
9	0x3ba8893a	0.005143312
10	0x3a0c35db	0.0005348601
11	0xaf6ab55e	-2.134661e-10
12	0xb98c28ae	-0.0002673319
13	0xb3bb3c3e	-8.718824e-08
14	0x3c026bcc	0.007960271
15	0x35a4628f	1.2247637e-06
16	0xba85c2b1	-0.0010205117
17	0x3bc07520	0.0058733374
18	0x37d59652	2.5461577e-05
19	0xb1426a54	-2.8291156e-09
20	0x388ab81c	6.614646e-05
21	0x3884f935	6.340669e-05
22	0x3b201a80	0.0024429858
23	0xba9bbc94	-0.0011881762
24	0xba94082b	-0.0011293938
25	0x39fbecaa	0.0004805078
26	0x3b59dd72	0.0033243564
27	0xba34e06e	-0.00068998977
28	0xbb3598dc	-0.002770952
29	0xb8493f2e	-4.7980975e-05
30	0xafbc523e	-3.4255437e-10
31	0x3bc41c62	0.005984829
32	0xba2aa83e	-0.00065100554
33	0x3baac824	0.005211847
34	0xba8f151f	-0.0010916329
35	0x3b4c4b61	0.003117286
36	0xb633ab6f	-2.6772866e-06
37	0xb317bcbc	-3.532908e-08
38	0xb7b9c1ba	-2.214393e-05
39	0xba693ee1	-0.00088976143
40	0x3b210608	0.0024570245
41	0x3a7d51a7	0.0009663351
42	0x3a90012e	0.001098668
43	0x388d9482	6.751066e-05
44	0x3a8401ca	0.0010071334
45	0xb8b22fa5	-8.496576e-05
46	0x395f3b97	0.00021289136
47	0xb9e7efb2	-0.0004423834
48	0xb60823fe	-2.028653e-06
49	0xb4863ce4	-2.500375e-07
50	0x36ecda43	7.058757e-06
51	0xbad81568	-0.0016485872
52	0xb8b3bcd7	-8.570559e-05
53	0x3aa42e28	0.0012525963
54	0x364da843	3.0645322e-06
55	0xbad70a3b	-0.0016406247
56	0xbb908474	-0.004410321
57	0xb4698975	-2.1749823e-07
58	0xad1721b4	-8.59084e-12
59	0xbafcb659	-0.0019280418
60	0xb9344e77	-0.00017195368
61	0x2800f539	7.1586015e-15
62	0x3a807a45	0.0009802064
63	0x3ab8d72a	0.001410221
64	0xba802f4b	-0.0009779719
65	0xb7eeee3e	-2.8482751e-05
66	0x3af9e953	0.0019066728
67	0x3aa48230	0.0012551006
68	0x32aabe21	1.9877065e-08
69	0xbb0f77f6	-0.002189157
70	0x3068f343	8.4746804e-10
71	0x3968c52c	0.00022198696
72	0xb7bee9df	-2.275867e-05
73	0x3af557d6	0.0018718194
74	0xa78efa19	-3.9684074e-15
75	0xbbe80cc8	-0.007081602
76	0xb65b09a4	-3.2639155e-06
77	0x3b103196	0.0022002212
78	0xbaa09e96	-0.0012254294
79	0x389bbbb3	7.425938e-05
80	0xb9e98b78	-0.00044545135
81	0x385de6a3	5.2905303e-05
82	0x39ac5ad4	0.0003287407
83	0x3b1ae56a	0.0023635277
84	0x2f0df0e6	1.290946e-10
85	0x3b5795ea	0.0032895752
86	0x3aed8380	0.0018120855
87	0x3b56e906	0.0032792701
88	0x38bec268	9.096117e-05
89	0xb1a1f621	-4.7136983e-09
90	0xb3e5107a	-1.06666405e-07
91	0x39884a9f	0.00025995538
92	0xbb3dc5aa	-0.0028956928
93	0xb83a9c16	-4.4491222e-05
94	0xb9e71777	-0.00044077236
95	0x3b8ebf48	0.0043562986
96	0xbaacd3f0	-0.0013185721
97	0xb20ec64f	-8.310578e-09
98	0xb7433481	-1.163513e-05
99	0x39cbb169	0.00038851358
100	0x3a5c7d0d	0.0008410968
101	0xb78df6bb	-1.6923403e-05
102	0xb243ed8b	-1.1404505e-08
103	0xba5ff55b	-0.0008543336
104	0xb4cb3c01	-3.7855355e-07
105	0xba1f5b23	-0.0006078949
106	0x3b7f3231	0.0038939829
107	0x3b258404	0.002525569
108	0x3b1a01a5	0.0023499515
109	0xbb856851	-0.0040712734
110	0x36a2e886	4.8550455e-06
111	0xbabbf9d6	-0.0014341425
112	0x3bcf99fb	0.0063354946
113	0xb6c6af44	-5.9212634e-06
114	0xb586ec61	-1.0052573e-06
115	0xba2f628e	-0.0006690406
116	0x3b11bdc0	0.0022238344
117	0xba28bce5	-0.0006436839
118	0xba63fd66	-0.0008697122
119	0xbc0982dd	-0.008393017
120	0x3afc3a78	0.0019243499
121	0x39132d84	0.00014035968
122	0xbaa568e8	-0.0012619765
123	0x3a939bb9	0.0011261619
124	0xbaa6767c	-0.0012700106
125	0x3a436cc5	0.00074548676
126	0xbab76ee5	-0.0013994841
127	0x3a26554e	0.0006345109

exp_avg_sq f4 [128]
0	0x2d46c1a7	1.1297996e-11
1	0x3893973f	7.037678e-05
2	0x3827db6a	4.0020248e-05
3	0x2c9e3cd7	4.4973847e-12
4	0x39500231	0.00019837242
5	0x29c01e69	8.531788e-14
6	0x381db7bb	3.760283e-05
7	0x3991983b	0.00027769976
8	0x378a7393	1.65047e-05
9	0x39fb0278	0.0004787629
10	0x38267d64	3.9694263e-05
11	0x34689523	2.166094e-07
12	0x38217764	3.8496582e-05
13	0x36a6489f	4.9556397e-06
14	0x3abd0b80	0.0014422983
15	0x358d20f8	1.0514914e-06
16	0x383323d1	4.2710282e-05
17	0x3a372410	0.000698627
18	0x3739216f	1.1034644e-05
19	0x348eb1bd	2.6578883e-07
20	0x381cf219	3.741877e-05
21	0x35b7f1cf	1.3704938e-06
22	0x392a17c0	0.00016221311
23	0x38e8020a	0.00011063002
24	0x3844b7c3	4.6901183e-05
25	0x36dcd516	6.5813174e-06
26	0x394c3fdb	0.00019478744
27	0x37b68575	2.1758236e-05
28	0x3905cc63	0.00012760008
29	0x36a2ccca	4.851817e-06
30	0x329be2af	1.8147459e-08
31	0x3a42b3c5	0.00074273004
32	0x382b1d6a	4.079697e-05
33	0x39f59069	0.00046837635
34	0x387a2c1d	5.964573e-05
35	0x396a4a94	0.00022343762
36	0x34de85a5	4.1447962e-07
37	0x33fc7e11	1.1757596e-07
38	0x31cea47b	6.0140883e-09
39	0x37c2e5e2	2.323365e-05
40	0x38bb5ec9	8.93451e-05
41	0x38b7a044	8.755972e-05
42	0x3880d1ba	6.14258e-05
43	0x379c275d	1.861498e-05
44	0x39091da9	0.00013076387
45	0x38834cd3	6.2608764e-05
46	0x389a0b0c	7.34535e-05
47	0x3895e94f	7.148331e-05
48	0x3317e88a	3.536892e-08
49	0x35e6c262	1.7192908e-06
50	0x373e335c	1.13368405e-05
51	0x3872daa4	5.790092e-05
52	0x3806e119	3.2157728e-05
53	0x38ec04e6	0.00011254269
54	0x348d03a3	2.6265943e-07
55	0x383eb0f4	4.546433e-05
56	0x39ecf2cf	0.00045194334
57	0x349441f1	2.7615127e-07
58	0x2c425f9b	2.762213e-12
59	0x38d11153	9.9691235e-05
60	0x37dce8f0	2.6334514e-05
61	0x23938fec	1.5998725e-17
62	0x385940e4	5.1797266e-05
63	0x383143c6	4.2263207e-05
64	0x37c94923	2.3995124e-05
65	0x361cbbc4	2.3355105e-06
66	0x391af2e2	0.00014777065
67	0x381f38af	3.7961345e-05
68	0x366f3550	3.5644807e-06
69	0x3903b228	0.00012559502
70	0x2c732ccc	3.4557244e-12
71	0x395679ae	0.0002045396
72	0x387e6bb5	6.065863e-05
73	0x38db9a3c	0.00010471462
74	0x2f8c9052	2.5568397e-10
75	0x3aa52314	0.0012598955
76	0x2fa36ecc	2.9728253e-10
77	0x38fccb1a	0.00012054127
78	0x3948cdf4	0.0001915021
79	0x341b6048	1.4470527e-07
80	0x3885910e	6.368953e-05
81	0x37d3a0e9	2.522809e-05
82	0x3801e1c7	3.096627e-05
83	0x391717d7	0.00014409363
84	0x35abd161	1.280143e-06
85	0x39b39ca4	0.00034258247
86	0x38a2d32a	7.764094e-05
87	0x39538ee8	0.00020175765
88	0x3707223d	8.054599e-06
89	0x34a3c1a2	3.0502002e-07
90	0x32103ce9	8.3957525e-09
91	0x37985b8c	1.8162442e-05
92	0x3925e1e4	0.00015819777
93	0x38107c2c	3.444792e-05
94	0x382c48e3	4.1075877e-05
95	0x39e0dc1f	0.00042888612
96	0x382e8b09	4.161432e-05
97	0x3441ac64	1.8037241e-07
98	0x37d58ca1	2.5457064e-05
99	0x37fca6f0	3.0118477e-05
100	0x3801fa64	3.098919e-05
101	0x372d75e6	1.0339054e-05
102	0x323e47c4	1.1075773e-08
103	0x3794bfdc	1.7732316e-05
104	0x34f8a905	4.6316578e-07
105	0x3869ef79	5.5774555e-05
106	0x39db485c	0.00041824847
107	0x395dcc14	0.00021152227
108	0x390dff5e	0.0001354194
109	0x398d6c13	0.00026974137
110	0x388198c4	6.179654e-05
111	0x388809a9	6.486785e-05
112	0x3a5ebe87	0.0008497019
113	0x38bae253	8.911327e-05
114	0x31d5fe41	6.228021e-09
115	0x38b67b1d	8.701368e-05
116	0x38f2e35a	0.00011581807
117	0x38811744	6.155533e-05
118	0x388d32e3	6.732882e-05
119	0x3aecd1b9	0.0018067873
120	0x3856f30b	5.1247927e-05
121	0x37629c52	1.3507046e-05
122	0x387b3e8f	5.9901326e-05
123	0x38d6d56f	0.0001024407
124	0x385ae9fd	5.219317e-05
125	0x38340514	4.2920074e-05
126	0x37b79f3e	2.1889453e-05
127	0x390d296f	0.00013462243
