mlagents/Assets/results/Laberynth1/RollerBall/RollerBall-57879.pt (torch, 657311 bytes, 36 tensors)

network_body._body_endoder.seq_layers.0.weight f4 [128, 77]
00000000: c8d5 44be 66fe f23a 384e 75bc bea1 083d
00000010: 1acc 3c3d 4aba 2ebd 85bf f6be 297f 13be
00000020: 188a 403b b3bb 253e 281f e03b 8565 5e3d
00000030: 671a 2c3d 170b c13d ef85 54bd 8637 2cbe
00000040: 441b b93c 5b3d ef3c 5c39 113e 3baa 193c
00000050: 7db3 f4bd ea52 aebc 35c5 1f3e 5afa 8e3d
00000060: 33d7 0c3d 9074 a1bb 34ab 95bd 5536 53be
00000070: 5a22 ddbd 3a8a cb3d 2d85 083c f224 613c
00000080: c760 193e a37d 3ebe bd5e ba3d 2d9c c2bc
00000090: bb41 26be 953b 35be 4c73 ab3d 3bd1 e6bb
000000a0: a3a0 203e c217 b1bd d7c3 953d 1f4a 723e
000000b0: 9572 86bd 9b8e cc3d 0c6e 3abe 0510 193e
000000c0: 57c1 5a3d 0c58 393e 12b8 1e3e 71e3 c1bc
000000d0: f57e d1bd edc2 003d 2f4d 583c 5248 1dbe
000000e0: 2be1 fa3d 03fd febc b6a7 9e3d 4609 b7bd
000000f0: 0882 0abe d23a b7bc 66d8 89bd 2c3d 97bc
00000100: 19b7 d1bd 6588 8b3d 744d 37bd 4380 f13d
00000110: 577d 243d a994 06be 34b0 04be 6666 98be
00000120: f1f0 263e caf9 aebc f2a0 7b3c a820 18be
00000130: ea14 ecbb f2c0 84be c5f4 ba3d 481e 57be
00000140: 2d98 273e 4f12 3f3c 1233 8dbe dff7 4b3d
00000150: 0f6b a3be ee32 45bd bd14 c2bd e0c8 983c
00000160: 8fee 833d b34e 55bd ba6b 5d3d 2243 e63c
00000170: 0bff eb3d 0084 c13e 836b 133d cd4d d2bd
00000180: d94d 0f3e 6aa5 443d 6518 aabd cc6e 323d
00000190: 7668 d63d c2d9 633d fcf2 af3a 14e4 4cbd
000001a0: 184b 22be 7da9 a9bd 4c7c 23bd 95b3 f1bd
000001b0: d057 c6be 7d3c ebbd bad5 d33d d0bf b53b
000001c0: f221 79bc bde4 153e 48fb df3c 135c 71be
000001d0: 4929 3c3d f38f d73d c16a 973d d115 93be
000001e0: 6924 f5bd 2dd3 043e b4d1 2d3e 05e0 613e
000001f0: 815c 0c3e 0823 103c d752 353e 4613 8fbe
00000200: afae 153d cc7d 53be 18dd 043e dd58 c03b
00000210: 1bb7 33bd a2ea 523d 99bb cf3c 95a7 3dbe
00000220: 42b2 db3d 9d2e 93bd bb4e b7bd 220e 1abe
00000230: 4234 283e 6af9 30be 4a0f 2fbd aa40 a33d
00000240: 3068 e4bd f20c 69be 69b7 663d ea7d a7bd
00000250: 7ceb 0bbe 8c7a e33d c3c3 0e3e 7fa1 14bc
00000260: a0ba 823c bbfd 72bd a07d 63bd 3829 16be
00000270: cac5 63bd 4927 e03c c4b9 fdbd 192e cebd
00000280: b48b e2bd 793a 0a3d 1ea9 dabc 0524 bdbd
00000290: c2ca 433d 2baf 8b3d 2649 40be 05c5 04be
000002a0: b6f9 7fbc 55cb e9bd cd49 913b db5e 2dbd
000002b0: 2371 0fbe ae17 a83d 3424 1fbd 192a a0bc
000002c0: 4f6d 14be 4ebd 2bbe 0205 183a 7f50 6b3c
000002d0: 80f9 95bc a3bf 343d 2784 71be 77c5 c4bd
000002e0: 015b c2bd b9af bdbd 04bc f73c 2d88 873c
000002f0: 2746 aabd c24f 423e 2d03 353e 8d8e 47bd
00000300: 9fac 7a3d ac5b ba3d 959e 3e3e dfb2 fb3b
00000310: 02d0 913d 3b58 fa3d 866b 5cbd eb13 d2bd
00000320: ef62 463e fdf0 3ebe babe 8e3d 11cd 01bd
00000330: ef62 57bd d938 c03d fa5c fe3d 1bab 3dbc
00000340: 295f 57bd a15b 42bc a851 4cbd 7a9f 863e
00000350: 202d 763e 4261 873e 9258 fbbc 4de5 863d
00000360: 2636 bb3d c991 cabd ffef 083d 008d 563c
00000370: 3206 4d3d 633b 72be b3b7 1ebd ac84 a4bd
00000380: f962 19bc ae35 9eba bcf1 47bd 5676 453c
00000390: bbdd a7bc f369 4d3d da85 2c3b 79e2 39bc
000003a0: ecab c8bd 572b 0b3e d0f3 44bd bae4 5cbe
000003b0: cc4b c93d 8c7b c7bc 9ab4 7a3e 8ed1 1839
000003c0: 1f1f 46bb af9a 263b 91f2 003e 03ae c4bd
000003d0: 9cd6 21bd b172 0f3e 81a9 dcbd a2ac b13d
000003e0: e934 413e df07 96bd 087c 35bc 7247 17be
000003f0: 18e6 50be e694 32bc 9403 283d fefa b6bd
-0.19222176 0.0018538951 -0.014972262 0.033357374 0.046093084 -0.042658128 -0.48192993 -0.14403977
0.0029379185 0.16184883 0.0068396516 0.054296035 0.042017367 0.09425943 -0.05188554 -0.16818056
0.02259601 0.029204061 0.14182037 0.009378965 -0.11948297 -0.02127977 0.15602572 0.069813445
0.034384917 -0.0049272254 -0.07308045 -0.20626195 -0.10797568 0.09938474 0.008332533 0.013741719
0.14978324 -0.18602614 0.09100101 -0.023756111 -0.16236012 -0.1769851 0.083716005 -0.007043985
0.15686278 -0.086471096 0.07312744 0.23661087 -0.065648235 0.09988137 -0.18206042 0.14947517
0.05340704 0.18099993 0.15499905 -0.023668023 -0.10229293 0.031435896 0.013201996 -0.1535962
0.12249979 -0.031126505 0.07746832 -0.08937316 -0.13526165 -0.022366915 -0.06730728 -0.018461786
-0.10240001 0.068131246 -0.0447516 0.11792042 0.040158596 -0.13142647 -0.12957841 -0.29765624
0.1630285 -0.021359343 0.015358197 -0.14856207 -0.0072046416 -0.25928456 0.09128717 -0.21007645
0.16366644 0.01166208 -0.27578026 0.049796935 -0.31917617 -0.048144273 -0.09476612 0.018650472
0.06441986 -0.052077007 0.054057814 0.028108183 0.11523255 0.3779602 0.035991203 -0.102687456
0.1399454 0.048009314 -0.08305434 0.043562695 0.10469143 0.055627592 0.0013423855 -0.0500222
-0.15848958 -0.082842804 -0.03991346 -0.11801831 -0.3873887 -0.114861466 0.103434995 0.0055465475
-0.015205847 0.14638038 0.0273415 -0.2357028 0.04593781 0.10525503 0.073934086 -0.28727582
-0.11969835 0.12971182 0.16974527 0.22058113 0.13707162 0.008797415 0.17707382 -0.27944392
0.036543544 -0.20653456 0.12974966 0.0058699683 -0.043875795 0.051493295 0.025358008 -0.18520959
0.10727359 -0.07186625 -0.089505635 -0.15044454 0.16426185 -0.17282644 -0.04273919 0.07971318
-0.11152685 -0.22758844 0.056327257 -0.08178313 -0.13664049 0.11107358 0.13941865 -0.009071707
0.01595813 -0.059324007 -0.055539727 -0.14664161 -0.05560855 0.027362483 -0.123889476 -0.10067386
-0.110618025 0.03374717 -0.02669197 -0.09235386 0.047800787 0.0682052 -0.18777904 -0.12965782
-0.015623501 -0.11415736 0.0044338466 -0.04232679 -0.14008002 0.082076415 -0.038852885 -0.019551324
-0.14494823 -0.16771433 0.0005799086 0.0143624535 -0.018307447 0.04412807 -0.23585568 -0.09607976
-0.09490014 -0.09262032 0.03024102 0.016544426 -0.08314162 0.18975738 0.17676993 -0.04871993
0.06119978 0.09099516 0.18615182 0.007681235 0.071197525 0.1222386 -0.05381348 -0.10257705
0.19373678 -0.18646617 0.06969972 -0.031689707 -0.052584585 0.09385843 0.124200776 -0.011576439
-0.052580986 -0.011862666 -0.04988256 0.26293546 0.24040651 0.2644139 -0.030681882 0.065867044
0.09141187 -0.098910876 0.033432003 0.01309514 0.050054736 -0.23655467 -0.038749408 -0.08033118
-0.009361976 -0.0012070441 -0.04881452 0.012052139 -0.020491472 0.05014987 0.00263249 -0.011345499
-0.097984165 0.13590752 -0.04808408 -0.21571627 0.0982891 -0.024350904 0.24482957 0.00014573915
-0.0030230952 0.0025421788 0.12592532 -0.096035026 -0.039511308 0.14008595 -0.10774518 0.08675505
0.1886784 -0.0732572 -0.011076935 -0.14773348 -0.20400274 -0.010899758 0.041019037 -0.08934592

network_body._body_endoder.seq_layers.0.bias f4 [128]
00000000: 179b 77bc 0a9d 973b 616b 52bd 7f6e a6bc
00000010: ee29 6a3b 5fae 0a3c edae afbc 8306 04bd
00000020: 276e 7dbd 9b36 413c 9c4c cebc ce67 32bd
00000030: cb92 2d3c 8851 2cbc 3a37 863b f142 da3b
00000040: a823 803b 6d2e cbbc c514 fcbb db72 8abc
00000050: c9d0 53bc 94b7 8dbc 3ff2 25bd c50d c7bc
00000060: 3dc3 fbbc 540f 863d 2b81 083b b646 3dbc
00000070: 5663 74ba 878d 7dbb 966b e3bc 3b16 eab8
00000080: 059c cebc a04f 35bb 736c 84bc 7806 e3bb
00000090: 954d 20bd fa2e d2bc 4a91 89bb 2da8 8c3b
000000a0: f06c 313b fe8f f0bc 7f71 0abd 94ce 0dbd
000000b0: 401f 2bbc 53f6 c3bc 4ee1 0bbc 3b4a 38bd
000000c0: dcf6 2bbd a1a3 82bb 7f64 9ebb 0664 33bd
000000d0: 6321 89bb 9f92 a03a a120 bdbc 67bf 32bd
000000e0: 7043 14bd 6005 11bd 42b5 36bd 89b1 e1b8
000000f0: 6026 67bd 3b78 d0bc a365 07bd 5c85 18ba
00000100: cdf8 e43b eb1d ee3c 9dbf cf3c 4723 07bd
00000110: 10dd fdbb b44f 67bd d20e 9ebc 59ee b4bc
00000120: f4dd 3e3d 9acf 18bb e813 30bd 7efa 8fbc
00000130: 6bc1 b43c 1372 513c e669 3e3b 302d 94bc
00000140: d830 ccbc 1fec d4bc 1e8d e13c af45 b63a
00000150: 6a14 b8bc d8f5 2cbd 4813 4cbd e911 03bd
00000160: b5da 153c 54f7 3bbd 3a7d 09bd 0682 3abc
00000170: 0dd0 4abd 9cff 6cbb 7fd8 ffbc 2f25 543c
00000180: bb32 4c3d 6f47 70bc 4649 e53a ed91 0fbc
00000190: f7bb 113c df3e 123c 5490 a0bc d8e4 2bbc
000001a0: 5517 e6bb 3e14 f1bc 6489 cdbb 043c 2b3c
000001b0: da6f debc 0035 aa3b 4995 813c a294 01bc
000001c0: 9655 3f3d 34b7 553b b385 a73c 3d7f 893c
000001d0: d16b 2bbd d704 38bd 0759 0cbc a11b dc3c
000001e0: 8371 76bc 49e2 1cbd 720d b3bb 9fac b5bc
000001f0: cbe1 eb3b a191 d3bb 3c76 20bd 53b2 34bd
-0.01511266 0.004626875 -0.051371936 -0.02031636 0.0035730558 0.008464425 -0.021445716 -0.032232773
-0.061872628 0.011792804 -0.025183015 -0.043556027 0.01059408 -0.010517485 0.004095939 0.006660812
0.0039105006 -0.024802411 -0.0076929056 -0.01690047 -0.012928196 -0.017299451 -0.040514227 -0.024298558
-0.030732745 0.06545892 0.0020828943 -0.011552503 -0.00093226635 -0.0038689093 -0.027761262 -0.0001116213
-0.02522088 -0.0027665868 -0.016164994 -0.0069282614 -0.039136488 -0.025657166 -0.004198228 0.004292509
0.0027072988 -0.029365536 -0.033799645 -0.034620836 -0.010444462 -0.023921167 -0.008537604 -0.044992667
-0.04198347 -0.0039867912 -0.0048337574 -0.04379656 -0.004184888 0.0012250728 -0.023086848 -0.043639567
-0.036197126 -0.035405517 -0.044606455 -0.000107619046 -0.05643308 -0.025447955 -0.033055913 -0.0005818212
0.006987667 0.029067 0.025359923 -0.032992627 -0.0077473 -0.056472495 -0.019294176 -0.02208631
0.04659839 -0.00233171 -0.042987734 -0.017575499 0.022064885 0.012783545 0.002905482 -0.018087953
-0.024925634 -0.025991498 0.02753311 0.0013906265 -0.022470672 -0.042226642 -0.049823076 -0.031999502
0.009146382 -0.045890167 -0.03356669 -0.011383539 -0.04951482 -0.0036163097 -0.031231163 0.012948318
0.049853068 -0.014665469 0.0017493151 -0.008762819 0.008894912 0.008926122 -0.019600071 -0.010491572
-0.0070218244 -0.029428598 -0.0062724818 0.010451321 -0.027152944 0.0051943064 0.015818255 -0.007908972
0.04671248 0.0032610418 0.020449495 0.016784305 -0.04185087 -0.04492649 -0.008566148 0.026868643
-0.015041712 -0.03830174 -0.0054642493 -0.022177039 0.0071985475 -0.0064565693 -0.039175257 -0.044115376

network_body._body_endoder.seq_layers.2.weight f4 [128, 128]
00000000: cc42 833d a6e6 183d 738d 93bd 9691 ab3d
00000010: 45df 033e feb4 27be 5c0d e03c 3755 58bc
00000020: d92f 5a3c 4ed2 9a3d 6934 053d 5aec dabd
00000030: 7266 fa3d 1260 ec3d 1309 de3c 4afa 95bd
00000040: 3968 87bd 3261 863d f0a0 4e3d 0031 50be
00000050: d59b 903d f64f 943d ea79 993c b6d8 0dbe
00000060: 289e ebbb 7408 f53d 6dda 39be 47f3 3c3d
00000070: 130b 9fbd 3754 b13c 54f3 98bd 35df 92be
00000080: 5bc0 ab3c 964f 16bb 6f69 83bd 003f 0cbd
00000090: 70dc 653c e668 fe3c ba2e 5c3d 34f8 4abe
000000a0: 5aa7 dc3d 00a3 82bd a024 a0bb 8da3 5dbe
000000b0: b8ad c13d aa63 e7bd 4b3e b6bd 7321 a23d
000000c0: e03e bb3d 927d 6ebd 65a1 a4bd 4d71 86bd
000000d0: 2d68 8abd c8ea c2bd 6dce 7e3d d258 be3d
000000e0: ee9e 2a3d 371e a33d 926d b5ba b8c5 c73d
000000f0: d8af b73d 2d19 353c 100d 9d3d eef5 2cbd
00000100: 6e56 35bd 8dac ecbc 9698 2d3e 9db6 b2bd
00000110: fbfc 363e d71b 003d 14f1 98bd 7042 7abb
00000120: b5e4 a5bd 7eb9 04be 69ff b6bd b3a6 813e
00000130: 2501 223e 2ea4 82bd 552f d53b 4e2a 6a3d
00000140: 728c 30be d17d c73c 0d9d f03c 4616 373e
00000150: cbe3 023c 5f6c c23d 3995 dcbd 52a6 aabd
00000160: e05c 5abd c929 5e3c 5b9e 9ebd 4955 223d
00000170: eaa9 eb3d ff37 52bd f392 1b3e 339e 6c3e
00000180: 787b 073e bf9b 593c 0b8a 5fbd 3fd3 a23c
00000190: f58b 51bd 0a97 d4bd 3fae 07be 1e34 4dbc
000001a0: 936b f23b 5607 dbbd c783 983d 4a62 36bd
000001b0: a576 04bd e524 5dbc a209 6a3d 06ed babb
000001c0: 4b2b de3d 682f 34be c2e3 503e 7cc3 663c
000001d0: 1966 c0bc 4295 7abd 1c83 1dbe 13e9 00be
000001e0: dd23 bcbd 06c6 03be 6d4e 65be 0df9 6dbd
000001f0: 3030 0ebb 6ace 3e3c be22 343d 8d2e c3bc
00000200: 8fc9 30bd c0c4 1abe 081b a8bb ed56 d53d
00000210: 088b 4d3d 51ec c6bd 1486 13bd eb3c 3fbe
00000220: d8ac 403d 7e57 f4bd b398 393d 1847 41bd
00000230: a104 8c3c f4fb d33a 8a36 5ebe 559b 4fbe
00000240: e118 66bd 0923 00be fb85 6abb 7575 533d
00000250: e689 ea3c d576 c4bd e928 02bd 42d0 87bd
00000260: 7662 90bd 2f64 203c 7d00 a43d 898c 8d3c
00000270: e7e8 f03c 1282 0c3e 78c1 903d b00f ddbd
00000280: 25bc 9f3c 4413 bebd e12d c73d fd80 7e3d
00000290: bde1 b33d 05c3 f5bd a39d 95bd 0e6c f83d
000002a0: c517 8cbd a8a3 5bbe 6cc9 1c3e 191e bc3d
000002b0: e130 b9bc e0f7 4fbb 0510 1d3e 3b00 253c
000002c0: 96e6 c23d 1e34 aa3d b768 c93d 0bc2 143c
000002d0: 4852 a1bc d31f ad3d 8905 8dbc c539 f23c
000002e0: ce38 103c f1e1 10be 1ca7 a83c e6ad 3d3d
000002f0: 9996 74ba 6fb0 c83c 238c 833d 5b4f 31be
00000300: ba76 09bd bf2f 12bc e1f7 3d3b 2946 9c3d
00000310: be19 5e3e 6fcd 76bd 7673 023d 7fe7 653d
00000320: 1b28 143e ed8d a23c 37a6 b5bd f495 b5bd
00000330: aa94 3f3d 24ec 4e3c 1de2 18be 2ef1 b2bd
00000340: c9e3 a33d 7324 8abd 662f 713e 2a78 703e
00000350: 9d60 4e3e b83e e2bd e203 28be d053 1f3d
00000360: a22f 4bbd 52df a0bc d7a2 64bd 8c52 0bbd
00000370: 568c c5bc edb9 8e3d d6ef c5bb 0a9f 95bd
00000380: 2add 253e 6716 40bd d4a5 97be 0cdc afbd
00000390: 6f95 d5bd ee63 7d3d 95e5 ffbd ee14 493c
000003a0: c9cf bd3d 2c07 af3b d499 62bd 88fb cc3c
000003b0: 032b 90bc a2c6 09be 33b5 e2bd 25cb 42be
000003c0: fa00 1cbe 656f 933d d35c 01bd 6aab 46be
000003d0: fa56 27be 7c54 11be 5324 d23b caef 473d
000003e0: 0595 eebd 4e7d 15be 0136 493d 0b80 963d
000003f0: 87eb 213e 069d f2bd bc7d 07be fb88 5f3d
0.06409225 0.03732934 -0.07204714 0.08377378 0.1287814 -0.16377637 0.02735012 -0.013203911
0.013317072 0.07559644 0.032520685 -0.10689612 0.12226571 0.115417615 0.027103936 -0.073231295
-0.06611676 0.06561507 0.05044645 -0.20331192 0.070609726 0.07241814 0.018734891 -0.138522
-0.0071904846 0.11964503 -0.18149729 0.046130445 -0.07765784 0.021646602 -0.07468286 -0.28685918
0.020965746 -0.002293562 -0.06416594 -0.03423977 0.014029607 0.031055879 0.0537555 -0.19821244
0.10774107 -0.06378746 -0.0048871785 -0.21644421 0.09456962 -0.11298306 -0.088986 0.07916536
0.09142852 -0.058225222 -0.08038596 -0.06564579 -0.06758151 -0.09517437 0.06220858 0.09294285
0.041655473 0.079647474 -0.0013841859 0.09754509 0.089690864 0.011053366 0.07668507 -0.042226724
-0.04427188 -0.028890872 0.16952738 -0.08726237 0.17869942 0.03127655 -0.07467857 -0.0038186572
-0.08100263 -0.12961385 -0.08935434 0.25322494 0.15820749 -0.06378971 0.0065058866 0.05716925
-0.17241076 0.024351986 0.029371763 0.1787959 0.00798888 0.094933264 -0.107706495 -0.08332504
-0.05331123 0.013559767 -0.07745048 0.039632116 0.11507018 -0.051322933 0.15192775 0.23107223
0.13230693 0.013281762 -0.054575007 0.01987612 -0.051158864 -0.10380371 -0.13250063 -0.012524633
0.0073980778 -0.106947586 0.074470095 -0.04452733 -0.03233971 -0.013497566 0.057138093 -0.005704525
0.10848101 -0.17596209 0.20399383 0.014084693 -0.023486184 -0.0611775 -0.15382046 -0.12588911
-0.09186528 -0.12868509 -0.22393198 -0.05809884 -0.0021696202 0.011645893 0.043978445 -0.023825908
-0.04316097 -0.15114117 -0.0051301755 0.104169704 0.05018142 -0.097130425 -0.03601654 -0.18675582
0.047039837 -0.1193075 0.04531164 -0.04718694 0.017092051 0.001617311 -0.21700493 -0.20274098
-0.05617607 -0.12513365 -0.0035785425 0.051625688 0.028630208 -0.09592978 -0.031777296 -0.06631519
-0.0705003 0.009789511 0.08007906 0.017278926 0.029407931 0.13721493 0.07068151 -0.10794008
0.019498894 -0.092810184 0.097255476 0.06213473 0.087832905 -0.12000088 -0.073054574 0.12129985
-0.06840471 -0.21449149 0.15311211 0.09185428 -0.022606315 -0.0031733438 0.15338142 0.010070856
0.09516637 0.08310722 0.09834426 0.009079467 -0.019692555 0.084533356 -0.017214553 0.029568562
0.008802606 -0.1414869 0.020587496 0.04630842 -0.0009330302 0.024498193 0.06423213 -0.17315428
-0.033560492 -0.008922516 0.0028986859 0.076305695 0.21689507 -0.06025451 0.031848393 0.056128975
0.14468424 0.019843066 -0.088695936 -0.08866492 0.046772636 0.0126295425 -0.14930005 -0.087374076
0.08002431 -0.067452334 0.23553237 0.23483339 0.20154043 -0.11047119 -0.16407731 0.03889829
-0.049605973 -0.019637737 -0.05581936 -0.03401427 -0.024114769 0.06969056 -0.0060405536 -0.07305725
0.16197649 -0.046896365 -0.29618704 -0.085868925 -0.10428893 0.06186288 -0.12494961 0.012273056
0.092681475 0.005341431 -0.055322483 0.025022283 -0.017598635 -0.13454679 -0.11069717 -0.19022806
-0.15234748 0.07198981 -0.031582665 -0.19401327 -0.16341773 -0.14192384 0.0064130216 0.048812665
-0.11649517 -0.14598581 0.049123768 0.07348641 0.15812503 -0.11846356 -0.13231558 0.054573994

network_body._body_endoder.seq_layers.2.bias f4 [128]
00000000: 6425 f33a d0c0 cc3b d46d 88bb 85d5 51bb
00000010: 5f7e 293b c895 0dbc 5449 13bd 8b93 10bd
00000020: fca3 3dbc b5f2 363a c281 cbbc 1074 86bc
00000030: e8b6 ebbc 881b 71bd 492c c73c cd3e 2c3d
00000040: 2969 56bd 102f 95bb 8b4a 67bc c3ed 02bb
00000050: 47fb e3bb 6152 71bd 089e 23bd 88b8 acbc
00000060: c816 9ebc a3ac b9bc 9c95 e93b 438c 42bd
00000070: b988 bbbc 177f 853c 12e5 6ebb f713 15bc
00000080: 9cf2 09bc 4f3d 89bd a1be 4fbc ed02 51b9
00000090: 345f e63b d54a 38bc 9456 4f3b 8c15 02bd
000000a0: 8098 25bc 6252 27bd 41e9 3dbd 1e6d a93b
000000b0: 7262 83bc f470 a5bc 725e 0ebd 3df2 f7bc
000000c0: 5484 0cbc 46a1 5dbd 79cd 08bb 6c6a f6bb
000000d0: d722 273b 979f 88bc 118c e7bc c2c7 3c3c
000000e0: 8c14 f8bb 2396 50bc 30f6 8d3a 2931 f1bc
000000f0: d0bc 1abc f4a6 9cbc a660 62bc 7c9e e9bc
00000100: d139 dfbc 7e1e 7dbc 091a 44bc 51ca 55bc
00000110: 602a 37bc 7aec caba b006 e2bb 3098 d53b
00000120: 8ef9 82bb 34bf b4bb b64d 223c ff51 a7bd
00000130: 45b8 a3bc bfe7 92bb 1821 2bbd b465 ab3c
00000140: 2b38 683a 0c38 cbbc 9331 8abc 8b2c c23a
00000150: ae78 f7bc bfc7 6fbd a19c dcbc d538 8cbd
00000160: 514d 9cbc 23d0 5d3c 8206 f1bb 1f2f 89bd
00000170: 4004 d9bc 4441 6abd 6316 d63b b8ab 5bbd
00000180: a5d3 45bd fcd9 4bbc 4534 86bc 9ea7 5bbc
00000190: 8a53 b1bc 29df b5bc 1216 e3bc 5f9a 4bbd
000001a0: f64b 36bd ce26 ccbb 390a 68ba 1b42 64bd
000001b0: ec76 49bc f04b 18bd 414e 86bd 73a7 45bd
000001c0: bb88 27bd 6746 42bb 557b 6ebc 8332 ad3b
000001d0: 3201 aabd bc5f 193d 6395 f3bb 1705 c7bc
000001e0: e6a9 90bd 342e 81bc 5f28 e0b9 c899 2dbc
000001f0: ae87 1abb ba2b c3bb d7a0 60bc dcd4 ab3a
0.0018550572 0.006248571 -0.004163483 -0.0032018137 0.0025862677 -0.008641668 -0.035958603 -0.035296958
-0.011574741 0.0006978915 -0.024842147 -0.016412765 -0.02877374 -0.058864146 0.024313109 0.04205208
-0.052346382 -0.0045527294 -0.0141168935 -0.0019978143 -0.006957445 -0.058916453 -0.039945632 -0.021084085
-0.019297972 -0.022665327 0.0071284305 -0.047497045 -0.022892343 0.016295953 -0.0036452455 -0.009098998
-0.008419659 -0.06701147 -0.012679727 -0.00019932883 0.007030392 -0.01124831 0.0031637298 -0.03175883
-0.01010716 -0.04085005 -0.046365026 0.0051704785 -0.016038153 -0.020195462 -0.03475804 -0.030266875
-0.008576471 -0.05410888 -0.0020874424 -0.0075200107 0.0025502944 -0.01667766 -0.028265031 0.011522235
-0.0075708088 -0.012731108 0.0010830816 -0.029442387 -0.0094444305 -0.019122578 -0.013816988 -0.028517954
-0.027249249 -0.015449164 -0.011969098 -0.013048724 -0.011179537 -0.0015481852 -0.00689777 0.0065183863
-0.0039970344 -0.0055159573 0.009906223 -0.081699364 -0.019985327 -0.0044831927 -0.041779608 0.02092252
0.00088584673 -0.024806999 -0.016869342 0.00148143 -0.030208912 -0.058540102 -0.026930155 -0.06846777
-0.019079836 0.013538393 -0.007355512 -0.06698441 -0.026491284 -0.05719115 0.0065334304 -0.05363056
-0.048297543 -0.012442108 -0.016382346 -0.013406662 -0.02164628 -0.022201138 -0.027720485 -0.049707767
-0.044506036 -0.006230212 -0.0008851621 -0.055727106 -0.01229642 -0.037181795 -0.065578945 -0.048255395
-0.04090188 -0.0029644014 -0.014555772 0.0052855625 -0.08301009 0.037444815 -0.00743358 -0.02429442
-0.070636556 -0.015769102 -0.00042754688 -0.010595746 -0.0023579407 -0.0059561403 -0.013710222 0.0013109702

action_model._continuous_distribution.log_sigma f4 [1, 2]
00000000: ae3e 94be 60df 0bbe
-0.2895407 -0.1365943

action_model._continuous_distribution.mu.weight f4 [2, 128]
00000000: 516a 953c 2d4a a8bb efee a83c cef3 463d
00000010: ed88 c03a fd15 f5ba 013c a73c d8c4 22bc
00000020: 9a92 403c c911 903c 6895 e53b 5e36 d93c
00000030: 65a0 e83c bff9 6e3a edbc ca3c 210f 863d
00000040: d104 633c 03d4 503d c20d ee3c 2233 c73c
00000050: 74ca 0ebc 55ba 8a39 ea2d aabc eeab 0bbd
00000060: 6b8a 93ba f2c5 57bd 12aa 51bc 9dd8 35bc
00000070: 660f 9a3b 5878 8b3d b625 0d3d b8df c63c
00000080: 9976 7dbc 8da1 feba 379a 3a3d 4e2a 143c
00000090: ffcc d13c 9988 f4bc 45a1 7f3d 885c 803c
000000a0: 92fd 1b3c ece8 053d d845 963c eb3c 4fbd
000000b0: a634 373d 016b 38ba 92bf 83bc f8c7 c03c
000000c0: 43f9 03bd 3847 633b 50a0 dfbc 30f7 b23c
000000d0: c9ab cebc a12e 233d 1eee 3c3c c969 f73b
000000e0: a0fa 4f3b c401 593d 926e 5a3d 760e 763c
000000f0: e5df 9cbc 267e cfbc 91c0 58bc 837a 943b
00000100: b1e6 073d 1be3 ca3c 0b7f a53b 0006 b13d
00000110: f7b8 c33c 571c 383d 4b3d 36bb d2f6 853d
00000120: 6abf 003d 5656 fb3a 7c0a 623d 2e9e 2f3b
00000130: 52d4 1e3b 3a20 883d 6839 463b 7e83 343d
00000140: f922 23bd 45b2 ed3c 7376 df3b b1b5 5bbc
00000150: 98e7 2e3c b797 8d3b df20 b7bb c485 4abb
00000160: a05f 2f3d cd13 ed3c 7f4d b7bc dd16 563b
00000170: 9eda f93c f5af 83bb 9542 213d f71b 86b9
00000180: 4c0a 823c b53f 873c c093 c23c e2f7 c33b
00000190: 0358 463d fe7f f93c a502 2a3c 2d69 03bc
000001a0: 0231 f43b b0b0 bb3c 4337 e53c 5468 903b
000001b0: ecc1 77bc bd03 463c eb19 5539 6ce7 313c
000001c0: 570a d03c 5894 a739 f5ec b63c 52fd 4cbc
000001d0: 154b 7bba d539 8e3d 7067 8c3c 980d 97bb
000001e0: 4c0c 323b ba1a cdbc 07b3 563b 256d 813c
000001f0: f5fd 1e3d 913b 36bd 0b56 66bb 3a73 ddbc
00000200: 7177 12bd 8c1b 8bbd 6eb1 2e3c ad48 60bc
00000210: 3270 1d3c 07c1 b7bc 6b05 aabc 9603 a8bc
00000220: 63ff 60bb 720a 38bd b493 27bd 14d0 dabc
00000230: 6924 953c be3a c73b 9014 963d fe43 423d
00000240: 5459 12bc 4290 8439 2535 403c 2285 263d
00000250: b339 d13c df79 23bc 3153 edbb f315 a43c
00000260: c33d 0c3d 794e 32bd d66b 213d fb58 8b3c
00000270: e81d b83c a057 1fbd 8ae9 72bd 0819 673d
00000280: 7928 1b3c 917a f83b 02b1 18bd 7c80 4f3d
00000290: b356 313d 5c1a 673d f8d6 4cbd e9b1 81bc
000002a0: c2ec 5c3b 7e90 96bc 7930 9dbb f2ff 823d
000002b0: 0ddb d9bc 3761 453d d10f a23c 44cd 5fbc
000002c0: fcf7 243d bca8 08bc f0fb 253d 818b b7bb
000002d0: b55d 263d 3ba8 fb3c 149f 0cbd 7b94 30bd
000002e0: 4e83 393b d741 a83c 7ca4 723c 818b 89bb
000002f0: 41f0 f0bc 36cb 463d 4bc4 1e3d cb72 54bc
00000300: ee42 c3bc 4336 713c 1763 623b 3431 c4bb
00000310: 83cb a9bb 9ba7 8fbc 7161 c53c 28e2 a2bc
00000320: 3d82 26bd 0218 553c ae5c 203b d0ec 353b
00000330: 1012 4bbc 408d 41bb 90c4 edba 178c febc
00000340: 404e 5d3d 610b 503c dd7f e7bb 67a9 59bd
00000350: b69d 4bbc 358d ec3b 4fde f93b e4ed 4d3c
00000360: 0c64 81bd 0cdf d9bc f0ba 093d 054f 08bc
00000370: 710c 3dbd f2ec 18bb ef7c 86bd ac82 e93b
00000380: 4829 d43b 2d41 593d de9e 85bc 08e4 38ba
00000390: cdcc 7ebc e86b 54bc ec05 123d 5b79 223a
000003a0: f36d 38bc 6fb0 a53c 5fc7 e23c a44e 05bc
000003b0: a13a 273d dabe 233c 648c 2d3a 86fd 93bc
000003c0: 3646 253b d9d0 2f3d 6636 fb3c 7fbe 883d
000003d0: 6eb9 1d3c a6ff 8b3d 03a0 3dbd b122 7d3b
000003e0: bec5 173c 3188 1fbd 34cb febc 0f1f a63c
000003f0: daa0 bbbc 7131 bbbc e28f 83bc 7354 a73b
0.018239172 -0.0051357956 0.020621745 0.048572354 0.0014689245 -0.001869857 0.020414354 -0.0099346265
0.011753703 0.017586606 0.007006336 0.026515182 0.028396795 0.00091161946 0.02474829 0.06545854
0.013856129 0.05098344 0.029059295 0.024316374 -0.008715261 0.0002646024 -0.020773847 -0.03409951
-0.0011256462 -0.05267901 -0.012796896 -0.011099008 0.0047015427 0.06810063 0.034459792 0.0242766
-0.01547017 -0.0019426808 0.045557227 0.009043289 0.025610445 -0.029850291 0.062409658 0.015669122
0.009520905 0.032692835 0.018343851 -0.050595205 0.044727944 -0.0007034988 -0.016082559 0.023532853
-0.032220136 0.00346799 -0.027298123 0.021846384 -0.025228398 0.03983939 0.011531381 0.0075504524
0.0031735078 0.0529802 0.053328104 0.015018096 -0.01914973 -0.025328707 -0.013229505 0.004531206
0.03317899 0.024766495 0.005050545 0.086437225 0.023891909 0.044948902 -0.002780753 0.06541218
0.031432547 0.001917551 0.05518578 0.0026797163 0.002423544 0.06646772 0.003024662 0.044070713
-0.039828274 0.02901567 0.00681954 -0.013410018 0.010675333 0.0043210643 -0.0055886353 -0.0030902484
0.042815804 0.028940106 -0.02237582 0.0032667436 0.030499753 -0.0040187784 0.03937014 -0.00025579307
0.01587405 0.01650987 0.023752093 0.0059804777 0.04842378 0.03045654 0.010376607 -0.008020681
0.0074521312 0.0229114 0.027980452 0.004406968 -0.015121918 0.012085852 0.00020322918 0.010858398
0.025395555 0.00031963247 0.022329787 -0.012511568 -0.0009586078 0.06944624 0.017139167 -0.004609775
0.0027167974 -0.025037158 0.0032760517 0.015799114 0.03881641 -0.0444904 -0.00351465 -0.027032483
-0.03575844 -0.067923635 0.01066242 -0.013689202 0.009609269 -0.02243091 -0.020754537 -0.020509522
-0.003433191 -0.044931836 -0.040912345 -0.026710548 0.018205838 0.0060800007 0.07328141 0.047428124
-0.00893243 0.00025284482 0.011731421 0.04065431 0.025540208 -0.009977787 -0.007242583 0.020029997
0.034238588 -0.04353187 0.03940948 0.017010203 0.022475198 -0.038901925 -0.05930475 0.056420356
0.009470099 0.0075829704 -0.037278183 0.05065964 0.043295573 0.056421623 -0.050009698 -0.015831904
0.0033710455 -0.018379446 -0.004797038 0.06396474 -0.02659371 0.048188414 0.019782932 -0.013659779
0.04027556 -0.008341011 0.04052347 -0.005601347 0.04061671 0.030719867 -0.034331396 -0.043110352
0.0028307023 0.020539207 0.014809724 -0.0041975384 -0.029411437 0.04853364 0.03876142 -0.012966822
-0.023835625 0.01472241 0.0034543925 -0.005987311 -0.005181731 -0.017535975 0.024094315 -0.01988323
-0.04065155 0.013006212 0.0024469304 0.002775956 -0.012394443 -0.0029533654 -0.0018140245 -0.03107266
0.054029703 0.012698025 -0.007064803 -0.05314007 -0.012427738 0.0072189816 0.007625378 0.012568925
-0.063179106 -0.026595615 0.033625543 -0.008319621 -0.046154443 -0.002333459 -0.06566798 0.007126173
0.0064746477 0.053040672 -0.016311105 -0.0007053022 -0.015551758 -0.01296518 0.03565018 0.0006197893
-0.011256683 0.020225732 0.027682958 -0.008136425 0.040827397 0.009994233 0.0006620346 -0.018065225
0.002521885 0.042923782 0.030665588 0.06676959 0.009626729 0.068358704 -0.046295177 0.0038625414
0.009263454 -0.03894824 -0.031102754 0.020278482 -0.022903848 -0.022850724 -0.01605982 0.0051065027

action_model._continuous_distribution.mu.bias f4 [2]
00000000: ee10 86bc c30f f939
-0.016365495 0.00047504724

exp_avg f4 [128, 77]
00000000: aabe b538 988f 5736 cd45 6fb7 0b58 f538
00000010: a28f 5736 e5f9 8eb8 bc63 70b7 5e45 20b8
00000020: c0b9 8638 988f 5736 b932 14b9 36ef 1a39
00000030: 988f 5736 36ef 1ab9 1529 c438 988f 5736
00000040: ecd7 b8b7 988f d737 988f 5736 164c deb8
00000050: 1529 c438 988f 5736 ecd7 b8b7 0000 0000
00000060: 0000 0000 0000 0000 0000 0000 0000 0000
00000070: 0000 0000 0000 0000 0000 0000 0000 0000
00000080: 0000 0000 0000 0000 0000 0000 0000 0000
00000090: 0000 0000 0000 0000 0000 0000 0000 0000
000000a0: 0000 0000 0000 0000 0000 0000 0000 0000
000000b0: 0000 0000 0000 0000 0000 0000 0000 0000
000000c0: 0000 0000 0000 0000 0000 0000 0000 0000
000000d0: 0000 0000 0000 0000 0000 0000 0000 0000
000000e0: 0000 0000 0000 0000 0000 0000 0000 0000
000000f0: 0000 0000 0000 0000 0000 0000 0000 0000
00000100: 0000 0000 0000 0000 0000 0000 0000 0000
00000110: 0000 0000 0000 0000 0000 0000 0000 0000
00000120: 0000 0000 0000 0000 0000 0000 0000 0000
00000130: 0000 0000 9676 0abd eb39 a4ba 874a b63b
00000140: e525 48bd fa39 a4ba dd68 623d 406d 3939
00000150: e471 123a 6348 cdbc eb39 a4ba a3cf 613d
00000160: 3e13 6cbd eb39 a4ba 3e13 6c3d 2572 15bd
00000170: eb39 a4ba f2d2 0c3c eb39 24bc eb39 a4ba
00000180: ba5b 293d 2572 15bd eb39 a4ba f2d2 0c3c
00000190: 0000 0000 0000 0000 0000 0000 0000 0000
000001a0: 0000 0000 0000 0000 0000 0000 0000 0000
000001b0: 0000 0000 0000 0000 0000 0000 0000 0000
000001c0: 0000 0000 0000 0000 0000 0000 0000 0000
000001d0: 0000 0000 0000 0000 0000 0000 0000 0000
000001e0: 0000 0000 0000 0000 0000 0000 0000 0000
000001f0: 0000 0000 0000 0000 0000 0000 0000 0000
00000200: 0000 0000 0000 0000 0000 0000 0000 0000
00000210: 0000 0000 0000 0000 0000 0000 0000 0000
00000220: 0000 0000 0000 0000 0000 0000 0000 0000
00000230: 0000 0000 0000 0000 0000 0000 0000 0000
00000240: 0000 0000 0000 0000 0000 0000 0000 0000
00000250: 0000 0000 0000 0000 0000 0000 0000 0000
00000260: 0000 0000 0000 0000 41ca 1bbb e5c6 b8b8
00000270: 361a cd39 ca52 38bb dcc6 b8b8 4a3e 803b
00000280: 6534 1039 349e 6a38 9cf8 e6ba e5c6 b8b8
00000290: 7911 7e3b f5ce 84bb e5c6 b8b8 f5ce 843b
000002a0: a325 28bb e5c6 b8b8 3c72 1e3a e5c6 38ba
000002b0: e5c6 b8b8 1b8d 3e3b a325 28bb e5c6 b8b8
000002c0: 3c72 1e3a 0000 0000 0000 0000 0000 0000
000002d0: 0000 0000 0000 0000 0000 0000 0000 0000
000002e0: 0000 0000 0000 0000 0000 0000 0000 0000
000002f0: 0000 0000 0000 0000 0000 0000 0000 0000
00000300: 0000 0000 0000 0000 0000 0000 0000 0000
00000310: 0000 0000 0000 0000 0000 0000 0000 0000
00000320: 0000 0000 0000 0000 0000 0000 0000 0000
00000330: 0000 0000 0000 0000 0000 0000 0000 0000
00000340: 0000 0000 0000 0000 0000 0000 0000 0000
00000350: 0000 0000 0000 0000 0000 0000 0000 0000
00000360: 0000 0000 0000 0000 0000 0000 0000 0000
00000370: 0000 0000 0000 0000 0000 0000 0000 0000
00000380: 0000 0000 0000 0000 0000 0000 0000 0000
00000390: 0000 0000 0000 0000 0000 0000 641a 343c
000003a0: 209d d539 7c1c edba a958 833c 3a9d d539
000003b0: 6b9c 90bc d1b7 76b9 516f 90b9 3382 053c
000003c0: 209d d539 05dc 92bc ed88 993c 209d d539
000003d0: ed88 99bc 7463 423c 209d d539 7b2c 37bb
000003e0: 209d 553b 209d d539 0a4a 5cbc 7463 423c
000003f0: 209d d539 7b2c 37bb 0000 0000 0000 0000
8.6662665e-05 3.212108e-06 -1.4261762e-05 0.0001169891 3.2121102e-06 -6.817634e-05 -1.4328336e-05 -3.8211576e-05
6.4242166e-05 3.212108e-06 -0.00014133276 0.00014775697 3.212108e-06 -0.00014775697 9.3536604e-05 3.212108e-06
-2.2035056e-05 2.5696863e-05 3.212108e-06 -0.00010599957 9.3536604e-05 3.212108e-06 -2.2035056e-05 0.0
0.0 0.0 0.0 0.0 0.0 0.0 0.0 0.0
0.0 0.0 0.0 0.0 0.0 0.0 0.0 0.0
0.0 0.0 0.0 0.0 0.0 0.0 0.0 0.0
0.0 0.0 0.0 0.0 0.0 0.0 0.0 0.0
0.0 0.0 0.0 0.0 0.0 0.0 0.0 0.0
0.0 0.0 0.0 0.0 0.0 0.0 0.0 0.0
0.0 0.0 0.0 0.0 0.0 -0.0338045 -0.0012529468 0.0055630836
-0.048864264 -0.0012529485 0.055275787 0.00017683674 0.0005586429 -0.02505893 -0.0012529468 0.05512966
-0.05763554 -0.0012529468 0.05763554 -0.03648581 -0.0012529468 0.008595215 -0.010023574 -0.0012529468
0.041347243 -0.03648581 -0.0012529468 0.008595215 0.0 0.0 0.0 0.0
0.0 0.0 0.0 0.0 0.0 0.0 0.0 0.0
0.0 0.0 0.0 0.0 0.0 0.0 0.0 0.0
0.0 0.0 0.0 0.0 0.0 0.0 0.0 0.0
0.0 0.0 0.0 0.0 0.0 0.0 0.0 0.0
0.0 0.0 0.0 0.0 0.0 0.0 0.0 0.0
0.0 0.0 0.0 0.0 0.0 0.0 0.0 0.0
0.0 0.0 -0.0023771676 -8.810851e-05 0.00039120176 -0.0028125518 -8.810844e-05 0.0039136754
0.00013752429 5.5937286e-05 -0.0017621699 -8.810851e-05 0.0038767739 -0.0040529915 -8.810851e-05 0.0040529915
-0.00256572 -8.810851e-05 0.0006044244 -0.00070486806 -8.810851e-05 0.0029075805 -0.00256572 -8.810851e-05
0.0006044244 0.0 0.0 0.0 0.0 0.0 0.0 0.0
0.0 0.0 0.0 0.0 0.0 0.0 0.0 0.0
0.0 0.0 0.0 0.0 0.0 0.0 0.0 0.0
0.0 0.0 0.0 0.0 0.0 0.0 0.0 0.0
0.0 0.0 0.0 0.0 0.0 0.0 0.0 0.0
0.0 0.0 0.0 0.0 0.0 0.0 0.0 0.0
0.0 0.0 0.0 0.0 0.0 0.0 0.0 0.01099262
0.00040743593 -0.0018090154 0.016033487 0.0004074367 -0.01765271 -0.00023528865 -0.00027548757 0.008148718
0.00040743593 -0.01792718 0.01874205 0.00040743593 -0.01874205 0.011864532 0.00040743593 -0.0027950096
0.0032594875 0.00040743593 -0.013445387 0.011864532 0.00040743593 -0.0027950096 0.0 0.0

exp_avg_sq f4 [128, 77]
00000000: a9ea 8236 b52a b831 82e9 e233 66e0 9836
00000010: 082b b831 f21b 2837 046c 4632 761f 9c32
00000020: 6be1 0f36 b52a b831 8118 2e37 4048 3e37
00000030: b52a b831 4048 3e37 4282 9836 b52a b831
00000040: 456b 8734 b52a b834 b52a b831 8edb c336
00000050: 4282 9836 b52a b831 456b 8734 0000 0000
00000060: 0000 0000 0000 0000 0000 0000 0000 0000
00000070: 0000 0000 0000 0000 0000 0000 0000 0000
00000080: 0000 0000 0000 0000 0000 0000 0000 0000
00000090: 0000 0000 0000 0000 0000 0000 0000 0000
000000a0: 0000 0000 0000 0000 0000 0000 0000 0000
000000b0: 0000 0000 0000 0000 0000 0000 0000 0000
000000c0: 0000 0000 0000 0000 0000 0000 0000 0000
000000d0: 0000 0000 0000 0000 0000 0000 0000 0000
000000e0: 0000 0000 0000 0000 0000 0000 0000 0000
000000f0: 0000 0000 0000 0000 0000 0000 0000 0000
00000100: 0000 0000 0000 0000 0000 0000 0000 0000
00000110: 0000 0000 0000 0000 0000 0000 0000 0000
00000120: 0000 0000 0000 0000 0000 0000 0000 0000
00000130: 0000 0000 0d47 d53c 8e03 1638 00d5 383a
00000140: 28f3 093d 9103 1638 6d3a 9a3d c417 8e38
00000150: 85e6 d038 7765 6a3c 8e03 1638 5dcf 8d3d
00000160: a5fe 9a3d 8e03 1638 a5fe 9a3d f473 f83c
00000170: 8e03 1638 c59c dc3a 8e03 163b 8e03 1638
00000180: 3089 1f3d f473 f83c 8e03 1638 c59c dc3a
00000190: 0000 0000 0000 0000 0000 0000 0000 0000
000001a0: 0000 0000 0000 0000 0000 0000 0000 0000
000001b0: 0000 0000 0000 0000 0000 0000 0000 0000
000001c0: 0000 0000 0000 0000 0000 0000 0000 0000
000001d0: 0000 0000 0000 0000 0000 0000 0000 0000
000001e0: 0000 0000 0000 0000 0000 0000 0000 0000
000001f0: 0000 0000 0000 0000 0000 0000 0000 0000
00000200: 0000 0000 0000 0000 0000 0000 0000 0000
00000210: 0000 0000 0000 0000 0000 0000 0000 0000
00000220: 0000 0000 0000 0000 0000 0000 0000 0000
00000230: 0000 0000 0000 0000 0000 0000 0000 0000
00000240: 0000 0000 0000 0000 0000 0000 0000 0000
00000250: 0000 0000 0000 0000 0000 0000 0000 0000
00000260: 0000 0000 0000 0000 ee97 613a 35ad 9e35
00000270: 5781 c337 3a6c 8b3a 2db4 9e35 5424 a23a
00000280: 50ce 4836 c185 6f37 9cee f739 35ad 9e35
00000290: b1ff 153b e2f1 233b 35ad 9e35 e2f1 233b
000002a0: 6466 833a 35ad 9e35 f659 6938 35ad 9e38
000002b0: 35ad 9e35 a6bf a83a 6466 833a 35ad 9e35
000002c0: f659 6938 0000 0000 0000 0000 0000 0000
000002d0: 0000 0000 0000 0000 0000 0000 0000 0000
000002e0: 0000 0000 0000 0000 0000 0000 0000 0000
000002f0: 0000 0000 0000 0000 0000 0000 0000 0000
00000300: 0000 0000 0000 0000 0000 0000 0000 0000
00000310: 0000 0000 0000 0000 0000 0000 0000 0000
00000320: 0000 0000 0000 0000 0000 0000 0000 0000
00000330: 0000 0000 0000 0000 0000 0000 0000 0000
00000340: 0000 0000 0000 0000 0000 0000 0000 0000
00000350: 0000 0000 0000 0000 0000 0000 0000 0000
00000360: 0000 0000 0000 0000 0000 0000 0000 0000
00000370: 0000 0000 0000 0000 0000 0000 0000 0000
00000380: 0000 0000 0000 0000 0000 0000 0000 0000
00000390: 0000 0000 0000 0000 0000 0000 26ec 503b
000003a0: 5af3 9236 db0e b538 f686 7b3b 1cd7 9236
000003b0: d05a f03b 0422 2b37 8359 db37 3d9c e53a
000003c0: 5af3 9236 05ea 0a3c 63d4 173c 5af3 9236
000003d0: 63d4 173c 2c61 733b 5af3 9236 8b1b 5839
000003e0: 5af3 9239 5af3 9236 5847 9c3b 2c61 733b
000003f0: 5af3 9236 8b1b 5839 0000 0000 0000 0000
3.90162e-06 5.35996e-09 1.056642e-07 4.5560764e-06 5.359997e-09 1.0020087e-05 1.1549677e-08 1.8175097e-08
2.143987e-06 5.35996e-09 1.0376913e-05 1.13417045e-05 5.35996e-09 1.13417045e-05 4.545117e-06 5.35996e-09
2.5223758e-07 3.4303744e-07 5.35996e-09 5.8370124e-06 4.545117e-06 5.35996e-09 2.5223758e-07 0.0
0.0 0.0 0.0 0.0 0.0 0.0 0.0 0.0
0.0 0.0 0.0 0.0 0.0 0.0 0.0 0.0
0.0 0.0 0.0 0.0 0.0 0.0 0.0 0.0
0.0 0.0 0.0 0.0 0.0 0.0 0.0 0.0
0.0 0.0 0.0 0.0 0.0 0.0 0.0 0.0
0.0 0.0 0.0 0.0 0.0 0.0 0.0 0.0
0.0 0.0 0.0 0.0 0.0 0.026034856 3.5766097e-05 0.00070507824
0.033679157 3.576611e-05 0.07530675 6.775514e-05 9.9611505e-05 0.014306418 3.5766097e-05 0.06924317
0.07568101 3.5766097e-05 0.07568101 0.030328728 3.5766097e-05 0.0016831389 0.0022890302 3.5766097e-05
0.03894919 0.030328728 3.5766097e-05 0.0016831389 0.0 0.0 0.0 0.0
0.0 0.0 0.0 0.0 0.0 0.0 0.0 0.0
0.0 0.0 0.0 0.0 0.0 0.0 0.0 0.0
0.0 0.0 0.0 0.0 0.0 0.0 0.0 0.0
0.0 0.0 0.0 0.0 0.0 0.0 0.0 0.0
0.0 0.0 0.0 0.0 0.0 0.0 0.0 0.0
0.0 0.0 0.0 0.0 0.0 0.0 0.0 0.0
0.0 0.0 0.0008605708 1.1822327e-06 2.330604e-05 0.0010637112 1.1824355e-06 0.0012370446
2.9922412e-06 1.4276652e-05 0.0004728929 1.1822327e-06 0.0022888 0.0025016 1.1822327e-06 0.0025016
0.0010025022 1.1822327e-06 5.563531e-05 7.5662894e-05 1.1822327e-06 0.0012874498 0.0010025022 1.1822327e-06
5.563531e-05 0.0 0.0 0.0 0.0 0.0 0.0 0.0
0.0 0.0 0.0 0.0 0.0 0.0 0.0 0.0
0.0 0.0 0.0 0.0 0.0 0.0 0.0 0.0
0.0 0.0 0.0 0.0 0.0 0.0 0.0 0.0
0.0 0.0 0.0 0.0 0.0 0.0 0.0 0.0
0.0 0.0 0.0 0.0 0.0 0.0 0.0 0.0
0.0 0.0 0.0 0.0 0.0 0.0 0.0 0.0031879037
4.379469e-06 8.6335196e-05 0.0038380004 4.376181e-06 0.0073350444 1.0200314e-05 2.6148517e-05 0.0017517876
4.379469e-06 0.008478646 0.0092669455 4.379469e-06 0.0092669455 0.0037136776 4.379469e-06 0.00020609626
0.000280286 4.379469e-06 0.004769247 0.0037136776 4.379469e-06 0.00020609626 0.0 0.0

exp_avg f4 [128]
00000000: 9c8f d736 e939 24bb e5c6 38b9 1f9d 553a
00000010: dfce 1fba d10f 6aba be1d 953a e6d5 0134
00000020: 7ab7 9f38 274b 8b38 24cf 21b8 d80b 38ba
00000030: 66b0 2cbb cfd2 d83a 8856 31bb a848 e5ba
00000040: a16f 92b7 e327 97b9 002c 8bab d1b5 f238
00000050: 82a6 e739 9cc4 ccb9 4e4d a135 8e2c 6e39
00000060: e05d 6630 f2b9 0db9 b0aa 523a e79a 4b38
00000070: d328 e4b9 0f50 753a 19eb 4fba a62c 3539
00000080: 8b6e 9a38 4d90 20ba d4c3 4bb0 5a68 5eb7
00000090: 76db b533 6d36 44af eb65 c4b9 59a5 7d3a
000000a0: 0f68 9eb9 79d5 df36 0b11 3c39 9201 903a
000000b0: b0d6 8b38 98b5 b539 40a8 543a c2e0 28b1
000000c0: 3247 abb7 a1e9 7532 82b3 adb8 3fd2 0935
000000d0: 642e b739 e4c9 1d3a b0c8 0f33 d53a 99b5
000000e0: 116c e2b9 c3f5 b431 18cb 2234 f379 b8ba
000000f0: a0d8 8ab3 facb 2637 f11d 0a3a 314f 1136
00000100: d2bf 9f38 f122 6c3a e830 3737 57e6 c939
00000110: de0f fc39 8eb9 5537 fe93 773a ed6e 43b9
00000120: d51f 01b9 f4f5 fbb4 6d8a a738 22b1 4938
00000130: 7853 ea38 86fe 153a 5e70 edba 8f02 95ba
00000140: d5e4 6bba 09d7 c6b9 4703 f239 8182 43b9
00000150: 70de 333a f750 92b1 1cdf 4237 05e6 bcb9
00000160: 13c6 86ba 0e86 e234 0fe3 35b4 7ee1 ccba
00000170: 5294 02b9 efd4 ec3a b74f e830 e827 afb9
00000180: 49c3 fc38 a7f9 7e31 f9fa 7f38 2155 4439
00000190: c395 e238 f509 ce37 719a d932 282b d8b0
000001a0: 0dea 8535 7c7d ea39 9cc2 e1b7 142d 023b
000001b0: bd10 9239 fa78 15bb 55b7 ea38 2776 1734
000001c0: 3f05 1a39 1dba d6b8 5de2 9538 309d c138
000001d0: c486 452f a878 d5b5 6447 763a 2f27 c33a
000001e0: 9693 d538 23f1 3eba 4d43 e4b4 8673 0aba
000001f0: 068d 923a 1ff1 9538 c8ec 0638 8e51 3c34
6.4242176e-06 -0.0025058931 -0.00017621701 0.0008148718 -0.0006096195 -0.00089287484 0.0011376662 1.2091877e-07
7.615886e-05 6.642035e-05 -3.8578306e-05 -0.0007020808 -0.002635026 0.0016542318 -0.0027059633 -0.0017492967
-1.7456538e-05 -0.00028830682 -9.888756e-13 0.00011573325 0.0004418381 -0.00039056398 1.2017933e-06 0.00022714047
8.3806917e-10 -0.00013516078 0.00080362987 4.8543236e-05 -0.00043517965 0.0009357938 -0.00079314556 0.00017278138
7.3638825e-05 -0.0006125018 -7.412926e-10 -1.3256527e-05 8.468389e-08 -1.7845432e-10 -0.00037459968 0.0009675823
-0.00030213638 6.6707694e-06 0.00017935426 0.0010986796 6.668025e-05 0.00034658308 0.00081122294 -2.4574978e-09
-2.0417941e-05 1.4313998e-08 -8.282719e-05 5.1342425e-07 0.00034939044 0.0006019159 3.3477306e-08 -1.1416511e-06
-0.00043186595 5.2666294e-09 1.5161311e-07 -0.001407443 -6.4655296e-08 9.941863e-06 0.0005268744 2.165278e-06
7.61744e-05 0.0009007892 1.0919037e-05 0.00038509324 0.00048077008 1.2738992e-05 0.0009444355 -0.00018637972
-0.00012314257 -4.6931348e-07 7.988964e-05 4.8087102e-05 0.00011173537 0.0005721826 -0.0018115153 -0.001136856
-0.0008998637 -0.00037925717 0.0004616028 -0.00018645266 0.0006861454 -4.258364e-09 1.1615248e-05 -0.00036029532
-0.0010282419 4.2193318e-07 -1.6939542e-07 -0.0015631167 -0.0001245302 0.001806883 1.6902878e-09 -0.00033408334
0.00012052671 3.7103776e-09 6.1030474e-05 0.0001872373 0.00010804415 2.456175e-05 2.5332357e-08 -1.5728334e-09
9.97739e-07 0.0004472545 -2.6912712e-05 0.0019863294 0.0002785976 -0.0022807703 0.00011192138 1.4105954e-07
0.00014688539 -0.000102389815 7.147037e-05 9.2322356e-05 1.7964924e-10 -1.5904852e-06 0.00093947933 0.0014888997
0.000101841215 -0.0007283857 -4.2517277e-07 -0.00052814966 0.0011180944 7.149786e-05 3.216861e-05 1.7538534e-07

exp_avg_sq f4 [128]
00000000: b32a b832 8b03 1639 35ad 9e36 5bf3 9237
00000010: b6f2 9836 bafa 4337 a0bf 3538 b8a0 0c2c
00000020: 6d0d 7a35 bd10 4534 2018 3036 010c 3a38
00000030: 22f4 2039 1082 f938 13d7 0439 4c96 0e39
00000040: dcf0 6133 8fcf 1737 2ed9 3f1f 3029 f037
00000050: 0fc0 fe38 9f61 7d37 bceb a731 19e8 5a37
00000060: 7349 3126 c20d 8535 7469 1538 79a8 0a34
00000070: 07b7 a237 d5c4 bd37 189b f236 8811 1638
00000080: ba07 7b36 9687 7538 bad8 c42a 8886 8d34
00000090: 41b8 c92a 26f5 3426 b893 5438 65f0 0f38
000000a0: 9942 0838 9b4c 902f 92e0 1236 1a99 9437
000000b0: 27c2 f136 4f08 1938 c36a 4a38 05bf ab29
000000c0: 1ade 8a33 3ed3 732f d46e dc34 f834 1431
000000d0: 753c b337 6bfb 1f37 3587 112d 0e77 3433
000000e0: 6475 1337 1013 9528 dcb9 df2b 1a62 4738
000000f0: c691 402b 616c 2036 6baf b837 1215 0337
00000100: f873 9c37 6518 9237 2121 2f33 9387 5637
00000110: 674c ff37 e0a0 d936 d782 2038 43d3 6937
00000120: 5c94 5735 c338 d132 1b8a 6137 fbfb 8837
00000130: 61be 8e35 3e0b 0038 8db5 0839 353f 8838
00000140: fe32 8c37 95bb 2c38 8e6d f837 0ef0 0136
00000150: d14f 8238 4799 5b2b 0e1b 0035 0587 5e36
00000160: ba58 8337 f767 f231 c8ce 8f2f 7765 6238
00000170: 67dc 5e37 3496 8c38 8b41 b727 151f c737
00000180: eedd f537 317f 1c27 2453 1e37 afed 6838
00000190: 77a3 4137 be66 ac36 8e58 bf2e 5f3f 9127
000001a0: 54f3 7b32 eea2 1e36 060c ca33 79ff aa38
000001b0: 42a2 f536 e962 b138 3272 0e38 1b9f b62f
000001c0: e6ff 5235 47c9 0e34 a77d 2935 f33f 9b34
000001d0: 5378 272c d374 db2e 69cf 7f38 4c6f 8238
000001e0: 9d9b 0435 7a16 2237 4f6b bd30 d057 9537
000001f0: e004 1e38 a5f7 aa37 cc13 3137 40ad d82e
2.1439837e-08 0.00014306435 4.728931e-06 1.7517877e-05 4.5582083e-06 1.1681283e-05 4.3332228e-05 1.9984413e-12
9.3151795e-07 1.8353144e-07 2.6240086e-06 4.4357035e-05 0.00015349736 0.00011897471 0.00012668622 0.00013598165
5.2605955e-08 9.048627e-06 4.062547e-20 2.8629409e-05 0.000121474375 1.5102704e-05 4.8871396e-09 1.3047852e-05
6.1508753e-16 9.913276e-07 3.562258e-05 1.2913542e-07 1.9397134e-05 2.2622213e-05 7.2302173e-06 3.5779114e-05
3.7406412e-06 5.8538826e-05 3.4966978e-13 2.636118e-07 3.5832624e-13 6.2782283e-16 5.0682313e-05 3.431774e-05
3.248695e-05 2.624788e-10 2.1886412e-06 1.7714268e-05 7.204962e-06 3.648578e-05 4.8259983e-05 7.627062e-14
6.466526e-08 2.217577e-10 4.105883e-07 2.1566944e-09 2.1366615e-05 9.535676e-06 8.272318e-12 4.2017795e-08
8.789215e-06 1.655059e-14 1.5896689e-12 4.753666e-05 6.8414404e-13 2.3904943e-06 2.2016195e-05 7.813114e-06
1.8650651e-05 1.7415916e-05 4.0775493e-08 1.278696e-05 3.0433946e-05 6.4858323e-06 3.8268827e-05 1.393707e-05
8.030963e-07 2.4356615e-08 1.34432e-05 1.6329801e-05 1.0635232e-06 3.052805e-05 0.00013037604 6.4967586e-05
1.6713046e-05 4.1182695e-05 2.961492e-05 1.9362228e-06 6.21375e-05 7.8017145e-13 4.7723086e-07 3.315917e-06
1.5657733e-05 7.0549464e-09 2.6158475e-10 5.3977095e-05 1.3283548e-05 6.703698e-05 5.0863765e-15 2.3737122e-05
2.930962e-05 2.17183e-15 9.436892e-06 5.553447e-05 1.1541756e-05 5.13796e-06 8.701405e-11 4.031429e-15
1.4665449e-08 2.3638672e-06 9.408545e-08 8.153817e-05 7.3204583e-06 8.458441e-05 3.396179e-05 3.3218658e-10
7.860348e-07 1.3298005e-07 6.3140254e-07 2.891753e-07 2.379892e-12 9.979719e-11 6.0989903e-05 6.219614e-05
4.940028e-07 9.661186e-06 1.3782059e-09 1.7803075e-05 3.7674676e-05 2.0380898e-05 1.0554631e-05 9.853318e-11

exp_avg f4 [128, 128]
00000000: 4322 a735 9eb8 7ab8 5577 8bb8 4372 0bb6
00000010: 55ed 0ab7 e487 87b7 a341 a3b5 06a6 eb31
00000020: e0a8 f336 5d8d 0436 f806 13b7 0d1c 46b7
00000030: b28b eab7 4b7b d1b7 631c b9b8 78c1 9fb8
00000040: a76c e234 88c6 32b9 3727 6929 50e2 38b9
00000050: 44f8 33b6 bb0e 3fb5 6820 9c33 9dfc 0db7
00000060: 73ae f42e 85b7 c336 6074 01b9 42e4 4435
00000070: 4612 1bb8 6881 81b8 5dc7 beb8 1cba 7bb8
00000080: 8305 4d36 22b4 ab35 9508 90ad 8df8 dc35
00000090: 64f9 7c31 26c3 242d 9fd3 a3b8 4a67 1536
000000a0: a356 0136 5396 3133 f2c4 c736 d043 03b6
000000b0: b1c0 cd36 ab0d b4b8 48bd 2736 9ef1 a82f
000000c0: c7b7 6536 fefb 49b1 970b f736 532d 0134
000000d0: 1124 c736 0a8f 36b8 8a66 c431 9b56 9535
000000e0: 0bee 44b8 fb03 1130 a69d b331 4480 2ab8
000000f0: 0968 1e32 acc8 1d36 dbf1 02b9 71dd d735
00000100: 1c90 e1b7 2ed1 54b6 f321 2c35 0860 75b7
00000110: fcb8 1136 2de3 ecb7 0c34 57b9 3733 65b9
00000120: 9f55 e236 b683 4935 fde9 ccb8 d515 b936
00000130: 1f1c b036 89b9 2bb9 6a12 85b8 c06d b8b7
00000140: 85e7 02b9 da5c 32b9 82f4 a4b8 971c 7b36
00000150: 4fc6 29b8 5931 1732 3aa7 8336 4afc 1f36
00000160: c4bf e3b8 4440 6633 75d3 0433 6a39 1eb9
00000170: f97a 15b9 1865 c9b6 6c54 672f 13d8 8ab7
00000180: def9 fb36 9667 4f2f 16a4 a736 4b9b 62b8
00000190: 0bf4 c636 7239 85b6 90d3 0a32 c20e 9b2d
000001a0: 334a ec32 0899 1c33 0d95 de36 b30a d4b7
000001b0: e7a1 a5b7 9a2e 55b8 fb8c 73b7 2ff2 0032
000001c0: a4ba e735 d241 c936 d7b0 aa35 ba1f 3036
000001d0: d798 6b2f a285 8233 9fa3 a7b7 a469 3cb8
000001e0: 0833 bd35 6ab9 76b8 0c43 3e31 b8cb bfb8
000001f0: a3dd 5eb8 9ed9 cd36 73dd 0d37 4255 b932
00000200: 2f8a 1fb8 586c 9e3b 67a4 aa3b 7c1d 253a
00000210: a77f b83a 9796 2f3b 62e2 863b 826f 4cb5
00000220: 6ab7 a8b9 a60e 7eb9 fdf0 c73a 5d91 a6b9
00000230: e3d7 79b9 376c 913b 7a44 033b 9c21 193b
00000240: eb8e a7b4 c883 263c 5956 7c2b f069 313c
00000250: 4ea6 bc3a 34ef bdb9 fc96 64b6 f824 2e3b
00000260: dc98 e7b1 2d0a 69b9 0212 3f3c fd53 05b9
00000270: 1299 8a3b 1b2f da3b 1388 703b 94f0 9c3b
00000280: fa10 81b8 9661 5cb9 1c24 61b0 2130 6db8
00000290: 020c 12b4 aa9b 122e b84e ac3b ca64 383b
000002a0: a162 f1b9 d084 42b7 2df8 15b8 26ec 593b
000002b0: 1d8a b8b8 56be 093c d4eb 9f3a 086d 16b2
000002c0: 2fef 51b9 30c9 e5b2 ee66 2bb9 f521 a5b6
000002d0: 0e96 ceb8 abc6 a93b 7da0 b6b4 5f25 2cb8
000002e0: 6e10 953b 70ea 2cb3 abdf 70b5 4af8 a03a
000002f0: 94db ecb4 7162 98b8 94bf ac3b 1571 94b8
00000300: c0fd 4f3b 730c 2d3a d1d4 72b8 2fd2 303b
00000310: 3536 dd39 4887 31ba bfae 813c d1bf 583c
00000320: d0cf f4b8 db10 deb8 deae 1b3c d96d 0fb8
00000330: aa91 86b9 bf2f 863c e08b 61ba 2ce1 f43a
00000340: 0424 613b d7c9 0a3c 9405 123c 918b 14b9
00000350: b30e a13b 70c1 01b5 508b 9ab8 2919 0bba
00000360: 026d c93b 1364 6eb6 0876 2db5 da5f 2f3c
00000370: d83b 0f3c 2ba7 8e3b 10b7 9ab2 0b2d 433b
00000380: 07b9 f5b7 d704 d0b1 50f0 b7b9 318c 863a
00000390: 0ce1 36b9 bf7b 6d3a a9d8 5eb4 c51c 8eb2
000003a0: 86ff 6fb6 2f0f d439 a28a 62b9 b865 a63b
000003b0: 2a21 9d3b 82f8 8c3a c9cf 353a c1e2 9fb4
000003c0: 0e2d aeb9 de9c 8bb9 9089 ceb9 b35e 72b9
000003d0: 2387 54b0 1ecb d7b5 e0f8 b63a 64b2 483b
000003e0: f0f5 8bb9 0826 2e3a 1dcf edb4 854f fc3b
000003f0: aa5a db3b 7ee9 e1b7 4cfa ffb7 6b3e 55b5
1.2452441e-06 -5.9776583e-05 -6.650264e-05 -2.0779123e-06 -8.280699e-06 -1.6156533e-05 -1.2163549e-06 6.858275e-09
7.261624e-06 1.9751817e-06 -8.763505e-06 -1.1808251e-05 -2.7960024e-05 -2.4972154e-05 -8.826775e-05 -7.617747e-05
4.2174835e-07 -0.00017049361 5.1770406e-14 -0.00017631915 -2.6817588e-06 -7.117448e-07 7.270211e-08 -8.463071e-06
1.1126824e-10 5.8328174e-06 -0.00012345752 7.334785e-07 -3.69719e-05 -6.175303e-05 -9.09704e-05 -6.001639e-05
3.0550589e-06 1.2792918e-06 -1.6374716e-11 1.6463615e-06 3.6812589e-09 9.365652e-12 -7.811863e-05 2.2262852e-06
1.9272927e-06 4.1347743e-08 5.9535896e-06 -1.9559993e-06 6.1319083e-06 -8.585615e-05 2.4995115e-06 3.07307e-10
3.4230632e-06 -2.939259e-09 7.362523e-06 1.203055e-07 5.934861e-06 -4.3525397e-05 5.716008e-09 1.1126571e-06
-4.6951736e-05 5.275635e-10 5.227508e-09 -4.0650615e-05 9.220465e-09 2.351163e-06 -0.00012487864 1.6083196e-06
-2.6889196e-05 -3.171222e-06 6.4124396e-07 -1.4625497e-05 2.1714359e-06 -2.823918e-05 -0.00020523387 -0.00021858221
6.7452925e-06 7.507e-07 -9.771062e-05 5.515971e-06 5.2484825e-06 -0.00016376948 -6.345364e-05 -2.1985616e-05
-0.00012484014 -0.00017009993 -7.8656725e-05 3.7418556e-06 -4.047743e-05 8.800577e-09 3.923572e-06 2.3839698e-06
-0.000108599226 5.3609497e-08 3.0925964e-08 -0.00015089443 -0.00014255558 -6.0020357e-06 2.103932e-10 -1.65515e-05
7.5094713e-06 1.8863341e-10 4.99609e-06 -5.4027227e-05 5.92927e-06 -3.9703964e-06 8.080761e-09 1.7628014e-11
2.7507758e-08 3.646076e-08 6.6334674e-06 -2.5277352e-05 -1.9744924e-05 -5.082656e-05 -1.4516753e-05 7.505647e-09
1.7265161e-06 5.9979293e-06 1.2717454e-06 2.624451e-06 2.1427425e-10 6.0779044e-08 -1.9984143e-05 -4.492108e-05
1.4096449e-06 -5.882365e-05 2.768675e-09 -9.145535e-05 -5.313534e-05 6.13481e-06 8.455815e-06 2.1575605e-08
-3.8037248e-05 0.004834693 0.0052075866 0.0006298644 0.0014076129 0.002679264 0.0041163424 -7.615819e-07
-0.0003218011 -0.00024228785 0.0015254315 -0.0003177029 -0.00023826915 0.004437949 0.002002983 0.002336598
-3.121016e-07 0.010163255 8.9648216e-13 0.01082848 0.0014392824 -0.0003622711 -3.4062532e-06 0.0026572328
-6.740363e-09 -0.00022224402 0.011662008 -0.00012715156 0.004229673 0.0066584474 0.00367022 0.0047894213
-6.1543615e-05 -0.00021017189 -8.190584e-10 -5.6550027e-05 -1.3601678e-07 3.3334814e-11 0.0052584074 0.0028136247
-0.00046040586 -1.1594224e-05 -3.57555e-05 0.0033252328 -8.799529e-05 0.008407196 0.001220102 -8.75594e-09
-0.00020020896 -2.6750598e-08 -0.00016346175 -4.9213363e-06 -9.850795e-05 0.005181154 -3.4016912e-07 -4.10428e-05
0.0045490777 -4.026009e-08 -8.9732447e-07 0.0012281027 -4.411819e-07 -7.266261e-05 0.0052718613 -7.078253e-05
0.003173694 0.00066012813 -5.7895497e-05 0.0026980748 0.00042192792 -0.00067721726 0.015830396 0.013229326
-0.00011673535 -0.000105889245 0.009502141 -3.419616e-05 -0.00025667 0.016380189 -0.0008603912 0.0018682829
0.0034353742 0.008470974 0.008912463 -0.00014166372 0.0049150824 -4.8337733e-07 -7.369241e-05 -0.00053061784
0.006147028 -3.5523015e-06 -6.461928e-07 0.010704005 0.008742295 0.004353424 -1.8011207e-08 0.0029781486
-2.9292436e-05 -6.054147e-09 -0.00035083527 0.0010265169 -0.00017440709 0.0009059272 -2.0754182e-07 -1.6544059e-08
-3.576251e-06 0.00040447104 -0.00021604684 0.005078044 0.004795213 0.0010755213 0.00069355645 -2.9781043e-07
-0.00033221435 -0.0002662902 -0.00039393874 -0.00023114197 -7.731719e-10 -1.6077863e-06 0.0013959669 0.0030623907
-0.00026695384 0.00066432403 -4.4295385e-07 0.007699909 0.0066941576 -2.6930818e-05 -3.0514922e-05 -7.9439513e-07
