mlagents/Assets/results/Laberynth1/RollerBall/RollerBall-230.pt (torch, 617311 bytes, 36 tensors)

network_body._body_endoder.seq_layers.0.weight f4 [128, 64]
0.23888457 -0.014665452 0.08113475 -0.056549583 -0.082260594 -0.027865179 -0.08475049 0.15576212
-0.051545884 0.19154124 0.055176623 0.24186838 -0.06925351 -0.049344387 -0.009920658 0.13057
-0.07009451 0.04042593 -0.13406958 0.11299806 -0.019203296 0.35042158 0.030749226 0.2420398
0.0353203 -0.08256119 -0.09441287 -0.18500315 -0.018479 0.006502496 0.0034293255 -0.009647193
0.21260019 -0.1669513 -0.13624902 -0.040902816 -0.075886786 0.060993217 -0.090241976 -0.027511384
0.051115256 -0.12075182 -0.16386615 0.16157036 0.12790667 -0.049177058 -0.07798165 0.042315193
0.10850812 0.14911817 -0.027414173 -0.016552705 0.14103273 0.14368714 0.3599025 -0.005636471
-0.24142157 0.08695887 0.12602745 0.13069123 0.1326819 -0.017027095 -0.096239865 -0.19107042
0.3904272 0.0525455 0.117913894 -0.0148677 0.14259814 -0.12050638 -0.18863644 -0.22966102
0.05675077 0.07708014 -0.028541777 0.033368684 -0.036251318 -0.22201976 0.030918906 -0.1853216
-0.050513167 -0.15678546 0.08088744 0.0010913346 -0.053064838 0.04791004 0.25842118 0.14034778
-0.23674636 -0.083520524 0.004032614 0.13416548 -0.025321504 0.056594588 -0.02291316 0.11138845
-0.11610027 -0.06256598 0.04869556 0.0029029914 0.005828077 -0.03457948 -0.027046341 -0.2138883
0.112895355 0.080022514 0.12370625 0.22689888 0.044676494 0.16474807 0.10630536 0.015855867
-0.059474632 -0.06605249 0.06543238 0.050018206 0.0061183977 0.26918176 0.01915724 -0.091916844
-0.065016456 -0.08926629 0.017213235 -0.085719235 -0.20512551 -0.038723618 -0.09551925 -0.032838926
-0.14348906 -0.023448696 -0.0714402 0.021833744 -0.015903413 0.14373529 0.027300378 -0.035076223
-0.17209914 -0.09881924 -0.073993504 0.049189158 0.0021176469 0.23985307 -0.08743963 0.04975905
-0.1262914 -0.01995196 0.15322374 -0.07841366 0.14860009 -0.22564667 -0.093146965 0.112777084
0.00031209798 0.1024164 0.046153817 -0.08521432 0.010642781 -0.23935758 -0.13720486 -0.032603342
-0.012703152 -0.082326025 0.20463154 0.10742716 -0.05549239 0.13214816 0.09293607 0.17143068
-0.08183079 -0.18480232 0.3821411 -0.07901261 0.1694669 0.26648542 -0.11833254 0.06675896
-0.30237308 0.005546041 -0.16350827 -0.016724808 -0.0026885995 0.06693447 -0.023243072 0.058830477
-0.29020244 -0.0077943737 -0.058024254 -0.022968154 0.06895891 0.06812182 0.10205432 0.18525423
0.10988093 -0.0901444 0.045151226 -0.08911079 -0.012336873 0.06239314 -0.045467377 -0.13544442
-0.10211374 0.14023742 -0.070279576 0.19972442 0.1160574 0.07675079 0.08531117 -0.033365052
-0.06475994 0.08208533 0.025194556 0.059881587 -0.14856094 -0.1539161 -0.016131869 0.056928493
-0.07413351 0.064563245 -0.105455145 0.037712734 -0.11099139 0.05482763 -0.024902068 0.026872702
0.031175625 -0.1599308 0.16548488 -0.020691691 -0.098423414 -0.15165356 0.030037621 -0.1078383
-0.031942565 -0.11880577 -0.04240942 -0.0812712 -0.20172879 0.12245658 -0.011408323 0.068411775
-0.070747174 -0.05800366 0.18369061 -0.010177588 0.07994633 -0.14431289 -0.23721081 0.061995305
-0.2751492 -0.16489188 0.04748242 0.11536182 -0.03652053 -0.14704855 -0.37341756 0.13546132
00000000: 289e 743e 5d47 70bc fa29 a63d 89a0 67bd
00000010: 3e78 a8bd 8445 e4bc aa91 adbd 1b80 1f3e
00000020: c721 53bd 6323 443e e200 623d 58ac 773e
00000030: c9d4 8dbd 571d 4abd 418a 22bc 24b4 053e
00000040: b68d 8fbd a995 253d 8949 09be 876b e73d
00000050: 3b50 9dbc 756a b33e cde5 fb3c 48d9 773e
00000060: 05ac 103d d715 a9bd 895b c1bd 7771 3dbe
00000070: 4661 97bc e412 d53b 89be 603b 430f 1ebc
00000080: ddb3 593e 48f5 2abe dd84 0bbe b689 27bd
00000090: 886a 9bbd 06d4 793d c9d0 b8bd 8e5f e1bc
000000a0: 3b5e 513d bb4c f7bd 87cc 27be b372 253e
000000b0: f7f9 023e e26d 49bd d8b4 9fbd b252 2d3d
000000c0: 8139 de3d 6fb2 183e b093 e0bc 8a99 87bc
000000d0: e26a 103e b922 133e 2445 b83e 25b2 b8bb
000000e0: 3737 77be 7e17 b23d 570d 013e ecd3 053e
000000f0: c4dd 073e 687c 8bbc 6819 c5bd f7a7 43be
00000100: 13e6 c73e f339 573d d77c f13d a797 73bc
00000110: 3f05 123e 0dcc f6bd e929 41be 422c 6bbe
00000120: 7f73 683d 31dc 9d3d 72d0 e9bc 9aad 083d
00000130: 437c 14bd 2659 63be a549 fd3c f2c4 3dbe
00000140: e5e6 4ebd 5e8c 20be 50a8 a53d 1d0b 8f3a
00000150: 845a 59bd 513d 443d c84f 843e 54b7 0f3e
00000160: a36d 72be cf0c abbd 0524 843b ad62 093e
00000170: 0b6f cfbc bacf 673d 61b4 bbbc a11f e43d
00000180: fac5 edbd 9822 80bd ff74 473d 1d40 3e3b
00000190: 74f9 be3b 36a3 0dbd 4a90 ddbc 8905 5bbe
000001a0: ae35 e73d d8e2 a33d b459 fd3d 2e58 683e
000001b0: b3fe 363d b8b3 283e a0b6 d93d 2ae4 813c
000001c0: ac9b 73bd 8746 87bd 6901 863d e4df 4c3d
000001d0: d77c c83b 31d2 893e a5ef 9c3c e63e bcbd
000001e0: 5927 85bd 3fd1 b6bd c502 8d3c 918d afbd
000001f0: 6c0c 52be a89c 1ebd 999f c3bd 1c82 06bd
00000200: ccee 12be 7b17 c0bc 3d4f 92bd aedc b23c
00000210: e047 82bc 582f 133e 0ba5 df3c 16ac 0fbd
00000220: c23a 30be be61 cabd e889 97bd 927a 493d
00000230: 38c8 0a3b 0b9c 753e 8c13 b3bd 25d0 4b3d
00000240: 8852 01be 4b72 a3bc afe6 1c3e 5797 a0bd
00000250: 9f2a 183e ec0f 67be d6c3 bebd acf7 e63d
00000260: 15a1 a339 b1bf d13d c90b 3d3d d884 aebd
00000270: 0f5f 2e3c 271a 75be 6e7f 0cbe 158b 05bd
00000280: e220 50bc 8c9a a8bd ee8a 513e c502 dc3d
00000290: fd4b 63bd d951 073e 4455 be3d 868b 2f3e
000002a0: e796 a7bd d23c 3dbe 00a8 c33e 5dd1 a1bd
000002b0: bb88 2d3e c770 883e 5558 f2bd ecb8 883d
000002c0: a5d0 9abe 90bb b53b b66e 27be 7702 89bc
000002d0: 3733 30bb f014 893d 4168 bebc 3af8 703d
000002e0: 6a95 94be f267 ffbb d7aa 6dbd b627 bcbc
000002f0: 543a 8d3d 7483 8b3d db01 d13d 49b3 3d3e
00000300: 4109 e13d a19d b8bd 7ef0 383d b87f b6bd
00000310: 9920 4abc f38f 7f3d 003c 3abd f1b1 0abe
00000320: 0221 d1bd 669a 0f3e bdee 8fbd 8f84 4c3e
00000330: 81af ed3d 852f 9d3d 9fb7 ae3d cba9 08bd
00000340: dca0 84bd 5a1c a83d d064 ce3c 6546 753d
00000350: 5c20 18be 2f9c 1dbe fb26 84bc da2d 693d
00000360: 4fd3 97bd bc39 843d def8 d7bd ab78 1a3d
00000370: 744f e3bd f092 603d 6cff cbbc 2424 dc3c
00000380: 0664 ff3c e6c4 23be de74 293e 9f81 a9bc
00000390: 3792 c9bd 124b 1bbe 7511 f63c 54da dcbd
000003a0: 35d6 02bd 7150 f3bd 80b5 2dbd 8471 a6bd
000003b0: fe91 4ebe 84ca fa3d fae9 3abc 791b 8c3d
000003c0: e5e3 90bd 3f95 6dbd 6419 3c3e e6bf 26bc
000003d0: e7ba a33d c2c6 13be 64e7 72be caee 7d3d
000003e0: 5be0 8cbe 6bd9 28be ed7c 423d d142 ec3d
000003f0: 8d96 15bd e593 16be 9630 bfbe 5fb6 0a3e

network_body._body_endoder.seq_layers.0.bias f4 [128]
-0.0005395547 -0.0013369236 -0.0009378385 0.0004016668 0.00040289477 0.00046910383 0.0006004455 -0.0014877769
-0.001351427 -0.00024466997 0.00011750821 -0.0001371903 -0.0008600811 -0.0009259025 -0.0014626825 -0.0016273139
-0.00033974982 -0.0013196578 -0.0018324591 0.00088262634 -0.00033114725 -0.00023101272 -0.002595482 0.001185554
-9.20368e-05 -0.00086610555 -0.0010212231 -0.00060063746 -0.00036294752 -0.0019604028 -0.00081160147 -0.0002791657
0.0004863951 4.1658033e-05 -0.0004942467 -0.0021329583 1.4940984e-07 -0.0007374017 0.00083200866 -0.0016700755
0.0010471795 0.0019412122 0.0006589809 -0.0008098896 -0.00073867524 8.752045e-05 0.00047095478 0.0035133485
-0.0019047402 0.00040287635 -0.0007696086 -0.00029595773 -0.00016520782 2.941091e-07 -0.0035574976 -0.00070525357
5.9053546e-06 -0.00066832197 0.0032749053 -0.0013576328 -4.047633e-07 -0.0007491998 -0.0022556912 -0.0036210776
-0.0002887801 -8.6890876e-05 -0.00064232986 -0.0014724538 0.00011961351 0.0006826544 0.0006054839 0.0010094156
-0.000542119 -0.00021391682 -0.00023052546 -0.00046581466 -0.0010031374 -0.00029097282 0.00038378686 -0.00051852834
-0.0011626744 0.003391181 -0.000363281 -0.0043123695 0.0007822381 -0.00049307407 -0.00075065094 3.080749e-05
0.00013291894 -0.00023326553 -0.0021880488 -0.0033475843 0.0008929595 -0.0010585954 0.00010412493 -1.1929989e-05
-0.00012470294 -0.0025906381 -0.0015493194 -0.0005515091 0.0004128646 -0.0009050987 -0.00017427072 -0.0013019699
-0.00072983635 -2.4053017e-05 -2.294605e-05 0.0013570162 -0.0019113526 -0.00024069849 0.00025198204 -0.0006522821
-0.0010603248 -0.00088881433 0.0020130868 -0.0018300771 -0.00035545844 -0.002272396 -0.00010849905 -0.0007907018
-0.0005051659 -0.0014589252 -0.0019668087 -0.00091335055 -0.00040286442 -0.00137519 -0.0013536677 -0.0014488145
00000000: e770 0dba b63b afba 47d9 75ba ce96 d239
00000010: 9f3b d339 0df2 f539 3767 1d3a 8201 c3ba
00000020: 5e22 b1ba 0c47 80b9 bd6e f638 beda 0fb9
00000030: 1177 61ba 44b8 72ba 7bb7 bfba 984b d5ba
00000040: 7320 b2b9 5ef8 acba 202f f0ba 0d60 673a
00000050: d59d adb9 013c 72b9 f618 2abb 9764 9b3a
00000060: e103 c1b8 5c0b 63ba 90da 85ba 1974 1dba
00000070: fe49 beb9 1a7a 00bb a7c1 54ba fc5c 92b9
00000080: d802 ff39 f9b9 2e38 5690 01ba 1ac9 0bbb
00000090: 776d 2034 314e 41ba 281b 5a3a 6fe6 daba
000000a0: 8341 893a 4670 fe3a 76bf 2c3a c54e 54ba
000000b0: a8a3 41ba 2f8b b738 7bea f639 3540 663b
000000c0: 7aa8 f9ba 2639 d339 8fbf 49ba c62a 9bb9
000000d0: a33b 2db9 0ce6 9d34 e824 69bb c4e0 38ba
000000e0: 9c26 c636 5432 2fba cb9f 563b 99f2 b1ba
000000f0: 3f4e d9b4 f365 44ba 38d4 13bb 9a4f 6dbb
00000100: 6967 97b9 2f39 b6b8 0762 28ba 5aff c0ba
00000110: 04d9 fa38 29f4 323a 56b9 1e3a 5e4e 843a
00000120: fe1c 0eba dc4e 60b9 35b9 71b9 9638 f4b9
00000130: b57b 83ba b68d 98b9 0037 c939 d9ed 07ba
00000140: e164 98ba 933e 5e3b c076 beb9 c74e 8dbb
00000150: 1c0f 4d3a a441 01ba 55c7 44ba 4a37 0138
00000160: 2860 0b39 bd98 74b9 5e65 0fbb 2563 5bbb
00000170: 7f15 6a3a 91c0 8aba a55d da38 ea26 48b7
00000180: b1c2 02b9 b2c7 29bb 8812 cbba 2693 10ba
00000190: c075 d839 2544 6dba 71bc 36b9 dca6 aaba
000001a0: 7d52 3fba 76c5 c9b7 447c c0b7 e8dd b13a
000001b0: 5a86 faba 0264 7cb9 751c 8439 e9fd 2aba
000001c0: 99fa 8aba 52ff 68ba feed 033b 33df efba
000001d0: d35c bab9 7bec 14bb fc89 e3b8 1947 4fba
000001e0: 1c6d 04ba 6839 bfba 93e5 00bb eb6d 6fba
000001f0: 8c37 d3b9 b83f b4ba 8d6d b1ba 26e6 bdba

network_body._body_endoder.seq_layers.2.weight f4 [128, 128]
0.10878036 0.08206702 -0.024399133 -0.09452209 0.028464483 -0.029643776 0.024625005 0.040767178
-0.17643018 0.097823694 0.046371903 0.05309008 0.108072445 -0.085599914 -0.0670715 0.06812043
-0.02975324 -0.06732947 -0.050177183 0.08879572 0.008411984 -0.14168699 -0.23958345 0.008129297
0.08760955 -0.09599516 -0.041243482 -0.10769213 -0.023574654 -0.02289399 0.12237998 -0.102278255
0.063498564 0.07324933 -0.04399152 0.14728463 0.116874814 -0.017541012 0.059038397 0.07051194
0.025257707 0.030037738 -0.072717816 0.015190364 -0.011456874 -0.15030032 -0.014869964 0.22858346
-0.012069367 0.08627745 -0.14083381 -0.012214728 -0.008640089 0.0898936 -0.066834874 0.0116001675
-0.23111619 -0.03742034 0.03307234 0.06093804 -0.0035694872 -0.025190607 -0.0054950183 0.070007846
-0.06188552 -0.012640595 0.089419425 -0.008852674 0.0049253684 0.057352234 -0.22846664 0.059933748
-0.049192216 0.0810955 0.015006941 0.10443667 0.10124604 -0.13435398 -0.015588729 -0.040523198
0.05039497 -0.17063361 -0.011985523 -0.0073224143 -0.08844129 0.081751995 -0.0019838524 -0.06402876
0.10386097 0.10573219 -0.14488441 -0.0077133956 -0.03148136 0.016873835 -0.11141475 -0.05470289
0.09832648 -0.0021880742 -0.09825636 0.03168305 -0.08875653 0.001503244 0.10120752 -0.013444885
0.20821658 -0.00755331 -0.096653335 -0.13039567 0.018956486 -0.012584531 -0.21141791 0.031218356
0.010303593 0.09952708 0.07818002 -0.028080588 -0.14527203 0.025692793 -0.011021535 -0.08506889
0.009884328 0.061614238 -0.11216203 -0.047229834 -0.02632598 -0.044544645 0.04126316 -0.035605904
0.00029856028 0.10091449 0.1102593 -0.021084001 -0.08205471 -0.007872079 -0.03211873 -0.103391506
0.08722821 -0.09970673 -0.01913861 -0.07845442 -0.09826186 0.08055607 0.10009966 -0.050689418
-0.048276316 0.06716802 0.13793154 0.041322324 0.12388819 0.09662608 0.07821727 -0.029768828
-0.010648919 0.12035624 -0.02527695 0.114107154 0.09122484 -0.26919425 0.21508001 -0.039257962
0.056741524 -0.004369404 -0.050456822 0.03205984 0.1117327 0.047662105 0.04642505 0.049187597
-0.016123118 0.17200126 -0.07163311 0.08819795 -0.0082974695 0.07128683 -0.06921485 -0.08250069
0.022476945 -0.055359207 -0.054266624 0.04858528 0.049470436 0.011562877 0.08341069 0.14426523
0.008316656 -0.04032322 0.023751145 -0.043049857 -0.05387783 0.0931342 0.07121314 0.026922245
0.10594864 0.023699135 -0.08525005 0.025755476 -0.027067734 -0.009120436 -0.06664746 0.1105627
0.030008847 -0.063744865 0.16120346 -0.098377064 -0.068824805 -0.008260572 -0.13093156 0.20560312
0.10435148 0.12758067 0.0075480714 0.11122254 -0.24838251 -0.064005926 -0.13486959 0.023264054
-0.07672714 0.07182727 -0.06592277 0.020622896 -0.086103514 -0.1708947 -0.124075696 -0.07647442
-0.054340847 0.09275588 0.020925686 -0.059545442 0.10325799 0.058135785 0.22430272 -0.059938814
-0.066923015 0.055883985 0.008526394 0.095954865 0.102543645 -0.057160273 -0.072442 0.097124025
0.060478177 0.048587613 -0.08997868 -0.17266755 0.11594495 0.013180186 -0.1735725 -0.10436365
-0.05175922 0.014406819 0.08384669 -0.1729755 -0.12164061 -0.087182574 -0.009862358 -0.121286094
00000000: 3dc8 de3d c112 a83d b1e0 c7bc cc94 c1bd
00000010: 592e e93c 81d7 f2bc 61ba c93c 7cfb 263d
00000020: 1daa 34be ca57 c83d 77f0 3d3d fc74 593d
00000030: 1655 dd3d 024f afbd c85c 89bd b982 8b3d
00000040: 11bd f3bc 08e4 89bd 9786 4dbd 88da b53d
00000050: 6bd2 093c 6516 11be 5d55 75be be30 053c
00000060: a36c b33d 1c99 c4bd edee 28bd b18d dcbd
00000070: a21f c1bc 2d8c bbbc 5ba2 fa3d 4377 d1bd
00000080: 890b 823d bf03 963d 7430 34bd c8d1 163e
00000090: 105c ef3d 2bb2 8fbc 3fd2 713d 9068 903d
000000a0: 40e9 ce3c b411 f63c 14ed 94bd 01e1 783c
000000b0: 9db5 3bbc 54e8 19be 26a1 73bc c811 6a3e
000000c0: 98be 45bc 3bb2 b03d bd36 10be 4820 48bc
000000d0: 298f 0dbc 231a b83d b9e0 88bd a10e 3e3c
000000e0: b9a9 6cbe 1246 19bd dd76 073d 2b9a 793d
000000f0: 0fee 69bb 885c cebc 8e0f b4bb 4660 8f3d
00000100: ac7b 7dbd 801a 4fbc 8821 b73d ce0a 11bc
00000110: fc64 a13b 2dea 6a3d 29f3 69be 177d 753d
00000120: c77d 49bd 6615 a63d acdf 753c e5e2 d53d
00000130: 155a cf3d 1794 09be de67 7fbc a7fb 25bd
00000140: f56a 4e3d 94ba 2ebe ed5e 44bc ddf0 efbb
00000150: b520 b5bd 976d a73d 8503 02bb 8321 83bd
00000160: 0fb5 d43d 1e8a d83d 945c 14be a7c0 fcbb
00000170: 99f2 00bd ff3a 8a3c 6b2d e4bd 2310 60bd
00000180: 655f c93d cb65 0fbb a13a c9bd 16c6 013d
00000190: fcc5 b5bd 8008 c53a e345 cf3d ef47 5cbc
000001a0: ba36 553e c281 f7bb 2ff2 c5bd 7186 05be
000001b0: a24a 9b3c 592f 4ebc f07d 58be a3bd ff3c
000001c0: 67d0 283c dbd4 cb3d d91c a03d 4309 e6bc
000001d0: 31c2 14be b179 d23c ab93 34bc 9938 aebd
000001e0: e0f1 213c 365f 7c3d 35b5 e5bd 1274 41bd
000001f0: 95a9 d7bc 7274 36bd 8f03 293d 7fd7 11bd
00000200: 1588 9c39 42ac ce3d a1cf e13d 5bb8 acbc
00000210: 4d0c a8bd e4f9 00bc ee8e 03bd edbe d3bd
00000220: b4a4 b23d 0b33 ccbd 93c8 9cbc b6ac a0bd
00000230: 843d c9bd 95fa a43d 0d01 cd3d b59f 4fbd
00000240: 63bd 45bd 638f 893d ed3d 0d3e 9941 293d
00000250: 17b9 fd3d e5e3 c53d 6030 a03d c2dd f3bc
00000260: ce78 2ebc 557d f63d 9b11 cfbc 03b1 e93d
00000270: 17d4 ba3d d4d3 89be ef3d 5c3e f5cc 20bd
00000280: cd69 683d 382d 8fbb d0ab 4ebd 2e51 033d
00000290: 1dd4 e43d 5739 433d 3128 3e3d ef78 493d
000002a0: a114 84bc 1921 303e 61b4 92bd 20a1 b43d
000002b0: 1cf2 07bc d4fe 913d 84c0 8dbd 1ff6 a8bd
000002c0: 9221 b83c 56c0 62bd ae46 5ebd 5c01 473d
000002d0: 83a1 4a3d 3972 3d3c 39d3 aa3d 44ba 133e
000002e0: 9542 083c f629 25bd c391 c23c 0c55 30bd
000002f0: 00af 5cbd 25bd be3d 32d8 913d 0a8c dc3c
00000300: 9afb d83d b024 c23c 9497 aebd 26fd d23c
00000310: 27bd ddbc e26d 15bc 777e 88bd b26e e23d
00000320: 1dd5 f53c ab8c 82bd 8512 253e ea79 c9bd
00000330: 05f4 8cbd 5a57 07bc ec12 06be a089 523e
00000340: 3bb6 d53d 82a4 023e d055 f73b a5c8 e33d
00000350: fc57 7ebe 8a15 83bd 411b 0abe 4294 be3c
00000360: 1e23 9dbd 2d1a 933d 8402 87bd 59f1 a83c
00000370: 0a57 b0bd 05ff 2ebe 661b febd 9f9e 9cbd
00000380: 8294 5ebd cbf6 bd3d 586c ab3c ece5 73bd
00000390: ed78 d33d ca1f 6e3d 9daf 653e 6782 75bd
000003a0: ef0e 89bd 9be6 643d 4ab2 0b3c fc83 c43d
000003b0: 6702 d23d e420 6abd 795c 94bd f6e8 c63d
000003c0: f7b7 773d ce03 473d be46 b8bd c3cf 30be
000003d0: 8c74 ed3d b5f1 573c fdbc 31be 9cbc d5bd
000003e0: 7a01 54bd 940a 6c3c d0b7 ab3d 7d20 31be
000003f0: b61e f9bd c78c b2bd ba95 21bc d864 f8bd

network_body._body_endoder.seq_layers.2.bias f4 [128]
-0.0023978539 -0.00052667403 -7.695631e-05 0.00036471843 -0.001286162 -0.0022636629 -0.0007828308 -0.0014036788
0.00042783353 0.0018527217 0.002476767 0.0005342612 -0.0015077279 -9.335284e-06 -0.0004506118 -0.00022215655
-0.0013512484 -0.0004118937 -0.000439195 -0.0015932992 -0.0004046815 -0.00072081597 -0.00014647242 -0.00046106198
-0.0008022274 -0.00057212723 -0.00062824757 -0.000100599966 -0.00015803394 -0.0006460767 -2.4639253e-06 -0.0002441604
-0.00015955731 -0.0027561418 -0.00216595 -0.002334618 -0.00016748781 -0.0003809671 -0.00046116265 -0.00046034122
-0.000778869 -0.001581185 -0.00013258247 -0.00037377418 -2.2196244e-05 -9.5477284e-05 0.00025708307 -0.00057479506
-0.0002783319 -0.00018223152 -0.00030292178 0.00013657972 -0.00077270943 -0.0011223609 -0.0005715274 -0.00014269579
-0.00080664444 -9.311895e-05 -0.0014201435 -0.0016162727 -0.0011467518 0.0013462784 -0.00020885527 -0.0004308316
-0.00039705954 -2.4079416e-05 -0.00021082954 3.7631027e-05 0.0046195136 -0.0027008234 -0.0011384765 -0.00084244367
1.5325877e-05 -0.0001667508 0.00027322324 -0.00082014094 -0.00012845804 0.0009953593 -0.00042710124 -0.00047918415
-0.00021419875 -0.00012776205 -0.00073667185 -0.00095411047 -0.00016652745 -0.0007845858 -0.00037942894 -8.701229e-05
-0.00010909966 -0.0014651855 -0.0009042104 -2.5658712e-05 -0.00054756616 -0.00050599675 0.00033973093 -0.00013197844
-0.0019125761 -0.0013005326 -0.00013963421 -0.0008113732 0.00044610866 -0.0012974783 -0.00021270917 -4.0692714e-05
-0.00014322827 0.00015805571 -0.00012782744 2.265658e-05 -1.6777886e-06 -0.0006664099 -8.566242e-05 -0.0011087762
-0.00036380225 -0.00013762838 -0.0015777621 -0.0001623284 -0.00037334918 -0.00037859025 -9.552464e-05 2.531019e-05
-0.00032065884 -0.00015928957 -0.000745342 1.5556388e-05 -0.0017909325 -0.00022137855 -0.00038028753 -0.00014706273
00000000: 5025 1dbb 7f10 0aba 9b63 a1b8 ae37 bf39
00000010: 6f94 a8ba f659 14bb e336 4dba a5fb b7ba
00000020: d84e e039 06d7 f23a 4151 223b aa0d 0c3a
00000030: f49e c5ba bd9e 1cb7 1840 ecb9 b2f2 68b9
00000040: 5f1c b1ba 70f3 d7b9 c143 e6b9 40d6 d0ba
00000050: 6e2b d4b9 24f5 3cba 6496 19b9 b1ba f1b9
00000060: 924c 52ba cffa 15ba fbb0 24ba 32f9 d2b8
00000070: eab5 25b9 795d 29ba ea59 25b6 a702 80b9
00000080: d74e 27b9 63a0 34bb 9cf2 0dbb 6400 19bb
00000090: ab9f 2fb9 8abc c7b9 34c8 f1b9 f459 f1b9
000000a0: 042d 4cba c43f cfba d605 0bb9 1ff7 c3b9
000000b0: 1232 bab7 fa3a c8b8 1bc9 8639 d8ad 16ba
000000c0: 13ed 91b9 6715 3fb9 79d1 9eb9 d736 0f39
000000d0: a78f 4aba 2f1c 93ba 8ed2 15ba 9ca0 15b9
000000e0: fe74 53ba db48 c3b8 1c24 baba 1dd9 d3ba
000000f0: 9b4e 96ba 9b75 b03a 2900 5bb9 3de1 e1b9
00000100: 6e2c d0b9 27fe c9b7 2012 5db9 02d6 1d38
00000110: 4a5f 973b 4c00 31bb ef38 95ba 70d7 5cba
00000120: 1290 8037 d4d9 2eb9 673f 8f39 bafe 56ba
00000130: b1b2 06b9 b776 823a 8fec dfb9 023b fbb9
00000140: 8a9a 60b9 ddf7 05b9 361d 41ba 451d 7aba
00000150: df9d 2eb9 a9ac 4dba 17ee c6b9 5e7a b6b8
00000160: 6fcc e4b8 780b c0ba 8808 6dba aa3d d7b7
00000170: 8b8a 0fba dea4 04ba ea1d b239 b163 0ab9
00000180: 68af faba a276 aaba c66a 12b9 55b2 54ba
00000190: b1e3 e939 2610 aaba af0a 5fb9 78ad 2ab8
000001a0: 8c2f 16b9 c2bb 2539 6b09 06b9 a30e be37
000001b0: 6130 e1b5 03b2 2eba a9a5 b3b8 5b54 91ba
000001c0: b6bc beb9 5650 10b9 e9cc ceba b336 2ab9
000001d0: 14be c3b9 867d c6b9 6754 c8b8 3851 d437
000001e0: 1a1e a8b9 f806 27b9 0e63 43ba 177f 8237
000001f0: b9bd eaba da21 68b9 5461 c7b9 da34 1ab9

action_model._continuous_distribution.log_sigma f4 [1, 2]
0.0063822586 0.0008688578
00000000: 4422 d13b 0fc4 633a

action_model._continuous_distribution.mu.weight f4 [2, 128]
-0.007260441 0.041657344 -0.003446759 -0.018288592 -0.0019347254 0.017469127 0.0055710366 0.0022466443
-0.01254751 0.015075004 0.031415295 0.0022281497 0.007497736 -0.024333201 0.0023537404 0.010898493
0.0047844183 -0.004104364 -0.004485509 -0.007378404 0.018667778 0.008345203 0.0064763087 0.023298604
0.0068809288 0.0061201556 0.0092440015 0.018852355 0.0013063326 0.002486084 0.0008777942 -0.016580427
0.012658204 -0.03954907 0.01748351 0.02619832 -0.025791563 -0.011856948 0.015929407 0.022967724
-0.0154279405 -0.0041407202 -0.016290559 -2.1287202e-05 0.009657354 0.016775044 -0.019569593 0.004866182
-0.011424423 -0.03408338 -0.028161423 -0.00043066664 -0.030928515 0.02008548 -0.004292329 -0.003337472
-0.015363646 0.012451527 -0.004513071 -0.031088095 0.0063362573 0.00018506635 0.0042148596 -0.001347057
-0.002944448 0.028697543 -0.025717983 -0.0021122498 0.029247796 0.009857102 -0.014007711 0.0007654432
-0.015846934 -0.011433014 -0.027530085 0.0010252165 -0.0364125 0.011752009 0.008173336 -0.013057877
0.0125385085 -0.042735115 0.00833831 0.0027438733 -0.030039951 -0.02051533 0.016636096 0.009514538
0.016276645 -0.011653053 -0.0055240584 0.027036292 0.00873149 0.0017449532 -0.008376554 0.0009762186
0.023629526 0.0037955942 -0.029352266 -0.008307457 -0.01609728 -0.0077983523 -0.0011604376 0.015100375
0.031549998 0.0035539963 0.013951139 0.0016614854 -0.03460744 0.025558181 -0.016253572 0.008269683
0.02601883 0.026283465 0.019574743 0.0351157 0.007603436 0.007370566 0.016700888 0.008900965
-0.011198535 0.01980381 -0.020775137 -0.020224953 0.036712628 0.008061986 0.0041090804 0.020886432
-0.018662322 -0.027302412 0.010724147 -0.029282397 -0.013079543 0.015110027 0.0029226013 -0.0004585444
0.0068425755 0.012005396 0.01742064 0.019257713 -0.015930463 0.021460488 -0.017675465 -0.0004731421
0.008878161 0.0068268008 -0.0041396613 0.013071155 0.025909146 0.0029372745 0.010392335 0.0075353165
0.018658957 -0.0033451037 0.015159013 -0.007191733 -0.0059085046 -0.0057008527 0.013550533 0.00093354215
-0.03238257 0.034007505 0.02365163 -0.00092649227 -0.010613612 0.0050146286 -0.007923501 0.02900346
-0.021104962 0.0031404886 -0.014712346 -0.009816534 0.035021756 0.002786277 -0.032705102 0.0039440207
-0.008205882 -0.01451427 -0.009955598 0.018588182 0.012825196 -0.02552278 0.0011173189 0.011596287
0.0132161295 0.00093404955 0.011287845 -0.037872277 -0.024624983 -0.027852522 0.013460743 -0.02731466
-0.016323604 0.0011507752 -0.004261252 0.015919255 -0.011140467 0.0047317445 -0.009614726 -0.005391768
0.021082684 -0.011485682 -0.0045496845 0.011951535 -0.02532442 -0.006299043 -0.015678853 0.007302879
-0.0042094854 -0.005538368 0.024828812 0.011502862 -0.018218832 0.006867016 0.031406824 0.0019817355
-0.007874105 -0.044590108 -0.020735105 0.019650238 -0.035662327 0.005972628 -0.016518695 0.009365167
-0.014940977 0.014329286 -0.03825644 0.0011436297 -0.023515586 -0.017679831 0.0061144684 -0.02376087
-0.026193773 0.031002054 0.0070973267 0.013837027 0.012714558 0.007082794 0.012267806 -0.026115896
0.036322065 -0.017453806 -0.011523657 -0.036828224 -0.017686324 -0.0025917175 0.0058362978 0.012311052
-0.00016634748 0.0185998 0.0026968282 0.005841162 -0.031408682 -0.009720618 -0.0010696297 0.020843768
00000000: fee8 edbb e4a0 2a3d 05e3 61bb f5d1 95bc
00000010: 9d96 fdba 6a1b 8f3c 3e8d b63b 703c 133b
00000020: 1294 4dbc 26fd 763c 53ad 003d 2606 123b
00000030: 91af f53b 6c56 c7bc 3641 1a3b 988f 323c
00000040: 9cc6 9c3b e77d 86bb 2dfb 92bb 8ac6 f1bb
00000050: 2bed 983c 51ba 083c 3737 d43b b7dc be3c
00000060: 6a79 e13b 968b c83b 2774 173c 4170 9a3c
00000070: 4039 ab3a 91ed 223b c61b 663a add3 87bc
00000080: 5b64 4f3c 35fe 21bd 9439 8f3c dc9d d63c
00000090: d448 d3bc a543 42bc 637e 823c cf26 bc3c
000000a0: 79c5 7cbc e1ae 87bb c773 85bc eb91 b2b7
000000b0: e139 1e3c d16b 893c 6950 a0bc 7e74 9f3b
000000c0: 812d 3bbc 049b 0bbd c9b2 e6bc 19cb e1b9
000000d0: cc5d fdbc 4e8a a43c aaa6 8cbb 7db9 5abb
000000e0: cdb7 7bbc 7d01 4c3c 62e2 93bb 76ac febc
000000f0: 61a0 cf3b 5f0e 4239 ce1c 8a3b bc8f b0ba
00000100: a4f7 40bb 1c17 eb3c 85ae d2bc ac6d 0abb
00000110: 1399 ef3c af7f 213c 9980 65bc 06a8 483a
00000120: 6ed1 81bc 8951 3bbc c686 e1bc 8f60 863a
00000130: 4625 15bd 808b 403c 75e9 053c b5f0 55bc
00000140: 516e 4d3c 040b 2fbd 689d 083c 8ed2 333b
00000150: 5816 f6bc c40f a8bc 6c48 883c dde2 1b3c
00000160: 9956 853c 72ec 3ebc 2903 b5bb 377b dd3c
00000170: 860e 0f3c eab6 e43a d03d 09bc ece8 7f3a
00000180: b592 c13c 81bf 783b 2a74 f0bc 001c 08bc
00000190: 71de 83bc 5289 ffbb d319 98ba 9067 773c
000001a0: 923a 013d 2aea 683b 5193 643c 33c6 d93a
000001b0: 88c0 0dbd 645f d13c 3626 85bc 917d 073c
000001c0: 7125 d53c 6c50 d73c 365b a03c 7bd5 0f3d
000001d0: 3e26 f93b ca84 f13b 4dd0 883c 5ad5 113c
000001e0: 0f7a 37bc 9a3b a23c 9f30 aabc cdae a5bc
000001f0: fb5f 163d 6c16 043c 77a5 863b 061a ab3c
00000200: bae1 98bc 4fa9 dfbc 55b4 2f3c a3e1 efbc
00000210: 944b 56bc 0c90 773c 1d89 3f3b ca68 f0b9
00000220: af37 e03b 48b2 443c bbb5 8e3c 5ac2 9d3c
00000230: 9a80 82bc e8cd af3c 23cc 90bc 0f10 f8b9
00000240: b575 113c 5bb3 df3b ffa5 87bb 6628 563c
00000250: 6b3f d43c 4a7f 403b 9d44 2a3c d1ea f63b
00000260: abda 983c 8739 5bbb 825d 783c a1a8 ebbb
00000270: 219c c1bb 38ce babb 0e03 5e3c f4b8 743a
00000280: 96a3 04bd 744b 0b3d 10c1 c13c d8df 72ba
00000290: b7e4 2dbc c151 a43b 92d1 01bc aa98 ed3c
000002a0: 50e4 acbc a8d0 4d3b 0d0c 71bc 87d5 20bc
000002b0: f972 0f3d f999 363b c9f5 05bd d83c 813b
000002c0: f771 06bc 43cd 6dbc ce1c 23bc 3e46 983c
000002d0: c520 523c 2615 d1bc 0073 923a 5afe 3d3c
000002e0: 7788 583c 01db 743a a7f0 383c f61f 1bbd
000002f0: 55ba c9bc f92a e4bc 738a 5c3c fec2 dfbc
00000300: 14b9 85bc 9cd5 963a f9a1 8bbb 1969 823c
00000310: 8186 36bc c00c 9b3b 1587 1dbc 6ead b0bb
00000320: 98b5 ac3c 712e 3cbc 8515 95bb 5fd0 433c
00000330: 2875 cfbc 3468 cebb f070 80bc fd4c ef3b
00000340: b9ef 89bb 337b b5bb cb65 cb3c 8076 3c3c
00000350: a93f 95bc b504 e13b 71a4 003d 01e0 013b
00000360: 6402 01bc 1ea4 36bd abdc a9bc 89f9 a03c
00000370: a912 12bd 09b6 c33b 3752 87bc 5b70 193c
00000380: 00cb 74bc 62c5 6a3c c9b2 1cbd d8e5 953a
00000390: c2a3 c0bc 4bd5 90bc e15b c83b 28a6 c2bc
000003a0: 5394 d6bc 05f8 fd3c b190 e83b b3b4 623c
000003b0: b950 503c c816 e83b e8fe 483c 01f1 d5bc
000003c0: 72c6 143d 49fb 8ebc b8cd 3cbc 31d9 16bd
000003d0: e9e2 90bc ced9 29bb 6a3e bf3b 4bb4 493c
000003e0: 906d 2eb9 9c5e 983c 45bd 303b 3867 bf3b
000003f0: 64a6 00bd 3a43 1fbc d132 8cba 8dc0 aa3c

action_model._continuous_distribution.mu.bias f4 [2]
7.3155956e-05 0.0002562736
00000000: 4e6b 9938 765c 8639

exp_avg f4 [128, 64]
-0.00050499884 -1.8717503e-05 8.3105726e-05 -0.00015079134 -1.867791e-05 -0.0017473922 -0.00032882477 5.607787e-05
-0.0003743503 -1.8717503e-05 0.0008235709 -0.0008610059 -1.8717503e-05 0.0008610059 -0.00054505415 -1.8717503e-05
0.00012840232 -0.00014974002 -1.8717503e-05 0.0006176781 -0.00054505415 -1.8717503e-05 0.00012840232 -0.00020589272
-1.8717503e-05 7.487001e-05 -7.487001e-05 -1.8717503e-05 0.0005016295 -0.00020589272 -1.8717503e-05 0.0009209011
-0.00052409066 -1.8717503e-05 0.0010668987 -0.0009545934 -1.8717503e-05 0.0005031266 -0.0008235709 -1.8717503e-05
7.487001e-05 -0.00028375757 -1.8717503e-05 0.00028675242 -0.00028375757 -1.8717503e-05 0.00050537277 -0.00028375757
-1.8717503e-05 0.0007112653 -0.0007487006 -1.8717503e-05 0.00028675242 -0.0007487006 -1.8717503e-05 0.00050537277
-0.0007487006 -1.8717503e-05 0.0007112653 -0.00052409066 -1.8717503e-05 0.00028675242 -0.00052409066 -1.8717503e-05
-0.0010544055 -3.9081e-05 0.00017351963 -0.0010331903 -3.8512833e-05 7.9311874e-05 -0.0001313463 4.6080204e-05
-0.00078162004 -3.9081e-05 0.001719564 -0.0017977257 -3.9081e-05 0.0017977257 -0.0011380386 -3.9081e-05
0.00026809567 -0.000312648 -3.9081e-05 0.001289673 -0.0011380386 -3.9081e-05 0.00026809567 -0.000429891
-3.9081e-05 0.000156324 -0.000156324 -3.9081e-05 0.0010473706 -0.000429891 -3.9081e-05 0.0019227852
-0.001094268 -3.9081e-05 0.0022276172 -0.001993131 -3.9081e-05 0.001050497 -0.001719564 -3.9081e-05
0.000156324 -0.00059246796 -3.9081e-05 0.00059872086 -0.00059246796 -3.9081e-05 0.001055187 -0.00059246796
-3.9081e-05 0.0014850779 -0.0015632401 -3.9081e-05 0.00059872086 -0.0015632401 -3.9081e-05 0.001055187
-0.0015632401 -3.9081e-05 0.0014850779 -0.001094268 -3.9081e-05 0.00059872086 -0.001094268 -3.9081e-05
3.072071e-06 1.1386476e-07 -5.055595e-07 3.3069564e-06 1.1275934e-07 -9.375916e-07 -1.3946853e-07 -6.1043124e-08
2.2772947e-06 1.1386476e-07 -5.010049e-06 5.237778e-06 1.1386476e-07 -5.237778e-06 3.315741e-06 1.1386476e-07
-7.8111213e-07 9.1091806e-07 1.1386476e-07 -3.7575364e-06 3.315741e-06 1.1386476e-07 -7.8111213e-07 1.2525122e-06
1.1386476e-07 -4.5545903e-07 4.5545903e-07 1.1386476e-07 -3.0515746e-06 1.2525122e-06 1.1386476e-07 -5.6021454e-06
3.1882128e-06 1.1386476e-07 -6.49029e-06 5.8071014e-06 1.1386476e-07 -3.0606839e-06 5.010049e-06 1.1386476e-07
-4.5545903e-07 1.7261893e-06 1.1386476e-07 -1.7444077e-06 1.7261893e-06 1.1386476e-07 -3.074348e-06 1.7261893e-06
1.1386476e-07 -4.3268606e-06 4.5545894e-06 1.1386476e-07 -1.7444077e-06 4.5545894e-06 1.1386476e-07 -3.074348e-06
4.5545894e-06 1.1386476e-07 -4.3268606e-06 3.1882128e-06 1.1386476e-07 -1.7444077e-06 3.1882128e-06 1.1386476e-07
8.411538e-06 3.1176944e-07 -1.3842566e-06 9.136505e-06 3.1090238e-07 -1.1304553e-06 -2.1679436e-07 -3.8881961e-07
6.2353884e-06 3.1176944e-07 -1.3717856e-05 1.4341394e-05 3.1176944e-07 -1.4341394e-05 9.078727e-06 3.1176944e-07
-2.1387386e-06 2.4941555e-06 3.1176944e-07 -1.0288392e-05 9.078727e-06 3.1176944e-07 -2.1387386e-06 3.429464e-06
3.1176944e-07 -1.2470778e-06 1.2470778e-06 3.1176944e-07 -8.355421e-06 3.429464e-06 3.1176944e-07 -1.5339057e-05
8.729544e-06 3.1176944e-07 -1.7770857e-05 1.5900243e-05 3.1176944e-07 -8.380363e-06 1.3717856e-05 3.1176944e-07
-1.2470778e-06 4.7264243e-06 3.1176944e-07 -4.7763083e-06 4.7264243e-06 3.1176944e-07 -8.417775e-06 4.7264243e-06
3.1176944e-07 -1.184724e-05 1.2470777e-05 3.1176944e-07 -4.7763083e-06 1.2470777e-05 3.1176944e-07 -8.417775e-06
1.2470777e-05 3.1176944e-07 -1.184724e-05 8.729544e-06 3.1176944e-07 -4.7763083e-06 8.729544e-06 3.1176944e-07
00000000: e661 04ba 8803 9db7 0c49 ae38 be1d 1eb9
00000010: 82ae 9cb7 c108 e5ba 1d66 acb9 2835 6b38
00000020: 7244 c4b9 8803 9db7 e8e4 573a 21b5 61ba
00000030: 8803 9db7 21b5 613a f7e1 0eba 8803 9db7
00000040: bca3 0639 8803 1db9 8803 9db7 adeb 213a
00000050: f7e1 0eba 8803 9db7 bca3 0639 e8e4 57b9
00000060: 8803 9db7 8803 9d38 8803 9db8 8803 9db7
00000070: c97f 033a e8e4 57b9 8803 9db7 a068 713a
00000080: 2163 09ba 8803 9db7 2ed7 8b3a ae3d 7aba
00000090: 8803 9db7 41e4 033a e8e4 57ba 8803 9db7
000000a0: 8803 9d38 4cc5 94b9 8803 9db7 4257 9639
000000b0: 4cc5 94b9 8803 9db7 fe7a 043a 4cc5 94b9
000000c0: 8803 9db7 3574 3a3a 7244 44ba 8803 9db7
000000d0: 4257 9639 7244 44ba 8803 9db7 fe7a 043a
000000e0: 7244 44ba 8803 9db7 3574 3a3a 2163 09ba
000000f0: 8803 9db7 4257 9639 2163 09ba 8803 9db7
00000100: fa33 8aba e7ea 23b8 d2f2 3539 1d6c 87ba
00000110: d788 21b8 3d54 a638 01ba 09b9 3e46 4138
00000120: a2e5 4cba e7ea 23b8 fe62 e13a aaa1 ebba
00000130: e7ea 23b8 aaa1 eb3a 3d2a 95ba e7ea 23b8
00000140: 318f 8c39 e7ea a3b9 e7ea 23b8 3f0a a93a
00000150: 3d2a 95ba e7ea 23b8 318f 8c39 fe62 e1b9
00000160: e7ea 23b8 e7ea 2339 e7ea 23b9 e7ea 23b8
00000170: ed47 893a fe62 e1b9 e7ea 23b8 f705 fc3a
00000180: 8b6d 8fba e7ea 23b8 37fd 113b 309f 02bb
00000190: e7ea 23b8 d5b0 893a fe62 e1ba e7ea 23b8
000001a0: e7ea 2339 da4f 1bba e7ea 23b8 7af3 1c3a
000001b0: da4f 1bba e7ea 23b8 334e 8a3a da4f 1bba
000001c0: e7ea 23b8 f2a6 c23a a2e5 ccba e7ea 23b8
000001d0: 7af3 1c3a a2e5 ccba e7ea 23b8 334e 8a3a
000001e0: a2e5 ccba e7ea 23b8 f2a6 c23a 8b6d 8fba
000001f0: e7ea 23b8 7af3 1c3a 8b6d 8fba e7ea 23b8
00000200: c729 4e36 d085 f433 c9b5 07b5 14ed 5d36
00000210: 1a26 f233 ceae 7bb5 d1c0 15b4 d016 83b3
00000220: a0d3 1836 d085 f433 fe1b a8b6 2cc0 af36
00000230: d085 f433 2cc0 afb6 ff83 5e36 d085 f433
00000240: 9ead 51b5 d085 7435 d085 f433 fc29 7cb6
00000250: ff83 5e36 d085 f433 9ead 51b5 fe1b a835
00000260: d085 f433 d085 f4b4 d085 f434 d085 f433
00000270: a7c9 4cb6 fe1b a835 d085 f433 10fa bbb6
00000280: 14f5 5536 d085 f433 2bc7 d9b6 9fda c236
00000290: d085 f433 2666 4db6 fe1b a836 d085 f433
000002a0: d085 f4b4 6aaf e735 d085 f433 6421 eab5
000002b0: 6aaf e735 d085 f433 e550 4eb6 6aaf e735
000002c0: d085 f433 732f 91b6 a0d3 9836 d085 f433
000002d0: 6421 eab5 a0d3 9836 d085 f433 e550 4eb6
000002e0: a0d3 9836 d085 f433 732f 91b6 14f5 5536
000002f0: d085 f433 6421 eab5 14f5 5536 d085 f433
00000300: 481f 0d37 4461 a734 b2ca b9b5 fd48 1937
00000310: 19ea a634 26ba 97b5 fbc7 68b4 f6be d0b4
00000320: 9439 d136 4461 a734 be25 66b7 d19b 7037
00000330: 4461 a734 d19b 70b7 d650 1837 4461 a734
00000340: 4087 0fb6 4461 2736 4461 a734 4f9c 2cb7
00000350: d650 1837 4461 a734 4087 0fb6 be25 6636
00000360: 4461 a734 4461 a7b5 4461 a735 4461 a734
00000370: 432e 0cb7 be25 6636 4461 a734 60ac 80b7
00000380: 1b75 1237 4461 a734 a012 95b7 8361 8537
00000390: 4461 a734 6399 0cb7 be25 6637 4461 a734
000003a0: 4461 a7b5 ad97 9e36 4461 a734 2d44 a0b6
000003b0: ad97 9e36 4461 a734 113a 0db7 ad97 9e36
000003c0: 4461 a734 82c3 46b7 9439 5137 4461 a734
000003d0: 2d44 a0b6 9439 5137 4461 a734 113a 0db7
000003e0: 9439 5137 4461 a734 82c3 46b7 1b75 1237
000003f0: 4461 a734 2d44 a0b6 1b75 1237 4461 a734

exp_avg_sq f4 [128, 64]
1.1872102e-05 1.630962e-08 3.2152124e-07 2.5397496e-05 1.6256596e-08 2.1212349e-05 4.8832717e-08 8.1998245e-08
6.523845e-06 1.630962e-08 3.1575415e-05 3.4511148e-05 1.630962e-08 3.4511148e-05 1.3830138e-05 1.630962e-08
7.675241e-07 1.0438157e-06 1.630962e-08 1.776117e-05 1.3830138e-05 1.630962e-08 7.675241e-07 1.9734634e-06
1.630962e-08 2.6095393e-07 2.6095393e-07 1.630962e-08 1.1714219e-05 1.9734634e-06 1.630962e-08 3.94797e-05
1.2786739e-05 1.630962e-08 5.2989944e-05 4.2421314e-05 1.630962e-08 1.1784257e-05 3.1575415e-05 1.630962e-08
2.6095393e-07 3.748368e-06 1.630962e-08 3.8279063e-06 3.748368e-06 1.630962e-08 1.1889714e-05 3.748368e-06
1.630962e-08 2.3551085e-05 2.609538e-05 1.630962e-08 3.8279063e-06 2.609538e-05 1.630962e-08 1.1889714e-05
2.609538e-05 1.630962e-08 2.3551085e-05 1.2786739e-05 1.630962e-08 3.8279063e-06 1.2786739e-05 1.630962e-08
1.8896002e-05 2.5958883e-08 5.11743e-07 2.8038103e-05 2.5455615e-08 7.776658e-06 3.6255425e-08 1.505059e-07
1.038355e-05 2.5958883e-08 5.0256385e-05 5.4928983e-05 2.5958883e-08 5.4928983e-05 2.2012466e-05 2.5958883e-08
1.2216142e-06 1.6613685e-06 2.5958883e-08 2.8269216e-05 2.2012466e-05 2.5958883e-08 1.2216142e-06 3.141024e-06
2.5958883e-08 4.1534213e-07 4.1534213e-07 2.5958883e-08 1.86447e-05 3.141024e-06 2.5958883e-08 6.28371e-05
2.0351763e-05 2.5958883e-08 8.434038e-05 6.7519046e-05 2.5958883e-08 1.8756182e-05 5.0256385e-05 2.5958883e-08
4.1534213e-07 5.966015e-06 2.5958883e-08 6.09261e-06 5.966015e-06 2.5958883e-08 1.8924024e-05 5.966015e-06
2.5958883e-08 3.7484613e-05 4.15342e-05 2.5958883e-08 6.09261e-06 4.15342e-05 2.5958883e-08 1.8924024e-05
4.15342e-05 2.5958883e-08 3.7484613e-05 2.0351763e-05 2.5958883e-08 6.09261e-06 2.0351763e-05 2.5958883e-08
2.1605275e-11 2.968081e-14 5.851158e-13 3.0339065e-11 2.7734581e-14 1.0200504e-12 7.8305214e-14 3.9056779e-13
1.1872328e-11 2.968081e-14 5.7462056e-11 6.28046e-11 2.968081e-14 6.28046e-11 2.5168574e-11 2.968081e-14
1.3967673e-12 1.8995719e-12 2.968081e-14 3.2322405e-11 2.5168574e-11 2.968081e-14 1.3967673e-12 3.5913785e-12
2.968081e-14 4.7489297e-13 4.7489297e-13 2.968081e-14 2.131795e-11 3.5913785e-12 2.968081e-14 7.184656e-11
2.326976e-11 2.968081e-14 9.643297e-11 7.71998e-11 2.968081e-14 2.1445411e-11 5.7462056e-11 2.968081e-14
4.7489297e-13 6.8214115e-12 2.968081e-14 6.9661625e-12 6.8214115e-12 2.968081e-14 2.1637319e-11 6.8214115e-12
2.968081e-14 4.2859095e-11 4.748931e-11 2.968081e-14 6.9661625e-12 4.748931e-11 2.968081e-14 2.1637319e-11
4.748931e-11 2.968081e-14 4.2859095e-11 2.326976e-11 2.968081e-14 6.9661625e-12 2.326976e-11 2.968081e-14
7.791647e-11 1.0703983e-13 2.1101413e-12 9.26685e-11 1.0681422e-13 1.0067923e-11 1.5002498e-13 4.7316155e-13
4.2815942e-11 1.0703983e-13 2.0722915e-10 2.2649631e-10 1.0703983e-13 2.2649631e-10 9.0767074e-11 1.0703983e-13
5.0372527e-12 6.850549e-12 1.0703983e-13 1.1656638e-10 9.0767074e-11 1.0703983e-13 5.0372527e-12 1.2951822e-11
1.0703983e-13 1.7126373e-12 1.7126373e-12 1.0703983e-13 7.6880315e-11 1.2951822e-11 1.0703983e-13 2.59105e-10
8.3919253e-11 1.0703983e-13 3.4777245e-10 2.7841068e-10 1.0703983e-13 7.7339975e-11 2.0722915e-10 1.0703983e-13
1.7126373e-12 2.460049e-11 1.0703983e-13 2.5122508e-11 2.460049e-11 1.0703983e-13 7.803209e-11 2.460049e-11
1.0703983e-13 1.545655e-10 1.7126377e-10 1.0703983e-13 2.5122508e-11 1.7126377e-10 1.0703983e-13 7.803209e-11
1.7126377e-10 1.0703983e-13 1.545655e-10 8.3919253e-11 1.0703983e-13 2.5122508e-11 8.3919253e-11 1.0703983e-13
00000000: 4a2e 4737 3c19 8c32 8b9d ac34 b50c d537
00000010: a2a4 8b32 2cf1 b137 24bc 5133 0317 b033
00000020: 67e7 da36 3c19 8c32 d86f 0438 10c0 1038
00000030: 3c19 8c32 10c0 1038 fe07 6837 3c19 8c32
00000040: db07 4e35 3c19 8c35 3c19 8c32 d2fd 9437
00000050: fe07 6837 3c19 8c32 db07 4e35 d86f 0436
00000060: 3c19 8c32 3c19 8c34 3c19 8c34 3c19 8c32
00000070: 3088 4437 d86f 0436 3c19 8c32 0197 2538
00000080: a086 5637 3c19 8c32 8541 5e38 8aed 3138
00000090: 3c19 8c32 00b5 4537 d86f 0438 3c19 8c32
000000a0: 3c19 8c34 798c 7b36 3c19 8c32 7771 8036
000000b0: 798c 7b36 3c19 8c32 ef79 4737 798c 7b36
000000c0: 3c19 8c32 928f c537 67e7 da37 3c19 8c32
000000d0: 7771 8036 67e7 da37 3c19 8c32 ef79 4737
000000e0: 67e7 da37 3c19 8c32 928f c537 a086 5637
000000f0: 3c19 8c32 7771 8036 a086 5637 3c19 8c32
00000100: db82 9e37 30fc de32 b65e 0935 5e33 eb37
00000110: 7da9 da32 7e78 0237 43b7 1b33 bf9a 2134
00000120: 0235 2e37 30fc de32 62ca 5238 8c63 6638
00000130: 30fc de32 8c63 6638 69a7 b837 30fc de32
00000140: 58f6 a335 30fc de35 30fc de32 ae23 ed37
00000150: 69a7 b837 30fc de32 58f6 a335 62ca 5236
00000160: 30fc de32 30fc de34 30fc de34 30fc de32
00000170: 3067 9c37 62ca 5236 30fc de32 69c7 8338
00000180: 14b9 aa37 30fc de32 e6df b038 0399 8d38
00000190: 30fc de32 9856 9d37 62ca 5238 30fc de32
000001a0: 30fc de34 ae2f c836 30fc de32 1f6f cc36
000001b0: ae2f c836 30fc de32 08bf 9e37 ae2f c836
000001c0: 30fc de32 cc38 1d38 0235 2e38 30fc de32
000001d0: 1f6f cc36 0235 2e38 30fc de32 08bf 9e37
000001e0: 0235 2e38 30fc de32 cc38 1d38 14b9 aa37
000001f0: 30fc de32 1f6f cc36 14b9 aa37 30fc de32
00000200: c10a be2d a5ab 0529 09b2 242b c06e 052e
00000210: 97cf f928 308f 8f2b e253 b029 c0de db2a
00000220: 36dc 502d a5ab 0529 86b8 7c2e d91b 8a2e
00000230: a5ab 0529 d91b 8a2e 9762 dd2d a5ab 0529
00000240: d893 c42b a5ab 052c a5ab 0529 cb27 0e2e
00000250: 9762 dd2d a5ab 0529 d893 c42b 86b8 7c2c
00000260: a5ab 0529 a5ab 052b a5ab 052b a5ab 0529
00000270: c183 bb2d 86b8 7c2c a5ab 0529 05fe 9d2e
00000280: d7ae cc2d a5ab 0529 f00e d42e a0c3 a92e
00000290: a5ab 0529 c6a2 bc2d 86b8 7c2e a5ab 0529
000002a0: a5ab 052b d001 f02c a5ab 0529 9d19 f52c
000002b0: d001 f02c a5ab 0529 e952 be2d d001 f02c
000002c0: a5ab 0529 0d7f 3c2e 36dc 502e a5ab 0529
000002d0: 9d19 f52c 36dc 502e a5ab 0529 e952 be2d
000002e0: 36dc 502e a5ab 0529 0d7f 3c2e d7ae cc2d
000002f0: a5ab 0529 9d19 f52c d7ae cc2d a5ab 0529
00000300: 1357 ab2e 4308 f129 ed7c 142c bac7 cb2e
00000310: 3586 f029 e51d 312d c2e9 282a e22e 052b
00000320: 774e 3c2e 4308 f129 d2d9 632f 0b09 792f
00000330: 4308 f129 0b09 792f 5299 c72e 4308 f129
00000340: 8a3b b12c 4308 f12c 4308 f129 852a 002f
00000350: 5299 c72e 4308 f129 8a3b b12c d2d9 632d
00000360: 4308 f129 4308 f12b 4308 f12b 4308 f129
00000370: c50f a92e d2d9 632d 4308 f129 c971 8e2f
00000380: 578a b82e 4308 f129 9f30 bf2f d20e 992f
00000390: 4308 f129 8912 aa2e d2d9 632f 4308 f129
000003a0: 4308 f12b 6163 d82d 4308 f129 dcfa dc2d
000003b0: 6163 d82d 4308 f129 2998 ab2e 6163 d82d
000003c0: 4308 f129 52f2 292f 774e 3c2f 4308 f129
000003d0: dcfa dc2d 774e 3c2f 4308 f129 2998 ab2e
000003e0: 774e 3c2f 4308 f129 52f2 292f 578a b82e
000003f0: 4308 f129 dcfa dc2d 578a b82e 4308 f129

exp_avg f4 [128]
-3.7435017e-05 -7.816201e-05 2.277295e-07 6.235389e-07 0.0010145031 -0.0013104192 -1.1160476e-09 1.8654401e-07
0.00018294822 -0.0003777086 0.0010177026 -3.2113976e-09 9.072275e-05 0.0005697557 5.4311573e-07 -2.6753967e-06
-0.00039560528 -0.00030005837 1.4736904e-05 -4.4289678e-05 -2.4846933e-05 7.049511e-07 -1.7441488e-06 1.4398163e-06
0.00093649415 -0.00034286978 0.00065759255 0.00018246914 0.000577233 6.467106e-08 0.0002474418 -0.0004692696
6.31399e-05 0.0010748161 0.0006065296 7.604648e-05 -7.7410024e-13 -5.1571765e-09 -4.9674426e-08 -5.967876e-08
1.4421583e-09 -8.260884e-08 -0.00027045066 7.2075528e-09 -0.0002158997 0.00017329806 9.919641e-05 5.8388686e-08
-4.765927e-05 -0.0007503568 -1.9584273e-05 -0.0009413699 1.3137134e-05 -4.651427e-12 0.0003767259 -0.000574158
2.4890678e-05 8.300943e-05 -4.1302865e-05 1.047235e-09 -8.490563e-13 -0.0003712923 4.566045e-05 5.486378e-07
-0.0003075806 -0.0012845255 -3.3155818e-09 0.00039572275 -1.2376147e-09 -1.4777538e-07 0.00037366778 1.0517304e-06
-5.769118e-06 -0.0011089884 -0.00028749014 0.0008545413 0.0003546651 0.00094174285 3.813646e-05 -0.0008056848
1.0502645e-05 -0.0005446309 2.5204872e-09 1.8682161e-07 0.00022366313 -3.255267e-06 0.00013257292 -0.00043428
-1.3260435e-05 1.6390388e-10 6.60975e-10 0.00019558505 -3.4100285e-08 -2.7314558e-05 0.0007570961 0.0010248938
0.00046487278 0.00038487345 4.082332e-07 -0.00018327637 -0.00026328568 -0.0010418181 -5.968693e-12 4.0005794e-08
-9.518952e-09 0.0016385745 0.001123015 -0.00014609974 -0.00022109864 -0.00029622062 -0.0015043115 0.00075926085
-0.00039262313 3.8965274e-05 -0.00037838845 0.0003509368 0.00065774244 0.00020329721 1.3769462e-10 -0.00038678222
0.00010342988 0.00027534558 -3.1646227e-06 6.8021234e-07 -2.0459017e-09 -5.5779615e-06 -3.8334267e-05 -0.00035544028
00000000: 8b03 1db8 e9ea a3b8 cf85 7434 4461 2735
00000010: 13f9 843a 5fc2 abba 6f63 99b0 d44c 4834
00000020: cad5 3f39 3107 c6b9 6f64 853a 81af 5cb1
00000030: 6842 be38 a85b 153a a1ca 1135 f78a 33b6
00000040: 3e69 cfb9 2751 9db9 853e 7737 aec3 39b8
00000050: 626e d0b7 df3b 3d35 7f18 eab5 b63f c135
00000060: 0f7f 753a 34c3 b3b9 4a62 2c3a 3055 3f39
00000070: 7351 173a 4be1 8a33 14bb 8139 4d08 f6b9
00000080: fa69 8438 d8e0 8c3a 83ff 1e3a 257b 9f38
00000090: cde3 59ab 0133 b1b1 9c59 55b3 bf28 80b3
000000a0: 6f35 c630 b166 b1b3 46cb 8db9 4ea6 f731
000000b0: 2263 62b9 58b7 3539 ab07 d038 0ac7 7a33
000000c0: c0e5 47b8 98b3 44ba e848 a4b7 44c6 76ba
000000d0: 9067 5c37 54a8 a3ac 4b83 c539 1783 16ba
000000e0: 53cc d037 5915 ae38 9d3c 2db8 4eee 8f30
000000f0: f4fc 6eab 02aa c2b9 8983 3f38 1a46 1335
00000100: c542 a1b9 865d a8ba 55d8 63b1 0279 cf39
00000110: b218 aab0 30ac 1eb4 d7e8 c339 2e29 8d35
00000120: 5994 c1b6 7a5b 91ba 46ba 96b9 4c03 603a
00000130: 58f2 b939 4bdf 763a b6f4 1f38 9734 53ba
00000140: 8434 3037 90c5 0eba e134 2d31 2299 4834
00000150: 1d87 6a39 1075 5ab6 4603 0b39 13b0 e3b9
00000160: 2279 5eb7 d736 342f fbaf 3530 f615 4d39
00000170: a975 12b3 9121 e5b7 dc77 463a bb55 863a
00000180: 2bba f339 d7c8 c939 252b db34 e02d 40b9
00000190: 9b09 8ab9 9d8d 88ba 3501 d2ac d6d2 2b33
000001a0: cb88 23b2 70c5 d63a 2132 933a 5a32 19b9
000001b0: b7d6 67b9 0f4e 9bb9 512c c5ba 2209 473a
000001c0: fcd8 cdb9 a56e 2338 7062 c6b9 f1fd b739
000001d0: 596c 2c3a 2e2c 5539 9765 172f 08c9 cab9
000001e0: 7ee8 d838 425c 9039 ce5f 54b6 d697 3635
000001f0: e297 0cb1 532a bbb6 1bc9 20b8 635a bab9

exp_avg_sq f4 [128]
6.5238474e-08 1.0383551e-07 1.1872324e-13 4.2815935e-13 8.0532317e-07 1.4041808e-06 4.946376e-18 2.2230995e-13
3.130624e-08 1.7334598e-07 1.0776474e-06 3.271934e-17 2.891153e-07 5.10311e-07 1.4537851e-12 1.5865618e-09
4.6246612e-07 3.1074566e-07 4.017489e-10 1.3499584e-07 6.6900596e-10 4.0401162e-13 5.198515e-11 4.3435122e-10
2.08302e-06 1.7530463e-06 1.1327882e-06 6.9885694e-08 1.4307716e-06 1.1927069e-14 6.8926134e-08 2.560149e-07
2.0262295e-08 2.6219527e-06 3.1042308e-07 4.9290254e-08 2.2738825e-24 1.6623985e-15 2.242221e-14 9.601378e-15
3.3468075e-18 1.0702074e-14 7.777348e-08 2.2957222e-17 3.8904753e-07 1.1847149e-07 1.3922309e-07 4.3091236e-14
7.608426e-09 1.1815597e-06 9.45683e-10 6.850999e-07 3.2202843e-10 2.6991147e-23 4.273201e-07 4.1090115e-07
9.129245e-10 2.7226872e-07 2.0091806e-09 1.5552614e-18 5.687109e-25 5.265952e-07 1.6833724e-08 1.2804191e-12
3.1466487e-07 2.9640144e-06 2.3909596e-17 2.5167057e-07 3.6067916e-18 3.290262e-14 1.9803642e-07 1.9234194e-11
1.0353957e-09 1.3227052e-06 2.2591688e-07 5.8862776e-07 2.0286173e-07 7.360321e-07 3.2457712e-07 7.40409e-07
1.9343799e-10 5.1123993e-07 6.1025047e-18 1.134841e-13 4.472616e-07 2.62177e-10 6.126218e-07 4.1258863e-07
3.0006939e-10 6.6456375e-20 1.2732303e-17 5.234095e-08 1.7265127e-14 2.1680975e-09 1.5195114e-06 9.330236e-07
1.0675212e-06 1.18712e-07 1.2613672e-13 3.38911e-07 1.5421826e-07 9.2107786e-07 6.948927e-20 8.001089e-15
7.129919e-16 2.778176e-06 1.0578733e-06 2.8395114e-08 1.1450684e-07 1.2535064e-07 1.7195241e-06 1.2238469e-06
3.8707321e-07 1.1709372e-09 1.7373165e-07 3.6150695e-07 3.4947274e-07 1.9717616e-07 2.4245554e-20 1.6157455e-07
2.8580924e-08 5.602231e-08 9.1954444e-11 1.4514711e-11 8.0589585e-18 5.962001e-11 1.0632777e-07 1.8796736e-07
00000000: 3b19 8c33 2dfc de33 a5ab 052a 4408 f12a
00000010: 632d 5835 4977 bc35 337d b622 7b4c 7a2a
00000020: 9375 0633 fb20 3a34 afa3 9035 2ee4 1624
00000030: b437 9b34 4efc 0835 219a cc2b 2e0e da30
00000040: dc48 f834 8fd4 a634 22dd dc2f 60f3 1034
00000050: 1ce5 3730 3670 e32a 13a2 642e 80c9 ee2f
00000060: 03ca 0b36 364a eb35 4e0a 9835 1114 9633
00000070: f008 c035 e6db 5628 8b04 9433 6c72 8934
00000080: 420d ae32 cef4 2f36 39a8 a634 35b3 5333
00000090: e2ee 2f18 ae93 ef26 19f6 c928 8af6 2c28
000000a0: 68f3 7622 9bca 4028 6c04 a733 35be d323
000000b0: 49de d034 646a fe33 5a7d 1534 d010 4229
000000c0: 36b6 0232 1596 9e35 43f9 8130 b5e7 3735
000000d0: 7909 b12f 6c85 021a 6d6a e534 d399 dc34
000000e0: 5af1 7a30 542c 9234 e111 0a31 1d84 e521
000000f0: eb01 3017 595b 0d35 c099 9032 f633 b42b
00000100: 36ef a834 61e9 4636 f086 dc23 571d 8734
00000110: 2f11 8522 232e 1429 d6a3 5434 8e2f a92d
00000120: bf4d 8e30 ce87 b135 8f93 7234 3102 1e35
00000130: 35d2 5934 be93 4535 8a41 ae34 85c0 4635
00000140: f4af 542f 243c 0935 8724 e122 218b ff29
00000150: 2b1f f034 2222 902f 0d73 2435 c081 dd34
00000160: 03f7 a42f 6aea 9c1f 9ade 6a23 7ccd 6033
00000170: ac82 9b28 93fd 1431 04f2 cb35 e574 7a35
00000180: c047 8f35 9dee fe33 6f04 0e2a 93f3 b534
00000190: 3197 2534 fd3f 7735 b013 a41f 8322 1028
000001a0: 8481 4d26 b370 3a36 40fc 8d35 84e9 f332
000001b0: cde6 f533 1f98 0634 66ca e635 0f43 a435
000001c0: f0ce cf34 b1ee a030 fe8a 3a34 2315 c234
000001d0: 2b9f bb34 5fb7 5334 27fe e41e 467d 2d34
000001e0: 1e82 f532 2e9d 7033 c035 ca2e 7258 7f2d
000001f0: 5ba9 1423 151b 832e 4f56 e433 13d4 4934
