mlagents/Assets/results/Laberynth1/RollerBall/RollerBall-57879.onnx (onnx, 108815 bytes, 7 tensors)

action_model._continuous_distribution.log_sigma f4 [1, 2]
000000 ae 3e 94 be 60 df 0b be
       -0.2895407 -0.1365943

action_model._continuous_distribution.mu.bias f4 [2]
000000 ee 10 86 bc c3 0f f9 39
       -0.016365495 0.00047504724

action_model._continuous_distribution.mu.weight f4 [2, 128]
000000 51 6a 95 3c 2d 4a a8 bb ef ee a8 3c ce f3 46 3d
       0.018239172 -0.0051357956 0.020621745 0.048572354
000010 ed 88 c0 3a fd 15 f5 ba 01 3c a7 3c d8 c4 22 bc
       0.0014689245 -0.001869857 0.020414354 -0.0099346265
000020 9a 92 40 3c c9 11 90 3c 68 95 e5 3b 5e 36 d9 3c
       0.011753703 0.017586606 0.007006336 0.026515182
000030 65 a0 e8 3c bf f9 6e 3a ed bc ca 3c 21 0f 86 3d
       0.028396795 0.00091161946 0.02474829 0.06545854
000040 d1 04 63 3c 03 d4 50 3d c2 0d ee 3c 22 33 c7 3c
       0.013856129 0.05098344 0.029059295 0.024316374
000050 74 ca 0e bc 55 ba 8a 39 ea 2d aa bc ee ab 0b bd
       -0.008715261 0.0002646024 -0.020773847 -0.03409951
000060 6b 8a 93 ba f2 c5 57 bd 12 aa 51 bc 9d d8 35 bc
       -0.0011256462 -0.05267901 -0.012796896 -0.011099008
000070 66 0f 9a 3b 58 78 8b 3d b6 25 0d 3d b8 df c6 3c
       0.0047015427 0.06810063 0.034459792 0.0242766
000080 99 76 7d bc 8d a1 fe ba 37 9a 3a 3d 4e 2a 14 3c
       -0.01547017 -0.0019426808 0.045557227 0.009043289
000090 ff cc d1 3c 99 88 f4 bc 45 a1 7f 3d 88 5c 80 3c
       0.025610445 -0.029850291 0.062409658 0.015669122
0000a0 92 fd 1b 3c ec e8 05 3d d8 45 96 3c eb 3c 4f bd
       0.009520905 0.032692835 0.018343851 -0.050595205
0000b0 a6 34 37 3d 01 6b 38 ba 92 bf 83 bc f8 c7 c0 3c
       0.044727944 -0.0007034988 -0.016082559 0.023532853
0000c0 43 f9 03 bd 38 47 63 3b 50 a0 df bc 30 f7 b2 3c
       -0.032220136 0.00346799 -0.027298123 0.021846384
0000d0 c9 ab ce bc a1 2e 23 3d 1e ee 3c 3c c9 69 f7 3b
       -0.025228398 0.03983939 0.011531381 0.0075504524
0000e0 a0 fa 4f 3b c4 01 59 3d 92 6e 5a 3d 76 0e 76 3c
       0.0031735078 0.0529802 0.053328104 0.015018096
0000f0 e5 df 9c bc 26 7e cf bc 91 c0 58 bc 83 7a 94 3b
       -0.01914973 -0.025328707 -0.013229505 0.004531206
000100 b1 e6 07 3d 1b e3 ca 3c 0b 7f a5 3b 00 06 b1 3d
       0.03317899 0.024766495 0.005050545 0.086437225
000110 f7 b8 c3 3c 57 1c 38 3d 4b 3d 36 bb d2 f6 85 3d
       0.023891909 0.044948902 -0.002780753 0.06541218
000120 6a bf 00 3d 56 56 fb 3a 7c 0a 62 3d 2e 9e 2f 3b
       0.031432547 0.001917551 0.05518578 0.0026797163
000130 52 d4 1e 3b 3a 20 88 3d 68 39 46 3b 7e 83 34 3d
       0.002423544 0.06646772 0.003024662 0.044070713
000140 f9 22 23 bd 45 b2 ed 3c 73 76 df 3b b1 b5 5b bc
       -0.039828274 0.02901567 0.00681954 -0.013410018
000150 98 e7 2e 3c b7 97 8d 3b df 20 b7 bb c4 85 4a bb
       0.010675333 0.0043210643 -0.0055886353 -0.0030902484
000160 a0 5f 2f 3d cd 13 ed 3c 7f 4d b7 bc dd 16 56 3b
       0.042815804 0.028940106 -0.02237582 0.0032667436
000170 9e da f9 3c f5 af 83 bb 95 42 21 3d f7 1b 86 b9
       0.030499753 -0.0040187784 0.03937014 -0.00025579307
000180 4c 0a 82 3c b5 3f 87 3c c0 93 c2 3c e2 f7 c3 3b
       0.01587405 0.01650987 0.023752093 0.0059804777
000190 03 58 46 3d fe 7f f9 3c a5 02 2a 3c 2d 69 03 bc
       0.04842378 0.03045654 0.010376607 -0.008020681
0001a0 02 31 f4 3b b0 b0 bb 3c 43 37 e5 3c 54 68 90 3b
       0.0074521312 0.0229114 0.027980452 0.004406968
0001b0 ec c1 77 bc bd 03 46 3c eb 19 55 39 6c e7 31 3c
       -0.015121918 0.012085852 0.00020322918 0.010858398
0001c0 57 0a d0 3c 58 94 a7 39 f5 ec b6 3c 52 fd 4c bc
       0.025395555 0.00031963247 0.022329787 -0.012511568
0001d0 15 4b 7b ba d5 39 8e 3d 70 67 8c 3c 98 0d 97 bb
       -0.0009586078 0.06944624 0.017139167 -0.004609775
0001e0 4c 0c 32 3b ba 1a cd bc 07 b3 56 3b 25 6d 81 3c
       0.0027167974 -0.025037158 0.0032760517 0.015799114
0001f0 f5 fd 1e 3d 91 3b 36 bd 0b 56 66 bb 3a 73 dd bc
       0.03881641 -0.0444904 -0.00351465 -0.027032483
000200 71 77 12 bd 8c 1b 8b bd 6e b1 2e 3c ad 48 60 bc
       -0.03575844 -0.067923635 0.01066242 -0.013689202
000210 32 70 1d 3c 07 c1 b7 bc 6b 05 aa bc 96 03 a8 bc
       0.009609269 -0.02243091 -0.020754537 -0.020509522
000220 63 ff 60 bb 72 0a 38 bd b4 93 27 bd 14 d0 da bc
       -0.003433191 -0.044931836 -0.040912345 -0.026710548
000230 69 24 95 3c be 3a c7 3b 90 14 96 3d fe 43 42 3d
       0.018205838 0.0060800007 0.07328141 0.047428124
000240 54 59 12 bc 42 90 84 39 25 35 40 3c 22 85 26 3d
       -0.00893243 0.00025284482 0.011731421 0.04065431
000250 b3 39 d1 3c df 79 23 bc 31 53 ed bb f3 15 a4 3c
       0.025540208 -0.009977787 -0.007242583 0.020029997
000260 c3 3d 0c 3d 79 4e 32 bd d6 6b 21 3d fb 58 8b 3c
       0.034238588 -0.04353187 0.03940948 0.017010203
000270 e8 1d b8 3c a0 57 1f bd 8a e9 72 bd 08 19 67 3d
       0.022475198 -0.038901925 -0.05930475 0.056420356
000280 79 28 1b 3c 91 7a f8 3b 02 b1 18 bd 7c 80 4f 3d
       0.009470099 0.0075829704 -0.037278183 0.05065964
000290 b3 56 31 3d 5c 1a 67 3d f8 d6 4c bd e9 b1 81 bc
       0.043295573 0.056421623 -0.050009698 -0.015831904
0002a0 c2 ec 5c 3b 7e 90 96 bc 79 30 9d bb f2 ff 82 3d
       0.0033710455 -0.018379446 -0.004797038 0.06396474
0002b0 0d db d9 bc 37 61 45 3d d1 0f a2 3c 44 cd 5f bc
       -0.02659371 0.048188414 0.019782932 -0.013659779
0002c0 fc f7 24 3d bc a8 08 bc f0 fb 25 3d 81 8b b7 bb
       0.04027556 -0.008341011 0.04052347 -0.005601347
0002d0 b5 5d 26 3d 3b a8 fb 3c 14 9f 0c bd 7b 94 30 bd
       0.04061671 0.030719867 -0.034331396 -0.043110352
0002e0 4e 83 39 3b d7 41 a8 3c 7c a4 72 3c 81 8b 89 bb
       0.0028307023 0.020539207 0.014809724 -0.0041975384
0002f0 41 f0 f0 bc 36 cb 46 3d 4b c4 1e 3d cb 72 54 bc
       -0.029411437 0.04853364 0.03876142 -0.012966822
000300 ee 42 c3 bc 43 36 71 3c 17 63 62 3b 34 31 c4 bb
       -0.023835625 0.01472241 0.0034543925 -0.005987311
000310 83 cb a9 bb 9b a7 8f bc 71 61 c5 3c 28 e2 a2 bc
       -0.005181731 -0.017535975 0.024094315 -0.01988323
000320 3d 82 26 bd 02 18 55 3c ae 5c 20 3b d0 ec 35 3b
       -0.04065155 0.013006212 0.0024469304 0.002775956
000330 10 12 4b bc 40 8d 41 bb 90 c4 ed ba 17 8c fe bc
       -0.012394443 -0.0029533654 -0.0018140245 -0.03107266
000340 40 4e 5d 3d 61 0b 50 3c dd 7f e7 bb 67 a9 59 bd
       0.054029703 0.012698025 -0.007064803 -0.05314007
000350 b6 9d 4b bc 35 8d ec 3b 4f de f9 3b e4 ed 4d 3c
       -0.012427738 0.0072189816 0.007625378 0.012568925
000360 0c 64 81 bd 0c df d9 bc f0 ba 09 3d 05 4f 08 bc
       -0.063179106 -0.026595615 0.033625543 -0.008319621
000370 71 0c 3d bd f2 ec 18 bb ef 7c 86 bd ac 82 e9 3b
       -0.046154443 -0.002333459 -0.06566798 0.007126173
000380 48 29 d4 3b 2d 41 59 3d de 9e 85 bc 08 e4 38 ba
       0.0064746477 0.053040672 -0.016311105 -0.0007053022
000390 cd cc 7e bc e8 6b 54 bc ec 05 12 3d 5b 79 22 3a
       -0.015551758 -0.01296518 0.03565018 0.0006197893
0003a0 f3 6d 38 bc 6f b0 a5 3c 5f c7 e2 3c a4 4e 05 bc
       -0.011256683 0.020225732 0.027682958 -0.008136425
0003b0 a1 3a 27 3d da be 23 3c 64 8c 2d 3a 86 fd 93 bc
       0.040827397 0.009994233 0.0006620346 -0.018065225
0003c0 36 46 25 3b d9 d0 2f 3d 66 36 fb 3c 7f be 88 3d
       0.002521885 0.042923782 0.030665588 0.06676959
0003d0 6e b9 1d 3c a6 ff 8b 3d 03 a0 3d bd b1 22 7d 3b
       0.009626729 0.068358704 -0.046295177 0.0038625414
0003e0 be c5 17 3c 31 88 1f bd 34 cb fe bc 0f 1f a6 3c
       0.009263454 -0.03894824 -0.031102754 0.020278482
0003f0 da a0 bb bc 71 31 bb bc e2 8f 83 bc 73 54 a7 3b
       -0.022903848 -0.022850724 -0.01605982 0.0051065027

network_body._body_endoder.seq_layers.0.bias f4 [128]
000000 17 9b 77 bc 0a 9d 97 3b 61 6b 52 bd 7f 6e a6 bc
       -0.01511266 0.004626875 -0.051371936 -0.02031636
000010 ee 29 6a 3b 5f ae 0a 3c ed ae af bc 83 06 04 bd
       0.0035730558 0.008464425 -0.021445716 -0.032232773
000020 27 6e 7d bd 9b 36 41 3c 9c 4c ce bc ce 67 32 bd
       -0.061872628 0.011792804 -0.025183015 -0.043556027
000030 cb 92 2d 3c 88 51 2c bc 3a 37 86 3b f1 42 da 3b
       0.01059408 -0.010517485 0.004095939 0.006660812
000040 a8 23 80 3b 6d 2e cb bc c5 14 fc bb db 72 8a bc
       0.0039105006 -0.024802411 -0.0076929056 -0.01690047
000050 c9 d0 53 bc 94 b7 8d bc 3f f2 25 bd c5 0d c7 bc
       -0.012928196 -0.017299451 -0.040514227 -0.024298558
000060 3d c3 fb bc 54 0f 86 3d 2b 81 08 3b b6 46 3d bc
       -0.030732745 0.06545892 0.0020828943 -0.011552503
000070 56 63 74 ba 87 8d 7d bb 96 6b e3 bc 3b 16 ea b8
       -0.00093226635 -0.0038689093 -0.027761262 -0.0001116213
000080 05 9c ce bc a0 4f 35 bb 73 6c 84 bc 78 06 e3 bb
       -0.02522088 -0.0027665868 -0.016164994 -0.0069282614
000090 95 4d 20 bd fa 2e d2 bc 4a 91 89 bb 2d a8 8c 3b
       -0.039136488 -0.025657166 -0.004198228 0.004292509
0000a0 f0 6c 31 3b fe 8f f0 bc 7f 71 0a bd 94 ce 0d bd
       0.0027072988 -0.029365536 -0.033799645 -0.034620836
0000b0 40 1f 2b bc 53 f6 c3 bc 4e e1 0b bc 3b 4a 38 bd
       -0.010444462 -0.023921167 -0.008537604 -0.044992667
0000c0 dc f6 2b bd a1 a3 82 bb 7f 64 9e bb 06 64 33 bd
       -0.04198347 -0.0039867912 -0.0048337574 -0.04379656
0000d0 63 21 89 bb 9f 92 a0 3a a1 20 bd bc 67 bf 32 bd
       -0.004184888 0.0012250728 -0.023086848 -0.043639567
0000e0 70 43 14 bd 60 05 11 bd 42 b5 36 bd 89 b1 e1 b8
       -0.036197126 -0.035405517 -0.044606455 -0.000107619046
0000f0 60 26 67 bd 3b 78 d0 bc a3 65 07 bd 5c 85 18 ba
       -0.05643308 -0.025447955 -0.033055913 -0.0005818212
000100 cd f8 e4 3b eb 1d ee 3c 9d bf cf 3c 47 23 07 bd
       0.006987667 0.029067 0.025359923 -0.032992627
000110 10 dd fd bb b4 4f 67 bd d2 0e 9e bc 59 ee b4 bc
       -0.0077473 -0.056472495 -0.019294176 -0.02208631
000120 f4 dd 3e 3d 9a cf 18 bb e8 13 30 bd 7e fa 8f bc
       0.04659839 -0.00233171 -0.042987734 -0.017575499
000130 6b c1 b4 3c 13 72 51 3c e6 69 3e 3b 30 2d 94 bc
       0.022064885 0.012783545 0.002905482 -0.018087953
000140 d8 30 cc bc 1f ec d4 bc 1e 8d e1 3c af 45 b6 3a
       -0.024925634 -0.025991498 0.02753311 0.0013906265
000150 6a 14 b8 bc d8 f5 2c bd 48 13 4c bd e9 11 03 bd
       -0.022470672 -0.042226642 -0.049823076 -0.031999502
000160 b5 da 15 3c 54 f7 3b bd 3a 7d 09 bd 06 82 3a bc
       0.009146382 -0.045890167 -0.03356669 -0.011383539
000170 0d d0 4a bd 9c ff 6c bb 7f d8 ff bc 2f 25 54 3c
       -0.04951482 -0.0036163097 -0.031231163 0.012948318
000180 bb 32 4c 3d 6f 47 70 bc 46 49 e5 3a ed 91 0f bc
       0.049853068 -0.014665469 0.0017493151 -0.008762819
000190 f7 bb 11 3c df 3e 12 3c 54 90 a0 bc d8 e4 2b bc
       0.008894912 0.008926122 -0.019600071 -0.010491572
0001a0 55 17 e6 bb 3e 14 f1 bc 64 89 cd bb 04 3c 2b 3c
       -0.0070218244 -0.029428598 -0.0062724818 0.010451321
0001b0 da 6f de bc 00 35 aa 3b 49 95 81 3c a2 94 01 bc
       -0.027152944 0.0051943064 0.015818255 -0.007908972
0001c0 96 55 3f 3d 34 b7 55 3b b3 85 a7 3c 3d 7f 89 3c
       0.04671248 0.0032610418 0.020449495 0.016784305
0001d0 d1 6b 2b bd d7 04 38 bd 07 59 0c bc a1 1b dc 3c
       -0.04185087 -0.04492649 -0.008566148 0.026868643
0001e0 83 71 76 bc 49 e2 1c bd 72 0d b3 bb 9f ac b5 bc
       -0.015041712 -0.03830174 -0.0054642493 -0.022177039
0001f0 cb e1 eb 3b a1 91 d3 bb 3c 76 20 bd 53 b2 34 bd
       0.0071985475 -0.0064565693 -0.039175257 -0.044115376

network_body._body_endoder.seq_layers.0.weight f4 [128, 77]
000000 c8 d5 44 be 66 fe f2 3a 38 4e 75 bc be a1 08 3d
       -0.19222176 0.0018538951 -0.014972262 0.033357374
000010 1a cc 3c 3d 4a ba 2e bd 85 bf f6 be 29 7f 13 be
       0.046093084 -0.042658128 -0.48192993 -0.14403977
000020 18 8a 40 3b b3 bb 25 3e 28 1f e0 3b 85 65 5e 3d
       0.0029379185 0.16184883 0.0068396516 0.054296035
000030 67 1a 2c 3d 17 0b c1 3d ef 85 54 bd 86 37 2c be
       0.042017367 0.09425943 -0.05188554 -0.16818056
000040 44 1b b9 3c 5b 3d ef 3c 5c 39 11 3e 3b aa 19 3c
       0.02259601 0.029204061 0.14182037 0.009378965
000050 7d b3 f4 bd ea 52 ae bc 35 c5 1f 3e 5a fa 8e 3d
       -0.11948297 -0.02127977 0.15602572 0.069813445
000060 33 d7 0c 3d 90 74 a1 bb 34 ab 95 bd 55 36 53 be
       0.034384917 -0.0049272254 -0.07308045 -0.20626195
000070 5a 22 dd bd 3a 8a cb 3d 2d 85 08 3c f2 24 61 3c
       -0.10797568 0.09938474 0.008332533 0.013741719
000080 c7 60 19 3e a3 7d 3e be bd 5e ba 3d 2d 9c c2 bc
       0.14978324 -0.18602614 0.09100101 -0.023756111
000090 bb 41 26 be 95 3b 35 be 4c 73 ab 3d 3b d1 e6 bb
       -0.16236012 -0.1769851 0.083716005 -0.007043985
0000a0 a3 a0 20 3e c2 17 b1 bd d7 c3 95 3d 1f 4a 72 3e
       0.15686278 -0.086471096 0.07312744 0.23661087
0000b0 95 72 86 bd 9b 8e cc 3d 0c 6e 3a be 05 10 19 3e
       -0.065648235 0.09988137 -0.18206042 0.14947517
0000c0 57 c1 5a 3d 0c 58 39 3e 12 b8 1e 3e 71 e3 c1 bc
       0.05340704 0.18099993 0.15499905 -0.023668023
0000d0 f5 7e d1 bd ed c2 00 3d 2f 4d 58 3c 52 48 1d be
       -0.10229293 0.031435896 0.013201996 -0.1535962
0000e0 2b e1 fa 3d 03 fd fe bc b6 a7 9e 3d 46 09 b7 bd
       0.12249979 -0.031126505 0.07746832 -0.08937316
0000f0 08 82 0a be d2 3a b7 bc 66 d8 89 bd 2c 3d 97 bc
       -0.13526165 -0.022366915 -0.06730728 -0.018461786
000100 19 b7 d1 bd 65 88 8b 3d 74 4d 37 bd 43 80 f1 3d
       -0.10240001 0.068131246 -0.0447516 0.11792042
000110 57 7d 24 3d a9 94 06 be 34 b0 04 be 66 66 98 be
       0.040158596 -0.13142647 -0.12957841 -0.29765624
000120 f1 f0 26 3e ca f9 ae bc f2 a0 7b 3c a8 20 18 be
       0.1630285 -0.021359343 0.015358197 -0.14856207
000130 ea 14 ec bb f2 c0 84 be c5 f4 ba 3d 48 1e 57 be
       -0.0072046416 -0.25928456 0.09128717 -0.21007645
000140 2d 98 27 3e 4f 12 3f 3c 12 33 8d be df f7 4b 3d
       0.16366644 0.01166208 -0.27578026 0.049796935
000150 0f 6b a3 be ee 32 45 bd bd 14 c2 bd e0 c8 98 3c
       -0.31917617 -0.048144273 -0.09476612 0.018650472
000160 8f ee 83 3d b3 4e 55 bd ba 6b 5d 3d 22 43 e6 3c
       0.06441986 -0.052077007 0.054057814 0.028108183
000170 0b ff eb 3d 00 84 c1 3e 83 6b 13 3d cd 4d d2 bd
       0.11523255 0.3779602 0.035991203 -0.102687456
000180 d9 4d 0f 3e 6a a5 44 3d 65 18 aa bd cc 6e 32 3d
       0.1399454 0.048009314 -0.08305434 0.043562695
000190 76 68 d6 3d c2 d9 63 3d fc f2 af 3a 14 e4 4c bd
       0.10469143 0.055627592 0.0013423855 -0.0500222
0001a0 18 4b 22 be 7d a9 a9 bd 4c 7c 23 bd 95 b3 f1 bd
       -0.15848958 -0.082842804 -0.03991346 -0.11801831
0001b0 d0 57 c6 be 7d 3c eb bd ba d5 d3 3d d0 bf b5 3b
       -0.3873887 -0.114861466 0.103434995 0.0055465475
0001c0 f2 21 79 bc bd e4 15 3e 48 fb df 3c 13 5c 71 be
       -0.015205847 0.14638038 0.0273415 -0.2357028
0001d0 49 29 3c 3d f3 8f d7 3d c1 6a 97 3d d1 15 93 be
       0.04593781 0.10525503 0.073934086 -0.28727582
0001e0 69 24 f5 bd 2d d3 04 3e b4 d1 2d 3e 05 e0 61 3e
       -0.11969835 0.12971182 0.16974527 0.22058113
0001f0 81 5c 0c 3e 08 23 10 3c d7 52 35 3e 46 13 8f be
       0.13707162 0.008797415 0.17707382 -0.27944392
000200 af ae 15 3d cc 7d 53 be 18 dd 04 3e dd 58 c0 3b
       0.036543544 -0.20653456 0.12974966 0.0058699683
000210 1b b7 33 bd a2 ea 52 3d 99 bb cf 3c 95 a7 3d be
       -0.043875795 0.051493295 0.025358008 -0.18520959
000220 42 b2 db 3d 9d 2e 93 bd bb 4e b7 bd 22 0e 1a be
       0.10727359 -0.07186625 -0.089505635 -0.15044454
000230 42 34 28 3e 6a f9 30 be 4a 0f 2f bd aa 40 a3 3d
       0.16426185 -0.17282644 -0.04273919 0.07971318
000240 30 68 e4 bd f2 0c 69 be 69 b7 66 3d ea 7d a7 bd
       -0.11152685 -0.22758844 0.056327257 -0.08178313
000250 7c eb 0b be 8c 7a e3 3d c3 c3 0e 3e 7f a1 14 bc
       -0.13664049 0.11107358 0.13941865 -0.009071707
000260 a0 ba 82 3c bb fd 72 bd a0 7d 63 bd 38 29 16 be
       0.01595813 -0.059324007 -0.055539727 -0.14664161
000270 ca c5 63 bd 49 27 e0 3c c4 b9 fd bd 19 2e ce bd
       -0.05560855 0.027362483 -0.123889476 -0.10067386
000280 b4 8b e2 bd 79 3a 0a 3d 1e a9 da bc 05 24 bd bd
       -0.110618025 0.03374717 -0.02669197 -0.09235386
000290 c2 ca 43 3d 2b af 8b 3d 26 49 40 be 05 c5 04 be
       0.047800787 0.0682052 -0.18777904 -0.12965782
0002a0 b6 f9 7f bc 55 cb e9 bd cd 49 91 3b db 5e 2d bd
       -0.015623501 -0.11415736 0.0044338466 -0.04232679
0002b0 23 71 0f be ae 17 a8 3d 34 24 1f bd 19 2a a0 bc
       -0.14008002 0.082076415 -0.038852885 -0.019551324
0002c0 4f 6d 14 be 4e bd 2b be 02 05 18 3a 7f 50 6b 3c
       -0.14494823 -0.16771433 0.0005799086 0.0143624535
0002d0 80 f9 95 bc a3 bf 34 3d 27 84 71 be 77 c5 c4 bd
       -0.018307447 0.04412807 -0.23585568 -0.09607976
0002e0 01 5b c2 bd b9 af bd bd 04 bc f7 3c 2d 88 87 3c
       -0.09490014 -0.09262032 0.03024102 0.016544426
0002f0 27 46 aa bd c2 4f 42 3e 2d 03 35 3e 8d 8e 47 bd
       -0.08314162 0.18975738 0.17676993 -0.04871993
000300 9f ac 7a 3d ac 5b ba 3d 95 9e 3e 3e df b2 fb 3b
       0.06119978 0.09099516 0.18615182 0.007681235
000310 02 d0 91 3d 3b 58 fa 3d 86 6b 5c bd eb 13 d2 bd
       0.071197525 0.1222386 -0.05381348 -0.10257705
000320 ef 62 46 3e fd f0 3e be ba be 8e 3d 11 cd 01 bd
       0.19373678 -0.18646617 0.06969972 -0.031689707
000330 ef 62 57 bd d9 38 c0 3d fa 5c fe 3d 1b ab 3d bc
       -0.052584585 0.09385843 0.124200776 -0.011576439
000340 29 5f 57 bd a1 5b 42 bc a8 51 4c bd 7a 9f 86 3e
       -0.052580986 -0.011862666 -0.04988256 0.26293546
000350 20 2d 76 3e 42 61 87 3e 92 58 fb bc 4d e5 86 3d
       0.24040651 0.2644139 -0.030681882 0.065867044
000360 26 36 bb 3d c9 91 ca bd ff ef 08 3d 00 8d 56 3c
       0.09141187 -0.098910876 0.033432003 0.01309514
000370 32 06 4d 3d 63 3b 72 be b3 b7 1e bd ac 84 a4 bd
       0.050054736 -0.23655467 -0.038749408 -0.08033118
000380 f9 62 19 bc ae 35 9e ba bc f1 47 bd 56 76 45 3c
       -0.009361976 -0.0012070441 -0.04881452 0.012052139
000390 bb dd a7 bc f3 69 4d 3d da 85 2c 3b 79 e2 39 bc
       -0.020491472 0.05014987 0.00263249 -0.011345499
0003a0 ec ab c8 bd 57 2b 0b 3e d0 f3 44 bd ba e4 5c be
       -0.097984165 0.13590752 -0.04808408 -0.21571627
0003b0 cc 4b c9 3d 8c 7b c7 bc 9a b4 7a 3e 8e d1 18 39
       0.0982891 -0.024350904 0.24482957 0.00014573915
0003c0 1f 1f 46 bb af 9a 26 3b 91 f2 00 3e 03 ae c4 bd
       -0.0030230952 0.0025421788 0.12592532 -0.096035026
0003d0 9c d6 21 bd b1 72 0f 3e 81 a9 dc bd a2 ac b1 3d
       -0.039511308 0.14008595 -0.10774518 0.08675505
0003e0 e9 34 41 3e df 07 96 bd 08 7c 35 bc 72 47 17 be
       0.1886784 -0.0732572 -0.011076935 -0.14773348
0003f0 18 e6 50 be e6 94 32 bc 94 03 28 3d fe fa b6 bd
       -0.20400274 -0.010899758 0.041019037 -0.08934592

network_body._body_endoder.seq_layers.2.bias f4 [128]
000000 64 25 f3 3a d0 c0 cc 3b d4 6d 88 bb 85 d5 51 bb
       0.0018550572 0.006248571 -0.004163483 -0.0032018137
000010 5f 7e 29 3b c8 95 0d bc 54 49 13 bd 8b 93 10 bd
       0.0025862677 -0.008641668 -0.035958603 -0.035296958
000020 fc a3 3d bc b5 f2 36 3a c2 81 cb bc 10 74 86 bc
       -0.011574741 0.0006978915 -0.024842147 -0.016412765
000030 e8 b6 eb bc 88 1b 71 bd 49 2c c7 3c cd 3e 2c 3d
       -0.02877374 -0.058864146 0.024313109 0.04205208
000040 29 69 56 bd 10 2f 95 bb 8b 4a 67 bc c3 ed 02 bb
       -0.052346382 -0.0045527294 -0.0141168935 -0.0019978143
000050 47 fb e3 bb 61 52 71 bd 08 9e 23 bd 88 b8 ac bc
       -0.006957445 -0.058916453 -0.039945632 -0.021084085
000060 c8 16 9e bc a3 ac b9 bc 9c 95 e9 3b 43 8c 42 bd
       -0.019297972 -0.022665327 0.0071284305 -0.047497045
000070 b9 88 bb bc 17 7f 85 3c 12 e5 6e bb f7 13 15 bc
       -0.022892343 0.016295953 -0.0036452455 -0.009098998
000080 9c f2 09 bc 4f 3d 89 bd a1 be 4f bc ed 02 51 b9
       -0.008419659 -0.06701147 -0.012679727 -0.00019932883
000090 34 5f e6 3b d5 4a 38 bc 94 56 4f 3b 8c 15 02 bd
       0.007030392 -0.01124831 0.0031637298 -0.03175883
0000a0 80 98 25 bc 62 52 27 bd 41 e9 3d bd 1e 6d a9 3b
       -0.01010716 -0.04085005 -0.046365026 0.0051704785
0000b0 72 62 83 bc f4 70 a5 bc 72 5e 0e bd 3d f2 f7 bc
       -0.016038153 -0.020195462 -0.03475804 -0.030266875
0000c0 54 84 0c bc 46 a1 5d bd 79 cd 08 bb 6c 6a f6 bb
       -0.008576471 -0.05410888 -0.0020874424 -0.0075200107
0000d0 d7 22 27 3b 97 9f 88 bc 11 8c e7 bc c2 c7 3c 3c
       0.0025502944 -0.01667766 -0.028265031 0.011522235
0000e0 8c 14 f8 bb 23 96 50 bc 30 f6 8d 3a 29 31 f1 bc
       -0.0075708088 -0.012731108 0.0010830816 -0.029442387
0000f0 d0 bc 1a bc f4 a6 9c bc a6 60 62 bc 7c 9e e9 bc
       -0.0094444305 -0.019122578 -0.013816988 -0.028517954
000100 d1 39 df bc 7e 1e 7d bc 09 1a 44 bc 51 ca 55 bc
       -0.027249249 -0.015449164 -0.011969098 -0.013048724
000110 60 2a 37 bc 7a ec ca ba b0 06 e2 bb 30 98 d5 3b
       -0.011179537 -0.0015481852 -0.00689777 0.0065183863
000120 8e f9 82 bb 34 bf b4 bb b6 4d 22 3c ff 51 a7 bd
       -0.0039970344 -0.0055159573 0.009906223 -0.081699364
000130 45 b8 a3 bc bf e7 92 bb 18 21 2b bd b4 65 ab 3c
       -0.019985327 -0.0044831927 -0.041779608 0.02092252
000140 2b 38 68 3a 0c 38 cb bc 93 31 8a bc 8b 2c c2 3a
       0.00088584673 -0.024806999 -0.016869342 0.00148143
000150 ae 78 f7 bc bf c7 6f bd a1 9c dc bc d5 38 8c bd
       -0.030208912 -0.058540102 -0.026930155 -0.06846777
000160 51 4d 9c bc 23 d0 5d 3c 82 06 f1 bb 1f 2f 89 bd
       -0.019079836 0.013538393 -0.007355512 -0.06698441
000170 40 04 d9 bc 44 41 6a bd 63 16 d6 3b b8 ab 5b bd
       -0.026491284 -0.05719115 0.0065334304 -0.05363056
000180 a5 d3 45 bd fc d9 4b bc 45 34 86 bc 9e a7 5b bc
       -0.048297543 -0.012442108 -0.016382346 -0.013406662
000190 8a 53 b1 bc 29 df b5 bc 12 16 e3 bc 5f 9a 4b bd
       -0.02164628 -0.022201138 -0.027720485 -0.049707767
0001a0 f6 4b 36 bd ce 26 cc bb 39 0a 68 ba 1b 42 64 bd
       -0.044506036 -0.006230212 -0.0008851621 -0.055727106
0001b0 ec 76 49 bc f0 4b 18 bd 41 4e 86 bd 73 a7 45 bd
       -0.01229642 -0.037181795 -0.065578945 -0.048255395
0001c0 bb 88 27 bd 67 46 42 bb 55 7b 6e bc 83 32 ad 3b
       -0.04090188 -0.0029644014 -0.014555772 0.0052855625
0001d0 32 01 aa bd bc 5f 19 3d 63 95 f3 bb 17 05 c7 bc
       -0.08301009 0.037444815 -0.00743358 -0.02429442
0001e0 e6 a9 90 bd 34 2e 81 bc 5f 28 e0 b9 c8 99 2d bc
       -0.070636556 -0.015769102 -0.00042754688 -0.010595746
0001f0 ae 87 1a bb ba 2b c3 bb d7 a0 60 bc dc d4 ab 3a
       -0.0023579407 -0.0059561403 -0.013710222 0.0013109702

network_body._body_endoder.seq_layers.2.weight f4 [128, 128]
000000 cc 42 83 3d a6 e6 18 3d 73 8d 93 bd 96 91 ab 3d
       0.06409225 0.03732934 -0.07204714 0.08377378
000010 45 df 03 3e fe b4 27 be 5c 0d e0 3c 37 55 58 bc
       0.1287814 -0.16377637 0.02735012 -0.013203911
000020 d9 2f 5a 3c 4e d2 9a 3d 69 34 05 3d 5a ec da bd
       0.013317072 0.07559644 0.032520685 -0.10689612
000030 72 66 fa 3d 12 60 ec 3d 13 09 de 3c 4a fa 95 bd
       0.12226571 0.115417615 0.027103936 -0.073231295
000040 39 68 87 bd 32 61 86 3d f0 a0 4e 3d 00 31 50 be
       -0.06611676 0.06561507 0.05044645 -0.20331192
000050 d5 9b 90 3d f6 4f 94 3d ea 79 99 3c b6 d8 0d be
       0.070609726 0.07241814 0.018734891 -0.138522
000060 28 9e eb bb 74 08 f5 3d 6d da 39 be 47 f3 3c 3d
       -0.0071904846 0.11964503 -0.18149729 0.046130445
000070 13 0b 9f bd 37 54 b1 3c 54 f3 98 bd 35 df 92 be
       -0.07765784 0.021646602 -0.07468286 -0.28685918
000080 5b c0 ab 3c 96 4f 16 bb 6f 69 83 bd 00 3f 0c bd
       0.020965746 -0.002293562 -0.06416594 -0.03423977
000090 70 dc 65 3c e6 68 fe 3c ba 2e 5c 3d 34 f8 4a be
       0.014029607 0.031055879 0.0537555 -0.19821244
0000a0 5a a7 dc 3d 00 a3 82 bd a0 24 a0 bb 8d a3 5d be
       0.10774107 -0.06378746 -0.0048871785 -0.21644421
0000b0 b8 ad c1 3d aa 63 e7 bd 4b 3e b6 bd 73 21 a2 3d
       0.09456962 -0.11298306 -0.088986 0.07916536
0000c0 e0 3e bb 3d 92 7d 6e bd 65 a1 a4 bd 4d 71 86 bd
       0.09142852 -0.058225222 -0.08038596 -0.06564579
0000d0 2d 68 8a bd c8 ea c2 bd 6d ce 7e 3d d2 58 be 3d
       -0.06758151 -0.09517437 0.06220858 0.09294285
0000e0 ee 9e 2a 3d 37 1e a3 3d 92 6d b5 ba b8 c5 c7 3d
       0.041655473 0.079647474 -0.0013841859 0.09754509
0000f0 d8 af b7 3d 2d 19 35 3c 10 0d 9d 3d ee f5 2c bd
       0.089690864 0.011053366 0.07668507 -0.042226724
000100 6e 56 35 bd 8d ac ec bc 96 98 2d 3e 9d b6 b2 bd
       -0.04427188 -0.028890872 0.16952738 -0.08726237
000110 fb fc 36 3e d7 1b 00 3d 14 f1 98 bd 70 42 7a bb
       0.17869942 0.03127655 -0.07467857 -0.0038186572
000120 b5 e4 a5 bd 7e b9 04 be 69 ff b6 bd b3 a6 81 3e
       -0.08100263 -0.12961385 -0.08935434 0.25322494
000130 25 01 22 3e 2e a4 82 bd 55 2f d5 3b 4e 2a 6a 3d
       0.15820749 -0.06378971 0.0065058866 0.05716925
000140 72 8c 30 be d1 7d c7 3c 0d 9d f0 3c 46 16 37 3e
       -0.17241076 0.024351986 0.029371763 0.1787959
000150 cb e3 02 3c 5f 6c c2 3d 39 95 dc bd 52 a6 aa bd
       0.00798888 0.094933264 -0.107706495 -0.08332504
000160 e0 5c 5a bd c9 29 5e 3c 5b 9e 9e bd 49 55 22 3d
       -0.05331123 0.013559767 -0.07745048 0.039632116
000170 ea a9 eb 3d ff 37 52 bd f3 92 1b 3e 33 9e 6c 3e
       0.11507018 -0.051322933 0.15192775 0.23107223
000180 78 7b 07 3e bf 9b 59 3c 0b 8a 5f bd 3f d3 a2 3c
       0.13230693 0.013281762 -0.054575007 0.01987612
000190 f5 8b 51 bd 0a 97 d4 bd 3f ae 07 be 1e 34 4d bc
       -0.051158864 -0.10380371 -0.13250063 -0.012524633
0001a0 93 6b f2 3b 56 07 db bd c7 83 98 3d 4a 62 36 bd
       0.0073980778 -0.106947586 0.074470095 -0.04452733
0001b0 a5 76 04 bd e5 24 5d bc a2 09 6a 3d 06 ed ba bb
       -0.03233971 -0.013497566 0.057138093 -0.005704525
0001c0 4b 2b de 3d 68 2f 34 be c2 e3 50 3e 7c c3 66 3c
       0.10848101 -0.17596209 0.20399383 0.014084693
0001d0 19 66 c0 bc 42 95 7a bd 1c 83 1d be 13 e9 00 be
       -0.023486184 -0.0611775 -0.15382046 -0.12588911
0001e0 dd 23 bc bd 06 c6 03 be 6d 4e 65 be 0d f9 6d bd
       -0.09186528 -0.12868509 -0.22393198 -0.05809884
0001f0 30 30 0e bb 6a ce 3e 3c be 22 34 3d 8d 2e c3 bc
       -0.0021696202 0.011645893 0.043978445 -0.023825908
000200 8f c9 30 bd c0 c4 1a be 08 1b a8 bb ed 56 d5 3d
       -0.04316097 -0.15114117 -0.0051301755 0.104169704
000210 08 8b 4d 3d 51 ec c6 bd 14 86 13 bd eb 3c 3f be
       0.05018142 -0.097130425 -0.03601654 -0.18675582
000220 d8 ac 40 3d 7e 57 f4 bd b3 98 39 3d 18 47 41 bd
       0.047039837 -0.1193075 0.04531164 -0.04718694
000230 a1 04 8c 3c f4 fb d3 3a 8a 36 5e be 55 9b 4f be
       0.017092051 0.001617311 -0.21700493 -0.20274098
000240 e1 18 66 bd 09 23 00 be fb 85 6a bb 75 75 53 3d
       -0.05617607 -0.12513365 -0.0035785425 0.051625688
000250 e6 89 ea 3c d5 76 c4 bd e9 28 02 bd 42 d0 87 bd
       0.028630208 -0.09592978 -0.031777296 -0.06631519
000260 76 62 90 bd 2f 64 20 3c 7d 00 a4 3d 89 8c 8d 3c
       -0.0705003 0.009789511 0.08007906 0.017278926
000270 e7 e8 f0 3c 12 82 0c 3e 78 c1 90 3d b0 0f dd bd
       0.029407931 0.13721493 0.07068151 -0.10794008
000280 25 bc 9f 3c 44 13 be bd e1 2d c7 3d fd 80 7e 3d
       0.019498894 -0.092810184 0.097255476 0.06213473
000290 bd e1 b3 3d 05 c3 f5 bd a3 9d 95 bd 0e 6c f8 3d
       0.087832905 -0.12000088 -0.073054574 0.12129985
0002a0 c5 17 8c bd a8 a3 5b be 6c c9 1c 3e 19 1e bc 3d
       -0.06840471 -0.21449149 0.15311211 0.09185428
0002b0 e1 30 b9 bc e0 f7 4f bb 05 10 1d 3e 3b 00 25 3c
       -0.022606315 -0.0031733438 0.15338142 0.010070856
0002c0 96 e6 c2 3d 1e 34 aa 3d b7 68 c9 3d 0b c2 14 3c
       0.09516637 0.08310722 0.09834426 0.009079467
0002d0 48 52 a1 bc d3 1f ad 3d 89 05 8d bc c5 39 f2 3c
       -0.019692555 0.084533356 -0.017214553 0.029568562
0002e0 ce 38 10 3c f1 e1 10 be 1c a7 a8 3c e6 ad 3d 3d
       0.008802606 -0.1414869 0.020587496 0.04630842
0002f0 99 96 74 ba 6f b0 c8 3c 23 8c 83 3d 5b 4f 31 be
       -0.0009330302 0.024498193 0.06423213 -0.17315428
000300 ba 76 09 bd bf 2f 12 bc e1 f7 3d 3b 29 46 9c 3d
       -0.033560492 -0.008922516 0.0028986859 0.076305695
000310 be 19 5e 3e 6f cd 76 bd 76 73 02 3d 7f e7 65 3d
       0.21689507 -0.06025451 0.031848393 0.056128975
000320 1b 28 14 3e ed 8d a2 3c 37 a6 b5 bd f4 95 b5 bd
       0.14468424 0.019843066 -0.088695936 -0.08866492
000330 aa 94 3f 3d 24 ec 4e 3c 1d e2 18 be 2e f1 b2 bd
       0.046772636 0.0126295425 -0.14930005 -0.087374076
000340 c9 e3 a3 3d 73 24 8a bd 66 2f 71 3e 2a 78 70 3e
       0.08002431 -0.067452334 0.23553237 0.23483339
000350 9d 60 4e 3e b8 3e e2 bd e2 03 28 be d0 53 1f 3d
       0.20154043 -0.11047119 -0.16407731 0.03889829
000360 a2 2f 4b bd 52 df a0 bc d7 a2 64 bd 8c 52 0b bd
       -0.049605973 -0.019637737 -0.05581936 -0.03401427
000370 56 8c c5 bc ed b9 8e 3d d6 ef c5 bb 0a 9f 95 bd
       -0.024114769 0.06969056 -0.0060405536 -0.07305725
000380 2a dd 25 3e 67 16 40 bd d4 a5 97 be 0c dc af bd
       0.16197649 -0.046896365 -0.29618704 -0.085868925
000390 6f 95 d5 bd ee 63 7d 3d 95 e5 ff bd ee 14 49 3c
       -0.10428893 0.06186288 -0.12494961 0.012273056
0003a0 c9 cf bd 3d 2c 07 af 3b d4 99 62 bd 88 fb cc 3c
       0.092681475 0.005341431 -0.055322483 0.025022283
0003b0 03 2b 90 bc a2 c6 09 be 33 b5 e2 bd 25 cb 42 be
       -0.017598635 -0.13454679 -0.11069717 -0.19022806
0003c0 fa 00 1c be 65 6f 93 3d d3 5c 01 bd 6a ab 46 be
       -0.15234748 0.07198981 -0.031582665 -0.19401327
0003d0 fa 56 27 be 7c 54 11 be 53 24 d2 3b ca ef 47 3d
       -0.16341773 -0.14192384 0.0064130216 0.048812665
0003e0 05 95 ee bd 4e 7d 15 be 01 36 49 3d 0b 80 96 3d
       -0.11649517 -0.14598581 0.049123768 0.07348641
0003f0 87 eb 21 3e 06 9d f2 bd bc 7d 07 be fb 88 5f 3d
       0.15812503 -0.11846356 -0.13231558 0.054573994
