mlagents/Assets/results/Laberynth1/RollerBall/RollerBall-500028.onnx (onnx, 108815 bytes, 7 tensors)

action_model._continuous_distribution.log_sigma f4 [1, 2]
00000000: 7934 65bf f441 15bf
-0.8953319 -0.5830376

action_model._continuous_distribution.mu.bias f4 [2]
00000000: 0513 e7bc 3eff 763a
-0.028207311 0.00094221893

action_model._continuous_distribution.mu.weight f4 [2, 128]
00000000: 64ae 6d3d 8eb1 343b c47d be3b e49a 223c
00000010: 3561 9f3d 78bd b73a 8dc4 9abb 1839 3a3c
00000020: 2087 563d 9c8b fcbb 76c4 d9bc 7597 043b
00000030: b943 c63c 90f7 f03c f9ae f4bb 119f f33c
00000040: f8cd 1abc 2a33 5d3d 7ee5 6fbc d81a 983c
00000050: 03a0 82bb 6ebc bf3d 50a6 87bc d609 163d
00000060: 4fdf 3ebd 81ff 703c f3f1 073d 5a57 823c
00000070: 2aab 593c d0de f4bb 65b4 413d b1b2 6a3d
00000080: 04bb 33bc 9459 35bd b2f5 133d 1b29 893c
00000090: 158e 883d 8e33 fcbc 8105 f83c 9060 98bc
000000a0: 60eb bd3c 14b7 d33c 40ab 0c3d d399 2d3d
000000b0: 5b7b 553d 8760 873d 8229 e53b 6a3e 903c
000000c0: 698e 613d 5055 773c 0a7c 593d 0153 debc
000000d0: cf3f 533d 7e78 4f3a 73f2 e63b 74a1 3a3c
000000e0: f5ce 563b ae80 813c 5c94 813d afae 073d
000000f0: 4ed0 123c 7a85 6e3d 5ac2 143d 46eb 273d
00000100: 54a9 f2bc 595c d73c e188 033b d7ad 873c
00000110: d5f2 193d ab84 453d 0f16 23bb 448d a13d
00000120: a688 15bd a1e2 d63b acc9 003d c665 963d
00000130: 64aa 06bd d4f9 96bb 9cdc 15bd 01e9 a63c
00000140: 921d b0bb 0355 253c c5e5 763d c262 dd3d
00000150: 71b6 143c da8a 723d 6f8e 503d 0ccf a93b
00000160: 14bc 913c 9fe0 34bd 8689 3b3c 24f2 fcbb
00000170: 870d e23c a9fe 0a3d 2f58 5f3c c4ce d23c
00000180: 45d3 61bd 4697 78bc 9208 293d c434 223c
00000190: e03c 713c 3539 04bc c7d4 2b3c b72e b73c
000001a0: 75e4 f83c 74cc 623b 856e 2f3d 5afa c73c
000001b0: ad28 173d 3e1e 5f3c 68ab f13b a4ee 863c
000001c0: e658 48bd a274 ad3c 0ad9 263d 9f78 023c
000001d0: 3eb2 2c3d 149a 563d 4954 683d e527 2d3d
000001e0: dd71 c2bc df30 5dbb 3f21 9bbd bc6a c03d
000001f0: e29c b73d b636 0c3c 1148 0e3c 8b07 023d
00000200: 4c62 703d 78fa a43d 48ba 5ebc 2d37 d63b
00000210: 5f61 52bd 1f95 a5bb 7616 8d3d 2f21 8b3c
00000220: f622 2a3d aa16 923b 0736 88bd a431 903d
00000230: f3ce fb3c 8825 3c3c 720d cbbc 0e26 103d
00000240: 7e9e 193c 8d09 4d3d 85f6 8d3d 003b e53c
00000250: 3165 81bb f188 5c3d e937 4cbd 3083 6b3c
00000260: deb8 9b3d cb81 9d3d fc80 0f3a bb7c 90bd
00000270: 4be9 1f3c 4f95 ab3d 3901 cd3c ce9c 3bbc
00000280: 013c 413c 56f0 59bc 6458 c1bb 404c af3c
00000290: 366a 1dbb 0fd7 883c 345c c43b 38c3 e63d
000002a0: 7dd1 6c3d de08 0e3d a1d4 babb c8b4 1cba
000002b0: 807e b3bc cd45 673d 2c5d 90bb 986c 143b
000002c0: f5a6 6c3d 0b5c 303d 9643 21bc b1cd 223d
000002d0: de5f 093d 830f 043d c928 1d3c f9db 993c
000002e0: f061 97bc 0d5b afbd 2662 20bd 1b05 89bb
000002f0: 4e46 1e3d 17c1 1cbd d729 20bd e2dc 56bc
00000300: de3a 8d3c abbd 5fbd 188b e33b 3158 23bd
00000310: 01a6 953d e04d 61bc 5f46 093c e57e d53c
00000320: c03d c83d decd afb8 4356 123c 3c8e b5bd
00000330: 070f ee3d 09a0 f33c ce39 19bd 6a3c 963d
00000340: ee09 2d3c effb 8f3a aa8a 85bc b6bf 15bd
00000350: 614e 6ebc 5899 20bd 62f6 ac3d e8d2 263d
00000360: 4f12 643d d5ff 073d fe68 b93c f859 963d
00000370: de2e 2b3d a6cc ca3b d45b 323c 25a5 423d
00000380: e10e 9c3d 39d6 7bbc f6b2 f43c e649 97bc
00000390: ef1e 193d d722 e9bb 5b81 143c f4e7 603c
000003a0: c1c8 8d3d 1c0c 3b3d 2f5b 533d 7b00 fd3c
000003b0: 2f2d 09bc 33a1 eabb 40a4 793c 861f c53c
000003c0: eb65 ad3d a5b7 8c3d d4b4 153d ebf2 0a3d
000003d0: 18b2 953c 3a78 943c 75bf f63b 558e 993c
000003e0: fda5 ae3d 17e9 433c 0f25 e2bc 3220 c3bc
000003f0: 619c 4fbc eb06 0f3c 603f 673d 96a7 023d
0.05802764 0.002757165 0.0058133323 0.009924624 0.07782213 0.0014018258 -0.0047231377 0.011366151
0.05237496 -0.0077070724 -0.026582938 0.0020231877 0.024202215 0.029414922 -0.0074671474 0.029738935
-0.009448521 0.054003872 -0.014642118 0.018567488 -0.00398636 0.09362112 -0.016558796 0.036630474
-0.046599682 0.014709354 0.033189725 0.015910793 0.013285438 -0.0074728504 0.04729118 0.05729932
-0.010969881 -0.04427488 0.036122985 0.016743233 0.06667725 -0.030786302 0.030276062 -0.018600732
0.023183525 0.025844134 0.034343004 0.042383026 0.052119594 0.06610208 0.0069934735 0.017607886
0.055067454 0.015096024 0.05309681 -0.027139189 0.051574524 0.0007914378 0.007047945 0.0113910325
0.0032777165 0.01580843 0.063271254 0.033125576 0.0089607965 0.058232762 0.03631816 0.04099586
-0.029621758 0.026289152 0.00200706 0.016562385 0.0375851 0.048222225 -0.0024884974 0.078882724
-0.03650727 0.006557778 0.03144233 0.073436305 -0.03287734 -0.0046074186 -0.036587343 0.020374777
-0.005374619 0.010091069 0.06027772 0.10809852 0.009076701 0.05921445 0.050917085 0.0051821526
0.017789878 -0.044159528 0.011446362 -0.007719295 0.027594341 0.03393427 0.013631864 0.02573336
-0.055133123 -0.015172785 0.04126794 0.009900276 0.014723986 -0.00807028 0.010487742 0.022361143
0.030382374 0.0034606727 0.04283001 0.02441137 0.036904026 0.01361805 0.0073751695 0.016471215
-0.048912905 0.021173779 0.04073433 0.007963329 0.042162172 0.052393034 0.056721006 0.042274375
-0.023735935 -0.0033751053 -0.075747006 0.09395358 0.0896547 0.008557966 0.008684174 0.031745475
0.058687493 0.080555856 -0.013594218 0.006537339 -0.05136239 -0.005053177 0.0688905 0.016983597
0.041537248 0.004458268 -0.0665093 0.07040718 0.03073833 0.0114835575 -0.024786685 0.03519254
0.009376166 0.050057936 0.069317855 0.027982235 -0.0039488305 0.053841535 -0.049858008 0.014374539
0.0760362 0.07690772 0.0005474237 -0.070550404 0.009760211 0.08378088 0.025024997 -0.011450959
0.011794091 -0.013301929 -0.0059004296 0.021398664 -0.0024019605 0.01670411 0.005992437 0.11267704
0.05781697 0.034676425 -0.005701617 -0.0005977866 -0.021910906 0.05646305 -0.004405638 0.0022647735
0.05777641 0.04305653 -0.009842774 0.039746944 0.03353869 0.032241356 0.0095922435 0.018781649
-0.018479317 -0.085622884 -0.0391561 -0.004181517 0.038641267 -0.038270082 -0.0391024 -0.013114186
0.017239984 -0.05462424 0.0069440715 -0.039879028 0.07307053 -0.013751477 0.008378594 0.026061485
0.09777403 -8.382996e-05 0.008931699 -0.0886502 0.1162396 0.029739397 -0.037408642 0.07335742
0.010561449 0.0010985116 -0.016301472 -0.036559783 -0.014545054 -0.03920874 0.08445431 0.04072848
0.055681523 0.033202965 0.022633072 0.07341379 0.041792743 0.006188947 0.010886151 0.047520775
0.076200254 -0.015370899 0.029870491 -0.018467855 0.037383016 -0.007114749 0.009064044 0.013727177
0.069230564 0.045665845 0.05160063 0.030884018 -0.008372589 -0.0071603297 0.015236914 0.024062883
0.08466705 0.06870965 0.036549404 0.03392307 0.018273398 0.018123735 0.0075301477 0.018744627
0.085277535 0.011957428 -0.027605562 -0.023819063 -0.012671561 0.008729677 0.056456923 0.031898104

network_body._body_endoder.seq_layers.0.bias f4 [128]
00000000: ec37 0e35 b551 99bc c003 22bc 7a1c f7bb
00000010: fc4e 15bd e384 87bc b062 71bc 5998 99bc
00000020: fbcb 603c 9d28 e1bb ee89 1dbd c24b 0dbd
00000030: 213f a8bc 9614 66bc 6455 73bc 162e 0bbb
00000040: 09e7 04bc 49ef 26bd 324d 94bb 06e8 b7bc
00000050: 94fb 94bc 60d0 04bb f9a6 44bc c88c cebc
00000060: ed1f c9bc 8bab 35bd 4f5a 2dbb ddfa 15b9
00000070: d429 30bc 8ab4 f8bb 9ff5 4cbb 0de9 6bbc
00000080: 7b1a 4ebc 11e3 5fbc 29c3 a7bc bfe5 fab9
00000090: 730a 413b 356e e7bc 91b4 42bc 88ca 13bd
000000a0: 6592 07bd f4ca 9abc f1d7 30bd dca9 21bd
000000b0: 1287 e1bc bad0 86bc f38c b9ba 79dd 20bd
000000c0: c696 d9bc 6542 70bc 55e8 c2ba 85dc 53bd
000000d0: 9b74 8ebb 7b0b 5f3a c597 06bd 93fb 59bb
000000e0: 0a22 06bd 3f4e 00bd 89b3 a6bb 6bc6 d9b9
000000f0: 2a4d a9bc 61a1 1cbd ce4f 24bd 777c 9fbc
00000100: a05b 01bd 7c80 f7bb d56e 16bb 3fcb f5bb
00000110: 55ed 07b7 1cbe 6bbc 60a7 47bd 9322 3bbc
00000120: d0f7 2cbc c524 12bd 8189 2bbb 4462 f3bc
00000130: d543 3fb7 b4f7 83ba ae8b f1bb cd43 9abc
00000140: 3f5d 21bd 6301 8ebc fb0c 9fbc f17a bfbc
00000150: 9ba2 86bc 66e8 a5bc 5cf9 06bd 2ec7 0dbd
00000160: 629c d7bc 3a7a 29bd e265 c9bc 2dc0 c5bc
00000170: eaff 65bb ab96 f8bc 9d49 12bd 2df2 95b7
00000180: 7770 a03a 5d75 d2bc 3de4 9fbc 74bd d4bc
00000190: 4dfc 03bc 73db 183b fe82 eebc ccb0 99bb
000001a0: ec3c 65bc 0281 10bd c4ce 81bc 323b 14bd
000001b0: 9303 32bd c813 14bc cd01 8bbc 16e2 4b3c
000001c0: d3f4 2bbd b0e9 7cbc 7225 89bc 36b4 08bd
000001d0: 8a0e 6cbc f47f 1bbb 3839 bfbc c42e 863b
000001e0: f5f1 77bc ea53 36bc 699e 0abd b95f 36b4
000001f0: 4f71 90bc a228 f8bb 4790 ffbc 81ae 17bd
5.29805e-07 -0.018715719 -0.009888589 -0.0075412365 -0.03645228 -0.016542858 -0.014733002 -0.018749403
0.013720508 -0.0068712966 -0.038461618 -0.034496076 -0.020537915 -0.014042994 -0.014851902 -0.0021237186
-0.008111724 -0.040755544 -0.004525804 -0.022449505 -0.018186368 -0.0020265803 -0.0120027 -0.025213614
-0.024551356 -0.04435305 -0.0026451533 -0.00014303201 -0.01075216 -0.0075898813 -0.0031274331 -0.014398825
-0.012579556 -0.013664977 -0.020478802 -0.0004785489 0.002945569 -0.028250793 -0.011883871 -0.03608182
-0.033098597 -0.018895604 -0.043174688 -0.03946863 -0.027530227 -0.01645695 -0.0014156386 -0.039273713
-0.026561152 -0.014664267 -0.0014870266 -0.051723976 -0.0043473965 0.00085084856 -0.032859582 -0.0033261522
-0.032747306 -0.03132462 -0.00508732 -0.00041537298 -0.020666678 -0.03823984 -0.04011517 -0.01946853
-0.03158152 -0.0075531583 -0.0022954245 -0.0075010355 -8.101885e-06 -0.014388587 -0.048743606 -0.011421817
-0.01055713 -0.035679597 -0.0026174488 -0.029709943 -1.14002805e-05 -0.0010068328 -0.0073713874 -0.018831158
-0.039395567 -0.017334646 -0.01941537 -0.023374053 -0.016434958 -0.020252418 -0.03295265 -0.03461378
-0.026319686 -0.04137633 -0.024584714 -0.024139488 -0.0035095164 -0.030345282 -0.035714734 -1.7874956e-05
0.0012240548 -0.025690729 -0.019518012 -0.025969245 -0.008055759 0.0023324161 -0.029115196 -0.0046902653
-0.013991576 -0.03527928 -0.015845664 -0.036189266 -0.04346044 -0.009037919 -0.016968632 0.01244404
-0.04198153 -0.015436575 -0.016741488 -0.033374988 -0.014407763 -0.002372739 -0.023342714 0.0040949304
-0.015133371 -0.011128405 -0.033842478 -1.6984895e-07 -0.017632155 -0.007573203 -0.031196726 -0.037031654

network_body._body_endoder.seq_layers.0.weight f4 [128, 77]
00000000: 2225 8cbd 3e90 cd3d 9dff 47bd 6d70 d1bd
00000010: 626a cfbd 69f4 ad3b 8e19 633c 7823 803e
00000020: c4ba 2abe d81c 8cbe 6ff8 753c 598a 0e3e
00000030: e2c3 f2bb f529 c33d 58b2 e33d 909f 533c
00000040: 23f1 bc3d 5459 18bd 91c8 1cbc d959 d73d
00000050: 1922 223e c49b 033e 22f8 c3bd 3019 ebbd
00000060: a9a0 423b 43e9 3ebe 57ba 21be cb69 c3bd
00000070: d292 4f3d 7d75 16bd 52c3 a63d fa12 253e
00000080: 4f84 93bd 715a 033e a865 7d3a c80d 15be
00000090: 7b82 413c 5943 e4bd 1cba 65bd b1ba 41be
000000a0: 1feb 303d 512e 60bd 1d0c 9bbd c112 7a3d
000000b0: 4682 0d3e 6baf c23d 65dc 863d f873 6e3c
000000c0: 0d4a d03d 734f 113e 528a 583e e4b2 1bbe
000000d0: 96ff 573d 08ba a2bd bed6 573d f56c babd
000000e0: efa6 44bd fc7f 0bbe daff e03c 4c58 3ebd
000000f0: 9c67 1e3d 3af6 67bd 5e64 dfbd a0ed 4f3d
00000100: 827b 0a3e 8622 c93c f813 d6bd e8f5 673d
00000110: 7016 92bd 1ee2 2dbd 88d0 233e a3d6 81bd
00000120: 4b21 873d ef91 32bd d8d4 1dbe a392 78bc
00000130: 8ec2 563d c151 323e b6ec 1fbd 0224 113c
00000140: 07ba 85be ca3c a5bd ed20 5a3e 2765 b0bf
00000150: 07a4 3c3f 9843 b1bd 274b ff3c a51d b93d
00000160: ae6a af3d bb26 2abe 380b 6a3d c2d3 003e
00000170: a150 b2bd 90d6 05bd 2b1b ca3d 5b84 38bd
00000180: 41eb 573e 9aeb 043e afbc c6bd ac72 a4bc
00000190: b0b2 bc3d 9e40 8b3c e9f4 8cbd b3b0 9a3b
000001a0: b048 75be 07f1 043e 0081 55bd abe0 b93c
000001b0: fa20 e4bc 8567 f33c a70a c03c 634e 863d
000001c0: 233c 8c3d 133d b2bd 99c2 1fbe 4586 dcbc
000001d0: b50f 21be 219e c33d 40c2 4abe 1c9d 44be
000001e0: 443d f93d 0f16 f7bd 3246 793e 8b64 35bd
000001f0: 79dd 663c a011 a5bd a7f5 d2bc 470a 013c
00000200: 2b1d 86bd 5da9 dbbb 60cb e2bd 6892 903d
00000210: 49e5 06be 7252 f2bd c5ee 2a3e 7f6a 8b3d
00000220: 239b 8d3d a09d 9fbd d2cf 55bd b108 34be
00000230: ca41 b23d 87e2 9dbd ec0f db3d 3eeb 2bbd
00000240: e7e5 87bd 2986 7b3d 8597 ce3d cf63 35bc
00000250: 5d66 833c 8abd 263d bdc8 d3bc 8db7 0a3d
00000260: 8cc8 dc3d 6bf0 73be 2f30 a3bd d13a 183e
00000270: efc2 333e 51d6 e83c 066a d2bb 97a5 c63d
00000280: c443 d939 73fe b0bd bd51 bdbd 2850 e7bd
00000290: db7c 05bc d18b 0fbe 7f1d 153d ad6d c03c
000002a0: b4f1 17be c4f7 c43d ab0a 5a3c f8f4 93bc
000002b0: e627 023e 0aaa 5f3e 2528 7abc d977 3bbd
000002c0: bd3c f5bc e068 d83c 776c d5bd 3e69 283e
000002d0: a442 8a3b 5916 73bd 84b7 fbbd 4811 07be
000002e0: 136e 583c 2bd8 913d 3319 ac3d ba01 c63c
000002f0: c0a0 7cbc d92a 5ebe 0419 bbbd 2660 093e
00000300: 4c7e 9a3d cbc4 6bbd d1a6 783d 94ca d13c
00000310: 22f0 9dbe db66 3bbd 957f 0a3a 9f18 b03d
00000320: 4022 83bd 84d6 023d 9485 b93c 76dd 4c3c
00000330: 290e b93d 2d68 41bb 3239 403e 4766 043d
00000340: d2e8 1ebd 3dc8 da3d d202 70bd 8893 b03d
00000350: 3052 b03d 534f bebd c182 c3bc 73d0 a1bd
00000360: 7e7d 30bc 5c41 80bd a9d2 02be 383c b73c
00000370: a389 ecbd ab26 06bd e5d9 03be 7031 55bd
00000380: c121 c1bc 8aa9 e2bc e840 63bd f635 573d
00000390: 34e7 c9bd c3ab a3bc ee39 8cbd 70ba 0e3e
000003a0: 6a43 1ebc c3ed a93b b5b9 27be 9896 12bd
000003b0: c4c1 6ebd 52a4 8dbe 1aa8 243d beb3 1bbe
000003c0: 1acc 813e 63f0 343e d4e8 8abe 8f00 2b3e
000003d0: fe59 d43c 09ef 333e dd22 1cbe 4458 ce3d
000003e0: 427c a73c 71f0 6d3d a27b 04be e173 c2bd
000003f0: 3204 203d 5962 8abd b1a6 d7bc 704f 633c
-0.0684302 0.10037278 -0.048827756 -0.10226522 -0.10127713 0.005308677 0.013861073 0.2502706
-0.16672808 -0.27365756 0.0150128445 0.13919963 -0.007408605 0.09529487 0.11118001 0.012916461
0.09225681 -0.037194565 -0.009569303 0.10515184 0.1583332 0.12852389 -0.09568812 -0.114794135
0.0029697812 -0.1864367 -0.1579374 -0.09541663 0.050677128 -0.03673314 0.08142723 0.1612052
-0.0720297 0.1282747 0.0009666332 -0.14556038 0.011810894 -0.11145658 -0.05608569 -0.18918873
0.04319298 -0.05473167 -0.0757067 0.06105304 0.13819227 0.095061146 0.06585006 0.014554016
0.10170374 0.14190464 0.21146515 -0.1520496 0.05273398 -0.07945639 0.05269503 -0.09102813
-0.048010763 -0.13623041 0.02746575 -0.046470925 0.03867303 -0.056631304 -0.109078154 0.050763726
0.13523677 0.024552595 -0.104530275 0.056631 -0.07133186 -0.04245197 0.15997517 -0.06339767
0.06598147 -0.043596204 -0.15413225 -0.01517168 0.052431636 0.17413999 -0.039044105 0.008858683
-0.2611849 -0.08068235 0.21301623 -1.3780869 0.73687786 -0.086554706 0.031163765 0.09038857
0.085652694 -0.16616337 0.057139605 0.12580779 -0.08706785 -0.032675326 0.09868463 -0.0450481
0.21085836 0.129805 -0.09703957 -0.020074211 0.092137694 0.016998585 -0.068826504 0.004720771
-0.2395351 0.1298257 -0.052124977 0.022690138 -0.027847756 0.029712448 0.02344258 0.0655792
0.06847408 -0.08703055 -0.15601577 -0.026919493 -0.15728648 0.09551645 -0.19800663 -0.19200557
0.121698886 -0.12064754 0.24343184 -0.04428534 0.014090889 -0.08060002 -0.025751902 0.0078759855
-0.06548532 -0.0067035393 -0.11073947 0.07059175 -0.13173403 -0.118321314 0.16692646 0.06807422
0.069143556 -0.077937365 -0.052200146 -0.1758144 0.087039545 -0.07709222 0.10696396 -0.04197239
-0.06635647 0.061407242 0.10087494 -0.0110711595 0.016040022 0.040708102 -0.025852555 0.033866454
0.10780439 -0.23822181 -0.07968175 0.14866187 0.1755483 0.028422507 -0.0064213304 0.096995525
0.00041439955 -0.08642282 -0.09244106 -0.112945855 -0.008147444 -0.1401818 0.036405083 0.023489797
-0.14838296 0.0961757 0.0133082075 -0.018061146 0.12710533 0.21842209 -0.01526836 -0.045768593
-0.029936189 0.026417196 -0.10421079 0.16446397 0.00421937 -0.059347484 -0.12290862 -0.13190186
0.0132098375 0.07121309 0.08403244 0.024170745 -0.015419185 -0.21696033 -0.09135631 0.13415584
0.075436205 -0.057560723 0.060705964 0.025609292 -0.3084727 -0.045752387 0.00052832934 0.08598446
-0.06403017 0.03194286 0.022646703 0.012503972 0.09035904 -0.0029511556 0.18771818 0.0323241
-0.038796254 0.10682724 -0.05859644 0.08621889 0.08609426 -0.09292474 -0.02386606 -0.07901087
-0.010772107 -0.06262466 -0.12775673 0.022367582 -0.115496896 -0.03275172 -0.12876089 -0.0520491
-0.023575665 -0.027668733 -0.05548182 0.052541696 -0.098585516 -0.019979363 -0.06846987 0.13938308
-0.009659627 0.005185814 -0.16379435 -0.03578815 -0.058290258 -0.2766443 0.040199377 -0.15205285
0.2535103 0.17669825 -0.2713076 0.16699432 0.025921818 0.17571653 -0.15247674 0.10075429
0.020444993 0.05809063 -0.12937787 -0.094947584 0.0390665 -0.067570396 -0.026324602 0.01387392

network_body._body_endoder.seq_layers.2.bias f4 [128]
00000000: 3b87 64bd f55b 3dbd 77a0 353c 3095 1ebe
00000010: f911 183c 3db6 003c 7611 0a3c 063a 18be
00000020: 68d5 d3bc b241 cdbd d68a 253b a4d8 9dbc
00000030: 7e55 afbd eb0b 8bbd 5683 b1bd eec9 f2bd
00000040: 2292 59bc e6f4 9d3b 09d6 5fbd d508 02be
00000050: 6354 62bd 01dd 8cbc 33d8 ddbd 71e4 0bbd
00000060: 6365 f23b ce53 17bd 2763 2fbd 4f86 66bd
00000070: ea76 65bd 77fe 943c 257d debd b9b0 5fbd
00000080: 9640 babd 487d 2b3d 4592 9ebd 1119 16be
00000090: 85f3 0dbd 9aa4 42be cc83 80bd f1a8 fc3b
000000a0: 92c8 20bd 8df9 fbbd cba1 28be 00f8 2f3b
000000b0: 91d6 9ebd 076f 92bc 0d60 4bbe a0cf 06be
000000c0: 305b 133b 2994 63bd ad6d 59bd e688 e3bc
000000d0: 5d85 56bd f8b8 59bc 4d4c 14be 6b26 b1bd
000000e0: 1e72 34be b85a b9bd c2dd c4bc 0900 7fba
000000f0: d000 babd c611 8dbd 7839 ccbd de3b eb3b
00000100: 0657 35be 3111 623a 30d8 bebd 6ff0 88bd
00000110: 848a c2bd 1c28 75bd ad3a 20be 7168 6fbc
00000120: d839 e53c a86b dfbd 91a9 1fbe 0a4f abbc
00000130: 7f6b 2a3d f5a5 a1bc 3083 cfbd bc42 00be
00000140: 78a5 64be 29d2 29be 28cf 2dbd 393e 23bd
00000150: d707 12be def5 babc 0033 58bd aba3 aebd
00000160: 1620 ffbd 5bec 08be b285 f2bd eac1 74bc
00000170: d3fb 0bbe d53b 17ba ea56 1dbe d3fc 1ebd
00000180: 6d85 2a3c b4e1 8ebd 0c57 61bd 34c6 f2bd
00000190: d214 3ebd 1609 8b3c dc12 03be ded5 f9bd
000001a0: 5b67 0fbd 1f6b 13be cbf5 07bd 60b0 b1bd
000001b0: 675a acbd 448a 1fbe dd53 56be 8c10 25be
000001c0: 5971 0dbd 900b ce3c ea19 c5bc 0e79 b9bc
000001d0: 1322 6abc c513 6fbd c294 3bbd e130 0dbd
000001e0: f09b 273c e0ad 58be e42d cc3c cc73 b7bc
000001f0: 54b1 cebc 03c2 17be 704d d3bd 2c27 85bd
-0.05579303 -0.046230275 0.011085621 -0.15486598 0.009281629 0.007855949 0.008427015 -0.14865884
-0.025858596 -0.10022296 0.0025259755 -0.019268341 -0.08561228 -0.067893825 -0.086676285 -0.11854921
-0.01327947 0.004820454 -0.05464748 -0.12698682 -0.05525626 -0.017195227 -0.10832252 -0.034153406
0.00739734 -0.036945157 -0.04281917 -0.05628043 -0.05602161 0.018187745 -0.10863713 -0.054611895
-0.0909435 0.041867524 -0.077427424 -0.14658 -0.034656066 -0.19008103 -0.06275138 0.007710569
-0.03925378 -0.123034574 -0.16467969 0.00268507 -0.07755769 -0.017875208 -0.19860859 -0.1316514
0.0022484772 -0.05556122 -0.05308311 -0.02777524 -0.05237328 -0.013288729 -0.14482231 -0.08649906
-0.17621657 -0.09050506 -0.024031524 -0.0009727483 -0.09082186 -0.06888156 -0.09971899 0.0071787676
-0.17708978 0.00086237775 -0.09318578 -0.06686484 -0.09499076 -0.059852704 -0.15647383 -0.014612303
0.027981684 -0.10909206 -0.15592028 -0.020911712 0.041606423 -0.019732455 -0.10132444 -0.12525457
-0.22328746 -0.16584076 -0.042433888 -0.039854262 -0.14260803 -0.022822317 -0.052783012 -0.08527311
-0.12457292 -0.13371412 -0.118419066 -0.014938811 -0.13670282 -0.00057691085 -0.15365186 -0.03881533
0.010407788 -0.06976643 -0.055014655 -0.118542105 -0.046406575 0.016972106 -0.12800163 -0.12198995
-0.035010677 -0.14396332 -0.03319339 -0.08676219 -0.084156804 -0.15580088 -0.20930429 -0.16119593
-0.034531925 0.025151998 -0.024060208 -0.022640731 -0.0142903505 -0.058368463 -0.045796163 -0.034470443
0.0102300495 -0.21160078 0.024924226 -0.022394083 -0.025231041 -0.14820103 -0.103175044 -0.06501612

network_body._body_endoder.seq_layers.2.weight f4 [128, 128]
00000000: 424f 83bd a428 27be 4fdd a13c e3de 05be
00000010: a027 c73d 6863 053d 3451 1a3c 1741 743d
00000020: 1c3f 793c 819a 293d 026b fabd ebf5 0a3c
00000030: b7bf 243e 28f2 a43d 0d4c 3fbc 376b 7dbd
00000040: 2a59 063e 0962 6dbd 1251 dfbc a390 45bd
00000050: 8f52 1abe 776e c53d 3b82 7bbd 2076 93bd
00000060: 1e2c 8d3d 6fbe 77bc 01e1 003c 5f82 1c3d
00000070: b741 debd bd2f 95bd 42c6 67be ac41 253d
00000080: 0107 783c 8a6d 5ebd 4c8e 63bd 0d9b 253e
00000090: aa87 883d 519d 6a3d 3c21 0dbd 1593 1b3d
000000a0: 73a3 4a3e 6c30 12bd f04a e2bd 09c7 a53d
000000b0: 44af 2dbe e4a4 fbbd aa6d ee3b 8925 e23d
000000c0: 4d36 d9bb 6d06 e6bd 679d 1f3d 824b 38be
000000d0: dde9 053d 4a10 aebc 60da 67bd 2d3f 21bd
000000e0: ebee 013e 7998 5ebd a924 71bd dcb5 543b
000000f0: 4f9b 5d3d 10c4 82bd 1689 70bd adde 953d
00000100: da64 7f3d 3a40 b8bc 5088 80bc 2e93 a1bd
00000110: 723a 673c 3d0d 133e 9566 653d e6f9 913c
00000120: 9409 c7bd 93a7 00bd b391 f03b 205b 22be
00000130: cb59 a83d 6d5e 8cbd c14a 093e 40b0 283c
00000140: 0bba 8fbd 9c7b 62be 7f5a ca3c 809a 2b3e
00000150: 205e 4b3d 7926 ca3d 1fa0 12bd e914 46be
00000160: 190f f1bd 0bad 0cbe a0c2 323e 4ec5 2d3c
00000170: 242b 4bbe 8543 253d 3828 85bd 3ade b23d
00000180: 7ae9 0d3e 58c9 613e 55ba 143e ba17 06be
00000190: c83f cebc 84ac 06be 164a d8bd b374 62bd
000001a0: 135b 5e3e f5aa 0bbd 4b18 a3bc b541 46bd
000001b0: b729 86bd 79c6 3a3d 9d3a db3c 78aa 3ebd
000001c0: 4a79 1abe 4e5a 72bd 5006 293c e03c 87bd
000001d0: 0c06 8e3d 4adf f43d cfa6 8abd eaaf 75bc
000001e0: a921 94bd 6bb9 153e 1c01 0bbd 6ef3 9c3c
000001f0: 67be d7bd e544 b1bc f4d2 433d e057 4dbd
00000200: 7489 c4bc 9f41 35be d2ec d7bc 1e71 583d
00000210: fb5b 1cbe ff53 8a3d 9a7a 00bc 7a8a b93d
00000220: 496d d93c 19bd dc3c 1cd6 27bd 5c9c 64be
00000230: 8f41 f2bc 7f7c 7fbd 2588 0c3b 14b9 223d
00000240: f166 463d b75b ad3c f776 f8bd bfb9 b03c
00000250: 21cf fd3d 3b65 e3bd 09e1 e43d de52 13bd
00000260: 69f7 d7bd 9ea5 01be 3ff7 bfbd 01b2 ab3d
00000270: 960b 553d cbeb 663d 015a 7d3e 5a47 0ebe
00000280: 3382 dc3c 2fa8 1fbe f5bb fabc a117 853d
00000290: 82c5 5a3e bbb8 adbd b0b2 7cbd a029 9dbc
000002a0: 0040 b7bd 00cc a33d 2dec aabd 8a95 8ebc
000002b0: 8eb7 0d3d 004a 7e3d e4eb 263e 51a2 953d
000002c0: b29b c3bd 494c 2f3d 75ea c13d b1e5 06be
000002d0: 2019 c7bd c40a 723d 9512 f2bd cb39 b03c
000002e0: 740f 1dbe 40c8 e13b 3f79 e93b 316a a63d
000002f0: 18e3 f6bd 165b 4fbd 4df1 993c 6e09 d83d
00000300: 4b10 c03d 536e 03be 7dc4 00bd 7c3d 943d
00000310: 30d8 153d 7921 533e 6c7e 80bd c0e8 20be
00000320: e329 c63a 96e0 463c a155 30be 88c3 333d
00000330: 872d a53d 4d92 80bc 6d80 06bd 22c8 ddbc
00000340: b09f 6f3c 23df 523d efbc 383d d472 afbc
00000350: d42d 32bc 20cb a1be 9760 6ebb a064 e9bd
00000360: 23b5 973d 72db 08be 83cf c7bd 1db9 9f3e
00000370: 0f51 ab3d 9fce ce3d 0cbd 373d 50b2 ca3d
00000380: ce7c a8bd e151 eebb 6e39 583d 9589 9cbc
00000390: c495 023d a3a0 a63d 0f77 293d eb0e f93d
000003a0: 28e1 063d a086 003e 02b6 03bc c81e 3e3d
000003b0: ce45 863d 7615 aebd d00a 35bb e544 413e
000003c0: 32b3 6a3e 541a 29bd 8329 b03b 6f1a fa3d
000003d0: 6b1b 083e da00 353d 1885 f83c eecb 85bd
000003e0: 6a1d 7abd 7eab 523e 64e5 6e3d 63f4 90bd
000003f0: 73cc 863e 6f14 54be 21f1 35bd cab4 b3bd
-0.064116016 -0.16324097 0.019758848 -0.13073306 0.09724355 0.032565504 0.009418774 0.059632387
0.0152128 0.041407112 -0.12227441 0.008481483 0.16088758 0.08054 -0.011675847 -0.061869826
0.13119951 -0.05795482 -0.027260337 -0.04823364 -0.15070556 0.0964021 -0.061403494 -0.07200265
0.0689318 -0.0151210865 0.007866145 0.03821027 -0.10852378 -0.07284496 -0.22634223 0.040345833
0.015138389 -0.054303683 -0.055555627 0.16172428 0.06666501 0.057278935 -0.034455523 0.037982065
0.19788913 -0.03569071 -0.110494494 0.080946036 -0.1696139 -0.1228731 0.0072762566 0.110423155
-0.0066287876 -0.11231694 0.03896847 -0.17997554 0.032693733 -0.021248002 -0.056604743 -0.03936689
0.12688796 -0.054344628 -0.058872852 0.003245703 0.054103192 -0.06385052 -0.058724485 0.07317863
0.06235204 -0.022491563 -0.015689999 -0.078894004 0.014113056 0.14360519 0.056006033 0.017819356
-0.09718624 -0.03140981 0.0073415875 -0.15855074 0.08220252 -0.06853948 0.13407423 0.0102959275
-0.07017907 -0.22117466 0.024701355 0.16758156 0.04965031 0.09870619 -0.035797235 -0.19343914
-0.11770458 -0.13737886 0.17457056 0.010606123 -0.19840676 0.040347595 -0.06501812 0.087337926
0.13858595 0.22049463 0.14524205 -0.13094988 -0.025176898 -0.13151747 -0.10561006 -0.055287074
0.2171443 -0.034098584 -0.019909045 -0.048402507 -0.06550925 0.045599435 0.026761347 -0.04654929
-0.1508533 -0.059168153 0.010316446 -0.06603408 0.06934747 0.119566515 -0.067700975 -0.014995554
-0.07232983 0.14621513 -0.033936605 0.019159045 -0.10534363 -0.021639297 0.047808602 -0.050132632
-0.023991324 -0.17700814 -0.026358042 0.052842252 -0.15269463 0.06754302 -0.0078417305 0.090596154
0.026541369 0.026945638 -0.040975675 -0.22325271 -0.029572276 -0.062374588 0.0021443453 0.039727286
0.048438016 0.021161897 -0.12132066 0.021572946 0.12393022 -0.111032926 0.111757345 -0.0359677
-0.105452366 -0.12660834 -0.0937333 0.08383561 0.052013002 0.056377213 0.24741365 -0.13894406
0.026917553 -0.155915 -0.030607203 0.064986475 0.21364406 -0.084825 -0.061693847 -0.019184887
-0.08947754 0.07997894 -0.08345828 -0.01740529 0.03459888 0.06208229 0.16300923 0.0730635
-0.09551181 0.04279736 0.09468547 -0.13173558 -0.09721589 0.0590923 -0.118199505 0.021511933
-0.15337926 0.0068903267 0.0071250494 0.08125723 -0.120550334 -0.050623976 0.018791819 0.105486736
0.09378108 -0.12835054 -0.031437386 0.0723829 0.036583126 0.20618238 -0.06274113 -0.15713787
0.0015118684 0.012138506 -0.17220165 0.043887645 0.08065324 -0.015694762 -0.03283732 -0.02707297
0.014625475 0.05148233 0.045102056 -0.021417059 -0.010875184 -0.31600285 -0.003637349 -0.11396146
0.07407596 -0.13364962 -0.097563766 0.31195918 0.0836507 0.100980036 0.044858024 0.09897292
-0.082269296 -0.0072729443 0.052789144 -0.019108573 0.03188111 0.08136108 0.04137331 0.121610485
0.03292957 0.12551355 -0.0080389995 0.046416074 0.06556283 -0.08500187 -0.0027624853 0.18873937
0.2291992 -0.041284874 0.0053760423 0.12212073 0.13291709 0.044190265 0.030336902 -0.06533037
-0.061063208 0.20573232 0.058324233 -0.07077863 0.26327857 -0.2071092 -0.04441941 -0.08774717
