mlagents/Assets/results/Laberynth1/RollerBall/RollerBall-1372.onnx (onnx, 108815 bytes, 7 tensors)

action_model._continuous_distribution.log_sigma f4 [1, 2]
000000 cd 8a 62 ba 8f 3f e4 3b
       -0.0008641899 0.0069655846

action_model._continuous_distribution.mu.bias f4 [2]
000000 24 56 17 3a a6 ec bf 39
       0.0005773029 0.00036606676

action_model._continuous_distribution.mu.weight f4 [2, 128]
000000 18 ab 8e 3c 7f 59 83 bc a4 04 34 3c 66 47 0c bc
       0.017415568 -0.016033886 0.010987435 -0.008561945
000010 e9 c9 5a bc 0c c4 61 ba cd d6 10 bd 48 a3 e6 3b
       -0.013353803 -0.0008612282 -0.0353611 0.0070385076
000020 f5 05 ed 3b 8c df 22 3c 9c 72 77 bc d8 46 01 bd
       0.007233376 0.009940993 -0.015103009 -0.031561702
000030 a7 6d cc bb c6 04 b2 3c 35 71 3b 3b 3f 38 1b bb
       -0.0062386575 0.021730792 0.0028601412 -0.0023684648
000040 f0 e0 af 3a f3 09 1a bd 36 7e d6 3c b9 46 8b 3c
       0.0013418477 -0.037607145 0.026183229 0.017001497
000050 72 8a 9f 3b ac cb 5b ba 6a 75 39 bc 38 4d 07 bb
       0.004868799 -0.00083845365 -0.011319498 -0.0020645391
000060 d7 3c 5a bb c7 46 1c bd 7e c3 7d bc c7 7f 8b bb
       -0.0033300424 -0.038153436 -0.0154885035 -0.0042571756
000070 74 cb 12 3a a2 a4 f4 bb 93 53 44 bc 29 fe cd bb
       0.0005599775 -0.007465915 -0.011982816 -0.006286402
000080 bd ac 8b 3a c8 4f 34 bb 20 d7 4c bc 00 3c 5a bb
       0.0010656338 -0.0027513374 -0.012502462 -0.0033299923
000090 f8 72 bd 3c d6 18 9a bc ab 10 f5 3c 96 75 10 bc
       0.02312611 -0.01881067 0.029915174 -0.008817097
0000a0 95 27 52 bc 3c 85 70 3c 25 a8 9f bb a9 cc aa bc
       -0.01282682 0.014680203 -0.0048723393 -0.020849543
0000b0 42 70 bf 3c aa 0a 69 3b 88 c3 b0 bc 04 82 38 3b
       0.023368958 0.0035559335 -0.021577612 0.0028153667
0000c0 5e 2c 77 bc c8 c7 c5 bc 66 bf c5 bb 14 44 22 bb
       -0.015086262 -0.024143115 -0.0060347794 -0.0024759816
0000d0 94 76 67 3b b7 b9 59 bb 5e 36 85 3c ec 77 b0 3b
       0.003531848 -0.0033222267 0.016261276 0.0053853896
0000e0 61 d9 99 bc e2 02 b9 3c 14 00 2b 3b 29 cb 80 bc
       -0.018780412 0.022584382 0.0026092576 -0.015721874
0000f0 9a 76 38 3c a6 31 29 bd 43 22 10 bb b3 a6 9e 3b
       0.011258746 -0.041307114 -0.0021993078 0.0048416494
000100 e1 b1 19 3d a6 31 c6 3b 89 0e 32 3b 5c 5c 40 3b
       0.037523154 0.006048399 0.0027169308 0.0029351925
000110 27 f2 c8 3b f5 43 0e 3c fe 62 8c bc 70 c0 e7 3b
       0.0061323824 0.008683194 -0.017137047 0.007072501
000120 98 90 82 bc 6f e1 4b bb 05 ee 28 3c 69 16 89 3c
       -0.015938088 -0.003110971 0.0103106545 0.016734319
000130 94 4d 92 3c e5 70 23 bc 5d 52 e8 bc 7d e2 35 bc
       0.017859258 -0.009975647 -0.028359586 -0.011101362
000140 06 c9 d5 3c 27 92 98 3b 0e f5 97 3c 2a 54 f7 bb
       0.026096832 0.0046560946 0.018549468 -0.007547875
000150 4e 8e 11 3c 20 44 52 3c 35 82 a7 bc a0 af 3c bd
       0.008884026 0.012833625 -0.02044783 -0.046065927
000160 89 59 fc 3b c4 be a7 bc bf 24 05 3c cb 08 0e 3c
       0.007701103 -0.020476706 0.008126437 0.008669089
000170 2c e2 17 ba 83 9e b7 3b cd 8e 1b bc 31 45 ec bb
       -0.0005793895 0.005603613 -0.009494496 -0.0072103967
000180 38 e7 b6 bc 6d 9f 07 3a 04 0a c0 bc ed cb be b9
       -0.02232705 0.00051735976 -0.023442276 -0.0003639156
000190 2e 4a cb bc c6 a7 91 bc 9a 78 0d 3d 78 5c ab 3b
       -0.024815645 -0.017780196 0.034538843 0.005229529
0001a0 42 5d 32 3c 48 d6 3a bc 01 3e fd 3c dc 97 23 3c
       0.010886492 -0.011403628 0.030913355 0.009984937
0001b0 31 86 da 3a 7b ba 87 bc 45 7b 4c 3d ac bb e8 3b
       0.0016672072 -0.016568413 0.049922246 0.0071024504
0001c0 1d 88 9f bc 49 80 d0 bb 7a 00 b9 3b cd bc f2 bc
       -0.019474084 -0.006362949 0.0056458088 -0.029631043
0001d0 38 46 9e 3c db a2 8e bc 8d 87 a0 3b 32 19 c3 3a
       0.019320592 -0.01741164 0.0048989714 0.0014884828
0001e0 80 a4 a0 3c a4 1b be bb 62 10 ed bb da 1d 2c 3a
       0.01960969 -0.005801635 -0.007234619 0.00065657275
0001f0 db b2 1f bd 4d 0e 47 3a 94 e0 81 3b f6 56 2d bc
       -0.03898893 0.00075933785 0.0039635394 -0.010579815
000200 13 23 34 3b bb 45 0f 3d a9 d9 a1 3c 32 fd f4 bc
       0.0027486726 0.03497861 0.019757109 -0.02990589
000210 76 51 be 3c 86 94 c9 3c 85 6a 44 3d e7 d8 93 bc
       0.023232203 0.024606954 0.047953147 -0.018047763
000220 65 45 b6 bc db 04 27 bc ab 79 98 3b f7 58 0b 3b
       -0.022249887 -0.010194029 0.004653176 0.0021262744
000230 9b 91 9b 3b 6f ce a1 bc cb 84 78 3b 6f 91 70 bc
       0.004747582 -0.019751756 0.0037920948 -0.014683112
000240 6b ae 19 3a fa df 15 bd b6 d8 a6 3b 9e a4 83 bc
       0.0005862477 -0.036590554 0.005091752 -0.016069707
000250 11 71 6d bc e0 1e ac ba d9 82 b4 bc f6 ed 0f 3b
       -0.014492289 -0.001313176 -0.02203505 0.0021961904
000260 40 05 8d bb 1b 3a 76 3c 3c 48 9e bb 0f 0c cc 3b
       -0.0043036044 0.015028502 -0.0048303884 0.0062270234
000270 45 a6 41 3c 9f 68 63 39 5a 36 c6 bc 92 d1 e8 bc
       0.011819427 0.00021687381 -0.024195839 -0.028420243
000280 d6 8d 14 3c 1d 85 27 3c 6f b2 0c 3c 56 2a b7 3a
       0.009067019 0.010224608 0.008587464 0.0013974409
000290 c6 b2 59 3c 1d 75 69 3b 63 b1 87 bc 58 a6 08 3c
       0.013287252 0.0035622783 -0.016564077 0.008340441
0002a0 fd dc 97 3b b4 ad af bb 52 11 df 3b cb 37 67 3a
       0.004634498 -0.005361283 0.0068074847 0.00088202645
0002b0 79 d3 a5 bc 61 12 b3 3b d6 42 60 bc 64 af dd 3b
       -0.02024244 0.0054648374 -0.01368781 0.006765293
0002c0 4d 09 37 3c b6 fe ba bc a5 31 4b bb b0 73 83 bc
       0.011171651 -0.022826534 -0.0031004932 -0.016046375
0002d0 59 8c a0 3c a5 32 51 3c 88 4e 41 3c 7e 8d 18 bd
       0.019598173 0.012768422 0.011798508 -0.037244312
0002e0 cc 21 bc bb a0 9d ed 3c 13 af 66 3c 94 7c 67 bc
       -0.0057413336 0.029005826 0.014079827 -0.014128823
0002f0 2b 4b b7 3a 93 ee 82 3c 22 40 3a 3b fd 74 a2 ba
       0.0013984194 0.015982902 0.0028419574 -0.0012394484
000300 22 9a cf 3b 81 18 50 3c 3d 2c a5 bb 4f cc 30 bd
       0.0063355127 0.012701155 -0.005040674 -0.043163594
000310 98 14 02 3b ee cb 94 3c 2d 4f e1 bb aa ce 47 bc
       0.00198487 0.018163648 -0.0068758936 -0.012195269
000320 77 2f fa bc 21 2c 03 bc ed 6d ea bb 77 8b a7 bc
       -0.030540211 -0.008006127 -0.0071542175 -0.020452244
000330 eb 6d 1e bc e0 9e 23 bd 99 5b ae bc f8 80 54 bc
       -0.009669761 -0.039946437 -0.021283912 -0.012970202
000340 3e 47 a6 bc 93 e6 af 3c 30 c9 8c bc e4 10 cc 3c
       -0.020297643 0.021472251 -0.017185777 0.024910398
000350 b4 57 8e 3b 39 31 e4 3c 19 bd 09 3d ad 9c 27 3c
       0.004343951 0.027855502 0.033627603 0.0102302255
000360 04 ab 7d bc f7 5d 9f bb c9 4b 3c bc 86 34 3d bc
       -0.015482668 -0.0048634964 -0.011492678 -0.011548167
000370 25 f8 bb bb 93 f0 af bc 2f f7 0c bc ca b4 5f 39
       -0.0057363682 -0.02147702 -0.008603855 0.00021334286
000380 ff c0 55 3c 76 32 d7 3c 44 ef 80 3c 95 49 1a bc
       0.013046502 0.026269179 0.01573909 -0.009416957
000390 bd c7 67 39 74 fc 03 bb c8 02 b1 3c 72 19 8a 3c
       0.00022104285 -0.0020139487 0.021607772 0.016857836
0003a0 dd 65 1c bc d3 51 2d 3c fd 95 85 bb ee ca f7 bb
       -0.0095457705 0.01057859 -0.004076718 -0.007562033
0003b0 da 9b 30 bc 5a 5f d5 3c 3b ba cd ba 86 18 d3 3c
       -0.010779345 0.026046444 -0.001569576 0.02576853
0003c0 32 db e6 bb 82 e3 e0 3b 4a 1e 9b bc ae c2 18 3c
       -0.007045173 0.0068630585 -0.018935341 0.009323759
0003d0 b4 c8 e0 bc 7e a1 28 3a 1d ac 52 3b b4 c4 09 3a
       -0.027439453 0.00064327556 0.0032146045 0.00052554463
0003e0 a3 d4 d5 3c 6d c7 5d bb 9a e4 b0 3b d7 d4 bc 3c
       0.02610237 -0.003384079 0.005398345 0.023050709
0003f0 57 ae e8 3b 40 63 e5 b9 c2 9a b6 3a b5 dc 78 bc
       0.007100861 -0.0004375223 0.001393162 -0.015189339

network_body._body_endoder.seq_layers.0.bias f4 [128]
000000 51 97 20 bb 94 e8 4e bb d2 9b 0b ba f2 13 41 ba
       -0.0024504254 -0.0031571733 -0.0005325648 -0.0007365338
000010 f5 8e df b8 18 d6 d4 b8 2d 2e a2 3a 33 6e 51 bb
       -0.000106600965 -0.00010148826 0.0012373381 -0.0031956553
000020 52 d5 9e bb 43 b5 03 bb 58 74 7e 3a d1 55 11 bb
       -0.004847207 -0.0020097054 0.00097066676 -0.0022176395
000030 16 b3 fc 34 6d b1 3c bb 05 27 57 ba bc 2e 7c ba
       4.706896e-07 -0.0028792277 -0.00082074135 -0.0009620001
000040 bb 18 87 b2 59 68 ac b1 38 6b 16 bc ea e9 94 38
       -1.5727315e-08 -5.017722e-09 -0.009180836 7.10076e-05
000050 dd ea 64 3a 08 7d e3 ba 29 5b 41 3c 9c 58 76 bb
       0.0008732507 -0.0017355988 0.011801519 -0.0037589436
000060 20 3f 2b 3b 9e ce 66 bb 3b 57 45 3a ed fe 31 bb
       0.0026130155 -0.0035218368 0.0007527952 -0.0027160004
000070 c1 24 47 ba b9 0a 34 bb da 33 80 bb b7 cc 27 bb
       -0.00075967243 -0.0027472212 -0.003912431 -0.0025604197
000080 42 bd 18 bc 2a e6 e6 38 59 fe 5a 39 21 d3 c2 b9
       -0.009322466 0.00011010126 0.00020884852 -0.00037159867
000090 63 88 3d bb d4 fb 7c 3a 7a aa 6a ba e6 8e 5d bb
       -0.0028920404 0.00096505624 -0.00089517946 -0.0033807098
0000a0 f1 54 c6 36 c9 95 dd ba f5 cb 52 bb 1f 76 fb ba
       5.9107483e-06 -0.0016905601 -0.0032165025 -0.0019184983
0000b0 99 2e b6 af 89 c1 1c 3a c6 fb 6e bb 70 4f 7b b9
       -3.3138717e-10 0.0005979767 -0.0036465987 -0.00023966818
0000c0 9b 8c 2d 37 86 a6 47 bb 75 36 2a bb d1 13 96 ba
       1.0344341e-05 -0.0030464246 -0.00259724 -0.0011449998
0000d0 6a d1 64 bb cd 2b 06 bb c6 68 31 b8 a7 57 23 bb
       -0.003491486 -0.0020472885 -4.2297666e-05 -0.002492407
0000e0 d9 5d d9 ba eb 8a 49 38 15 17 3e bb 3f 7e 05 bb
       -0.0016583755 4.8051512e-05 -0.0029005457 -0.0020369438
0000f0 20 0c 49 bb 97 14 b1 ba 10 57 50 bb ca 87 d2 ba
       -0.0030677393 -0.0013510165 -0.0031790175 -0.0016062197
000100 0a 1f bc bb 86 ce 62 ba 4d d5 35 ba c3 1a b6 ba
       -0.005741005 -0.000865199 -0.00069363863 -0.0013893474
000110 db a6 23 bb ba 51 43 39 97 4e 67 39 68 7e 3c bb
       -0.002497128 0.00018627095 0.00022059154 -0.0028761867
000120 5e 58 af ba a2 57 29 bb d4 77 41 ba d0 c3 d4 ba
       -0.0013377776 -0.0025839587 -0.00073802215 -0.0016232673
000130 6f 7f 30 ba 26 b7 20 ba 69 b9 4b ba a9 fe 82 bb
       -0.0006732856 -0.0006130807 -0.0007771464 -0.003997643
000140 fe 89 6f bb 05 f4 63 bb 0f 0a ff ba 88 41 98 ba
       -0.0036550756 -0.0034782898 -0.0019457954 -0.001161621
000150 10 7d 5a bb d5 ee 92 bb 1a f4 88 bb 6d 66 15 bb
       -0.0033338703 -0.0044840374 -0.00417949 -0.0022796646
000160 ab 00 02 bb 6f 7b 60 b9 22 34 bb ba c7 f9 7d b9
       -0.0019836824 -0.00021408287 -0.0014282505 -0.0002422101
000170 12 5b 17 ba 5b fb 8f 3b 76 ed 82 bb 22 2f 97 b9
       -0.00057737634 0.0043939776 -0.0039955927 -0.0002883608
000180 89 5d 72 3a 5c af cc ba 2d 44 21 3a 82 47 00 3a
       0.0009245505 -0.0015616226 0.00061518216 0.0004893468
000190 c8 01 18 bb 12 8d cd ba 45 41 57 3b d0 fb c0 3b
       -0.002319442 -0.0015682301 0.00328453 0.0058893934
0001a0 99 b2 a6 3a 5e bb 06 bb f5 fa 5c bb 71 64 90 bb
       0.0012718021 -0.0020558457 -0.0033718918 -0.004406505
0001b0 70 be cb 38 a1 6e 99 ba de 86 5f ba cf d0 b9 ba
       9.715266e-05 -0.0011705944 -0.00085268717 -0.001417661
0001c0 2f 4f f6 ba 64 e4 89 bb 53 3a c1 b9 d8 25 a5 ba
       -0.0018791909 -0.0042081345 -0.00036855284 -0.0012599779
0001d0 7c 8c c0 b9 c7 8f 2a bb 80 1d b3 bb 36 a5 30 bb
       -0.00036725763 -0.002602564 -0.005466163 -0.0026953942
0001e0 68 80 74 bb d9 8d 89 bb 60 1e d5 3b 4b 03 a1 3b
       -0.0037307981 -0.0041978178 0.006503865 0.0049137226
0001f0 d1 ea 98 b6 6e 34 53 bb 3a 2e 46 ba 77 3e 2f ba
       -4.5572892e-06 -0.0032227295 -0.0007559989 -0.0006685028

network_body._body_endoder.seq_layers.0.weight f4 [128, 77]
000000 64 83 93 bd 19 31 29 bd 5e f9 89 3e 02 35 f1 bd
       -0.07202795 -0.04130659 0.26948065 -0.117776886
000010 52 c9 4e be 8f f6 7a bc c9 8a 3f bc 71 ee a8 3d
       -0.20193985 -0.015317573 -0.011690804 0.08248604
000020 c3 97 cc 3d 06 ce f1 bc 35 e1 56 3e d9 1a 3e bd
       0.09989884 -0.029517185 0.20984347 -0.046412323
000030 03 c5 2c 3d f2 19 41 3c d3 c9 4f 3d 22 21 20 3e
       0.042180073 0.011785971 0.050729584 0.15637639
000040 90 9e d5 3d d5 da 50 be 09 c2 a1 3b 3c 4e 9e 3c
       0.10430634 -0.20395978 0.004936461 0.019324414
000050 f7 d6 32 bd a6 9f 75 3e 0b c1 a2 3d 4b ba 1b 3d
       -0.043662038 0.23986682 0.07946976 0.03801946
000060 3f a4 27 3e 98 99 a3 bd e4 34 ac 3d a3 06 b0 3d
       0.16371249 -0.0798828 0.084085256 0.08595016
000070 a1 13 c9 bd 35 8d 35 bc 4a 89 e8 3d 58 7e 33 3d
       -0.09818197 -0.01108103 0.11354311 0.043821663
000080 52 a3 8c 3d a3 9d 56 be 15 bc a2 3b de fa 5d 3d
       0.068670884 -0.20958571 0.004966269 0.054194324
000090 ad 01 3f be d9 e8 39 3c 67 08 dd 3d 73 a3 c0 bd
       -0.18652983 0.011347019 0.10792618 -0.094061755
0000a0 03 52 dd bd e5 10 c9 3d 75 a0 7e be ac ae 00 3e
       -0.10806658 0.098176755 -0.24865897 0.12566632
0000b0 c3 36 27 bd 33 b7 05 3e b7 a7 07 bd b7 9a d7 bc
       -0.04082371 0.13058166 -0.03311893 -0.026318891
0000c0 8b c3 04 bd 35 f9 88 bd 15 e4 9e bc da 6a af 3d
       -0.032413047 -0.066881575 -0.019395867 0.08565302
0000d0 83 17 d5 bd 1a 78 62 be 2f 48 1a 3d b2 c9 88 3b
       -0.10404875 -0.22116128 0.037666496 0.0041744346
0000e0 b3 5c c1 3c 35 1c cc 3d 38 23 83 3d b8 70 8e bc
       0.023603773 0.099663176 0.06403202 -0.017387733
0000f0 3a d2 80 3d 46 b3 70 3d 38 28 b2 3b 0b 82 f1 3d
       0.062900975 0.05876472 0.0054369234 0.11792382
000100 39 94 65 3e 0f bc 49 3e 5d 61 4f 3d 1c d2 0d be
       0.22419824 0.19700645 0.050629962 -0.13849682
000110 34 c1 3c 3e 04 92 10 3e 85 db c0 bc 54 54 ad 3c
       0.18433076 0.141182 -0.023542175 0.021158375
000120 39 59 17 3e df 9c a3 3d da 59 20 3d 46 87 2b 3d
       0.1478013 0.07988905 0.03914819 0.041877054
000130 89 22 ee 3c 54 7a ea 3c 1a ea b0 3d b3 f4 34 be
       0.029069202 0.028622784 0.08638401 -0.1767147
000140 4b bb 0a 3e 4c a1 f9 bd 64 c5 8f bd 27 ac 40 3d
       0.13548009 -0.12188968 -0.07020071 0.047039177
000150 e0 ab 6d bc 26 54 0a be 03 96 1a bd 37 e7 47 be
       -0.01450631 -0.13508663 -0.03774072 -0.19521795
000160 94 04 2c be da 52 c4 bc 5e c5 4e bd a9 e9 b9 bd
       -0.16798621 -0.023965288 -0.050481193 -0.0907777
000170 6c 3e b6 3c b4 26 a7 bd b0 dc a0 3d b4 a0 47 be
       0.022246562 -0.08161679 0.07854593 -0.19494897
000180 72 94 ca bc 82 14 a7 3e 50 51 8f bc 44 a2 02 3e
       -0.024728987 0.32632834 -0.017494828 0.12757212
000190 fd 75 1c 3d 51 4c 4b bd a0 bb 6e 3d d5 0b 62 3d
       0.03819846 -0.049633328 0.058284402 0.055187065
0001a0 15 19 d3 3d 6b e5 26 be 1b a1 1c 3d 63 8b 79 3d
       0.103075184 -0.16298454 0.03823958 0.060923945
0001b0 65 bb c7 3d 01 59 5e bd 1f 08 94 bd 58 40 1a 3e
       0.097525395 -0.0542841 -0.072281115 0.15063608
0001c0 88 f2 f2 bc 51 e6 91 bd 82 e7 c3 3d 62 e6 74 3d
       -0.029656664 -0.071240075 0.09565641 0.059790023
0001d0 f1 cf a6 bd 71 4c f7 bd 64 61 d5 bc e2 29 28 3e
       -0.081451304 -0.12075127 -0.026047416 0.16422227
0001e0 f8 a3 ad 3e 8a 07 87 bd 96 fa 93 bd 81 7f e8 3d
       0.3391416 -0.06593235 -0.0722553 0.113524444
0001f0 1e fd 66 bc 4a 4e 8e bd 5e d5 da 3d de 22 0c be
       -0.014098434 -0.06948526 0.10685228 -0.13685176
000200 18 ed 06 be 8d ff 1f 3e 29 53 73 bd 3c 95 bc 3c
       -0.13176382 0.15624829 -0.05940548 0.02302038
000210 cf e1 45 3e 1c 48 0e 3e 15 60 38 bd 35 cf 80 be
       0.1932442 0.13894695 -0.045013506 -0.25158086
000220 68 30 6e 3d 19 7c 61 bc b1 d6 86 bd 22 2c 01 3d
       0.058151633 -0.013762497 -0.06583918 0.03153623
000230 df 85 14 be 10 07 ac bc 90 47 30 3d 40 a7 18 be
       -0.14504193 -0.020999461 0.043036997 -0.14907551
000240 ee 06 06 be c4 68 d5 3d 9f ab 89 bd f9 85 02 bd
       -0.13088581 0.10420373 -0.06722187 -0.031866048
000250 f1 de 42 be ee fa cc 3c a8 d6 d0 3d b5 0a 56 be
       -0.19030358 0.025021996 0.101971924 -0.20902522
000260 68 96 62 bc 20 f7 2f bd 04 6b 10 3e 53 dc 92 3e
       -0.013829805 -0.042960286 0.14103323 0.2868372
000270 c2 d1 91 bd c1 66 fb 3d 5d d8 b6 bd 7e a0 60 3d
       -0.07120086 0.12275458 -0.08927987 0.054840557
000280 aa 48 b0 3c 7a 45 de 3d ac 6b 88 3d a1 87 13 3d
       0.021519024 0.10853095 0.06661162 0.036018018
000290 3f 4c 53 be 63 e2 65 bd 94 93 49 3c c4 76 65 bc
       -0.20634554 -0.056124102 0.012303252 -0.014005367
0002a0 ce 6d 21 bc 81 e1 37 3d 98 24 76 3e ae 6a a6 bc
       -0.00985284 0.04489279 0.24037397 -0.02031454
0002b0 e9 2d 33 bd ac ba 3f 3d f6 50 06 be 45 96 24 3e
       -0.043744955 0.046808884 -0.13116822 0.16072948
0002c0 b4 f3 ce bd d2 54 fb 3d 76 67 86 bd 57 6b be 3c
       -0.101050764 0.122720376 -0.06562702 0.023244543
0002d0 da e4 bf bd f6 7f b0 bd f2 28 fa bb 68 1f 0e 3e
       -0.09369822 -0.086181566 -0.0076342756 0.13879168
0002e0 ef 9a 1c bd 47 bd e1 3d 75 43 7d be 86 b4 cb bd
       -0.038233694 0.1102243 -0.24732764 -0.099465415
0002f0 36 39 9b bc cf c5 ac 3d 63 b9 85 3d 6c 69 e8 bc
       -0.018948179 0.084361665 0.065295 -0.028370582
000300 ed 7b 16 3d 6d d4 93 3d 14 73 74 bd 97 35 13 3e
       0.03673928 0.072182514 -0.05968006 0.14375912
000310 a9 74 16 3d f2 5f b8 3d 7d 91 92 3c ed 3c 0d be
       0.03673235 0.09002675 0.01789164 -0.13792773
000320 a9 57 5f 3d 9c 63 32 bd 26 e1 86 3c a7 99 de 3d
       0.05452696 -0.043552026 0.016464781 0.108691506
000330 3b 9b 36 3e 9c a4 22 3d 13 92 1d be 38 99 e9 bd
       0.17832653 0.039707765 -0.15387754 -0.11406177
000340 b4 8d fd 3c 6f a3 1e be 47 6e 24 3e c5 df 94 bb
       0.030951358 -0.15492032 0.16057692 -0.004543277
000350 03 ff c6 3c e9 8a ec bd 5d f6 de 3d 18 71 81 bd
       0.024291521 -0.115499325 0.10886834 -0.06320399
000360 64 b3 aa 3d 60 0a b2 3d f2 c4 06 be 56 c1 89 bd
       0.08334997 0.08693385 -0.13161066 -0.06726329
000370 93 4c 95 3e 34 ae 43 3d eb 14 41 3c 8f 61 2b be
       0.29159984 0.047773555 0.011784772 -0.16736434
000380 1b e8 1f 3e 3d dc 10 be 24 25 08 3e c0 0d 2c be
       0.15615885 -0.14146514 0.13295418 -0.1680212
000390 67 52 45 bd 28 39 94 bb 63 cf 22 bc 81 5a f9 bd
       -0.048174288 -0.004523415 -0.00993714 -0.121754654
0003a0 01 13 4d 3e e5 ee e3 bb c5 f2 e4 3d 5a 7f e4 bc
       0.2002678 -0.0069559687 0.11179117 -0.027892757
0003b0 e1 0b 05 3e 18 c8 52 3d 39 88 d9 bc dc b0 b2 bd
       0.12992813 0.051460356 -0.026554214 -0.087251395
0003c0 ff 0c 11 be 90 87 0f bd d8 5c 88 bd 5a 51 ad 3e
       -0.14165114 -0.03504139 -0.066583335 0.3385113
0003d0 e2 1e d9 bd 03 04 89 bd 10 e8 0f 3e 8c 23 ce 3c
       -0.106015936 -0.06690218 0.14053369 0.025163434
0003e0 2c 4e c1 3d d4 cb 86 ba 7d 4b ca 3d 55 1d df 3d
       0.09438738 -0.0010284134 0.098776795 0.108942665
0003f0 9f 86 05 3e b9 ae 1a be 65 33 38 bd b0 1e 75 be
       0.13039635 -0.15105714 -0.04497089 -0.23937488

network_body._body_endoder.seq_layers.2.bias f4 [128]
000000 9e a5 8a b9 fd 21 e7 b8 1b fd a7 b9 f4 a0 63 bb
       -0.00026444806 -0.00011021269 -0.000320413 -0.0034733387
000010 ec 5c 0b ba 1b 2c d6 3b cf 96 fd b8 43 60 5a bb
       -0.00053162756 0.0065360195 -0.000120920704 -0.0033321537
000020 a1 22 15 bb b3 d8 76 bb 0d b0 e5 b9 75 d4 9a 3b
       -0.0022756236 -0.0037665784 -0.00043809452 0.004725034
000030 ff 84 7b bb 3b bf 69 b9 1f cd f1 ba 8a 5e 9c ba
       -0.0038378832 -0.0002229185 -0.0018447972 -0.001193003
000040 d3 54 c3 b9 b6 d0 97 ba 9a 4a 20 bb 88 2a f2 b8
       -0.00037256497 -0.0011582586 -0.0024458528 -0.00011547381
000050 c5 23 9f b9 29 a1 0d bc 7b 83 0d bb 9a 5e 28 bb
       -0.00030353494 -0.008644381 -0.002159326 -0.0025691153
000060 55 75 6e bb f3 14 c0 b8 43 06 f4 ba f3 18 e4 ba
       -0.0036385853 -9.1591755e-05 -0.0018617589 -0.0017402455
000070 a9 7f 83 ba 0c 24 0a bb d8 69 29 bb b5 ac 11 ba
       -0.0010032553 -0.0021078615 -0.0025850441 -0.00055570464
000080 01 04 c2 bb 00 71 b0 ba 2a 66 a1 ba 58 cb 69 bb
       -0.0059208875 -0.0013461411 -0.0012313772 -0.003567418
000090 a9 69 58 bb 4a 76 5f bb df a7 9e bb 3c 62 a1 ba
       -0.0033021963 -0.0034097605 -0.004841789 -0.0012312601
0000a0 16 e1 c6 ba 06 16 c4 ba 64 5a c6 b9 9a 93 60 bb
       -0.0015173282 -0.0014960177 -0.0003783285 -0.0034267665
0000b0 50 3b 22 bb 4c 78 19 bb 5e 91 fa ba bd 78 05 bb
       -0.0024754591 -0.002341765 -0.0019116809 -0.0020366155
0000c0 55 59 6f ba c1 d7 77 bb d9 bb 65 bb 52 8f 05 bb
       -0.0009130438 -0.0037817808 -0.0035054593 -0.0020379615
0000d0 ba 53 28 bb 3e 82 f8 b8 8c 33 2b bb c8 25 51 ba
       -0.002568467 -0.00011849821 -0.0026123254 -0.0007978347
0000e0 51 59 ff ba 40 ad 61 39 9d 7e 84 bb 33 6a 5e 3b
       -0.0019481574 0.00021522213 -0.004043414 0.0033937811
0000f0 de dc 57 ba 8c bb 0a bb 78 e3 75 bb fa e4 62 bb
       -0.0008234511 -0.0021168916 -0.0037519615 -0.0034621344
000100 88 44 de 39 c6 eb d8 b9 91 2d 36 bb c9 45 49 ba
       0.000423942 -0.00041374395 -0.0027798156 -0.00076779403
000110 76 3b 2c 3a 19 36 6f b9 7a b1 eb ba 7a 6d bd ba
       0.00065701397 -0.00022812969 -0.0017981969 -0.0014452182
000120 36 d1 d2 ba 61 35 82 bb 26 5e 8a 3b 4b c7 fd bb
       -0.0016084078 -0.0039736484 0.004222649 -0.007744705
000130 8a c3 fc b9 2d c2 69 bb ca b7 26 ba 64 3a b7 ba
       -0.00048210874 -0.0035668716 -0.0006359784 -0.0013979194
000140 a2 2d f2 b9 5f 0e e5 ba 9a 49 7e 3a 02 51 cc bb
       -0.00046191836 -0.0017475596 0.00097002985 -0.006235243
000150 cd f4 00 bb 5d 8d 70 b9 8b e0 bf b9 a9 5a 4a ba
       -0.0019677163 -0.00022940846 -0.00036597656 -0.0007719198
000160 20 48 be ba 1f 72 ee ba 60 8d f6 ba fe 13 65 ba
       -0.0014517345 -0.001819197 -0.0018810444 -0.0008738636
000170 0f 34 58 bb 2b 7f 13 ba ba b4 7d bb 14 bc 4e bb
       -0.0032990014 -0.00056265545 -0.0038712458 -0.0031545209
000180 e9 0d 36 38 81 2f ba b9 64 bf 5a ba de 02 a2 bb
       4.3405136e-05 -0.00035512078 -0.00083445595 -0.0049441895
000190 8c 88 92 ba 09 2a 30 bb 74 18 8a bb 7e 15 3e ba
       -0.001117961 -0.0026880524 -0.004214341 -0.00072511274
0001a0 09 29 b4 3a b9 39 b2 bb 12 8e 9c b8 88 72 23 ba
       0.001374514 -0.00543901 -7.465122e-05 -0.0006235023
0001b0 b9 f9 15 bb 63 df 50 bb f2 2d 55 39 d5 1d 36 ba
       -0.0022884442 -0.003187143 0.00020330379 -0.00069471943
0001c0 0c 3f 95 ba a7 25 bb ba aa 94 07 3a 8f 05 c5 3a
       -0.0011386587 -0.0014278189 0.0005171994 0.0015031564
0001d0 85 d5 44 b8 44 0c ba ba 03 c9 8d ba 3e 6b 70 bb
       -4.6928897e-05 -0.0014194329 -0.0010817352 -0.0036685015
0001e0 f9 ec 1e 3b b1 53 67 bb 11 f9 e1 ba 43 9d 96 b9
       0.0024250133 -0.0035297687 -0.0017240365 -0.000287274
0001f0 72 3c 49 ba f6 ea 9d bb fd fd b5 bb 08 64 a2 ba
       -0.00076765486 -0.0048192693 -0.0055539594 -0.0012389431

network_body._body_endoder.seq_layers.2.weight f4 [128, 128]
000000 b6 a3 9e 3d 5a c8 c3 bd f3 6a 90 3d 3d f3 ce 3c
       0.07746069 -0.095596984 0.07051649 0.02526247
000010 f8 02 2e 3e 4d c0 f9 b7 89 b1 46 bd de c1 8b bc
       0.1699332 -2.977266e-05 -0.048509154 -0.017060217
000020 2a 46 5c 3e cf 0a 90 bd 88 95 36 bd eb 40 19 3d
       0.2151114 -0.070333116 -0.044576198 0.037415426
000030 fe 76 1b 3c 54 9e e8 3d ad 8c 5a 3d 2f 04 54 3c
       0.009488819 0.11358324 0.053356815 0.012940451
000040 a6 33 42 3a 27 8c c1 bd bc 6e 2e be 73 87 81 3e
       0.0007408209 -0.0945056 -0.1703443 0.25298652
000050 85 d5 cc bd b2 cb e5 3d 08 4f bb 3c 16 c2 e3 bc
       -0.10001663 0.112204924 0.022864833 -0.027802508
000060 4e 13 da bd 53 82 3d 3d f5 e0 92 be 4d 07 1a 3d
       -0.10648213 0.046266865 -0.28687254 0.03760462
000070 fe 12 0a 3e 14 83 f4 3d 57 ec e6 3d f0 6b a3 bd
       0.13483807 0.11939064 0.11275547 -0.07979572
000080 90 95 a2 3d b3 aa 2a 3d b3 40 a4 3d 41 40 c0 3d
       0.07938683 0.041666698 0.08020153 0.093872555
000090 17 86 3f 3d d6 22 03 be 4d 9b 53 3e 23 df 1c bc
       0.046758737 -0.12806258 0.20664711 -0.009574684
0000a0 c8 37 b4 bd ca 9c 1d bd 0c 62 00 be 78 59 5a 3d
       -0.08799702 -0.038479604 -0.12537402 0.05330798
0000b0 b7 1b e1 ba be 6c 8f 3c e1 95 b0 3d 22 93 86 3b
       -0.0017174397 0.017507907 0.08622337 0.004106895
0000c0 cc cc 71 3e e6 c2 de bd 08 02 63 bd 47 e8 25 be
       0.2361328 -0.10877018 -0.05542186 -0.16201888
0000d0 94 73 35 bb 9d ac 03 bd fc 4b b3 bd 08 e9 16 bd
       -0.0027687298 -0.03214704 -0.08754727 -0.03684333
0000e0 57 58 d5 bb 49 67 47 bd 21 33 f6 bd c1 0a 99 bd
       -0.006510775 -0.048682485 -0.12021471 -0.07472754
0000f0 97 44 40 bc 29 0d 2e be 21 2f a0 bd 1d 47 a6 bd
       -0.011735103 -0.16997208 -0.07821489 -0.081190325
000100 5f e9 72 3d e8 38 a2 bd 9c 45 29 3e db 03 b1 3d
       0.05930459 -0.0792101 0.1653046 0.086433135
000110 85 bc 29 be 9d b2 17 3d 00 31 88 3d 1b 63 87 3d
       -0.1657582 0.037035573 0.06649971 0.066107
000120 ff e4 e2 bd 09 33 e9 3c f9 aa df 3d 93 be be bd
       -0.11078834 0.028466718 0.10921282 -0.09313693
000130 b5 b0 05 3e e6 7c 4e bd 87 e9 26 bd 70 d3 28 bd
       0.1305569 -0.05041208 -0.040750053 -0.041217268
000140 3f d0 21 be e9 18 45 bd bf 1b e5 bd 86 ee 33 bd
       -0.15802096 -0.04811946 -0.11186933 -0.043928646
000150 8d 86 fb 3c 6e a1 88 bd 69 d9 1c 3e 3c c5 6d 3b
       0.030703807 -0.06671415 0.1531731 0.003628089
000160 57 a0 f2 bd 9f bb 1e 3d b4 06 84 bd 73 77 33 3e
       -0.11846989 0.03875315 -0.06446591 0.17526035
000170 46 e5 55 bd 92 12 c5 bd bb 94 53 bd 60 67 93 bc
       -0.052220605 -0.09622683 -0.051655512 -0.017993629
000180 00 6e 7d 3d b5 4b 06 3e 21 3b a2 ba 34 73 d6 bd
       0.061872482 0.13114817 -0.0012377241 -0.10471192
000190 14 46 aa 3d 81 54 50 3e 90 6b 67 3d a4 2a 51 3d
       0.083141476 0.20344736 0.056499064 0.051066056
0001a0 2a fc 59 bd b0 5b a4 bc 6a 26 f5 bd 19 ad d7 3b
       -0.053218998 -0.020063251 -0.119702175 0.006581914
0001b0 c9 4a 64 bd eb d0 b4 3d 51 77 17 bd d9 af 8a 3d
       -0.055735383 0.088289104 -0.036979023 0.067718215
0001c0 d9 81 1e be bf f9 3c bd bc 3e 27 be 43 63 ea bd
       -0.1547922 -0.046136614 -0.16332525 -0.11444714
0001d0 fd 66 6e 3d fd f4 d2 bd e2 0e 80 bd 97 12 64 bd
       0.058203686 -0.10300634 -0.06252839 -0.05568179
0001e0 4d 7a 16 3a eb c7 90 bd 27 4f 69 39 5a fb ed bc
       0.000574027 -0.07069381 0.00022250098 -0.029050518
0001f0 81 d4 17 3d a9 f2 66 bd c5 29 a1 bb e7 04 f5 b9
       0.037067894 -0.056383763 -0.0049183094 -0.00046733694
000200 bb 8c a4 3b f3 39 b0 bd fe bf 8e bd b4 fb 57 bd
       0.005021659 -0.08604803 -0.06970213 -0.052730277
000210 ba 83 01 bd b4 60 3c bd b3 72 10 3e 83 9f 8c 3d
       -0.031619765 -0.04599066 0.14106254 0.06866362
000220 0c b8 45 bd ed 2a ab bc 47 87 af bd 50 14 88 bc
       -0.048271224 -0.020894492 -0.08570724 -0.016611248
000230 d4 8f ed bd 09 f2 61 be a7 5e 13 be 99 1b 26 3c
       -0.11599699 -0.22064985 -0.14391576 0.010138416
000240 e7 bd 0c be 96 b0 97 bc 49 f8 23 bd 8d be 77 bd
       -0.13744317 -0.01851682 -0.040031705 -0.060484458
000250 58 ce 00 3e ec a0 d2 3d a3 20 b3 3e 1a 70 e1 bd
       0.12578714 0.102846 0.34985837 -0.1100771
000260 a5 01 0a bd d3 0a 70 3c b4 33 e0 3c a2 98 80 3d
       -0.033692975 0.014651018 0.027368404 0.062791124
000270 99 9e 1b 3d 4a 83 1e 3d 49 02 a4 bc 24 96 9c 3c
       0.037993047 0.038699426 -0.02002062 0.019114561
000280 46 52 eb 3d 44 c6 34 3c fe a7 cc 3d 0f 89 6e bd
       0.11490302 0.011033598 0.099929795 -0.058236178
000290 38 77 c6 bd 48 cf 5f bd 69 1e 72 3d c3 5d c8 3d
       -0.09690708 -0.05464104 0.059111033 0.09783509
0002a0 73 a1 a9 3c 01 df 07 3c 0c 95 2f 3d 3c 71 62 bd
       0.020706868 0.008292914 0.04286675 -0.05528377
0002b0 dc f4 f6 bd 3d 10 ac 3d 2c fa 28 be 1e c8 73 3c
       -0.12058422 0.08401535 -0.16501683 0.014879255
0002c0 ee d8 9f 3d 8c bc 90 bd cd c3 28 3e 5b 90 b5 3d
       0.07805048 -0.070672125 0.16480942 0.08865424
0002d0 27 2c 2b 3d cb 20 78 3d 4f 4d d8 bc 68 1d ee 3d
       0.041790154 0.06057815 -0.026404051 0.116267025
0002e0 e6 33 01 3d a1 72 45 b9 93 e7 72 bd 9b 76 d5 bb
       0.031543635 -0.00018830087 -0.059302878 -0.006514383
0002f0 51 ce 06 3e c1 2e 98 3d 6d 1d 27 bd c7 c6 cb ba
       0.13164641 0.074307926 -0.040799547 -0.0015546911
000300 36 55 15 3e 79 c1 0d 3c 17 c3 31 be 5c a0 36 be
       0.14583287 0.0086520845 -0.17359577 -0.1783461
000310 21 79 fc bb 06 5a b0 3c d3 34 80 3d 08 68 18 3c
       -0.0077048694 0.021527302 0.062600754 0.009302147
000320 7e c1 1f bd b7 46 9c 3d a2 4b 34 bd fc e8 aa bc
       -0.039002888 0.07630675 -0.04401744 -0.020863049
000330 5a ee d0 bd cd 31 29 3c 0b c9 d5 bd a1 97 7e 3d
       -0.10201712 0.010326815 -0.104387365 0.062156323
000340 58 87 c2 3d 87 2f 44 bc 5e 7f 7e 3d 25 8e 13 bd
       0.09498471 -0.011974222 0.062133186 -0.03602423
000350 b0 b4 c5 3d 84 01 b8 bd 94 aa 7a bb c0 07 97 bd
       0.09653604 -0.08984664 -0.0038248645 -0.07374525
000360 7b ff b3 bd 2d c9 39 3e 4d 13 09 bd 58 e8 90 bd
       -0.087889634 0.18143149 -0.033465672 -0.07075566
000370 db 87 42 3e 08 b8 51 be 97 3b b7 3b 73 01 b9 3d
       0.18997137 -0.20480359 0.0055918205 0.090334795
000380 77 c3 32 3d 2b 27 48 bd 59 d3 b2 3d f1 62 96 bc
       0.04364344 -0.04886548 0.087317176 -0.018357726
000390 10 5d 63 be 16 16 08 3e ec cc 5b 3d f8 74 97 bb
       -0.2220347 0.13289675 0.053662226 -0.004622098
0003a0 93 5f f5 bb 8b cb 6e 3e 7d 09 d1 bc 43 6a e1 bd
       -0.0074882 0.23319833 -0.02551722 -0.11006596
0003b0 5a 1b 1c 3d 53 62 ae 3c 1a 2c c0 bc a2 59 e0 bd
       0.038112022 0.021287119 -0.02345853 -0.10954596
0003c0 2a 42 cc bd f0 05 91 3d fa e6 98 bd 2b 1a 84 3d
       -0.09973557 0.070812106 -0.0746593 0.06450304
0003d0 b8 61 b1 bd f2 5f e2 bd 47 95 05 bd 4b dd 2d bd
       -0.086612165 -0.11053456 -0.032613065 -0.04244737
0003e0 fe f4 cf 3d 2b 0a 8d 3c 2d ed 3e 3e 46 81 5f bd
       0.101541504 0.017216763 0.18645163 -0.054566644
0003f0 07 03 93 3d 6b 6a cf 3d c2 6b d8 3d 16 69 1b bd
       0.07178312 0.101277195 0.10567428 -0.037942015
