mlagents/Assets/results/Laberynth1/RollerBall/RollerBall-342001.onnx (onnx, 73485 bytes, 7 tensors)

action_model._continuous_distribution.log_sigma f4 [1, 2]
000000 bb 13 1e bf 64 12 b2 be
       -0.61748856 -0.34779656

action_model._continuous_distribution.mu.bias f4 [2]
000000 ab 1e 7a 3c 36 55 48 3d
       0.015266101 0.04890939

action_model._continuous_distribution.mu.weight f4 [2, 128]
000000 8d 87 0e bd 91 02 e3 bd c6 8d f4 bc 05 fa 1e 3d
       -0.03479724 -0.11084474 -0.02985276 0.038812656
000010 9c f3 ca 3c 83 54 f1 bd 42 af 88 3d 2f 4c 30 3c
       0.024774365 -0.117836975 0.06674053 0.010760351
000020 66 28 4c bd 98 04 08 3d 95 74 a4 bc 5b 74 db bc
       -0.049843214 0.033207506 -0.020075122 -0.026788881
000030 f9 b4 4a be 33 0d 60 bc 6f 71 62 be 9f 05 f7 bc
       -0.19795598 -0.013675022 -0.22113584 -0.030154048
000040 c4 52 8d bd a6 cc 71 bd e1 78 ad bd 0a a4 21 be
       -0.06900552 -0.05903306 -0.084703214 -0.15785232
000050 7e e6 b2 bd f6 16 10 3d 13 a3 a6 bd 70 b3 ab bc
       -0.08735369 0.035178147 -0.08136573 -0.020959586
000060 8b 1d 2e bd ae 43 e6 3d ad 2e 4c bd 51 57 08 be
       -0.042508643 0.112433776 -0.0498492 -0.13314559
000070 8b a7 3e be 97 33 aa bb 4d ad 8f bd f3 57 b4 bd
       -0.186186 -0.0051941383 -0.070154764 -0.088058375
000080 25 1a 72 bd 00 5c af bd 4b 42 a8 bd db f9 e9 bd
       -0.059106965 -0.085624695 -0.082157694 -0.11424609
000090 75 5e 40 bd 8f b9 36 bd 2c a2 d5 bd ec 00 f5 bd
       -0.04696508 -0.044610556 -0.104313225 -0.119630665
0000a0 44 a3 0c be 67 4a 02 bd 45 d8 ad bd 4e f8 d3 3d
       -0.13734156 -0.031809237 -0.08488516 0.10350095
0000b0 a2 2e bb bc 53 b5 67 bd d7 74 95 3d fd f6 c8 bd
       -0.022849385 -0.05656941 0.07297676 -0.09812734
0000c0 40 18 97 bd 9b bb 05 be 2b 82 1c be e6 e4 e2 bd
       -0.07377672 -0.13059847 -0.1528403 -0.11078815
0000d0 42 a3 3e 3d b9 a5 36 3e f4 58 af 39 85 1b 42 bd
       0.046542414 0.17836656 0.00033444876 -0.047389526
0000e0 51 d1 d7 bd df 3b e2 bd 75 95 a4 bd f5 2a 2b be
       -0.10537971 -0.11046576 -0.08036319 -0.16715606
0000f0 2f b8 4d 3b 4c 53 28 3d eb 7c 7f bd 97 93 92 bd
       0.00313903 0.041095063 -0.06237499 -0.07157057
000100 fc 81 ed bc 31 18 99 bd de 04 9e bd af d6 e5 3d
       -0.028992645 -0.07475317 -0.07715772 0.11222588
000110 c5 3d 77 bd b1 b1 97 bd 44 59 1c 3e 3f a5 11 be
       -0.060361642 -0.07406939 0.15268427 -0.14223193
000120 dd a3 c3 bc 74 66 74 bd 5a 3a a1 3c 64 11 f3 bd
       -0.023881847 -0.05966802 0.019681145 -0.118685514
000130 54 ce d6 bd 53 e8 1f bd 75 12 68 bd 54 3d cb bb
       -0.10488573 -0.03903992 -0.056658227 -0.0062023792
000140 f8 2f 18 be a5 09 fa bb 75 09 d7 bd 2d 6e 6b bd
       -0.14862049 -0.0076305442 -0.10499851 -0.05747812
000150 b1 2c b6 bd 16 25 c1 bd fb 7d 03 bd 6a 40 9c bd
       -0.08895243 -0.09430902 -0.032102566 -0.076294735
000160 fe 4b f9 3d 22 ac a8 bc 46 d0 c4 bd 88 ba a4 bd
       0.121726975 -0.020589892 -0.096100375 -0.080433905
000170 7b 8f e7 bb 6a 93 ce bc e2 83 03 be 96 a6 8d bd
       -0.0070666648 -0.025216777 -0.12843278 -0.06916539
000180 fd 5a c3 bd c1 7a e9 bd 21 a9 a5 bc 39 e7 1c be
       -0.09538839 -0.114003666 -0.020222249 -0.1532258
000190 e5 5b 31 bd c1 cb 44 bc 6f 9a ce bd 5f e5 f8 bd
       -0.043300528 -0.012011469 -0.100880496 -0.12153124
0001a0 1a 5c 84 bd 0d 1c c0 3b c3 b9 a1 ba 04 c6 a1 bd
       -0.064628795 0.005862719 -0.0012338687 -0.078990966
0001b0 8d 99 89 bc 41 d1 2a be cd f3 2c bd a6 e9 ba bd
       -0.016796852 -0.16681387 -0.042224694 -0.09126596
0001c0 55 07 28 be 51 a6 95 bd c3 24 a7 bd f3 46 21 bd
       -0.16409047 -0.07307113 -0.081613086 -0.039374303
0001d0 42 41 b9 bd 5e 30 5e bc aa c4 46 3d ba 2b 9e bc
       -0.0904565 -0.013561336 0.048527397 -0.01930796
0001e0 e2 0e c5 3d 2f 42 21 be 7a ea dc bd 5d e5 ac 3d
       0.09621979 -0.15747903 -0.1078691 0.08442185
0001f0 4d ce d7 3d b7 76 17 be cf 54 fb bd 7a 3c eb bd
       0.105373956 -0.1479138 -0.12272035 -0.11486144
000200 94 2c b3 3d 0e 37 de 3d 4a 17 3e 3d d9 b1 08 3e
       0.08748737 0.108503446 0.04640893 0.13349093
000210 a3 07 d7 3d 45 7b 36 3e 11 38 7c bd ef b3 16 bd
       0.104995035 0.17820461 -0.061576907 -0.03679269
000220 06 09 c5 3d de e1 a2 3b 1d 44 85 3d dd 67 74 bc
       0.09620862 0.004970773 0.06507132 -0.014917341
000230 4b 2f 94 3d 8a 16 43 3d af 6e 4a 3d 03 9e 9c 3d
       0.07235583 0.047628917 0.049421962 0.07647326
000240 a4 33 86 bb 50 28 82 3d af d6 13 3e aa e3 cb 3d
       -0.0040955115 0.06355345 0.14437364 0.09955533
000250 d8 80 d2 bc 39 32 74 bd 51 83 e9 bd 0f 7f 3c 3d
       -0.025696203 -0.05961821 -0.11402 0.04601961
000260 23 e4 d1 3d 5c 29 6b bb 08 00 c3 3d ac 93 7a 3c
       0.10248592 -0.0035882806 0.0952149 0.015293997
000270 dd 2f 68 bd 3f 17 7a 3d c9 42 da bc 96 26 e3 bb
       -0.05668627 0.061057325 -0.026643174 -0.00693209
000280 b8 b5 2f 3d ba 55 f5 3d ad 2b a8 3d 84 09 01 3e
       0.04289791 0.11979242 0.082114555 0.12601286
000290 8d 66 08 3e 43 5f 3e 3d cc aa f0 3d 9f 3b 99 3c
       0.1332037 0.046477567 0.11751327 0.018705187
0002a0 8e 7d 59 3e cc 36 9c bc 59 78 e7 3d 31 c8 88 bd
       0.21239302 -0.019069098 0.11302251 -0.066788085
0002b0 85 5e 8b 3d 60 0c ea 3d 57 b3 fa bc 90 c5 fb 3d
       0.068051375 0.114281416 -0.030603094 0.122935414
0002c0 84 a3 a4 3d 47 1a 98 3d 5c 2e d2 3d d2 7c d2 3c
       0.08039001 0.07426887 0.102627486 0.025694285
0002d0 fe b7 c8 3c 0d 4b c9 bb 4f f9 2e bd f9 68 b1 3c
       0.024501797 -0.00614298 -0.042718228 0.0216565
0002e0 0b c0 eb 3d 1f b6 0d 3e 9b c5 a5 3d c7 aa a5 3d
       0.11511239 0.13839005 0.08094331 0.08089214
0002f0 a8 d6 00 3d 29 fe ab bb 81 b3 d2 3d 2f d9 0d 3b
       0.031454712 -0.005248804 0.10288144 0.0021644344
000300 32 80 7d 3d 4f 2b c7 bd cf ac e4 3c f7 e2 09 bd
       0.061889835 -0.09725057 0.027914433 -0.033663716
000310 e4 d9 ed 3d 07 63 2c 3e 45 f1 96 bd 6d 86 3e 3e
       0.11613825 0.16834651 -0.07370237 0.18605967
000320 cd c0 b4 3d b0 c1 4c bd 5b 03 7e 3d 3b 33 da 3d
       0.08825836 -0.049989402 0.06201492 0.10654303
000330 0b 32 48 3e b4 1b 0b 3c 42 51 db 3d d8 07 94 3d
       0.1955034 0.008490492 0.10708858 0.072280586
000340 6a 1c bf 3d f6 60 1b bd ae fd 84 bd e5 f2 c6 bc
       0.093315914 -0.037934266 -0.06493698 -0.024285743
000350 9b b4 10 3e 11 97 69 3d d4 77 cc 3d 9c b2 1a 3e
       0.14131396 0.057028834 0.09983793 0.15107197
000360 84 b0 0f be b1 44 a6 bd 25 5e 02 3e 74 ee fe 3d
       -0.14032179 -0.081185706 0.12731226 0.12447825
000370 bb 96 e2 ba fb 88 8b 3d a5 4f 22 bd a1 55 f1 3d
       -0.0017287353 0.06813236 -0.039626736 0.117839105
000380 16 54 d7 3d 54 d8 cb 3d 7d 3a 0c bc 55 f1 d3 3d
       0.10514085 0.09953371 -0.008558867 0.10348765
000390 99 f2 d3 bb bb 67 fa 3c 95 a7 7b 3d ce f0 df 3d
       -0.006468129 0.03056704 0.061439116 0.10934602
0003a0 05 00 2a 3e dc 50 92 3d c1 0f d3 3d f8 ca 99 3c
       0.1660157 0.07144329 0.10305739 0.01877354
0003b0 67 14 f2 3d 81 cd 37 3d 00 53 80 3d 44 40 b1 bd
       0.11820298 0.04487372 0.06265831 -0.08654836
0003c0 a1 32 d6 3d 0a 29 4d 3e 09 7f 2b bd 15 95 a9 3d
       0.104588754 0.20035186 -0.041869197 0.08280388
0003d0 a4 2e 03 3e dd 09 e1 3d f0 9d 2c 3e 03 81 c9 3d
       0.1281076 0.109882094 0.16857123 0.0983906
0003e0 61 78 9e b8 4c ac ec 3d e5 0d 6b 3d 26 90 f3 ba
       -7.5564494e-05 0.115563005 0.057386298 -0.0018582388
0003f0 97 d9 9f bc f2 b5 50 bd e7 31 ea 3d ae d2 48 bc
       -0.019512935 -0.050954767 0.11435299 -0.012257261

network_body._body_endoder.seq_layers.0.bias f4 [128]
000000 ce 4f c0 3a 72 d1 28 3d 8d aa f8 bd be 9a d9 3c
       0.0014672221 0.041215368 -0.12141905 0.026563045
000010 c8 4e 95 bc ad ae ab bd 4a 84 a5 bd ab 67 2b 3e
       -0.018226042 -0.08382926 -0.08081873 0.16738765
000020 bd e3 dd bc ae 54 86 3d 94 ba d2 bd eb a4 04 3c
       -0.027086133 0.0655912 -0.10289493 0.00809596
000030 5c 1b d6 3b 89 2d 8c bd 7d fd 2e 3d 39 71 60 bb
       0.006534023 -0.06844623 0.042722214 -0.0034247173
000040 43 cb 80 3c ff 19 b5 3c 3c 25 a3 3d 76 2c b3 bd
       0.015721923 0.022107122 0.07966086 -0.087487146
000050 21 20 99 bd 8a 72 a3 3c 22 c7 76 bd 3b 54 d8 bd
       -0.07476831 0.019952077 -0.0602485 -0.10562941
000060 2e a8 0e bd 24 ec bd bd a5 dc b8 bd a6 0a 32 bd
       -0.034828357 -0.09273556 -0.090264596 -0.043467186
000070 3f 01 02 bd 82 a7 60 3b 56 18 a7 3d a0 57 a0 bc
       -0.03173947 0.003427953 0.081589386 -0.019573033
000080 73 cf ae bd 2e dd 0f 3e b3 4e bf bc d8 e8 bf bc
       -0.085356615 0.14049217 -0.023352956 -0.023426458
000090 f2 ce 89 bd 7f 2e f3 3b 71 74 63 3d bd 3b b9 bd
       -0.06728925 0.0074213143 0.05553097 -0.09044597
0000a0 ad 8a 77 bd df 11 df ba d2 96 a5 bc 65 d1 b2 3c
       -0.060434986 -0.0017018876 -0.020213518 0.021828363
0000b0 29 6b 7e 3d 70 c0 2c bd 08 92 da 3d b6 0b 9a bd
       0.062113915 -0.04217571 0.106723845 -0.07521765
0000c0 4b 11 a3 bc c5 7b 84 bd 31 50 b3 bd 6d 5e 0e be
       -0.019905707 -0.0646892 -0.0875553 -0.13903208
0000d0 d5 72 80 3d f3 df d4 bc e3 30 3a 3d b8 d2 a9 bd
       0.062719025 -0.025985694 0.04545678 -0.082921445
0000e0 8c 8b 67 bc 7e 17 3a 3e 9c 35 eb bc 6b 4d c7 bc
       -0.014132392 0.18173024 -0.028712086 -0.024328908
0000f0 84 03 cc bd 8d 6c f1 3c d5 9b 05 3d f4 42 c1 bc
       -0.09961608 0.029470706 0.032619316 -0.023591496
000100 d7 e1 93 bd 4d 26 3b bd a2 cb 02 3e a2 eb 95 bd
       -0.0722081 -0.045690823 0.12772992 -0.07320334
000110 05 78 b6 bb ae c8 7e bd 01 0f ae 3d 22 85 ee 3d
       -0.0055685067 -0.0622031 0.084989555 0.11646487
000120 ad 61 80 3b 95 de ad bc ae 63 e3 bd 7e 42 0c 3e
       0.003917894 -0.0212243 -0.11102997 0.1369724
000130 8b 79 58 b9 4e 7d 30 3d e7 e8 9b 3d 01 a7 2f bb
       -0.00020644644 0.04308825 0.07612782 -0.0026802423
000140 7e a8 4e bd 70 1a 7d 3d d9 a2 e6 bd 53 7b 15 3c
       -0.050453655 0.06179279 -0.112615295 0.009123641
000150 1e 8a db bd c5 2b ca bb e7 d6 a3 bd a4 9b b7 bd
       -0.10719703 -0.0061697685 -0.07999974 -0.08965233
000160 38 ca 16 3d 83 0c 05 be 09 d1 82 bc f9 04 9e bd
       0.036813945 -0.12993054 -0.015968816 -0.07715792
000170 d1 ba ec 3d cf 31 60 3d 6c b9 cb 3d f5 5d cb bd
       0.1155907 0.054735 0.09947476 -0.0993003
000180 e9 37 d8 bc 34 2e 4d 3d 2e ac f0 bd ed a9 82 bd
       -0.026393848 0.05009289 -0.11751591 -0.06380067
000190 46 c5 03 be 90 44 7e bd 3d 92 97 3d 0f 2d aa bd
       -0.12868223 -0.062077105 0.074009396 -0.083093755
0001a0 b5 bb 62 3d 06 85 ee bd ee ee 87 3d 6a 0e 88 bd
       0.055354793 -0.11646466 0.06637369 -0.06643374
0001b0 e4 62 0e bd a6 53 98 bc 80 2b 35 3d 2a eb 64 bc
       -0.03476228 -0.018594574 0.044230938 -0.013972083
0001c0 54 30 dc 3a 72 74 23 bd be 3c 93 3d 9b a1 bc 3d
       0.0016799071 -0.039905973 0.0718932 0.09210511
0001d0 22 a0 1f be 6e 9b 7d 3d 11 10 4e 3d aa b8 16 3e
       -0.1558843 0.061915807 0.05030829 0.14718881
0001e0 4e 81 1d 3d f7 ea 7d bd 4c 00 4c 3d 5b cf 76 bd
       0.038453393 -0.061991658 0.04980497 -0.060256343
0001f0 ae 9e b1 bd cc a1 5a 3c f4 13 b4 bd 32 5a 11 bd
       -0.08672844 0.013344239 -0.08792868 -0.035486408

network_body._body_endoder.seq_layers.0.weight f4 [128, 8]
000000 42 4a 22 bf 58 c0 cc be 38 12 69 3e 59 c4 44 3c
       -0.6339456 -0.39990497 0.22760856 0.012009704
000010 91 3a 0b bf 14 7c 8b 3b 14 6a 61 be ba 86 c7 3e
       -0.5438624 0.0042567346 -0.22013122 0.38969976
000020 5b 4f 90 bc ef 62 57 3e 55 40 88 bd a7 b2 0b 3e
       -0.017615965 0.21033834 -0.06652895 0.13642369
000030 f0 20 5f 3d 2d 05 8a 3e 1a b1 94 be 49 0f 8b 3e
       0.05447477 0.26957074 -0.29041368 0.271601
000040 1c 15 3c 3e 18 e4 3b be 95 c7 47 3e 46 55 d8 3e
       0.18367428 -0.1834873 0.19509728 0.42252558
000050 2d 0f c7 be 6c 34 89 3e 56 0a 10 bf f8 8a 40 bd
       -0.38878766 0.26797807 -0.5626577 -0.04700753
000060 5c ed b1 be 66 8a 15 3e 51 0a 80 3d f7 85 35 be
       -0.34751403 0.14603576 0.06251968 -0.17726885
000070 77 e5 bb be 08 9f 92 3e 63 41 dc 3d 69 aa a3 be
       -0.36698505 0.28636956 0.10754659 -0.3196595
000080 4d 0f 98 bd 83 86 fe 3e d5 a1 23 bf 1d 7a e4 3e
       -0.074247934 0.49712 -0.6391881 0.44624415
000090 cb ca 8e 3e ed a3 ab be af f6 04 bf 4e 30 b6 be
       0.27889094 -0.33523503 -0.5193891 -0.3558373
0000a0 24 d4 1a bf ab ef c3 be 92 9c 4f 3e 16 99 36 bf
       -0.6047995 -0.3826879 0.2027457 -0.7132734
0000b0 90 77 b3 be 84 9a 3f be de 5a e8 3b eb 5d 3f 3e
       -0.35052156 -0.18711287 0.0070909103 0.1868817
0000c0 eb 28 04 be 12 11 79 be 37 41 33 be 54 91 cd 3e
       -0.12906234 -0.24322918 -0.17505346 0.4014994
0000d0 1e 78 5e bd 40 44 d3 bd 72 5f 17 3e ab 64 ca be
       -0.05431377 -0.10315752 0.14782503 -0.3952993
0000e0 54 6d a2 be 9b 74 6b be e5 e5 74 be b0 7c 4d be
       -0.31724036 -0.229937 -0.23915823 -0.20067096
0000f0 15 c5 86 be d2 ae ae be 39 03 b7 be 8b b2 eb 3d
       -0.26322237 -0.34117752 -0.35744646 0.11508664
000100 f7 f3 bf 3d 10 7a 23 3f 97 35 9a 3e 23 6c cd be
       0.093727045 0.6385813 0.3011901 -0.40121564
000110 13 74 9a bd 2d 6f 6c bd cc 43 06 3f 4f 49 87 bd
       -0.07541671 -0.057723213 0.524472 -0.066057794
000120 7b d2 8b be a3 bc 19 3c bb db 91 bd 1f bd d1 3e
       -0.2730902 0.009383353 -0.071219884 0.409646
000130 35 8d 7d bd 7a aa d3 bc 69 60 c8 3e 35 29 e0 3e
       -0.061902244 -0.025838125 0.39136055 0.43781438
000140 31 31 91 3e 2a 23 2d bf 51 d8 c5 be 08 01 59 3d
       0.28357843 -0.6763178 -0.386416 0.0529795
000150 34 bb 8e be 8f 08 69 3e c3 45 5b be 9f b8 0d 3f
       -0.278772 0.22757171 -0.2141333 0.55359834
000160 56 f3 f0 bd 48 65 e9 3d 9f b5 a0 3e c2 12 90 be
       -0.11765163 0.11396271 0.31388566 -0.2813931
000170 da 0b 67 be f8 b3 96 3e b5 56 11 3e 51 62 06 3f
       -0.22563115 0.2943418 0.14193232 0.5249377
000180 4c 95 11 3f c4 55 ac be 5c 2e dd be 65 a2 70 bf
       0.56868434 -0.33659184 -0.43199432 -0.93997794
000190 59 ea d7 3a 73 e4 9b 3e 80 f8 07 be 79 1f bd 3e
       0.0016473039 0.3044773 -0.13278389 0.36938074
0001a0 af 3c 3c bd e7 f3 a1 be 69 a4 4a 3f 65 e7 fa 3d
       -0.04595631 -0.31631395 0.7915712 0.12251166
0001b0 d9 65 e5 be 75 43 aa bb c9 26 24 bf 6f b5 2d 3d
       -0.44804266 -0.00519603 -0.6412168 0.042409357
0001c0 5e 8c 2a 3e ce 3a 80 3e 1e a6 07 bd 9d 7b d5 bd
       0.16655108 0.25044864 -0.033117406 -0.10423968
0001d0 00 9e f4 3e e8 2f 13 be c3 81 7b 3f 3e 4b bd 3d
       0.47776794 -0.14373744 0.98244876 0.09242867
0001e0 41 09 31 be 95 49 3a bd a4 79 08 3e 40 c6 ba 3e
       -0.17288686 -0.04548033 0.13327652 0.36479378
0001f0 41 a0 6e 3e 36 fa cf 3e 44 d5 b7 3e 78 38 27 bf
       0.2330332 0.40620583 0.35904896 -0.6532054
000200 c0 de 8f bc 21 82 d7 bd 72 dd 81 be bb 01 1f 3e
       -0.01756227 -0.10522867 -0.25364262 0.15528004
000210 29 4c bd 3e 18 80 b0 be b1 89 32 3f 5d 78 49 be
       0.36972168 -0.34472728 0.6974135 -0.19674821
000220 a7 d8 23 3b 41 22 98 3d 68 75 3f be 81 79 fb 3d
       0.002500096 0.074284084 -0.1869713 0.122790344
000230 5b f9 cb bd e8 a7 80 3d c6 1d 58 3f bd a0 55 3e
       -0.0995967 0.062820256 0.8442043 0.20862098
000240 41 f4 81 be e9 42 11 3e 7f f2 4c 3e 44 23 ba 3e
       -0.25381663 0.1418568 0.2001438 0.3635503
000250 dc 2e 8a bd 1a 8b 05 3e 3e e0 74 3f cf c4 82 3c
       -0.06747219 0.13041344 0.95654666 0.015962986
000260 aa 9c 26 3e 53 1e cb be 3f 10 15 3e 3a 6a 0f bf
       0.162707 -0.39671573 0.14556979 -0.56021464
000270 31 63 19 bf 41 25 8d 3e 03 46 52 3e e3 52 34 3e
       -0.5991698 0.27567485 0.2053452 0.17609744
000280 46 32 b1 3e e0 e9 5a be 8e 00 51 3c b8 68 5b be
       0.34608668 -0.21378279 0.01275648 -0.21426666
000290 a8 cf ca 3e 55 d2 ac 3e dc 78 3e 3f 35 29 9b 3d
       0.39611554 0.3375422 0.74403167 0.07576219
0002a0 91 e0 5c be c8 b9 04 3d eb 8f c0 bc 3d 9a 21 be
       -0.2157004 0.032403737 -0.023506125 -0.15781493
0002b0 ae 22 a8 3d 0b 05 84 be 93 00 f4 3e 28 fa 06 3e
       0.082097396 -0.25785097 0.47656688 0.13181365
0002c0 6a 98 23 bf c6 4c e7 3d 8c 91 b3 3e 9e f3 bf 3f
       -0.6390444 0.1129394 0.3507198 1.4996221
0002d0 25 fc d4 3d a3 58 1c be a1 df aa be 6e a4 a5 bd
       0.10399655 -0.15268187 -0.3337374 -0.08088003
0002e0 27 88 40 3f c1 bb 7c be 82 ef 72 3e 98 14 9e 3d
       0.7520775 -0.24680997 0.23724177 0.07718772
0002f0 5e cf a5 bc a3 f2 f1 3e d1 76 b2 be 12 82 ce 3d
       -0.020240482 0.4725543 -0.34856275 0.10083403
000300 a0 ab 81 3d 7f 55 5a 3e 73 23 94 be 54 94 72 bd
       0.06331563 0.21321677 -0.28933296 -0.059223488
000310 c5 06 ba 3e b3 2a c0 bd c4 4e 52 bf f7 97 15 3e
       0.3633329 -0.09383144 -0.82151437 0.14608751
000320 2c 88 ec be bc 9a db be 7b e3 97 be d4 75 a2 3d
       -0.4619764 -0.4289149 -0.2966574 0.0793263
000330 77 d1 ca 3e 72 38 10 be 1c b8 08 3c b4 f0 22 3e
       0.39612934 -0.14084032 0.008344676 0.15912133
000340 d3 c8 84 be 07 0d af 3d da 1b 0a 3d 1c 37 d7 3e
       -0.25934467 0.08547407 0.033717968 0.42034233
000350 18 bd 7a be ee 94 41 3d 74 d0 09 be 47 fe 1b bd
       -0.24486196 0.04726117 -0.13458425 -0.038084295
000360 8a 15 2e 3f 60 e2 97 3d ac 62 44 3f d9 c5 47 be
       0.68001616 0.074162245 0.7671306 -0.19509067
000370 d6 92 f4 be 5e fe ee bd 10 53 04 bf 44 43 94 3e
       -0.47768277 -0.116696104 -0.51689243 0.2895757
000380 f0 2c ea bd bc 55 0b bf fc fc 4e be 7d 5a 41 bd
       -0.114343524 -0.54427695 -0.20213693 -0.047205437
000390 ee af 75 3d 1b 22 7d be 52 4b 4f bf ad e3 82 3e
       0.059982233 -0.24720041 -0.80974305 0.25564328
0003a0 78 19 e6 3d b1 ca 73 3f 52 36 84 3e b2 b8 cd bd
       0.112353265 0.9523116 0.25822693 -0.100449935
0003b0 c3 8c 95 3f 4a b5 36 3e 12 d0 85 bf 8f b6 b7 be
       1.1683582 0.17842594 -1.0454123 -0.3588147
0003c0 37 8b 97 3c 26 aa 8c 3e d2 a6 bc 3e 9f 3f 72 bd
       0.018499 0.27473563 0.36846024 -0.059142705
0003d0 5e 33 28 3e 40 ad e6 3e 5e 06 84 be 83 22 0a bf
       0.16425845 0.45054054 -0.25786108 -0.5395891
0003e0 e8 15 39 3e 3b 6d 85 3e fe a4 98 be 34 84 9c 3e
       0.18074763 0.260599 -0.2981338 0.30569613
0003f0 fa b3 1e 3e 27 21 6b 3e 1e 23 15 3f 87 f6 52 be
       0.15498343 0.22961865 0.5825671 -0.20601855

network_body._body_endoder.seq_layers.2.bias f4 [128]
000000 45 a1 9c bc 9f ed b5 bc 59 76 99 bc ba f5 23 3d
       -0.019119868 -0.022208033 -0.01873319 0.040029265
000010 d6 99 cc 3c af 05 06 3d 30 77 b7 bc 7a 8a 22 bd
       0.024975698 0.032720264 -0.0223957 -0.039682843
000020 cd cd 12 bd 1f f9 c2 bc e1 f6 4b bd 77 db 7a bd
       -0.0358408 -0.02380043 -0.04979599 -0.061244454
000030 94 79 a0 3c 31 54 82 bd ab a6 87 3c da 32 82 bc
       0.019589223 -0.063637145 0.016558966 -0.015893389
000040 d4 34 99 bc 2a 1f d3 bc 99 68 7a bc 35 64 91 bb
       -0.018701948 -0.025771696 -0.015283727 -0.0044369944
000050 0b 56 16 bc 99 af 52 3b 43 66 bd b8 b8 67 7d bd
       -0.009175788 0.0032148121 -9.03127e-05 -0.061866492
000060 b2 02 7f bb 3f 91 ac bc b2 32 ed bc 9c de 1e bc
       -0.0038911519 -0.021065352 -0.028954837 -0.009696629
000070 d9 ca 46 3d 84 36 69 bd c6 8e 55 bb cd 04 b2 bb
       0.048533294 -0.056936756 -0.003258632 -0.005432701
000080 d8 7d 31 3c 7f 6c 45 bc 9b 63 45 bc d8 ff ac 3c
       0.010833226 -0.012049793 -0.012047674 0.02111809
000090 cb d9 41 bc 1f 11 09 bd 5e 7b 2c 3c 5f 66 51 bb
       -0.011831711 -0.033463594 0.01052746 -0.0031951887
0000a0 9b 9b aa bc b6 ea 6d bd 55 62 3b bc cf 15 02 bd
       -0.020826152 -0.058085166 -0.011437018 -0.03175908
0000b0 50 5a d4 bc 1e e4 4a bb b4 5a 18 bc 1b 19 02 3d
       -0.02592197 -0.0030958722 -0.009298969 0.031762224
0000c0 77 e1 26 bd c4 90 42 bc d0 09 9f 39 c1 bc a0 bc
       -0.040742364 -0.011875335 0.00030334154 -0.019621255
0000d0 89 5f d8 bc f6 d7 8b 3c 98 a3 60 bd 25 d2 9c 3c
       -0.026412742 0.017070752 -0.054843515 0.019143173
0000e0 07 55 91 bb 2b 32 79 3c 39 89 69 ba 8f 7c 87 3c
       -0.004435185 0.015209715 -0.00089086924 0.016538886
0000f0 9c b9 88 bd cd 41 7a bd 46 80 8b 3b fe 45 a6 bb
       -0.06676027 -0.06109791 0.0042572347 -0.0050742617
000100 95 59 41 bd 0f 8b 83 bc 5a 05 d0 3b 6c 6b d1 3c
       -0.047204573 -0.01605752 0.006348294 0.025563918
000110 9c a6 d2 bc 7b ca 9c 3c 1a b4 43 3d 4f bc 71 3c
       -0.025714211 0.019139519 0.04777918 0.014754369
000120 a5 ff 3f bc 7e ba 86 bc 74 ed 2b bd e9 31 6c 3c
       -0.011718665 -0.016446348 -0.0419745 0.014416196
000130 5d 29 42 bc a0 3b b8 bc 34 fa a0 bc ac cd 04 bd
       -0.011850682 -0.022489369 -0.019650556 -0.032422706
000140 6c 49 a7 3c 85 53 87 bd cc cc 4b bd 05 93 14 bd
       0.020420752 -0.06607727 -0.049755856 -0.03627302
000150 d1 e0 01 3d 72 55 21 bd b5 f1 f8 3c db 0f 31 bb
       0.031708542 -0.039388128 0.030388692 -0.0027017507
000160 df 72 ae 3c 63 16 79 3b 1f cb f3 3c 38 ff bd bb
       0.02129501 0.0038007728 0.029759942 -0.0057982467
000170 48 5b a9 bd 32 b0 be bc 65 5e 90 3b 87 b1 b5 bb
       -0.08269364 -0.023277376 0.004405784 -0.0055448445
000180 10 a8 1c bc 9d 49 05 bc fd b4 ab bc 24 bc 5e bc
       -0.009561554 -0.008135227 -0.020960325 -0.013594661
000190 04 a8 0d bc 8e b4 c2 bd 5f 05 83 39 f1 89 6f bc
       -0.008646015 -0.09507094 0.0002499027 -0.01462029
0001a0 43 f1 d3 bc cd fb ac 3c 04 8a 1b bc a1 2f 8e bc
       -0.025871878 0.021116162 -0.009493355 -0.017356696
0001b0 53 2e 6f bb 75 30 2b 3c e1 65 21 bd 37 b7 7b 3c
       -0.0036496117 0.010448565 -0.0394038 0.015363506
0001c0 ed 46 23 3b 87 8d 87 bc 2c 32 1e bd 73 cf d8 3c
       0.0024914101 -0.016546978 -0.038622066 0.026466107
0001d0 d7 6b 6e bc 5f 66 c1 bc d0 62 48 3c 86 87 dd bc
       -0.014552078 -0.023608385 0.01223059 -0.027042162
0001e0 71 97 5c bc 2d ff 8f 3c e0 e0 ea 3b 0f 67 3f bd
       -0.013463841 0.017577732 0.0071679205 -0.046729144
0001f0 db 9a d8 bb 2b 63 63 3b 4b ea 80 bc 0d 86 22 3b
       -0.006610257 0.003469656 -0.01573672 0.0024799139

network_body._body_endoder.seq_layers.2.weight f4 [128, 128]
000000 97 20 80 bd 18 e8 82 3c 64 21 57 bd 93 31 b7 bc
       -0.06256216 0.015979812 -0.05252208 -0.022362506
000010 85 dd 74 bc fe 0b 78 bd d5 cc 80 bd 4d 86 40 bd
       -0.0149453925 -0.06055831 -0.062890686 -0.04700308
000020 b6 1a a0 3c 8d 4b 1a 3e 85 e7 c6 bc 0e 9c b7 3d
       0.019543987 0.15067883 -0.024280319 0.08965312
000030 eb 8b 18 bd 44 92 fa 3d c4 00 6f be b5 38 f8 bc
       -0.03724281 0.12234929 -0.23340136 -0.030300478
000040 c9 46 57 bd 6c d0 b7 bd e7 65 ab bd 1c 78 66 3d
       -0.05255774 -0.089753 -0.08369046 0.05626689
000050 fc 28 e2 bd d9 3d 0d be 57 1b 21 bd cf a3 b8 bd
       -0.110429734 -0.13793124 -0.039332714 -0.09015619
000060 b2 29 8f 3c 9d 23 b8 3c 3d 19 10 bd c0 8b 97 bd
       0.017475937 0.02247792 -0.03518032 -0.07399702
000070 8f 2c 76 3d 21 ab 3e be 56 c2 a7 bd d6 e2 1d be
       0.060101088 -0.18619968 -0.081913635 -0.15418562
000080 a7 af 94 3c b6 e0 16 3e 10 46 26 be 72 a5 5f be
       0.018150164 0.14734158 -0.16237664 -0.21840456
000090 7d d4 6c 3d 02 74 33 bc d3 b7 10 be 00 c3 a2 bd
       0.057819832 -0.010952951 -0.14132623 -0.079473495
0000a0 22 29 99 3d 05 87 14 bc e2 89 d2 bd e5 8d b9 3d
       0.074785486 -0.009065394 -0.10280205 0.09060267
0000b0 73 b4 29 3d 10 6d 80 3e 6d 9c 96 3d b1 0a 02 3e
       0.041431855 0.25083208 0.073540546 0.12699391
0000c0 79 4d db 3b ea 44 fc 3d 3b f8 d2 bd 02 ab 81 bd
       0.006692585 0.12317832 -0.103012525 -0.06331445
0000d0 a7 df 99 bb 87 0b c1 bd 73 b9 8d bd 78 55 02 bd
       -0.004695851 -0.09426027 -0.06920137 -0.03181979
0000e0 40 fc 13 3e 96 3b 9d bd ec 80 07 be ea 49 2c 3d
       0.14451694 -0.07677381 -0.13232774 0.042062677
0000f0 1f ed 04 bd 07 2f ec bd d8 8b 17 be 6c 3b 09 bd
       -0.0324527 -0.11532407 -0.1479944 -0.033503935
000100 de e9 a1 be 4c f1 16 be 2d 97 d0 bd 96 29 15 be
       -0.3162374 -0.14740485 -0.101850845 -0.14566645
000110 f5 6d 52 3d de 24 22 ba c9 08 3d bd b3 0f 46 3e
       0.051374394 -0.0006185303 -0.046150956 0.19341926
000120 ce 9e 7e bd 3f 46 e5 3d 5e a9 d2 bb ac 56 ff bc
       -0.062163167 0.11195039 -0.0064288815 -0.031169258
000130 4d 74 25 bd 41 6b 1c be 1f cd fc 3d 5f 1d 50 be
       -0.040394116 -0.15275289 0.12343811 -0.20323704
000140 98 6b 95 bd 0f c6 61 3d 37 cb cd 3c 53 b3 63 3d
       -0.072959125 0.055120524 0.025121314 0.05559094
000150 71 39 90 3d 46 a8 48 3e 70 5a 60 bd b1 bf 20 3d
       0.07042206 0.19595441 -0.054773748 0.03924531
000160 dd 47 70 ba c5 ed 73 3d a0 a7 c8 bd 31 91 bb 3c
       -0.0009165982 0.059552927 -0.09797597 0.022896381
000170 8b 32 48 3d d5 6f 51 bd 17 8a 13 3d 67 bf 8d bd
       0.048876327 -0.051132042 0.036020365 -0.06921273
000180 db 31 89 be c0 7d 3d be 44 2c aa bd 42 d7 67 bc
       -0.2679585 -0.18505001 -0.08309224 -0.014150443
000190 30 e6 ea 3c 58 68 09 bd 94 71 ac bd aa 3a 68 3d
       0.028674215 -0.033546776 -0.08420101 0.05669657
0001a0 ae bb 32 3d 45 10 62 3e de 63 d0 3d da e1 84 bd
       0.043636017 0.22076519 0.10175298 -0.0648839
0001b0 49 8a c7 3c b9 e9 ff bb 68 17 53 bc df 0b ac 3d
       0.024357932 -0.0078098443 -0.012883998 0.08400702
0001c0 60 02 ea bd 1a 47 7c be d7 0d 81 3d bb 11 e8 3d
       -0.11426234 -0.24636498 0.06301468 0.11331507
0001d0 01 06 07 3e c9 9e c8 bb 5a 5c 28 bd 09 20 a8 bd
       0.13185884 -0.0061224443 -0.0411037 -0.08209235
0001e0 b0 a4 e7 bd ab 25 23 bd 52 30 d2 3d 4a e6 be bd
       -0.113107085 -0.039830845 0.102631226 -0.09321268
0001f0 af 3e c4 3d aa ee 22 bd 96 8c 17 be b2 06 2d be
       0.095822684 -0.03977839 -0.14799723 -0.16897085
000200 6d d0 ff bc 11 3d f2 3b 65 1b 1c be 68 36 3a 3d
       -0.031227315 0.0073925336 -0.15244825 0.045462042
000210 40 b2 fa 3d 31 52 14 bb 38 47 43 be df b5 30 bd
       0.1224103 -0.0022631998 -0.19070137 -0.043142196
000220 25 8e 67 bc 0d 52 4f be 97 d8 89 3d ee 0f 16 be
       -0.014133011 -0.20246144 0.06730764 -0.14654514
000230 b9 93 10 be e4 89 93 3a 36 59 d1 3c 94 f7 c1 bc
       -0.14118852 0.0011256305 0.025555234 -0.023677625
000240 ed a0 2c be 54 28 1b be a0 30 c0 bd bd 0f a5 bd
       -0.16858263 -0.15152103 -0.093842745 -0.080596425
000250 2b dc fc 3d c3 d5 a1 3d ba 8a b4 bd 5f 5d 8d bd
       0.12346681 0.079021 -0.088155225 -0.06902575
000260 a7 a9 83 bb 07 06 2c bd 46 21 3a bd 54 43 28 bc
       -0.004018027 -0.041997936 -0.04544189 -0.0102699585
000270 3f 32 84 be a3 88 d0 bd 42 5b 8b bd e3 ed 06 3c
       -0.25819585 -0.101823114 -0.068045154 0.008235428
000280 e8 0a c3 3d 80 c1 e0 bd 1f 50 1b bd a0 07 96 bd
       0.095235646 -0.10974407 -0.037918206 -0.07325673
000290 a4 f0 82 3d 45 88 4e 3d f6 5b 80 3d d6 31 aa 3c
       0.06393555 0.050422926 0.0626754 0.020775717
0002a0 eb ab 82 bc f6 2b d3 bd 24 b8 11 be 2b 87 2c 3b
       -0.015951118 -0.10311119 -0.142304 0.0026325684
0002b0 1a fa 1d be 28 52 77 3d dc e7 d6 3c af 60 d5 bc
       -0.15427437 0.060381085 0.026233606 -0.026047079
0002c0 32 32 e3 3d 38 de 51 bd 69 32 1a bc ef 65 bb bb
       0.11093558 -0.051237315 -0.009411433 -0.0057189385
0002d0 54 05 7b 3d 2c 25 25 bd 78 fe 73 3c bd 11 f1 bb
       0.06128438 -0.040318653 0.014892213 -0.007356851
0002e0 94 43 19 3c 07 26 4f be 32 d4 ad bc 31 a8 14 3d
       0.009354491 -0.2022935 -0.021219347 0.036293212
0002f0 ef f5 12 3d cc 16 2e bb 7f c4 80 bd 27 90 16 bd
       0.03587907 -0.002656388 -0.06287479 -0.03675857
000300 62 d2 1c bd a1 2a 26 3c 6c c9 2b 3b e9 01 01 be
       -0.038286574 0.010141999 0.0026212586 -0.12598385
000310 5d 4b 9d 3d a3 63 65 3d 27 8d 67 bd c7 88 04 be
       0.0768039 0.056003224 -0.056531098 -0.12942801
000320 bd 5f 2e 3e 7a f0 9f 3d e5 b1 84 bd 1a 10 bf bd
       0.17028709 0.07809539 -0.06479243 -0.09329243
000330 b3 37 d1 bb ad 15 06 3d f4 71 34 3d 9a 3f 20 bc
       -0.0063848137 0.032735515 0.044053987 -0.009780789
000340 b8 3c 43 bd 0d e6 5f 3e 72 01 b3 3d 39 d1 f2 3c
       -0.047665328 0.21865101 0.0874051 0.02964078
000350 57 67 d3 bc b1 f8 3d be 04 98 37 3d fb 8c 82 bd
       -0.025806112 -0.185519 0.044822708 -0.06374546
000360 9b 2e 03 3e 12 00 d7 bd cb 6a e8 3c 71 2b 88 3d
       0.12810747 -0.1049806 0.028371235 0.06648911
000370 7f 17 b3 ba a6 fd fb bd 59 ec 85 bd af 91 0c 3e
       -0.0013663619 -0.12304239 -0.0653922 0.13727449
000380 f1 da 46 bc 50 94 d7 3d 9c 8a 60 bd 4c 4f 21 be
       -0.012137161 0.10526335 -0.05481969 -0.15752906
000390 ad a4 95 3d be f1 71 be 6b b5 00 be 96 a5 91 bd
       0.073068 -0.23627374 -0.12569205 -0.07111661
0003a0 c9 99 4e 3c 0d da 0a bd 81 77 a6 be d7 83 11 3d
       0.012609907 -0.033899356 -0.3251305 0.035526123
0003b0 3e b8 a8 bd f5 fb 5f 3e 5a ad 32 bd 1b 7c c2 3d
       -0.082382664 0.21873458 -0.043622352 0.094963275
0003c0 0e 23 23 be 24 89 d6 bd 13 d6 4e 3c 42 4f 8d be
       -0.15931341 -0.10475376 0.012624281 -0.2759953
0003d0 76 83 f7 bb 2e 90 65 3b 86 58 1e be 0c 81 4a bd
       -0.007553513 0.0035028565 -0.15463457 -0.049439475
0003e0 4d 28 8e 3d 81 8c 61 bd f1 d0 9e bd 47 01 e8 bc
       0.069412805 -0.055065636 -0.07754696 -0.028320922
0003f0 27 87 c3 bc c7 f4 2a bd 47 3a 65 bc 84 29 1e 3d
       -0.023868157 -0.041737344 -0.013990945 0.03861381
