mlagents/Assets/results/RollerBall/RollerBall/RollerBall-7672.onnx (onnx, 73485 bytes, 7 tensors)

action_model._continuous_distribution.log_sigma f4 [1, 2]
00000000: 1743 0bbd 4eae dabb
-0.03399953 -0.006673611

action_model._continuous_distribution.mu.bias f4 [2]
00000000: ee40 293b b3ac 8ebc
0.0025826055 -0.017416334

action_model._continuous_distribution.mu.weight f4 [2, 128]
00000000: 1067 953b b095 2ebc 676e 253c 674c 2dbb
00000010: 3ea7 05bd fdc4 6fbb 39d9 963c 5906 613a
00000020: 5349 24bc 8377 b53c 62fe 85ba 00a8 63bb
00000030: f2a3 cab8 463f 9c3c 8bab 41bc d768 c23c
00000040: fce0 9c3c 580a 2cbd 525c 80bc 0e21 0dbc
00000050: 83c6 a23c d990 77bb 051f 07bd 2ffc 73bc
00000060: 6707 893c de00 27bd c860 a2bb 5fe1 c23b
00000070: c325 9fbc f372 333a 15b0 723c cd35 dd3c
00000080: 42d9 9abc 069f 4d3a 89e6 8cbb 0548 933c
00000090: 11ae 0f3c 9a87 d83b 1881 d0bb d85d 3e3c
000000a0: 840e ae3c d395 89bc 6ad9 6b3b 1089 19bc
000000b0: 4799 30bc 9e6c babb 42ab 9f3c e3ea 1b3d
000000c0: 82b1 043a bb81 8e3c 8783 463c ca20 a5bb
000000d0: d99b 77bb 31de a2bc 9509 ddbc a15c d6bb
000000e0: 9d9c c23c f215 a63c eca7 f43b 1020 42bb
000000f0: 9789 503b 56d7 5a3c 1761 5cbb e80d 0cba
00000100: 827f 3fbc 2728 91bd d0a5 743c 20cd c4bb
00000110: 4f67 983c 7450 9cbc 8a30 33bb fd89 b3bb
00000120: bdc1 183c 6744 13bd 2f65 25ba 11b9 a13c
00000130: ecd4 383c a855 5cba b09c e5bb d32f a63c
00000140: 47b6 00bc 6e0c 66bd 9b20 2cbb 3009 13b9
00000150: 877a 65bd b2b2 36bd 96cc 02bd f378 a73b
00000160: b08b 06bb fa66 05bc e5b7 103d 5dba d23b
00000170: f191 34bd 641b 7f3c 05fb 1d3b 4545 d2bc
00000180: a23c a7bc e88d 0b3c 5ee2 29bb 6896 0c3c
00000190: e094 583c 8aec 85bb 9efb 60bc 5b5e 09bc
000001a0: 90d3 2d3b c449 17bd 85db bebc 033f 0bbc
000001b0: 9c8d 063d 28f3 093c 4c0f 633c 0436 5c3c
000001c0: 44f2 883c 2efa d03b 5e74 433b 178a 563c
000001d0: 8b10 be3c e7d0 b5bb 4fed 1e3b 6f46 333b
000001e0: 28fb 4d3b 15ca c4ba 41be 90bb b303 523c
000001f0: f7dd 2cb9 cab9 02bc 27b8 6f3b f9f1 c2bb
00000200: f0ab 36bb 248e 6cbc fd2c 6fbc dbc4 d13c
00000210: d578 b93c 31ad 7e3b 5ced c73c c210 febb
00000220: 4f84 133c 8a88 db3c 95b8 083c dc6f 053c
00000230: 7276 2d3a a2d0 9b3d b26a bcba c9c0 6abc
00000240: 702e 17bc c6e7 47bc cea2 4bba 26f1 ad3b
00000250: 663e 8cba dd10 67bc 05a1 003b 64d9 9d3c
00000260: af2e 803b 3824 2d3c 24a2 0b3d 009a 22bd
00000270: 6239 c1bc c18b 053b c00b 1abc 2507 12bb
00000280: be11 963b 153d 663d f40c a7bb 0e2a 6f3c
00000290: 5315 6b3a 2816 843c cf5c 6dbb 1ebb ebba
000002a0: 3c27 803d 93d2 8abc 1f65 a0b9 9f56 803c
000002b0: 46b3 ac3b 7bc3 86bc 478a de3a 739a 063d
000002c0: 76af a03c 8050 fc3c f299 11bd 3011 033d
000002d0: fdfb 0ebc 5c08 493c b740 3a3b 2d2f fc3c
000002e0: 1dcc 87bc 32c3 983c 34ff ae38 ff62 073b
000002f0: 4b8f 683c 9d13 06bc 5fd7 473b d7f4 143d
00000300: ac8e 03bb 14ff 873d 6d42 6d3b d91e 26bc
00000310: cc3d 72bc cc66 12bb ea96 a8bc 614b 0b3c
00000320: 0a18 743c eff6 da3b 26ba e7bb c65a 23bc
00000330: efea d13c ef16 12bc cea7 54bb d946 72bc
00000340: a323 cc3c 6943 523d c90c 67bc 424e a13c
00000350: d0a8 e23c 165e 37bd acfb adbc 3148 82bc
00000360: 2fc6 95bc 6b8c c73c 4fc1 d0bc 12a7 01bc
00000370: b5a4 14bc 6241 793b d87d 093d a134 bcbb
00000380: db46 b73c 0e1c 823b 0e78 0a3c 1395 7c3b
00000390: da11 34bb a17b c53c be7a 3d3b 8f3d 91bc
000003a0: 5c15 a4bc cf6f 3d3d 97f0 c83b 6b18 e5bb
000003b0: 7f62 f6bc e659 bd3c 1502 f0bb 6c4e 653b
000003c0: 806f e9bc ac46 0e3d e035 d73c 6fd3 80bc
000003d0: 2822 e4bc 873d 453c 18b1 96b9 9687 c43c
000003e0: ed9a 4d3d f2ea 1537 508d 48ba 99a2 e5bb
000003f0: 2de3 95bb 16d5 d73c 5411 ad3c 956b 423c
0.004559405 -0.0106558055 0.010097123 -0.0026443244 -0.032630198 -0.003658592 0.018414127 0.0008584015
-0.0100272475 0.022151714 -0.0010222907 -0.0034737587 -9.662648e-05 0.01907314 -0.011820684 0.023731632
0.01915025 -0.042002052 -0.015669022 -0.008613838 0.019870048 -0.0037775545 -0.032988567 -0.014891668
0.016727163 -0.04077231 -0.004955385 0.0059472765 -0.019427186 0.0006845437 0.014812489 0.027003193
-0.018902425 0.0007843826 -0.004299943 0.017978678 0.008769528 0.006607962 -0.0063630454 0.011619054
0.021247156 -0.016795075 0.0035987743 -0.009371057 -0.010778732 -0.0056892177 0.019490842 0.038065802
0.0005061851 0.017395845 0.0121163195 -0.005039309 -0.0037782101 -0.01988134 -0.026982108 -0.006541804
0.02375632 0.020274136 0.007466307 -0.0029621162 0.0031820291 0.013357004 -0.0033627206 -0.00053426484
-0.011688115 -0.070877366 0.014932111 -0.006005898 0.018603949 -0.019081332 -0.0027342164 -0.005479096
0.009323535 -0.035953905 -0.0006309328 0.019741567 0.011281233 -0.0008405098 -0.007007204 0.020286476
-0.007855958 -0.056164198 -0.0026264552 -0.00014022435 -0.056025054 -0.04460401 -0.03193339 0.005110854
-0.0020530038 -0.008142227 0.035331625 0.0064309076 -0.044084493 0.015570495 0.0024105918 -0.025667796
-0.020414654 0.00851772 -0.002592228 0.0085807815 0.013219088 -0.0040870355 -0.013731865 -0.0083843125
0.0026523806 -0.036935583 -0.023298034 -0.00849891 0.032849893 0.008419789 0.0138586275 0.013440613
0.016717084 0.00637748 0.0029824 0.013094447 0.023201248 -0.0055485847 0.0024250334 0.0027355214
0.0031430218 -0.0015013838 -0.0044172113 0.012818265 -0.00016485887 -0.007978866 0.003657827 -0.0059492555
-0.0027873479 -0.014438186 -0.014598128 0.025606563 0.022640625 0.0038860554 0.024405174 -0.0077534625
0.009003713 0.026798505 0.008344789 0.008144345 0.0006617076 0.07608153 -0.0014375059 -0.01432819
-0.00922738 -0.012201255 -0.0007768095 0.005308288 -0.0010699749 -0.014103142 0.0019627225 0.019268699
0.003911815 0.010567717 0.034090176 -0.039697647 -0.023586933 0.002037749 -0.0094022155 -0.002228209
0.0045797518 0.056210596 -0.0050979797 0.014597429 0.0008967716 0.016123846 -0.0036218648 -0.0017984842
0.06257483 -0.016946113 -0.0003059292 0.015666304 0.0052703945 -0.016450634 0.0016978466 0.032862138
0.019614916 0.030800104 -0.035547204 0.031998813 -0.008727071 0.012270059 0.002841992 0.030784214
-0.016576821 0.018647764 8.344502e-05 0.0020658372 0.01419432 -0.008183387 0.0030493361 0.03636631
-0.0020074053 0.06640449 0.0036202923 -0.010139191 -0.014785241 -0.0022339104 -0.020579774 0.008501858
0.0148983095 0.006682269 -0.007071751 -0.009970373 0.02562472 -0.008916601 -0.0032448652 -0.014787399
0.024919337 0.05133382 -0.014102169 0.019690637 0.027668387 -0.04476746 -0.02123817 -0.015903564
-0.018282978 0.024358949 -0.025482802 -0.007913368 -0.009072472 0.0038033356 0.03356728 -0.0057435785
0.022372654 0.0039706295 0.008451475 0.0038541004 -0.002747646 0.024106802 0.0028912271 -0.017729549
-0.020029716 0.046249207 0.006132196 -0.0069914362 -0.030076263 0.023114156 -0.007324467 0.003498937
-0.02849555 0.034735367 0.026270807 -0.01572582 -0.027848318 0.012038595 -0.00028742175 0.023990434
0.050196577 8.9357945e-06 -0.0007650452 -0.0070079085 -0.0045742006 0.026346724 0.021126427 0.01186647

network_body._body_endoder.seq_layers.0.bias f4 [128]
00000000: d49e 6e3c eb86 9a3c ad58 293d 3da0 21bc
00000010: 94b6 ddbc 7216 4cbc 426b f43a fe55 363d
00000020: 4541 a13c 0593 823b d5b5 623c 67e4 223d
00000030: ef7b 13bc 85a8 a2bc aae2 7ebb 9c92 04bb
00000040: 954b c13b 37b7 233d 6ac6 1b3c 88e7 9ebc
00000050: ffea b0bb adf5 8dbc f638 3f3b 053b a43b
00000060: c5f5 d5bb e1f2 663b 6672 673a ee3d eb3b
00000070: d06d 37bc 4f06 5d3b 84ec 15bd 8d56 403c
00000080: 0a18 61bb fe61 923c 8a97 7b3c ea89 553c
00000090: 7efc 8e3c 5cc2 8ab9 581e b4bc 2198 aabc
000000a0: 8587 87bc ffb7 113d 9522 003c 8ce4 08bd
000000b0: 96e0 0ebc 9c44 313c 9028 c7bc 8e9d dd3c
000000c0: d5a0 5f3b 0545 833c 9d68 1e3c 5de0 efbb
000000d0: 8d80 0dbc 2944 af3b 9515 e13c fb33 d03c
000000e0: 4bc4 ee3c 7088 fc3c 5d64 bd3c d65f 003d
000000f0: 9737 09bc 3ff7 f8bc 19c7 8cbc 5f20 d63c
00000100: 6110 52bc ccdd a53c ee63 29bc 40df 2a3c
00000110: 7378 9bba 4f68 80bc 917c 95ba 08d2 a23a
00000120: 9ff1 b6bc 7a68 403d fe9e e03c 98a9 3abc
00000130: 4343 03bc 261c 653c 2891 f43b bd45 043c
00000140: 0ef1 c63b 3154 333c 9680 d83c 7dd9 66bc
00000150: a868 c3bb 4248 cebb 0075 dfbc 0f1e 0bbd
00000160: 03a9 32bd 3398 b03c fa4a a3bc b761 85bc
00000170: e5ae bf3c 3530 1a3d a5fc dcbc 53f7 97bb
00000180: d90b 08bb 3245 93bc 9f36 693c 7a52 8bbb
00000190: 9bd2 1bbb e0f2 803c ed05 c73c 6640 96bc
000001a0: 085c 11bb bd9b 05bd fce5 913b b1f6 0a3d
000001b0: 0863 213c 2783 173c 0328 48bd 92f4 59bd
000001c0: b108 bcbc 9c00 02bc fdd6 303d ab8d ad3c
000001d0: 2c67 a0bc 7c6e 083c a009 e6bc f37d c83c
000001e0: 5b46 ac3c b7cb 12b9 f7b0 edba ac20 0abc
000001f0: 1b15 6abc e6ce 843a eddb d7bc a286 9bbc
0.014564235 0.018863162 0.041344333 -0.009864864 -0.0270646 -0.012456523 0.0018647688 0.044515602
0.019684443 0.0039848113 0.013837297 0.039768603 -0.009001716 -0.019855747 -0.0038892427 -0.0020228988
0.0058989027 0.03996965 0.009507755 -0.019397512 -0.0053991075 -0.017329061 0.0029178238 0.0050119185
-0.006529542 0.0035239982 0.00088289974 0.0071790135 -0.011195615 0.0033725684 -0.036602512 0.011739385
-0.0034346604 0.017868992 0.015355954 0.01303337 0.017454382 -0.0002646622 -0.021987125 -0.020824494
-0.016544113 0.035575863 0.007820745 -0.033421084 -0.008720538 0.01081958 -0.024311334 0.027052667
0.0034122963 0.016024122 0.009668496 -0.0073204474 -0.008636606 0.0053487015 0.027476111 0.025415411
0.029146334 0.030826777 0.023119146 0.031341396 -0.00837507 -0.030391334 -0.01718478 0.026138483
-0.012821288 0.020247363 -0.0103387665 0.0104292035 -0.0011861458 -0.015674738 -0.0011404922 0.0012422213
-0.02233201 0.046974637 0.027419563 -0.011392973 -0.008011642 0.013983762 0.007463593 0.0080732675
0.0060712164 0.010945366 0.026428502 -0.014089939 -0.0059634037 -0.006295235 -0.02727747 -0.033964213
-0.043618213 0.02155695 -0.019933213 -0.016281946 0.023398826 0.03764363 -0.026975939 -0.0046376376
-0.0020759015 -0.01797733 0.014234214 -0.0042517753 -0.0023776654 0.015740812 0.024294818 -0.018341254
-0.00221801 -0.032619227 0.004452465 0.03392667 0.009850271 0.009247578 -0.048866283 -0.053211756
-0.022953363 -0.007934716 0.04317378 0.021185717 -0.019580446 0.008327123 -0.028080761 0.02447412
0.021029642 -0.00013999535 -0.0018134405 -0.008430641 -0.0142872585 0.0010132461 -0.026349986 -0.018985096

network_body._body_endoder.seq_layers.0.weight f4 [128, 8]
00000000: c5ff 3f3e 9be6 b03e 895e 0ebf aa2c f1be
00000010: bb5c 00bd 85c9 343f 941a be3d 674c af3c
00000020: d6b3 3ebf 5f79 43bf 58b9 c73e e57d fe3e
00000030: 59a8 113f ba71 363f 5f7a c03e 56bd 52bf
00000040: dba9 00bd c744 093d 0cbd 07bf 3520 1c3f
00000050: f98a f33d 152d 9fbd 5484 6bbe b192 3abe
00000060: 3cdb 893e 5a83 c93d 4093 3bbe 7f0b df3c
00000070: 1240 403e fc32 5bbf 1a60 27be 0d85 e6be
00000080: dec4 153f 0d88 003c e61c 0c3e e1e6 63bf
00000090: 38bd 963d ad91 3fbf 3caa bd3e 7ed2 25be
000000a0: 458e 413f 55b6 34be 252f f33e 64a8 1b3f
000000b0: 81d1 94be d293 20bb 1317 51be acdc 453d
000000c0: 510d c33d a32e 33be 4001 44bf 2c65 9bbe
000000d0: 54b7 8d3e 2c46 203f d3b2 ccbe 5117 723e
000000e0: a9db 423e 5ec1 f13e 5a52 1bbf d834 42be
000000f0: 7c6a 85bb 5452 fabe 860a 09be c4d0 183f
00000100: 3e89 32bf baf0 ecbe a32d 773c 587a 853d
00000110: 4071 693e 109d 1f3d ae44 57be effb 9bbe
00000120: 01eb 123e c196 9a3e bb2d e83d 3779 18bf
00000130: 33ec cc3c a503 963e 9526 fa3e 538d 823e
00000140: 902c 1fbf 731e 10bf 475f 23bf 6af1 b7be
00000150: d19b f5bd 9354 8a3e 42d8 723e 9878 843d
00000160: e573 efbd a2a4 03be 5b78 14bf 0716 0fbf
00000170: 7340 cabe 582e ebbc cf6f 4b3e e643 b73d
00000180: 8cff a1be cbf7 223f b83b 573e 2b2d 5cbe
00000190: 22e3 71be 8e69 c03c 657b 01be d655 033e
000001a0: c50e b0bd c72d 89be f7d9 e93e ad85 17bc
000001b0: 0199 e7be 72a9 7ebe 0507 d5be 74a6 a23c
000001c0: 5c9b e8be 2754 c4be af7f eebe a2d7 f5be
000001d0: 91cc 6c3d f6c6 cebc 77a0 94be 744e 86be
000001e0: 2dcd a63e 754c 313f 73cf dd3e 3a84 45be
000001f0: 7012 83be 8f5a 3f3e 3748 af3d 9796 c83d
00000200: be78 9cbe dd23 b53d caca 90bd 2dc2 8fbe
00000210: ba0b 783e 9b73 da3d c1c1 4c3e 9f05 673d
00000220: 08d1 84be 277f 54be 9a65 08bf 6b6c f1be
00000230: f384 16bf 125a 91bc b496 afbe a3c7 c13e
00000240: 0d49 b13d fee2 bdbe 41e2 bbbe 9780 9a3e
00000250: 011c 7dbd 9bb9 9c3e bb3a a23e 0898 2d3e
00000260: 832e fa3d 5de7 1fbe 6807 a3bd f0d5 6cbe
00000270: 8156 fcbe 6b81 d23e bbee d43e e689 4fb9
00000280: 7486 a5be 2706 31be 07fa 85be c56f 563e
00000290: bef1 04bf 482f aebe fbcf 683c b6d4 83bd
000002a0: 2e75 843e 88b8 8abe fcb7 e8be 67e6 c1bd
000002b0: a2f2 2bbe 3c2e 47be 22aa d4be efc8 83be
000002c0: 36d5 95bc 86be 9e3d 272e 68be cf53 133d
000002d0: 11b8 cb3e e97d 933e 8435 76be af3d ae3e
000002e0: c9b8 68bd 9f5d 26be 15a2 90bc 6fc8 15be
000002f0: 3ef6 973d d246 a93e 68fa 1b3d ae20 c13e
00000300: cb0c 10bd 337d 55bd d330 8b3d 7bab 1e3e
00000310: 69f4 883d b4a0 4d3e 6346 26be 64fc c43d
00000320: 75dc 373f d652 1a3e 71cd 883e f56b 2bbd
00000330: d5ab 34bf e033 1dbb be4a 703e d36a 02bf
00000340: 4679 023b 63d9 48bd e96b 9bbe 0644 c63e
00000350: 055a 39be 9082 2abf aff8 6cbe c3bc 5dbe
00000360: d013 5a3e 2940 833d 28ac 713d 91b9 febe
00000370: 066e 42bb 4792 3d3e dcad 1c3f 7794 ddbe
00000380: 04d8 97bc ac98 923c 1952 cc3e c0e2 0cbf
00000390: e707 ecbe 03a6 9dbe 44ab 143e 8c45 1f3f
000003a0: a9c2 6cbe 7091 273f 62dd a0bd 4846 8dbe
000003b0: 1b49 15bf 28b8 b0bd e523 e43e 89bf dbbe
000003c0: d707 2bbe 0b7c eabd 145a 49bd 075a db3d
000003d0: fb90 29be 6a3f 8cba 3b6f b63e 1e2c 583f
000003e0: 486e 48be e047 013f 17a5 88be 86e4 06bf
000003f0: 253b 2c3f bae8 6b3e 1fe3 153f 9e1c 4a3e
0.18749912 0.34550938 -0.55613 -0.47104388 -0.031338435 0.70619994 0.09282413 0.021398736
-0.7449316 -0.7635707 0.39008594 0.49705425 0.56897503 0.7126728 0.37593362 -0.82320154
-0.031411987 0.033512857 -0.5302284 0.60986644 0.11891741 -0.077722706 -0.22999698 -0.18220021
0.26925075 0.098395064 -0.1831789 0.027227161 0.18774441 -0.8562467 -0.16345254 -0.45023385
0.5850352 0.007844937 0.13682899 -0.8902417 0.07360309 -0.7483166 0.3704394 -0.16193578
0.7560771 -0.17647679 0.47496906 0.6080382 -0.2906609 -0.002450217 -0.20418958 0.048306152
0.09524024 -0.17498259 -0.7656441 -0.30350626 0.2767893 0.62607074 -0.39980182 0.23641707
0.19029106 0.4721784 -0.60672534 -0.18965471 -0.004071532 -0.48890936 -0.1338292 0.5969355
-0.69740665 -0.4627741 0.015086564 0.06517476 0.22797108 0.038968146 -0.21022293 -0.30465648
0.1434746 0.3019314 0.113368474 -0.5955996 0.025014972 0.29299656 0.4885756 0.25498447
-0.6217737 -0.5629646 -0.63817257 -0.35926372 -0.1199261 0.2701765 0.23715308 0.06468314
-0.11692027 -0.12855771 -0.5799615 -0.55892986 -0.39502296 -0.028708622 0.1986687 0.089484975
-0.3164028 0.6365935 0.21018875 -0.21501605 -0.236218 0.023487832 -0.12644728 0.12825713
-0.08596567 -0.26792738 0.45674106 -0.009248179 -0.4523392 -0.24869326 -0.41606918 0.019854762
-0.4543103 -0.38345453 -0.4658179 -0.48016077 0.057812277 -0.025241356 -0.29028675 -0.2623173
0.32578412 0.6925729 0.43322334 -0.19288722 -0.25600004 0.18686889 0.08558696 0.09794348
-0.3056087 0.08844731 -0.07069929 -0.28077832 0.24223223 0.10666581 0.19995786 0.056401845
-0.25940728 -0.2075163 -0.5328003 -0.4715303 -0.58796614 -0.017743144 -0.34294665 0.37847623
0.086565115 -0.37087244 -0.36696056 0.3017623 -0.061794285 0.30610356 0.31685433 0.16952527
0.12215903 -0.15615602 -0.07960397 -0.23128486 -0.49284747 0.41114363 0.41588387 -0.0001979243
-0.32329142 -0.17287503 -0.26167318 0.20941074 -0.5193137 -0.34020448 0.014209743 -0.06437056
0.2587065 -0.2709391 -0.4545287 -0.09467774 -0.16791776 -0.19451231 -0.4153605 -0.25739238
-0.018290143 0.07751183 -0.22673856 0.035968598 0.3978887 0.28807 -0.24043852 0.34031436
-0.05681685 -0.16246651 -0.017655412 -0.1462724 0.07420014 0.33061844 0.038080603 0.37720245
-0.03516845 -0.052121352 0.06796422 0.15495102 0.066872425 0.20080835 -0.16237788 0.09618452
0.71820766 0.15070662 0.2671924 -0.041851003 -0.70574695 -0.0023987219 0.23466012 -0.5094425
0.001990871 -0.04903544 -0.30355766 0.38723773 -0.18100746 -0.6660547 -0.2314174 -0.21654038
0.2129662 0.06408722 0.05900207 -0.4975095 -0.002966763 0.18512832 0.6120279 -0.43277332
-0.018535621 0.017895065 0.39906386 -0.55033493 -0.4609978 -0.3079072 0.14518458 0.62215495
-0.23121132 0.65456295 -0.078547254 -0.27592683 -0.58314675 -0.08628875 0.44558635 -0.42919567
-0.1670221 -0.114494406 -0.04915817 0.10710531 -0.16559212 -0.0010700051 0.35631737 0.8444232
-0.19573319 0.505003 -0.26688454 -0.5269245 0.6727775 0.23037997 0.58549684 0.19737479

network_body._body_endoder.seq_layers.2.bias f4 [128]
00000000: 2733 8b3c e340 3ebb 1ce3 143c 1197 62bc
00000010: 754d c4ba 67b6 8fbc 2478 33ba 81fb 51bc
00000020: 127b 51bc bec8 91bc 7272 42bc 0734 babb
00000030: cde9 b5bc 7ab1 953c 923c 3a3b e88d ac3c
00000040: efa4 19bb b2de 133d 96d9 fdbb 14ea 7fbc
00000050: 7aab 56ba 7ed3 b03b 8f25 dd3c 8afa 32bc
00000060: 42ab 953c 10a0 9e3b 74a4 173c 0537 203c
00000070: c67f 863c 65db 69bb 7b4f d03c eeba 073c
00000080: 2d8b 63bc 9e51 6abc 506f b5bb be0b 10bc
00000090: 3925 cd3b 0189 09bc bd59 b6bc 97a1 233c
000000a0: 9e14 a23b c028 643c 6586 d0bc b078 efba
000000b0: e58a 0fbc 0d59 a93c 8f2b 963b 7650 463b
000000c0: bebd 80bc 9f38 a0bc 2974 0e3d ab5a b4bc
000000d0: cdff 19bb 2034 f73b bfa8 523c bd0b cb3b
000000e0: 0aa1 83ba ea62 6fbb c8da 1bbc 475d c0bc
000000f0: dd6c 4ebc 4746 233d 69f4 02bc 6363 e2bb
00000100: 061b 0fbc ddd9 c13c 11de 27bc e465 413c
00000110: 5fa6 153c e0fd d43b a75e 913c 7994 6dbc
00000120: 5f18 e2ba 9680 ce3c 8d7e ed3b 35be 1a3c
00000130: 6434 f7bc f97a b1bb e6d5 1f3c b639 143d
00000140: 8f3f 44bc 8a56 c33c a878 f43b 4363 82bc
00000150: 02e0 e03c 9bc6 303d 0bc1 8b3c d089 7d3c
00000160: b50e 6c3c 6d73 7ebc d89c e53c 4c04 d4ba
00000170: a1e6 8a3c dce8 37bc 2e46 243c c427 843c
00000180: 48f2 3cbb 545b a6bc 0bf5 efbc 545a 58bc
00000190: 8d4a c73c c9e4 1ebc 2b97 073c 8ed9 033c
000001a0: 95ab 773c f361 873c d2bc 6dbc 61a3 58bc
000001b0: ad1c df3c 8501 e8bb ff75 393c 5692 94bc
000001c0: 0c4e 133d c032 d0bb 55bc 8cbc 20bc 853c
000001d0: 353f 383d cf91 a2bc 9288 a8bc f532 abbc
000001e0: 8fd8 a63b 7fd1 88bc f012 50bc e34a ebbc
000001f0: 45cb e0bc 3c94 75bc dbec 29bc 70c6 a4bc
0.016992165 -0.0029030375 0.00908735 -0.013829962 -0.0014976697 -0.01754303 -0.00068462105 -0.012816311
-0.01278569 -0.017795917 -0.011868106 -0.0056824717 -0.022206211 0.018273104 0.002841745 0.02106376
-0.0023444255 0.03610105 -0.0077468855 -0.015619773 -0.0008189004 0.0053963056 0.026995448 -0.010923991
0.018270139 0.0048408583 0.009255517 0.009778743 0.016418349 -0.0035683748 0.025428524 0.008284314
-0.013888163 -0.014301686 -0.005536951 -0.008791862 0.006260541 -0.008394481 -0.022259587 0.0099872565
0.0049463054 0.013925731 -0.02545471 -0.0018270221 -0.008761142 0.020672346 0.0045828293 0.003026036
-0.015715476 -0.019558249 0.034778748 -0.02201589 -0.0023498416 0.0075440556 0.012857615 0.0061964677
-0.00100425 -0.0036527463 -0.009512611 -0.023481978 -0.012599197 0.039861944 -0.007992842 -0.0069088205
-0.00873447 0.023663456 -0.010245816 0.011804078 0.009133904 0.006499991 0.017745329 -0.014500731
-0.0017249695 0.025207799 0.007247752 0.009444763 -0.030176349 -0.005416271 0.009755587 0.03618785
-0.011978044 0.023844976 0.0074606724 -0.015916472 0.027450565 0.043158155 0.017059823 0.015474752
0.014407803 -0.015530449 0.02802889 -0.0016175597 0.016955676 -0.011224952 0.010026498 0.016132243
-0.0028830934 -0.02030722 -0.02929165 -0.01320513 0.02432754 -0.009698101 0.008275787 0.008047475
0.015116592 0.016526198 -0.01451035 -0.013222546 0.027235353 -0.0070802593 0.011319636 -0.018136185
0.035963103 -0.006353706 -0.017179647 0.016325057 0.044982154 -0.019844918 -0.020572934 -0.020898322
0.0050917338 -0.016701458 -0.012699828 -0.028722232 -0.027440676 -0.014988955 -0.010371412 -0.020114154

network_body._body_endoder.seq_layers.2.weight f4 [128, 128]
00000000: 0999 a93c bbc9 38bd b307 b43d fba1 a6bd
00000010: f85e 553e 76c1 0abe fc92 bd3d aa84 b83d
00000020: 6d34 9bbd 2f14 46bb 760b 4abd c0bd 40bd
00000030: 838e cdbd 7826 403d 846d e1bd cac6 97bc
00000040: 5c3d 833d 1f98 b5bd 8537 99bd 8c3f 253d
00000050: 6766 2fbd db5d c63d e549 463e 271c 123d
00000060: 1e01 633c b35f 51bd 69ee dabd e57e 5bbd
00000070: 14f2 08be 13af 50bc fcf4 2e3d 65ad c7bb
00000080: 01f9 ffbd 4017 9abd d8b0 46bd 86fa 933c
00000090: ed7c 943d 62b4 543d 191b a83b 693b 463c
000000a0: 041d 96bc 0308 b2bd 570a c93d af47 3c3d
000000b0: 5af6 1ebd 16c4 cfbd 9fd9 12be e04a 7a3d
000000c0: 3eab 68bd 05a2 0abd 9d7c a63c dbc9 92bd
000000d0: 4c1b 7c3d 10fb 17be 4cdf 0f3d 3030 bcbd
000000e0: 6d6b 253e 069c a3bd 128c b33d 53e1 513d
000000f0: 1c98 01be 91af c4bd acd2 eebd 0e19 913c
00000100: 58f1 4bbc d917 f7bd dc2a 5e3d 6e93 f33d
00000110: 7dce b23d 58a5 d0bd 3250 76bd 8fea 54bd
00000120: 0f99 c33d 5219 18bc d4ef 6fbd 0f15 473d
00000130: 296f 913d bbb0 7dbc 99ec 723d 7ca6 cbbd
00000140: ad05 45bd de8c 8a3c e9ba 123c faa5 9a3d
00000150: e2ac 9fbd 7be1 423a 2968 a7bd d31c c83c
00000160: 014c 5abd aca0 763d 1ca5 c53d dd97 98bd
00000170: 8dc4 f03c 9e49 f2bc 03c2 913d dde7 d7bd
00000180: 0b5a 333c 46b6 83bd 7ddc 1abd 5489 ccbd
00000190: e43b e5bc ad25 1d3e 7b78 48bd 2f29 5d3d
000001a0: 0456 ddbc 4b08 c3bc 58d5 213e 62f5 cabc
000001b0: 3a2c ac3d f02f 393d 31cb c1bd 360a 4bbc
000001c0: be8d afbd 0cf2 8a3d 0341 0e3d 99a9 7b3d
000001d0: 5dc6 a83b 7e08 79be 3c33 123e de2d 53bd
000001e0: 0a59 a63d 2d96 44bd 22fb 833d f72f d13d
000001f0: 8834 133c 3f2f 84bc 4d3d f2bc 4220 2c3e
00000200: 3aec 99bc 5bcf 71bd 01c7 8a3d ca8c 9abd
00000210: 3a79 973d 3822 673e 8ead 3f3d 273b b9bc
00000220: c72c 4e3e 4b8e 66bc 8b5d ab3d d21d efbb
00000230: 9350 f23d cbf9 393d 081a 15bd a02b 363d
00000240: 7320 01bd 3efd b53c 3865 953d f78e 303d
00000250: 4ae4 f13b ed3e b53d 680f 433e a436 b63c
00000260: ef8d acbc 54ff a0bd 7b08 be3d f3ab 1c3d
00000270: 5a94 783c 59c1 b4bc 5345 11bd aa2f e9bc
00000280: 63b4 03ba a8c6 8fbe 2dcf 24bd 2c44 c8bd
00000290: a43f 4fbd 13f2 923d 6082 003d 7fd2 16bc
000002a0: d9ee 4ebd 350c 27be 72ad 80bc 2020 0c3e
000002b0: e3df 6c3e 5d6a cfbd 6a1f 2bbd d530 9bbd
000002c0: 28c8 0ebd f465 653c 73d6 383c 6a85 9bbc
000002d0: 333e 02be 59cc 75bd ace3 eabd e2c8 8b3d
000002e0: d3d2 31bd 15f2 adbc 506b a43d d2de 1abb
000002f0: fed1 a33d ea0f 28be 3df9 84bd bce8 163c
00000300: 0d48 c73d 42d8 cfbd c810 a43c c183 f2bb
00000310: ae3f 7c3e 5399 75be e7cc ba3c 5349 783d
00000320: 7c81 febd 7f4c c4bd 98c4 b73d 7dff fe3c
00000330: 0bd1 e8bc a26d e0bd 92bc 763c 7b8f 72bc
00000340: 12a6 19be 00ef 393d 8279 9f3b 4055 5bbd
00000350: cd70 92bd 69a6 04bc 4d80 323d c803 aebc
00000360: 6cb1 e2bd 544b e9bc 0f60 fdbc d6d7 803c
00000370: 32a7 22bd 0081 333d e78b d63d 69b1 a2bd
00000380: 6ca4 703c 9a66 59bd 5539 a73c 2e1b 043e
00000390: c070 a63d 0fc1 5c3c c499 17bd 7877 4d3c
000003a0: df27 453d 66f0 803d 3d4e 17bd 3c51 243d
000003b0: ed96 7bbe ee38 33be 91e5 3abd 2eb4 a9bd
000003c0: e647 7937 24d9 7ebd e286 44bd 1b88 53bd
000003d0: a245 67bc 46f6 a8bd fa09 5cbd 4833 dabd
000003e0: 7080 0c3d ecf2 7dbc 4160 f3bd e256 913d
000003f0: 13de 2dbe 67ca 933d ad64 edbd 9c19 83bd
0.020702856 -0.04511426 0.08790531 -0.08136364 0.20837009 -0.13550362 0.09256551 0.09009679
-0.07578359 -0.0030224433 -0.049327336 -0.04705596 -0.100369476 0.046911687 -0.110072166 -0.018527407
0.06408188 -0.088669054 -0.07481293 0.040343806 -0.042822268 0.0968587 0.19364126 0.03567138
0.013855247 -0.051116657 -0.106900044 -0.053587813 -0.13373595 -0.012737053 0.042714104 -0.0060936683
-0.124986656 -0.07523966 -0.048508495 0.018063795 0.0725039 0.05192984 0.0051301834 0.012099125
-0.018324383 -0.08692934 0.09816425 0.0459668 -0.038809158 -0.10144822 -0.14340828 0.061106563
-0.056803934 -0.03384592 0.020323092 -0.07167407 0.06154947 -0.14841866 0.035125062 -0.091888785
0.16154261 -0.079887435 0.08766951 0.051240277 -0.12655681 -0.09603799 -0.11661276 0.017712142
-0.012447678 -0.120650955 0.054240093 0.11893354 0.08730791 -0.10187787 -0.060135074 -0.051981505
0.09550678 -0.009283381 -0.058578327 0.048604067 0.0710128 -0.01548403 0.05930767 -0.09943864
-0.048101116 0.016912874 0.008955696 0.07551189 -0.07796647 0.0007434112 -0.08174164 0.024427807
-0.05329514 0.060211822 0.09650633 -0.074508406 0.029390598 -0.029576119 0.07117083 -0.10542271
0.010946761 -0.0643125 -0.03780793 -0.09987131 -0.02798266 0.15346403 -0.048943024 0.053994354
-0.027018555 -0.023807665 0.1580404 -0.02477521 0.08406873 0.045211732 -0.09462584 -0.012392571
-0.08571957 0.06784448 0.03472997 0.061441038 0.0051506 -0.24319646 0.14277357 -0.051557414
0.081224516 -0.04799478 0.06444384 0.10214227 0.008984692 -0.01613581 -0.029570246 0.1680918
-0.0187894 -0.05903564 0.06776238 -0.07546385 0.07396169 0.22571647 0.046796374 -0.022611214
0.20134269 -0.014072011 0.08367451 -0.007297256 0.118317746 0.045404237 -0.03640178 0.044475198
-0.031525087 0.022215482 0.072946966 0.043105092 0.0073819505 0.08849893 0.19048846 0.022242852
-0.021063773 -0.078612 0.09278961 0.03824992 0.0151720885 -0.022064852 -0.035466503 -0.02846511
-0.0005024133 -0.2808125 -0.04023664 -0.09778628 -0.0505978 0.07175078 0.031374335 -0.00920546
-0.05052075 -0.1631325 -0.015707705 0.1368413 0.23132281 -0.10127709 -0.041778006 -0.07577673
-0.034858853 0.014001358 0.011281597 -0.018984515 -0.1271904 -0.060009334 -0.11469206 0.06825425
-0.04341395 -0.021233598 0.08028281 -0.0023631346 0.07999037 -0.1641232 -0.06492851 0.009210762
0.097305395 -0.1014867 0.020027533 -0.00740096 0.24633667 -0.2398427 0.022802783 0.060616802
-0.12427041 -0.09584903 0.08973044 0.031127686 -0.028419992 -0.10958411 0.015059607 -0.014804716
-0.15004757 0.045393944 0.00486678 -0.053548098 -0.07150421 -0.008096316 0.04357939 -0.021242037
-0.11068997 -0.028478302 -0.030929593 0.015727919 -0.03971023 0.043824196 0.10475903 -0.079439946
0.014687639 -0.053076364 0.02041308 0.12900993 0.08126974 0.013473763 -0.037011877 0.012540691
0.048133727 0.06295852 -0.03693985 0.040116534 -0.24569292 -0.17502186 -0.045629088 -0.0828632
1.4858297e-05 -0.0622188 -0.047980197 -0.051643472 -0.014115723 -0.08250098 -0.053720452 -0.10654312
0.034302175 -0.015499812 -0.11883593 0.0709665 -0.16979246 0.072163396 -0.11591468 -0.06401369
