mlagents/Assets/results/RollerBall/RollerBall/RollerBall-230990.pt (torch, 445343 bytes, 36 tensors)

network_body._body_endoder.seq_layers.0.weight f4 [128, 8]
0.1946108 -0.1933473 0.7271859 0.082098566 -0.39792037 -0.3072187 -0.07578975 0.24922042
-0.07311766 -0.120418124 0.2652184 -0.3363258 -0.124624275 0.15596803 -0.062489953 -0.5243453
-0.25727558 0.34638667 0.47013304 -0.5934777 -0.6196192 0.005131591 0.15798444 0.17779121
-0.29048276 0.07633417 -0.50924253 0.32484186 0.05032917 0.23290733 0.40467918 0.26738164
-0.37813437 0.45063248 -0.15705933 -0.46760336 0.23772143 0.045550816 -0.23567197 0.7209273
-0.25742894 0.023230528 0.03507492 -0.2289338 0.28321478 0.24988386 -0.16196293 0.49851295
-0.07422343 -0.18390475 0.02718711 0.66339546 0.37339303 -0.39609593 0.46780163 0.5665809
0.31658092 -0.33636156 0.3469918 0.04444446 0.4185395 0.33177125 0.061707273 0.17314897
-0.074951254 -0.45620763 -0.14031184 -0.113003224 -0.24219781 -0.07521502 -0.64096504 -0.3393728
-0.3382808 0.52752566 -0.61111844 0.28235853 0.34445626 0.23102711 0.42814085 -0.11882734
-0.34439453 0.23107234 -0.44614735 -0.20421 0.52421856 -0.28573868 -0.2126439 -0.106778674
0.3229394 -0.22243068 -0.044601582 0.19194071 -0.13088034 0.10665203 -0.48979428 0.08227163
-0.26943472 0.36063376 -0.13900338 0.04917052 -0.037408218 0.1235512 0.41206712 -0.26665366
0.26277652 -0.30910414 -0.018580483 -0.2479608 -0.14244631 0.43360448 -0.49335524 -0.30507043
0.35566303 0.31233945 -0.55090696 -0.30686367 -0.14507283 0.09751248 0.12022626 0.16953644
-0.39748925 0.25971887 0.023236994 -0.10343535 -0.21868318 -0.7191865 0.06536599 -0.23013933
-0.44121453 -0.3077296 -0.015181513 0.64380217 -0.5650398 0.12535223 0.4049823 0.21406114
-0.19399145 0.016259601 0.023265759 -0.12783693 -0.44604808 0.2688921 -0.2200272 -0.6831579
0.49762833 0.53326184 -0.37570596 0.008042787 0.5055451 0.49022162 0.054039035 -0.038278945
-0.12565716 -0.2526347 -0.19337314 0.6108515 -0.30296934 0.25897512 -0.020944579 0.33308828
0.113751195 0.09055332 -0.8903583 -0.33977938 0.42033756 0.074747145 -0.13980612 -0.0209126
-0.013594583 0.47003692 0.021645889 0.96848744 0.097515635 -0.13789815 -0.1814242 -0.035651844
0.18263938 -0.22252744 0.1751894 -0.4198713 0.17822577 0.5459277 -0.16136731 -0.68052524
0.38144428 0.03637609 0.06257251 -0.12556694 -0.16749384 0.50291216 -0.057052594 0.35920617
-0.23326366 -0.67245746 -0.042959142 -0.09352365 -0.26607177 -0.23426524 -0.4074486 0.0011168717
0.06901469 -0.010832756 0.5222883 -0.57548577 -0.2192016 0.12473852 -0.40367812 0.35899422
0.07033212 0.20232779 0.32285562 -0.48621753 -0.31914172 -0.26551318 -0.14081146 0.35320616
0.30626652 -0.73971164 0.27492103 -0.23737101 0.7247618 0.11017732 0.5441497 0.30818427
-0.42926362 -0.077055335 -0.05596973 -0.15444505 0.28039137 0.07831534 0.14889973 0.071761
0.29727453 0.38015983 -0.2955929 -0.27370855 0.56919944 -0.09817524 0.07436771 -0.2084116
0.036297403 -0.47444224 0.24848387 -0.06570937 0.13000597 0.36421767 -0.3636883 -0.01986833
-0.11483604 0.34991902 -0.24847113 -0.33336022 -0.7416446 0.30325422 0.10329688 0.25928804
00000000: 0e48 473e d6fc 45be db28 3a3f 4b23 a83d
00000010: 38bc cbbe c54b 9dbe a837 9bbd a333 7f3e
00000020: b6be 95bd c79d f6bd b5ca 873e e532 acbe
00000030: 033b ffbd 15b6 1f3e 77f5 7fbd 7e3b 06bf
00000040: a0b9 83be 9859 b13e 47b5 f03e 28ee 17bf
00000050: 5d9f 1ebf e826 a83b acc6 213e e60e 363e
00000060: 28ba 94be 1755 9c3d b85d 02bf ac51 a63e
00000070: f625 4e3d 427f 6e3e 1c32 cf3e 3fe6 883e
00000080: d49a c1be 4db9 e63e 29d4 20be b569 efbe
00000090: 3f6d 733e 7e93 3a3d fe53 71be b18e 383f
000000a0: bacd 83be f34d be3c b8aa 0f3d 9f6d 6abe
000000b0: 8701 913e 8ee1 7f3e 9cd9 25be 173d ff3e
000000c0: 7402 98bd 8751 3cbe 81b7 de3c 49d4 293f
000000d0: 5f2d bf3e 16cd cabe b283 ef3e 720b 113f
000000e0: e516 a23e 9537 acbe e9a8 b13e 650b 363d
000000f0: cf4a d63e ecdd a93e c4c0 7c3d f74d 313e
00000100: 0b80 99bd 0c94 e9be e8ad 0fbe 3c6e e7bd
00000110: b402 78be 550a 9abd 4916 24bf 46c2 adbe
00000120: 2433 adbe ec0b 073f 4272 1cbf 4c91 903e
00000130: 925c b03e 5f92 6c3e 4735 db3e c05b f3bd
00000140: 7b54 b0be 3a9e 6c3e 6d6d e4be 6d1c 51be
00000150: 3033 063f 574c 92be 53bf 59be c7ae dabd
00000160: 5058 a53e dec4 63be 26b0 36bd 1b8c 443e
00000170: 7f05 06be 616c da3d 51c6 fabe 077e a83d
00000180: 59f3 89be fda4 b83e e756 0ebe 0767 493d
00000190: 5c39 19bd 6908 fd3d 76fa d23e d486 88be
000001a0: a58a 863e e642 9ebe 1936 98bc 70e9 7dbe
000001b0: 72dd 11be 6801 de3e 0f99 fcbe 3132 9cbe
000001c0: 7719 b63e f5ea 9f3e 3d08 0dbf 3c1d 9dbe
000001d0: f98d 14be a0b4 c73d 2f39 f63d f69a 2d3e
000001e0: b683 cbbe dff9 843e 825b be3c ead5 d3bd
000001f0: 7cee 5fbe 9b1c 38bf 9bde 853d a5a9 6bbe
00000200: dfe6 e1be bc8e 9dbe e1bb 78bc 38d0 243f
00000210: 73a6 10bf 565c 003e d759 cf3e d832 5b3e
00000220: b2a5 46be db32 853c d597 be3c afe7 02be
00000230: 6a60 e4be 3aac 893e cf4e 61be 70e3 2ebf
00000240: 24c9 fe3e d983 083f 885c c0be e5c5 033c
00000250: 676b 013f 54fe fa3e 0958 5d3d 62ca 1cbd
00000260: 45ac 00be 5659 81be 9c03 46be c460 1c3f
00000270: cc1e 9bbe 6398 843e f793 abbc 8c8a aa3e
00000280: 63f6 e83d 0574 b93d 86ee 63bf 90f7 adbe
00000290: 7c36 d73e 0815 993d 5629 0fbe e750 abbc
000002a0: d0bb 5ebc aea8 f03e b852 b13c cbee 773f
000002b0: 47b6 c73d 2c35 0dbe 44c7 39be ab07 12bd
000002c0: d105 3b3e 3cde 63be da64 333e 5ff9 d6be
000002d0: d180 363e ebc1 0b3f 793d 25be e736 2ebf
000002e0: aa4c c33e 18ff 143d 0426 803d 9f94 00be
000002f0: 8183 2bbe dabe 003f fbaf 69bd dfe9 b73e
00000300: abdc 6ebe 2c26 2cbf edf5 2fbd 5489 bfbd
00000310: 8f3a 88be 3ae3 6fbe 1a9d d0be ff63 923a
00000320: 9357 8d3d df7b 31bc b0b4 053f 0953 13bf
00000330: 6276 60be e976 ff3d e6ae cebe 17ce b73e
00000340: 490a 903d 042f 4f3e 554d a53e 81f1 f8be
00000350: 8b66 a3be 58f1 87be e130 10be 70d7 b43e
00000360: f7ce 9c3e be5d 3dbf 73c2 8c3e 6311 73be
00000370: fd89 393f a6a4 e13d 654d 0b3f 54ca 9d3e
00000380: 71c8 dbbe 30cf 9dbd 8440 65bd d826 1ebe
00000390: 758f 8f3e cb63 a03d 2c79 183e 6ef7 923d
000003a0: 5e34 983e 4fa4 c23e f457 97be 8723 8cbe
000003b0: 0eb7 113f 1a10 c9bd 194e 983d da69 55be
000003c0: 96ac 143d 18ea f2be 8e72 7e3e a292 86bd
000003d0: 4920 053e bd7a ba3e 5a35 babe e8c2 a2bc
000003e0: 282f ebbd 9628 b33e 376f 7ebe 31ae aabe
000003f0: 6cdc 3dbf 2344 9b3e 518d d33d 67c1 843e

network_body._body_endoder.seq_layers.0.bias f4 [128]
0.005006178 -0.003916625 0.09818294 -0.029350426 0.115340084 -0.05286689 -0.0076658255 -0.047291514
0.079890676 -0.013201945 0.009444148 -0.009472409 0.018447872 0.051075008 -0.09238159 -0.114990294
0.0017133985 0.080035076 -0.13342588 -0.0030415272 -0.049869962 0.1492054 -0.0061851544 -0.001086947
-0.035954338 -0.01291775 -0.06385038 -0.05067727 -0.14951296 0.001145727 -0.013854337 0.024653424
0.02573018 -0.028362384 -0.01734616 -0.10274663 -0.031493615 -0.010457894 0.02969802 0.09112406
-0.01947371 -0.059599917 -0.10052888 -0.04088973 -0.07879458 -0.010443839 0.023780199 0.06289476
-0.08039643 0.059255622 -0.06622831 0.001490626 -0.00573745 0.08174523 -0.12912747 0.04117786
0.13818935 0.023235498 0.031783625 0.038180035 0.006824687 -0.10684435 -0.030500488 0.116212755
-0.08823746 0.0049450835 0.026049295 -0.03503855 -0.04171088 -0.020373356 -0.15099043 -0.06434916
0.003958621 -0.0072238897 -0.0059065386 0.092703566 -0.016778605 -0.020544479 -0.04367842 -0.011510665
-0.074897796 -0.04099046 -0.010529301 -0.035006113 -0.063160226 0.0046756226 -0.04171888 -0.030703932
-0.022076633 -0.05969165 -0.022305539 -0.057681732 -0.07117152 0.08992336 -0.024275055 -0.040712647
0.012766467 0.081280515 -0.08676978 -0.052264843 0.09723168 0.07863873 -0.15115431 -0.0032507933
0.02531709 -0.2024424 -0.047505207 0.0118036205 -0.015104589 0.034320436 0.05520043 -0.05294697
-0.090924 -0.10374181 -0.021450188 0.105182625 -0.06930437 -0.12999019 -0.07288815 0.03858548
-0.0642643 -0.028991157 -0.041717738 -0.028069843 -0.019930094 -0.19480811 0.034656107 -0.015146182
00000000: dd0a a43b 0857 80bb 2314 c93d 4e70 f0bc
00000010: 6c37 ec3d f48a 58bd 9b31 fbbb bfb4 41bd
00000020: b99d a33d f94c 58bc a1bb 1a3c 2a32 1bbc
00000030: fe1f 973c 0734 513d 8f32 bdbd 0880 ebbd
00000040: 1d94 e03a 6ee9 a33d cba0 08be 5c54 47bb
00000050: 7244 4cbd 4dc9 183e d6ac cabb e477 8eba
00000060: db44 13bd f8a4 53bc fdc3 82bd f892 4fbd
00000070: ed19 19be 382c 963a 4dfd 62bc faf5 c93c
00000080: 19c8 d23c 3b58 e8bc 8919 8ebc d36c d2bd
00000090: 73ff 00bd 9657 2bbc 4349 f33c 409f ba3d
000000a0: 5487 9fbc 0b1f 74bd 16e2 cdbd fd7b 27bd
000000b0: 0e5f a1bd a31c 2bbc b1ce c23c f8ce 803d
000000c0: e2a6 a4bd 06b6 723d b5a2 87bd 1c61 c33a
000000d0: 3801 bcbb 0b6a a73d fe39 04be 1eaa 283d
000000e0: 8281 0d3e 5f58 be3c 8c2f 023d ab62 1c3d
000000f0: a0a1 df3b 36d1 dabd 29dc f9bc f400 ee3d
00000100: d7b5 b4bd 5e0a a23b 5565 d53c 9584 0fbd
00000110: 07d9 2abd 06e6 a6bc 3c9d 1abe 7ec9 83bd
00000120: 52b7 813b 61b6 ecbb a38b c1bb 5edb bd3d
00000130: 4973 89bc e54c a8bc 25e8 32bd 3a97 3cbc
00000140: 0464 99bd 9de5 27bd 1783 2cbc 9262 0fbd
00000150: 265a 81bd f735 993b 6be1 2abd d086 fbbc
00000160: 0eda b4bc 3b7f 74bd 1bba b6bc ae43 6cbd
00000170: 60c2 91bd bd29 b83d 7bdc c6bc 4ec2 26bd
00000180: 722a 513c 6676 a63d 5bb4 b1bd a913 56bd
00000190: 6721 c73d 580d a13d 32c8 1abe 430b 55bb
000001a0: c965 cf3c 0f4d 4fbe d294 42bd f963 413c
000001b0: 3d79 77bc 9693 0c3d d919 623d ecde 58bd
000001c0: 5d36 babd 9676 d4bd 4eb8 afbc fd69 d73d
000001d0: 73ef 8dbd 261c 05be 6246 95bd cf0b 1e3d
000001e0: 009d 83bd dd7e edbc 38e0 2abd baf2 e5bc
000001f0: 7044 a3bc c77b 47be 90f3 0d3d b127 78bc

network_body._body_endoder.seq_layers.2.weight f4 [128, 128]
-0.00034209012 0.1322357 -0.035006043 -0.06451848 0.08788359 -0.037034452 -0.008913663 -0.09688017
0.104929075 0.06520139 0.07821176 -0.001074431 -0.11101213 0.23279193 0.042668562 0.043972015
-0.08271192 -0.36276844 0.14049816 0.16958624 -0.13871858 -0.11664664 0.17831516 0.09911711
-0.005621092 0.21504192 -0.17281164 -0.17443898 -0.06981022 -0.18629695 0.03692644 0.09386667
-0.20893738 -0.04951669 -0.098348156 -0.17279968 0.04924843 -0.08355182 -0.03342393 -0.1650861
0.12960708 -0.18826333 -0.05001974 0.008810226 0.05703225 -0.10344064 0.21613407 -0.056523867
0.17322728 0.06452282 0.107151866 -0.14015709 0.29312214 0.16713642 0.024575157 -0.05770724
0.2313606 -0.17081335 -0.069291264 -0.053337444 0.027537838 -0.07684538 0.05732782 0.1430516
0.10140253 -0.11451795 0.070679486 -0.033026427 0.14255162 -0.16137885 0.07609286 0.07616307
0.13149188 0.020982377 -0.04004958 0.21264094 -0.018194316 0.04792413 0.06122976 0.03739249
0.07717888 -0.20313358 -0.0119833 -0.083517425 -0.09422641 0.021854214 -0.031459272 0.09186482
0.054969434 0.060579367 -0.25867093 0.069420956 0.00047447413 0.1405824 0.08815419 0.15861766
0.009362238 -0.05664685 0.07852622 0.011253577 0.10681472 -0.2107153 0.100534685 -0.069844194
-0.0661569 0.010946245 -0.11436886 0.012430344 0.008064631 0.0918066 -0.3453773 -0.056514323
-0.14052658 -0.013466597 -0.01894655 -0.15638301 0.026962709 0.00082729716 0.16789375 0.10175936
-0.02354289 0.045652438 -0.08818994 -0.0781894 0.055475775 0.09876472 0.031727247 -0.056203384
0.036620423 -0.027619064 -0.124959186 -0.008213328 0.028930627 -0.010968494 0.19931084 0.16125102
0.2215158 -0.07437807 0.017149862 -0.16167736 -0.004635464 0.07702467 0.0591726 -0.00983523
-0.1202486 -0.236523 -0.072569564 0.245781 0.02049228 -0.24583001 -0.0109517705 0.05116791
-0.02383509 -0.0025110752 -0.11316045 -0.10126715 0.059994012 -0.07776115 -0.16790348 -0.043459658
0.061091997 0.040647693 -0.05040548 0.021722788 -0.024469716 -0.02063342 -0.026653945 -0.05023909
-0.0769041 0.030464213 -0.044529233 -0.071951255 0.12768902 0.022319179 0.1051611 -0.32147712
0.03274113 0.08288521 -0.17356926 -0.0023809166 0.12640144 -0.14200751 -0.011490855 0.06376325
0.2524298 -0.21335216 -0.001348186 -0.0064092195 0.11927119 -0.0095810825 -0.04501647 -0.0010953487
-0.066467285 -0.05899656 0.04687692 0.12169716 -0.042014673 0.054644823 -0.019167474 0.17715476
-0.017652988 0.06369672 0.13155055 -0.060517043 -0.24587251 -0.007419995 0.1573137 0.07181593
0.10481149 0.07908184 0.12623996 0.07226851 0.08525661 -0.17817923 0.06643191 0.13411242
0.23733926 0.009107207 -0.07540757 0.041188434 0.0066853943 -0.034132063 -0.094690114 0.0386416
0.1505252 -0.011095527 0.0028188026 0.056160506 0.026272884 0.05921498 0.06437569 -0.13310081
0.22000326 0.09588922 0.15473466 -0.17380317 -0.20309803 -0.12810695 -0.12606357 0.17853
-0.12298614 0.07430286 0.018421669 -0.07188936 0.06661339 -0.03949899 0.16666928 0.17722046
-0.15552609 0.013169065 0.0479601 0.02520578 -0.030746521 -0.11892444 0.07315308 -0.12696649
00000000: 8f5a b3b9 cc68 073e 7f62 0fbd 4422 84bd
00000010: 50fc b33d 70b1 17bd 9d0a 12bc 1c69 c6bd
00000020: 0ee5 d63d 4e88 853d 7d2d a03d ecd3 8cba
00000030: 545a e3bd 0261 6e3e 3bc5 2e3d 001c 343d
00000040: de64 a9bd c9bc b9be c0de 0f3e 04a8 2d3e
00000050: 3e0c 0ebe 6fe4 eebd 4098 363e e9fd ca3d
00000060: 2331 b8bb f333 5c3e 89f5 30be 22a0 32be
00000070: a9f8 8ebd a1c4 3ebe 2e40 173d 2b3d c03d
00000080: aef3 55be 03d2 4abd c26a c9bd 66f2 30be
00000090: b9b8 493d 371d abbd 88e7 08bd 550c 29be
000000a0: b8b7 043e 1ac8 40be 80e1 4cbd c458 103c
000000b0: a69a 693d b0d8 d3bd 4052 5d3e 9285 67bd
000000c0: 7e62 313e 8a24 843d 7072 db3d 5785 0fbe
000000d0: 1b14 963e cf25 2b3e d751 c93c 6d5e 6cbd
000000e0: cbe9 6c3e b2e9 2ebe 94e8 8dbd 5d78 5abd
000000f0: 0897 e13c 1c61 9dbd 94d0 6a3d 1e7c 123e
00000100: 21ac cf3d 6388 eabd 68c0 903d b846 07bd
00000110: 0df9 113e 7f40 25be 93d6 9b3d 62fb 9b3d
00000120: cfa5 063e 3ce3 ab3c 070b 24bd 8cbe 593e
00000130: 3f0c 95bc 184c 443d 0fcc 7a3d de28 193d
00000140: f60f 9e3d 4002 50be 9a55 44bc 2f0b abbd
00000150: c7f9 c0bd 9c07 b33c 70db 00bd 9f23 bc3d
00000160: a127 613d 1222 783d 8470 84be 932c 8e3d
00000170: d7c2 f839 d5f4 0f3e 2f8a b43d ab6c 223e
00000180: 1364 193c 8706 68bd 5bd2 a03d ec60 383c
00000190: adc1 da3d c0c5 57be 21e5 cd3d 790a 8fbd
000001a0: 457d 87bd e157 333c 393a eabd a4a8 4b3c
000001b0: 8421 043c 1905 bc3d 4bd5 b0be 907b 67bd
000001c0: 33e6 0fbe 00a3 5cbc cc35 9bbc de22 20be
000001d0: e6e0 dc3c f9de 583a 57ec 2b3e 3667 d03d
000001e0: 05dd c0bc 0dfe 3a3d ed9c b4bd c421 a0bd
000001f0: 913a 633d 2845 ca3d 6ef4 013d 8535 66bd
00000200: 4cff 153d 6041 e2bc 9aea ffbd 3291 06bc
00000210: ecff ec3c 33b5 33bc 2418 4c3e fd1e 253e
00000220: 0ad5 623e 8853 98bd de7d 8c3c c08e 25be
00000230: 17e5 97bb 1cbf 9d3d f85e 723d f223 21bc
00000240: e644 f6bd 1633 72be 5a9f 94bd 04ae 7b3e
00000250: 6ddf a73c ddba 7bbe 0e6f 33bc 7195 513d
00000260: cf41 c3bc da90 24bb aac0 e7bd 2765 cfbd
00000270: 48bc 753d 3d41 9fbd e4ee 2bbe c102 32bd
00000280: 9a3b 7a3d 327e 263d fa75 4ebd fdf3 b13c
00000290: b774 c8bc 6b07 a9bc 6059 dabc 81c7 4dbd
000002a0: e67f 9dbd 1690 f93c 4964 36bd 2e5b 93bd
000002b0: e9c0 023e b6d6 b63c b45e d73d a698 a4be
000002c0: 901b 063d b9bf a93d 24bc 31be 2709 1cbb
000002d0: 616f 013e 6b6a 11be 2444 3cbc 4f96 823d
000002e0: 7b3e 813e fd78 5abe 9eb5 b0ba 6e04 d2bb
000002f0: 7444 f43d f9f9 1cbc 3163 38bd ce91 8fba
00000300: 0020 88bd 60a6 71bd 0302 403d 5c3c f93d
00000310: 9417 2cbd 40d3 5f3d 1b05 9dbc 0f68 353e
00000320: 009d 90bc 6d73 823d 30b5 063e b8e0 77bd
00000330: 01c6 7bbe 6e23 f3bb d816 213e 3b14 933d
00000340: 68a7 d63d a9f5 a13d 0c45 013e 8301 943d
00000350: 049b ae3d 9e74 36be 740d 883d c454 093e
00000360: 1009 733e 6536 153c 496f 9abd 34b5 283d
00000370: 2711 db3b 10ce 0bbd e4ec c1bd a846 1e3d
00000380: 4723 1a3e 03ca 35bc a9bb 383b 8f08 663d
00000390: 3b3a d73c 688b 723d 67d7 833d 944b 08be
000003a0: 8948 613e 9161 c43d c372 1e3e 75f9 31be
000003b0: eef8 4fbe 782e 03be cf16 01be 91d0 363e
000003c0: 28e0 fbbd 192c 983d 0ae9 963c bb3a 93bd
000003d0: 9a6c 883d b1c9 21bd 5aab 2a3e 4879 353e
000003e0: 3b42 1fbe 10c3 573c cf71 443d 5a7c ce3c
000003f0: 21e0 fbbc a88e f3bd 48d1 953d 8103 02be

network_body._body_endoder.seq_layers.2.bias f4 [128]
-0.05268273 -0.024818398 -0.017988618 -0.03889046 -0.040326215 -0.017035158 -0.040549867 -0.021822246
-0.0163537 -0.04698138 -0.02040652 -0.02589076 -0.024880903 -0.0189999 -0.026993994 -0.0118432995
0.007899915 -0.019583842 -0.014753032 -0.008367359 -0.04835225 -0.010828664 -0.045832645 -0.008271471
-0.027309969 -0.018081639 -0.03065053 -0.023603752 -0.0651357 -0.03301709 -0.042084534 -0.014241558
-0.03454678 -0.034974914 -0.030335004 -0.012917254 -0.023025487 -0.0056883967 -0.019277785 -0.043419078
-0.0064140814 -0.032986257 -0.019955557 -0.03544548 -0.006204908 -0.03021185 0.007125362 -0.051964574
-0.026878864 -0.030080132 -0.024166044 -0.021798389 -0.028802192 -0.015298625 -0.045194443 -0.024670957
-0.010991645 -0.052152205 -0.046507735 -0.024947071 -0.034692015 -0.031886622 -0.018112648 -0.036573052
-0.03215754 -0.03302747 0.022868656 -0.039381634 -0.047011577 -0.030758971 -0.05269859 -0.035359174
-0.008598645 -0.04067405 -0.052888222 -0.040262856 -0.03693283 -0.017525084 -0.041337296 -0.03578598
-0.023871088 -0.013728 -0.025290227 -0.020476742 -0.024009928 -0.01326683 -0.017215142 -0.047070518
-0.040370118 -0.02714009 -0.04784153 -0.03949739 -0.00859702 0.0067706686 -0.04109751 -0.03696799
-0.021481272 -0.025533576 -0.04222553 -0.025850847 -0.0226252 -0.05303515 -0.03579381 -0.06102381
-0.03369943 -0.038681675 0.02955749 -0.00014061808 -0.018995022 -0.015363118 -0.025593244 -0.022381363
-0.04706815 -0.033778634 -0.036905307 -0.0045265616 -0.029928673 -0.00079747883 -0.026087336 -0.024444757
-0.038678575 -0.012620084 -0.032324936 -0.025704218 -0.034691785 -0.061045274 -0.022565959 -0.027180202
00000000: d9c9 57bd f44f cbbc de5c 93bc 9a4b 1fbd
00000010: 1a2d 25bd 518d 8bbc 9e17 26bd 91c4 b2bc
00000020: 32f8 85bc 8c6f 40bd 932b a7bc dc18 d4bc
00000030: 09d3 cbbc aea5 9bbc 8222 ddbc 660a 42bc
00000040: a56e 013c 4b6e a0bc b3b6 71bc 3f17 09bc
00000050: 020d 46bd b56a 31bc 03bb 3bbd 1085 07bc
00000060: 28b9 dfbc f21f 94bc d216 fbbc a85c c1bc
00000070: de65 85bd ee3c 07bd d560 2cbd 6c55 69bc
00000080: ed80 0dbd db41 0fbd 1d81 f8bc e4a2 53bc
00000090: f29f bcbc bb65 babb 72ec 9dbc 34d8 31bd
000000a0: 372d d2bb 991c 07bd d679 a3bc 482f 11bd
000000b0: 8a52 cbbb d77e f7bc de7b e93b ced8 54bd
000000c0: 1031 dcbc 9c6a f6bc def7 c5bc 8992 b2bc
000000d0: 93f2 ebbc 16a7 7abc cf1d 39bd bf1a cabc
000000e0: 4d16 34bc 8d9d 55bd e57e 3ebd cd5d ccbc
000000f0: 3719 0ebd 8c9b 02bd fa60 94bc a0cd 15bd
00000100: a0b7 03bd d047 07bd 0c57 bb3c a34e 21bd
00000110: 368f 40bd 3dfa fbbc 7ada 57bd c8d4 10bd
00000120: 55e1 0cbc d599 26bd 52a1 58bd aaea 24bd
00000130: e146 17bd c490 8fbc 4c51 29bd 5294 12bd
00000140: 4d8d c3bc 68eb 60bc 732d cfbc d7be a7bc
00000150: 78b0 c4bc 1e5d 59bc c506 8dbc 04cd 40bd
00000160: 235b 25bd e554 debc 7bf5 43bd 04c8 21bd
00000170: 84da 0cbc 7cdc dd3b dd55 28bd bf6b 17bd
00000180: 7ef9 afbc ca2b d1bc adf4 2cbd 28c5 d3bc
00000190: 7c58 b9bc 633b 59bd 889c 12bd 1af4 79bd
000001a0: 6a08 0abd ad70 1ebd 8d22 f23c e172 13b9
000001b0: 739b 9bbc 96b5 7bbc eca8 d1bc 1f59 b7bc
000001c0: 88ca 40bd 775b 0abd 052a 17bd 8d53 94bb
000001d0: fa2c f5bc e60d 51ba 1cb5 d5bc 5f40 c8bc
000001e0: 6d6d 1ebd 78c4 4ebc 2767 04bd a791 d2bc
000001f0: f918 0ebd 9c0a 7abd 3fdc b8bc 04a9 debc

action_model._continuous_distribution.log_sigma f4 [1, 2]
-0.5118544 -0.44145966
00000000: e408 03bf 0007 e2be

action_model._continuous_distribution.mu.weight f4 [2, 128]
-0.033528484 -0.008554994 -0.029524839 -0.013626213 -0.012985374 -0.0044666077 -0.01161048 -0.0071787676
-0.0064798286 -0.015023088 -0.026524791 -0.00060737925 -0.011814974 -0.00023840042 -0.008588902 -0.0062396475
0.036829796 -0.02525436 -0.03132624 -0.016802633 -0.009016485 -0.019040179 -0.014286477 0.01595724
0.0048674257 -0.01689441 -0.015678544 -0.013397406 -0.008326067 -0.008343401 -0.015422507 0.005782985
-0.03237159 -0.015887657 -0.010056608 -0.011936473 0.008465919 -0.01772301 0.0067210444 -0.002054286
-0.03020525 -0.011159865 0.009479333 -0.014147647 0.03601103 -0.025711194 -0.0007301345 -0.018584566
0.0085253455 -0.019480286 -0.018840628 -0.10981118 -0.015322346 -0.010412876 -0.017094815 -0.0043492373
-0.0022991146 -0.021930117 -0.003130221 -0.00890297 -0.009638718 -0.004296041 -0.019093689 -0.033125658
-0.016447555 -0.014143713 0.05056271 -0.0019681586 -0.012315893 -0.016140122 -0.009028367 -0.0032003045
-0.053405207 -0.0052156155 -0.0071674637 -0.0056217182 -0.01824525 0.002807461 -0.010816027 -0.014039439
0.0034814817 -0.023051418 -0.0019557655 -0.024816819 -0.016676396 -0.039256122 0.02123182 0.0011275599
-0.0004937289 -0.008888027 -0.013746629 -0.014229219 -0.074308224 0.031256706 0.005697489 -0.020625262
-0.004541268 0.004351529 -0.0112826815 0.002491525 -0.020533377 -0.00611033 -0.0038617647 -0.001125768
-0.010914189 -0.032367427 0.098987006 -0.073554836 -0.026838161 -0.010473968 -0.016838634 -0.007163757
-0.014444789 -0.010456022 -0.006125821 -0.025317095 -0.00649246 -0.07724631 -0.013749445 -0.020900566
-0.013999622 0.0015989605 -0.012580389 -0.025553461 -0.0076336223 -0.00012610843 -0.00084636384 -0.0023217578
0.02067627 0.03575748 -0.03091187 0.005589759 0.014951838 0.0007034709 -0.0056362166 0.01509979
0.020115048 0.011482013 -0.027356017 -0.02384118 0.01648221 -0.019634733 -0.01948046 -0.22429247
0.07751172 0.007930868 0.0013108399 0.0011804401 -0.0041425796 -0.0050420347 -0.005143622 -0.0019482002
-0.07424116 0.003296836 0.00045726725 0.007335201 -0.014691031 -0.016134052 -0.003282148 -0.016534427
-0.008100673 0.022236936 0.016197989 0.019833423 0.030541016 0.005224356 0.042402226 0.03779137
0.023743702 0.01387276 -0.05387173 -0.007310302 -0.020852588 0.009865349 0.07508889 0.019462582
-0.065943204 0.014672429 0.0006758446 0.007817882 0.020549411 -0.002219548 0.0022449296 -0.065473564
-0.014080837 0.033355694 -0.02012128 0.0011959118 -0.0023391154 0.0010727287 -0.0071870326 -0.010828766
-0.00015152132 -0.007157552 -0.09782128 0.0016485538 0.02271882 -0.00043893486 0.0072373417 0.015020869
-0.0384005 -0.0026500565 -0.030767513 -0.005634999 0.008693315 0.0006927964 -0.0024899784 0.010242707
0.011485395 0.0025743644 -0.02769783 0.00869347 0.0026326566 -0.052432954 0.027449822 -0.013127492
-0.028331686 0.023749461 0.017496105 0.010151 -0.03553045 -0.17355995 0.015378009 -0.0017415126
0.014826737 0.010076073 -0.0038883672 -0.032342173 0.012728899 -0.018419618 0.006947041 -0.0033965642
-0.002175132 -0.022346992 0.01986911 -0.007714157 0.0049741752 0.044791777 0.0041324887 0.07725149
-0.0014253533 -0.057258412 -0.01089443 0.0020209248 -0.004712385 0.008644071 -0.002440402 0.0039336453
0.014278806 -0.019561918 -0.00373881 0.0136823775 -0.0005352396 -0.0052239345 -0.028268894 0.017417401
00000000: 2a55 09bd 3f2a 0cbc 13de f1bc 7b40 5fbc
00000010: 9bc0 54bc 9f5c 92bb e239 3ebc de3b ebbb
00000020: be54 d4bb 6623 76bc 854a d9bc 8838 1fba
00000030: 9893 41bc 20fb 79b9 77b8 0cbc f575 ccbb
00000040: d7da 163d 3be2 cebc f24f 00bd ada5 89bc
00000050: e1b9 13bc 26fa 9bbc d411 6abc c2b8 823c
00000060: ed7e 9f3b 2566 8abc 4a70 80bc cb80 5bbc
00000070: 0e6a 08bc c3b2 08bc afae 7cbc 327f bd3b
00000080: 1398 04bd d526 82bc 79c4 24bc 3291 43bc
00000090: a3b4 0a3c d92f 91bc 353c dc3b 33a1 06bb
000000a0: 0071 f7bc ded7 36bc 344f 1b3c 88cb 67bc
000000b0: 4d80 133d 48a0 d2bc 7f66 3fba a93e 98bc
000000c0: e4ad 0b3c 1f95 9fbc a957 9abc afe4 e0bd
000000d0: 940a 7bbc c49a 2abc 6d0a 8cbc 0c84 8ebb
000000e0: beac 16bb caa6 b3bc 6524 4dbb c3dd 11bc
000000f0: b7eb 1dbc cec5 8cbb 5e6a 9cbc c5ae 07bd
00000100: 06bd 86bc 08bb 67bc d81a 4f3d 39fc 00bb
00000110: 99c8 49bc 4a38 84bc b7eb 13bc 33bc 51bb
00000120: 6bbf 5abd c1e7 aabb 0bdd eabb 6436 b8bb
00000130: 1077 95bc 61fd 373b b535 31bc ad05 66bc
00000140: 9229 643b 54d6 bcbc 4d2c 00bb a44c cbbc
00000150: f09c 88bc 07cb 20bd 5bee ad3c a2ca 933a
00000160: 966d 01ba 169f 11bc 8a39 61bc ac21 69bc
00000170: e92e 98bd 0807 003d 00b2 ba3b 4ff6 a8bc
00000180: ebce 94bb 4597 8e3b ffda 38bc da48 233b
00000190: 9d35 a8bc 2a39 c8bb a915 7dbb 818e 93ba
000001a0: 6dd1 32bc b593 04bd b3b9 ca3d eba3 96bd
000001b0: b4db dbbc 029b 2bbc 2df1 89bc f3bd eabb
000001c0: d6a9 6cbc bc4f 2bbc 1cbb c8bb cc65 cfbc
000001d0: b4be d4bb 5033 9ebd 5a45 61bc aa37 abbc
000001e0: ac5e 65bc 3694 d13a fa1d 4ebc 7e55 d1bc
000001f0: 7723 fabb f93b 04b9 84de 5dba a228 18bb
00000200: 4861 a93c 6f76 123d e43a fdbc 4c2a b73b
00000210: 8ef8 743c 2269 383a 03b0 b8bb 1c65 773c
00000220: 50c8 a43c 0e1f 3c3c ba19 e0bc 944e c3bc
00000230: b305 873c 05d9 a0bc 7c95 9fbc edac 65be
00000240: 77be 9e3d 79f0 013c 7dd0 ab3a ffb8 9a3a
00000250: 7abe 87bb a737 a5bb d48b a8bb c05a ffba
00000260: c00b 98bd bb0f 583b 5fbd ef39 205c f03b
00000270: a6b2 70bc 8f2b 84bc 4e19 57bb 3573 87bc
00000280: afb8 04bc 3c2a b63c a5b1 843c b479 a23c
00000290: 2731 fa3c 1331 ab3b f5ad 2d3d 20cb 1a3d
000002a0: 2782 c23c 934a 633c 9aa8 5cbd 428b efbb
000002b0: 0cd3 aabc 46a2 213c 34c8 993d fe6f 9f3c
000002c0: 3b0d 87bd a164 703c 2a2b 313a 9316 003c
000002d0: 3d57 a83c d675 11bb ab1f 133b 0117 86bd
000002e0: 50b3 66bc fb9f 083d 62d5 a4bc 24c0 9c3a
000002f0: d84b 19bb cd9a 8c3a 3381 ebbb 236b 31bc
00000300: b2e1 1eb9 e689 eabb 8656 c8bd 4914 d83a
00000310: d21c ba3c d720 e6b9 3927 ed3b 171a 763c
00000320: d849 1dbd 92ac 2dbb 270c fcbc cca5 b8bb
00000330: 686e 0e3c c89c 353a e82e 23bb 07d1 273c
00000340: 3d2d 3c3c abb6 283b 8fe6 e2bc 0e6f 0e3c
00000350: a688 2c3b f0c3 56bd 73de e03c b114 57bc
00000360: da17 e8bc 3b8e c23c fe53 8f3c 6150 263c
00000370: 6188 11bd b3b9 31be 0bf4 7b3c 7743 e4ba
00000380: d8eb 723c 1d16 253c fad3 7ebb 3a79 04bd
00000390: df8c 503c bde4 96bc 01a4 e33b e498 5ebb
000003a0: a98c 0ebb 0a11 b7bc 8bc4 a23c 0ac7 fcbb
000003b0: 68fe a23b 9577 373d d469 873b 0736 9e3d
000003c0: ecd2 baba cc87 6abd 8d7e 32bc 7e71 043b
000003d0: 5a6a 9abb dd9f 0d3c 27ef 1fbb cfe5 803b
000003e0: a7f1 693c 5140 a0bc d306 75bb 0d2c 603c
000003f0: 524f 0cba 8a2d abbb 2b94 e7bc f0ae 8e3c

action_model._continuous_distribution.mu.bias f4 [2]
0.02635111 0.0021765584
00000000: 48de d73c 97a4 0e3b

exp_avg f4 [128, 8]
0.009709934 0.00020580621 -0.00715794 0.008672383 0.00020580152 -0.00977664 -0.0015848415 2.2686047e-05
-6.8514203e-09 -1.4521953e-10 5.0509192e-09 -6.498628e-09 -1.4521945e-10 6.5841066e-09 2.6896477e-10 -1.4663352e-10
-1.4912649e-13 -3.1726023e-15 1.13182955e-13 -1.2378987e-13 -3.172478e-15 1.5761188e-13 4.6812008e-14 2.395386e-15
0.016188867 0.00034312988 -0.011934056 0.014174683 0.0003431222 -0.016131196 -0.0030975915 0.00034039348
-7.2747253e-09 -1.5419176e-10 5.3630087e-09 -7.1755135e-09 -1.5419156e-10 6.952197e-09 -2.1553094e-10 -1.3917874e-10
-8.066636e-09 -1.7097578e-10 5.9465357e-09 -8.017558e-09 -1.7097615e-10 7.664235e-09 -3.868652e-10 -1.5678593e-10
-0.013084209 -0.00027732545 0.009645377 -0.010596392 -0.00027731314 0.01302354 0.0040689306 -0.0006414299
0.0004034718 8.551755e-06 -0.00029743006 0.00036297122 8.551585e-06 -0.00039070254 -5.17739e-05 1.5324695e-05
-0.0083688535 -0.00017738139 0.0061693243 -0.008196024 -0.00017738173 0.008200697 -2.1117407e-05 6.670077e-05
0.010435255 0.00022117964 -0.007692628 0.010290153 0.0002211818 -0.009856481 0.00040688115 0.0002470393
-0.034454964 -0.00073028734 0.025399396 -0.032399047 -0.000730283 0.033062354 0.0017879136 -0.0009735317
-0.007934836 -0.0001681822 0.005849377 -0.007364036 -0.00016818118 0.007493602 0.00053177867 -0.0003804482
0.00027590187 5.8478554e-06 -0.00020338844 0.00032633395 5.8481155e-06 -0.00026318792 0.000109907785 -2.0191146e-05
4.934026e-06 1.0457879e-07 -3.6372498e-06 4.7023946e-06 1.045788e-07 -4.927177e-06 -2.1647e-07 -1.1369368e-07
-0.0070025 -0.00014842085 0.0051620784 -0.0075841625 -0.00014842527 0.005976599 -0.0018908193 -0.0004748106
-0.005064733 -0.000107349144 0.003733603 -0.004892291 -0.00010734867 0.004631612 -9.053278e-05 -0.00032310234
0.0044439305 9.419098e-05 -0.0032759618 0.0033346568 9.41861e-05 -0.0045773396 -0.0019511278 0.00018564757
6.523917e-08 1.3827759e-09 -4.8094027e-08 6.481919e-08 1.3827787e-09 -5.401442e-08 7.2170243e-09 8.196523e-09
0.018817738 0.00039885004 -0.013871999 0.016386071 0.00039883974 -0.018545948 -0.0036435924 0.0006217553
-0.00422389 -8.952712e-05 0.0031137532 -0.0041490872 -8.9527726e-05 0.00397443 -0.00016096543 -0.000114193725
-0.0083299205 -0.00017655622 0.0061406298 -0.0062624966 -0.00017654669 0.008791043 0.0037702615 -0.00014313354
0.018178022 0.00038529083 -0.013400408 0.015483408 0.0003852784 -0.017920045 -0.004149072 0.0007561585
1.8436751e-10 3.907754e-12 -1.3591306e-10 1.7226764e-10 3.907738e-12 -1.7824181e-10 -1.2574358e-11 4.226515e-12
0.00021489311 4.5547517e-06 -0.00015841423 0.00020027041 4.5546985e-06 -0.00021117303 -1.6520753e-05 2.2230888e-06
-0.0014408163 -3.0538708e-05 0.0010621364 -0.001302381 -3.05382e-05 0.0014110038 0.0001876708 -3.7094123e-05
2.6607204e-12 5.639509e-14 -1.9614213e-12 2.5024724e-12 5.6395494e-14 -2.7365451e-12 -1.9019775e-13 -1.7716216e-13
1.9611356e-05 4.1567094e-07 -1.4457035e-05 1.9067276e-05 4.1567046e-07 -1.8796207e-05 9.573776e-08 3.7537825e-07
6.830031e-05 1.447654e-06 -5.0349405e-05 5.808957e-05 1.4476099e-06 -6.5863416e-05 -1.4293942e-05 4.671438e-06
2.9562596e-08 6.265919e-10 -2.1792859e-08 3.6648956e-08 6.2663447e-10 -2.4559913e-08 1.695192e-08 8.054964e-10
0.008670954 0.00018378493 -0.006392034 0.005495245 0.00018376805 -0.00954221 -0.0060025523 0.00021319056
-1.8057533e-07 -3.827371e-09 1.3311595e-07 -1.7601656e-07 -3.827367e-09 1.7257638e-07 -1.5762784e-09 -3.67959e-09
-7.32178e-08 -1.5518821e-09 5.397443e-08 -7.283522e-08 -1.5519133e-09 7.17619e-08 -2.4865687e-09 1.240692e-09
00000000: 6a16 1f3c afcd 5739 278d eabb 9c16 0e3c
00000010: 6dcc 5739 332e 20bc 75ba cfba ea4d be37
00000020: bb69 ebb1 aaab 1faf 5b8c ad31 894a dfb1
00000030: a4ab 1faf 6a3a e231 6ddd 932f ab39 21af
00000040: c9e6 27aa 2f9c 64a7 88dd fe29 0060 0baa
00000050: e499 64a7 8874 312a 92d2 5229 139b 2c27
00000060: 849e 843c 1de6 b339 0f87 43bc ee3c 683c
00000070: 15e5 b339 9225 84bc f600 4bbb d776 b239
00000080: 29f5 f9b1 1f89 29af 8645 b831 7c8c f6b1
00000090: 1189 29af 2ce0 ee31 91fa 6caf 5507 19af
000000a0: 7195 0ab2 67fd 3baf 4852 cc31 98bd 09b2
000000b0: 82fd 3baf a9ab 0332 70ae d4af 5163 2caf
000000c0: 265f 56bc fe65 91b9 a507 1e3c 7d9c 2dbc
000000d0: 5764 91b9 b060 553c aa54 853b a225 28ba
000000e0: 1189 d339 8279 0f37 63f0 9bb9 2c4d be39
000000f0: c778 0f37 35d7 ccb9 cd27 59b8 888d 8037
00000100: 841d 09bc 74ff 39b9 0b28 ca3b 9e48 06bc
00000110: 8cff 39b9 375c 063c 4925 b1b7 b4e1 8b38
00000120: a2f8 2a3c 75ec 6739 7112 fcbb 0898 283c
00000130: 0aed 6739 147d 21bc aa52 d539 0e85 8139
00000140: a620 0dbd c170 3fba 6512 d03c ddb4 04bd
00000150: 7670 3fba 646c 073d 6d58 ea3a 9b34 7fba
00000160: 1d01 02bc 115a 30b9 21ac bf3b 034e f1bb
00000170: cb59 30b9 e48c f53b 1067 0b3a e576 c7b9
00000180: eca6 9039 b238 c436 ab44 55b9 cd17 ab39
00000190: ee3a c436 7cfc 89b9 4b7e e638 2860 a9b7
000001a0: f68e a536 cc94 e033 7a17 74b6 43c9 9d36
000001b0: ce94 e033 2154 a5b6 d26e 68b4 c327 f4b3
000001c0: 3a75 e5bb 6ba1 1bb9 a726 a93b 9184 f8bb
000001d0: 9ba2 1bb9 59d7 c33b 5ed5 f7ba 00f0 f8b9
000001e0: 0ff6 a5bb a220 e1b8 77af 743b 834f a0bb
000001f0: 6120 e1b8 c7c4 973b 6bdc bdb8 1066 a9b9
00000200: 649e 913b 6688 c538 85b1 56bb 428a 5a3b
00000210: c785 c538 82fd 95bb fcbc ffba 64aa 4239
00000220: 9d19 8c33 1a0c be30 f18f 4eb3 ba32 8b33
00000230: 330c be30 7cfd 67b3 9ef9 f731 b0d0 0c32
00000240: a827 9a3c bf1c d139 6247 63bc 153c 863c
00000250: 5d1b d139 aced 97bc 56c9 6ebb 4bfd 223a
00000260: 8f68 8abb 82c0 bbb8 1c10 4c3b 11f5 87bb
00000270: d5c0 bbb8 ef3b 823b d4c8 28b9 4a7b efb8
00000280: 387a 08bc f321 39b9 5637 c93b a135 cdbb
00000290: 641f 39b9 4f08 103c 7e16 773b 1e16 16b9
000002a0: 13ea 943c dc00 ca39 638d 5bbc 1fae 7d3c
000002b0: 31ff c939 0fcd 92bc f0f4 87bb f038 463a
000002c0: d7b6 4a2f eb7d 892c 2070 15af 0869 3d2f
000002d0: c67d 892c 9cfa 43af e035 5dad 10b5 942c
000002e0: ee54 6139 05d5 9836 ff1b 26b9 aeff 5139
000002f0: 90d4 9836 546e 5db9 0c96 8ab7 6030 1536
00000300: c6d9 bcba b016 00b8 6237 8b3a a8b4 aaba
00000310: 2416 00b8 6ef1 b83a 7fc9 4439 8395 1bb8
00000320: 473b 3b2c 1dfb 7d29 d305 0aac 8918 302c
00000330: 94fb 7d29 3791 40ac c524 56aa 8477 47aa
00000340: 1183 a437 6129 df34 7e8c 72b7 aaf2 9f37
00000350: 5029 df34 8cac 9db7 6498 cd33 9887 c934
00000360: 733c 8f38 034d c235 432e 53b8 33a5 7338
00000370: 7f4b c235 2720 8ab8 03d0 6fb7 59bf 9c36
00000380: d6f0 fd32 7c3c 2c30 0133 bbb2 f467 1d33
00000390: 7b3f 2c30 d2f7 d2b2 ab9d 9132 c569 5d30
000003a0: 9e10 0e3c 64b6 4039 4474 d1bb 7511 b43b
000003b0: dcb1 4039 ee56 1cbc 0fb1 c4bb e88b 5f39
000003c0: 2be4 41b4 e981 83b1 a2ee 0e34 10ff 3cb4
000003d0: e081 83b1 6f4d 3934 5ea4 d8b0 08dc 7cb1
000003e0: e93b 9db3 ff49 d5b0 83d1 6733 9669 9cb3
000003f0: 184b d5b0 861b 9a33 2ee0 2ab1 f884 aa30

exp_avg_sq f4 [128, 8]
0.010278338 3.8335324e-06 0.0015781141 0.008266161 3.833916e-06 0.007639406 1.2007414e-05 2.7151368e-06
0.009588034 3.288079e-06 8.3976315e-17 0.0070891553 3.288077e-06 0.0063289283 1.2018432e-06 1.5893104e-06
3.2713656e-06 1.1218677e-09 1.4496537e-24 2.4427802e-06 1.1218679e-09 2.1797841e-06 4.5069332e-10 7.584377e-10
0.047270495 1.6938817e-05 0.0037218647 0.036590625 1.6940096e-05 0.033274464 3.4056e-05 1.141459e-05
0.09782222 3.354663e-05 2.9002421e-16 0.07221798 3.354663e-05 0.064689726 9.977797e-06 1.8796514e-05
1.8376264e-11 6.3019353e-15 2.621092e-16 1.31292815e-11 6.301935e-15 1.1702408e-11 3.692107e-15 4.404885e-15
0.011407396 5.124726e-06 0.0061991164 0.011456368 5.1273764e-06 0.010963388 5.5845398e-05 7.184597e-06
0.030812498 1.056691e-05 1.0707732e-06 0.022709928 1.05669105e-05 0.02031617 3.4244883e-06 5.365448e-06
3.241717e-05 1.4562768e-08 1.7613807e-05 3.274943e-05 1.4565244e-08 3.1250926e-05 1.8176486e-07 2.2262999e-08
0.14703573 5.050338e-05 0.00040662204 0.10835114 5.0503462e-05 0.09742641 2.2089847e-05 2.8887007e-05
0.021808326 8.23592e-06 0.0038700255 0.017900337 8.236474e-06 0.016598888 2.9652998e-05 6.7169226e-06
0.0010944111 4.4012148e-07 0.0003312857 0.00096639176 4.401505e-07 0.00090746937 2.663601e-06 3.9353776e-07
0.11861354 4.0677223e-05 2.0436798e-06 0.08757043 4.0677234e-05 0.078353085 1.4906937e-05 2.054245e-05
0.0009992534 3.4267944e-07 3.6748665e-10 0.0007375582 3.426796e-07 0.00066065823 9.82464e-08 1.6382793e-07
0.028784405 1.0644844e-05 0.003954665 0.023143783 1.0645565e-05 0.021198107 3.7985166e-05 8.186894e-06
0.00250221 9.797103e-07 0.00062165054 0.0021207829 9.797517e-07 0.0019898457 4.933623e-06 8.7464605e-07
0.020909507 7.4556465e-06 0.0014569267 0.016061671 7.4561567e-06 0.014592379 1.4612802e-05 4.9187847e-06
0.3046194 0.000104464976 8.041373e-13 0.22432838 0.000104465056 0.20144743 3.4492998e-05 5.054577e-05
0.012473801 5.2809323e-06 0.0051281783 0.011674968 5.282841e-06 0.011088367 4.2601157e-05 5.98694e-06
0.000542419 2.0459808e-07 9.499351e-05 0.0004454772 2.046164e-07 0.00041088756 9.663606e-07 1.7525034e-07
0.011399447 5.1122706e-06 0.006149399 0.011387182 5.114226e-06 0.010907876 5.265368e-05 6.8544587e-06
0.014441881 6.052292e-06 0.005621158 0.013428537 6.055247e-06 0.012671312 5.262185e-05 7.113973e-06
5.671185e-07 1.9448482e-10 1.2217601e-19 4.1758744e-07 1.9448482e-10 3.7277607e-07 5.742509e-11 1.14390435e-10
3.143672e-07 1.4122818e-10 1.7083642e-07 3.0964497e-07 1.4125894e-10 2.99706e-07 9.375667e-10 9.81969e-11
3.297352e-05 1.4813218e-08 1.791878e-05 3.294539e-05 1.4819174e-08 3.1704087e-05 1.4102493e-07 2.011012e-08
8.332107e-17 2.8573914e-20 7.6433917e-22 5.995324e-17 2.857391e-20 5.3219566e-17 1.0983093e-20 1.7417412e-20
0.04403864 1.5102398e-05 1.3458363e-09 0.032447163 1.5102396e-05 0.029194959 5.0854514e-06 8.422881e-06
0.010525285 3.6095116e-06 8.210006e-08 0.007840012 3.6095125e-06 0.0069125434 1.5177499e-06 2.033508e-06
0.0018404053 6.31141e-07 1.4699068e-13 0.0013637126 6.311412e-07 0.001211755 3.6906832e-07 3.3911715e-07
0.23667234 8.403741e-05 0.014690739 0.18162242 8.404321e-05 0.16435724 0.00015878744 5.344337e-05
1.7637062e-13 7.9111554e-17 9.5220205e-14 1.7196144e-13 7.911282e-17 1.6811686e-13 3.2929428e-16 4.4716285e-17
0.024751531 8.488194e-06 1.5203969e-14 0.018226713 8.488191e-06 0.016371394 2.9192925e-06 4.995547e-06
00000000: 7966 283c cba1 8036 b9d8 ce3a cb6e 073c
00000010: 16a5 8036 fb53 fa3b 7373 4937 b235 3636
00000020: 2117 1d3c c4a8 5c36 dea2 c124 254c e83b
00000030: bca8 5c36 e662 cf3b 054f a135 4a50 d535
00000040: a289 5b36 3630 9a30 b352 e017 a5ee 2336
00000050: 3830 9a30 6848 1236 72c5 f72f 4f7a 5030
00000060: b59e 413d d517 8e37 87ea 733b 0de0 153d
00000070: 941a 8e37 ce4a 083d 5ad7 0e38 4a81 3f37
00000080: 0457 c83d 6bb4 0c38 0530 a725 05e7 933d
00000090: 6bb4 0c38 0c7c 843d 5066 2737 35ad 9d37
000000a0: aba3 a12d 180d e327 7e18 9725 07f9 662d
000000b0: 170d e327 f6de 4d2d ad05 8527 e5b3 9e27
000000c0: 16e6 3a3c 10f5 ab36 f521 cb3b 7db3 3b3c
000000d0: d40b ac36 c89f 333c 8a3b 6a38 3813 f136
000000e0: 7e6a fc3c 8848 3137 7db7 8f35 2c0a ba3c
000000f0: 8948 3137 196e a63c 43d0 6536 d908 b436
00000100: acf7 0738 bb2f 7a32 5dc1 9337 6f5c 0938
00000110: 9f3a 7a32 6d13 0338 252b 4334 da3c bf32
00000120: 8990 163e 97d3 5338 e32f d539 34e7 dd3d
00000130: aed3 5338 7f87 c73d 964d b937 6052 f237
00000140: 60a7 b23c 022d 0a37 41a0 7d3b baa3 923c
00000150: 632f 0a37 64fa 873c 54bf f837 ed61 e136
00000160: 5872 8f3a d649 ec34 6ab0 ad39 7455 7d3a
00000170: d34d ec34 3de3 6d3a 51c0 3236 6b47 d334
00000180: a8eb f23d d69c 2a38 2726 0936 2058 b33d
00000190: d99c 2a38 9577 a03d cf18 7a37 9352 ac37
000001a0: 61f9 823a 81f9 b734 2607 ca2f b158 413a
000001b0: 87f9 b734 0630 2d3a 88fb d233 aee8 2f34
000001c0: 46cd eb3c 4297 3237 2296 813b 0898 bd3c
000001d0: 5b9a 3237 a7a7 ad3c 4352 1f38 715a 0937
000001e0: 1efc 233b 977e 8335 43f6 223a d5fc 0a3b
000001f0: 0380 8335 1268 023b 808b a536 38c9 6a35
00000200: 6a4a ab3c 842b fa36 59f6 be3a c493 833c
00000210: e62f fa36 e014 6f3c 8229 7537 0a0c a536
00000220: 13f7 9b3e 3514 db38 3358 622b 57b6 653e
00000230: 4014 db38 3c48 4e3e 93ac 1038 1b01 5438
00000240: ea5e 4c3c dd32 b136 470a a83b 5d48 3f3c
00000250: 4243 b136 fbab 353c a5ae 3238 6ce3 c836
00000260: 1f31 0e3a 7eaf 5b34 4137 c738 f08e e939
00000270: 87b4 5b34 656c d739 e6b3 8135 722c 3c34
00000280: bfc4 3a3c 128a ab36 e680 c93b 4e91 3a3c
00000290: de9a ab36 f3b6 323c 75d8 5c38 5aff e536
000002a0: a49d 6c3c cb14 cb36 b131 b83b 5e03 5c3c
000002b0: 2d2e cb36 569b 4f3c 48b6 5c38 90b4 ee36
000002c0: 163c 1835 9cd6 552f 6f3d 1020 c830 e034
000002d0: 9cd6 552f f421 c834 e78e 7c2e 178c fb2e
000002e0: 4dc6 a834 3348 1b2f 286f 3734 483d a634
000002f0: db50 1b2f 47e7 a034 b2db 8030 f1ef d72e
00000300: 0c4d 0a38 397d 7e32 4950 9637 d82e 0a38
00000310: 6b97 7e32 01fa 0438 a36c 1734 9fbe ac32
00000320: 1420 c024 beef 061f e101 671c 253e 8a24
00000330: bdef 061f 936e 7524 fb76 4f1e b880 a41e
00000340: dc61 343d 4e60 7d37 68f8 b830 51e7 043d
00000350: 4c60 7d37 442a ef3c b2a3 aa36 0050 0d37
00000360: 3f72 2c3c f03a 7236 fc4e b033 6573 003c
00000370: f43a 7236 9e82 e23b 7db5 cb35 6777 0836
00000380: c139 f13a ae6b 2935 2e7f 252a 9abe b23a
00000390: b16b 2935 c0d3 9e3a 5d24 c634 e80f b634
000003a0: 3c5a 723e 3e3d b038 6db1 703c 3afb 393e
000003b0: 5b40 b038 444d 283e 2e80 2639 6228 6038
000003c0: 5f93 462a 386b b624 b66a d629 839c 412a
000003d0: f76b b624 6348 3d2a 42d3 bd25 ac37 4e24
000003e0: b9c3 ca3c 8468 0e37 f7f1 8828 3050 953c
000003f0: 8168 0e37 4d1d 863c 10e9 4336 6c9f a736

exp_avg f4 [128]
0.0004116122 -2.9043784e-10 -6.327058e-15 0.00068625977 -3.083821e-10 -3.419515e-10 -0.0005546506 1.710351e-05
-0.00035476277 0.0004423593 -0.0014605747 -0.0003363645 1.16957135e-05 2.0915758e-07 -0.00029684172 -0.00021469826
0.00018838194 2.7655451e-09 0.0007977001 -0.00017905426 -0.00035311232 0.0007705815 7.815497e-12 9.109502e-06
-6.107742e-05 1.12790236e-13 8.3134205e-07 2.895308e-06 1.2531842e-09 0.00036756927 -7.654742e-09 -3.1037641e-09
-0.0004019873 7.6675904e-05 -5.5932614e-05 0.00086018414 0.00021506353 -0.00042582082 -9.218266e-07 4.359009e-15
-5.7966105e-07 2.8720427e-12 -3.7989746e-06 -3.567658e-05 -6.633874e-09 -0.0002060829 -0.00056323706 -1.0465046e-10
-0.00043110523 -0.00022106284 -0.00047676841 1.7375134e-14 0.00010708846 -8.859779e-05 -5.361298e-06 -0.0011689069
-4.6478776e-09 0.0007043262 2.5647626e-09 -0.00018345843 5.5392363e-10 5.1424213e-05 7.089244e-13 -0.00069693686
3.0586468e-15 2.4384044e-06 0.0012104436 1.4160809e-08 0.0004531756 0.0005385464 -0.00029349752 -0.00018965807
0.00046285766 4.9873775e-05 8.9509075e-07 3.0164529e-05 -1.6267997e-05 7.208763e-05 -1.0102663e-11 -0.0012566026
7.1820985e-05 -8.097989e-11 2.1694437e-05 -2.1475779e-07 3.5168262e-06 5.216049e-06 -0.0001632403 -2.9935361e-13
-0.00051057426 -4.5844145e-06 -0.0005718399 0.0009407869 0.0002125071 -6.212073e-05 0.0012207812 3.2787976e-16
2.7901187e-13 0.0006190802 0.000111554604 -1.2032419e-14 8.222744e-05 2.3718807e-05 0.00030885494 -5.079969e-05
-6.7221104e-06 0.00072892534 -5.574094e-06 4.6212685e-06 -2.7969023e-05 -1.186763e-08 -0.0010411581 -6.071507e-07
8.8685294e-05 -9.3069875e-06 -5.167715e-06 7.903325e-07 1.7560127e-05 -3.8233984e-06 -2.3954897e-08 -1.7746379e-05
-0.00022596086 8.9716605e-06 0.00069269247 4.5112775e-10 -4.0739058e-11 -0.0005712195 1.5446452e-09 8.5385295e-07
00000000: a8cd d739 7eab 9faf cff4 e3a7 1de6 333a
00000010: ec88 a9af 65fd bbaf f965 11ba 8279 8f37
00000020: 74ff b9b9 76ec e739 c170 bfba 145a b0b9
00000030: b538 4437 cc94 6034 6ca1 9bb9 a020 61b9
00000040: 6488 4539 fc0b 3e31 bf1c 513a 83c0 3bb9
00000050: ef21 b9b9 d900 4a3a df7d 092d 03d5 1837
00000060: b116 80b8 25fb fd29 6429 5f35 034d 4236
00000070: 803c ac30 50b6 c039 e981 03b2 ff49 55b1
00000080: d2c1 d2b9 10cd a038 3099 6ab8 fb7d 613a
00000090: ad82 6139 b440 dfb9 7173 77b5 c30c 9d27
000000a0: 019a 1bb5 1f1a 4a2c e3f1 7eb6 70a3 15b8
000000b0: 2cf0 e3b1 f517 58b9 33a6 13ba f920 e6ae
000000c0: f705 e2b9 1bcd 67b9 c6f6 f9b9 5580 9c28
000000d0: ae94 e038 94cd b9b8 33e5 b3b6 0236 99ba
000000e0: 2ab3 9fb1 88a2 383a c83f 3031 bf5e 40b9
000000f0: e942 1830 54b0 5738 638b 472b a4b2 36ba
00000100: 1366 5c27 78a3 2336 bfa7 9e3a e647 7332
00000110: 3398 ed39 3d2d 0d3a 92e0 99b9 f3de 46b9
00000120: b4ab f239 8f2f 5138 2b46 7035 d509 fd37
00000130: 4277 88b7 c02d 9738 59ba 31ad 96b4 a4ba
00000140: 999e 9638 a013 b2ae 73fc b537 2c98 66b4
00000150: 9d02 6c36 8505 af36 7c2b 2bb9 6785 a8aa
00000160: 0fd8 05ba d2d3 99b6 87e7 15ba 249f 763a
00000170: 71d4 5e39 d046 82b8 9f02 a03a 8302 bd25
00000180: d911 9d2a c549 223a 6cf2 e938 bdc1 58a8
00000190: 8571 ac38 c0f7 c637 cfed a139 c011 55b8
000001a0: 7d8e e1b6 5a15 3f3a 1a09 bbb6 6510 9b36
000001b0: 059f eab7 64e2 4bb2 7877 88ba 14fb 22b5
000001c0: 8efc b938 3525 1cb7 5566 adb6 3c27 5435
000001d0: 164e 9337 be4a 80b6 60c5 cdb2 0fde 94b7
000001e0: e8ef 6cb9 fd84 1637 ce95 353a 9602 f82f
000001f0: 1a2c 33ae e4bd 15ba 5f4b d430 5434 6535

exp_avg_sq f4 [128]
1.5334132e-05 1.3152316e-05 4.487471e-09 6.775527e-05 0.00013418651 2.5207741e-14 2.0498903e-05 4.2267635e-05
5.825107e-08 0.00020201354 3.294368e-05 1.760486e-06 0.0001627089 1.3707179e-06 4.2579373e-05 3.9188417e-06
2.9822582e-05 0.00041785996 2.112373e-05 8.183924e-07 2.0449083e-05 2.4209168e-05 7.7793927e-10 5.649127e-10
5.9252876e-08 1.1429568e-19 6.040959e-05 1.44380465e-05 2.524564e-06 0.00033614965 3.1644624e-16 3.395277e-05
0.00016540251 2.0436062e-05 2.4782046e-06 2.929354e-05 0.0002811674 5.5754514e-05 2.0142532e-05 9.905291e-07
1.5003678e-12 7.2582134e-17 3.2829732e-06 0.00017135605 4.0965744e-05 5.7366524e-06 2.4666682e-05 0.00015025548
9.701653e-07 3.524799e-07 2.5760632e-05 0.00016963093 7.636468e-07 1.1505877e-07 2.1348384e-05 1.8697954e-05
9.676353e-07 0.00014435074 3.809764e-05 2.1040116e-05 8.363563e-17 1.4904434e-05 6.384215e-16 2.0628266e-05
3.784127e-06 1.5904025e-05 3.0017463e-05 0.00012826551 0.0005477152 0.000116675306 9.471294e-06 1.735503e-05
7.752128e-06 4.5821555e-05 1.3090387e-11 3.7851596e-08 1.4588712e-06 0.00013349674 9.9672075e-09 3.1773725e-05
2.4285266e-06 7.585625e-05 1.2723548e-07 2.0903284e-11 9.415967e-05 2.1883707e-07 0.00012439191 1.897446e-17
1.2881376e-05 4.650786e-05 6.041249e-05 2.2679395e-05 9.066058e-05 4.1927583e-06 0.000118620264 6.53663e-08
0.0004104112 5.74703e-06 7.710957e-05 2.2716404e-05 1.1065325e-05 8.596258e-07 1.5562464e-05 8.6600505e-07
0.00021578063 9.45065e-06 3.395429e-05 0.0003095754 0.00010508334 4.2609784e-07 0.000555037 7.702784e-05
1.1743685e-05 1.8771144e-07 0.00017015847 2.3065315e-06 2.3586454e-05 5.516468e-11 1.593902e-05 2.7551978e-06
2.0572286e-05 8.173469e-10 3.0179843e-05 4.704344e-17 6.840128e-05 2.4743593e-05 5.1645177e-09 2.4113636e-08
00000000: cca1 8037 c4a8 5c37 3630 9a31 d517 8e38
00000010: 6bb4 0c39 180d e328 0ff5 ab37 8748 3138
00000020: bb2f 7a33 99d3 5339 022d 0a38 d749 ec35
00000030: d69c 2a39 82f9 b735 4197 3238 987e 8336
00000040: 822b fa37 3714 db39 dd32 b137 7faf 5b35
00000050: 128a ab37 cb14 cb37 9cd6 5530 3348 1b30
00000060: 3a7d 7e33 c0ef 0620 4e60 7d38 f03a 7237
00000070: ae6b 2936 3e3d b039 396b b625 8268 0e38
00000080: e66f 2d39 1c6e ab37 3b4f 2636 66bb f537
00000090: a669 9339 f4d9 6938 c2f7 a837 52f2 8435
000000a0: 7228 d32b ee5c a724 0d51 5c36 0aae 3339
000000b0: a2d2 2b38 787d c036 4ceb ce37 e68d 1d39
000000c0: a036 8235 783c bd34 8918 d837 f5de 3139
000000d0: 69fd 4c35 3a16 f733 4e15 b337 8dd9 9c37
000000e0: b2df 8135 db5c 1739 08cb 1f38 4e7f b037
000000f0: c3d9 c024 0e0e 7a37 3103 3826 dd0a ad37
00000100: cff2 7d36 a269 8537 03ce fb37 037f 0639
00000110: 8b94 0f3a 94af f438 e6e6 1e37 a595 9137
00000120: 230f 0237 8530 4038 dd49 662d 4592 2233
00000130: 6fce c335 42fb 0b39 3e3c 2b32 c744 0538
00000140: c5f9 2236 0415 9f38 399e 0834 03de b72d
00000150: 9777 c538 7af9 6a34 336f 0239 2d02 af23
00000160: 171d 5837 6f11 4338 6b63 7d38 a13f be37
00000170: 0721 be38 85af 8c36 c5c3 f838 815f 8c33
00000180: 752c d739 9dd6 c036 e3b5 a138 1b8f be37
00000190: 36a5 3937 09c1 6635 238c 8237 6a77 6835
000001a0: 2c43 6239 3c8e 1e37 246a 0e38 824e a239
000001b0: 3060 dc38 71c2 e434 e77f 113a 028a a138
000001c0: be06 4537 ba8d 4934 916c 3239 e9c9 1a36
000001d0: 86db c537 e89d 722e c9b4 8537 f0e5 3836
000001e0: a692 ac37 adab 6030 b82a fd37 17f3 5824
000001f0: a872 8f38 7690 cf37 9473 b131 7222 cf32
