mlagents/Assets/results/RollerBall/RollerBall/RollerBall-347391.onnx (onnx, 73485 bytes, 7 tensors)

action_model._continuous_distribution.log_sigma f4 [1, 2]
0	0xbe7c4ed3	-0.24639444
1	0xbeeda61c	-0.46415794

action_model._continuous_distribution.mu.bias f4 [2]
0	0x3cadebde	0.021230634
1	0xbcd44064	-0.02590961

action_model._continuous_distribution.mu.weight f4 [2, 128]
0	0x3d8cad52	0.06868996
1	0xbd5ddd83	-0.05416633
2	0x3c8e013f	0.017334579
3	0xbcfe52df	-0.031045375
4	0x3cc44898	0.023960397
5	0xbdb2955c	-0.08719894
6	0x3d878fb8	0.06619209
7	0x3d9101cd	0.070804216
8	0x3c6a506a	0.014301399
9	0x3af40c1c	0.0018619332
10	0x3c7910e6	0.015201783
11	0x3e3f039d	0.18653722
12	0xbce23f94	-0.027618207
13	0xbdbea756	-0.093092605
14	0x39fcb2f0	0.00048198504
15	0xbc9ffeb9	-0.01953064
16	0xbdc0ac58	-0.09407872
17	0xbdf0a46f	-0.11750113
18	0xbd82b2b5	-0.06381742
19	0xbdc0f0f0	-0.09420955
20	0xbda78edb	-0.081815444
21	0xbd35f74e	-0.0444253
22	0x3dbbc683	0.091687225
23	0xbd96f26c	-0.07370457
24	0xbd65dbda	-0.05611787
25	0x3d9a93ce	0.07547723
26	0xbda9e064	-0.08294752
27	0x3c42964f	0.011876657
28	0x3da40c0c	0.0801011
29	0xbc479626	-0.012181794
30	0x3db2da85	0.087330855
31	0x3d606587	0.054784324
32	0xbc37ce11	-0.011218564
33	0x3d357ec5	0.04431035
34	0xbdd9dd4f	-0.106379144
35	0xbe06f63d	-0.1317987
36	0xbe0752b7	-0.13215147
37	0x3dd9c03f	0.10632371
38	0xbd2f8a00	-0.042856216
39	0x3cc0e753	0.023547804
40	0x3dacbd24	0.08434513
41	0x3da76a4c	0.081745714
42	0xbd0c9950	-0.034325898
43	0xbe39ff8a	-0.18163887
44	0xbe038e34	-0.12847215
45	0xbd29b76f	-0.0414347
46	0xbc24816c	-0.010040622
47	0x3d97ebd1	0.07418025
48	0x3dd68b3f	0.10475778
49	0x3db18950	0.086687684
50	0xbd329164	-0.043595687
51	0x3dfd7eef	0.12377726
52	0xbd97c645	-0.07410864
53	0x3de16e93	0.110074185
54	0x3db2f4ee	0.08738123
55	0x3ddef567	0.108866505
56	0x3dc1cd30	0.094629645
57	0xbdf1f814	-0.11814895
58	0x3d72f50e	0.059315734
59	0xbbfe07b3	-0.0077523827
60	0xbd8776f0	-0.066144824
61	0x3d6dbf5b	0.05804382
62	0xbd0aa4bd	-0.033848513
63	0xbc943e36	-0.01809607
64	0xbca05175	-0.019570092
65	0x3e0e3343	0.13886742
66	0xbd5cf91f	-0.053948518
67	0x3dc39a3c	0.09550902
68	0x3dbaf0d3	0.09127965
69	0xbd36cc9b	-0.04462872
70	0x3dd681cb	0.10473975
71	0xbb7a024b	-0.003814834
72	0x3d0f5450	0.034992516
73	0xbd0c3fee	-0.034240656
74	0x3d44bb41	0.04803014
75	0xbc1d8bc6	-0.009615844
76	0x3d9f8d57	0.0779063
77	0xbc7ebb21	-0.015547545
78	0xbe2a00e9	-0.1660191
79	0x3e64fe9f	0.22362755
80	0xbd979b09	-0.074026175
81	0xbe645e85	-0.22301681
82	0xbd0ba1df	-0.03408992
83	0x3cddeef3	0.027091479
84	0x3dd76270	0.10516822
85	0x3db64a95	0.08900944
86	0xbd135b17	-0.035975542
87	0x3dded762	0.10880925
88	0xbd02bd31	-0.03191871
89	0xbcf39d06	-0.02973796
90	0x3ca043f5	0.019563654
91	0x3cb350a1	0.021889033
92	0x3c167da0	0.009185225
93	0x3ddbd6a2	0.10734297
94	0x3d0d55c4	0.03450562
95	0x3db041e6	0.08606319
96	0xbc30fbb0	-0.0108021945
97	0xbd22b9fd	-0.039728153
98	0xbd725323	-0.059161317
99	0xbb839d9d	-0.0040165917
100	0x3d96d86d	0.07365499
101	0xbd1169c0	-0.03550124
102	0x3dd62583	0.104563735
103	0x3bb17812	0.005415925
104	0xbbafa1e8	-0.005359877
105	0xbd2d9c5e	-0.04238545
106	0x3cc2aa2f	0.02376279
107	0x3dc5271a	0.09626599
108	0xbdf17e5f	-0.117916815
109	0x3e3078f6	0.17233643
110	0x3d6b67cc	0.057472035
111	0x3dc5d0c1	0.09658957
112	0x3e13ff53	0.14452867
113	0xbd822684	-0.063550025
114	0xbc7a7d10	-0.015288606
115	0xbd9a42fa	-0.07532306
116	0xbd6603f6	-0.05615612
117	0x3df947df	0.121719114
118	0xbae88310	-0.0017739255
119	0x3d7742d7	0.060366478
120	0xbdedf510	-0.116190076
121	0x3cec63dc	0.02885621
122	0x3d7554db	0.059895378
123	0xbd079198	-0.033097833
124	0xbd3bbcc4	-0.045834318
125	0x3ce1b764	0.027553268
126	0xbdf8d82c	-0.121506065
127	0xbe22623d	-0.15857787
128	0x3d4e2ef4	0.050337747
129	0x3dab0ad8	0.08351678
130	0x3d88b71c	0.0667555
131	0x3c9a2b09	0.018819349
132	0x3d224962	0.039620765
133	0xbd9055b8	-0.070475996
134	0x3cdcf590	0.026972562
135	0x3de8efea	0.11373885
136	0xbda5c902	-0.0809498
137	0x3ca65842	0.020305756
138	0x3b3f1229	0.0029155111
139	0xbcd4d09c	-0.025978379
140	0xbe2b6645	-0.16738231
141	0x3d0ac51d	0.033879388
142	0xbd4a17a9	-0.04933897
143	0xbe279616	-0.16365847
144	0x3d632b70	0.055461347
145	0x3d573e76	0.0525498
146	0xbc8c1a8b	-0.0171025
147	0x3ceb9428	0.02875717
148	0x3d0d8f1f	0.03456032
149	0x3d94c632	0.07264365
150	0x3da5daad	0.0809835
151	0x3d74b86d	0.059746195
152	0xbda5b9a1	-0.080920465
153	0xbc15804f	-0.009124829
154	0xbc1469e8	-0.009058453
155	0x3d5b595a	0.05355201
156	0x3c01fd1d	0.007933882
157	0x3c00c535	0.007859518
158	0xbde4ed2d	-0.1117805
159	0x3dd554bf	0.10416555
160	0x3d9bfdae	0.07616745
161	0xbccb1030	-0.024787992
162	0xbc609e50	-0.01370962
163	0x3d21b298	0.03947696
164	0xbd453350	-0.04814464
165	0xbcda5f21	-0.02665669
166	0x3d9cbe27	0.07653456
167	0xbdc7ffcb	-0.097655855
168	0x3d9aba4f	0.07555067
169	0x3c1149fd	0.008867738
170	0x3d8f8de7	0.070094876
171	0xbd4bb443	-0.049732458
172	0x3d4aaff5	0.049484212
173	0x3d848047	0.064697795
174	0xbdfff763	-0.12498357
175	0x3de28a4a	0.11061533
176	0xbd2e6ee7	-0.042586233
177	0xbe354a63	-0.17704158
178	0x3d9049e4	0.070453435
179	0x3d50235d	0.050814975
180	0x3dd64f13	0.10464301
181	0x3d9d339f	0.076758616
182	0x3dd361b5	0.103213705
183	0xbd215b7e	-0.039393894
184	0x3df73c16	0.12072007
185	0xbb90bda0	-0.0044171363
186	0xbcc4a067	-0.024002267
187	0x3d84bb10	0.06480992
188	0x3dd1095c	0.10206863
189	0xbd9665de	-0.073436484
190	0xbd80504b	-0.06265315
191	0xbddc2327	-0.10748892
192	0x3dbcaf0b	0.09213074
193	0xbad7a4b4	-0.0016452284
194	0xbc6c0a0c	-0.014406692
195	0xbc85376f	-0.016261784
196	0x3d9d5ed0	0.076841
197	0x3d427eb5	0.04748412
198	0x3d5f4f0e	0.05451875
199	0x3d89c9b4	0.06727925
200	0x3d32527f	0.043535706
201	0x3c8a9398	0.016916081
202	0xbc713cfe	-0.014724014
203	0x3d3565c6	0.04428651
204	0x3cffb62a	0.031214792
205	0xbccf62ee	-0.025315728
206	0xbd182295	-0.037142355
207	0xbd7553ec	-0.059894487
208	0xbc031fed	-0.008003217
209	0x3e000804	0.12503058
210	0xbc8d9138	-0.01728116
211	0xbc4f8f47	-0.012668437
212	0x3c9d6f6c	0.01921817
213	0xbe1b7cb6	-0.15184292
214	0x3da65c84	0.08123115
215	0x3e116fcf	0.14202808
216	0x3d72feb2	0.059324928
217	0xbde268f4	-0.110551745
218	0xbdecc0b9	-0.115601964
219	0xbcc7b7d9	-0.024379658
220	0xbdc63164	-0.09677389
221	0x3d8fb9de	0.07017873
222	0x3dee7884	0.1164408
223	0xbe0b8b4a	-0.13627353
224	0xbd48036a	-0.04883138
225	0x3c156e81	0.009120584
226	0xbd914b59	-0.070944495
227	0xbdd0bff7	-0.101928644
228	0xbd4638fc	-0.04839419
229	0x3e0a1e59	0.13488139
230	0xbce2dd8d	-0.027693534
231	0x3d4fa086	0.050690196
232	0x3d613ae2	0.054987796
233	0x3d756c93	0.059917998
234	0x3d97802c	0.07397494
235	0xbc5601d8	-0.013061963
236	0xbd4e6fee	-0.050399713
237	0xbba7a878	-0.0051165186
238	0x3d8df4e7	0.06931477
239	0x3d2b7f3e	0.041869394
240	0x3d0b2e50	0.033979714
241	0x3ce28c02	0.027654652
242	0xbdbda313	-0.092596196
243	0x3dbb9bb1	0.09160555
244	0x3d73a06e	0.05947917
245	0xbc8e9cf6	-0.01740883
246	0x3a3314d0	0.00068314094
247	0xbca94734	-0.020663835
248	0x3d8bf5fa	0.06834026
249	0x3d7dcf07	0.061965015
250	0xbba2798e	-0.004958338
251	0xbda1a961	-0.078936346
252	0xbacd5cde	-0.0015667935
253	0xbde1ab0b	-0.11018952
254	0x3d484cee	0.04890149
255	0xbdbe566a	-0.09293826

network_body._body_endoder.seq_layers.0.bias f4 [128]
0	0x3e3d4417	0.18483005
1	0xbdc4df18	-0.09612864
2	0x3d23f3db	0.04002748
3	0xbdb29533	-0.08719864
4	0xbdd4eeb3	-0.10397091
5	0xbe06dd8b	-0.1317045
6	0x3d2e76d4	0.042593792
7	0x3b55c74f	0.0032620018
8	0xbdf3cd5c	-0.119044036
9	0x3dc6c2e3	0.097051404
10	0x3d7f52b2	0.062334724
11	0xbd151361	-0.036395434
12	0xbd8dec59	-0.06929845
13	0xbe500883	-0.20315747
14	0x3da1c6ac	0.07899222
15	0xbdedfd7c	-0.11620614
16	0x3b974800	0.0046167374
17	0xbe2a67db	-0.1664118
18	0xbd3f0d37	-0.046643462
19	0xbdd2df43	-0.1029649
20	0x3e065294	0.13117439
21	0x3d043154	0.032273605
22	0xbe50a5e0	-0.20375776
23	0x3dcc760d	0.09983454
24	0xbc9949dd	-0.018711979
25	0xbe56ba3b	-0.20969479
26	0xbd34755c	-0.044057235
27	0xbbe3d376	-0.0069526983
28	0x3db23cf8	0.08703035
29	0xbd3b2ab1	-0.04569501
30	0x3b213e78	0.0024603885
31	0x3dcf37c7	0.101180606
32	0xbcbd2486	-0.023088705
33	0x3e0c0199	0.13672484
34	0x3dc2004d	0.094727136
35	0x3d651f2c	0.05593793
36	0x3dad6e22	0.08468272
37	0xbeaf5fb2	-0.34252697
38	0xbb43ae16	-0.0029858402
39	0xbda5aeb6	-0.08089964
40	0x3de08c18	0.10964221
41	0xbc004e74	-0.007831205
42	0xbd473e8d	-0.048643637
43	0xbda90734	-0.08253327
44	0xbc996255	-0.018723646
45	0xbda52cfe	-0.08065222
46	0x3d8a2145	0.06744627
47	0xbda7a4cb	-0.08185729
48	0x3ced5a27	0.028973652
49	0x3de250ac	0.11050543
50	0xbcb37595	-0.021906653
51	0xbd938b8e	-0.07204352
52	0xbe2b0db1	-0.16704442
53	0xbcd9110d	-0.026497388
54	0xbdaefd7d	-0.08544443
55	0xbcefe035	-0.029281715
56	0x3c920a83	0.017827278
57	0x3dca49b0	0.09877336
58	0xbc417785	-0.011808281
59	0xbdedf015	-0.11618058
60	0x3d82c5e0	0.06385398
61	0x3c6b4119	0.014358782
62	0xbce7062e	-0.028201189
63	0x3d25b1ff	0.040452953
64	0x3ce33162	0.027733508
65	0x3d2c8906	0.042122863
66	0xbbc47d2c	-0.005996367
67	0x3df48535	0.1193947
68	0x3ddedcd8	0.10881966
69	0x3e153e52	0.14574555
70	0x3d30d814	0.04317482
71	0xbe2491b6	-0.1607121
72	0x3ca976c4	0.020686515
73	0xbd1d7ecc	-0.038451
74	0xba14986a	-0.00056684634
75	0xbe1feb9e	-0.15617225
76	0x3ba2b493	0.004965374
77	0x3de70b1a	0.11281414
78	0x3e360153	0.17773943
79	0xbd1b81c6	-0.03796556
80	0x3dfefc3c	0.12450454
81	0x3d622410	0.055210173
82	0x3c97bfeb	0.01852413
83	0x3e1f0754	0.15530139
84	0x3d0c99c0	0.034326315
85	0x3ce589de	0.028019842
86	0xbd92da8a	-0.07170589
87	0xbd45db56	-0.04830488
88	0xbd09c0c7	-0.033631112
89	0xbe253a33	-0.16135482
90	0x3c7b8b42	0.015353026
91	0xbd861be1	-0.06548286
92	0x3c9ba4d4	0.018999495
93	0xbdb03a1d	-0.08604834
94	0xbe019f26	-0.12658367
95	0x3e2e7b09	0.17039122
96	0x3e01df10	0.12682748
97	0x3d9f97ad	0.07792602
98	0x3e1a3d02	0.15062335
99	0xbd316365	-0.04330768
100	0x3d30dd53	0.04317982
101	0xbe06dc5a	-0.13169995
102	0xba2ef8db	-0.00066746556
103	0xbc096dc9	-0.008387991
104	0x3dd9c049	0.106323786
105	0x3d96b872	0.07359399
106	0x3d845022	0.064605966
107	0xbc488961	-0.012239785
108	0x3e28ba5d	0.16477342
109	0x3cb8cfcc	0.022560023
110	0xbcf25023	-0.029579228
111	0xbcb434f8	-0.021997914
112	0xbb7d5d1c	-0.0038660234
113	0x3dccc21d	0.09997962
114	0xbd6acfa7	-0.05732694
115	0xbda19643	-0.07889988
116	0x3d381d7e	0.04495
117	0xbb1b8f2c	-0.002373646
118	0x3dbfd859	0.09367437
119	0x3d55aa02	0.052164085
120	0x3ddedf6c	0.10882458
121	0x3d486e20	0.04893315
122	0xbc9c353c	-0.019068353
123	0xbe521f1c	-0.2051968
124	0xbd1a8759	-0.037726734
125	0xbd1c3608	-0.038137466
126	0xbdf146ac	-0.11781058
127	0xbcacd61f	-0.021098195

network_body._body_endoder.seq_layers.0.weight f4 [128, 8]
0	0x3ef35039	0.47522143
1	0xbeb3d162	-0.35120684
2	0x3f430a44	0.7618754
3	0xbf35566c	-0.70834994
4	0xbcbb7760	-0.02288407
5	0xbe85bd5d	-0.26121035
6	0xbd9f7d34	-0.077875525
7	0xbf0205d5	-0.5079015
8	0xbd92f294	-0.07175174
9	0x3ea594c7	0.3234007
10	0xbe9eb764	-0.3099929
11	0xbee55cd9	-0.447974
12	0x3e5be00b	0.21472184
13	0x3e8ebfc7	0.2788069
14	0x3ddf086d	0.10890279
15	0x3d5995ac	0.053121254
16	0xbdbbf669	-0.091778584
17	0xbee663c0	-0.44997978
18	0xbd765d07	-0.06014731
19	0x3eefde3a	0.46849233
20	0xbee096c3	-0.43865022
21	0x3ebbe0ba	0.3669489
22	0x3ead9ada	0.33907205
23	0x3ec0c869	0.376529
24	0xbeab3ffd	-0.33447257
25	0xbf1d77d7	-0.61510986
26	0xbeebce05	-0.46055618
27	0xbde6e694	-0.11274448
28	0xbedf4ed0	-0.43614817
29	0xbdbf60db	-0.093446456
30	0x3e002234	0.12513047
31	0x3eb82bc2	0.35970885
32	0x3c0b29fe	0.008493898
33	0x3d6c53a5	0.057696957
34	0xbe6d677f	-0.23184012
35	0x3ce98a02	0.02850819
36	0xbe9489de	-0.29011434
37	0xbee6bf3a	-0.4506777
38	0xbdfe0b8e	-0.12404548
39	0x3e5d0330	0.21583247
40	0x3d23de9b	0.040007215
41	0x3e5e46bc	0.2170667
42	0xbefa9e06	-0.48948687
43	0x3c4a0469	0.012330153
44	0xbf3b8290	-0.732461
45	0x3f08d996	0.5345701
46	0xbd868153	-0.065676354
47	0x3f061ede	0.5239085
48	0xbe96d498	-0.2945907
49	0xbefe770c	-0.497002
50	0xbba0b4f5	-0.0049043843
51	0x3f5c4570	0.86043453
52	0x3e71de6e	0.23620006
53	0xbe31b45c	-0.17353958
54	0xbdc01a87	-0.0938006
55	0x3e66d908	0.22543728
56	0x3f276e95	0.6540311
57	0x3daf46de	0.08558439
58	0xbdae1e2d	-0.08501849
59	0xbec77723	-0.38958082
60	0xbf0b5b8d	-0.5443657
61	0xbf27774f	-0.65416425
62	0x3e742060	0.23840475
63	0xbe76ad6b	-0.24089591
64	0xbde66cf5	-0.11251251
65	0xbec36eac	-0.38170373
66	0x3e7dab3e	0.24772355
67	0xbf24c80a	-0.64367735
68	0x3c8dee2f	0.017325489
69	0xbe5db60d	-0.21651478
70	0x3f1d41eb	0.6142871
71	0xbde11f4c	-0.109922975
72	0xbe770696	-0.24123606
73	0x3f2a4e4a	0.6652571
74	0xbee0c8dd	-0.43903247
75	0x3e43f6e8	0.19137156
76	0x3eface4f	0.48985526
77	0x3ec92ffb	0.3929442
78	0x3d95c53e	0.073130116
79	0x3e1f10eb	0.15533797
80	0x3d92c85b	0.07167121
81	0x3e26d8ef	0.16293691
82	0x3f0a91fc	0.54129004
83	0x3ef9ccf9	0.48789194
84	0xbec1e1da	-0.37867624
85	0xbf4aeefc	-0.7927091
86	0x3f43c679	0.7647472
87	0xbf4e426d	-0.8057011
88	0xbb72b61f	-0.0037034822
89	0x3ed3e448	0.41385102
90	0x3cc116bf	0.023570416
91	0x3e873664	0.26408684
92	0xbde4dd4e	-0.11175023
93	0x3e925d32	0.28586727
94	0x3ea90bad	0.3301672
95	0x3f09e533	0.53865355
96	0xbd952cf4	-0.07283965
97	0xbf29f78e	-0.66393363
98	0x3d1156e0	0.03548324
99	0x3eff9091	0.49914983
100	0xbedc8f01	-0.43077853
101	0x3d1046ab	0.035223644
102	0x3ecb9ef4	0.3976971
103	0xbd2f269b	-0.042761426
104	0xbdf40655	-0.1191527
105	0xbc21c8ae	-0.009874506
106	0x3f085943	0.532612
107	0xbe8524a3	-0.26004514
108	0xbf123245	-0.57107955
109	0x3e922327	0.28542444
110	0x3e2fb9d5	0.17160733
111	0xbe55dbc9	-0.20884623
112	0xbf3062e2	-0.68900883
113	0xbe8e6050	-0.27807856
114	0x3ea01aef	0.3127055
115	0x3ef4f8a5	0.4784595
116	0xbc96ed1e	-0.018423613
117	0xbf0df57b	-0.554527
118	0x3e940049	0.28906468
119	0x3e63ab8d	0.2223341
120	0x3d9036da	0.07041712
121	0xbf947dd3	-1.1600899
122	0x3d23016c	0.039796278
123	0x3da3d58e	0.07999717
124	0x3b9c33b2	0.0047669047
125	0x3f39e948	0.72621584
126	0xbebd03b6	-0.36916894
127	0xbe85457d	-0.26029578
128	0x3e952877	0.29132435
129	0xbe6cd6c4	-0.23128802
130	0xbe9b9979	-0.30390528
131	0xbeb2ce01	-0.34922794
132	0x3e66528c	0.22492427
133	0x3eafd01d	0.34338465
134	0xbe9556c1	-0.2916775
135	0xbddb7a41	-0.107166775
136	0x3da34bfe	0.07973479
137	0xbeb8a8ea	-0.3606637
138	0xbebfd344	-0.3746587
139	0xbe307fb8	-0.17236221
140	0xbe7e56dd	-0.24837823
141	0xbec1790f	-0.37787673
142	0x3decbaa3	0.11559036
143	0x3ec67fa2	0.3876925
144	0xbe7761d5	-0.24158414
145	0x3e0a2e25	0.13494165
146	0xbc8112d9	-0.015756058
147	0xbecf5f18	-0.40502238
148	0x3ea105de	0.3144979
149	0x3ef58218	0.47950816
150	0x3da3523b	0.079746686
151	0x3db7e4b9	0.08979172
152	0xbe93bd6a	-0.2885545
153	0xbed7a16d	-0.42115346
154	0x3e6a1b44	0.22861964
155	0x3def765e	0.116924986
156	0xbdf99cf2	-0.12188138
157	0xbf38ba62	-0.721594
158	0xbe12bf28	-0.14330733
159	0xbeb9cb7d	-0.36288062
160	0xbf2ec72c	-0.6827266
161	0xbf194198	-0.59865713
162	0x3f15f30b	0.5857398
163	0x3f5805df	0.8438396
164	0xbeef5b58	-0.46749377
165	0x3e8fd27e	0.2809028
166	0x3eb61b99	0.3556793
167	0xb90d7592	-0.00013490606
168	0xbdf6b5f3	-0.12046423
169	0x3e8a4e71	0.2701297
170	0xbe71a104	-0.23596579
171	0xbf102d93	-0.5631954
172	0xbdc799db	-0.097461425
173	0x3ecfc637	0.40580913
174	0x3ead9c11	0.33908132
175	0xbe538551	-0.20656325
176	0xbe2ce995	-0.1688598
177	0x3ec0c627	0.37651178
178	0xbe4b9ed3	-0.19884805
179	0x3e73925d	0.23786302
180	0xbdbc29db	-0.09187671
181	0xbf01bee8	-0.50681925
182	0xbecd1081	-0.40051654
183	0xbc8e34cb	-0.017359158
184	0x3e76e947	0.24112426
185	0x3ec86cf2	0.3914562
186	0xbf2374b7	-0.6384997
187	0x3dbbae42	0.091640964
188	0x3e95ee37	0.29283306
189	0x3d61161d	0.05495273
190	0x3e8527ec	0.2600702
191	0xbf2cd5f8	-0.6751399
192	0xbd3ada00	-0.045618057
193	0x3e8075a8	0.25089765
194	0x3ea0570b	0.3131641
195	0xbe766e9a	-0.24065629
196	0x3dad5491	0.084633954
197	0x3e84d0ea	0.2594064
198	0x3c2ef1c5	0.01067776
199	0x3de25ef7	0.11053269
200	0x3ab8b81c	0.0014092955
201	0xbeb868db	-0.36017498
202	0xbe50a974	-0.20377141
203	0xbeb995f3	-0.36247215
204	0xbf140720	-0.5782337
205	0x3e917b7c	0.28414524
206	0x3e1ef060	0.15521383
207	0x3e43343e	0.19062898
208	0x3e3890b7	0.18023954
209	0xbf4f1303	-0.80888385
210	0xbf085f78	-0.53270674
211	0x3e8e57ad	0.27801266
212	0xbed7caf0	-0.42147017
213	0x3e81d495	0.253575
214	0xbe227ad1	-0.15867163
215	0x3f048c67	0.51776737
216	0xbee0f550	-0.4393716
217	0x3ecb8a80	0.39754105
218	0x3dba057d	0.09083078
219	0x3e3694e8	0.1783024
220	0x3e97d676	0.29655808
221	0x3f0717db	0.52770776
222	0x382b14c5	4.078892e-05
223	0xbe684d85	-0.22685821
224	0xbf0e352f	-0.555499
225	0xbf466b15	-0.77507144
226	0x3ec3378b	0.38128313
227	0x3ea8277e	0.3284263
228	0xbeae9078	-0.34094596
229	0xbd8a7cc2	-0.06762077
230	0x3d8a6244	0.06757024
231	0xbcc58eef	-0.024116008
232	0xbed9cfe1	-0.42541412
233	0x3e4892cc	0.19587249
234	0xbf06a389	-0.52593285
235	0xbed718a9	-0.42011002
236	0x3e819eb7	0.25316402
237	0x3eb9634d	0.36208573
238	0xbea2bfe3	-0.31787023
239	0x3da226f6	0.079175875
240	0xbccc0859	-0.024906324
241	0x3e6b6e07	0.22991191
242	0x3e3ece8e	0.18633482
243	0x3d525da2	0.051358826
244	0xbe91e6ba	-0.28496343
245	0x3d413fa2	0.047179826
246	0xbef986f5	-0.48735777
247	0x3d7d81c6	0.06189134
248	0xbf022581	-0.50838476
249	0x3f3e3b23	0.74308985
250	0xbdd0f14a	-0.10202272
251	0x3e2cacc1	0.16862775
252	0x3f7234db	0.946119
253	0xbf31454d	-0.6924637
254	0x3f2d928d	0.67801744
255	0xbe4ca44d	-0.19984551

network_body._body_endoder.seq_layers.2.bias f4 [128]
0	0x3da1283b	0.078690015
1	0x3db5a23c	0.088688344
2	0x3c7bb030	0.015361831
3	0xbc847c2b	-0.01617249
4	0xbd030706	-0.03198912
5	0x3d846b40	0.06465769
6	0x3d2f4fa9	0.04280058
7	0x3e03b4e6	0.12861976
8	0x3dbd50b4	0.092439085
9	0xbc97cc4c	-0.018530034
10	0xbc283cd5	-0.01026841
11	0x3e2c1eab	0.16808574
12	0x3e056732	0.13027647
13	0x3ca1bd98	0.019743726
14	0xbc035786	-0.008016473
15	0x3e0dc109	0.13843168
16	0x3d5569ec	0.052102968
17	0x3c8ea96b	0.01741477
18	0x3d17cd40	0.037060976
19	0xbdd00962	-0.1015804
20	0xbd88345d	-0.066506125
21	0xbcf3179f	-0.02967435
22	0x3da3aeb4	0.07992306
23	0x3d059a41	0.03261781
24	0xbd36de5b	-0.04464565
25	0x3d0c496d	0.03424971
26	0x3da74c70	0.08168876
27	0xbc82a34e	-0.01594701
28	0x3e020156	0.12695822
29	0xbd757d86	-0.05993416
30	0x3e1f13aa	0.15534845
31	0x3d3d7a75	0.046259362
32	0x3d7c93eb	0.061664503
33	0x3dbb6085	0.09149269
34	0x3de07381	0.109595306
35	0x3df7ac8f	0.1209346
36	0x3c152765	0.009103631
37	0x3dabf630	0.08396566
38	0xbd9c87ca	-0.07643087
39	0x3d24e4c2	0.040257223
40	0x3d2a6ccb	0.04160766
41	0xbc6adab4	-0.014334369
42	0x3bb8e8a3	0.005642967
43	0x3cc74339	0.024324046
44	0x3da5dc8e	0.08098708
45	0x3c810ea2	0.015754048
46	0x3cf0a704	0.029376514
47	0x3d8e8d73	0.06960573
48	0x3dec6317	0.115423374
49	0x3e495bbb	0.19663899
50	0xbd48bbe5	-0.049007315
51	0x3df454a4	0.119302064
52	0xbc43312d	-0.01191358
53	0x3db153d5	0.08658568
54	0x3d6dc66f	0.05805057
55	0x3deaa70a	0.114576414
56	0x3e047eb7	0.12938963
57	0x3dd4b1d1	0.10385478
58	0x3d2e2d99	0.042523954
59	0x3da81378	0.08206838
60	0x3dc88a82	0.09792043
61	0x3da3c5f9	0.07996745
62	0xbd691471	-0.05690426
63	0x3db10a0e	0.08644496
64	0xbc2b646a	-0.010460952
65	0x3e12a634	0.14321214
66	0xbca6c976	-0.020359736
67	0x3d8ab9a8	0.06773692
68	0xbc50f057	-0.012752614
69	0x3d083cc5	0.03326108
70	0x3e14708c	0.14496058
71	0x3d2ff8fe	0.042962067
72	0xbaf40e1a	-0.0018619925
73	0x3b0c2347	0.0021383332
74	0xbd8723a4	-0.06598595
75	0xbd015415	-0.031574327
76	0xbcd2350f	-0.025660066
77	0xbe1f49b9	-0.15555467
78	0x3b74d13b	0.0037356156
79	0x3e181ac8	0.14853966
80	0xbd7d5986	-0.061852954
81	0x3e1162d8	0.14197862
82	0xbcbe01e8	-0.023194268
83	0x3b89caa0	0.004205063
84	0x3d9b6414	0.07587448
85	0xbd893151	-0.066988595
86	0xbcc4cb2f	-0.024022667
87	0x3e250fcd	0.16119309
88	0xbda2ad4e	-0.079432115
89	0x3db5e2c1	0.088811405
90	0x3dd7803f	0.10522508
91	0xbd9f1b6c	-0.07768902
92	0xbd70f366	-0.058825873
93	0xbc3cee44	-0.011531416
94	0x3ca50488	0.020143762
95	0x3e41bc86	0.18919572
96	0xbc39c904	-0.01133943
97	0xbd00a8db	-0.031411033
98	0x3d251d69	0.04031125
99	0x3c4d0872	0.012514221
100	0x3dd7e1b4	0.10541096
101	0x3e151244	0.14557749
102	0x3d325bf9	0.043544743
103	0x3acb67c6	0.0015518598
104	0x3cbdb140	0.023155808
105	0xbd637f34	-0.055541232
106	0xbd216181	-0.039399628
107	0x3cd4d6e7	0.02598138
108	0x3d8908e9	0.066911526
109	0x3e2241e6	0.15845451
110	0xbc7f449f	-0.015580325
111	0x3d93b7e8	0.07212812
112	0x3e1aff18	0.15136373
113	0xbc93cc39	-0.018041717
114	0x3c8d02fd	0.017213339
115	0x3cb9a009	0.022659319
116	0x3d0e41ac	0.0347306
117	0x3e0653b7	0.13117872
118	0xbd75a521	-0.059971932
119	0xbb1823c4	-0.0023214677
120	0x3d8cfd17	0.068842106
121	0x3db1c330	0.08679807
122	0xbcc21705	-0.023692617
123	0xbcbebebb	-0.023284307
124	0xbd58c4a5	-0.05292191
125	0x3dc8861d	0.09791205
126	0x3d5a5def	0.05331224
127	0x3dfb169b	0.12260171

network_body._body_endoder.seq_layers.2.weight f4 [128, 128]
0	0x3d6664b6	0.05624839
1	0xbd61f602	-0.055166252
2	0xbe650639	-0.22365655
3	0x3e137c16	0.14402804
4	0xbe8833d7	-0.2660205
5	0x3d8b7cf5	0.06810943
6	0xbdb5ab12	-0.0887052
7	0x3db09e91	0.08623994
8	0x3e04e901	0.12979509
9	0x3d13bae5	0.03606691
10	0xbd9e4e85	-0.0772982
11	0x3e0fa266	0.14026794
12	0xbe647e36	-0.2231377
13	0xbd9f232b	-0.0777038
14	0xbdbd39a4	-0.0923951
15	0xbe630a98	-0.2217201
16	0xbe0609de	-0.13089702
17	0x3d51725c	0.051134452
18	0xbbe0e0aa	-0.0068627195
19	0x3d49bcac	0.049252197
20	0xbc707146	-0.014675444
21	0x3dcb9386	0.09940247
22	0x3e14f969	0.14548267
23	0xbc41e1d3	-0.011833626
24	0x3df10186	0.11767869
25	0x3b8ce184	0.0042993445
26	0xbe03c54e	-0.12868235
27	0xbe733269	-0.23749699
28	0xbd2331f4	-0.03984256
29	0xbd8d948a	-0.06913097
30	0x3c64eff6	0.013973227
31	0x3db8b7e6	0.09019451
32	0x3e2c4142	0.16821769
33	0xbe0afb83	-0.13572507
34	0xbd9c54e4	-0.07633379
35	0x3d3306ff	0.043707844
36	0xbd8684be	-0.06568287
37	0x3e0c4029	0.1369635
38	0xbd3e6a1c	-0.046487913
39	0x3dad40f5	0.08459655
40	0x3d8e0249	0.069340296
41	0xbd0d43f0	-0.03448862
42	0x3bfd2192	0.007724949
43	0xbd9de671	-0.07709969
44	0xbd82d5a6	-0.063884065
45	0x3d8fbca0	0.07018399
46	0xbd5c22bc	-0.053744063
47	0xbdadbfc5	-0.08483843
48	0xbe298ffc	-0.16558832
49	0x3db27727	0.08714133
50	0x3a6e6609	0.0009094184
51	0xbd0f53db	-0.03499208
52	0x3dfc5266	0.12320404
53	0x3dce878b	0.100844465
54	0x3c94b534	0.01815281
55	0xbeac55e5	-0.33659282
56	0x3dfff985	0.12498764
57	0x3e014344	0.12623316
58	0xbc788327	-0.015167988
59	0xbde8965a	-0.11356802
60	0x3e3fac63	0.18718104
61	0xbdeeaba6	-0.11653833
62	0x3dcc714d	0.09982548
63	0xbd886176	-0.06659214
64	0xbd57af22	-0.052657254
65	0x3d94da56	0.07268207
66	0xbe3e2231	-0.1856773
67	0xbd8c8310	-0.06860936
68	0x3defcbd0	0.11708796
69	0x3d2da618	0.042394727
70	0x3b31f389	0.0027153215
71	0x3cbd76b2	0.023127887
72	0xbcbdd2b2	-0.023171756
73	0xbc25add0	-0.010112241
74	0x3d82b30c	0.06381807
75	0xbd8e692b	-0.06953653
76	0x3d3ac10f	0.04559427
77	0xbcbb05f5	-0.022829989
78	0xbdb684e3	-0.08912065
79	0x3df76b29	0.12080986
80	0x3dbc7ede	0.092038855
81	0xbd32fe67	-0.04369965
82	0x3db8ffa8	0.090331376
83	0x3c7549f2	0.014971243
84	0xbe21a86c	-0.15786904
85	0xbdc0b028	-0.09408599
86	0x3de7fe1f	0.113277666
87	0xbd4b4b64	-0.049632445
88	0x3bb379ae	0.005477152
89	0xbda3e5b3	-0.08002796
90	0xbe33d4c6	-0.17561635
91	0x3d0e71f6	0.03477665
92	0xbcefc7b5	-0.029270032
93	0xbd480528	-0.048833042
94	0x3d6d6fe2	0.057968028
95	0x3d4c7bb5	0.049922664
96	0xbe30c38f	-0.172621
97	0x3d31f594	0.043447092
98	0x3d7327c7	0.059364107
99	0x3d14b409	0.036304507
100	0xbe0c7e2c	-0.13720006
101	0xbe16bfca	-0.14721599
102	0xbc7a404c	-0.015274119
103	0x3ca9c2f2	0.02072284
104	0x3e33aaf0	0.17545676
105	0xbd7f2967	-0.062295344
106	0xbd81b46e	-0.06333242
107	0xbccdedbe	-0.025137778
108	0xbc19c58f	-0.009385481
109	0xbcbf9f70	-0.023391455
110	0xbdae622c	-0.085148185
111	0xbdd7b405	-0.10532383
112	0x3d258f75	0.040420014
113	0x3e3ae2d7	0.18250595
114	0xbcef17a0	-0.02918607
115	0x3e3796b5	0.17928584
116	0x3e2273f3	0.15864544
117	0x3e0fd49e	0.14045951
118	0x3d9a7ae1	0.075429685
119	0x3c9e6534	0.019335367
120	0xbe1e0a27	-0.1543356
121	0xbd1d4061	-0.038391475
122	0x3dd932e0	0.10605407
123	0x3d7dfd9a	0.06200943
124	0x3c633afd	0.013869044
125	0xbbb5a863	-0.005543755
126	0x3ce7ee49	0.028311865
127	0xbd5ad8c6	-0.053429388
128	0xbe72a17c	-0.23694414
129	0x3c84ad7d	0.016196007
130	0x3ddcb78e	0.10777198
131	0xbd4497f2	-0.04799647
132	0x3bed27e6	0.0072374223
133	0xbdc87653	-0.097881936
134	0x3e40b03a	0.18817225
135	0x3ddbc282	0.10730459
136	0x3ca0a064	0.01960773
137	0xbe386a9b	-0.18009417
138	0x3cff3b40	0.031156182
139	0x3de32cfd	0.11092565
140	0x3cc0a7de	0.023517545
141	0x3d2b4415	0.041812975
142	0x3d7d6278	0.061861485
143	0xbe413db1	-0.1887119
144	0xbe03c08b	-0.12866418
145	0xbdf71c90	-0.12065995
146	0x3ddceb9c	0.107871264
147	0xbdbb4c95	-0.09145466
148	0x3d5ca7bf	0.053870913
149	0xbe0a3713	-0.13497572
150	0xbdbd7b88	-0.09252077
151	0x3df25095	0.11831776
152	0xbbaa47ad	-0.0051965327
153	0xbdb3e837	-0.08784526
154	0x3d20ed6d	0.039288927
155	0xbd79cb3a	-0.060984828
156	0x3e331378	0.17487895
157	0x3e1e040c	0.15431231
158	0x3dfac95f	0.1224544
159	0x3de29134	0.110628515
160	0x3c9a2e4e	0.018820908
161	0x3e8643e2	0.26223665
162	0xbcb755e4	-0.022379823
163	0xbaedbbac	-0.0018137596
164	0xbd6f38a3	-0.058403622
165	0x3cb74d77	0.022375805
166	0x3e397581	0.1811123
167	0x3dad2384	0.0845404
168	0xbdc779b8	-0.09740013
169	0x3d162531	0.036656562
170	0xbd0a66aa	-0.033789314
171	0x3cd55e9d	0.026046092
172	0xbc027593	-0.007962602
173	0x3d86c215	0.06579987
174	0x3e36a60d	0.17836781
175	0xbd6035c2	-0.054738767
176	0xbcc6c846	-0.02426542
177	0xbe00743f	-0.12544344
178	0x3a77d0a8	0.00094533945
179	0x3dabad40	0.08382654
180	0x3d2cab92	0.04215581
181	0xbd3573df	-0.044299956
182	0x3df3113d	0.11868522
183	0xbda0f189	-0.07858569
184	0x3e344c5e	0.17607257
185	0x3d0f5965	0.034997363
186	0x3d83ecdd	0.064416625
187	0xbd118b7a	-0.035533406
188	0xbd43a517	-0.047764864
189	0xbe1a3dfe	-0.1506271
190	0x3c7a64dd	0.015282837
191	0xbd4aeb49	-0.04954079
192	0x3e0e8aa3	0.13920073
193	0x3d67b3f5	0.056568105
194	0x3b9e21a4	0.0048257876
195	0xbcaddbc5	-0.021222958
196	0xbbb8e51e	-0.0056425473
197	0x3d2032c8	0.03911093
198	0xbe12ac5b	-0.14323561
199	0xbd953604	-0.07285693
200	0x3be12761	0.0068711494
201	0x3d9cdee4	0.076597005
202	0xbe4a6121	-0.19763614
203	0xbcbb9c82	-0.022901777
204	0x3da34be3	0.079734586
205	0xbe2742cc	-0.16334075
206	0x3d920084	0.071290046
207	0x3dde8e83	0.10867026
208	0xbcd4a67d	-0.025958294
209	0xbd0b9d09	-0.034085307
210	0x3d89cf07	0.067289405
211	0x3e910b54	0.28328955
212	0xbe05286e	-0.13003704
213	0xbda04ae3	-0.078267835
214	0xbda154d2	-0.07877506
215	0x3d8c6a99	0.068562694
216	0x3bef5e18	0.007304918
217	0x3dfad4cd	0.1224762
218	0x3e158fb0	0.14605594
219	0x3db9035d	0.090338446
220	0xbdb0c0ae	-0.08630501
221	0xbe91c9ef	-0.28474376
222	0x3d9f675d	0.07783387
223	0xbce5f5b4	-0.028071262
224	0xbe843737	-0.25823376
225	0x3c05c25f	0.008164017
226	0xbdc378ec	-0.095445484
227	0x3d9a9651	0.07548202
228	0xbe00a87e	-0.12564275
229	0x3e183b9a	0.14866486
230	0xbd13d23e	-0.036089174
231	0x3e04f8bf	0.12985514
232	0x3d108dd2	0.0352915
233	0xbe1750d4	-0.14776927
234	0x3b906b7e	0.0044073453
235	0x3dd59816	0.10429399
236	0x3e489174	0.19586736
237	0xbda6c981	-0.081439026
238	0xbde970e4	-0.11398485
239	0x3dcef804	0.10105899
240	0x3dc16292	0.09442629
241	0x3e2af495	0.16694863
242	0x3df55702	0.11979486
243	0x3db63de3	0.08898523
244	0x3e215df8	0.15758502
245	0xbe4dc6c8	-0.2009536
246	0xbd7fd9c7	-0.062463548
247	0x3dbaafd2	0.09115566
248	0xbd8e28b2	-0.06941356
249	0xbeb3777d	-0.350521
250	0xbe8a117d	-0.26966467
251	0xbb141a3d	-0.0022598647
252	0x3d25b78b	0.040458243
253	0x3cffe198	0.031235501
254	0x3ce52f48	0.027976647
255	0x3de2f4ed	0.11081872
