mlagents/Assets/results/RollerBall/RollerBall/RollerBall-441408.pt (torch, 445343 bytes, 36 tensors)

network_body._body_endoder.seq_layers.0.weight f4 [128, 8]
000000 fc 9f ee 3e 9d 81 b8 be 44 0a 43 3f ca a6 37 bf
       0.46606433 -0.36036387 0.7618754 -0.71738875
000010 70 ce 03 bd 34 df 80 be 8a 52 7e bd 23 02 01 bf
       -0.032179296 -0.2517029 -0.062090434 -0.50393885
000020 e3 ad 99 bd 14 bf a4 3e 64 b7 9e be e2 39 e7 be
       -0.075038694 0.3217703 -0.3099929 -0.4516135
000030 9a 34 5a 3e 37 d1 90 3e 56 57 e5 3d f5 e4 4b 3d
       0.21309128 0.28284618 0.11198299 0.049778897
000040 b3 b0 bf bd 38 52 e7 be 07 5d 76 bd a9 36 ef 3e
       -0.093598746 -0.45179915 -0.06014731 0.4672139
000050 54 83 e1 be 31 1d bc 3e 09 95 b2 3e 1a 16 c0 3e
       -0.44045508 0.3674102 0.3487933 0.37516862
000060 92 e3 ad be 7d c9 1e bf 05 ce eb be a6 d8 f0 bd
       -0.33962685 -0.62026197 -0.46055618 -0.117600724
000070 b5 f1 e1 be f2 fb b8 bd 92 61 06 3e 04 d8 b5 3e
       -0.4412972 -0.0903243 0.13123158 0.3551637
000080 ad 27 e0 3b 23 8e 65 3d 7f 67 6d be b9 27 d6 3c
       0.006840667 0.056043755 -0.23184012 0.026141988
000090 b2 6f 95 be 20 8e e4 be df 40 06 be 92 fa 5f 3e
       -0.2918678 -0.44639683 -0.13110684 0.21872929
0000a0 06 c8 b8 3c 57 68 4c 3e 06 9e fa be b1 b5 ad bb
       0.022556316 0.19961677 -0.48948687 -0.0053012003
0000b0 65 fa 3f bf 6e 09 0e 3f a1 a9 3f bd 12 10 01 3f
       -0.74991447 0.5548314 -0.04679263 0.50415146
0000c0 ef e3 96 be 63 86 fe be f5 b4 a0 bb ca 6b 5c 3f
       -0.29470775 -0.49711904 -0.0049043843 0.86101973
0000d0 44 d3 71 3e 6c 62 34 be 10 85 b0 bd ba 6b 62 3e
       0.23615748 -0.1761567 -0.0861913 0.22111407
0000e0 68 0c 27 3f 66 35 ac 3d 2d 1e ae bd 12 80 c8 be
       0.65253305 0.084086224 -0.08501849 -0.3916021
0000f0 c6 c4 0b bf 71 91 26 bf de 79 6e 3e fc 5c 74 be
       -0.5459713 -0.65065676 0.23288676 -0.23863596
000100 13 5b d7 bd db f1 bf be 3e ab 7d 3e 9a b7 22 bf
       -0.10515418 -0.3748921 0.24772355 -0.63561404
000110 84 a9 c5 3c f6 78 66 be f6 30 1e 3f fe ab d7 bd
       0.024128683 -0.2250708 0.6179346 -0.10530852
000120 15 92 7a be 66 6b 29 3f dd c8 e0 be 18 a2 40 3e
       -0.24469788 0.661795 -0.43903247 0.18811834
000130 73 07 f9 3e e2 a0 ca 3e e4 ce 9d 3d 94 b9 1b 3e
       0.48638496 0.3957587 0.07705477 0.15207511
000140 ea db 8d 3d e1 62 24 3e fc 91 0a 3f 1a d0 f8 3e
       0.06926711 0.16053344 0.54129004 0.4859627
000150 94 1d c3 be ee d6 4a bf 85 1a 45 3f a0 8b 4f bf
       -0.38108504 -0.79234207 0.7699359 -0.81072426
000160 0f d2 0a bc 3d 73 d1 3e bf 16 c1 3c 8d 24 85 3e
       -0.008472933 0.40908232 0.023570416 0.2600445
000170 19 91 ee bd 14 94 93 3e 82 bf af 3e c5 90 08 3f
       -0.11648769 0.28823912 0.34325796 0.533459
000180 92 86 91 bd e9 82 29 bf e0 56 11 3d 52 63 00 3f
       -0.071057454 -0.6621538 0.03548324 0.5015155
000190 5e 96 db be 05 41 00 3d 90 cb ce 3e f0 24 38 bd
       -0.4288816 0.031312007 0.4038968 -0.0449571
0001a0 9c 7a f7 bd 29 71 30 bc 43 59 08 3f 6b f8 85 be
       -0.12083933 -0.010769167 0.532612 -0.2616609
0001b0 cd 6c 12 bf ee b1 92 3e 89 fa 33 3e cb 16 58 be
       -0.57197267 0.28651375 0.1757604 -0.21102445
0001c0 4d 52 30 bf 1c 3f 8e be ef 1a a0 3e 49 61 f5 3e
       -0.6887558 -0.27782524 0.3127055 0.47925785
0001d0 d8 69 94 bc be 9f 0e bf 6b 08 96 3e c4 07 61 3e
       -0.018116876 -0.557125 0.29303297 0.21975619
0001e0 a6 a0 8d 3d fe a6 94 bf 6c 01 23 3d 51 85 a1 3d
       0.06915407 -1.1613462 0.039796278 0.07886756
0001f0 b6 e5 65 3b 11 cc 39 3f 23 02 bd be 72 92 84 be
       0.0035079545 0.72577006 -0.36915693 -0.2589298
000200 d8 04 90 3e 18 1e 77 be 79 99 9b be 8c df b7 be
       0.28128695 -0.24132574 -0.30390528 -0.3591274
000210 67 08 5c 3e cf 2f b6 3e 7c f0 8d be 8a 32 fa bd
       0.2148758 0.3558335 -0.27722538 -0.12216671
000220 5a 91 a3 3d 7d 97 b8 be 44 d3 bf be e8 ea 30 be
       0.07986708 -0.36053076 -0.3746587 -0.1727711
000230 50 4b 7e be 2d 55 c0 be b1 64 e0 3d ef 9f c8 3e
       -0.24833417 -0.37564984 0.10956705 0.3918452
000240 60 69 77 be d3 2d 0a 3e d9 12 81 bc ca 62 cf be
       -0.24161291 0.13494043 -0.015756058 -0.40505058
000250 dd 05 a1 3e da 86 f5 3e d6 56 a3 3d 32 dd b7 3d
       0.31449786 0.47954446 0.07975547 0.089777365
000260 12 fe 94 be 13 e2 d8 be 44 1b 6a 3e d3 ec eb 3d
       -0.2910009 -0.4235998 0.22861964 0.1151978
000270 40 82 fe bd f5 d8 38 bf 51 80 08 be 3d 96 bd be
       -0.12427187 -0.7220605 -0.13330199 -0.37028685
000280 28 60 30 bf 88 da 1a bf 0b f3 15 3f 3d 5c 56 3f
       -0.6889672 -0.604897 0.5857398 0.83734494
000290 cb 8f f2 be a4 14 93 3e 3b d0 b3 3e ef 7e 97 bb
       -0.4737533 0.28726685 0.35119805 -0.004623286
0002a0 6f b8 f6 bd 71 4e 8a 3e 04 a1 71 be cc 2d 10 bf
       -0.12046897 0.2701297 -0.23596579 -0.5631988
0002b0 e8 99 c7 bd d7 c6 cf 3e 51 9c ad 3e 21 86 53 be
       -0.09746152 0.4058139 0.33908322 -0.20656635
0002c0 3e 82 37 be 38 7a bb 3e d3 9e 4b be 72 a2 69 3e
       -0.17920777 0.36616683 -0.19884805 0.22815874
0002d0 a3 2a d1 bd e5 62 ff be 8e ea c3 be 98 7f fe bc
       -0.102132104 -0.49880138 -0.3826489 -0.0310667
0002e0 2f 60 74 3e 06 29 c7 3e b7 74 23 bf fc dc b5 3d
       0.23864816 0.38898486 -0.6384997 0.0888004
0002f0 58 9c 94 3e 0c 6b 70 3d 90 dd 80 3e 79 fa 2c bf
       0.2902553 0.058695838 0.2516904 -0.6756969
000300 1d 5c 47 bd 59 cc 7d 3e 0b 57 a0 3e 65 4f 7a be
       -0.04867183 0.24784984 0.3131641 -0.24444349
000310 a6 1d a7 3d 89 c9 87 3e 52 c4 6e 3c dc 0b df 3d
       0.08159952 0.26520947 0.014573174 0.10890934
000320 a7 85 85 bb 42 1d bb be 74 a9 50 be 32 28 bc be
       -0.0040747705 -0.3654576 -0.20377141 -0.36749417
000330 91 60 15 bf 30 be 93 3e cd f9 27 3e 0b 25 3d 3e
       -0.58350474 0.2885604 0.16403885 0.18471162
000340 88 79 3a 3e 5d 98 4e bf 78 5f 08 bf 76 36 8f 3e
       0.18210423 -0.8070124 -0.53270674 0.27971238
000350 ad cd d6 be a4 46 81 3e 25 5c 23 be b9 0d 05 3f
       -0.41953793 0.25249207 -0.15953119 0.51974064
000360 f5 98 e0 be f9 91 cb 3e 7d 05 ba 3d fa 4c 37 3e
       -0.43866697 0.39759806 0.09083078 0.17900458
000370 c2 dd 97 3e ce ec 06 3f e4 ca d0 b8 5e 2f 68 be
       0.29661375 0.52705085 -9.956004e-05 -0.22674319
000380 91 bb 10 bf 51 f1 48 bf 8b 37 c3 3e 1c e4 a2 3e
       -0.56536204 -0.7849322 0.38128313 0.3181466
000390 a6 a8 b3 be 9f fd 65 bd 02 92 91 3d 5c 7e 01 bd
       -0.35089606 -0.056150075 0.07107927 -0.031614646
0003a0 b5 d0 d9 be bd 92 48 3e 89 a3 06 bf aa 19 d7 be
       -0.42542043 0.19587226 -0.52593285 -0.42011768
0003b0 b6 9e 81 3e 35 65 b9 3e 8a bf a2 be ce 1f a2 3d
       0.253164 0.36210027 -0.31786758 0.079162225
0003c0 ff 46 dd bc 8a 46 69 3e 8e ce 3e 3e c6 88 48 3d
       -0.027011393 0.22780815 0.18633482 0.048958562
0003d0 cc 05 93 be 45 41 4e 3d 66 39 f8 be a2 8c 7c 3d
       -0.2871536 0.050355215 -0.48481292 0.061657555
0003e0 1f 62 00 bf 87 fe 3f 3f 4a f1 d0 bd 6f c7 33 3e
       -0.5014972 0.7499775 -0.10202272 0.17556547
0003f0 ff f5 73 3f b5 21 33 bf eb d4 27 3f 98 e0 3c be
       0.95297235 -0.6997331 0.6555926 -0.1844505

network_body._body_endoder.seq_layers.0.bias f4 [128]
000000 a1 e3 33 3e 73 4b c9 bd 62 7f 1c 3d a9 22 bd bd
       0.17567302 -0.09828844 0.03820742 -0.092351265
000010 92 51 d8 bd 09 bc 18 be 0f fd 2d 3d 5a 2d e7 3a
       -0.10562433 -0.1491548 0.042477664 0.0017637417
000020 26 4d e5 bd 73 ab bf 3d 0e 7a 75 3d 42 9c 28 bd
       -0.111963555 0.09358873 0.059930854 -0.041164644
000030 f8 45 8a bd 77 3c 51 be 56 4c a2 3d d6 90 f0 bd
       -0.06751627 -0.20433222 0.07924716 -0.11746375
000040 de aa b1 bb a3 44 2a be 9a 10 3f bd 6d e1 d7 bd
       -0.0054219803 -0.16627745 -0.04664669 -0.105410434
000050 a6 dd ff 3d 5e 30 04 3d 87 3e 5b be 8f 64 c7 3d
       0.12493448 0.03227269 -0.21410571 0.09735977
000060 79 48 b2 bc 0d 3d 5c be 37 d1 2c bd 03 59 e0 bb
       -0.021763073 -0.21507664 -0.04219171 -0.0068465485
000070 69 0b 9e 3d 20 2c 3b bd 31 48 ba 39 97 53 dd 3d
       0.0771702 -0.045696378 0.0003553047 0.10806959
000080 fa 37 e5 bb 67 db 0a 3e 26 be b7 3d 25 39 5b 3d
       -0.0069951983 0.13560258 0.08971815 0.053521294
000090 91 26 b2 3d e5 f1 b0 be 16 ae 43 bb 02 e9 a9 bd
       0.08698762 -0.3455955 -0.0029858402 -0.08296396
0000a0 2b f1 f4 3d 14 7f 66 bc e8 5f 54 bd c7 e5 af bd
       0.11960062 -0.014068384 -0.051849276 -0.085887484
0000b0 67 79 be bc 8c 13 9e bd 93 a0 84 3d 76 6d a8 bd
       -0.023251249 -0.07718572 0.064759396 -0.08224003
0000c0 5a 73 c0 3c 04 47 e1 3d c5 c8 06 bd 95 97 96 bd
       0.023492504 0.10999873 -0.032906312 -0.07353131
0000d0 b0 57 2c be d1 55 c6 bc a1 14 b2 bd f3 c2 f4 bc
       -0.16830325 -0.024210842 -0.08695341 -0.029878115
0000e0 e2 15 b0 3c 2e 27 ce 3d c6 35 48 bc 77 10 f0 bd
       0.02149481 0.10066067 -0.012219852 -0.117218904
0000f0 97 76 99 3d 60 a6 26 3c d0 65 af bc 8a e9 32 3d
       0.07493322 0.010171503 -0.021410853 0.04367975
000100 ca 7a 09 3d 96 27 28 3d 48 d4 a9 bb 70 da dc 3d
       0.033564366 0.041053377 -0.0051827766 0.10783851
000110 4e 5c d7 3d 9f c7 12 3e be 16 38 3d 65 ce 11 be
       0.105156526 0.14333962 0.044943564 -0.1423889
000120 91 5b 6e 3c 2a 9c 9f bc c2 db a6 3a ce 6a 20 be
       0.014548198 -0.019483645 0.0012730288 -0.15665743
000130 ea 4c ac 3b 9e 35 e9 3d f3 57 2b 3e 5f a2 27 bd
       0.0052581923 0.1138718 0.16732769 -0.040926334
000140 09 04 f9 3d 34 cd 4b 3d 1a 3d 84 3c e6 45 1d 3e
       0.12158973 0.049756244 0.016142417 0.15358695
000150 24 a0 0d 3d 14 4f dd 3c dd e0 97 bd 48 67 56 bd
       0.03457655 0.027015246 -0.07415936 -0.05234459
000160 7a e1 01 bd b0 a5 25 be c2 65 d8 3c 92 2c 86 bd
       -0.03170917 -0.16176486 0.02641571 -0.0655147
000170 94 0f b5 3c 6b 09 c3 bd 55 fb f6 bd ec 54 2b 3e
       0.022102155 -0.09523281 -0.120596565 0.16731614
000180 14 de 01 3e be 9c a0 3d dd e8 18 3e 6d 18 34 bd
       0.12682372 0.07842396 0.1493258 -0.043968607
000190 11 08 27 3d e6 0f 14 be 94 2e 5d ba 79 bb f5 bc
       0.040779177 -0.1445919 -0.00084374216 -0.02999662
0001a0 d2 41 da 3d f4 84 86 3d 8c 7b 77 3d 9e 47 7b bc
       0.106570855 0.065683275 0.060420558 -0.015336899
0001b0 b0 17 24 3e 49 13 df 3c 0d cf 0f bd fe 38 b4 bc
       0.16024661 0.027230876 -0.03510957 -0.021999832
0001c0 c6 69 f3 bb 2e dc c6 3d b9 4f 87 bd 00 06 a5 bd
       -0.0074283807 0.09709965 -0.06607003 -0.08057785
0001d0 84 ff 2d 3d ce fc a0 bb 3c 61 bb 3d e4 14 32 3d
       0.042480007 -0.004912949 0.09149405 0.043476954
0001e0 c5 de de 3d 7e 0a 48 3d df ae 92 bc 28 50 52 be
       0.10882334 0.04883813 -0.01790565 -0.2053839
0001f0 91 aa 2a bd 07 41 31 bd 79 d2 e9 bd fd be ac bc
       -0.04166657 -0.043274906 -0.114170976 -0.021087164

network_body._body_endoder.seq_layers.2.weight f4 [128, 128]
000000 92 18 3d 3d 24 e0 61 bd e0 36 63 be 8c 52 14 3e
       0.04616601 -0.055145398 -0.22188902 0.14484614
000010 4e e7 88 be aa 0f 83 3d aa a1 b7 bd 49 65 ac 3d
       -0.2673897 0.06399472 -0.08966382 0.08417756
000020 a0 53 08 3e df 6d 0b 3d 8d 51 a5 bd 7a f1 10 3e
       0.1331315 0.034040328 -0.08072195 0.14154616
000030 9a cd 66 be c5 1a 9f bd e0 c2 c8 bd ff c6 60 be
       -0.22539368 -0.07768778 -0.098027945 -0.21950911
000040 da 93 07 be a7 5a 4c 3d bd dc e0 bb 3d e9 37 3d
       -0.13239995 0.04989114 -0.0068622516 0.044900168
000050 53 7f e4 bb 86 93 cb 3d 63 a9 13 3e 0b a7 9b bc
       -0.006973186 0.09940247 0.14420085 -0.01900055
000060 43 e5 f3 3d 6f 26 ea 3b 9a f8 01 be ae 47 73 be
       0.119089626 0.007145695 -0.1269249 -0.23757812
000070 39 ae 08 bd 38 94 8d bd 53 1e 98 3c 7c 35 a7 3d
       -0.033369277 -0.06913036 0.018569147 0.08164498
000080 f9 1d 2a 3e f7 57 0d be d7 ea 97 bd c8 37 2f 3d
       0.16612996 -0.13803087 -0.07417839 0.042777807
000090 13 db 83 bd 82 6f 10 3e 1c 6a 3e bd cf ef a7 3d
       -0.064382695 0.14105037 -0.046487913 0.08200037
0000a0 57 3b 9d 3d 18 0d f2 bc ca fe ec 3b 0f 76 9f bd
       0.07677334 -0.02954726 0.0072325217 -0.0778619
0000b0 d9 46 81 bd c4 cc 95 3d 76 81 6c bd ce 9a bf bd
       -0.06312341 0.073144466 -0.05774065 -0.093556985
0000c0 89 e7 26 be 55 9e be 3d 79 0f 6b 3b d0 b4 10 bd
       -0.16299261 0.09307543 0.0035867377 -0.035328686
0000d0 92 f5 00 3e db e6 c0 3d 7d 22 8b 3c a6 47 a5 be
       0.12593678 0.09419032 0.016984219 -0.32281226
0000e0 82 82 06 3e 34 ac 03 3e 68 ea 77 bc f1 c4 eb bd
       0.13135722 0.12858659 -0.01513157 -0.11512173
0000f0 a3 88 4c 3e 4f dd e9 bd dd 4f dc 3d 28 fb 96 bd
       0.19973998 -0.114191644 0.1075742 -0.07372123
000100 ba b8 8a bd 64 ac 92 3d e5 ef 3e be ab 45 6f bd
       -0.06773515 0.07161787 -0.186462 -0.05841605
000110 26 b3 ea 3d b8 ed 2a 3d e2 ed 33 3b f5 94 42 3c
       0.11459951 0.041730613 0.0027455022 0.011876334
000120 46 6b c3 bc a5 46 c5 bc 52 1c 85 3d f0 34 90 bd
       -0.023854863 -0.024081538 0.06499542 -0.07041347
000130 07 74 3c 3d ac 7e 22 bc 74 9a a1 bd 43 48 f6 3d
       0.04600909 -0.009917896 -0.07890788 0.120255016
000140 39 d2 b8 3d 0c 44 36 bd 89 ce b7 3d b9 14 4f 3c
       0.09024472 -0.04449849 0.0897494 0.012639218
000150 b5 f4 20 be 41 df b8 bd f2 46 e6 3d da 81 60 bd
       -0.15718348 -0.09026957 0.112440005 -0.054811336
000160 61 1d 94 3b 63 a4 a2 bd 59 2a 36 be 83 63 0e 3d
       0.004520104 -0.079415105 -0.17789592 0.03476287
000170 94 53 ec bc 99 9f 33 bd fd 34 59 3d e9 e1 3b 3d
       -0.028848447 -0.043853376 0.05302905 0.04586974
000180 77 c3 30 be d4 85 2d 3d 54 9d 74 3d 9d e4 15 3d
       -0.17262064 0.042363957 0.059720352 0.036594976
000190 ec de 0c be ad dd 15 be 8e d8 73 bc a2 ab 63 3c
       -0.13756913 -0.14635344 -0.014883174 0.013895901
0001a0 a4 0d 2f 3e 9f 6e 88 bd 26 45 77 bd c5 d5 d9 bc
       0.17095047 -0.06661724 -0.06036868 -0.026591191
0001b0 c4 bb 80 bc 6c 73 86 bc 59 55 b0 bd f4 b3 d7 bd
       -0.015714534 -0.01641246 -0.08610029 -0.1053237
0001c0 b3 b9 20 3d 6e 6d 38 3e 0b 4d 64 bc c2 07 31 3e
       0.039239597 0.18010494 -0.013934384 0.17288116
0001d0 bb 03 1e 3e c0 f6 0f 3e e7 81 98 3d 31 16 fb 3c
       0.1543111 0.14058971 0.07446652 0.03065023
0001e0 df 09 1e be f6 39 24 bd 98 0e db 3d 63 b1 8a 3d
       -0.15433453 -0.04009434 0.10696143 0.06772115
0001f0 ba 39 ff 3c 9d 06 d1 bb 7a 67 b5 3c e6 e4 5a bd
       0.031155456 -0.006378962 0.022144068 -0.05344095
000200 e2 94 69 be dd 88 9a 3c 61 c5 cb 3d b1 01 37 bd
       -0.228107 0.01886409 0.099497564 -0.044679347
000210 9d 55 d5 3b a1 80 a4 bd 1e 2f 3f 3e ca 39 da 3d
       0.00651045 -0.080323465 0.18670318 0.10655554
000220 bc a5 66 3c d8 22 33 be 71 14 00 3d 51 44 d3 3d
       0.0140776 -0.1749376 0.031269494 0.10315765
000230 f4 b3 b7 3c 5b 51 32 3d 56 ab 86 3d de 3f 39 be
       0.022424676 0.043534618 0.065756485 -0.1809077
000240 35 10 ee bd 9b 8e f8 bd 0c f4 dc 3d b4 a9 b6 bd
       -0.11624185 -0.12136575 0.10788736 -0.08919087
000250 d2 08 59 3d 12 37 0a be 73 34 be bd af 08 f3 3d
       0.052986927 -0.1349757 -0.09287348 0.11866891
000260 28 a5 45 3b 1b 35 aa bd 95 20 12 3d 62 d5 77 bd
       0.0030158255 -0.0831091 0.035675604 -0.060506232
000270 96 e3 2f 3e ad 06 1e 3e e8 f1 ea 3d 7a 5e e8 3d
       0.17176661 0.15432234 0.11471921 0.11346145
000280 14 86 02 3d e4 04 86 3e 14 fd c8 bc 6c ad 79 bb
       0.031866148 0.26175606 -0.02453474 -0.0038097752
000290 b8 b8 7b bd 58 96 c8 3c 81 75 39 3e 39 c4 ac 3d
       -0.06145546 0.024485752 0.1811123 0.08435864
0002a0 bb f5 e2 bd ee bb 0e 3d 2b a1 14 bd 78 cb c8 3c
       -0.110820256 0.034847192 -0.036286514 0.024511084
0002b0 7b f6 71 bb 88 42 87 3d d4 ee 36 3e 3c d9 28 bd
       -0.0036920595 0.06604487 0.17864543 -0.041222796
0002c0 af 37 a4 bc d6 bc fa bd 3e 49 83 3c 92 64 b8 3d
       -0.020046083 -0.12243049 0.016026136 0.09003557
0002d0 97 bb 2a 3d 25 6b 0a bd 53 2c f0 3d aa 83 be bd
       0.041682806 -0.033793587 0.11727204 -0.09302457
0002e0 30 b3 3b 3e 01 34 0a 3d 76 88 7a 3d 94 d5 15 bd
       0.18330073 0.033741 0.061165296 -0.036580637
0002f0 d2 9b 49 bd 51 bf 16 be 6c c3 be 3c 6f ae 0c bd
       -0.049220867 -0.14721419 0.023286544 -0.03434604
000300 68 e2 0d 3e 1a 6e 61 3d 66 44 51 3b 71 41 b2 bc
       0.13855898 0.05503664 0.0031931638 -0.02175972
000310 82 c3 cd bb ca 73 17 3d 4b 2b 15 be ee 92 65 bd
       -0.00627941 0.03697566 -0.14567296 -0.056048326
000320 bc 49 a0 3b f1 fc 9f 3d 30 82 4d be f6 ea c7 bc
       0.0048916023 0.078119166 -0.20069194 -0.02440403
000330 bd 41 a4 3d 6d c3 36 be 29 83 93 3d 5a 69 db 3d
       0.08020351 -0.17847987 0.07202751 0.107134536
000340 7a 2d d5 bc 53 52 13 bd e1 56 85 3d 9b c1 90 3e
       -0.026022661 -0.035967182 0.065107115 0.2827271
000350 4b d6 06 be 0c 8a a5 bd 51 ca 93 bd b2 1d 91 3d
       -0.13167684 -0.08082971 -0.07216323 0.07085742
000360 64 a8 af 3b 3e 2d fc 3d 89 ea 14 3e 64 0d b9 3d
       0.00536065 0.12313317 0.14542593 0.09035757
000370 69 4a b6 bd 66 a2 8f be db 80 b8 3d 96 f9 ef bc
       -0.08900911 -0.28053588 0.09008952 -0.029293817
000380 32 37 84 be 6c d5 cc 3b 2e 81 c9 bd 67 37 9a 3d
       -0.2582336 0.006251028 -0.09839092 0.075300984
000390 87 8e f7 bd ff b9 1b 3e 23 bd 04 bd 65 e8 18 3e
       -0.12087732 0.1520767 -0.032406937 0.14932401
0003a0 00 ba 0c 3d 69 f4 0f be 27 2a 35 3c 2a 20 d3 3d
       0.03435707 -0.14058079 0.011057413 0.10308869
0003b0 9e 0f 4c 3e a5 30 9f bd 83 fb ec bd 95 f7 ce 3d
       0.19927832 -0.0777295 -0.115714096 0.10105816
0003c0 16 dd bd 3d 33 a2 2a 3e 3c ca f5 3d df f2 bc 3d
       0.092706844 0.16663437 0.12001464 0.092260115
0003d0 b1 d0 22 3e b8 b2 50 be 40 a0 82 bd c0 98 aa 3d
       0.15899922 -0.20380676 -0.063782215 0.08329916
0003e0 12 28 8e bd 17 1c b0 be e3 dd 8a be ee e3 13 bb
       -0.069412366 -0.3439643 -0.2712241 -0.0022566277
0003f0 1c 43 20 3d 50 46 f7 3c 56 e5 19 3d 10 07 e3 3d
       0.0391265 0.030184895 0.037572227 0.110853314

network_body._body_endoder.seq_layers.2.bias f4 [128]
000000 b4 d1 9f 3d b1 59 b1 3d 30 b0 7b 3c ed e2 cc bc
       0.078036696 0.086596854 0.015361831 -0.02501055
000010 00 35 0d bd eb af 72 3d c5 58 2a 3d ef 0f 02 3e
       -0.034474373 0.0592498 0.041588563 0.1270139
000020 2f 7b da 3d 87 35 a0 ba 95 fa 73 bc 83 19 2c 3e
       0.10668027 -0.0012222984 -0.014891286 0.16806607
000030 0f 67 05 3e fe a3 93 3c 90 64 03 bc ea bf 1c 3e
       0.13027595 0.018022534 -0.008019581 0.15307584
000040 8e e4 4d 3d a6 0c 81 3c c1 27 16 3d d9 e7 9e bd
       0.050266795 0.015753102 0.036659006 -0.07759065
000050 5d 34 88 bd 25 a0 02 bd fe 12 90 3d 79 c2 fa 3c
       -0.066506125 -0.031891007 0.070348725 0.03061031
000060 a1 08 38 bd 0f c7 05 3d 67 fb a4 3d 4e a3 82 bc
       -0.044930104 0.03266054 0.08055764 -0.01594701
000070 b4 50 ff 3d 37 1d 93 bd aa 13 1f 3e b7 69 63 3d
       0.12466565 -0.07183307 0.15534845 0.05552074
000080 d8 5d 73 3d 57 fd ae 3d 17 93 de 3d a8 b4 f4 3d
       0.05941567 0.085444145 0.10867899 0.1194852
000090 36 e9 14 3c f4 22 ab 3d 9b 98 9c bd b9 e4 24 3d
       0.009088805 0.08356276 -0.07646295 0.04025719
0000a0 1d 77 2a 3d 15 ba 80 bc a3 e8 b8 3b 39 43 c7 3c
       0.0416175 -0.01571373 0.005642967 0.024324046
0000b0 ea d8 98 3d ae 1b 23 3c 04 a7 f0 3c 99 b8 8b 3d
       0.07463248 0.00995533 0.029376514 0.068223186
0000c0 9e 21 ec 3d dc bb 48 3e 1a dd 4f bd b6 d0 f2 3d
       0.115298495 0.19602913 -0.05074797 0.11856215
0000d0 ca 5c 54 bc d5 53 b1 3d bd 52 88 3d 30 9b ea 3d
       -0.012961576 0.08658568 0.06656406 0.11455381
0000e0 fe 03 03 3e 54 2e d8 3d f6 d6 2e 3d 15 3b a3 3d
       0.12794492 0.105557114 0.04268547 0.079702534
0000f0 b1 72 c4 3d 63 8c a5 3d 71 14 69 bd b9 55 b4 3d
       0.09592188 0.08083417 -0.05690426 0.08805413
000100 d4 b3 30 bc ac 2b 18 3e bd e6 ae bc e0 ae 6e 3d
       -0.010785062 0.1486041 -0.021350259 0.058272243
000110 57 f0 50 bc d2 50 0e 3d ac 71 13 3e b5 5d 26 3d
       -0.012752614 0.034745045 0.14398831 0.04061671
000120 ae 3d c4 37 e0 4f 6c 3a a4 23 87 bd ec 53 01 bd
       2.3393743e-05 0.0009014588 -0.06598595 -0.031574175
000130 0f 35 d2 bc b9 49 1f be 4d 88 70 3b 0a 67 12 3e
       -0.025660066 -0.15555467 0.0036702335 0.14297119
000140 5e 42 5f bd 4a 6c 0f 3e 69 04 be bc 84 49 46 3b
       -0.054506652 0.14006153 -0.023195462 0.003025622
000150 19 60 9a 3d 20 9b 89 bd 3a c6 c0 bc 80 a1 23 3e
       0.075378604 -0.06719041 -0.023532022 0.15979576
000160 43 9e a7 bd ab 63 ae 3d df 82 d7 3d 65 de ac bd
       -0.08184483 0.08515104 0.105230086 -0.08440856
000170 8a a2 70 bd 44 ee 3c bc 88 04 a5 3c 8b 2c 3f 3e
       -0.05874876 -0.011531416 0.020143762 0.18669336
000180 f8 f8 39 bc 64 8c 06 bd 02 b6 5e 3d 40 3b 4a 3c
       -0.011350863 -0.03284873 0.054372795 0.012343228
000190 58 2b d9 3d f2 11 13 3e 85 5a 32 3d ec 86 3d ba
       0.1060397 0.14362314 0.043543357 -0.0007229883
0001a0 9b 00 bd 3c 34 7f 63 bd 81 61 21 bd e7 d6 d4 3c
       0.023071578 -0.055541232 -0.039399628 0.02598138
0001b0 25 bd 88 3d c8 6e 22 3e 9f 44 7f bc 5e 0e 8d 3d
       0.066767015 0.15862572 -0.015580325 0.06887506
0001c0 ed dc 1a 3e 39 cc 93 bc 65 46 a9 3c 06 83 b0 3c
       0.15123339 -0.018041717 0.02066345 0.021546852
0001d0 d0 0f 0c 3d d2 70 03 3e eb 34 78 bd 5d 24 18 bb
       0.034194767 0.12836006 -0.06059734 -0.0023215034
0001e0 15 7f b3 3d 68 c3 b1 3d 06 5b d0 bc bb be be bc
       0.08764473 0.08679849 -0.025434028 -0.023284307
0001f0 cb 73 59 bd 47 b2 c6 3d 55 d5 53 3d 0a 05 f4 3d
       -0.053088944 0.097019725 0.05171712 0.119150236

action_model._continuous_distribution.log_sigma f4 [1, 2]
000000 e9 2c 79 be 7b 3a f3 be
       -0.24333538 -0.47505555

action_model._continuous_distribution.mu.weight f4 [2, 128]
000000 3d 40 79 3d ea d3 68 bd 3f 01 8e 3c 7c 01 ab bc
       0.060852278 -0.056842722 0.017334579 -0.020874731
000010 20 89 b4 3c 24 90 b1 bd b3 5c 80 3d 92 b7 8b 3d
       0.022038043 -0.08670071 0.06267681 0.06822123
000020 e6 ca fa 3b 85 ce fb bb 92 74 21 3c be fd 3e 3e
       0.007653582 -0.007684531 0.009854453 0.18651482
000030 10 41 e2 bc aa 7c be bd 99 b9 ee 39 e1 e6 a9 bc
       -0.027618915 -0.093011215 0.00045533178 -0.020739974
000040 c4 ed c3 bd b5 9d f6 bd 40 a2 66 bd 79 46 ef bd
       -0.095668346 -0.12041799 -0.056307077 -0.116833635
000050 db 8e a7 bd 39 0c 3b bd 85 e9 a4 3d e3 78 9c bd
       -0.081815444 -0.045665953 0.08052353 -0.07640245
000060 ed 9e 69 bd 1d 46 96 3d 5d 6a ab bd 4f 96 42 3c
       -0.05703633 0.07337592 -0.083698966 0.011876657
000070 53 30 a0 3d 01 49 13 bb 85 da b2 3d 8b a0 94 3d
       0.07821717 -0.0022473934 0.087330855 0.07257184
000080 b6 89 69 bc 23 4c 24 3d e4 01 da bd 72 23 09 be
       -0.014254024 0.040111672 -0.10644892 -0.13392428
000090 ab 59 07 be c8 3a d9 3d 31 f2 2c bd c9 e6 c0 3c
       -0.132178 0.10606915 -0.04222316 0.023547547
0000a0 f6 bc ac 3d 85 1c a6 3d 50 99 0c bd 8a ff 39 be
       0.08434479 0.081109084 -0.034325898 -0.18163887
0000b0 8a bb ef bd ca 38 01 bd 6c 81 24 bc 55 d4 88 3d
       -0.11705692 -0.0315483 -0.010040622 0.06681124
0000c0 c4 22 d6 3d 1e 2a ac 3d 64 c6 25 bd 15 f6 f4 3d
       0.1045585 0.08406471 -0.040472403 0.11960999
0000d0 5a 98 95 bd 93 6e e1 3d 35 f4 b9 3d e2 f0 de 3d
       -0.073044494 0.110074185 0.09079782 0.108857885
0000e0 a8 4e be 3d 13 4b f7 bd 70 40 75 3d 35 1f 31 bc
       0.09292346 -0.12074866 0.059875906 -0.010810663
0000f0 92 06 8c bd af cf 78 3d bd a4 0a bd 22 00 04 bb
       -0.06837191 0.060744938 -0.033848513 -0.002014168
000100 aa b8 98 bc 59 69 23 3e 7d cf 51 bd cf 25 b8 3d
       -0.018642742 0.15958156 -0.051223267 0.089915864
000110 d3 f0 ba 3d 7a dd 4a bd 97 6a cb 3d c1 4c cb bb
       0.09127965 -0.049527623 0.0993244 -0.006204218
000120 d8 06 2f 3d 8d c6 d6 bc 41 bb 44 3d 96 88 1d bc
       0.042731136 -0.026217723 0.04803014 -0.009615084
000130 57 8d 9f 3d 21 bb 7e bc 9b b2 29 be 89 d6 5f 3e
       0.0779063 -0.015547545 -0.16572039 0.21859182
000140 53 71 b1 bd 0f c4 69 be eb d3 0b bd 67 9f ee 3c
       -0.08664193 -0.22828697 -0.034137648 0.029128743
000150 0c e3 d3 3d 4a 2c 8c 3d cb f3 2e bd 9f 53 da 3d
       0.1034604 0.06844385 -0.042712968 0.10660481
000160 94 6e f3 bc ea 49 05 bd ce 32 a0 3c 3c d9 95 3c
       -0.029715814 -0.032541193 0.019555476 0.018292062
000170 d7 40 5b 3c a2 d6 db 3d c4 55 0d 3d 55 ea a8 3d
       0.013382158 0.10734297 0.03450562 0.0824782
000180 bb 5e 31 bc f7 12 03 bd 9e c8 83 bd bd 70 82 bb
       -0.010825808 -0.03200051 -0.06434749 -0.0039807246
000190 64 af a1 3d a5 42 1b bd b0 23 d6 3d 35 4e 34 3b
       0.07894781 -0.037905354 0.104560256 0.0027512435
0001a0 0c 16 da ba 5e 9c 2d bd 2f aa c2 3c 1a 27 c5 3d
       -0.001663865 -0.04238545 0.02376279 0.09626599
0001b0 86 fd ec bd 51 69 2f 3e cc 67 6b 3d 88 96 b0 3d
       -0.11571793 0.17130019 0.057472035 0.086224616
0001c0 30 21 0f 3e 84 26 82 bd a5 8a 17 3a c7 53 a5 bd
       0.13977504 -0.063550025 0.00057808525 -0.0807262
0001d0 79 05 2f bd 9f 30 f5 3d 1a e6 e6 3a 67 42 77 3d
       -0.04272983 0.11972164 0.0017616183 0.06036606
0001e0 a1 48 08 be fc 62 ec 3c a7 87 6c 3d 98 91 07 bd
       -0.13308956 0.028855793 0.057746556 -0.033097833
0001f0 23 21 2e bd 1d 4a cc 3c d3 ed fb bd 36 95 22 be
       -0.04251207 0.024937684 -0.12301221 -0.15877232
000200 6e 91 3c 3d 93 fb a6 3d 1c b7 88 3d 8c 28 93 3c
       0.04603713 0.08153453 0.0667555 0.01796367
000210 8b fa 16 3d 0a 5a 83 bd 23 14 d0 3c 9d 5b e5 3d
       0.03686003 -0.06413658 0.025400227 0.111991145
000220 d4 c7 d3 bd 5b 56 36 3d f5 e3 14 3b ae f0 d4 bc
       -0.103408486 0.04451595 0.002271888 -0.025993671
000230 50 66 2b be 56 fb 02 3d 03 3f 4a bd 49 52 40 be
       -0.16738248 0.031977974 -0.0493765 -0.1878139
000240 7e 48 5c 3d d1 1e 4f 3d 59 66 8b bc 54 76 16 3d
       0.05378007 0.0505665 -0.017016577 0.03673394
000250 1f 8f 0d 3d 53 aa 90 3d bb 7b 97 3d 8c ea 6b 3d
       0.03456032 0.07063737 0.073966466 0.05759673
000260 25 16 9d bd 3f 0e 2f bc 72 b5 22 bc 5a 59 5b 3d
       -0.07670239 -0.010684549 -0.009930955 0.05355201
000270 a8 f3 c9 3b 41 6a 89 3b 2d ed e4 bd 50 fd da 3d
       0.0061630793 0.0041935747 -0.1117805 0.10692847
000280 b1 66 97 3d e6 a8 ec bc 03 3a 6e bc 50 66 1b 3d
       0.07392634 -0.02888913 -0.014540198 0.03793937
000290 1a 65 3d bd a0 f6 d6 bc 35 a0 9d 3d d1 ff c7 bd
       -0.046238996 -0.026240647 0.07696573 -0.0976559
0002a0 39 dc 9a 3d ab a8 96 3c e7 8d 8f 3d 43 b4 4b bd
       0.075615354 0.018390974 0.070094876 -0.049732458
0002b0 80 23 5b 3d 62 dd 87 3d 63 f7 ff bd 17 c5 dc 3d
       0.053500652 0.06634022 -0.12498357 0.107797794
0002c0 a0 a5 2e bd 68 fc 36 be 00 17 91 3d 7a 74 46 3d
       -0.04263842 -0.17869723 0.07084465 0.048450924
0002d0 8f e1 d8 3d 9f 33 9d 3d 02 d9 e5 3d 0f 50 21 bd
       0.10589897 0.076758616 0.112230316 -0.03938299
0002e0 5d ad f3 3d c2 47 bf bb 1f 9e c9 bc 8f 4a 7d 3d
       0.11898301 -0.0058374116 -0.02461153 0.061838683
0002f0 ca cf cd 3d 0f 76 96 bd 4b 50 80 bd b0 aa e0 bd
       0.10049398 -0.07346737 -0.06265315 -0.10970056
000300 07 71 bf 3d e0 27 7e 3b 7b 5d 77 bc 17 94 44 bc
       0.0934773 0.0038781092 -0.015097971 -0.011998198
000310 d0 5e 9d 3d ab b0 38 3d 81 c2 57 3d a2 f7 85 3d
       0.076841 0.04509036 0.052675728 0.06541373
000320 d4 52 20 3d d1 d7 a9 3c fe 3c 71 bc a6 67 35 3d
       0.03914149 0.020732792 -0.014724014 0.0442883
000330 2a b6 ff 3c ee 62 cf bc be bc 17 bd d9 c2 6f bd
       0.031214792 -0.025315728 -0.037045233 -0.05853543
000340 16 5e 51 3c f1 cf fc 3d be e9 8c bc f9 02 55 bc
       0.0127787795 0.12344349 -0.0172013 -0.013001197
000350 24 08 92 3c 58 fb 1e be 65 5d 9f 3d e0 e3 0e 3e
       0.017826147 -0.15525568 0.077814855 0.13954115
000360 25 95 63 3d ce 72 dc bd cd c7 ec bd 7d 2e 96 bc
       0.055562157 -0.10764085 -0.115615465 -0.018332714
000370 b7 da ca bd de b9 8f 3d 84 78 ee 3d ac 78 0d be
       -0.09904998 0.07017873 0.1164408 -0.13815564
000380 c9 09 48 bd cf a6 2f 3c 91 c9 b4 bd 90 b1 d0 bd
       -0.048837457 0.010720923 -0.08827508 -0.10190117
000390 ab 62 42 bd c6 64 08 3e 4c c0 e2 bc 57 06 3a 3d
       -0.04745738 0.13319692 -0.027679585 0.045416202
0003a0 6b 00 6e 3d 93 6c 75 3d 2c 80 97 3d d8 01 56 bc
       0.058105867 0.059917998 0.07397494 -0.013061963
0003b0 d1 9f 50 bd d2 5b f4 bb e7 f4 8d 3d cc a0 2d 3d
       -0.050933663 -0.007457235 0.06931477 0.042389676
0003c0 99 69 fc 3c 02 8c e2 3c 10 f5 bf bd 66 4b b4 3d
       0.030812072 0.027654652 -0.09372914 0.088034436
0003d0 5f 61 91 3d d8 cf 99 bc 9f bf 11 3a e6 47 a9 bc
       0.0709865 -0.018775865 0.0005559865 -0.020664167
0003e0 64 1a 9b 3d e1 ce 7d 3d 6a 93 06 3b 61 a9 a1 bd
       0.07573393 0.061964873 0.0020534643 -0.078936346
0003f0 09 d3 2f 3b 5f bb e3 bd af 9c 42 3d ab 61 b8 bd
       0.0026828668 -0.111197226 0.047512706 -0.09003004

action_model._continuous_distribution.mu.bias f4 [2]
000000 7d fe b1 3c 84 a1 e0 bc
       0.021727795 -0.027420767

exp_avg f4 [128, 8]
000000 03 c6 92 3d 2a f4 ad 3a 04 00 00 80 25 48 6f 3d
       0.07166674 0.0013271619 -6e-45 0.05841841
000010 48 06 ae 3a 8c 4c 5b bd a0 32 2a bc f7 e6 83 3c
       0.0013277018 -0.053539798 -0.0103880465 0.016101344
000020 d6 e3 92 33 84 17 ae 30 04 00 00 00 e9 16 72 33
       6.840098e-08 1.266685e-09 6e-45 5.6365852e-08
000030 f6 5e ae 30 a6 e5 58 b3 4a cb 00 b2 ed 2a a1 32
       1.2687156e-09 -5.0500283e-08 -7.496803e-09 1.8762387e-08
000040 06 fb 52 3d 0c 0d 7a 3a 04 00 00 00 01 44 39 3d
       0.051508926 0.00095386873 6e-45 0.04523087
000050 b2 cf 7a 3a cf e9 29 bd c6 31 77 3b df 48 a6 3c
       0.0009567692 -0.041482743 0.0037718876 0.02029842
000060 22 17 e6 39 90 59 08 37 04 00 00 00 a6 32 bd 39
       0.00043886254 8.127085e-06 6e-45 0.00036086625
000070 3d a6 08 37 4f 2e a9 b9 ab 34 48 b8 ab 73 f5 38
       8.144937e-06 -0.00032268694 -4.7732767e-05 0.00011704055
000080 34 fd 23 be 7f 5b 42 bb 04 00 00 80 69 4b 09 be
       -0.16014558 -0.0029656587 -6e-45 -0.13407673
000090 20 e4 42 bb d6 59 f5 3d 69 f9 20 3c 13 c9 48 bd
       -0.0029738024 0.119800255 0.009825089 -0.049019884
0000a0 85 84 22 3a 0b 9d 40 37 04 00 00 00 70 d1 06 3a
       0.00061995565 1.1480656e-05 6e-45 0.0005142903
0000b0 86 a4 40 37 f4 25 f5 b9 97 cf 8d b8 85 0c 2e 39
       1.1482398e-05 -0.0004675832 -6.7620706e-05 0.00016598597
0000c0 68 61 bc 3e 0a 44 df 3b 04 00 00 00 b8 1f 9d 3e
       0.36793065 0.006813531 6e-45 0.30688262
0000d0 18 1a e0 3b f4 21 8e be 15 11 d6 bc 58 f6 cc 3d
       0.006839048 -0.2776028 -0.026131192 0.10007924
0000e0 85 dd ef bd 70 24 0e bb 04 00 00 80 60 ae cd bd
       -0.11712173 -0.00216892 -6e-45 -0.10043025
0000f0 8f 13 0e bb 3e 43 b2 3d 79 13 eb b9 c8 5f 4b bd
       -0.0021679138 0.08704232 -0.000448372 -0.04965189
000100 e2 95 43 35 17 ce 67 32 04 00 00 00 77 4e 29 35
       7.286127e-07 1.3492829e-08 6e-45 6.307159e-07
000110 a2 7b 64 32 e3 25 27 b5 b2 75 21 33 3e 48 9d 34
       1.32994575e-08 -6.226748e-07 3.7592777e-08 2.9296092e-07
000120 ea fd 56 39 19 ce 7e 36 04 00 00 00 55 ad 30 39
       0.00020503221 3.7968914e-06 6e-45 0.00016849239
000130 48 69 7f 36 a7 1a 25 b9 44 d6 e7 b7 29 b7 23 38
       3.8059243e-06 -0.00015745555 -2.7637121e-05 3.903281e-05
000140 ca b4 39 3f a3 18 5c 3c 04 00 00 00 d9 6f 19 3f
       0.7254149 0.013433608 6e-45 0.5993629
000150 f9 fc 5c 3c 34 79 0b bf bb 90 8e bd da 05 36 3e
       0.013488048 -0.54481816 -0.06961199 0.1777567
000160 e7 5e a0 3e aa 11 be 3b 04 00 00 00 24 a1 85 3e
       0.31322405 0.0058004456 6e-45 0.26099503
000170 73 e3 be 3b 5c 29 72 be ad 55 be bc 0d 95 a8 3d
       0.005825454 -0.2364859 -0.023234213 0.08231554
000180 66 3b 05 3e 94 e7 1d 3b 04 00 00 00 6e 69 e2 3d
       0.1301094 0.002409433 6e-45 0.11055265
000190 34 ba 1d 3b f5 ac c2 bd 42 5d 43 bb 7f 9f 5c 3d
       0.0024067285 -0.09505645 -0.0029810225 0.053863045
0001a0 e6 1c e8 33 62 8c 09 31 04 00 00 00 24 51 c1 33
       1.08085985e-07 2.0015922e-09 6e-45 9.002022e-08
0001b0 ae b2 09 31 b4 59 ac b3 9c 5a 0f b2 fb f5 07 33
       2.0037692e-09 -8.025691e-08 -8.344298e-09 3.1655855e-08
0001c0 1f 31 01 3f c7 1d 19 3c 04 00 00 80 e6 ca d6 3e
       0.5046558 0.009345478 -6e-45 0.41951674
0001d0 27 a6 19 3c 34 f9 c1 be f6 bf 26 bd 9c f2 0a 3e
       0.009377993 -0.3788544 -0.040710412 0.1356911
0001e0 f8 25 19 b6 54 82 35 b3 04 00 00 80 2f da f0 b5
       -2.2820877e-06 -4.226088e-08 -6e-45 -1.7944893e-06
0001f0 de 5c 35 b3 5d 10 a9 35 2e 96 d5 34 1d e6 93 b5
       -4.222681e-08 1.2596244e-06 3.9783612e-07 -1.1019325e-06
000200 05 aa fe 3a 7d e9 16 38 04 00 00 00 b9 69 d1 3a
       0.0019429332 3.598024e-05 6e-45 0.0015976942
000210 7e 1e 17 38 4f 1d be ba 50 5c 6d b9 b9 a7 01 3a
       3.6029604e-05 -0.0014504584 -0.0002263647 0.0004945952
000220 72 69 60 be 1f fc 84 bb 04 00 00 80 1f 24 3b be
       -0.21915224 -0.0040583755 -6e-45 -0.18275498
000230 ff 59 85 bb 76 fc 27 3e ef f5 80 3c 6b c5 80 bd
       -0.0040695663 0.164049 0.01574227 -0.062876545
000240 83 68 b7 2e 6d 5f d9 2b 04 00 00 00 48 9d 96 2e
       8.3404415e-11 1.5445263e-12 6e-45 6.849149e-11
000250 de 84 d9 2b 2b 68 84 ae 85 9d 2b ad e5 18 d8 2d
       1.5455655e-12 -6.021169e-11 -9.755201e-12 2.4567412e-11
000260 8c d9 92 3e 50 0b ae 3b 04 00 00 00 f8 42 74 3e
       0.286816 0.005311407 6e-45 0.23853672
000270 26 b2 ae 3b 04 44 5d be 71 a3 b7 bc fe 29 9c 3d
       0.0053312955 -0.21607977 -0.022416802 0.07625197
000280 96 d8 27 bb bc ed 46 b8 04 00 00 80 58 af 0c bb
       -0.0025611273 -4.7428286e-05 -6e-45 -0.0021466818
000290 5d 01 48 b8 19 b7 02 3b fc 8b 0e 39 b4 1c 1f ba
       -4.7684985e-05 0.001994556 0.00013594324 -0.0006069646
0002a0 3d 42 6e 2e bd 30 8d 2b 04 00 00 00 1e df 45 2e
       5.4173766e-11 1.003218e-12 6e-45 4.4990782e-11
0002b0 e3 a8 8d 2b be 50 33 ae 00 9e a0 ac b7 96 76 2d
       1.0065528e-12 -4.07716e-11 -4.565015e-12 1.40169465e-11
0002c0 f4 11 c4 3c 23 61 e8 39 04 00 00 80 0f b4 a4 3c
       0.023934342 0.0004432286 -6e-45 0.02010539
0002d0 f3 85 e8 39 94 61 8f bc bb d2 a1 ba f1 57 1c 3c
       0.00044350288 -0.017502584 -0.0012346128 0.009542451
0002e0 a3 bc 5c bd 99 ce 82 ba 04 00 00 00 9b 53 38 bd
       -0.053890835 -0.0009979784 6e-45 -0.045001607
0002f0 23 d7 82 ba da fa 20 3d 28 bb 81 3b c7 f0 98 bc
       -0.0009982329 0.03930173 0.0039590783 -0.0186695
000300 f4 17 0a 38 9d aa 23 35 04 00 00 00 d2 b4 e3 37
       3.2924072e-05 6.0970507e-07 6e-45 2.714471e-05
000310 77 db 23 35 80 46 c6 b7 a3 91 65 b6 c9 d2 2c 37
       6.1041595e-07 -2.3636268e-05 -3.420843e-06 1.0301076e-05
000320 b8 91 48 36 2f b6 6d 33 04 00 00 00 65 2b 25 36
       2.9887142e-06 5.5346558e-08 6e-45 2.4612175e-06
000330 b5 02 6e 33 fd 6f 13 b6 f4 80 b1 b4 c5 b9 5d 35
       5.5416155e-08 -2.1969893e-06 -3.3062645e-07 8.2599246e-07
000340 0d da 97 be f3 f8 b3 bb 04 00 00 00 85 eb 79 be
       -0.29658547 -0.0054923235 6e-45 -0.2440625
000350 ac 00 b5 bb 82 07 67 3e 09 04 01 3d f3 11 75 bd
       -0.0055237617 0.22561458 0.03149799 -0.05983157
000360 e2 0a c6 b0 90 b7 ea ad 04 00 00 80 5d da a6 b0
       -1.4409489e-09 -2.6684238e-11 -6e-45 -1.2140152e-09
000370 14 dc e8 ad 59 2b 55 30 c1 f5 77 2e c2 1a 87 b0
       -2.647308e-11 7.755055e-10 5.637957e-11 -9.830148e-10
000380 ca 74 31 ba 85 51 52 b7 04 00 00 00 6f 3a 14 ba
       -0.0006769417 -1.2535956e-05 6e-45 -0.0005654459
000390 94 1f 53 b7 19 49 07 3a 55 a6 2d 38 97 cb 42 b9
       -1.2583932e-05 0.00051607337 4.1401323e-05 -0.00018577125
0003a0 70 35 8c 2c 5d 2c a6 29 04 00 00 00 a8 a8 68 2c
       3.984972e-12 7.379577e-14 6e-45 3.3062806e-12
0003b0 fd 38 a6 29 3d 9f 67 ac 8a 61 f2 aa f0 03 39 2b
       7.381767e-14 -3.291547e-12 -4.3055517e-13 6.573067e-13
0003c0 c3 6b 2d 3d 35 89 4d 3a 04 00 00 80 31 04 0c 3d
       0.042339098 0.0007840575 -6e-45 0.034183685
0003d0 48 c2 4d 3a 47 81 0a bd ee a1 d9 bb e6 c1 8e 3b
       0.00078490796 -0.033814695 -0.006641618 0.0043566106
0003e0 5b 0d 1e 3f 33 52 3b 3c 04 00 00 00 12 9f 02 3f
       0.6173913 0.011433172 6e-45 0.5102397
0003f0 f3 27 3c 3c a1 3f ed be a9 8f 6c bd a7 30 1b 3e
       0.011484134 -0.46337608 -0.057754193 0.15155278

exp_avg_sq f4 [128, 8]
000000 22 9b 44 3e 27 15 8a 38 6b 82 8d 15 d0 65 07 3e
       0.19199803 6.584293e-05 5.715521e-26 0.13222432
000010 fa 12 8e 38 d4 99 08 3e dc e0 37 3b da 64 1e 3b
       6.774622e-05 0.13339931 0.002805761 0.0024169
000020 60 88 a2 29 af 4d e4 23 88 f1 90 14 bd 8f 55 29
       7.2179025e-14 2.475271e-17 1.4635551e-26 4.7420174e-14
000030 0f 57 e4 23 a0 77 1f 29 82 96 d6 26 43 56 de 27
       2.475668e-17 3.540885e-14 1.4890028e-15 6.1710903e-15
000040 df 57 8b 3f 15 bb c3 39 4f be 2d 14 fd 22 3f 3f
       1.0886191 0.00037332685 8.7718e-27 0.7466276
000050 b9 cb c3 39 ed 08 1c 3f 9b ae 4f 3c 53 4f 9a 3d
       0.00037345084 0.6095112 0.0126759065 0.07534661
000060 e8 76 20 36 0f 66 61 30 86 65 ac 13 27 9c dd 35
       2.391107e-06 8.1999557e-10 4.3519014e-27 1.651123e-06
000070 9a 7e 61 30 d8 5c b9 35 a3 88 dd 32 2e ef 31 34
       8.2034435e-10 1.3810595e-06 2.5789921e-08 1.6571423e-07
000080 ed 30 18 3f 08 c7 55 39 19 31 bb 13 36 52 d3 3e
       0.59449655 0.00020387408 4.725385e-27 0.4127366
000090 c0 3f 56 39 02 21 b4 3e 3b 8f b3 3b fe 00 10 3d
       0.00020432379 0.35181433 0.005479721 0.035157196
0000a0 62 95 b6 37 06 3c 00 32 45 a6 46 14 ff 6e 68 37
       2.1765652e-05 7.464228e-09 1.0029236e-26 1.3854121e-05
0000b0 49 3c 00 32 cf 50 20 37 e5 91 20 35 7d e5 14 36
       7.464288e-09 9.555558e-06 5.981695e-07 2.2187298e-06
0000c0 4e ef e8 3f 03 99 23 3a 4f 44 8f 14 ee 02 a2 3f
       1.819803 0.0006240757 1.4466253e-26 1.2657144
0000d0 15 f0 23 3a d8 79 8a 3f dd 30 82 3c 69 14 da 3d
       0.00062537316 1.0818434 0.01589244 0.10648424
0000e0 f9 d6 f9 3f 7f 78 2f 3a 11 af c8 14 7f c8 ac 3f
       1.951873 0.00066936755 2.026389e-26 1.3498687
0000f0 c3 e1 2f 3a 82 72 92 3f 3a e5 a1 3c 11 57 f1 3d
       0.00067093613 1.1441195 0.019762624 0.11784185
000100 d6 4b 8e 2e ee e0 c7 28 c9 f8 03 14 72 f7 4c 2e
       6.4708836e-11 2.2190986e-14 6.662874e-27 4.6604005e-11
000110 48 d5 cb 28 05 bb 3f 2e a7 05 d3 29 8a 0d 16 2c
       2.2630023e-14 4.359448e-11 9.371263e-14 2.1323798e-12
000120 7c dd e3 36 80 09 20 31 30 2e e5 15 5a 9a 97 36
       6.7909114e-06 2.3288464e-09 9.2565234e-26 4.5181196e-06
000130 72 10 20 31 24 29 66 36 fb fe 02 34 1a 69 16 35
       2.3292412e-09 3.4296618e-06 1.2199955e-07 5.60323e-07
000140 5e 98 b5 40 89 14 ff 3a 55 b6 c2 15 59 23 7b 40
       5.6748495 0.0019461076 7.8643645e-26 3.9240324
000150 44 6e ff 3a 34 a0 53 40 ca 95 68 3d fc a1 b3 3e
       0.0019487818 3.306653 0.056783475 0.35084522
000160 b0 fd 9c 3f fe 84 dc 39 bd 7f 1a 14 f7 e4 5a 3f
       1.2264919 0.00042060757 7.800205e-27 0.8550562
000170 5b a3 dc 39 0c aa 39 3f b4 da 23 3c 67 4e 9a 3d
       0.0004208338 0.72525096 0.010000873 0.07534485
000180 bc 82 d7 3f 20 5c 17 3a b2 c8 f6 13 f4 4b 95 3f
       1.6836772 0.00057739206 6.229703e-27 1.1663804
000190 41 b5 17 3a bc 01 7e 3f b8 8f 86 3c 93 69 cd 3d
       0.0005787202 0.99221396 0.016425952 0.10029902
0001a0 3b b7 86 2a e9 3a bd 24 2a ad 30 14 f7 a9 3a 2a
       2.3930323e-13 8.206548e-17 8.91988e-27 1.6579087e-13
0001b0 fb ba be 24 39 d1 1f 2a 5e c4 23 27 ba 5c 66 28
       8.271612e-17 1.4194626e-13 2.2727245e-15 1.2787672e-14
0001c0 d4 08 39 40 a3 f4 81 3a 84 b3 35 15 94 6b 00 40
       2.8911638 0.0009914826 3.6694272e-26 2.006566
0001d0 cc 34 82 3a 48 87 da 3f 49 53 d9 3c 89 b5 2f 3e
       0.0009933948 1.7072535 0.026528971 0.17159094
0001e0 aa 8f 9d 30 1c 52 dd 2a c5 94 4f 13 ba 2c 46 30
       1.1464085e-09 3.931446e-13 2.6200422e-27 7.209554e-10
0001f0 b7 6d dd 2a 66 1a 09 30 05 10 16 2e 93 4f f9 2e
       3.9333616e-13 4.9877824e-10 3.412028e-11 1.1337344e-10
000200 5d 3c 97 38 5d 6f d4 32 2e 57 62 15 48 48 45 38
       7.2114846e-05 2.473069e-08 4.570911e-26 4.7035777e-05
000210 6d 85 d4 32 99 9e 13 38 56 c2 d9 35 88 c6 cd 36
       2.4740723e-08 3.5195237e-05 1.6224319e-06 6.132588e-06
000220 ca d7 48 3f f7 0e 8d 39 f6 b4 13 13 30 60 0b 3f
       0.7845427 0.00026904765 1.864323e-27 0.54443645
000230 7a 58 8d 39 d5 f6 ec 3e a9 d5 ed 3b aa b4 3f 3d
       0.00026959536 0.46282068 0.0072581363 0.046803154
000240 af 54 06 25 ee b0 3c 1f 99 c3 2c 14 4e d5 6d 24
       1.1651339e-16 3.99569e-20 8.722356e-27 5.157186e-17
000250 0f b1 3c 1f 1c 8a 90 22 64 f3 21 22 be ee 2b 22
       3.9957008e-20 3.9177507e-18 2.1948419e-18 2.330121e-18
000260 99 56 6b 3f 18 49 a5 39 3a a9 32 15 92 80 23 3f
       0.9192901 0.00031525712 3.608031e-26 0.6386806
000270 4d b4 a5 39 1a 12 0c 3f 8d de 07 3c 0f 2b 58 3d
       0.00031605587 0.5471512 0.008292806 0.05277544
000280 05 69 bd 38 4f 07 05 33 83 4e 03 15 f4 be 86 38
       9.031784e-05 3.0973123e-08 2.6517174e-26 6.425186e-05
000290 8e 55 05 33 79 3a 6d 38 9b 5f b5 34 33 f0 99 36
       3.1044287e-08 5.655966e-05 3.378344e-07 4.587718e-06
0002a0 14 a9 07 26 bb 8e 3e 20 ed 55 b9 14 f6 19 56 25
       4.706668e-16 1.6140852e-19 1.8714118e-26 1.8570337e-16
0002b0 07 90 3e 20 27 34 76 24 53 8c 08 24 6c b1 cd 23
       1.6141281e-19 5.338692e-17 2.9609158e-17 2.2301286e-17
0002c0 bf 05 20 3d 10 c7 60 37 c8 7b fb 13 91 d2 df 3c
       0.03906798 1.3397788e-05 6.3483366e-27 0.027322086
0002d0 70 99 61 37 f8 75 c5 3c 1c c6 ab 39 8f 4e 06 3b
       1.344677e-05 0.024104103 0.00032763265 0.0020493602
0002e0 56 cd d8 3d 47 44 18 38 d1 32 93 14 84 de 96 3d
       0.1058604 3.6303212e-05 1.486325e-26 0.0736666
0002f0 ad 67 18 38 75 2e 7f 3d 3d 21 6c 3a 17 4e d3 3b
       3.633618e-05 0.062300164 0.00090076384 0.006448518
000300 08 a5 b7 32 c7 fa 00 2d 4e 07 9d 14 a2 db 74 32
       2.1379051e-08 7.331641e-12 1.585583e-26 1.4252608e-08
000310 ff 02 01 2d 28 1d 3c 32 22 6e cf 2f 75 f7 ec 30
       7.333466e-12 1.094967e-08 3.7731335e-10 1.7241591e-09
000320 9b 4c f5 2e 1b 48 2c 29 f9 55 7a 13 a4 05 a3 2e
       1.1154918e-10 3.8254214e-14 3.1596824e-27 7.413384e-11
000330 9d 4d 2c 29 37 01 78 2e 7c e1 0f 2c 39 c3 22 2d
       3.825899e-14 5.638975e-11 2.0446691e-12 9.251982e-12
000340 70 b9 d1 3f c8 4b 13 3a c6 56 d1 13 88 cf 90 3f
       1.6384716 0.0005618897 5.2844583e-27 1.1313334
000350 d2 89 13 3a 25 9f 74 3f c9 b1 8b 3c c0 79 ce 3d
       0.0005628142 0.95555335 0.017052548 0.10081816
000360 a2 4d 37 27 5c bd 80 21 52 43 56 14 50 de f7 26
       2.5438437e-15 8.72374e-19 1.08175155e-26 1.7199326e-15
000370 87 c3 80 21 5d 96 bc 26 c9 b8 46 24 60 89 5b 25
       8.725373e-19 1.3085877e-15 4.3090925e-17 1.9041767e-16
000380 27 33 0f 37 ce 25 49 31 f0 6a 00 15 32 d6 c9 36
       8.535374e-06 2.927084e-09 2.5933753e-26 6.0152024e-06
000390 7a fa 49 31 1a 0b b1 36 16 6b 5a 33 53 2c ed 34
       2.939173e-09 5.2763035e-06 5.0854474e-08 4.417694e-07
0003a0 04 92 e0 21 af b8 1d 1c 71 50 58 14 4b 60 5b 21
       1.521748e-18 5.218564e-22 1.09210774e-26 7.432753e-19
0003b0 b1 b8 1d 1c 14 70 a9 1f 16 d9 2e 1e f6 17 0f 1e
       5.218565e-22 7.17597e-20 9.256376e-21 7.575312e-21
0003c0 e6 6b 62 3e ec 05 9f 38 87 b8 33 14 4b 44 1a 3e
       0.22111472 7.582814e-05 9.073582e-27 0.15065114
0003d0 ec 31 9f 38 53 8f 00 3e f2 89 4b 3b 2f 8c 6e 3c
       7.5910095e-05 0.12554674 0.0031057564 0.01455979
0003e0 a9 89 5e 40 97 4b 9c 3a 47 c1 36 15 ac 83 1b 40
       3.477152 0.0011924383 3.6907076e-26 2.4299116
0003f0 5f 99 9c 3a cf 8f 06 40 4b bb de 3c a6 ed 45 3e
       0.0011947564 2.1025274 0.027188918 0.19328937

exp_avg f4 [128]
000000 2b f4 2d 3b 83 17 2e 31 14 0d fa 3a 8e 59 88 37
       0.002654324 2.5333697e-09 0.0019077384 1.6254166e-05
000010 81 5b c2 bb 0a 9d c0 37 09 44 5f 3c 70 24 8e bb
       -0.0059313183 2.296131e-05 0.013627061 -0.00433784
000020 13 ce e7 32 17 ce fe 36 a3 18 dc 3c ab 11 3e 3c
       2.6985651e-08 7.593782e-06 0.026867216 0.011600892
000030 96 e7 9d 3b 61 8c 89 31 c7 1d 99 3c 57 82 b5 b3
       0.004818867 4.003184e-09 0.018690957 -8.452178e-08
000040 7d e9 96 38 1f fc 04 bc 6c 5f 59 2c 4f 0b 2e 3c
       7.196048e-05 -0.008116751 3.0890525e-12 0.010622813
000050 bd ed c6 b8 bd 30 0d 2c 22 61 68 3a 99 ce 02 bb
       -9.485658e-05 2.006436e-12 0.00088645716 -0.0019959568
000060 9d aa a3 35 2c b6 ed 33 f2 f8 33 bc 95 b7 6a ae
       1.2194101e-06 1.10693094e-07 -0.010984646 -5.3368494e-11
000070 88 51 d2 b7 5f 2c 26 2a 36 89 cd 3a 32 52 bb 3c
       -2.5071917e-05 1.4759156e-13 0.0015681151 0.022866342
000080 50 f0 6a b9 2f 7e b1 3c 27 6c b8 b9 6c b2 f8 3b
       -0.00022405502 0.021666614 -0.00035175795 0.007589629
000090 ce d0 c0 bb 22 c4 14 35 47 95 f8 a1 63 12 49 3a
       -0.0058842665 5.541971e-07 -1.6844647e-18 0.00076702813
0000a0 62 1a 8d bc 8b 84 bf 36 85 9c 25 b9 57 82 54 3a
       -0.017224494 5.7076736e-06 -0.00015793934 0.00081065804
0000b0 92 1f 58 32 9e 00 86 36 09 d0 c3 3c ef 68 70 b7
       1.2580033e-08 3.993583e-06 0.02390291 -1.43295465e-05
0000c0 d4 ed 44 3a c2 e5 5a 39 34 03 05 39 9f 42 b3 31
       0.0007512246 0.00020875692 0.00012685062 5.2171596e-09
0000d0 2f f8 ea b4 68 4e 12 b9 d2 d2 1f 3c d1 97 9c bb
       -4.3766474e-07 -0.00013952854 0.009754853 -0.00477884
0000e0 df 2d 70 b4 d8 f3 85 bb d4 21 e6 bb c3 f4 d0 bb
       -2.236843e-07 -0.0040879063 -0.0070230756 -0.006376834
0000f0 d5 7f 5e b8 55 48 c2 36 5a 76 0c b6 8a 0e 3f 33
       -5.3047977e-05 5.790071e-06 -2.0930515e-06 4.4483876e-08
000100 d1 0d c3 3b d0 51 3b bc 76 a0 bf 3b ea f7 36 b4
       0.005952575 -0.01143308 0.005847986 -1.7040261e-07
000110 69 06 1a 3c d5 37 8b 3b f2 6c 83 bc 8b a4 80 3b
       0.009400942 0.004248599 -0.01604316 0.003925865
000120 21 14 86 ba 9f b4 05 3b ee 0f 26 bc 33 3f f2 3a
       -0.0010229388 0.0020401848 -0.010135634 0.001848197
000130 49 38 0d 2c d0 d4 38 bc cd ad 41 b7 db db d4 ba
       2.006855e-12 -0.011281207 -1.1544163e-05 -0.0016239838
000140 ce 0d 98 3c 6e 51 37 3b 40 07 f5 3b 5c dd dd 3c
       0.01856127 0.002797212 0.007477671 0.027083091
000150 69 bd 55 33 c4 d5 f2 b3 0e 19 bb 33 a5 82 e3 3a
       4.9765195e-08 -1.1307887e-07 8.7124235e-08 0.0017357661
000160 78 03 97 bb 7d 90 51 2e d1 0b b1 3b aa d6 0e 2d
       -0.004608568 4.764943e-11 0.00540302 8.1194305e-12
000170 6b 47 01 bc 57 80 f5 33 ba 10 c1 3b 37 41 09 3c
       -0.0078905625 1.14320464e-07 0.0058918865 0.008377365
000180 19 f6 f2 2b f6 13 b5 bc 8c 44 67 bc 90 a8 87 ae
       1.726344e-12 -0.022104245 -0.014115464 -6.169032e-11
000190 e2 42 24 38 96 9b 80 b6 63 1f 80 b4 56 ce 2c 37
       3.9162936e-05 -3.83281e-06 -2.3864695e-07 1.030004e-05
0001a0 43 50 4e bc 17 09 d3 38 9b 39 44 b2 ec f9 59 3c
       -0.012592378 0.00010062957 -1.14217995e-08 0.013304215
0001b0 43 28 76 3c 67 32 12 b5 7b 8c 47 3b c2 92 78 27
       0.015024248 -5.4462583e-07 0.0030448723 3.4496471e-15
0001c0 65 f4 f4 ba dd ed bc 3c 73 e2 03 b8 11 b4 53 3c
       -0.0018688558 0.02306264 -3.144373e-05 0.012921349
0001d0 f6 eb d3 3c 9a ce 6d b9 f6 b5 b5 bb 69 18 30 b6
       0.02586935 -0.00022679046 -0.005545373 -2.6240252e-06
0001e0 6f b1 d8 29 9c 51 98 3a f3 43 2a bc 5f 64 ca 33
       9.623107e-14 0.0011621001 -0.010392177 9.4246154e-08
0001f0 4b fe 81 b7 19 c9 a5 3b 41 0a 20 b9 e5 28 c5 ac
       -1.5496413e-05 0.005059373 -0.00015262609 -5.603617e-12

exp_avg_sq f4 [128]
000000 26 15 8a 39 b0 4d e4 24 16 bb c3 3a 0e 66 61 31
       0.00026337168 9.9010846e-17 0.0014933075 3.279982e-09
000010 08 c7 55 3a 05 3c 00 33 03 99 23 3b 7e 78 2f 3b
       0.0008154963 2.985691e-08 0.0024963028 0.00267747
000020 ee e0 c7 29 81 09 20 32 8a 14 ff 3b ff 84 dc 3a
       8.8763944e-14 9.315387e-09 0.007784431 0.0016824304
000030 20 5c 17 3b e8 3a bd 25 a2 f4 81 3b 1c 52 dd 2b
       0.0023095682 3.282619e-16 0.00396593 1.5725784e-12
000040 5d 6f d4 33 f7 0e 8d 3a ee b0 3c 20 18 49 a5 3a
       9.892276e-08 0.0010761906 1.598276e-19 0.0012610285
000050 50 07 05 34 bb 8e 3e 21 0f c7 60 38 48 44 18 39
       1.238925e-07 6.4563406e-19 5.359115e-05 0.00014521286
000060 c7 fa 00 2e 1c 48 2c 2a c8 4b 13 3b 5c bd 80 22
       2.9326565e-11 1.5301687e-13 0.002247559 3.489496e-18
000070 cd 25 49 32 af b8 1d 1d ec 05 9f 39 97 4b 9c 3b
       1.1708335e-08 2.0874256e-21 0.00030331255 0.004769753
000080 2b 6b 3b 35 04 5e bd 3b 11 ad af 35 f9 e3 6b 3a
       6.981888e-07 0.00577903 1.3088885e-06 0.0008998509
000090 db c2 34 3b 27 7a 70 2c b5 57 e3 20 7d 07 eb 39
       0.0027581963 3.417386e-12 3.8513335e-19 0.00044828272
0000a0 3d f1 3e 3b 15 9a 7f 30 66 a2 1b 38 b8 ac a5 39
       0.0029135488 9.2987423e-10 3.7106125e-05 0.00031599938
0000b0 53 67 96 28 e2 56 85 30 11 2a c1 3b 6f 84 57 31
       1.6698155e-14 9.701717e-10 0.0058949073 3.1361898e-09
0000c0 fb f4 2d 37 7e 84 24 35 b3 ad 75 34 15 b6 c8 26
       1.03686425e-05 6.128756e-07 2.2880594e-07 1.3927141e-15
0000d0 ae 40 73 2d f9 8b d9 35 78 a2 81 3a 43 63 b1 3a
       1.38273126e-11 1.6208497e-06 0.0009890338 0.0013533611
0000e0 54 8e f0 2f 26 19 81 3a ca 6e 19 3a 1f 05 fd 39
       4.3756876e-10 0.0009849414 0.00058529957 0.00048259736
0000f0 0b 16 e6 33 97 38 cf 2f b7 55 76 2f d3 72 3a 2e
       1.0714219e-07 3.769329e-10 2.2404022e-10 4.2393488e-11
000100 ca af 14 3b df b0 25 3b 09 8f 51 3b c5 32 17 2b
       0.0022687786 0.0025282425 0.0031976125 5.3716433e-13
000110 0a d8 0d 3b 65 90 88 39 69 80 67 3b 0f bc 39 39
       0.0021643662 0.00026047524 0.003532434 0.00017713032
000120 bd e8 b7 38 fe 41 07 39 dc 54 f9 3a 30 4f 2d 3a
       8.769471e-05 0.00012899187 0.0019022482 0.0006611226
000130 42 c7 a2 1e 16 0a e0 3a 07 40 1a 34 89 3e 85 3a
       1.7234828e-20 0.001709285 1.436566e-07 0.0010165732
000140 80 23 77 3b 9e 56 06 3a f8 99 46 3a d3 ec fb 3b
       0.0037710369 0.00051246013 0.0007576044 0.0076881438
000150 91 f7 35 2a d5 d7 00 2c d4 d3 60 2a cd f6 3c 3a
       1.6161921e-13 1.8309705e-12 1.9968689e-13 0.0007208407
000160 34 be 9f 3a 7b 10 04 21 eb a2 2f 3a b0 67 af 1f
       0.0012187422 4.474515e-19 0.0006699997 7.428692e-20
000170 c1 b5 c8 3a d9 17 43 2c b6 12 6d 3a 9a 0f 47 3a
       0.0015312956 2.7724405e-12 0.00090436207 0.00075935724
000180 6a 4f c4 1e d1 f7 b4 3b c9 a9 a7 3b 53 21 93 20
       2.0785152e-20 0.005522706 0.0051166755 2.492482e-19
000190 e5 77 ca 33 90 d5 15 34 83 8a 57 2c 42 77 4f 32
       9.428167e-08 1.39544e-07 3.0630227e-12 1.2076102e-08
0001a0 cf b6 3e 3b 7c 1c 29 34 bd 1f cb 29 28 f2 e6 3a
       0.0029100662 1.5749714e-07 9.020517e-14 0.0017619776
0001b0 ce 2b 5f 3b 0c 04 ca 2c 3f a5 0c 39 2a c3 42 1a
       0.003405321 5.7416346e-12 0.00013413 4.0275912e-23
0001c0 fa 48 34 39 60 a8 c2 3b 9f 19 88 32 1b a5 09 3b
       0.00017193324 0.005940482 1.5844135e-08 0.0021002952
0001d0 3e b3 df 3b 2c 8b f2 3a 4c a9 6e 3b cd cf 04 30
       0.0068267873 0.0018504611 0.0036416827 4.8316623e-10
0001e0 56 7f 81 1d 06 fe 90 37 6c 1e bb 3a 7d ec fc 2c
       3.4277678e-21 1.7284427e-05 0.0014276034 7.1885262e-12
0001f0 cd 11 ff 31 c4 89 af 39 b8 87 9f 35 cb b9 44 1c
       7.4235005e-09 0.00033481244 1.1885923e-06 6.509109e-22
