mlagents/Assets/results/RollerBall/RollerBall/RollerBall-256085.pt (torch, 445343 bytes, 36 tensors)

network_body._body_endoder.seq_layers.0.weight f4 [128, 8]
00000000: c2a0 f23e 187b b4be 440a 433f 5175 35bf
00000010: 1227 c8bc 4683 86be 49bc cbbd cc50 06bf
00000020: a8d7 90bd c1ee a73e 64b7 9ebe af41 dcbe
00000030: b686 603e 5882 8d3e 9abf fa3d 3630 ac3d
00000040: c88c b8bd 125f e5be 075d 76bd 42e6 ec3e
00000050: d4a2 dfbe f96b bc3e d894 b23e b983 d23e
00000060: 1488 aebe 6f2b 1dbf 05ce ebbe 2dd0 06be
00000070: 3cba debe c6af e7bd 7094 e33d c48b b43e
00000080: ccac 1f3c 846d 713d 7f67 6dbe 2838 143d
00000090: 9ef5 93be e4be e7be b21f f6bd 52f2 373e
000000a0: 0ab0 513d 60e1 693e 069e fabe 621f 363c
000000b0: aaad 38bf 385a 093f 2653 2cbd 6914 0c3f
000000c0: 0db4 99be f187 00bf f5b4 a0bb 9d0b 5b3f
000000d0: 00bd 6c3e b411 30be 7641 cbbd 34de 7d3e
000000e0: a183 283f 02f3 b73d 2d1e aebd 6751 c5be
000000f0: f04a 0abf 5476 28bf 63f0 693e d38f 8dbe
00000100: ff84 d8bd e0a4 c0be 3eab 7d3e a063 29bf
00000110: ea34 bb3c 56f4 68be 84e3 1b3f 9b92 f7bd
00000120: 92f6 6bbe 9df8 2c3f ddc8 e0be 96c8 4c3e
00000130: 2a30 ff3e 488d cc3e 5c52 a93d e3fb 293e
00000140: de48 8a3d 6d94 223e fc91 0a3f 756d f93e
00000150: d9ff c3be 2367 4abf 6485 3f3f 7d62 56bf
00000160: c31e 0bb9 98ce d53e bf16 c13c 738e 873e
00000170: 3a42 ddbd c20f 933e 4532 b33e 0fbc 143f
00000180: 7e8d 98bd 7b51 2abf e056 113d 7f9f fb3e
00000190: 893e ddbe aad8 103d 5a86 d13e cb8f afbc
000001a0: 82f0 edbd 957b 3fbc 4359 083f c3d7 84be
000001b0: 74a9 12bf 0976 903e 03e1 2c3e cf47 51be
000001c0: fc19 2fbf 0be0 8abe ef1a a03e a8ad f73e
000001d0: df99 3cbc 7f9e 0ebf d9a5 803e cd37 803e
000001e0: 0dd4 913d 8e21 94bf 6c01 233d 6f4a a63d
000001f0: d947 f33b 7e58 383f b14c c1be 5b7b 6fbe
00000200: a866 993e e74e 64be 7999 9bbe d521 adbe
00000210: adfd 6e3e 24d4 af3e 1dd1 8dbe 00b0 8abd
00000220: bdc9 b63d f9a7 b4be 44d3 bfbe f3f5 35be
00000230: a697 76be c2f1 c4be fac8 ff3d 761b bb3e
00000240: f28a 85be a8fa 023e d912 81bc 9e65 c8be
00000250: 6d6d 9d3e 842f f43e b107 4a3d 39ce d13d
00000260: 5099 8cbe 4034 d1be 441b 6a3e 92b7 f83d
00000270: 560d e0bd cd10 3cbf 4638 3ebe f5bc b8be
00000280: 25ad 32bf d01c 1cbf 0bf3 153f 72d0 533f
00000290: 8111 f5be 9657 903e 2c3a b63e 6657 143d
000002a0: 3177 f9bd 43cb 8b3e 04a1 71be 9b84 0dbf
000002b0: cbab c1bd 32ec c73e bdaa ae3e 156d 31be
000002c0: 01f5 2abe 7ce1 c13e d39e 4bbe 13af 713e
000002d0: 9f7f b7bd d561 06bf 3c7d d0be 2dd4 5f3c
000002e0: 3023 843e 5817 d13e b774 23bf 5c42 de3d
000002f0: 3887 9e3e df0a 323d b87e 893e 1a10 24bf
00000300: 3036 2bbd 467d 833e 0b57 a03e 4f51 80be
00000310: db9c b93d 2fe6 733e 946c e03b 477e 003e
00000320: d58a 863c 561e b1be 74a9 50be 06ad b7be
00000330: c264 10bf 8b9c 903e a91b 393e fdfb 573e
00000340: 0553 393e 58e2 4ebf 785f 08bf fbc0 8b3e
00000350: b964 d7be 2bd2 823e 2690 17be f39b 093f
00000360: 26f1 dabe 7e53 d03e 7d05 ba3d db89 433e
00000370: ac40 9d3e 2a02 093f a18b 2f3c 8980 6bbe
00000380: 30c7 0abf 3634 44bf 8b37 c33e e2df af3e
00000390: d85c aabe c3a1 93bd 8be5 963d 6078 25bd
000003a0: 832d cbbe 28c9 613e 89a3 06bf b540 e5be
000003b0: 6039 8e3e 56b1 c63e bcb0 afbe 7d50 b83d
000003c0: 233c afbc 928d 6e3e 8ece 3e3e 3708 6d3d
000003d0: 6768 90be 1691 2e3d 7004 f2be 37a9 3c3d
000003e0: 6806 04bf dae5 3c3f 4af1 d0bd 5921 263e
000003f0: 07da 703f 3826 30bf 2053 293f 1fd3 47be
0.47388273 -0.35250163 0.7618754 -0.70882136 -0.024432693 -0.2627203 -0.09948022 -0.52467036
-0.07072383 0.32799342 -0.3099929 -0.43018863 0.21926388 0.27638507 0.12243576 0.08407633
-0.09011227 -0.44799095 -0.06014731 0.46269423 -0.43678916 0.36801127 0.34879184 0.4111612
-0.34088194 -0.613944 -0.46055618 -0.1316535 -0.4350146 -0.11312823 0.111122966 0.35262883
0.009745788 0.058942333 -0.23184012 0.036186367 -0.2889833 -0.45262825 -0.12017764 0.17963532
0.051193275 0.2283988 -0.48948687 0.011115881 -0.7213999 0.5365329 -0.042071484 0.54718643
-0.3002018 -0.5020743 -0.0049043843 0.85564595 0.23118973 -0.17194253 -0.09924595 0.24791795
0.6582585 0.08981897 -0.08501849 -0.38538668 -0.54020596 -0.65805554 0.22845607 -0.27648792
-0.10572242 -0.3762579 0.24772355 -0.6616764 0.02285238 -0.22749457 0.60894036 -0.1208851
-0.23043278 0.67566854 -0.43903247 0.19998392 0.49841434 0.3995154 0.08267662 0.16599993
0.067521796 0.15876932 0.54129004 0.48716322 -0.38281134 -0.79063624 0.7481291 -0.8374403
-0.00013267533 0.4175918 0.023570416 0.26475868 -0.10803647 0.2872296 0.3499929 0.58099455
-0.074488625 -0.6653058 0.03548324 0.49145123 -0.43211773 0.035362877 0.40922815 -0.02143087
-0.11618139 -0.011687179 0.532612 -0.25945863 -0.57289815 0.28215054 0.1688271 -0.20437549
-0.68399024 -0.27124056 0.3127055 0.48374677 -0.011511295 -0.55710596 0.25126532 0.25042573
0.071205236 -1.157274 0.039796278 0.08119666 0.0074243364 0.7201003 -0.37753823 -0.233869
0.29961133 -0.22295724 -0.30390528 -0.33814874 0.23338957 0.34341538 -0.27698603 -0.067718506
0.08925197 -0.35284403 -0.3746587 -0.17769603 -0.24081287 -0.38465697 0.12489505 0.3654439
-0.2608257 0.1279093 -0.015756058 -0.39140028 0.30747548 0.47692502 0.04932374 0.10244412
-0.27460718 -0.40860176 0.22861964 0.12144388 -0.10940044 -0.73463136 -0.18576154 -0.36081663
-0.6979545 -0.60981464 0.5857398 0.8273994 -0.47864917 0.28191823 0.35591257 0.036216162
-0.12180937 0.27303514 -0.23596579 -0.55280465 -0.09456595 0.3904739 0.34114638 -0.17326768
-0.16695024 0.37867343 -0.19884805 0.23601942 -0.08959889 -0.5249303 -0.40720546 0.0136614265
0.25808096 0.40838122 -0.6384997 0.10852501 0.3096254 0.0434674 0.2685449 -0.6408707
-0.041799724 0.25681514 0.3131641 -0.25062034 0.09063121 0.23818277 0.006848881 0.12548171
0.016423622 -0.34593457 -0.20377141 -0.35874194 -0.56403744 0.28244433 0.18076958 0.2109222
0.18098076 -0.80814123 -0.53270674 0.2729567 -0.42069033 0.2555097 -0.14801082 0.53753585
-0.42762107 0.406887 0.09083078 0.19095556 0.30713403 0.5351893 0.0107144425 -0.22998251
-0.54210186 -0.7664217 0.38128313 0.34350497 -0.3327396 -0.07208588 0.073680006 -0.040398
-0.3968316 0.22049391 -0.52593285 -0.4477593 0.2777815 0.38807172 -0.34314525 0.08999727
-0.02139098 0.23296192 0.18633482 0.057869162 -0.28204653 0.042618833 -0.4726901 0.046059813
-0.51572275 0.73788226 -0.10202272 0.16223659 0.94082683 -0.6880832 0.66142464 -0.1951413

network_body._body_endoder.seq_layers.0.bias f4 [128]
00000000: 4cf1 3b3e 0976 bbbd 221a 2c3d 5334 b0bd
00000010: b661 d2bd 9a85 f6bd adb0 193d 3da6 f53b
00000020: 6ea5 e8bd b916 dc3d ff3f 6e3d c2c2 05bd
00000030: d9ba 90bd ebe3 51be 62c8 af3d f838 e8bd
00000040: 2821 543c 1b66 22be 15db 5bbd 182b b9bd
00000050: 0dcd f53d d915 103d 2d6f 4ebe fc1f ef3d
00000060: e8a0 51bc 5b25 48be cd69 31bd 60d1 1c3b
00000070: 65f2 c33d e19e acbc e68b b43b ed8e c43d
00000080: 662f 63bc e682 0a3e 4d8e af3d e127 6e3d
00000090: b26c a63d fa91 a5be 4d9b 77bc 9817 8dbd
000000a0: 99b5 e53d 505d 95bc 7679 f0bc fe8b a3bd
000000b0: 142a 8abc d267 7dbd 8f58 823d ff68 8ebd
000000c0: e212 eb3c 57e8 f43d 5471 6dbc 8ec1 92bd
000000d0: ae1d 20be 648d bcbc e5ff b4bd 684a 16bd
000000e0: 0400 553d 4680 c93d 0695 5eb7 4896 e6bd
000000f0: bb18 813d b1d5 8d3c bdb8 89bc 6c45 233d
00000100: 8f5b ca3c 7f0b 4e3d 9c78 17bc 8d6b f23d
00000110: de81 e33d 297d 213e ccc4 3e3d fc6e 08be
00000120: a61a 103d 6815 2fbd b01d 193b e0bd 1cbe
00000130: eb05 41bc e88b ee3d 101e 303e df65 0abd
00000140: b9aa 083e ce34 783d aaa4 c33c c29e 1b3e
00000150: 752f f53c d5eb 063d 8a8d 85bd 5267 2fbd
00000160: 59d0 0abd a77c 23be a335 6e3c 9cb0 84bd
00000170: b45a af3c a9f6 79bd 23c8 f2bd 6f85 393e
00000180: 956c 013e 7820 ac3d 5edf 223e 0fa4 32bd
00000190: 8980 1c3d 8d79 14be b761 28bc 964a a93b
000001a0: 82ee ec3d 7f68 a73d ecb6 593d ec5e 94bc
000001b0: dbbb 2e3e 9927 153d 5950 2bbc d2c0 89bc
000001c0: 806e 863c a684 c73d f5c2 78bd db61 96bd
000001d0: 9433 313d db3e 0d3b e8a4 c63d 2541 3a3d
000001e0: a6da a83d 00bc 603d 238e bfbc d07b 46be
000001f0: 1dba a6bc eea4 34bd f494 f1bd 4bec a7bc
0.18353766 -0.09153373 0.04201711 -0.0860373 -0.10272543 -0.12037201 0.037522007 0.007496624
-0.11359678 0.107465215 0.0581665 -0.03265644 -0.07066888 -0.204971 0.08583142 -0.11338991
0.012947358 -0.15859263 -0.05367573 -0.090414226 0.12002001 0.035177086 -0.20159598 0.116760224
-0.012794711 -0.195455 -0.04331379 0.0023928508 0.095677175 -0.021071853 0.0055098413 0.095975734
-0.013866281 0.13526496 0.085720636 0.0581435 0.08126201 -0.32337934 -0.01511271 -0.06889266
0.11216278 -0.018232971 -0.029354792 -0.07985686 -0.016865768 -0.06186659 0.063645475 -0.0695362
0.028695527 0.11958378 -0.014492352 -0.07165824 -0.15636322 -0.023016639 -0.088378705 -0.036692053
0.052001968 0.09838919 -1.3266928e-05 -0.112591326 0.06303545 0.01731381 -0.016811723 0.039861128
0.024701862 0.050303932 -0.009245064 0.1183692 0.111087546 0.15770401 0.0465744 -0.13323587
0.035181664 -0.042745024 0.0023363642 -0.15306807 -0.011781196 0.11647779 0.17198968 -0.033788558
0.13346376 0.060597233 0.023882229 0.1519728 0.029929856 0.03293975 -0.06521137 -0.042823143
-0.033890102 -0.1596552 0.014539155 -0.06478998 0.021405555 -0.06102625 -0.11854579 0.18117307
0.12639077 0.084046304 0.1590552 -0.04361349 0.03820852 -0.14499493 -0.010277203 0.005166362
0.11568929 0.08174228 0.053152964 -0.018111669 0.17063849 0.036414716 -0.010456168 -0.016815577
0.016410112 0.097420976 -0.0607328 -0.07342883 0.04326208 0.0021552357 0.09699422 0.045472283
0.08244829 0.05486679 -0.023383206 -0.19383168 -0.020352418 -0.0441026 -0.11795989 -0.020498415

network_body._body_endoder.seq_layers.2.weight f4 [128, 128]
00000000: 62fa 713d 6bf9 4bbd 6057 5abe f8bc 073e
00000010: 18cf 85be d2e9 1c3d 683b 9fbd 8ed4 be3d
00000020: 3dbb 063e bd86 d63c 57cb 8cbd 1392 153e
00000030: 5491 58be 117f 94bd b28a cdbd 03d0 62be
00000040: ae92 04be d0d1 463d f775 abbb 297e 2f3d
00000050: e734 e2bb 3072 dc3d b7e2 173e c4ba fcba
00000060: 04dc f53d 6417 1dbb 0908 f7bd 4a36 81be
00000070: b9b1 47bd 5610 a3bd 2f88 173c b49f 9f3d
00000080: a866 373e 5b58 ffbd 5456 9ebd 5508 513d
00000090: 3b85 60bd 7822 183e eb26 3abd 9020 bc3d
000000a0: 8db7 8e3d 4dfb 0dbd 2e65 833c 2c22 8bbd
000000b0: 9ca2 96bd cff3 a83d e253 2ebd 0ffa bcbd
000000c0: 51e2 1cbe 1135 bd3d f5ed 69b9 56d7 13bd
000000d0: cfbc fa3d 11fe cb3d 69ad db3c b089 a6be
000000e0: ee3c c43d b575 093e 4a90 d1bb 1b33 dbbd
000000f0: 6043 433e 4fea 02be 0981 9b3d d73f 8cbd
00000100: c689 9ebd a17b a43d 6b5c 32be 50b2 9cbd
00000110: c596 013e 240f 543d 8709 433c 3ab1 d03c
00000120: 0d32 74bc 60e8 40bb 6f2a 923d c2ff 75bd
00000130: 1c4a 433d 02f6 41bc fa42 a4bd 8419 033e
00000140: fe68 b53d 55c8 17bd 2bfa c73d 1c1b c23c
00000150: 207f 24be 1164 debd a6ac dc3d 9876 3ebd
00000160: 6987 6d3c 01b3 76bd b473 3dbe a7f3 ea3c
00000170: e14f a5bc 1060 a3bd 5778 723d e79c 713d
00000180: 427b 28be c5c4 513d 1e46 8b3d e13e 123d
00000190: 15e0 febd 9846 0dbe 6f32 b6bc 4116 323c
000001a0: fd72 3c3e 88eb 72bd 8b04 81bd c312 8bbc
000001b0: 6c91 19bc 6dbd 32bd 69ea 9bbd f285 ecbd
000001c0: 88f4 473d ee19 433e 3e9a 75bd 2a4d 363e
000001d0: e980 253e dd8d 183e 0ecc a63d b6db 003d
000001e0: 10bf 18be 33d9 2fbd aebe ca3d 3a65 8e3d
000001f0: 599e 83bc f043 aaba aba2 ca3c 8346 5bbd
00000200: ce07 67be 1f68 683c 11db de3d 6b6b 5dbd
00000210: 96d8 1e3c b593 c5bd 8d20 413e 37ed e03d
00000220: 00ab d03c 41d3 31be 2fb2 043d 88e5 ea3d
00000230: 71c5 c83c c069 473d 16d9 743d 4c10 44be
00000240: 8eab 03be 9785 dcbd 2d77 cc3d 6fc3 b9bd
00000250: fc53 653d faa0 0bbe 7337 babd a7ae f13d
00000260: 4585 d6ba e731 84bd 10b1 213d 547b 43bd
00000270: 02fd 363e abda 1e3e 11ea 013e 433f cd3d
00000280: 303e 873c fa77 863e 2c7d 11bd 54bc d338
00000290: 6aa9 6fbd f23e fd3c 4619 3b3e 901e b13d
000002a0: e733 c0bd 7a67 243d 07cb 07bd effc db3c
000002b0: 3040 cebb 0bd8 833d 1257 373e f777 56bd
000002c0: fc3f cbbc 60d9 f5bd d184 863b 3452 b23d
000002d0: 0ad3 4e3d 2249 34bd d2f4 f33d dfcd a3bd
000002e0: dbba 403e 5ecb 0c3d 7433 843d a81c 07bd
000002f0: f602 38bd d824 14be 6cb2 d43c cfbe 3fbd
00000300: 493f 123e ef29 6d3d 4b02 a03b dc7e 01bd
00000310: 7363 cebb fee9 1d3d 385f 13be fbe7 9cbd
00000320: 91d0 f43b e74c a23d 0879 4abe a202 b6bc
00000330: cbed 963d c5a3 29be 900d 893d cd2d e03d
00000340: a3e7 babc 0692 febc 46ae 8d3d de57 923e
00000350: 1421 01be 4ab4 98bd f672 9cbd a25f 953d
00000360: cfbe f83b 52e7 003e 9cc3 163e c503 cc3d
00000370: 960b b1bd e8a8 89be c970 883d 602b d7bc
00000380: 62cf 80be 08e6 1c3c d9bf c3bd 1c2d 9a3d
00000390: 44ef 01be 7289 153e 0534 0ebd 8a0b 0a3e
000003a0: bdf0 173d 9f6c 1fbe 5925 efba f945 d73d
000003b0: c7aa 483e 5475 a1bd f327 e9bd c3da c33d
000003c0: 331a c33d 07d9 2b3e ffc3 063e 4fba b43d
000003d0: ab6a 213e c9c5 4cbe e46b 73bd 1100 b43d
000003e0: f6bd 9fbd 4d7c bcbe 7886 84be 8288 c03b
000003f0: 4bf2 6b3d ffe7 093d 1a29 f73c c419 de3d
0.059076674 -0.04979841 -0.21322393 0.1325568 -0.26134562 0.038308926 -0.07775003 0.09317885
0.13157363 0.026187295 -0.068747215 0.14606504 -0.21149188 -0.072507985 -0.1003622 -0.22149663
-0.12946579 0.048539937 -0.0052325684 0.042844925 -0.006903279 0.10763967 0.14832579 -0.0019281735
0.12004855 -0.002397024 -0.120620795 -0.25236732 -0.048753474 -0.079621 0.009248777 0.07794133
0.17910254 -0.12468024 -0.077313095 0.051033337 -0.05481456 0.14856899 -0.04544727 0.09185898
0.06968603 -0.034663487 0.016039457 -0.06793627 -0.07355234 0.08249628 -0.042560466 -0.092273824
-0.15320708 0.09238637 -0.00022309257 -0.036094032 0.12243044 0.09960569 0.026816087 -0.32526922
0.09581934 0.13423808 -0.0063953744 -0.10703107 0.1906867 -0.12784694 0.07592971 -0.06848114
-0.07741122 0.08031393 -0.17418067 -0.07651198 0.1265517 0.05177225 0.011904127 0.025475133
-0.014904511 -0.0029435381 0.07137 -0.060058363 0.047678098 -0.011838438 -0.08020587 0.12802702
0.08857916 -0.037056286 0.09764513 0.023694567 -0.1606412 -0.1085893 0.107751176 -0.04649982
0.014497616 -0.060229305 -0.18501168 0.028680636 -0.02017969 -0.07977307 0.059196796 0.058987524
-0.16453269 0.051213045 0.06800483 0.035704497 -0.12445084 -0.1379646 -0.022240845 0.010869564
0.1840324 -0.05930665 -0.06299695 -0.01697672 -0.00937305 -0.04363768 -0.076130696 -0.115489855
0.048817188 0.1905286 -0.05996155 0.17802873 0.16162457 0.14897867 0.08144389 0.031459533
-0.14916635 -0.042931747 0.098996505 0.06952901 -0.016066717 -0.0012990218 0.02473577 -0.053534042
-0.22561571 0.014184981 0.10881627 -0.05405752 0.009695193 -0.096473135 0.18860073 0.10982745
0.025472164 -0.17365743 0.03239649 0.11469561 0.02450821 0.048684835 0.05977734 -0.19146842
-0.12858412 -0.10767668 0.099836685 -0.09070479 0.055988297 -0.13635626 -0.09092607 0.118008904
-0.0016366622 -0.064548306 0.0394755 -0.047725037 0.17869952 0.15513103 0.12686945 0.10021832
0.016509145 0.2626341 -0.035519764 0.00010096343 -0.058511175 0.030913804 0.1827136 0.086484075
-0.093848996 0.040137745 -0.033152606 0.026854007 -0.006294273 0.06437691 0.17904308 -0.0523605
-0.024810784 -0.120043516 0.0041051884 0.08707085 0.05049423 -0.044015057 0.1191193 -0.07998251
0.1882128 0.034373634 0.064551264 -0.032986313 -0.0449247 -0.1446718 0.025963984 -0.04681283
0.14281954 0.05790132 0.004883086 -0.031615123 -0.0062984764 0.03855323 -0.14391792 -0.07661434
0.007471152 0.07924824 -0.19772732 -0.022218052 0.07369574 -0.1656638 0.0669204 0.10946236
-0.022815531 -0.031075489 0.06918006 0.28582662 -0.12610275 -0.074562624 -0.076391146 0.07293631
0.0075911055 0.12588242 0.14723057 0.099616565 -0.08644788 -0.26886678 0.06662137 -0.0262658
-0.2515822 0.009576328 -0.095580764 0.07528135 -0.12688929 0.14603212 -0.03471758 0.13480964
0.03709482 -0.1556878 -0.0018245383 0.10511393 0.19596396 -0.07883707 -0.11384573 0.0956321
0.095264815 0.16782008 0.13160704 0.08824598 0.15763347 -0.19997324 -0.059429064 0.08789075
-0.07799904 -0.36813584 -0.25883842 0.005875648 0.057604115 0.033668514 0.030170966 0.10844758

network_body._body_endoder.seq_layers.2.bias f4 [128]
00000000: c475 b13d 88d9 b53d d779 cd3c b202 69bc
00000010: 0004 e4bc 5b37 a63d f95c 413d d8d1 063e
00000020: b83c ca3d 3dfc f6ba 422f 0ebc 43fd 2f3e
00000030: 063d 183e e519 9a3c 0ee9 b1ba bb95 0f3e
00000040: c479 4f3d 7aab 803c bc5f 0a3d b015 cbbd
00000050: 2057 6ebd d5b7 f9bc f7ac a83d 3ebb fe3c
00000060: 527f 2dbd 5603 283d 4e69 a63d 35ac 2bbc
00000070: d005 013e 6432 46bd 7a7d 283e 63f1 4b3d
00000080: 4258 7c3d bab7 cb3d 305c de3d ece8 f43d
00000090: ca32 153c 78ac c13d 08c7 87bd b01a 703d
000000a0: 8589 1c3d 27f2 72bc c2e8 d93b 3943 c73c
000000b0: 6b07 b03d a5f2 d83c 9dae 163d c617 933d
000000c0: 28bf 053e 1e02 4f3e d1ed 26bd af59 fa3d
000000d0: cac0 54bb 9d0a b83d 08f5 493d 484a f73d
000000e0: cdf2 063e ef8a d23d ebb3 473d 45c4 ac3d
000000f0: e93b bf3d 99e5 b03d 3366 66bd f9a7 b63d
00000100: 1d99 9abb 31b2 123e 3eff a6bc 98d9 913d
00000110: 7ba0 36bc 4a44 393d f310 1a3e 9356 303d
00000120: 88e5 473c f438 453c 726d 37bd ae39 c2bc
00000130: 0486 8cbc b949 1fbe fa12 753b 10cf 223e
00000140: 1fee 69bd 0c87 183e 6dd7 f9bc 2d0f 4c3c
00000150: cde0 a33d d106 88bd 993c 76bc b986 273e
00000160: a586 a4bd d853 b43d e707 ff3d f94a a4bd
00000170: 8d0a 92bd 9e8f 91bb 0666 d53c b1a0 483e
00000180: 237b d13b de7d e8bc a4da 263d 429a 043d
00000190: 46cb e33d 91a1 113e b758 763d 3a9f 4a3c
000001a0: 9341 d13c 0f70 62bd 96c0 0ebd b3f2 253d
000001b0: 1462 873d 8a45 273e fd2e 11bc f0b3 9a3d
000001c0: 4ae5 1d3e 8ffb 31bc bb61 9e3c 6404 ac3c
000001d0: 326f 343d e13c 083e 84b9 30bd 3e7a 073c
000001e0: cbc4 8d3d 3619 c03d 7780 87bc df59 06bd
000001f0: b66e 58bd 7ad1 df3d 81ec 533d 99f4 043e
0.0866504 0.088793814 0.025082512 -0.014221834 -0.027833939 0.08116027 0.047207806 0.13165987
0.098748624 -0.0018843483 -0.008678259 0.17186455 0.14867029 0.018811176 -0.0013573484 0.14021961
0.050653234 0.015706766 0.033782706 -0.09916246 -0.058188558 -0.030483166 0.082361154 0.031095143
-0.04235775 0.041018806 0.08125554 -0.010478069 0.12599874 -0.0483879 0.16454116 0.04979075
0.061607607 0.099471524 0.10857427 0.11958489 0.009106347 0.09456724 -0.06629759 0.0586192
0.038217086 -0.014828241 0.0066500613 0.024324046 0.08595165 0.02648289 0.036787618 0.07182269
0.13061202 0.20215651 -0.040754143 0.12224137 -0.0032463544 0.08986399 0.049305946 0.12074715
0.13178559 0.10280406 0.048755568 0.08435873 0.09337599 0.08637542 -0.05624981 0.08918757
-0.0047179596 0.14325787 -0.02038538 0.07121581 -0.01114666 0.04523114 0.15045528 0.043051314
0.012200721 0.012037504 -0.04478211 -0.023709144 -0.017153747 -0.15555467 0.0037395344 0.158993
-0.057111856 0.14895266 -0.03049823 0.01245479 0.08001862 -0.06641925 -0.015029096 0.16359986
-0.08033494 0.088050544 0.12452679 -0.080221124 -0.07130919 -0.0044421693 0.026049625 0.19592549
0.006392853 -0.02838033 0.040735856 0.032373674 0.11122756 0.14221789 0.0601432 0.012367064
0.025543964 -0.05528265 -0.034851633 0.04051466 0.06610504 0.16335121 -0.008861301 0.075538516
0.15419498 -0.010863199 0.01933371 0.020998187 0.044051357 0.13304473 -0.04314567 0.008268891
0.06922301 0.093798086 -0.016540749 -0.03280055 -0.052839957 0.10928626 0.05173922 0.12983932

action_model._continuous_distribution.log_sigma f4 [1, 2]
00000000: 7159 c1be 94c3 0ebf
-0.3776355 -0.5576718

action_model._continuous_distribution.mu.weight f4 [2, 128]
00000000: 55ad 963d 2e09 5abd eced c93c 93e1 12bd
00000010: 28c0 e53c 75ed b9bd 174b 963d 8bd7 993d
00000020: 1948 8d3c abc4 083a fe8b aa3c 11a0 3f3e
00000030: 46bc 1abd 95c5 bcbd 08bb 74bb aa6e 9bbc
00000040: 0bdc c1bd 11ee efbd 69e9 9abd f548 c6bd
00000050: a3ac b0bd a64a 36bd c6a6 c23d c3d2 9bbd
00000060: 2d5f 7dbd 6e48 a63d ee38 b1bd 58cd 053d
00000070: 1898 b13d bc6b 06bd e760 b83d d498 6a3d
00000080: bde1 2fbc 4c04 543d 9ebf dfbd 2cdf 09be
00000090: fb52 07be aa3b d83d 96df 42bd 1616 cf3b
000000a0: affd a13d ff87 8d3d fa24 11bd 8aff 39be
000000b0: 9efb 05be 9fbb 3ebd 08de 5fbc 5d44 993d
000000c0: 0d75 d83d 1d01 b83d 4a86 30bd cf3f 053e
000000d0: 5504 a5bd 83b5 e33d bffe de3d c154 de3d
000000e0: 8b94 ca3d bfdb f5bd d882 8a3d 1f96 a7bb
000000f0: d11d 86bd 6372 813d 5f51 1abd 9add 8cbc
00000100: 22f2 32bc dad2 183e 99ea 5cbd 4a1f d03d
00000110: 1daa 993d 9207 76bd e4cf db3d 402d cfba
00000120: 69d1 103d 3091 2cbd 2f19 163d bd25 d1bc
00000130: 608c ab3d 21bb 7ebc 2401 2abe 6bcd 633e
00000140: 00cb 9fbd 2b27 6cbe bf91 b3bc 703f 133d
00000150: ebc5 e23d 07b6 bc3d 0935 33bd 7ffa e83d
00000160: 57e1 0ebd d6b5 e3bc 6659 7c3c ad60 bd3c
00000170: 356e 1e3c 75e2 d33d bb0f 6c3d c382 b73d
00000180: 5d54 a4bc 89c5 2ebd 1a28 88bd 1353 dcbb
00000190: 7bc4 a43d 3ebf 0abd 99f1 e03d 150f 113c
000001a0: 11d0 d6bb 0e38 2ebd 4aa7 d73c 8fd7 da3d
000001b0: f8ff f2bd c906 373e fd89 5e3d 8e7b ce3d
000001c0: b915 1a3e f138 8cbd 906c 5ebc 261c a1bd
000001d0: cbf1 65bd 3828 003e b7d2 2c3c 9968 6f3d
000001e0: c18f f4bd 5c87 633d da84 693d 8587 14bd
000001f0: 21f0 3bbd 4b94 c73c 2969 f9bd ee85 26be
00000200: ffb0 593d 5383 bd3d cb17 9c3d dafd bbba
00000210: 415b 2e3d abf5 9bbd ffb2 d53c f6d1 e83d
00000220: ea23 b6bd 2ed9 153d 055a 093c f13f 02bd
00000230: cd71 38be 0efa 1c3d 89c9 65bd 7361 32be
00000240: 4998 7b3d 6345 6b3d e450 98bc 7989 003d
00000250: da1e 1b3d 53de a53d 0d3f aa3d c5fa 8c3d
00000260: 2371 a7bd cbfe 85bc c02f dabb a574 7f3d
00000270: d4ea 963b fb30 2c3c b296 debd f6d3 d83d
00000280: 4667 af3d 675c 02bd da41 48bc 5d71 363d
00000290: ae34 45bd 3799 ddbc 7ce7 993d fe86 e7bd
000002a0: 1e6d a23d 49d9 313c 065c 903d 43b4 4bbd
000002b0: 76ec 4a3d dfb7 783d b1a6 00be 2fe4 ed3d
000002c0: 36ab 3ebd 4771 3dbe af7c 883d 4f2e 523d
000002d0: 80ee df3d cbbf a13d 7582 b33d 4072 2cbd
000002e0: 7b78 f73d 47f9 e1ba 5e93 e6bc 1e65 9d3d
000002f0: c866 db3d 1773 9dbd 419d 83bd a00a eebd
00000300: 9ceb c53d 44b2 87bb 560d 6cbc 70ff a4bc
00000310: 4e8d ad3d be03 563d 701f 5d3d 8f89 903d
00000320: ba24 753d 7aab ad3c c33e 16bd 74ac 6e3d
00000330: dc62 243d ee62 cfbc b225 18bd 23f7 72bd
00000340: f06f 03bc 2a30 fd3d 6f9c 02bd 1b15 a1bc
00000350: 73b4 903c 926e 1abe 5cb0 ab3d 834d 113e
00000360: 6972 933d 7f01 f3bd 08a4 18be 396a 23bc
00000370: 7470 d0bd 9d69 a93d bcba 033e c861 12be
00000380: d89b 82bd 22d4 1c3c 7df2 c7bd 30e7 eabd
00000390: 6e8e 55bd 1391 0c3e bc7d 1abd 1106 883d
000003a0: 39ff 833d df9c 763d 6356 9e3d 3c8d cbbc
000003b0: 84e4 50bd c712 00bc eff5 a13d 7a9e 313d
000003c0: 9aa9 083d 05c8 373d 1316 d2bd 18bc d33d
000003d0: fe59 843d cfd6 bebc 9011 233b b9cb 9bbc
000003e0: 4114 8b3d c4d3 953d e3e9 21bc 59b2 86bd
000003f0: 2514 c4ba 8147 f0bd 3930 5b3d 9d94 c2bd
0.07357279 -0.05323141 0.024649583 -0.035859656 0.028045729 -0.090784945 0.07338541 0.07511815
0.017246293 0.0005217294 0.020818707 0.18713404 -0.037777208 -0.09217373 -0.0037342925 -0.018973667
-0.09465798 -0.117153294 -0.07564051 -0.09681884 -0.08626678 -0.044504784 0.09504466 -0.07608559
-0.061858345 0.081192836 -0.086534366 0.032666534 0.08671588 -0.032817587 0.09002858 0.057274655
-0.010734973 0.05176191 -0.1092522 -0.1346404 -0.13215248 0.10558255 -0.04757651 0.0063197715
0.079097144 0.06910705 -0.035435654 -0.18163887 -0.13084266 -0.04656565 -0.013663776 0.074837424
0.10569201 0.08984587 -0.043096818 0.13012622 -0.08057467 0.11118605 0.10888433 0.10856009
0.098916136 -0.12004804 0.06763238 -0.0051143314 -0.06548656 0.06320646 -0.037675258 -0.017195512
-0.010921987 0.14924183 -0.053934667 0.10162218 0.0750315 -0.060065813 0.10733011 -0.0015806332
0.03535596 -0.04213065 0.03664511 -0.02553069 0.08376384 -0.015547545 -0.16601998 0.2224633
-0.07802391 -0.23061816 -0.021920083 0.03594917 0.11072906 0.092144065 -0.04375175 0.11375903
-0.03488287 -0.027796667 0.015402174 0.023117388 0.00966983 0.103459276 0.05763219 0.08960488
-0.020059759 -0.042668853 -0.06648274 -0.0067237704 0.08045288 -0.03387379 0.10983581 0.0088536935
-0.006555565 -0.042533927 0.026324887 0.10685646 -0.118652284 0.17873682 0.054330815 0.1008216
0.15047349 -0.06846798 -0.013575688 -0.07866697 -0.056138795 0.12515342 0.010548285 0.05844936
-0.119414814 0.05554901 0.057011463 -0.036262054 -0.0458833 0.024362704 -0.12178261 -0.16262028
0.053147312 0.09253564 0.07621726 -0.0014342621 0.042567495 -0.07615217 0.026086329 0.11368172
-0.08893569 0.03658407 0.008383279 -0.03179926 -0.18012162 0.03832441 -0.056100402 -0.17419986
0.061424527 0.05743922 -0.01859326 0.031381104 0.03787122 0.080990456 0.08312807 0.06883768
-0.08175876 -0.016356846 -0.0066585243 0.0623671 0.0046056304 0.010509725 -0.108685866 0.10587303
0.0856462 -0.031826403 -0.0122227315 0.044541705 -0.048145942 -0.027050598 0.07514855 -0.113050446
0.07930969 0.0108550275 0.07048802 -0.049732458 0.049541913 0.06072223 -0.12563588 0.11615788
-0.04655 -0.18500243 0.066644065 0.051313695 0.10934162 0.0789791 0.08765117 -0.042101145
0.12083527 -0.0017240428 -0.028146442 0.07685302 0.10712963 -0.07687967 -0.06426478 -0.1162312
0.096640795 -0.004141124 -0.014407476 -0.020141333 0.08474217 0.052249663 0.05398506 0.07057487
0.05984948 0.02119993 -0.036680948 0.058269933 0.040133342 -0.025315728 -0.037145324 -0.05931772
-0.008022293 0.12362702 -0.031887468 -0.019663384 0.01766417 -0.15081242 0.08383247 0.14189725
0.071995564 -0.1186552 -0.14906323 -0.009974056 -0.10177699 0.08272097 0.12864202 -0.14295113
-0.06377381 0.009572061 -0.09763048 -0.11469877 -0.052137785 0.13727216 -0.037717566 0.06641782
0.06445164 0.060208198 0.07731321 -0.02484762 -0.05099918 -0.007816977 0.07908236 0.043364026
0.03336487 0.044868488 -0.102581166 0.103386104 0.06462477 -0.023295788 0.0024882294 -0.019018041
0.067909725 0.07315782 -0.009882423 -0.06576986 -0.0014959617 -0.11732388 0.053512786 -0.09501002

action_model._continuous_distribution.mu.bias f4 [2]
00000000: 56b4 c43c cabc e8bc
0.024011772 -0.028410334

exp_avg f4 [128, 8]
00000000: f3d6 cc3e dec5 f23b ec01 0080 d5c5 723c
00000010: 80b2 f23b 0aa6 6bbd ab56 65b3 ce84 113c
00000020: 16a6 2d3b 4cce 4d38 ab01 0000 61ce cd38
00000030: dbc4 4d38 acff b4b9 8662 17b0 7942 3d39
00000040: bc17 a73c 2c09 c639 0e01 0000 2409 463a
00000050: 8cfa c539 8a44 40bb 7efb 4eb1 0005 093a
00000060: 6e97 2739 83a0 4636 0d00 0000 79a0 c636
00000070: a790 4636 3362 c3b7 dd88 caad 8643 6636
00000080: 9ad0 6cbd b055 8cba 6201 0080 9b55 0cbb
00000090: 4646 8cba 8f89 163c 145c 3631 efb6 d23a
000000a0: 093c fabc 8049 14ba f900 0000 7549 94ba
000000b0: 823f 14ba b37a 943b 23b2 9d31 fb31 07ba
000000c0: 6b88 9b3b d455 b838 2c00 0000 c755 3839
000000d0: f545 b838 6c3d 39ba 33f6 15b0 3231 4138
000000e0: 8862 6e3e e043 8d3b cf01 0080 d843 0d3c
000000f0: 9a38 8d3b e053 09bd 5196 02b3 357c a33b
00000100: e06e b0bb 181b d1b8 a600 0000 251b 51b9
00000110: f70e d1b8 3d8c 373a 68ae a430 51f7 bdb9
00000120: 31f2 fc3a d7e4 1538 cd03 0000 dae4 9538
00000130: 87dc 1538 0262 8bb9 cb65 afaf 351b b338
00000140: 8723 ccbd 3ff1 f1ba 9401 0000 f9f0 71bb
00000150: e7cb f1ba eb33 963c 0e91 53b2 7986 363c
00000160: 9310 aabc e68e c9b9 ee00 0000 d98e 49ba
00000170: 3c80 c9b9 189a 483b 347a 7731 e984 fdb9
00000180: 5f13 383d ed29 5a3a 3f00 0000 e329 da3a
00000190: 1f18 5a3a 0958 d5bb e0ee c2b1 376f 5b3a
000001a0: d359 9dbb 6b7d bab8 1b00 0000 647d 3ab9
000001b0: ae6d bab8 381b 373a 5f9b 1230 db44 85b8
000001c0: f218 9335 7256 ae32 2000 0080 6656 2e33
000001d0: 8447 ae32 23d7 31b4 0076 e5a9 13fa a531
000001e0: 31d1 b63b 13ac d838 0800 0080 09ac 5839
000001f0: ab98 d838 c523 55ba 2c00 94b0 68aa 3339
00000200: 7cb4 813d 7ab9 993a cf01 0000 48b9 193b
00000210: 4ba1 993a 3008 41bc 157c 1432 c84a f6bb
00000220: e795 8638 3382 9f35 b300 0080 e082 1f36
00000230: 708b a035 3467 06b7 dc88 9e2f 21e8 34b6
00000240: cfe2 0db9 4129 28b6 a600 0000 3329 a8b6
00000250: 4f19 28b6 32b4 aa37 08cf 802d 04fb 5eb3
00000260: 6d1f 873c 4025 a039 9400 0000 3125 203a
00000270: cf16 a039 f4ce 23bb 06fc 63b0 5eeb edb8
00000280: 08b5 9432 da3e b02f 1701 0080 cc3e 3030
00000290: 6c2e b02f cd65 32b1 b449 01a7 9788 e32d
000002a0: 7566 38bb 658c 5ab8 2001 0000 4d8c dab8
000002b0: b975 5ab8 0701 e139 e932 7c2f 6774 fd37
000002c0: 6241 c43c 5799 e839 a400 0080 4499 683a
000002d0: b883 e839 395a 6bbb 4b09 22b1 cb29 0638
000002e0: 2d76 743e bddd 903b 0701 0000 b2dd 103c
000002f0: bcd0 903b 67e0 11bd 0acd cbb2 872b 853a
00000300: 05c2 d4bc 5328 fcb9 b700 0000 4528 7cba
00000310: 4713 fcb9 ce80 773b 2723 5631 e8ed ddb9
00000320: e14a 1c3c 4d3c 3939 0800 0000 4a3c b939
00000330: 382c 3939 eae1 b2ba 850a 70b0 c139 2739
00000340: 9cf3 27be c10d 47bb 4c00 0000 c30d c7bb
00000350: 9cff 46bb 50fc ba3c d519 e232 0c3f c8bb
00000360: d5f5 d635 88c4 fe32 0600 0080 9bc4 7e33
00000370: 5fba fe32 3d51 62b4 2aa6 91aa d232 ce33
00000380: 65e3 a136 1ade bf33 2400 0000 09de 3f34
00000390: 53cc bf33 9b05 43b5 363a ebaa 1cc3 a7b1
000003a0: c781 6a34 a9f7 8a31 fd01 0000 d5f8 0a32
000003b0: 094a 8b31 6892 8832 fa60 82aa 872b 3334
000003c0: 41a7 2e3d 1cff 4e3a 8b00 0080 13ff ce3a
000003d0: dfee 4e3a e7e3 c9bb 2ff0 c3b1 85f6 703a
000003e0: 3f99 7f38 4377 9735 ec01 0000 2c77 1736
000003f0: 9f69 9735 a42d 24b7 b6f9 b12b d48e 0ab6
0.40007743 0.0074088415 -6.9e-43 0.014817675 0.0074065328 -0.057531394 -5.339704e-08 0.008881761
0.00264967 4.9067938e-05 5.98e-43 9.813603e-05 4.9059145e-05 -0.00034522766 -5.507349e-10 0.00018049208
0.02039706 0.00037772337 3.78e-43 0.00075544626 0.0003776144 -0.0029337727 -3.0119902e-09 0.00052268803
0.00015982773 2.959773e-06 1.8e-44 5.9195413e-06 2.9588498e-06 -2.3291539e-05 -2.302552e-11 3.4311975e-06
-0.057816125 -0.0010706689 -4.96e-43 -0.002141333 -0.0010702095 0.00918807 2.6536826e-09 0.0016076247
-0.030546205 -0.00056567043 3.49e-43 -0.0011313396 -0.00056552154 0.0045312284 4.589553e-09 -0.0005157289
0.004746487 8.7897904e-05 6.2e-44 0.00017579562 8.786834e-05 -0.00070663425 -5.4555754e-10 4.6060602e-05
0.23279774 0.00431107 -6.49e-43 0.008622132 0.004309726 -0.033527255 -3.0404696e-08 0.004989172
-0.005384311 -9.970943e-05 2.33e-43 -0.00019941905 -9.968684e-05 0.0007001793 1.198214e-09 -0.00036233154
0.0019298253 3.5737492e-05 1.363e-42 7.1475006e-05 3.572975e-05 -0.00026585168 -3.1904643e-10 8.540453e-05
-0.09967714 -0.0018458738 5.66e-43 -0.0036917313 -0.0018447608 0.018335303 -1.2314798e-08 0.011140459
-0.020759856 -0.00038444175 3.34e-43 -0.00076888275 -0.0003843325 0.0030609425 3.6012695e-09 -0.00048354946
0.04494035 0.00083222875 8.8e-44 0.0016644563 0.00083196344 -0.0065107387 -5.6733e-09 0.00083707593
-0.0048019676 -8.892532e-05 3.8e-44 -0.00017785054 -8.8896006e-05 0.0006984952 5.3335286e-10 -6.3547595e-05
1.0959614e-06 2.0295577e-08 -4.5e-44 4.059111e-08 2.0288788e-08 -1.6562676e-07 -1.01901126e-13 4.830562e-09
0.005579137 0.00010331734 -1.1e-44 0.00020663453 0.00010328119 -0.0008130635 -1.0768466e-09 0.00017134252
0.06333253 0.001172825 6.49e-43 0.0023456383 0.0011721043 -0.011781737 8.642947e-09 -0.007516239
6.4175394e-05 1.1884316e-06 -2.51e-43 2.3769026e-06 1.1961511e-06 -8.011051e-06 2.8837277e-10 -2.6957207e-06
-0.000135313 -2.5057964e-06 2.33e-43 -5.0115864e-06 -2.5048682e-06 2.034949e-05 1.4643856e-11 -5.19167e-08
0.016494477 0.00030545332 2.07e-43 0.00061090576 0.00030534572 -0.002499518 -8.2940266e-10 -0.00011344881
1.7311791e-08 3.2058872e-10 -3.91e-43 6.4117667e-10 3.2047198e-10 -2.5960276e-09 -1.79423e-15 2.586757e-11
-0.002813724 -5.2106003e-05 4.04e-43 -0.00010421183 -5.2084888e-05 0.0004291611 2.2937353e-10 3.0214154e-05
0.023956958 0.00044364735 -2.3e-43 0.0008872936 0.00044348626 -0.0035911931 -2.3579385e-09 3.1987012e-05
0.23873205 0.0044209645 3.69e-43 0.008841919 0.0044194143 -0.035614397 -2.3725551e-08 0.0010160067
-0.025971422 -0.0004809523 2.56e-43 -0.0009619038 -0.00048079548 0.0037765983 3.116108e-09 -0.0004232966
0.009539337 0.00017665439 1.1e-44 0.0003533087 0.00017659448 -0.001364765 -8.732644e-10 0.00015947876
-0.16401523 -0.0030373188 1.06e-43 -0.0060746386 -0.0030364757 0.02282539 2.632161e-08 -0.0061110314
1.6015789e-06 2.9658864e-08 -8e-45 5.9317795e-08 2.9654244e-08 -2.1077445e-07 -2.5872474e-13 9.601867e-08
4.824646e-06 8.9345306e-08 5e-44 1.7869037e-07 8.931297e-08 -7.265132e-07 -4.1784778e-13 -4.882521e-09
2.1840161e-07 4.0444843e-09 7.13e-43 8.089235e-09 4.0538493e-09 1.5899062e-08 -2.315993e-13 1.6686509e-07
0.042639975 0.00078962906 -1.95e-43 0.0015792571 0.0007893871 -0.0061612013 -5.7025527e-09 0.0009192008
6.093946e-05 1.1285086e-06 6.9e-43 2.257012e-06 1.1281116e-06 -9.785788e-06 1.2645915e-12 -2.064674e-06

exp_avg_sq f4 [128, 8]
00000000: 4966 dd40 e23f 313b c66c 063c 2c54 903c
00000010: 0c57 313b 3b7e 2c3e 6b42 823c d3fa 823c
00000020: 75b2 623b bc9c a638 dfaf 093b 14b8 ef3a
00000030: 152e a738 556b e03a 3315 683b 319f 5e3b
00000040: d471 863c e7a7 7a38 0f0c a53a a096 863a
00000050: 8171 7b38 55bd a23a f173 1e3b 8ef8 343b
00000060: e4df 293a be09 ec37 1dc4 233a f25e 583a
00000070: d66e ec37 83be 0e3a 133e 833a b35f a63a
00000080: 9891 953e 00ee 0a39 22d2 313a addd 923a
00000090: fa13 0b39 2da1 043c eb73 d53a 3077 a53a
000000a0: c36a 5b3c efb9 8b38 74b4 bc3a 6fea de3a
000000b0: adfe 8b38 0746 ac3a cfae 1d3b 27cd 793b
000000c0: 08b5 113b 460e b438 5518 083b d8f6 b93a
000000d0: 73f0 b438 591b fb3a 092a 7c3b 8766 9e3b
000000e0: e7db 1540 9b77 713a 3fa3 3e3b eb16 ca3b
000000f0: 60ad 713a 5c7c 6a3d bc5b b33b 94dc c43b
00000100: d7e9 013c f205 2f38 24bb 7a3a de19 c63a
00000110: 4773 2f38 d601 933a f75d 973a 5ff9 b03a
00000120: 42c5 4e3c a7d2 203a 1ab5 593c 623e 5d3c
00000130: 675d 213a ea8c 343c 2242 da3c 5269 d73c
00000140: aeea 0341 5775 583b e0f6 383c 8475 b13c
00000150: 9a73 583b 6397 603e 4eb5 ab3c 023a c23c
00000160: 4e91 1e3c 4da0 5538 b4c3 923a 0268 a13a
00000170: 9fb4 5638 f3bd 883a 6066 de3a 1254 093b
00000180: ca76 9f3d 555a 8f38 566e 6a3a 99e2 613a
00000190: b77e 8f38 49d7 263b d2c0 173b b7a5 ad3a
000001a0: 0421 df3a d5e8 3a38 f8d4 a73a c341 9b3a
000001b0: 1843 3b38 14e2 783a 6aee ee3a 47bf ad3a
000001c0: 0dce 873b 0eb1 5e39 2d9b ac3b a910 923b
000001d0: c14a 5f39 911b 803b a691 033c 96de 223c
000001e0: b6f7 043b df98 8937 b030 c539 7267 9d39
000001f0: 2f49 8a37 8712 e439 e98c 813a 0b21 123a
00000200: 407a 6940 8156 c93a f202 d73b 9487 373c
00000210: 9469 c93a ab6a cb3d d33e 8e3c b332 813c
00000220: 0987 463b cf1d 6437 1250 8c39 ae20 9339
00000230: 4a43 6437 363d ec39 2087 3a3a 74fd bf39
00000240: fc29 a23a ff3f 6738 911d a43a 8a7a cc3a
00000250: 1115 6838 fd0c 883a 053c 1f3b 3fb3 173b
00000260: 9daa 7d3c e722 6b39 9db7 a93b 0075 9f3b
00000270: 3788 6c39 430f b03b 09a4 5e3c 6367 463c
00000280: 4370 2b3b d7ae 0b39 3978 793b 539e 2f3b
00000290: 56e6 0b39 2909 0a3b 059e af3b 51a5 dc3b
000002a0: a8b5 383b 9f62 f038 ba0e 303b 01ba 293b
000002b0: 8a23 f138 68dd 083b 20e7 aa3b e083 a73b
000002c0: f381 963c e520 3438 86e5 6e3a 5db0 443a
000002d0: 7bdc 3438 252f 903a 9ebe 3c3b 0bd7 e33a
000002e0: 3eaf ac3f f73a 0f3a 5cd4 0b3b 00db 7c3b
000002f0: 1a3e 0f3a 76b8 013d 4070 6f3b 9bdb 523b
00000300: 8677 d63c fb0c b638 ee2a 153b 0387 1a3b
00000310: ee3c b638 80b3 003b 02cd 443b 6eef 383b
00000320: 6a89 a73b 2186 a637 e4cd ed39 43e7 1e3a
00000330: e6ba a637 d15f dc39 da30 2a3a 3c69 613a
00000340: 8a1f 1940 6abf 5f3a 23dc 463a 4a8b 843b
00000350: aba6 5f3a ad3e 6d3d dc1e c33a b92f f93a
00000360: 5e29 b43a 999f 8e38 8089 cb3a 8c30 c23a
00000370: cf47 8f38 ca5d a73a 2836 2f3b db15 3a3b
00000380: f607 623b f36f 1939 08fb 733b 1ab9 503b
00000390: 4cba 1939 0fe0 323b 2d8e c13b 0264 cd3b
000003a0: d2d9 993a 56c7 7338 3f7c cd3a ab23 d73a
000003b0: b8f5 7438 9a29 a23a 7e46 1c3b fcd2 3d3b
000003c0: a897 9c3d 5d4a 9d38 aab9 aa3a 85bf 983a
000003d0: 1396 9d38 1abb 3c3b 05ca 503b 9741 f23a
000003e0: 0459 9e3b f7cd 8439 4d9b ad3b 7291 b23b
000003f0: 673c 8539 5619 c83b 90ef 193c c749 223c
6.918736 0.0027046134 0.008204645 0.017618261 0.002705994 0.16845028 0.015900811 0.015988743
0.0034591232 7.944691e-05 0.0021009368 0.0018289112 7.971764e-05 0.0017121831 0.0035413026 0.0033969397
0.0164117 5.9761016e-05 0.0012592095 0.0010268278 5.9948772e-05 0.0012416044 0.0024177993 0.002761397
0.00064802007 2.8137929e-05 0.00062471797 0.0008253894 2.8185004e-05 0.00054452586 0.0010013006 0.0012693316
0.29212642 0.00013249367 0.00067833264 0.001120498 0.00013263515 0.008095068 0.0016285157 0.0012624022
0.013392153 6.662669e-05 0.0014397041 0.0017007123 6.6754736e-05 0.0013143428 0.0024060493 0.0038116665
0.0022233147 8.5857275e-05 0.0020766456 0.0014187945 8.627856e-05 0.001915793 0.0038477203 0.0048339996
2.3415468 0.0009211243 0.0029089001 0.006167283 0.00092192553 0.057247505 0.005473582 0.0060077403
0.007929287 4.172879e-05 0.0009564629 0.001511391 4.183061e-05 0.0011215757 0.001154839 0.0013502053
0.012620272 0.0006134905 0.013287807 0.013503643 0.00061555806 0.011019925 0.026642863 0.026295338
8.244795 0.0033028924 0.011289328 0.021662481 0.0033027888 0.2193275 0.020960476 0.0237093
0.009678198 5.093245e-05 0.001119724 0.0012314322 5.1189792e-05 0.0010432586 0.0016967766 0.002095465
0.07786329 6.835597e-05 0.0008942833 0.00086168345 6.842374e-05 0.002545791 0.0023155701 0.0013248239
0.0017023389 4.4562697e-05 0.0012804559 0.001184516 4.464676e-05 0.00094941375 0.0018229012 0.0013255858
0.004144436 0.00021237528 0.005267522 0.0044575525 0.00021294785 0.003909536 0.008030331 0.009940764
0.0020289249 1.6402859e-05 0.00037611043 0.00030022446 1.648496e-05 0.00043501353 0.0009883913 0.0005574382
3.6480865 0.0015360863 0.0065616304 0.011201758 0.0015366548 0.09932455 0.017363941 0.015771246
0.003029289 1.3596799e-05 0.00026762538 0.00028062373 1.3605526e-05 0.00045059033 0.0007115472 0.00036619196
0.0012372131 5.5134293e-05 0.0012521019 0.0015600484 5.533273e-05 0.0010379847 0.002429725 0.002314761
0.015482572 0.00022424349 0.005179359 0.0048662424 0.00022557458 0.005372913 0.013588914 0.01210961
0.0026159442 0.00013321206 0.0038066043 0.002679725 0.0001334188 0.0021062589 0.0053594136 0.0067335744
0.0028184447 0.000114624614 0.0026864246 0.002589822 0.00011498395 0.0020883922 0.0052155405 0.0051121563
0.018372511 4.294598e-05 0.0009113181 0.0007503087 4.3120683e-05 0.0011000378 0.002880014 0.0017382813
1.349098 0.00054638035 0.0021336293 0.0038582683 0.0005464271 0.031670056 0.0036535412 0.0032174352
0.02618004 8.680854e-05 0.0022761184 0.0023579008 8.689785e-05 0.001963824 0.003002942 0.0028218883
0.0051128166 1.98512e-05 0.00045357563 0.00060616824 1.9875773e-05 0.0004203306 0.0006492265 0.000859875
2.39255 0.0008535298 0.00075859035 0.004044925 0.00085316104 0.0579211 0.0014886516 0.0019011415
0.0013745239 6.800815e-05 0.0015528649 0.0014815493 6.832147e-05 0.001276904 0.002673516 0.0028394375
0.0034489608 0.00014632921 0.0037228484 0.003184861 0.00014660618 0.0027294194 0.0059068413 0.0062680254
0.0011737889 5.812136e-05 0.0015677287 0.0016413828 5.8402977e-05 0.0012372017 0.0023845728 0.0028964868
0.07646114 7.5001946e-05 0.0013025303 0.0011653757 7.514297e-05 0.0028798045 0.0031858694 0.0018482682
0.004832389 0.00025330458 0.0052980543 0.0054494673 0.0002541274 0.006106536 0.009395495 0.009905285

exp_avg f4 [128]
00000000: dbc5 723c 4fce cd38 2c09 463a 82a0 c636
00000010: af55 0cbb 8049 94ba d455 3839 e043 0d3c
00000020: 1c1b 51b9 d9e4 9538 3bf1 71bb e68e 49ba
00000030: ed29 da3a 6b7d 3ab9 7456 2e33 13ac 5839
00000040: 7eb9 193b 2e82 1f36 4129 a8b6 3f25 203a
00000050: da3e 3030 658c dab8 5899 683a bddd 103c
00000060: 5228 7cba 4e3c b939 c40d c7bb 8ac4 7e33
00000070: 18de 3f34 89f7 0a32 1eff ce3a 4377 1736
00000080: 8b01 41b9 50b8 003a 3ede 662f a538 bb3b
00000090: 4cdf 863a 3ff6 c939 6ddd bcb3 5f00 393b
000000a0: 3023 663c 7d8e 513b 4383 983b 9d47 1837
000000b0: d080 31bb dd3d aab8 6f1b 10bc 3321 05b9
000000c0: b069 d4bb 2397 343c 3e8f 173c 3067 a3b4
000000d0: 94f4 f7b8 2c99 5aba 4fd0 bebb 2ee7 6e39
000000e0: a1b6 0cb9 aeb4 313c eb23 0c3c 186f a33a
000000f0: 86dd 2b3c e194 d639 217c 7b3a 3425 1238
00000100: 77d3 8135 f928 6a3c e0c4 e538 603f f52e
00000110: 5dc7 0b3c ff5d 653b d745 463a 6c5e 6138
00000120: 53f9 5c3c 0fdb 6439 2b51 19bb 66a3 2939
00000130: 0acb 9cb1 b924 0e3a 6801 3a33 6551 e93b
00000140: 5c4b 0e36 2d75 213c 66b2 b13b ed1c 5c39
00000150: 6c23 3435 052b 2a3b 8301 e536 f2b1 533b
00000160: 9fe7 ddbb 00b5 fb31 d90f b437 8bdb 1b2d
00000170: 5e5b 36bb 05ae ba39 b4c6 9735 5779 5f3c
00000180: 7efe 8131 b6bd 233c 9c80 ba3c 57a7 2e31
00000190: aed2 e839 abad f339 f482 2eb9 f882 4aba
000001a0: a085 913c 2f4e 3e3c ef2a 6f36 fc6b 23bc
000001b0: 3766 8bb9 812c a7b5 5263 993b 0dad 9fb2
000001c0: ece5 d33b 0e6c 26bb 4e10 5939 7daa 283a
000001d0: bcf2 9c3a bde1 293c c4eb 193c a373 5836
000001e0: 1642 9db2 7990 70bb ab99 c638 8859 7b3b
000001f0: d779 ab37 8dce 8b39 1b5e a139 30a6 e3b0
0.01481768 9.81359e-05 0.00075544673 5.9195454e-06 -0.0021413376 -0.0011313409 0.00017579581 0.00862214
-0.00019941892 7.1475e-05 -0.0036917466 -0.0007688835 0.0016644575 -0.00017785064 4.059116e-08 0.00020663468
0.002345651 2.376862e-06 -5.0115927e-06 0.0006109066 6.4117744e-10 -0.000104212006 0.00088729477 0.008841929
-0.00096190453 0.0003533088 -0.006074639 5.9317735e-08 1.7869058e-07 8.08894e-09 0.0015792584 2.2570173e-06
-0.00018406489 0.0004910277 2.0997334e-10 0.0057135397 0.0010289936 0.00038521175 -8.794709e-08 0.002822898
0.014046475 0.0031975799 0.0046543195 9.07658e-06 -0.0027084835 -8.1177546e-05 -0.008795603 -0.00012696236
-0.0064823255 0.011022362 0.00925046 -3.0436195e-07 -0.00011823434 -0.00083388644 -0.005823172 0.0002278357
-0.00013419475 0.0108463 0.008553485 0.0012469022 0.010489827 0.00040928184 0.0009593387 3.484376e-05
9.672793e-07 0.014291995 0.00010956242 1.1152568e-10 0.008531419 0.0034998653 0.00075635075 5.3732118e-05
0.013487178 0.0002182538 -0.0023394327 0.00016177967 -4.5632804e-09 0.0005422342 4.330778e-08 0.0071202987
2.1203514e-06 0.009854597 0.005422878 0.0002099161 6.710677e-07 0.0025965583 6.824908e-06 0.0032302109
-0.006771996 7.3256388e-09 2.1465052e-05 8.859478e-12 -0.0027825455 0.0003560634 1.1308207e-06 0.0136397695
3.7833265e-09 0.009993961 0.022766404 2.5415454e-09 0.00044407457 0.00046477964 -0.00016642717 -0.00077252043
0.017763913 0.01161532 3.5638766e-06 -0.009974476 -0.00026588302 -1.2455422e-06 0.0046810294 -1.858873e-08
0.006466618 -0.0025393995 0.00020700807 0.0006434096 0.0011974196 0.010368762 0.00939459 3.2253818e-06
-1.8307258e-08 -0.0036707206 9.4699986e-05 0.0038352925 2.0441525e-05 0.00026666038 0.00030778427 -1.6563657e-09

exp_avg_sq f4 [128]
00000000: e23f 313c ba9c a639 eba7 7a39 be09 ec38
00000010: 00ee 0a3a efb9 8b39 460e b439 9c77 713b
00000020: f205 2f39 a7d2 203b 5775 583c 4ca0 5539
00000030: 555a 8f39 d5e8 3a39 0eb1 5e3a df98 8938
00000040: 8256 c93b cf1d 6438 0240 6739 e722 6b3a
00000050: d7ae 0b3a a062 f039 e720 3439 f93a 0f3b
00000060: fb0c b639 2186 a638 6abf 5f3b 999f 8e39
00000070: f46f 193a 56c7 7339 5c4a 9d39 f7cd 843a
00000080: 8f8e a238 63e9 8b3a 90da cf39 f6c7 783b
00000090: 815a 3a3a 705d 1538 b8d8 6839 c4bd 303a
000000a0: 254a fe3b 734d 3c3a 7225 8e3a 844a dc38
000000b0: 8208 363a 1c4c dd39 9a41 f03b c6d9 a238
000000c0: 5dc2 bd3b 8562 8f3b b51c 4c3b 5963 a338
000000d0: 42cb 8338 47e6 9039 a2f2 cb3a bda3 c339
000000e0: 4fd4 6639 1710 d93b 0d2c 313b ab23 5d39
000000f0: 9af2 923b 8b6a 403a 8ed8 1539 690e 2d39
00000100: 5e28 8e3a 13d3 cf3b 598a 403a 9068 9b3a
00000110: 5b68 203c d96e af3a db15 2d3b fc45 1f39
00000120: 528e c03b 7ffa f639 30e1 4b3b a8be 1439
00000130: 8b1d 2339 f474 113b 10fa bc3a d294 8d3b
00000140: 2630 863a b51d 923b 4b69 d23a 307b ca3a
00000150: 912d 9c3a d83f 9639 d625 f237 64a7 c53a
00000160: ccdd 563b 39c8 0539 1f0d dd3a e472 2639
00000170: 0b38 413b 134f 223a a676 2239 6d9b ca3b
00000180: db67 0a3b 6e1c b33b 64ef 8b3c 5486 8e39
00000190: 4d00 1b3a 738a 3739 1f35 3338 9327 7739
000001a0: 3269 243c 2142 c13b 048e 043a 6dd1 873b
000001b0: 8f11 ec3a 6252 0139 eedc 1d3a b07c 9f39
000001c0: 514b a93a 9f0f 2f3c b3ef 0c39 f479 513a
000001d0: 3e49 ef3a 05c1 d83b ff86 0f3c 3a8e 023a
000001e0: 2334 1e3a dd61 703b 79cb d039 a27e 493a
000001f0: 737a 2e39 bd95 9539 b18b 0339 3ffd 2139
0.0108184535 0.00031778758 0.00023904412 0.000112551716 0.0005299747 0.00026650677 0.0003434291 0.0036844974
0.00016691515 0.002453962 0.01321157 0.00020372978 0.00027342388 0.00017825079 0.0008495011 6.5611435e-05
0.0061443457 5.4387197e-05 0.00022053721 0.00089697394 0.00053284824 0.00045849849 0.00017178395 0.0021855219
0.00034723416 7.94048e-05 0.0034141191 0.0002720326 0.0005853169 0.00023248544 0.00030000776 0.0010132183
7.7513156e-05 0.0010674413 0.00039644958 0.0037960983 0.0007108823 3.561139e-05 0.00022205978 0.00067421445
0.0077603036 0.00071831717 0.00108449 0.00010504297 0.0006944017 0.0004220911 0.007332039 7.7653254e-05
0.005790992 0.004375758 0.003114504 7.7909506e-05 6.2844265e-05 0.0002763739 0.0015559981 0.00037315293
0.000220136 0.0066242325 0.0027034313 0.0002108949 0.0044844868 0.0007340095 0.0001429042 0.00016503934
0.0010845771 0.0063423007 0.0007344834 0.0011856724 0.009790505 0.0013384476 0.0026410732 0.00015189493
0.005876341 0.0004710741 0.0031109564 0.00014185405 0.00015555897 0.0022194954 0.0014417786 0.0043207193
0.0010237738 0.0044591078 0.0016053108 0.001544809 0.0011915435 0.00028657797 2.8866267e-05 0.0015079794
0.003278601 0.00012758457 0.0016864872 0.00015873794 0.0029482867 0.00061915925 0.00015493724 0.006183079
0.0021119032 0.0054660356 0.017081924 0.00027184433 0.00059128256 0.00017503816 4.27264e-05 0.00023570498
0.010034846 0.0058977758 0.00050565624 0.0041448385 0.0018010604 0.00012333089 0.0006021996 0.00030419743
0.0012916123 0.010684877 0.00013440735 0.000799089 0.0018256081 0.0066148066 0.008760213 0.00049803
0.00060349907 0.0036679425 0.0003982445 0.0007686411 0.00016639549 0.00028531058 0.00012545173 0.00015448498
