mlagents/Assets/results/RollerBallTest2/RollerBall/RollerBall-32300.pt (torch, 445343 bytes, 36 tensors)

network_body._body_endoder.seq_layers.0.weight f4 [128, 8]
00000000: 2749 02be d556 9cbe 60ac 423e 52e8 f6bc
00000010: 38f4 eebd 4682 e0be df5a 823f 1af6 5cbe
00000020: 5af2 4b3e 3350 c6be 3a9d 8e3d 8430 11be
00000030: 4df6 4cbe db86 573b 6f6f 03bf ddec 1dbe
00000040: e63e 26bd 5f30 aebe c53f cf3d ae05 193e
00000050: 9041 88be 0352 dcbc 131f 07bf 3635 7c3d
00000060: 1ea0 17bd e453 cb3d fc69 3e3f f832 063f
00000070: da3e be3d 5989 c9bd a251 383e 4cad e4be
00000080: 4ab1 c6be 5c05 55be 023a 68be 8ac7 a73e
00000090: 8d71 933e 3b36 b1bc 15ab ea3e 704b 1dbe
000000a0: 3f36 b53e 9137 5b3d 8803 423e 0d38 33bd
000000b0: d7df 073f 22c0 fabd ae43 62be 48b8 1bbf
000000c0: 2272 f0bd 46d2 433e 564f c33e 8d2c 683e
000000d0: cc2e 3c3f a9e8 3abe 4ba9 173d b234 f73b
000000e0: c54f e4bd 29e7 99be 0c45 1e3d 5274 6bbe
000000f0: d16c 9d3f 827d fcbe 98be 30bf 1db9 263d
00000100: afcd da3a 5928 b9be 3a44 1e3e 24e4 2dbf
00000110: e3bf 08bf 95e2 0abd 808b 373f dcb8 113e
00000120: e75b cc3d 72d0 963d 49b1 5e3f 4a87 5f3e
00000130: e832 c23e fd85 983e b77f 643e 8417 48be
00000140: 6452 62be 7712 cfbe c4d9 96be dae3 fd3d
00000150: 09f8 b9bd 77e3 63be 6a4b 723d 4d72 0e3f
00000160: aa39 673e d4dc 2c3f 0cd8 6abe 3193 e53e
00000170: 4ba8 de3e bece f73d 196d 953e 8ee3 f0be
00000180: 329b f83e 0070 f7be 1fea c53e 6e00 3a3f
00000190: a2a6 0f3d 17e3 8cbe 904b 47bc 79c3 2cbf
000001a0: 3c28 383e 637e 43be fb87 28be e329 7c3b
000001b0: dec3 1a3f 1bb2 f8bd 0c4e 553e ed8a 6d3e
000001c0: 9839 753e d1c1 2a3e 1f72 18bf de1f d1bc
000001d0: e4e7 cbbe 2691 b2bd d4e5 0d3f 0e96 2e3f
000001e0: bd68 fbbe 7850 88be a7aa d83d ca17 f1bc
000001f0: 95ec 453e 443b 273f fbac c1be d8d4 16bf
00000200: 4caa b5bd 5850 483e dbec a5bd dabd ca3d
00000210: 9543 03bf 1740 823e 361f 8a3d 9492 1abc
00000220: 4788 3d3f 9f6c 25be be72 42bf 7d38 f0bd
00000230: 12a8 d6be 5784 edbc a8d7 53bf 997f d13e
00000240: 1f52 bdbe 0955 97be 09ea 39bf ed74 873e
00000250: fa51 c23e c3de 03bd 40c3 82bf 6421 b53e
00000260: d8d3 2f3e cf31 633e 24e9 0c3c 1c0c 07bf
00000270: 0c7f 60bf b5f8 76be 5c17 58bf 258e 343e
00000280: c7cd 82be 1c00 17bf 588b babe 9c26 ed3e
00000290: 6cfc ea3e 374a 9b3e 0df0 5c3e afdc a8b9
000002a0: 3908 9c3d bf47 d23e 1186 51bd 1e43 b83d
000002b0: b1ab 823e 2764 063e a29d 143f 40cb f1bc
000002c0: 80a0 d5bd 34fb 943e 328c 6f3e d4a5 a43e
000002d0: ca7c eabe 0285 de3d 8f0d e13e ed20 6dbe
000002e0: 0002 4e3f 71f8 0b3f 99b6 b33e 3da5 2e3e
000002f0: b629 843d ce35 123e 99ac 4f3f 1014 b5be
00000300: 7246 d2bb 5104 8cbe fbcb 9eba c213 f6bc
00000310: 40e5 58be e5d2 9f3e 6f93 cabe 6ea2 b93e
00000320: af6c de3e f00e 86be 4b30 f3be 792e 013f
00000330: 3166 49be cbc9 cbbd 19b9 833e 9471 943e
00000340: a049 a9bd 91d9 3e3e b5df 7a3d 6d87 e03e
00000350: 333d 923e ba58 ab3e 5ac3 ab3e b7ee fe3e
00000360: a18d 4ebe 9265 53bd e519 e53d 5de5 0c3f
00000370: b522 debc e99b 153e 14f3 53bc c431 b53e
00000380: 82cd e13d 941d 823c ca36 cdbe d290 b0be
00000390: bac8 b4be 30f7 f5bd 97e7 20bf db7d cdbc
000003a0: da9e fd3c 64f3 5bbe ddcd b13e 6119 09bd
000003b0: 488a e73d 63d1 8ebe 17ca f9be d150 3d3f
000003c0: ca0a 09be 55e7 22be 6129 d43d 4b51 8d3d
000003d0: e4b0 04bf 82ce 423d 621e 0fbf a39d a33e
000003e0: 97f7 413f 2cec 27bf bfd8 913e bcfc dc3e
000003f0: 910d 1b3f ab61 dd3e 006f 91be c918 05bd
-0.12723218 -0.30534998 0.19011068 -0.030140076 -0.11667675 -0.4384939 1.0183982 -0.21578255
0.19916669 -0.38733062 0.06963582 -0.14178663 -0.20015831 0.0032886777 -0.5134191 -0.15422387
-0.04058733 -0.3402128 0.10119585 0.14943573 -0.2661252 -0.026894575 -0.5278179 0.061574183
-0.037017934 0.0992811 0.7438047 0.5242152 0.09289332 -0.0984065 0.1799989 -0.44663465
-0.38807136 -0.20802826 -0.22678378 0.32769424 0.2879757 -0.021632304 0.4583365 -0.15360808
0.3539295 0.05351979 0.1894666 -0.043754626 0.5307593 -0.12243678 -0.2209613 -0.60828066
-0.11740519 0.19123182 0.38146466 0.22673245 0.73508906 -0.18252815 0.037026685 0.0075441236
-0.11148027 -0.30059174 0.038640067 -0.22993591 1.2298833 -0.49314505 -0.69040823 0.04070388
0.0016693379 -0.36163595 0.15455714 -0.6792624 -0.53417796 -0.03390749 0.71697235 0.14230675
0.099784665 0.073639765 0.86989266 0.21828952 0.37929463 0.29789725 0.22314344 -0.1954022
-0.22101742 -0.40443775 -0.29463017 0.12396975 -0.09080512 -0.2225474 0.05915395 0.5564316
0.22580591 0.67524457 -0.22933978 0.4483886 0.43487772 0.1209998 0.29184797 -0.4704861
0.48555905 -0.48327637 0.38655183 0.72656906 0.035071023 -0.27517006 -0.012164012 -0.6748577
0.17984098 -0.19091181 -0.16458122 0.0038477115 0.6045512 -0.12143346 0.20830554 0.23197527
0.23947752 0.16675498 -0.59549135 -0.02552789 -0.39825356 -0.08719091 0.55428815 0.68197715
-0.49103346 -0.26623893 0.10579424 -0.029430289 0.1932853 0.6532481 -0.37827286 -0.58918524
-0.08870372 0.19561899 -0.08101817 0.098994926 -0.51274997 0.25439522 0.06744234 -0.009434361
0.7403607 -0.16154717 -0.7595633 -0.11729524 -0.41925102 -0.028993769 -0.8275094 0.40917662
-0.36976716 -0.29557064 -0.72622734 0.26456395 0.37953168 -0.032194864 -1.0215836 0.35377038
0.17170656 0.22186969 0.008600507 -0.5275285 -0.8769386 -0.24118312 -0.84410644 0.17632349
-0.2554762 -0.5898454 -0.36434436 0.4631852 0.45895708 0.3033006 0.21575947 -0.0003220788
0.07618756 0.41070363 -0.051153246 0.089971766 0.25521615 0.13124143 0.5805303 -0.029515862
-0.104310036 0.29097903 0.23393324 0.32157767 -0.45798331 0.10865213 0.43955657 -0.23157091
0.804718 0.54675967 0.35100248 0.17055221 0.06453268 0.14278337 0.8112274 -0.3536687
-0.006417089 -0.27347043 -0.0012115234 -0.030038718 -0.21181202 0.31215587 -0.39565608 0.36256737
0.43442294 -0.2618327 -0.47497782 0.50461537 -0.19667889 -0.09950598 0.25727156 0.28992903
-0.08265996 0.18637682 0.0612485 0.43853322 0.28562316 0.3346613 0.3354748 0.497915
-0.20171215 -0.051610537 0.111865796 0.5503748 -0.027116159 0.14610256 -0.012936372 0.3538953
0.11025526 0.015883245 -0.40080863 -0.3448549 -0.35309392 -0.12010038 -0.6285338 -0.025084427
0.030959535 -0.21479565 0.34727374 -0.03347147 0.11305672 -0.27894124 -0.48786995 0.7395144
-0.13383022 -0.15908559 0.10359455 0.06900271 -0.51832414 0.047560222 -0.55905735 0.31956205
0.7576842 -0.65594745 0.28485677 0.4316157 0.60567576 0.43238577 -0.28405 -0.03249434

network_body._body_endoder.seq_layers.0.bias f4 [128]
00000000: a62c 2d3b 4400 403c f23d abbc 4dc4 c0bc
00000010: a32f 37bd 8daa c1bc cc5d 0abc fe99 0b3d
00000020: f83c d23b 81d7 0fbd 8829 f1ba f617 e1bc
00000030: d7f9 76bd 2a28 eebc 8371 a3bc f29c e4b7
00000040: 148f a5bc 7e7a 2abc 6e81 ca3d 2730 ac3d
00000050: 61ca 1aba 1a14 253c 0915 163b f921 b1bc
00000060: 9a6d a3bc 0ce3 dabc 86d8 63bb 9473 7fbc
00000070: 8f05 a13d 50cf b63b c593 e8b9 252f 18bd
00000080: 811f 773d 14be 7e3c 3254 54bc 95ef c7bc
00000090: 6c29 e03c f18e 04bd 4054 b4bc 8183 de3b
000000a0: 4a99 9aba ce8c 973d dde3 00bd f873 d1bc
000000b0: 0a19 e43c e3fd 1dbc 108e 0eb7 7bb5 753d
000000c0: fd16 87bc 0350 2935 7ebb 03bd 4e90 f0bc
000000d0: f30a 8d3d 785e f93c 0ee1 c9bc 476b 49bc
000000e0: 0b6a a93c c0f9 83ba 9995 743d 12d8 183d
000000f0: b7af b43c 8734 373d 26a1 83bc ee78 b2bc
00000100: c336 01bd 7d34 5f3d 89e9 1dbd d93d 903d
00000110: 5554 393d e5c2 103d e58c c13d 9433 12bd
00000120: 0632 8bbb f65e 42bc 24ad 993c e1b4 aebc
00000130: d631 873c 62d4 db3d b47b 7c3b 91c0 333d
00000140: bc8d 003d c774 0a3b aa4a 0cbb 782b ca3d
00000150: 9c91 403d 5516 b33a 6eef f23c 6ed4 273d
00000160: 2f33 66bc 19ee 533c 8bce eaba 9a1a bdbc
00000170: f4ed 463b 9285 f7bc 46fa ac3d c9fc ecbd
00000180: aeeb 013d e1d6 8db9 6ab9 85bc 5af0 8b3d
00000190: 7659 3dbd b411 3d3d 94f5 aebc 7d80 db3c
000001a0: f1a9 e7bb 0102 c83d 1288 053e f540 bdbb
000001b0: 84ff 0b3e 5b54 75bc 5f3c a83a bd88 12bd
000001c0: e010 8b3c d055 d23c bda7 9ebd eb13 f6bb
000001d0: ded6 1a3d 9043 233d 88f0 c6bc f3f1 ee3a
000001e0: be39 b4bc 83c9 2a3d 0bc5 a03b 8d6a 043d
000001f0: b6ce d83c 5e38 f23d 69a2 e4bc af07 89bc
0.0026424318 0.011718813 -0.020903561 -0.023531104 -0.044723164 -0.023640895 -0.0084452145 0.034082405
0.0064159594 -0.03511763 -0.0018399218 -0.027477246 -0.06029686 -0.029071886 -0.019951588 -2.7252801e-05
-0.020209827 -0.010405181 0.09887968 0.08407622 -0.00059047906 0.010075593 0.0022900722 -0.021622645
-0.019949723 -0.026719593 -0.003476651 -0.015591521 0.07862388 0.005578913 -0.00044360585 -0.037154336
0.06033278 0.015548248 -0.012959527 -0.024406234 0.027363501 -0.032362882 -0.02201283 0.006790579
-0.0011794951 0.07399903 -0.031467307 -0.025567994 0.02784397 -0.009643051 -8.496936e-06 0.059987526
-0.016490454 6.307384e-07 -0.03216123 -0.029365685 0.06886854 0.030440554 -0.024643447 -0.012293643
0.020680448 -0.0010068938 0.05971298 0.037315436 0.022056444 0.04472783 -0.016068053 -0.02178618
-0.031546365 0.054493416 -0.038552795 0.070430465 0.04524644 0.035342116 0.094507016 -0.03569372
-0.0042479066 -0.011863461 0.018759318 -0.021326484 0.016503256 0.10733868 0.0038525881 0.043884818
0.03138517 0.0021126734 -0.0021406808 0.09871572 0.047013864 0.0013663272 0.029655185 0.040974073
-0.014050289 0.012935185 -0.0017914338 -0.023083974 0.0030354233 -0.030215058 0.08446173 -0.115716524
0.031718902 -0.00027053713 -0.016323764 0.06832953 -0.046227895 0.04615946 -0.021357335 0.026794666
-0.007069819 0.09766007 0.13040188 -0.0057755657 0.1367169 -0.014973725 0.0012835375 -0.035774935
0.01697582 0.025675684 -0.07746837 -0.0075096986 0.03780257 0.039859354 -0.024284616 0.0018230065
-0.02200019 0.041696083 0.004906302 0.032328177 0.026465755 0.118271574 -0.027909474 -0.016727297

network_body._body_endoder.seq_layers.2.weight f4 [128, 128]
00000000: 9fbf 083d 5992 543c afbd 82bd cc41 40be
00000010: f6cd 52bc fe7d 2dbe 6f9b a03d 6e12 4bbc
00000020: c386 7e3e b189 cc3d 32e6 f33d 6c6e 94bd
00000030: 27ab 53bd 1528 a03d 3112 0cbd 5059 19be
00000040: f6d6 b23d a8ef 093d 3f07 9f3c fa34 933d
00000050: 8819 f0bd 2d5a 263c 5db0 033e 9f2a 673d
00000060: 10ec 44bd 815c 783d a7b1 753c 098d 1aba
00000070: 6e5f 7bbd f8c4 b8bd b520 b03d 4138 b53c
00000080: a0b5 0cbd 0f23 86bc 2f5c 8a3d 2e26 f7bd
00000090: 08ed 80bd cce9 21be c156 243d c7f5 debd
000000a0: c225 aa3d 5c5b 1b3d fe24 053e 1d27 01bd
000000b0: 9c61 ef3d 9be0 f43c 6113 3f3d dc22 1cbd
000000c0: 2ce5 083c b70f bcbc 3eff c3bd fa09 ae3d
000000d0: 3f8c 853e dfda 883d 8a4b 2ebe 900f cd3d
000000e0: 0c47 fbbd e8da 2dbe 66f0 223e 339e 143d
000000f0: ae78 6f3e cec6 173e 8abe 06bc da47 0c3e
00000100: 8953 86bd 1ef4 3f3e 03f8 5f3d cf07 073e
00000110: f0a3 393d 544f f03d 8101 cabc b1f7 293d
00000120: 340f 38be c7fc 293e 2850 afbd f522 063d
00000130: b0ab 143d 2f51 c43d e651 0a3a 3681 f3bd
00000140: 8626 5f3d 3a38 453c 5f6c 323d a67a 8f3d
00000150: f379 95bd 555f acbd 0799 903d a029 1c3e
00000160: 24c9 b0bd 3852 113d 8e56 9abd b6e0 c73d
00000170: 742e 043d 9f2b 9e3c a643 f4bd 4fb6 23bc
00000180: d1cb bdbd 141d 05be d97c 1fbc ed30 8a3d
00000190: 2810 b83c 26c4 89bd 3b79 923d 32bf 6b3d
000001a0: 3b37 2bbd 8d55 463e 3432 14bd efc8 92bc
000001b0: ca4e ce3d 06c1 d83c 7012 9abc 89e3 7fbd
000001c0: 33da 3cbe bec9 61bd 8f64 7b3d bafc 983c
000001d0: 3826 93bc 4c47 e23d eb24 79bd ae5d a5ba
000001e0: ea8c b9bc d994 a8bd f8e3 e93d 64c7 67bd
000001f0: 46ff 403e fb63 b53d 82e2 093d ec8d 2f3d
00000200: a76b 5d3d 695e ee3d 0805 debd 627b 1abc
00000210: 3769 dfbd 4d33 f3bc fac8 0ebd 6e83 1b3c
00000220: c6b2 853d dabe 433e bdd5 91bd ae4e 693c
00000230: c26f 7c3d ae9e 063c 490d 7b3d 561e eabc
00000240: c09e 02bd 0fd5 b03d 3815 833b b15e f83d
00000250: f814 bb3d 5c66 b1bd b0bb 7b3d 3cc4 1cbd
00000260: b0d9 bf3b b1a8 8b3e 614d 323c 8a19 f03d
00000270: d337 a139 c4cb 21bd 0202 f23b 7863 7b3d
00000280: df2e a7bc 4339 f63d 1c48 9f3a 6fcc 4dbe
00000290: 0eac 463d 795f 68bd 3974 ed3b 33d9 29be
000002a0: 993a 093d 2b43 c1bd 7d9d 74bc 2b58 f8bd
000002b0: 9ea6 1ebd f628 01bd fc2d d9bb d44e 873d
000002c0: 900b 64bd 6671 eabc 4cca 17be 1944 61bd
000002d0: 2f70 063c 0f53 c7bd 792f 973d d3aa ad3d
000002e0: 2b1c 5d3c 22e8 c43d 4301 1f3d 9f5c a53d
000002f0: 1e85 3abe 2865 97bd 7402 d03c 9637 693c
00000300: 8d78 103d b42d 42bb 29cc 1dbe 535b d73b
00000310: 53c6 d7bc 25a8 13be 7ff9 b2bd 0f9d 11be
00000320: c57a 33be 9ce2 8bbd ab41 22bd 5212 f53d
00000330: 2c51 113d ffbd e1ba c1b2 e8bd 7089 423c
00000340: 907e 49bd b986 c23d cfa6 c63d ab5f 1a3e
00000350: a042 50bd a206 ba3d f061 c13b d0f0 a9b9
00000360: e690 f1bc e48e 29be 45ab f1bd cb6b be3c
00000370: a138 aa3b 5c68 cf3c 7088 32be e62a b7bd
00000380: df01 25bd c878 9dbc c2f5 393d 9e28 0dbe
00000390: e286 1d3d 3b07 06bd 877c 77bd 9a47 c93d
000003a0: a24b e8bc 5832 cabc bc2a 983d d9da 8dbd
000003b0: 315f 6c3a e30e 63bb 3654 5d3c 4f60 7f3e
000003c0: 8451 96bd 756a 083c 8a90 20bd cbdf acbb
000003d0: be7e 17be f2d8 7dbd 5185 923d 628b aa3d
000003e0: 9d88 ffbd 1106 bbbd aef3 b93d 2e04 b83c
000003f0: faf4 c3bd 96f2 1b3e f272 7ebd f621 3f3d
0.03338587 0.012974345 -0.063838355 -0.187751 -0.012866488 -0.16942593 0.078421466 -0.012394531
0.24856095 0.099872 0.11909141 -0.07247624 -0.051676895 0.07820145 -0.034197036 -0.14975476
0.08732407 0.03367582 0.019412635 0.07187839 -0.1172362 0.0101533355 0.12860246 0.05643713
-0.04807669 0.060635094 0.014995969 -0.00058956497 -0.061370306 -0.09021944 0.08599988 0.02212155
-0.0343529 -0.01637414 0.06755864 -0.12067829 -0.0629521 -0.15811843 0.040121797 -0.10886722
0.08307983 0.037928924 0.13002393 -0.031531442 0.116885394 0.029892256 0.04664934 -0.038119182
0.00835542 -0.022956712 -0.09570168 0.08497997 0.26083562 0.06682371 -0.17021003 0.10012734
-0.122694105 -0.16978037 0.15912017 0.036283683 0.2338588 0.14821932 -0.008224139 0.13699284
-0.06558902 0.18745467 0.05467988 0.13186572 0.04532236 0.11733881 -0.02465892 0.041495983
-0.1797455 0.16600333 -0.085602105 0.03274818 0.036296546 0.09585797 0.0005276486 -0.118898794
0.0544801 0.012037331 0.043560382 0.07005815 -0.072986506 -0.08416621 0.07060438 0.15250254
-0.086321145 0.0354788 -0.0753604 0.09759657 0.032270864 0.01930791 -0.119269654 -0.009992196
-0.092673905 -0.12999374 -0.009734356 0.06747613 0.022468641 -0.067268655 0.07152029 0.057555385
-0.04180072 0.19368573 -0.03618069 -0.017918078 0.100736216 0.026459228 -0.01880762 -0.062472854
-0.18442611 -0.055124037 0.061375197 0.018675197 -0.01796256 0.11048755 -0.060826223 -0.001261642
-0.0226502 -0.082315154 0.11420435 -0.056586638 0.18847379 0.088569604 0.03366328 0.042859957
0.054057743 0.11639101 -0.108408034 -0.009428831 -0.1090874 -0.029687548 -0.034859635 0.0094917845
0.06528239 0.19115773 -0.071208455 0.01423995 0.061630018 0.008216543 0.061291967 -0.028578918
-0.031889677 0.08634388 0.004000332 0.12127436 0.09134859 -0.086621016 0.06145829 -0.03827308
0.005854808 0.2727714 0.010882706 0.11723621 0.00030749905 -0.039500967 0.0073854933 0.061374158
-0.020408092 0.120226406 0.0012152228 -0.20097516 0.048503928 -0.056731675 0.007246521 -0.16586761
0.03350315 -0.094366394 -0.014930126 -0.12126192 -0.038733117 -0.031533204 -0.006627796 0.06606832
-0.05567509 -0.028618526 -0.14823264 -0.054996584 0.008205458 -0.09732639 0.073821016 0.08479848
0.013495485 0.09614588 0.038819563 0.08074307 -0.18214843 -0.07392341 0.025391795 0.014234444
0.035271216 -0.0029629292 -0.15409912 0.006572166 -0.026339686 -0.14419611 -0.08738994 -0.1422007
-0.17527302 -0.06830332 -0.039613407 0.11966385 0.035477802 -0.0017222761 -0.113622196 0.011873588
-0.049192965 0.094983526 0.09699785 0.15075557 -0.05084479 0.09083296 0.0059015676 -0.0003241361
-0.029488038 -0.16558415 -0.11800245 0.023244759 0.005194739 0.025318317 -0.1743486 -0.08943729
-0.040284988 -0.019222632 0.04540039 -0.13785025 0.038458712 -0.03272174 -0.060421493 0.0982811
-0.028356377 -0.024682209 0.07430026 -0.069265075 0.000901687 -0.0034646324 0.013508847 0.24939083
-0.073397666 0.008326163 -0.039200343 -0.0052757016 -0.14794442 -0.061974473 0.07154334 0.083273664
-0.12477229 -0.091320165 0.09079681 0.02246293 -0.0956821 0.15229258 -0.06212134 0.046663247

network_body._body_endoder.seq_layers.2.bias f4 [128]
00000000: 4eca 8bbc 8f85 51bc 13ed d4bb 7971 30bc
00000010: 637c 96bc e6d3 113b c3c3 2cb9 69ad 1fb7
00000020: 0add 79bc 8ca5 23bc 3a9e 01bc 3d23 a8bc
00000030: 9178 50bc fc6b 523c 88ce 0abc 9a97 48bc
00000040: e1f8 48bb 4f4e 0dbc 05c7 28bc ca0d 44bc
00000050: c7d8 89bb bf83 f3bb c82b a3bb b531 2bbc
00000060: 02e8 c8bc 0e72 ecbb e7e4 9cbb 031d 60bc
00000070: 5555 67bc 2928 6dbc b55a 0bbc f091 5cbb
00000080: 9268 21bc b46d 8fbb 57c7 8abc 96a8 96bb
00000090: 59fd 2ebc 51e8 87b9 e3f7 4dbc f72b e13b
000000a0: 91d8 0eba 05e5 2abc ee28 73bc 667d 5bbc
000000b0: 9421 17bc 630b e8bc 3a24 8fbc 2a98 143c
000000c0: 054e f3ba 7421 3cbc e6a7 343c 3f80 37bc
000000d0: e84c b1bc 8913 20bc b0d9 9fbc 6385 2d3c
000000e0: daa0 b2bb 4d04 f9bb 774b 0abc 5f2e bdbb
000000f0: 492e a0bc fd6a d2bb ba19 b8bc 5d6b 92bc
00000100: da46 44bc d72c bd3b f0a5 f6bb 355b e7bb
00000110: 48c7 0bbc edf2 bebb 0b00 69bc cf55 7ebc
00000120: 7b81 29bc ce5a 02bc b9b4 bdbb 36c1 15bc
00000130: 2b4b 0abc 0a4d d1bb 2ac2 3abc a4d2 08bb
00000140: cd43 51bc 751c 20bc 9a4c 273a 2dcf 9831
00000150: f43a 09bc 1eb8 f0bb 4b60 8038 5612 59bc
00000160: abe7 7abc 7a57 19bc 8c51 41bc 5722 3dbc
00000170: c292 31bc cab5 09bc 6da0 37bc 592e e4bb
00000180: 0cce 79bc 1ed6 06bc 34d4 43bb e26a 01bc
00000190: e7aa d1bc 2922 fdb9 a0a3 d3bb 2342 c4bb
000001a0: bd87 00bc 3165 6abc 2aff 8a3b a022 1dbc
000001b0: 3dcb 54bc 46e4 cebb a450 2c3c c341 a8bc
000001c0: 3309 76bc 989f 64bc 0b83 c7bb 5370 23bc
000001d0: a7a7 eebc c061 abbc c3cb bdbb 25ce 57bc
000001e0: 100e 84bc 494b 02bc 4a15 44bc d68f 96bc
000001f0: 5821 20bc 4f63 0bbc 03ea cdbb 6d4b 023a
-0.01706424 -0.0127881905 -0.006497988 -0.0107692415 -0.01836986 0.0022251545 -0.00016476125 -9.517514e-06
-0.015250454 -0.0099882 -0.007911259 -0.020524615 -0.012724058 0.012843128 -0.008472092 -0.012243176
-0.0030665922 -0.008624627 -0.010301356 -0.011966178 -0.00420675 -0.007431477 -0.0049795844 -0.010448863
-0.024524692 -0.007215745 -0.0047880295 -0.013678792 -0.014119466 -0.014474907 -0.008505513 -0.0033656321
-0.009851592 -0.0043770913 -0.016940756 -0.0045977337 -0.01068052 -0.00025922296 -0.012571308 0.006871696
-0.0005449141 -0.010430579 -0.014841301 -0.013396597 -0.009224314 -0.028325742 -0.017473329 0.009069482
-0.001856268 -0.011482585 0.011026358 -0.01120001 -0.021643117 -0.009770283 -0.019512981 0.010590884
-0.005451304 -0.0075993896 -0.008440844 -0.00577335 -0.01955332 -0.0064214454 -0.022473205 -0.01787346
-0.011979783 0.0057731676 -0.0075271055 -0.0070604333 -0.008531399 -0.005827299 -0.014221202 -0.015523388
-0.010345812 -0.00795622 -0.005789366 -0.009140303 -0.008440773 -0.0063873576 -0.011398831 -0.0020877505
-0.012772513 -0.00977241 0.0006381959 4.4473354e-09 -0.008375872 -0.007346167 6.1214516e-05 -0.013249001
-0.015314023 -0.009359235 -0.011799227 -0.011543832 -0.010838212 -0.008405158 -0.011207682 -0.006963533
-0.015246879 -0.00822976 -0.0029881122 -0.007899018 -0.025594188 -0.00048281372 -0.0064587146 -0.0059893294
-0.0078448625 -0.0143063525 0.0042418437 -0.009590775 -0.012987909 -0.0063138334 0.010517273 -0.02053917
-0.015016842 -0.013954066 -0.0060886196 -0.009975511 -0.029132677 -0.020920634 -0.0057921126 -0.013171707
-0.016119987 -0.00795252 -0.011967966 -0.018379133 -0.009773575 -0.008507564 -0.006284 0.0004970346

action_model._continuous_distribution.log_sigma f4 [1, 2]
00000000: 7fce 0bbe f6f3 aebd
-0.13652991 -0.085426256

action_model._continuous_distribution.mu.weight f4 [2, 128]
00000000: f38f 04bc d024 a93b 7be5 09bb 5acc 543d
00000010: 7eb5 09bd 5cad f6bc df9a ccbb 6d68 fe3b
00000020: 5a30 08bd 7ff8 8a3b 06f9 293d bb2b 99ba
00000030: 1520 f7bc 9e82 7fbd 098e c9bc 9db9 74bc
00000040: ee98 80bc 9879 3a3c 651c 16bc 652d 94bc
00000050: 2e2a 14bd 9710 7e3c bc11 13bd a288 993c
00000060: d602 0c3b e1f3 a1ba 1c0f 7a3c ebde 27bd
00000070: 0474 8c3c e22d a03c 7daa b6bc 56ae 83bb
00000080: 72ce 41bb c18a 26bd 767d 263d 6ffa 753c
00000090: 7f1f b83c 47a0 f63c 0d53 053c 62fb b2bc
000000a0: 6515 c03c d5ef e93c 31d6 db3c b03b 883b
000000b0: aeae f43c 9425 eebb f793 333b 9f70 583d
000000c0: b5b2 09bd 7413 a6bc f449 afbd aa91 0ebc
000000d0: 2ce8 20bc 90d4 cfbc 9220 6c3b 7cc7 bc3d
000000e0: 3df5 1bbc 84c0 d5bc f160 da3c ec3a 9cbb
000000f0: db08 1ebd ee72 8cbb e2ad 53bc ca28 cab9
00000100: 2110 17bd aae0 04bd 0d56 83bc b95f e7bc
00000110: 36d6 65bb 1bf0 02bd 83bd 1c3d e98d ec3b
00000120: 5b40 a13a f9c7 adbb e9c5 a2bc 7416 353c
00000130: 2868 cfbc 9884 4c3c 38aa 85bb 4a01 b83c
00000140: 40f8 8e3a 770a a53b 9846 213d 143b 2bbb
00000150: ff9e 8e3c d093 903c 3f2f 76bc d065 0e3b
00000160: 8d6a e4bc dc4b 243d f6a7 92bc 6ef1 4b3c
00000170: ce56 1fbc fa67 8e3c 340e 00bc 23d4 ed3c
00000180: 148f 96bb 0f18 e23b 3d46 5bbd bd2a b9bc
00000190: 50c8 73bc 9eb8 ee3c 36cc 4c3b b848 42bd
000001a0: 7ebb 9fbc c519 673c 6ebb 2bbd 4fd6 d43c
000001b0: a14f a6bc 70e8 2cbc ed28 79bd 02e7 7ebc
000001c0: f4bd 84bc 2812 ccbc a043 eb3c 37fa 85bc
000001d0: 0194 02bc 6c04 93bb fda5 ac3c 1029 54bc
000001e0: 9062 913b 63f2 40b9 6ee0 78bc 2c7e 103c
000001f0: bdef 0f3c 4526 163b 6ce9 27bc 9e29 71bd
00000200: cab6 93bc a70d e33c e87a bcbc 266d 353c
00000210: 570e 923c cad4 1eba 45b0 f0bc 22e2 a3bc
00000220: 3535 153c 31ed 82bd 4391 63bd 5203 8f3c
00000230: 7d0b 94bc 401e b5bc e66b e5bb fcbe 603c
00000240: 5e0b 1cba 4320 dfbc e2b4 66bb 4d58 22bb
00000250: 4ad2 f83b 31ea a4bc 6b41 cfbb 52a9 f43c
00000260: 1767 113c d598 ca3c 2d05 013d 5e05 8c3c
00000270: 9c1d 1fbd 0a7b b53c c633 6abb 7730 6d3b
00000280: fb13 15bc b5b5 af3b 9dc8 ccba bcfc 4bbd
00000290: 705d e33b e522 6639 a4e0 9b3b 44d6 1cbd
000002a0: 2a5a fdbc 1e40 1e3a ebeb a93b cbc0 72bc
000002b0: 578b d73c d8e3 7e3c 74f6 333c f713 1fbc
000002c0: 92fa ac3c a384 07bd 0672 d1bc 2d16 8a3b
000002d0: 1a58 96bb 3e05 bebc 705d 733c f894 b337
000002e0: 5ae8 74bb e115 2fbc 2012 46bd ee2f f03c
000002f0: 5dc6 25bc 7820 77bc f5f6 3b3c 111b d03b
00000300: 7c34 e2ba d6b3 a8bc 8b96 403b adde 263c
00000310: 8cce 18bc dc52 3bbc 2693 403a 34af 0fbd
00000320: 685d 693c 2429 8ebb 46ac 84bc 9879 3dbc
00000330: d79d e73b 8154 e23c 106c ee3a 34b8 863d
00000340: e4a1 b4bb df88 10bd d542 b3bc febb b1bb
00000350: 6c1f b9bb f3a5 07bb 8b66 0c3c bff8 c43b
00000360: 1545 08bc 0212 55bd 5914 3fbc 2890 05bc
00000370: 1d3a 9bbc 4cde eb3c 63e0 01ba 37cb 5ebb
00000380: e783 a5bc b062 ccbb f79c f1bc 988a 743d
00000390: bcdc 28bc 490b 8fbc 09fe 523b bb08 23bd
000003a0: 9b81 f53a 4586 13bc f4f6 0abc e7c7 2bbc
000003b0: cd75 8fbc 319b d7bc 1163 2bbc 4b9d 4abc
000003c0: 0492 04bb 699b ecbc 216d 95bc b968 9f3b
000003d0: 27b1 fa3b 16f3 fe3c a8c0 f7bc 1a03 d8bc
000003e0: 5760 d2ba 5def db3a 0929 20bc 06ad 353d
000003f0: 2a64 eeb8 1f26 af3b a0e8 9fbc 75ed a9bb
-0.008090961 0.005161859 -0.0021041322 0.051952697 -0.03362035 -0.030111961 -0.006244048 0.0077639134
-0.033249237 0.004241049 0.041497253 -0.0011686006 -0.030166665 -0.062380426 -0.02460386 -0.014936832
-0.015697923 0.011381529 -0.009162043 -0.018088052 -0.03617304 0.015506885 -0.035905585 0.01874191
0.0021363995 -0.0012356007 0.015262391 -0.040984076 0.017145164 0.019553129 -0.022298092 -0.004018585
-0.0029572514 -0.04065967 0.040646993 0.015013321 0.022475956 0.030105723 0.008137477 -0.021848384
0.023447702 0.028556744 0.026835533 0.004157506 0.02986845 -0.0072676633 0.0027401426 0.05284178
-0.033617694 -0.020272948 -0.08559027 -0.008701721 -0.009820979 -0.025369912 0.0036030156 0.09217736
-0.009518919 -0.026092775 0.026657553 -0.004767766 -0.038582664 -0.0042861616 -0.012919875 -0.00038558833
-0.036880616 -0.03244082 -0.016032243 -0.028243886 -0.0035070307 -0.031967264 0.03826667 0.0072190654
0.0012302505 -0.0053033796 -0.019869762 0.0110527165 -0.02531822 0.012482785 -0.0040791295 0.022461552
0.0010907724 0.005036648 0.039373964 -0.0026127743 0.0174098 0.017648607 -0.015025913 0.0021728165
-0.027882839 0.040111408 -0.017902356 0.012447698 -0.009725286 0.017383564 -0.007815886 0.029031819
-0.004594693 0.0068998407 -0.05353378 -0.022603387 -0.014879301 0.029140767 0.003124965 -0.04743263
-0.019498583 0.014105265 -0.041926794 0.025981097 -0.020301642 -0.010553464 -0.060830045 -0.015558006
-0.016203858 -0.024911001 0.02871877 -0.016354663 -0.007969857 -0.004486611 0.021075243 -0.012949243
0.0044367984 -0.00018400843 -0.015190227 0.008819144 0.008785185 0.0022910994 -0.010248523 -0.05887758
-0.018031497 0.02771647 -0.023007825 0.011073386 0.017829103 -0.000605893 -0.029380927 -0.02000529
0.009106924 -0.06392897 -0.055558454 0.017457638 -0.018071884 -0.02210915 -0.007001388 0.013717409
-0.00059526216 -0.027237063 -0.003520303 -0.002477187 0.007593428 -0.020131202 -0.006324937 0.029865894
0.008874676 0.02473108 0.031499077 0.017092403 -0.038846597 0.022153396 -0.0035736426 0.0036192217
-0.009099002 0.0053622373 -0.0015623752 -0.049801573 0.006938629 0.00021947509 0.004757004 -0.038290277
-0.030926783 0.0006036776 0.0051855943 -0.014816473 0.02631156 0.015557252 0.010984052 -0.00970935
0.021115575 -0.033085477 -0.025567066 0.0042140693 -0.0045881392 -0.023195859 0.01485382 2.1407832e-05
-0.0037369938 -0.010686369 -0.04835713 0.02931973 -0.010118094 -0.015083425 0.011472453 0.006350883
-0.0017258073 -0.020593565 0.0029386606 0.010184926 -0.009326588 -0.011433329 0.00073461456 -0.035079196
0.014243461 -0.0043384004 -0.016195428 -0.011564635 0.0070683765 0.027628185 0.0018190164 0.06578103
-0.005512463 -0.03528678 -0.021882454 -0.0054240217 -0.0056494977 -0.0020698279 0.00856937 0.006011098
-0.008317252 -0.052019127 -0.011662566 -0.008152045 -0.018948609 0.028792523 -0.00049543957 -0.0033995637
-0.020204498 -0.0062373504 -0.029493792 0.059702486 -0.010306533 -0.017461436 0.0032194874 -0.039803248
0.0018730642 -0.00900418 -0.00848173 -0.010484672 -0.017512226 -0.026319118 -0.010460631 -0.012366603
-0.0020228634 -0.0288827 -0.018240513 0.004864779 0.0076505127 0.031121772 -0.030243233 -0.026368666
-0.001605044 0.001677971 -0.009775409 0.04435446 -0.000113673814 0.0053451206 -0.019520104 -0.005185778

action_model._continuous_distribution.mu.bias f4 [2]
00000000: d71a 293b d933 44bb
0.0025803351 -0.002993813

exp_avg f4 [128, 8]
00000000: c41a 473d cbf9 6b3a 0000 0000 de54 273d
00000010: d1f9 6b3a cbe5 2cbd 150a 95ba 968d 8c3a
00000020: 6c2f 28bd a854 47ba 0000 0000 d4e3 0ebd
00000030: 9e54 47ba bec2 0c3d cef0 323a c64f 55ba
00000040: 5268 4ebc 8ea1 74b9 0000 0000 8ca1 2dbc
00000050: 8aa1 74b9 af9d 303c 668e 6039 40b7 9db9
00000060: 39b0 d93c 2200 013a 0000 0000 b9f8 b53c
00000070: 2800 013a 0d09 c0bc 8405 31ba 8d50 243a
00000080: 2b21 853b 7ec8 9d38 0000 0000 3fc8 613b
00000090: 7bc8 9d38 b506 62bb 3148 94b8 bbe3 a938
000000a0: 90e3 543c 0f50 7c39 0000 0000 6d19 343c
000000b0: 1250 7c39 710b 36bc 9105 95b9 1a89 8539
000000c0: 40e6 e2b9 7a75 06b7 0000 0000 2d13 c8b9
000000d0: 4075 06b7 bca8 9539 7b06 bfb7 9523 6cb7
000000e0: 1bf2 37bd 8102 5aba 0000 0000 dd00 1cbd
000000f0: 7802 5aba d2df 1a3d 4b81 3d3a d44a 80ba
00000100: 6b85 c6b2 cc48 ebaf 0000 0000 c6bf a8b2
00000110: d548 ebaf 371d ad32 797e b7ae 89af afaf
00000120: a976 843a 6afe 9c37 0000 0000 e9a9 643a
00000130: 6afe 9c37 8099 5eba 9041 41b8 3a73 0537
00000140: 0f52 20bc 7102 3eb9 0000 0000 02bd 01bc
00000150: a502 3eb9 7088 203c 5616 af39 20d2 89b9
00000160: 6d87 5c3c 12af 8239 0000 0000 2a84 373c
00000170: 1caf 8239 c495 44bc 6a3b b0b9 e35e a639
00000180: 4ea2 403c 964e 6439 0000 0000 0cc3 213c
00000190: a04e 6439 2ab7 27bc f8e6 79b9 8897 7639
000001a0: 4481 133c 1bd2 2e39 0000 0000 1911 fb3b
000001b0: 09d2 2e39 ab14 f2bb 2f85 ffb8 8529 4e39
000001c0: 2fe1 1a3c a08f 3739 0000 0000 0f98 023c
000001d0: 9e8f 3739 ecb3 04bc 2ec4 3bb9 f42a 5b39
000001e0: a333 1b2a 5af1 3727 0000 0000 9ef6 e629
000001f0: 8cf1 3727 1377 fba9 c405 d5a8 0242 d1a6
00000200: 50da dd37 e377 0335 0000 0000 ee92 cd37
00000210: c777 0335 a1f3 97b7 4e8d cc35 f7d9 05b5
00000220: 5fc1 e2bc a15f 06ba 0000 0000 eca2 bebc
00000230: a35f 06ba be37 c43c a6c6 253a 865d 21ba
00000240: cbe7 d4bb 1555 fcb8 0000 0000 4eb6 b3bb
00000250: 1955 fcb8 cd41 b53b 1172 9938 b2b0 18b9
00000260: 2ef0 33bc 9542 55b9 0000 0000 e2de 18bc
00000270: 9342 55b9 9beb 163c a53e 1a37 65aa 29b9
00000280: 7596 9a3a 0e37 b737 0000 0000 fd05 853a
00000290: f036 b737 6e20 75ba 10da 42b7 cd28 2438
000002a0: 2f4e bb3c d5fd dd39 0000 0000 22b7 9e3c
000002b0: ccfd dd39 8695 9dbc 855e ceb9 a1c0 083a
000002c0: c5b3 8d3d 80f1 a73a 0000 0000 5c43 6f3d
000002d0: 7ff1 a73a 704e 72bd e56a aaba 6ecb c43a
000002e0: 7aa0 773c e8bd 9239 0000 0000 a20e 513c
000002f0: e7bd 9239 5244 53bc cde7 95b9 dcff b139
00000300: a3e6 0ab8 939f 24b5 0000 0000 98c8 ebb7
00000310: 8f9f 24b5 19b3 e637 a438 1635 47cf 96b5
00000320: 70d5 0e3d cf48 293a 0000 0000 6518 f13c
00000330: cf48 293a daa2 f4bc 206a 30ba ba0a 443a
00000340: a341 333c b873 5439 0000 0000 797c 1c3c
00000350: 9673 5439 cb7f 08bc c75c a538 8005 a439
00000360: aa3b 423b bf33 6638 0000 0000 697d 273b
00000370: b033 6638 44bf 19bb 0b62 12b8 17a6 2a38
00000380: d617 cfbb 9871 f5b8 0000 0000 aa14 afbb
00000390: 9671 f5b8 cd22 b03b 461e b238 e953 f5b8
000003a0: 7641 fbbc 6be4 14ba 0000 0000 ee6a d3bc
000003b0: 6ee4 14ba 4d68 d93c 1920 3d3a 42c0 2fba
000003c0: ebad 87bb 20ce a0b8 0000 0000 09a6 65bb
000003d0: 22ce a0b8 ce20 673b 1687 a838 e9ab cdb8
000003e0: 5ea2 56bc 9e61 7eb9 0000 0000 b6ab 32bc
000003f0: b061 7eb9 8995 3e3c 5ff6 b739 13ce a8b9
0.04860951 0.00090017606 0.0 0.04085242 0.0009001764 -0.042211335 -0.0011370803 0.0010723348
-0.04106085 -0.00076038623 0.0 -0.034885243 -0.00076038565 0.034365408 0.0006826044 -0.00081371923
-0.012598114 -0.00023329837 0.0 -0.010597598 -0.00023329831 0.010779782 0.00021415352 -0.00030081905
0.026573287 0.0004920979 0.0 0.022213327 0.0004920983 -0.023441816 -0.0006752836 0.00062681065
0.004062792 7.523688e-05 0.0 0.0034451631 7.523686e-05 -0.003448886 -7.070637e-05 8.100966e-05
0.012993708 0.00024062417 0.0 0.01099239 0.00024062421 -0.011111126 -0.00028423642 0.00025469885
-0.0004327763 -8.0143745e-06 0.0 -0.0003816126 -8.014322e-06 0.00028545212 -2.2771992e-05 -1.4074981e-05
-0.044908624 -0.0008316413 0.0 -0.03808676 -0.0008316408 0.037811108 0.0007229044 -0.0009787926
-2.3110905e-08 -4.2797976e-10 0.0 -1.9644983e-08 -4.2798e-10 2.0153136e-08 -8.3443426e-11 -3.195704e-10
0.0010106164 1.871512e-05 0.0 0.00087228284 1.871512e-05 -0.0008491501 -4.6075846e-05 7.954246e-06
-0.009785189 -0.00018120722 0.0 -0.007918598 -0.00018120797 0.009798154 0.00033395243 -0.00026287232
0.013460022 0.0002492597 0.0 0.011200944 0.00024926 -0.0119985975 -0.00033613603 0.00031732683
0.011757446 0.0002177305 0.0 0.009873163 0.00021773065 -0.010236541 -0.00023832533 0.00023516838
0.009002987 0.00016672203 0.0 0.0076619503 0.00016672177 -0.0073877177 -0.00012184155 0.00019661158
0.009453102 0.00017505744 0.0 0.007970824 0.00017505742 -0.008099537 -0.00017906792 0.00020901469
1.378468e-13 2.5527189e-15 0.0 1.0256833e-13 2.5527295e-15 -1.1167295e-13 -2.3650251e-14 -1.452018e-15
2.6446913e-05 4.897576e-07 0.0 2.4506324e-05 4.89756e-07 -1.8114051e-05 1.524031e-06 -4.986354e-07
-0.027680097 -0.0005125944 0.0 -0.023271047 -0.00051259453 0.023952361 0.00063238514 -0.00061555987
-0.0064973584 -0.00012032144 0.0 -0.005484379 -0.00012032147 0.0055315257 7.316855e-05 -0.00014561674
-0.010982556 -0.00020338067 0.0 -0.009330483 -0.00020338064 0.009211446 9.193701e-06 -0.00016180573
0.0011794107 2.1840937e-05 0.0 0.0010148879 2.1840882e-05 -0.00093508407 -1.1614073e-05 3.9138646e-05
0.02286443 0.00042341524 0.0 0.019374434 0.00042341498 -0.019236337 -0.00039361804 0.0005216692
0.06919054 0.0012813061 0.0 0.05841385 0.001281306 -0.059156835 -0.0013001828 0.001501424
0.015113944 0.0002798878 0.0 0.012759836 0.00027988778 -0.012894707 -0.000285922 0.000339507
-3.311656e-05 -6.132697e-07 0.0 -2.8107592e-05 -6.132695e-07 2.7501535e-05 5.596178e-07 -1.1236197e-06
0.03487152 0.00064576877 0.0 0.029430578 0.00064576877 -0.02986281 -0.0006729681 0.0007478405
0.010940942 0.00020261004 0.0 0.009551161 0.00020260955 -0.0083312495 7.885094e-05 0.00031284615
0.0029637613 5.4884465e-05 0.0 0.0025556928 5.488441e-05 -0.002345995 -3.4900422e-05 4.068584e-05
-0.00631998 -0.00011703669 0.0 -0.0053430395 -0.000117036674 0.0053752423 8.49334e-05 -0.0001169814
-0.030670863 -0.0005679789 0.0 -0.025807824 -0.00056797906 0.026538992 0.0007214561 -0.0006704369
-0.0041406057 -7.667788e-05 0.0 -0.0035041592 -7.66779e-05 0.0035267356 8.036026e-05 -9.8071825e-05
-0.013100235 -0.00024259693 0.0 -0.010905197 -0.00024259719 0.011632332 0.0003508804 -0.00032196994

exp_avg_sq f4 [128, 8]
00000000: 358a 133d 793e 4f37 0000 0000 784c d83c
00000010: 7d3e 4f37 790f a53c cb06 4737 7f70 5638
00000020: a167 8c3d b938 c537 0000 0000 7e35 4d3d
00000030: b938 c537 e6ec 1a3d 4ccd af37 e614 0139
00000040: 0026 dd3b c351 1b36 0000 0000 2e92 a23b
00000050: cd51 1b36 b4bf 773b 6c0f 1936 61c7 6b37
00000060: ba5b 263c 59ad 6936 0000 0000 9625 f43b
00000070: 5ead 6936 f9fa bd3b e868 5f36 a42a 8337
00000080: cc11 cc39 1253 0f34 0000 0000 2906 9539
00000090: 1253 0f34 20c1 6139 86ab fa33 ffa3 4d35
000000a0: e536 903b a892 ca35 0000 0000 56f8 523b
000000b0: b192 ca35 b26e 203b 43b5 0836 09a2 4537
000000c0: 4cd1 f139 e4d5 2934 0000 0000 a8ce b239
000000d0: e7d5 2934 96a9 4539 e9fe 1435 7a26 8336
000000e0: bb82 5e3d c746 9c37 0000 0000 6861 233d
000000f0: c746 9c37 5b78 073d 4787 8e37 d02d 8638
00000100: 46b4 9a29 8c4e d923 0000 0000 e396 6229
00000110: ba4e d923 aeda f628 b8ae 7c26 1485 7c27
00000120: e919 383a e44c 8134 0000 0000 4012 083a
00000130: e44c 8134 e6d4 5c39 06cc 2b35 29f1 bf36
00000140: 4e64 683c 6037 a336 0000 0000 e1df 2b3c
00000150: 6137 a336 4d8a 0c3c f7c5 af36 d826 a737
00000160: bdc7 a43b dd75 e735 0000 0000 f526 733b
00000170: e075 e735 ae80 193b 30da 4036 008f ac37
00000180: ea36 e63a f8af 2135 0000 0000 bbc6 a93a
00000190: f9af 2135 2a60 7f3a 3ddf 4835 d742 7036
000001a0: 045a 0b3c f2bd 4336 0000 0000 6d46 cc3b
000001b0: f1bd 4336 91ba 973b 04b0 7436 350a c437
000001c0: 7412 7e3b 5971 b235 0000 0000 852d 393b
000001d0: 5d71 b235 09a9 023b d99a ca35 d094 5837
000001e0: 00e9 de21 a38e 1c1c 0000 0000 5fbb a521
000001f0: a28e 1c1c 231f 0d1f e65f a81c 990e 031f
00000200: 9174 aa36 ac6e ef30 0000 0000 1134 7f36
00000210: b06e ef30 e4c5 8835 d588 cf31 5e69 4533
00000220: 2fc4 623c e243 9f36 0000 0000 b558 263c
00000230: df43 9f36 c5e7 013c 308e 9436 0cfb a137
00000240: a77e 3f3a 317e 8634 0000 0000 14c8 0c3a
00000250: 2d7e 8634 faba d839 914d 5d34 d6f0 bb35
00000260: b1e8 003b e812 3535 0000 0000 92af bb3a
00000270: ea12 3535 16cd 9b3a 8f75 0f35 b4b9 3e36
00000280: 6916 f03a 0f9f 2835 0000 0000 2151 b63a
00000290: 099f 2835 47e2 a339 732d 1436 f68d 9e37
000002a0: 146f ad3c b79d f336 0000 0000 4661 7e3c
000002b0: be9d f336 dd89 423c 567d dd36 14c6 1438
000002c0: 4cf7 f83d 5ddb 2e38 0000 0000 0ad6 b63d
000002d0: 5bdb 2e38 9aa4 8a3d fcd3 2e38 7a02 6e39
000002e0: 76c2 e63b ec11 2236 0000 0000 8410 a93b
000002f0: ee11 2236 8608 7c3b 0850 2a36 a256 9b37
00000300: d82f 3836 375c 8130 0000 0000 16b3 0836
00000310: 345c 8130 ce1c 9934 6e76 8531 6e28 b933
00000320: 93a6 e93c a919 2437 0000 0000 b9ea aa3c
00000330: b019 2437 9910 7e3c b921 2337 2b87 8d38
00000340: 1928 643c ef3d a036 0000 0000 0527 293c
00000350: ee3d a036 3185 e93b 1c08 bd36 8341 0638
00000360: 6bd4 423a c9d5 8834 0000 0000 b962 0d3a
00000370: cad5 8834 7b1c c339 be60 b334 b678 3636
00000380: fdb9 403a aa5b 8734 0000 0000 87e0 0c3a
00000390: aa5b 8734 689f da39 c214 5034 e66c 9e35
000003a0: 2e7d a43c 470d e736 0000 0000 e731 713c
000003b0: 4a0d e736 3061 343c b682 f936 1c2e 3a38
000003c0: c4e0 8639 4775 bd33 0000 0000 07e2 4539
000003d0: 4675 bd33 0f99 0d39 5904 b833 312e 4235
000003e0: 7853 8d3b fd83 c635 0000 0000 608e 4f3b
000003f0: fb83 c635 a87b 103b 4ad8 0036 5aaf 3c37
0.036020476 1.2352707e-05 0.0 0.02640365 1.2352711e-05 0.02014898 1.1862906e-05 5.1126346e-05
0.06855703 2.3510644e-05 0.0 0.050099842 2.3510644e-05 0.03782358 2.0957224e-05 0.00012310184
0.0067489147 2.3144391e-06 0.0 0.0049612736 2.3144414e-06 0.0037803473 2.2807753e-06 1.4053513e-05
0.010153705 3.4820607e-06 0.0 0.0074507697 3.4820619e-06 0.0057977405 3.3290653e-06 1.5636273e-05
0.00038923172 1.3348134e-07 0.0 0.00028424084 1.3348134e-07 0.00021529617 1.1672732e-07 7.6607097e-07
0.004401075 1.5092855e-06 0.0 0.0032191477 1.5092866e-06 0.0024480042 2.0371087e-06 1.1779842e-05
0.0004612304 1.5817164e-07 0.0 0.00034104777 1.5817169e-07 0.0001885056 5.550524e-07 3.9085835e-06
0.054323893 1.8629607e-05 0.0 0.039887816 1.8629607e-05 0.033073764 1.6990713e-05 6.398151e-05
6.870246e-14 2.3560453e-17 0.0 5.0312954e-14 2.3560529e-17 2.7406324e-14 8.766685e-16 3.5044167e-15
0.0007022904 2.4084068e-07 0.0 0.0005190708 2.4084068e-07 0.00021060146 6.399936e-07 5.7203183e-06
0.014184071 4.864225e-06 0.0 0.010490389 4.8642255e-06 0.008577895 5.2384526e-06 1.992604e-05
0.0050286935 1.7245144e-06 0.0 0.0037102078 1.7245147e-06 0.0023422646 2.8737231e-06 2.0570587e-05
0.0017563973 6.023324e-07 0.0 0.0012952903 6.023325e-07 0.00097418076 7.483066e-07 3.5801693e-06
0.008505348 2.9167827e-06 0.0 0.0062339813 2.9167825e-06 0.0046303947 3.6461288e-06 2.3369774e-05
0.0038768323 1.3295022e-06 0.0 0.0028255892 1.3295027e-06 0.0019937179 1.5095239e-06 1.2909251e-05
1.510498e-18 5.1800424e-22 0.0 1.1230432e-18 5.180042e-22 2.9883667e-20 1.1142097e-21 2.7752404e-20
5.079965e-06 1.7420994e-09 0.0 3.8028268e-06 1.7420998e-09 1.0190383e-06 6.040049e-09 4.5963468e-08
0.013840719 4.746472e-06 0.0 0.010152985 4.7464705e-06 0.007928793 4.4272965e-06 1.9309598e-05
0.00073049444 2.505126e-07 0.0 0.000537039 2.505125e-07 0.0004133804 2.0610447e-07 1.4002678e-06
0.0019669945 6.7455267e-07 0.0 0.0014319292 6.745528e-07 0.0011886682 5.344272e-07 2.84203e-06
0.0018317226 6.281634e-07 0.0 0.0013909676 6.2816304e-07 0.00031258372 2.2080173e-06 1.8901173e-05
0.02117113 7.2603248e-06 0.0 0.0155261215 7.260328e-06 0.0118736895 6.6009043e-06 3.5470424e-05
0.12156543 4.168913e-05 0.0 0.089275435 4.1689123e-05 0.067696765 4.168226e-05 0.00022698371
0.0070422245 2.4150313e-06 0.0 0.0051594395 2.4150318e-06 0.0038457229 2.5378558e-06 1.8517781e-05
2.7445985e-06 9.412194e-10 0.0 2.036982e-06 9.412191e-10 2.851943e-07 3.8842733e-09 8.622088e-08
0.028521812 9.781136e-06 0.0 0.020863878 9.781143e-06 0.015506887 9.723409e-06 6.748581e-05
0.013925576 4.7755816e-06 0.0 0.010324244 4.775581e-06 0.0071264734 5.633583e-06 3.2009102e-05
0.00074321654 2.5487523e-07 0.0 0.0005393434 2.5487526e-07 0.00037214518 3.3411737e-07 2.7190376e-06
0.0007351933 2.5212404e-07 0.0 0.00053740334 2.5212404e-07 0.00041698967 1.9379061e-07 1.1803611e-06
0.020079222 6.885882e-06 0.0 0.01472137 6.8858835e-06 0.011009499 7.435995e-06 4.43888e-05
0.00025725935 8.822331e-08 0.0 0.00018871586 8.82233e-08 0.00013503827 8.5689585e-08 7.233785e-07
0.0043129288 1.4790563e-06 0.0 0.0031670555 1.4790561e-06 0.002204636 1.9199383e-06 1.12465e-05

exp_avg f4 [128]
00000000: cbf9 eb3a a654 c7ba 90a1 f4b9 2300 813a
00000010: 7ec8 1d39 1050 fc39 7475 86b7 8002 daba
00000020: cc48 6bb0 6afe 1c38 7602 beb9 11af 023a
00000030: 974e e439 18d2 ae39 a18f b739 5af1 b727
00000040: e477 8335 a15f 86ba 1555 7cb9 9742 d5b9
00000050: 0e37 3738 d5fd 5d3a 7ff1 273b e8bd 123a
00000060: 939f a4b5 cf48 a93a b773 d439 be33 e638
00000070: 9671 75b9 6ce4 94ba 20ce 20b9 9e61 feb9
00000080: e78b b937 475c 9eba 7c29 c2ba 8414 58ba
00000090: da5c 2d38 558c 1839 4be4 433a e595 0ebb
000000a0: beed e4b3 cba0 34b4 4af1 2fba f92a 04b9
000000b0: c05e fd38 7ed1 8a3a 3de7 a129 4545 4fb9
000000c0: 6d18 a639 370b 7824 c5c3 bd37 ebad 54ba
000000d0: c7e3 8736 7258 b0ba f2bc 8fb8 0cdd 0f3a
000000e0: acae 3fb8 59bd 5eb9 f78e 8bb9 53f1 59bb
000000f0: f995 97b4 f301 2cab 730e e738 b393 26ba
00000100: 00fc 7bb0 37dd 0fb5 f6f9 96b8 72f6 3839
00000110: 08d0 3db5 e830 d435 2003 5cbb e54f b139
00000120: 35a2 2fba 9693 dab9 1db0 80ab 5032 b7b9
00000130: 80d2 66b8 85d0 19b6 cdea 20ba d694 35ba
00000140: 1f67 a23a d0b1 61b8 7191 5db9 3d34 c539
00000150: cbef 1f3b 2979 f03a 3702 aab2 6b58 35b3
00000160: d700 a3ba 6410 acb8 0cb3 b8af 3c28 25b9
00000170: d799 a838 dc03 4039 8a44 65b6 6862 c0b8
00000180: e43d 33bb b1c6 28b6 8df5 6f39 c90f 3fad
00000190: b213 7039 4de6 f0ba 4eb6 903a d71c c135
000001a0: f2e4 85ba eb73 a439 fc46 a0b9 7d25 a1ba
000001b0: c0a2 3bb9 9c52 c032 bf06 21ac e1f4 9cb8
000001c0: a118 94b9 45d9 deb3 7e4f 233a b885 a038
000001d0: 1acc 05b5 9dd7 1338 a9fa 283a 2623 00bb
000001e0: 6e75 b638 7e72 9039 11d9 92b4 df9e 6db9
000001f0: 2b43 ddb4 d507 73b9 5347 ea39 3eef bcb0
0.0018003521 -0.0015207722 -0.0004665968 0.000984196 0.00015047376 0.00048124837 -1.6028738e-05 -0.0016632825
-8.559595e-10 3.743024e-05 -0.00036241458 0.00049851934 0.00043546103 0.00033344398 0.00035011492 5.1054377e-15
9.795153e-07 -0.0010251888 -0.00024064288 -0.0004067614 4.3681874e-05 0.0008468305 0.002562612 0.0005597756
-1.2265394e-06 0.0012915375 0.00040522005 0.000109768924 -0.00023407335 -0.0011359579 -0.00015335577 -0.00048519386
2.2118866e-05 -0.0012081944 -0.0014813389 -0.0008242803 4.133289e-05 0.00014548127 0.0007472678 -0.0021756825
-1.06603224e-07 -1.6822302e-07 -0.0006711675 -0.0001260451 0.00012081629 0.0010590998 7.18995e-14 -0.00019766863
0.00031680186 5.3785927e-17 2.2621718e-05 -0.0008113074 4.0498303e-06 -0.0013454093 -6.853965e-05 0.00054879556
-4.5700624e-05 -0.00021242107 -0.00026618663 -0.0033255413 -2.823506e-07 -6.110938e-13 0.0001101763 -0.00063544064
-9.167138e-10 -5.359356e-07 -7.199116e-05 0.00017639415 -7.071071e-07 1.5809464e-06 -0.0033571199 0.00033819597
-0.0006699891 -0.0004169016 -9.143828e-13 -0.00034941966 -5.5032317e-05 -2.292015e-06 -0.00061385037 -0.00069267803
0.0012390352 -5.380978e-05 -0.00021130384 0.0003761369 0.0024404402 0.0018346655 -1.9791612e-08 -4.2222762e-08
-0.0012436163 -8.204652e-05 -3.3596625e-10 -0.00015750615 8.039519e-05 0.00018311985 -3.4163554e-06 -9.173603e-05
-0.0027350122 -2.5149604e-06 0.00022884291 -1.0860598e-11 0.0002289552 -0.0018379182 0.0011040659 1.4388014e-06
-0.0010215326 0.00031366883 -0.00030570466 -0.0012294498 -0.00017894339 2.2389308e-08 -2.288322e-12 -7.484272e-05
-0.0002824711 -1.0377202e-07 0.0006229802 7.6543016e-05 -4.984337e-07 3.5248337e-05 0.00064460427 -0.00195522
8.700309e-05 0.00027551124 -2.7352556e-07 -0.00022661265 -4.121333e-07 -0.00023177204 0.000446851 -1.3746797e-09

exp_avg_sq f4 [128]
00000000: 783e 4f38 b838 c538 c351 1b37 59ad 6937
00000010: 1153 0f35 a892 ca36 e4d5 2935 c746 9c38
00000020: 8c4e d924 e44c 8135 6137 a337 dd75 e736
00000030: f7af 2136 f2bd 4337 5771 b236 a38e 1c1d
00000040: ac6e ef31 e243 9f37 317e 8635 e812 3536
00000050: 0e9f 2836 b79d f337 5ddb 2e39 ec11 2237
00000060: 375c 8131 a919 2438 ef3d a037 c8d5 8835
00000070: ab5b 8735 470d e737 4775 bd34 fd83 c636
00000080: 725e e831 d6f1 a038 8512 2e38 0348 9e37
00000090: e380 c536 b253 8736 d982 8037 46b2 2d38
000000a0: e5d6 882b 8c3b 4f32 2aa0 1f37 bd79 0c37
000000b0: 8898 0734 d99e 7f37 63b5 1f18 5784 8235
000000c0: ac90 4c36 e9f5 a814 9b93 4136 561d 4d37
000000d0: 49fc e031 fa1c 9038 6eb1 0736 5ca6 e137
000000e0: 92e3 4536 a8b8 8737 8019 9b35 3a8e 2739
000000f0: 95fe 152f d5ad fc28 3c2b bd36 0baa e936
00000100: c36a e22b dce3 a730 2ecf a236 d456 1835
00000110: 5e29 ca32 318f 3a31 6c0a 6e39 549b 4736
00000120: 7d19 8d37 37ec 0f37 50ae 8827 1763 5f36
00000130: 39a0 dc33 ac19 7f32 9fba 7238 5356 2438
00000140: 5880 9637 181f cf34 4526 e836 5c91 1936
00000150: bf3a e838 e47b c038 487f 9231 ef0f 812d
00000160: da40 d837 2f95 6a36 8309 a425 3fe0 1436
00000170: 0101 ad33 96fa 9635 d321 5c30 619c 9b35
00000180: b66e a838 cdcb 302e 3f67 a837 07ee 7c2a
00000190: 4937 4337 47e3 0e39 f42c a437 acc7 3e30
000001a0: 177d 8137 9dc9 5535 5235 5c35 fb7b 0538
000001b0: b883 bb35 5a5b 6e2c 7ef8 6320 b568 7035
000001c0: f35f de36 042c 5b31 81ec 2d37 ea46 8136
000001d0: f28d 4f2c 4152 1133 f17d 4a37 8f57 ee37
000001e0: 1264 0737 ab33 e637 eac6 702e 6403 9035
000001f0: d841 9630 301d 7635 e68b 2c37 d937 ac29
4.9410824e-05 9.404257e-05 9.257757e-06 1.3928243e-05 5.339253e-07 6.037142e-06 6.326866e-07 7.451843e-05
9.424181e-17 9.633627e-07 1.9456902e-05 6.8980576e-06 2.4093295e-06 1.1667131e-05 5.318008e-06 2.072017e-21
6.9683974e-09 1.8985887e-05 1.0020505e-06 2.6982107e-06 2.5126533e-06 2.9041299e-05 0.00016675652 9.660125e-06
3.7648777e-09 3.9124545e-05 1.9102326e-05 1.0195008e-06 1.0084963e-06 2.7543529e-05 3.5289324e-07 5.9162253e-06
6.762826e-09 7.67444e-05 4.150208e-05 1.88686e-05 5.886062e-06 4.033057e-06 1.531972e-05 4.1412444e-05
9.723026e-13 1.2062525e-08 9.51443e-06 8.372995e-06 1.2628345e-07 1.5236169e-05 2.0641845e-24 9.724271e-07
3.048258e-06 1.706066e-26 2.8845159e-06 1.22257825e-05 6.5479395e-09 6.8718524e-05 2.0219845e-06 2.6899557e-05
2.948775e-06 1.6179241e-05 1.1555821e-06 0.00015979345 1.3641917e-10 2.8053008e-14 5.637672e-06 6.9637367e-06
1.6087898e-12 1.2215611e-09 4.852095e-06 5.6750764e-07 2.3534707e-08 2.7147957e-09 0.00022701331 2.9743724e-06
1.6820379e-05 8.578462e-06 3.7936573e-15 3.3287267e-06 1.0273693e-07 1.4848791e-08 5.78711e-05 3.9181043e-05
1.7941158e-05 3.8579378e-07 6.918594e-06 2.2883387e-06 0.000110735644 9.17835e-05 4.2636294e-09 1.4672678e-11
2.5779405e-05 3.4955553e-06 2.845591e-16 2.2184247e-06 8.056123e-08 1.1248801e-06 8.00836e-10 1.1593912e-06
8.031486e-05 4.019878e-11 2.0075238e-05 2.2464679e-13 1.1635778e-05 0.00013626843 1.9571256e-05 6.940535e-10
1.5436248e-05 7.964207e-07 8.203398e-07 3.1825137e-05 1.3970921e-06 3.3872545e-12 1.9309867e-19 8.9559336e-07
6.6272855e-06 3.1893714e-09 1.0366669e-05 3.852755e-06 2.9495265e-12 3.3835253e-08 1.2069461e-05 2.8412584e-05
8.0699265e-06 2.7442196e-05 5.4746353e-11 1.0729823e-06 1.093265e-09 9.1684615e-07 1.02845715e-05 7.6480224e-14
