mlagents/Assets/results/RollerBallTest2/RollerBall/RollerBall-185515.pt (torch, 445343 bytes, 36 tensors)

network_body._body_endoder.seq_layers.0.weight f4 [128, 8]
-0.14459899 -0.32271537 0.19011068 -0.037966024 -0.13404475 -0.4358542 1.2527713 -0.64143044
0.20316096 -0.3833376 0.06963582 -0.15154642 -0.19616425 0.0016317597 -0.8798155 -0.11562437
-0.057290148 -0.35691705 0.10119585 0.12004995 -0.28282988 -0.013229973 -0.86337173 -0.07270488
-0.057516553 0.0787828 0.7438047 0.513284 0.072395004 -0.09403471 0.40603298 -0.8803448
-0.3932306 -0.21318865 -0.22678378 0.33503315 0.2828171 -0.023100752 0.7880883 -0.33491665
0.31423408 0.013826025 0.1894666 -0.08018567 0.49105942 -0.0951588 -0.17593436 -1.0210512
-0.14835654 0.16028024 0.38146466 0.20142253 0.7041372 -0.17323466 0.11498437 -0.43088818
-0.109987736 -0.29910007 0.038640067 -0.24172188 1.2313735 -0.49008465 -1.0479394 0.02092527
0.051159002 -0.3319893 0.15455714 -0.6378946 -0.504531 -0.06783479 0.62774765 0.50272304
0.010434877 -0.015704848 0.86989266 0.13312434 0.28994906 0.38183928 0.34774283 0.04105102
-0.21802303 -0.40144455 -0.29463017 0.13353564 -0.08780903 -0.2122669 0.2509523 0.9481919
0.1831669 0.63260233 -0.22933978 0.40890077 0.39223954 0.14942294 0.35694745 -0.9575586
0.41370666 -0.5551368 0.38655183 0.6633303 -0.03678296 -0.21338053 0.16172282 -1.0581527
0.077250145 -0.29350057 -0.16458122 -0.08815276 0.5019657 -0.021205155 0.43099084 0.23550658
0.2251693 0.15244697 -0.59549135 -0.02707808 -0.41256043 -0.06635573 0.8823603 0.8385023
-0.48960733 -0.26620948 0.10579424 -0.028052205 0.19331467 0.6527666 -0.37822422 -0.5891767
-0.08319922 0.20111665 -0.08101817 0.10781869 -0.50725013 0.2611731 0.13247882 0.23715404
0.7283464 -0.17356256 -0.7595633 -0.1392894 -0.43126547 -0.001980686 -1.0504454 0.7913554
-0.3572166 -0.28302145 -0.72622734 0.26519287 0.39208037 -0.03319408 -1.3384043 0.6564403
0.17069724 0.22086073 0.008600507 -0.53765297 -0.87795186 -0.22541326 -1.0987674 0.3829995
-0.24237703 -0.57674646 -0.36434436 0.4813682 0.4720575 0.3009166 0.32103655 0.26427636
0.07600244 0.41051632 -0.051153246 0.103607476 0.25502926 0.13021173 0.94261086 -0.01611458
-0.11141373 0.28387862 0.23393324 0.32786733 -0.46508354 0.109371446 0.80413514 -0.3869789
0.7746318 0.5166739 0.35100248 0.15407221 0.034448072 0.17342788 1.1664705 -0.34899914
0.046115242 -0.2209899 -0.0012115234 0.014707077 -0.15933163 0.25869614 -0.6780895 0.5359442
0.4198736 -0.27638164 -0.47497782 0.50417536 -0.21122621 -0.08954916 0.5960283 0.1343735
-0.057898697 0.21113996 0.0612485 0.4757153 0.3103823 0.30968538 0.64437187 0.622872
-0.24089539 -0.09079334 0.111865796 0.5232163 -0.06629856 0.18535039 0.25945795 0.51376116
0.10985274 0.015481205 -0.40080863 -0.35725743 -0.3534954 -0.11009573 -0.9533759 0.14207129
0.017081862 -0.22867474 0.34727374 -0.05696884 0.09917839 -0.2502524 -0.69998133 1.1127751
-0.11659062 -0.14184657 0.10359455 0.073421046 -0.50108916 0.04165562 -0.8921184 0.6408767
0.739531 -0.6740994 0.28485677 0.40583882 0.587524 0.46513942 -0.47829562 0.35381702
00000000: c211 14be f33a a5be 60ac 423e 4382 1bbd
00000010: 0743 09be 4828 dfbe cf5a a03f c934 24bf
00000020: 6d09 503e d344 c4be 3a9d 8e3d fc2e 1bbe
00000030: 48df 48be c5e0 d53a 973b 61bf 78cc ecbd
00000040: 13a9 6abd d5bd b6be c53f cf3d c0dc f53d
00000050: 14cf 90be 87c2 58bc ee05 5dbf 4ce6 94bd
00000060: 7a96 6bbd e058 a13d fc69 3e3f 9566 033f
00000070: d543 943d 4595 c0bd 8ee3 cf3e 475e 61bf
00000080: 8555 c9be 204e 5abe 023a 68be 7789 ab3e
00000090: 67cd 903e ca3d bdbc 28c0 493f 327a abbe
000000a0: 4ae3 a03e 8d86 623c 8803 423e 6238 a4bd
000000b0: 246c fb3e 9ee2 c2bd 2328 34be ceb1 82bf
000000c0: c7ea 17be 8120 243e 564f c33e b541 4e3e
000000d0: 5642 343f 6d64 31be ed7c eb3d 609d dcbe
000000e0: 4041 e1bd a523 99be 0c45 1e3d f185 77be
000000f0: a69d 9d3f 60ec fabe e122 86bf 796b ab3c
00000100: 1a8c 513d 80fa a9be 3a44 1e3e 0f4d 23bf
00000110: f228 01bf f7ec 8abd 12b4 203f 75b2 003f
00000120: 0cf7 2a3c 74a7 80bc 49b1 5e3f bf51 083e
00000130: 3474 943e 7080 c33e 590b b23e 1d25 283d
00000140: 6e41 5fbe 248a cdbe c4d9 96be 91bd 083e
00000150: 39d5 b3bd 7f5c 59be d27c 803e b4bc 723f
00000160: 1b90 3b3e 3af2 213f 0cd8 6abe 715b d13e
00000170: 9fd3 c83e 5402 193e d1c1 b63e 8f22 75bf
00000180: 5cd1 d33e 721d 0ebf 1fea c53e 04d0 293f
00000190: bba9 16bd 6d80 5abe ab9a 253e 8c71 87bf
000001a0: 5335 9e3d b545 96be fb87 28be 6f89 b4bd
000001b0: d380 003f 6fb6 adbc d5aa dc3e a328 713e
000001c0: c892 663e 0f1b 1c3e 1f72 18bf dad2 ddbc
000001d0: 1f3b d3be 83e5 87bd 5de2 613f 16a8 563f
000001e0: d0ad fabe 9c4c 88be a7aa d83d bdcd e5bc
000001f0: 48f4 453e b61b 273f 9ba6 c1be 49d4 16bf
00000200: 5a64 aabd 86f1 4d3e dbec a5bd 0cd0 dc3d
00000210: 25db 01bf 7bb8 853e 87a8 073e 82d8 723e
00000220: e974 3a3f 62ba 31be be72 42bf e1a1 0ebe
00000230: d4ce dcbe 66ce 01bb ff74 86bf 4496 4a3f
00000240: 18e5 b6be 30e8 90be 09ea 39bf 5cc7 873e
00000250: c2be c83e 84f6 07bd d550 abbf 790c 283f
00000260: 42cb 2e3e 5129 623e 24e9 0c3c a0a3 09bf
00000270: 74c1 60bf bcd2 66be 69a4 8cbf 8318 c43e
00000280: af31 78be a8a5 13bf 588b babe e575 f63e
00000290: 85b1 f13e be11 9a3e e75e a43e 3b4f 873e
000002a0: 2ba7 9b3d 322f d23e 1186 51bd 2830 d43d
000002b0: 3293 823e 3956 053e f24e 713f b902 84bc
000002c0: e22c e4bd 8a58 913e 328c 6f3e 3ade a73e
000002d0: 6e1f eebe 23fe df3d cddb 4d3f 1922 c6be
000002e0: 454e 463f be44 043f 99b6 b33e 1bc5 1d3e
000002f0: 6c19 0d3d 1497 313e e84e 953f 04b0 b2be
00000300: 56e3 3c3d 2d4b 62be fbcb 9eba f4f5 703c
00000310: d527 23be d273 843e 4697 2dbf a433 093f
00000320: acf9 d63e e581 8dbe 4b30 f3be a311 013f
00000330: af4b 58be 8d65 b7bd 5095 183f 3599 093e
00000340: 2f27 6dbd 1335 583e b5df 7a3d f590 f33e
00000350: 6eea 9e3e 158f 9e3e 8ef5 243f 8a74 1f3f
00000360: 48ad 76be dcf1 b9bd e519 e53d 81f1 053f
00000370: 8ac7 87bd 7ecc 3d3e acd7 843e da85 033f
00000380: 79fa e03d e1a4 7d3c ca36 cdbe 72ea b6be
00000390: 59fd b4be df79 e1bd 7110 74bf 237b 113e
000003a0: 43ef 8b3c b629 6abe ddcd b13e 2958 69bd
000003b0: 0a1e cb3d 1521 80be fa31 33bf 6a6f 8e3f
000003c0: 10c7 eebd 3a40 11be 6129 d43d c65d 963d
000003d0: 6147 00bf 159f 2a3d df61 64bf 7f10 243f
000003e0: e751 3d3f c791 2cbf bfd8 913e 1bca cf3e
000003f0: f967 163f c126 ee3e 2ae3 f4be 8127 b53e

network_body._body_endoder.seq_layers.0.bias f4 [128]
-0.014725582 0.01571233 -0.037606668 -0.04402964 -0.049883503 -0.06333496 -0.03939659 0.035574727
0.042917136 -0.12446497 0.0011553692 -0.07011677 -0.13215058 -0.13166222 -0.034258414 3.0430763e-05
-0.014707874 -0.022419915 0.11143063 0.08306647 0.012506926 0.009889526 -0.004813528 -0.051707506
0.032556962 -0.04126712 0.02128554 -0.054774314 0.07822124 -0.008298882 0.016796118 -0.055306315
0.08115412 0.007624186 -0.024130404 -0.048021305 0.045363665 -0.11586085 -0.045715805 0.017943664
0.009129508 0.11638758 -0.049051367 -0.061219126 0.021623656 -0.03776106 -5.013082e-05 0.061035994
-0.07060755 3.5944464e-07 -0.019999228 -0.05466786 0.10799012 0.024759078 -0.042467855 0.0012022769
0.030150361 -0.027124716 0.058506142 0.049948044 0.11571799 0.041300416 -0.04467463 -0.04631433
-0.049453106 0.0657074 -0.090961866 0.073663644 0.0121223405 0.035766397 0.10271699 -0.091568016
-0.057099894 -0.004722492 0.01254644 -0.07772878 0.010081555 0.15631019 -0.013144523 0.06376299
0.00982314 -0.029495291 -0.017491816 0.095779605 0.03239767 -0.013037066 0.0646964 0.024959782
-0.028422246 0.00010261136 0.07364395 -0.1069985 -0.0020336555 -0.08752377 0.16267328 -0.25381765
0.042501662 0.04965294 -0.03956916 0.06680195 -0.07842913 0.0413998 -0.040544935 0.06742735
-0.036368176 0.08872552 0.13147007 -0.010033404 0.13919163 0.043880545 0.0015225124 -0.03111917
-0.021278104 -0.014504667 -0.1345024 -0.034796286 0.15180525 0.04309514 -0.04908571 0.009251921
-0.025546644 0.024039263 0.108524516 0.039985538 0.10501934 0.12266908 -0.068007946 -0.038396057
00000000: 9143 71bc 25b7 803c 7309 1abd 6c58 34bd
00000010: a552 4cbd c2b5 81bd 525e 21bd ceb6 113d
00000020: e1c9 2f3d 7de7 febd c26f 973a 6299 8fbd
00000030: 7b52 07be 76d2 06be 8d52 0cbd 9145 ff37
00000040: 4bf9 70bc f8a9 b7bc be35 e43d c11e aa3d
00000050: dae9 4c3c ae07 223c cdba 9dbb 40cb 53bd
00000060: 735a 053d b607 29bd 035f ae3c 085b 60bd
00000070: 7532 a03d 09f8 07bc 0398 893c e088 62bd
00000080: 2234 a63d 4fd4 f93b 20ad c5bc fdb1 44bd
00000090: 40cf 393d 7448 edbd 7f40 3bbd 97fe 923c
000000a0: ef93 153c 9d5c ee3d 16ea 48bd e8c0 7abd
000000b0: 1824 b13c 57ab 1abd 8f43 52b8 e100 7a3d
000000c0: b19a 90bd b2f9 c034 6cd5 a3bc 68eb 5fbd
000000d0: ed29 dd3d 8dd3 ca3c c6f2 2dbd b895 9d3a
000000e0: e4fd f63c a734 debc 23a4 6f3d 5296 4c3d
000000f0: 8efd ec3d a02a 293d bffc 36bd 18b4 3dbd
00000100: 578f 4abd 9a91 863d 374a babd f7dc 963d
00000110: c89c 463c c97f 123d 495d d23d 0388 bbbd
00000120: 94e1 69bd 22bf 9abb 958f 4d3c 4430 9fbd
00000130: 1b2d 253c c70f 203e 205c 57bc 2c96 823d
00000140: 3cf1 203c 1ca0 f1bc ff4a 8fbc 1928 c43d
00000150: 6bb3 043d 6b99 55bc 8c7f 843d 7578 cc3c
00000160: c5d5 e8bc 0e31 d738 a4d2 963d 0822 dbbd
00000170: 1447 05bb aa3f b3bd d393 263e 63f4 81be
00000180: 3916 2e3d e260 4b3d 4613 22bd 76cf 883d
00000190: 749f a0bd d692 293d 7212 26bd 5a17 8a3d
000001a0: ccf6 14bd bab5 b53d 17a0 063e 2663 24bc
000001b0: 4088 0e3e 16bc 333d 0a8f c73a a1ed febc
000001c0: 6b4f aebc fca4 6dbc ffba 09be 8d86 0ebd
000001d0: d672 1b3e 8884 303d 190e 49bd 5f95 173c
000001e0: 3247 d1bc fded c43c 1a42 de3d e0c7 233d
000001f0: 6114 d73d ed39 fb3d c047 8bbd 2f45 1dbd

network_body._body_endoder.seq_layers.2.weight f4 [128, 128]
-0.004928292 -0.056367945 -0.10076402 -0.22150646 0.020926885 -0.20989633 0.04706516 -0.07361945
0.27006006 0.114166744 0.14298311 -0.104470715 -0.083946206 0.056141365 -0.04908861 -0.14973758
0.104897946 0.0045403913 0.044682793 0.13670494 -0.11229293 -5.6877325e-05 0.102759145 0.026874
-0.033086482 0.03336527 0.039227303 -0.005138295 0.0015057902 -0.10767314 0.10906221 -0.0060632485
0.07407126 -0.09310371 0.0382882 -0.15039288 -0.06941648 -0.18425857 0.0015200505 -0.10308519
0.10681279 0.056065276 0.10135775 -0.07021287 0.19925857 -0.012474206 0.046654392 0.036993105
-0.02686052 -0.022956645 -0.12255815 0.052711736 0.34436786 0.0060207793 -0.18195365 0.11103529
-0.09293874 -0.22437961 0.21403341 0.0116962595 0.2641563 0.14702049 -0.0290373 0.11120577
-0.06251315 0.1949259 0.027414398 0.15710306 0.048993506 0.13141543 -0.06296758 0.012014254
-0.21073206 0.19890083 -0.08528983 0.005770229 0.09806394 0.12251229 -0.06613322 -0.15404621
-0.016370503 0.051546544 0.020299127 0.10665692 -0.117713 -0.11919219 0.074195564 0.1698546
-0.1122907 0.005266054 -0.054965273 0.066032015 0.11020227 -0.009162848 -0.08485219 -0.036110517
-0.09468042 -0.10874273 -0.030417599 0.06623613 -0.0074804844 -0.13181844 0.04137397 0.15159634
-0.068368204 0.2982506 -0.0024870764 -0.0368466 0.19470488 0.06978672 -0.018702323 -0.05827991
-0.22155836 -0.060574815 0.0342679 -0.005036903 -0.0014007029 0.2084541 -0.08960649 -0.018119313
-0.015715942 -0.16971429 0.1293604 -0.014587862 0.18926373 0.16273317 -0.00032118708 0.046477426
0.021927727 0.042393144 -0.1465942 -0.03984576 -0.097255595 -0.066648215 -0.06467488 -0.042535562
0.06482751 0.21675132 -0.05850683 -0.0139086 0.0305141 -0.009071997 0.04460725 -0.028585583
-0.025541708 0.056174543 0.026549006 0.1901236 0.14152426 -0.09245854 0.04727818 -0.06582541
0.005522393 0.24598888 0.024498222 0.11467402 0.06857572 -0.066908374 0.024241656 0.03487654
0.06573258 0.04653571 -0.025842838 -0.23315796 0.08293222 -0.078970484 -0.029986339 -0.1729358
0.0532472 -0.101623185 -0.042587362 -0.17135908 0.037204508 -0.07411602 -0.0066269506 0.1459464
-0.09014477 -0.02861871 -0.15477619 -0.08684739 0.05349546 -0.17286892 0.056973346 0.09123731
0.03157253 0.05367416 0.09724193 0.052985147 -0.19985518 -0.07301783 0.005779878 -0.012203695
0.027190194 -0.012580328 -0.1824572 0.015995333 -0.034395434 -0.15063608 -0.12065603 -0.16515802
-0.20714903 -0.06354886 -0.03970248 0.09538944 0.08790545 0.011936159 -0.18204127 -0.016453173
-0.11057467 0.12489196 0.07539962 0.1502492 -0.08160805 0.055368885 0.0005786438 -0.0013628479
-0.055367168 -0.19800498 -0.084592916 -0.007126705 0.06489977 -0.00034046578 -0.16328079 -0.11628903
-0.05668302 -0.020136952 0.02600836 -0.13688569 0.008051123 -0.10196487 -0.089657836 0.16367744
-0.056140084 0.08682839 0.10880132 -0.08899786 0.10278002 -0.0038664117 0.013435897 0.24758014
-0.11857178 -0.008861682 -0.06596872 -0.030496826 -0.15185936 0.047268923 0.043210406 0.05349707
-0.11808395 -0.17149782 0.078493565 0.06643462 -0.123609625 0.24807635 -0.09644998 0.03916361
00000000: 827d a1bb 13e2 66bd 5e5d cebd 97d2 62be
00000010: dc6e ab3c 10ef 56be 66c7 403d cbc5 96bd
00000020: 5045 8a3e 41d0 e93d 2a6a 123e bef4 d5bd
00000030: fdeb abbd 7df4 653d 2311 49bd cf54 19be
00000040: bcd4 d63d 90c7 943b 4e05 373d 61fc 0b3e
00000050: d6f9 e5bd 908f 6eb8 6373 d23d dd26 dc3c
00000060: b185 07bd 05aa 083d cfac 203d 245f a8bb
00000070: ef5d c53a bc83 dcbd 025c df3d 37ae c6bb
00000080: acb2 973d 28ad bebd 16d4 1c3d 9700 1abe
00000090: 3a2a 8ebd 47ae 3cbe 6e3c c73a 541e d3bd
000000a0: aac0 da3d b4a4 653d a794 cf3d c4cb 8fbd
000000b0: 700a 4c3e 9d60 4cbc ad18 3f3d 1586 173d
000000c0: 980a dcbc 930f bcbc c4ff fabd 43e8 573d
000000d0: fc50 b03e f549 c53b 0f52 3abe 7866 e33d
000000e0: ab56 bebd c5c3 65be 932b 5b3e aba1 3f3c
000000f0: 7f3f 873e 8a8c 163e a2df edbc dabf e33d
00000100: e506 80bd a89a 473e 2994 e03c a0df 203e
00000110: 6aad 483d c491 063e 26f5 80bd 6fd7 443c
00000120: 25ca 57be a9ac 4b3e 6fac aebd 3014 bd3b
00000130: bfd5 c83d b9e7 fa3d db70 87bd 4abe 1dbe
00000140: 6f1b 86bc 7822 533d 5b4a a63c f16e da3d
00000150: 8313 f1bd 091b f4bd d8f3 973d 5dee 2d3e
00000160: abf8 e5bd dd8e ac3b 4423 61bd cb3b 873d
00000170: bab1 e13d c51f 16bc fcc6 adbd 9fe8 13bd
00000180: cfe7 c1bd 82b4 debd 542e f9bc cfa6 873d
00000190: da1e f5bb 6afb 06be c177 293d 123c 1b3e
000001a0: a104 8cbd 4db4 983e 38fe 22bb 76ec 16bd
000001b0: b760 473e 57ec 8e3d 9d35 99bc eab6 6ebd
000001c0: 32e0 62be 4c1d 78bd 7f5c 0c3d 9b0c a5bb
000001d0: ca97 b7ba fe74 553e 9c83 b7bd f46e 94bc
000001e0: b8be 80bc 95c9 2dbe 0d77 043e ee01 6fbc
000001f0: 5ace 413e 86a3 263e 0065 a8b9 1d5f 3e3d
00000200: c7a1 b33c 6fa4 2d3d ca1c 16be 4f35 23bd
00000210: f12d c7bd dc7e 88bd 4374 84bd c539 2ebd
00000220: 49c4 843d 0ff4 5d3e dca4 6fbd e6e0 63bc
00000230: b5f8 f93c b7a2 14bc 17b6 363d 502c eabc
00000240: d83c d1bc 4717 663d 4d7d d93c c3af 423e
00000250: bceb 103e e75a bdbd c4a6 413d 79cf 86bd
00000260: 31f5 b43b 82e4 7b3e 7fb0 c83c 36da ea3d
00000270: 6d71 8c3d 4207 89bd 7096 c63c b4da 0e3d
00000280: ce9e 863d 3b9c 3e3d 5cb4 d3bc f6c0 6ebe
00000290: 5ed8 a93d 47bb a1bd e9a5 f5bc 1516 31be
000002a0: bc19 5a3d d11f d0bd 1670 2ebd c178 2fbe
000002b0: c163 183d 24ca 97bd e426 d9bb f972 153e
000002c0: d29d b8bd c971 eabc a67d 1ebe 0bdd b1bd
000002d0: 0e1e 5b3d 8d04 31be e25c 693d a0da ba3d
000002e0: 3252 013d 70d9 5b3d c726 c73d f406 593d
000002f0: d6a6 4cbe 5f8a 95bd 2165 bd3b 02f2 47bc
00000300: f8bd de3c b81d 4ebc 0fd6 3abe a508 833c
00000310: 3ae2 0cbd 5840 1abe 821a f7bd 2f1f 29be
00000320: e01e 54be e825 82bd 119f 22bd 8a5b c33d
00000330: c607 b43d e18f 433c 0769 3abe cec8 86bc
00000340: f974 e2bd 5bc7 ff3d 1e6b 9a3d edda 193e
00000350: 1f22 a7bd 7cca 623d 21b0 173a 96a1 b2ba
00000360: afc8 62bd d1c1 4abe 0d3f adbd 2287 e9bb
00000370: 2cea 843d 8b80 b2b9 1433 27be f128 eebd
00000380: 742c 68bd 40f6 a4bc 7c0f d53c c32b 0cbe
00000390: dbe8 033c f5d2 d0bd 879e b7bd 0f9b 273e
000003a0: 25f3 65bd 15d3 b13d 3ad3 de3d 8344 b6bd
000003b0: 557e d23d a063 7dbb 3d22 5c3c a685 7d3e
000003c0: c3d5 f2bd 9730 11bc 9c1a 87bd 7bd4 f9bc
000003d0: 0581 1bbe 0f9d 413d 65fd 303d be1f 5b3d
000003e0: ffd5 f1bd 209d 2fbe 3cc1 a03d e00e 883d
000003f0: 0b27 fdbd ba07 7e3e 9187 c5bd 066a 203d

network_body._body_endoder.seq_layers.2.bias f4 [128]
-0.051058207 -0.03979301 -0.0350758 -0.02867918 -0.035451565 -0.018629314 -0.008186584 -0.00028283623
-0.033358816 -0.016640192 -0.013958775 -0.04395719 -0.032555707 -0.0024297994 -0.02223368 -0.042516343
-0.020901972 -0.022509215 -0.022429083 -0.02502557 -0.019061128 -0.009852874 -0.021125162 -0.017986348
-0.045151453 0.0047711153 -0.017329719 -0.026727028 -0.025120996 -0.037693564 -0.024572104 -0.0038097084
-0.035293642 -0.014608721 -0.03054148 -0.0059675043 -0.028024415 -0.018557033 -0.015963065 0.008969551
0.0033807007 -0.02364933 -0.034305323 -0.016364649 -0.055606205 -0.045669314 -0.032410517 -0.026210751
-0.006046438 -0.023097415 0.007432271 -0.0294601 -0.050752092 -0.012318034 -0.057666574 0.013612438
-0.00655785 -0.021244632 -0.0128191635 -0.029767327 -0.04847344 -0.017955035 -0.054369964 -0.040780548
-0.04548911 -0.011847702 -0.015732592 -0.01824793 -0.009816558 -0.011187274 -0.03463887 -0.020874517
-0.030684412 -0.009127479 -0.008648911 -0.010023621 -0.017329924 -0.029883312 -0.019235505 -0.010520903
-0.018611073 -0.020715764 0.0052938215 2.2707077e-08 -0.033243228 -0.009220643 -0.0011924277 -0.019357804
-0.030353293 -0.011634036 -0.03039776 -0.032974906 -0.02397913 -0.01617495 -0.03875296 -0.029624749
-0.027844334 -0.019993834 -0.024280481 -0.011045818 -0.059535313 0.0063794614 -0.019969922 -0.018508432
-0.022982415 -0.034613565 -0.002692507 -0.036932666 -0.032668225 -0.016156575 0.0069593852 -0.07340943
-0.031564027 -0.026451144 -0.006509926 -0.024625296 -0.051984746 -0.038270112 -0.0058994032 -0.053946733
-0.024902752 -0.02997109 -0.02878332 -0.05799247 -0.028432215 -0.038376637 -0.009568057 -0.002837401
00000000: 6922 51bd fffd 22bd a4ab 0fbd 9af0 eabc
00000010: a935 11bd 819c 98bc 0621 06bc a349 94b9
00000020: 41a3 08bd 0351 88bc 59b3 64bc 740c 34bd
00000030: 2259 05bd 453d 1fbb 6823 b6bc 9e25 2ebd
00000040: 9d3a abbc 3f65 b8bc 32bd b7bc 6d02 cdbc
00000050: 1526 9cbc f36d 21bc ad0e adbc 1b58 93bc
00000060: bbf0 38bd 0457 9c3b 0ef7 8dbc a4f2 dabc
00000070: 8cca cdbc 9164 1abd 704b c9bc 4dac 79bb
00000080: 1190 10bd 6b59 6fbc 2032 fabc 0e8b c3bb
00000090: 7593 e5bc eb04 98bc f9c4 82bc 06f5 123c
000000a0: bf8e 5d3b 3dbc c1bc bd83 0cbd 280f 86bc
000000b0: 55c3 63bd bf0f 3bbd e4c0 04bd eeb7 d6bc
000000c0: 3321 c6bb ca36 bdbc 688a f33b 4f56 f1bc
000000d0: 6de1 4fbd 94d1 49bc c933 6cbd b406 5f3c
000000e0: 3ce3 d6bb 3909 aebc 7807 52bc 9cda f3bc
000000f0: 168c 46bd 7016 93bc 0ab3 5ebd 8109 27bd
00000100: ca52 3abd dd1c 42bc a3e1 80bc af7c 95bc
00000110: a1d5 20bc d44a 37bc 7de1 0dbd 0901 abbc
00000120: e05d fbbc 6c8b 15bc 29b4 0dbc 1d3a 24bc
00000130: 7cf7 8dbc d9cd f4bc c793 9dbc de5f 2cbc
00000140: 4076 98bc 1bb4 a9bc cb77 ad3b 640d c332
00000150: 0d2a 08bd 2e12 17bc 3c4b 9cba 4294 9ebc
00000160: 78a7 f8bc af9c 3ebc b904 f9bc b210 07bd
00000170: e16f c4bc 5481 84bc 6cbb 1ebd 9aaf f2bc
00000180: cd19 e4bc 1cca a3bc dce7 c6bc 85f9 34bc
00000190: 4ddb 73bd cd0a d13b f697 a3bc ff9e 97bc
000001a0: 9e45 bcbc f4c6 0dbd c674 30bb b546 17bd
000001b0: 1ecf 05bd cb5a 84bc 8e0b e43b af57 96bd
000001c0: 4849 01bd 12b0 d8bc 3851 d5bb fdba c9bc
000001d0: f5ed 54bd 1fc1 1cbd c84f c1bb 40f7 5cbd
000001e0: db00 ccbc ee85 f5bc ffca ebbc 8389 6dbd
000001f0: adea e8bc d230 1dbd 57c3 1cbc b1f3 39bb

action_model._continuous_distribution.log_sigma f4 [1, 2]
-0.43815494 -0.39742535
00000000: d855 e0be 567b cbbe

action_model._continuous_distribution.mu.weight f4 [2, 128]
-0.007539813 5.1602285e-05 -0.018923245 0.055882774 -0.017512064 -0.026443798 -0.017987862 0.0021799295
-0.022623148 0.071662 0.061165918 0.004117113 -0.005823479 -0.059623294 -0.040467992 0.00945794
-0.01817103 -0.027396211 -0.01820818 -0.027298067 -0.05542237 0.008314578 -0.040831387 -0.06109798
-0.01525022 -0.027319407 -0.0038535157 -0.03396627 -0.006638033 0.00019180731 -0.020707114 -0.0006160545
-7.462713e-05 -0.051747143 0.017299755 0.022265226 -0.022154095 0.020846277 0.012273416 -0.007003725
0.05176284 0.0007383242 -0.006532183 0.010213081 -0.0039097876 -0.008704538 -0.020623151 0.005338017
-0.07365446 -0.022308689 -0.08742701 -0.025445223 0.0064145597 -0.010749711 -0.0007314861 0.096678264
-0.018672422 -0.03473056 0.03805086 -0.0061422586 -0.024375483 -0.020804293 0.010864195 -0.0077954694
0.0006230792 -0.00538984 -0.018788435 -0.020979812 -0.01272203 -0.019752227 0.040768165 0.0033965635
-0.003171011 -0.011627295 -0.028016847 0.0006486175 -0.04500017 -0.011767438 -0.031293985 -0.046789974
0.002287132 0.0055364585 0.079228304 -0.0026286966 -0.01573971 0.014113041 -0.027701285 -0.010708189
-0.0031116707 0.06860275 -0.026289424 -0.0038704968 -0.0069282074 0.0028182683 0.0011291077 0.01891659
-0.0031928194 -0.021345668 -0.042360403 -0.061357643 0.00056292367 0.033666823 -0.012952859 -0.037712295
-0.023640046 0.006986322 -0.056243222 0.017556807 -0.02310719 -0.013825267 -0.07313833 0.0024158752
-0.02559494 -0.019183392 0.017519807 -0.020851536 0.0034703074 0.0032833393 0.019591419 -0.0026820907
0.0018401726 -0.010334131 -0.01505423 0.012441803 -0.0043365615 -0.009716474 -0.0052908473 -0.06910573
0.012676473 0.012044469 0.010118185 0.017668145 -0.02118727 0.006808939 -0.0029044475 -0.0091215605
-0.0068138903 -0.18332097 -0.14917088 0.01395373 -0.022800893 0.017801246 -0.028284157 -0.008718122
0.007358123 0.025774032 0.010490337 -0.0039674453 -0.007417038 -0.098873846 -0.00050777383 0.04064672
0.019461876 0.030889135 0.056584038 0.008673402 -0.018923335 0.020144891 0.009360178 0.0038059962
0.006597475 0.022297198 -0.014453148 -0.12785764 0.012933697 -0.023421062 -0.0023301921 -0.060977895
-0.026190333 0.02567312 -0.001492611 -0.007367833 0.00301747 -0.049648277 0.0053549446 -0.025894027
0.0517289 -0.00808096 -0.10889789 0.0014932173 0.0024282807 -0.013123669 -0.0043132384 0.039640404
0.0027848654 -0.010333637 -0.12987533 0.0375264 0.0030178453 0.0072718314 -0.006706543 0.010890592
0.0019208966 -0.026143698 0.015016512 0.024356512 0.009473098 -0.0046087564 0.0107490625 -0.030764181
0.010589774 -0.019337766 0.004910763 0.0013089243 0.0146435695 0.01928359 0.013032408 0.09405945
0.0017455115 -0.14243679 -0.052854795 -0.005419914 -0.00046078354 -0.014325727 0.009247247 0.024725337
-0.016364168 -0.13097955 0.0018924169 0.006403878 -0.04569877 0.028210217 -0.0030597893 0.018351
-0.0073253997 0.027387787 0.018620964 0.1270098 0.012760024 -0.008349986 0.02695375 -0.016509797
0.0110188 -0.004180829 0.029121831 -0.005318573 -0.03386538 -0.04374264 -0.051767487 -0.0010688535
-0.017203419 -0.056440808 -0.011034157 0.0032062752 -0.025628248 -0.053128395 -0.027475424 0.016246963
0.001511375 0.019568738 0.0018827986 0.026327755 -0.0077287774 0.022679865 -0.0125056775 0.020595767
00000000: 8910 f7bb 886f 5838 ec04 9bbc 56e5 643d
00000010: 7675 8fbc aaa0 d8bc 485b 93bc 26dd 0e3b
00000020: 2e54 b9bc 87c3 923d 1d89 7a3d d9e8 863b
00000030: e2d2 bebb 8e37 74bd c4c1 25bd 7af5 1a3c
00000040: 69db 94bc 056e e0bc 5229 95bc 32a0 dfbc
00000050: 9102 63bd de39 083c d03e 27bd e041 7abd
00000060: 0fdc 79bc f3cc dfbc 448b 7cbb 3720 0bbd
00000070: db83 d9bb e21f 4939 f7a1 a9bc b87e 21ba
00000080: 2381 9cb8 d0f4 53bd 37b8 8d3c 9065 b63c
00000090: 817c b5bc d0c5 aa3c 7016 493c 817f e5bb
000000a0: 4605 543d 198c 413a ec0b d6bb c454 273c
000000b0: ad1d 80bb 7b9d 0ebc e2f1 a8bc 88ea ae3b
000000c0: 26d8 96bd b6c0 b6bc ef0c b3bd 8072 d0bc
000000d0: 3a31 d23b 8e1f 30bc 34c1 3fba 41ff c53d
000000e0: e8f6 98bc a241 0ebd 38db 1b3d 0045 c9bb
000000f0: 18af c7bc c46d aabc bdff 313c 2371 ffbb
00000100: 2356 233a 419d b0bb 34ea 99bc dbdd abbc
00000110: 1070 50bc 6ccf a1bc 85fc 263d e198 5e3b
00000120: bdd0 4fbb 6980 3ebc 9683 e5bc fc07 2a3a
00000130: 1952 38bd 36cc 40bc 1f2e 00bd d8a6 3fbd
00000140: b5e3 153b 2e6b b53b 7342 a23d 3646 2cbb
00000150: 90f0 80bc 623a 673c ceed e2bc 6671 2fbc
00000160: 2ced 4bbb 997f 8c3d eb5c d7bc 29a8 7dbb
00000170: 0406 e3bb b2b2 383b 91fe 933a f7f6 9a3c
00000180: 9f3e 51bb 1cdd aebc 1a82 2dbd 2752 7bbd
00000190: 2b91 133a 39e6 093d 3a38 54bc 3578 1abd
000001a0: c5a8 c1bc 84ed e43b 4b5f 66bd 4bd3 8f3c
000001b0: 4a4b bdbc 5f83 62bc 8cc9 95bd a953 1e3b
000001c0: 7bac d1bc 7d26 9dbc b385 8f3c d7d0 aabc
000001d0: 196e 633b 4b2d 573b 2f7e a03c 04c6 2fbb
000001e0: f231 f13a 7d50 29bc 04a6 76bc b4d8 4b3c
000001f0: b719 8ebb d931 1fbc d85e adbb 4e87 8dbd
00000200: fbb0 4f3c 2a56 453c bec6 253c c9bc 903c
00000210: ed90 adbc 851d df3b 8b58 3ebb 9972 15bc
00000220: 0e47 dfbb 7eb8 3bbe 40c0 18be 309e 643c
00000230: f0c8 babc ebd3 913c 2db4 e7bc 74d6 0ebc
00000240: 691c f13b 1024 d33c aadf 2b3c 5801 82bb
00000250: a00a f3bb 5f7e cabd 201c 05ba 2d7d 263d
00000260: 836e 9f3c 360b fd3c aac4 673d e21a 0e3c
00000270: 1c05 9bbc e606 a53c 6f5b 193c 056e 793b
00000280: a22f d83b 9da8 b63c e5cc 6cbc 1ded 02be
00000290: dbe7 533c 87dd bfbc 23b6 18bb f5c3 79bd
000002a0: 1c8d d6bc 6f50 d23c b7a3 c3ba dd6d f1bb
000002b0: bfc0 453b fe5b 4bbd 8878 af3b b61f d4bc
000002c0: afe1 533d 0166 04bc db05 dfbd 0fb8 c33a
000002d0: ca23 1f3b a804 57bc 1156 8dbb fa5d 223d
000002e0: 4a82 363b 6a4e 29bc 0afe 04be 48b5 193d
000002f0: 0bc7 453b 8b48 ee3b 8fc2 dbbb 746e 323c
00000300: 98c6 fb3a 4f2b d6bc d107 763c 4f87 c73c
00000310: 0e35 1b3c 0d05 97bb d61c 303c 2a05 fcbc
00000320: bb80 2d3c 3c6a 9ebc 77ea a03b 3690 ab3a
00000330: 95eb 6f3c 9ff8 9d3c e285 553c 3ea2 c03d
00000340: a6c9 e43a f3da 11be 457e 58bd 8999 b1bb
00000350: 5295 f1b9 74b6 6abc c481 173c ca8c ca3c
00000360: 260e 86bc 811f 06be f90a f83a 9fd7 d13b
00000370: a22e 3bbd 1d19 e73c bf86 48bb d654 963c
00000380: e809 f0bb 5a5c e03c fe8a 983c db0e 023e
00000390: 6b0f 513c 61ce 08bc 1cce dc3c 8e3f 87bc
000003a0: 3288 343c 56ff 88bb e890 ee3c 6d47 aebb
000003b0: 6db6 0abd 7c2b 33bd 250a 54bd c618 8cba
000003c0: 2fee 8cbc 7a2e 67bd 9cc8 34bc 5f20 523b
000003d0: 55f2 d1bc 299d 59bd 2414 e1bc 5a18 853c
000003e0: 5419 c63a 9e4e a03c 3dc8 f63a 4ead d73c
000003f0: af41 fdbb 20cb b93c 9de4 4cbc 74b8 a83c

action_model._continuous_distribution.mu.bias f4 [2]
0.002954983 -0.014601753
00000000: 63a8 413b 313c 6fbc

exp_avg f4 [128, 8]
-0.10919111 -0.0020220575 0.0 -0.08923933 -0.0020220561 0.088330515 -0.0003876278 -0.0009997365
0.035148818 0.000650904 0.0 0.028574444 0.0006509044 -0.027846139 2.9740015e-05 0.0005940639
-0.015538744 -0.0002877544 0.0 -0.012631916 -0.00028775394 0.012949813 4.9042657e-05 7.1192844e-05
-0.05400125 -0.0010000232 0.0 -0.044156406 -0.0010000227 0.043611854 -0.00014290589 -0.00044183733
-0.007461479 -0.00013817554 0.0 -0.006084569 -0.0001381755 0.0059989905 -1.4075206e-05 -6.904227e-05
-0.037489865 -0.0006942568 0.0 -0.030545881 -0.00069425616 0.030538538 -2.621048e-05 -0.00019268875
-0.04360075 -0.0008074214 0.0 -0.035471976 -0.0008074207 0.03539854 -0.00023817155 -0.00040849118
0.020660084 0.00038259415 0.0 0.016717525 0.0003825948 -0.016120316 -0.00022653009 0.00036254208
7.2162165e-06 1.3363365e-07 0.0 5.8653e-06 1.3363355e-07 -5.856575e-06 6.271357e-08 9.430058e-08
0.0007101064 1.3150118e-05 0.0 0.00058219576 1.3150111e-05 -0.0005753757 2.829467e-06 -9.2156074e-07
0.068073496 0.0012606203 0.0 0.05547821 0.001260619 -0.055570442 3.7787104e-05 0.0003114429
-0.025222268 -0.0004670791 0.0 -0.020595621 -0.00046707861 0.020454457 -0.0003372158 -0.00035599334
-0.020923777 -0.00038747734 0.0 -0.016973237 -0.00038747708 0.016999703 -0.00018285683 -0.00033684625
0.0052149156 9.657252e-05 0.0 0.0042042434 9.6572454e-05 -0.004274426 -0.0002469403 -4.544585e-05
0.008744813 0.00016194092 0.0 0.007196885 0.00016194062 -0.007253673 -7.101164e-05 -9.484408e-05
-2.3779532e-13 -4.4036163e-15 0.0 -1.9420747e-13 -4.4036095e-15 1.9480892e-13 -1.200372e-14 -8.070704e-15
0.0003471282 6.428299e-06 0.0 0.00028410586 6.428294e-06 -0.00028240905 2.6932594e-06 1.6044188e-06
0.05968583 0.001105293 0.0 0.048827097 0.0011052925 -0.048238933 0.00019625835 0.0004332158
0.009017935 0.00016699878 0.0 0.0073253135 0.00016699868 -0.00730413 4.7441587e-05 0.00012712915
0.013054498 0.00024174995 0.0 0.010603634 0.00024174985 -0.010534735 4.160684e-05 0.00014553258
0.0047049853 8.7129345e-05 0.0 0.0038297088 8.712924e-05 -0.0038545718 5.4619377e-05 5.694588e-05
-0.028278241 -0.0005236711 0.0 -0.022831786 -0.00052367116 0.022592837 -3.6219684e-05 -0.0004685337
-0.06880514 -0.0012741693 0.0 -0.056305908 -0.0012741694 0.054973766 -0.00053425314 -0.0010852253
-0.0027262187 -5.0485534e-05 0.0 -0.002243584 -5.0485753e-05 0.0019594412 2.0142521e-05 -0.0002481643
0.002747186 5.0873816e-05 0.0 0.0022415319 5.0873783e-05 -0.0022234854 -6.0248444e-06 2.5818677e-05
-0.025130274 -0.00046537546 0.0 -0.020410253 -0.00046537555 0.020072963 0.00011354139 -0.00021865066
-0.0006635887 -1.2288822e-05 0.0 -0.0004010782 -1.2289533e-05 8.85148e-05 0.0006130548 0.000219262
0.015422234 0.00028559688 0.0 0.012602102 0.00028559662 -0.012621159 -1.4970749e-05 5.8679037e-05
0.0057949307 0.00010731354 0.0 0.004696513 0.0001073135 -0.004653849 3.609221e-05 9.832491e-05
0.04704988 0.00087129395 0.0 0.038409065 0.0008712935 -0.038057297 -3.7972468e-06 0.00019782226
0.012337968 0.00022848086 0.0 0.010033762 0.00022848073 -0.009995693 2.831802e-05 0.000121914854
0.0037978564 7.033071e-05 0.0 0.0032281282 7.033065e-05 -0.0029882602 0.00036075694 0.00025711596
00000000: 979f dfbd 7f84 04bb 0000 0000 1cc3 b6bd
00000010: 7984 04bb a1e6 b43d 863a cbb9 9709 83ba
00000020: 35f8 0f3d 6ea1 2a3a 0000 0000 f414 ea3c
00000030: 74a1 2a3a 961d e4bc 327a f937 f4ba 1b3a
00000040: 3796 7ebc bedd 96b9 0000 0000 19f6 4ebc
00000050: aedd 96b9 742b 543c 27b3 4d38 5e4d 9538
00000060: 6a30 5dbd 3613 83ba 0000 0000 59dd 34bd
00000070: 3213 83ba 58a2 323d 02d9 15b9 67a6 e7b9
00000080: 6c7f f4bb 37e3 10b9 0000 0000 1061 c7bb
00000090: 34e3 10b9 2e93 c43b 8d24 6cb7 c9ca 90b8
000000a0: f98e 19bd c9fe 35ba 0000 0000 5b3b fabc
000000b0: befe 35ba f52b fa3c 94de dbb7 7e0c 4ab9
000000c0: b396 32bd 22a9 53ba 0000 0000 104b 11bd
000000d0: 16a9 53ba 0ffe 103d b0bd 79b9 c22a d6b9
000000e0: 563f a93c eb96 c839 0000 0000 31f3 883c
000000f0: 0197 c839 c10e 84bc b588 6db9 9313 be39
00000100: d422 f236 f07c 0f34 0000 0000 8bce c436
00000110: e97c 0f34 9983 c4b6 26ad 8633 4b82 ca33
00000120: 6f26 3a3a 549f 5c37 0000 0000 7f9e 183a
00000130: 4c9f 5c37 cfd4 16ba dfe1 3d36 2c61 77b5
00000140: 1e6a 8b3d 663b a53a 0000 0000 1f3d 633d
00000150: 5b3b a53a d59d 63bd 987d 1e38 2949 a339
00000160: ee9e cebc 4ce2 f4b9 0000 0000 26b8 a8bc
00000170: 3be2 f4b9 1b90 a73c 57cc b0b9 9ea4 bab9
00000180: 5768 abbc 5426 cbb9 0000 0000 750b 8bbc
00000190: 4b26 cbb9 f642 8b3c 42bd 3fb9 bd9a b0b9
000001a0: e2e1 aa3b fa86 ca38 0000 0000 c0c3 893b
000001b0: f186 ca38 7c10 8cbb c477 81b9 1c9d 3eb8
000001c0: 6746 0f3c afce 2939 0000 0000 d9d3 eb3b
000001d0: 9bce 2939 38b0 edbb 15ec 94b8 07e7 c6b8
000001e0: ebdd 85aa 31a8 9ea7 0000 0000 7ea8 5aaa
000001f0: 21a8 9ea7 d955 5b2a 633d 58a8 8e63 11a8
00000200: c2fe b539 abb2 d736 0000 0000 0bf4 9439
00000210: a0b2 d736 4d10 94b9 d8bd 3436 6957 d735
00000220: 2179 743d 7bdf 903a 0000 0000 ecfe 473d
00000230: 76df 903a 3096 45bd b3ca 4d39 3e21 e339
00000240: f6bf 133c 651c 2f39 0000 0000 2f09 f03b
00000250: 5e1c 2f39 7c57 efbb 04fc 4638 f94d 0539
00000260: 88e2 553c 427e 7d39 0000 0000 ddba 2d3c
00000270: 3b7e 7d39 e299 2cbc 0183 2e38 1b9a 1839
00000280: 472c 9a3b 36b9 b638 0000 0000 dafb 7a3b
00000290: 28b9 b638 fc9c 7cbb 1c17 6538 2cd9 6e38
000002a0: c5a7 e7bc f946 09ba 0000 0000 ba09 bbbc
000002b0: fa46 09ba 9d14 b93c 97ea 17b8 87a5 f5b9
000002c0: b6e9 8cbd 0702 a7ba 0000 0000 06a1 66bd
000002d0: 0802 a7ba 2c2c 613d 1f0d 0cba 1e3e 8eba
000002e0: 5caa 32bb 6ec0 53b8 0000 0000 1809 13bb
000002f0: aac0 53b8 f869 003b bcf7 a837 0c1c 82b9
00000300: 220a 343b 5861 5538 0000 0000 aae6 123b
00000310: 4f61 5538 e5b7 11bb 0529 cab6 3095 d837
00000320: 01de cdbc a3fd f3b9 0000 0000 6733 a7bc
00000330: a6fd f3b9 0e70 a43c 121d ee38 9745 65b9
00000340: aff4 2dba 172c 4eb7 0000 0000 ce47 d2b9
00000350: 242f 4eb7 05a1 b938 69b5 203a b2e9 6539
00000360: 8aad 7c3c 2abc 9539 0000 0000 0c79 4e3c
00000370: 21bc 9539 fac8 4ebc e12a 7bb7 231e 7638
00000380: 67e3 bd3b 850d e138 0000 0000 35e5 993b
00000390: 7f0d e138 517f 98bb b761 1738 c933 ce38
000003a0: 60b7 403d 8c67 643a 0000 0000 d352 1d3d
000003b0: 8467 643a f8e1 1bbd 34d4 7eb6 826e 4f39
000003c0: 3025 4a3c 5d94 6f39 0000 0000 a664 243c
000003d0: 5494 6f39 fac4 23bc 7c8c ed37 8aac ff38
000003e0: 75e5 783b 837e 9338 0000 0000 018f 533b
000003f0: 7b7e 9338 b0d6 43bb fa23 bd39 85cd 8639

exp_avg_sq f4 [128, 8]
0.1901053 6.519391e-05 0.0 0.13354357 6.519391e-05 0.1281941 3.9194943e-05 2.5571848e-05
0.18963097 6.503111e-05 0.0 0.13430817 6.5031076e-05 0.12628567 2.8477574e-05 4.0937288e-05
0.02520271 8.642906e-06 0.0 0.017911498 8.642907e-06 0.016807646 3.5851554e-06 5.744315e-06
0.04866595 1.6689282e-05 0.0 0.034146804 1.668928e-05 0.032822695 9.939423e-06 6.7359e-06
0.0017991505 6.169919e-07 0.0 0.0012741354 6.169916e-07 0.0012021187 2.9474873e-07 3.3106727e-07
0.02123596 7.2825624e-06 0.0 0.014985225 7.2825596e-06 0.0142713385 4.223604e-06 3.5622393e-06
0.025273472 8.667173e-06 0.0 0.017780395 8.667167e-06 0.016938929 4.9890828e-06 4.066655e-06
0.18125357 6.215825e-05 0.0 0.12805493 6.215824e-05 0.12112622 2.864353e-05 4.0147737e-05
3.7471526e-10 1.2850277e-13 0.0 2.5377653e-10 1.2850268e-13 2.5599567e-10 6.75768e-14 6.0730196e-14
1.0525803e-05 3.609675e-09 0.0 7.5883163e-06 3.6096726e-09 7.008227e-06 2.7351759e-09 2.7960045e-09
0.071064375 2.4370462e-05 0.0 0.04998736 2.4370458e-05 0.048062142 1.39565645e-05 1.1147412e-05
0.024867224 8.527849e-06 0.0 0.01752912 8.527845e-06 0.01677921 5.150242e-06 3.7338427e-06
0.008962973 3.073722e-06 0.0 0.006316071 3.073721e-06 0.0059577767 1.7568761e-06 1.7884194e-06
0.0014997873 5.143304e-07 0.0 0.001085206 5.1433045e-07 0.0010085487 5.0947773e-07 4.3141847e-07
0.016451545 5.6418303e-06 0.0 0.011630934 5.6418294e-06 0.011018161 2.7753247e-06 3.8762623e-06
1.4928576e-23 5.119545e-27 0.0 1.09427905e-23 5.1195474e-27 8.457798e-24 3.469344e-27 5.9724066e-27
2.9754556e-06 1.0203893e-09 0.0 2.1113049e-06 1.0203901e-09 2.0021282e-06 6.531588e-10 4.8816184e-10
0.05340604 1.8314835e-05 0.0 0.037525494 1.8314835e-05 0.036155555 1.0768507e-05 8.01134e-06
0.0023170565 7.946014e-07 0.0 0.0016383459 7.9460136e-07 0.0015479162 4.1215625e-07 4.041433e-07
0.004763533 1.633586e-06 0.0 0.003348751 1.633585e-06 0.0032051012 8.052355e-07 8.359281e-07
0.0005963895 2.0452329e-07 0.0 0.000418844 2.0452325e-07 0.0004010859 1.09893975e-07 1.1222649e-07
0.095390566 3.2712825e-05 0.0 0.06767269 3.2712822e-05 0.063317776 1.4642934e-05 2.1702765e-05
0.2750658 9.432994e-05 0.0 0.19430554 9.432985e-05 0.18377121 4.5116092e-05 5.148416e-05
0.021565642 7.395619e-06 0.0 0.015230231 7.3956166e-06 0.014409837 3.6773656e-06 4.7816497e-06
0.00010586749 3.6305764e-08 0.0 7.476727e-05 3.6305753e-08 7.007635e-05 2.6046255e-08 1.8228814e-08
0.060767736 2.0839454e-05 0.0 0.043033816 2.0839447e-05 0.040548764 1.0639439e-05 1.1752119e-05
0.1060294 3.636125e-05 0.0 0.07473445 3.6361216e-05 0.07120776 1.8662913e-05 2.3910376e-05
0.008040784 2.7574736e-06 0.0 0.0057256133 2.7574727e-06 0.005388054 1.4937148e-06 1.6089436e-06
0.0022033455 7.556053e-07 0.0 0.0015538582 7.556053e-07 0.0014765686 3.28141e-07 4.2757048e-07
0.038918618 1.3346569e-05 0.0 0.027442336 1.3346565e-05 0.026310675 8.688291e-06 6.000624e-06
0.002690098 9.225314e-07 0.0 0.0018988716 9.225313e-07 0.0017978892 4.5605194e-07 4.3659617e-07
0.008278778 2.8390934e-06 0.0 0.0058360687 2.839093e-06 0.005598942 1.8665462e-06 1.1521291e-06
00000000: f7aa 423e b7b8 8838 0000 0000 a5bf 083e
00000010: b7b8 8838 5045 033e 4065 2438 2083 d637
00000020: 9f2e 423e 5061 8838 0000 0000 1588 093e
00000030: 4b61 8838 0851 013e 20e3 ee37 14b4 2b38
00000040: ea75 ce3c 0001 1137 0000 0000 22bb 923c
00000050: 0101 1137 30b0 893c 8098 7036 4abf c036
00000060: f255 473d f6ff 8b37 0000 0000 85dd 0b3d
00000070: f5ff 8b37 1771 063d 7fc1 2637 f104 e236
00000080: 79d1 eb3a 5c9f 2535 0000 0000 e400 a73a
00000090: 579f 2535 6990 9d3a f53d 9e34 8abd b134
000000a0: 09f7 ad3c bc5c f436 0000 0000 9784 753c
000000b0: b65c f436 55d2 693c 7bb8 8d36 ce0e 6f36
000000c0: 500a cf3c 3969 1137 0000 0000 31a8 913c
000000d0: 3369 1137 82c3 8a3c e567 a736 4d74 8836
000000e0: 899a 393e f55a 8238 0000 0000 d520 033e
000000f0: f35a 8238 0611 f83d 8347 f037 4e64 2838
00000100: 7c00 ce2f 67ae 102a 0000 0000 df83 8b2f
00000110: 60ae 102a 30bc 8c2f 5f2b 9829 93c0 8829
00000120: fb97 3037 130e 7831 0000 0000 249f fe36
00000130: 080e 7831 3628 eb36 b9f5 3b31 d523 4031
00000140: 338a 913d 2b6f cc37 0000 0000 8cbf 4c3d
00000150: 296f cc37 cfdc 443d fd26 6a37 c505 3b37
00000160: 59b6 cb3c d512 0f37 0000 0000 3b99 8f3c
00000170: d112 0f37 8e74 893c 3ed0 ac36 ee92 7a36
00000180: 6fd9 123c 2446 4e36 0000 0000 0bf7 ce3b
00000190: 2046 4e36 7439 c33b cecd eb35 9f09 f035
000001a0: 8394 c43a 8410 0a35 0000 0000 793d 8e3a
000001b0: 8510 0a35 4731 843a 0bc3 0835 b49d e734
000001c0: 64c5 863c f44e bd36 0000 0000 ac8f 3e3c
000001d0: f24e bd36 8485 343c b73f 3a36 d710 8236
000001e0: 5d61 9019 5bce ca13 0000 0000 13aa 5319
000001f0: 61ce ca13 fd98 2319 546f 8913 6697 ec13
00000200: f0ad 4736 c23d 8c30 0000 0000 f1af 0d36
00000210: c93d 8c30 4d5c 0636 f789 3330 562f 0630
00000220: 4bc0 5a3d cfa2 9937 0000 0000 55b4 193d
00000230: cfa2 9937 d917 143d 63aa 3437 7168 0637
00000240: c2d9 173b 984c 5535 0000 0000 c4bd d63a
00000250: 974c 5535 73e3 ca3a 5346 dd34 08f9 d834
00000260: 6917 9c3b 9641 db35 0000 0000 b876 5b3b
00000270: 8e41 db35 ad0c 523b 5d27 5835 8b64 6035
00000280: 0657 1c3a ef9a 5b34 0000 0000 4a98 db39
00000290: ec9a 5b34 d748 d239 dafe eb33 2a01 f133
000002a0: 215c c33d 2135 0938 0000 0000 fb97 8a3d
000002b0: 2035 0938 c0ac 813d ecaa 7537 550e b637
000002c0: 6dd5 8c3e 00d3 c538 0000 0000 08f8 463e
000002d0: f4d2 c538 852e 3c3e 093b 3d38 b2f0 5738
000002e0: 6eaa b03c e227 f836 0000 0000 3888 793c
000002f0: dd27 f836 3d17 6c3c a9c8 7636 0f72 a036
00000300: 2d05 de38 9cee 1b33 0000 0000 5fcc 9c38
00000310: 99ee 1b33 f4f5 9238 52bc df32 9695 9c32
00000320: 97e7 783d 63d0 ae37 0000 0000 3a44 303d
00000330: 5fd0 ae37 7616 263d 0b80 3237 f72a 4537
00000340: f125 d93d 9882 1838 0000 0000 600e 993d
00000350: 8f82 1838 60d5 913d 4d8e 9c37 2493 c837
00000360: 7ebd 033c 090d 3936 0000 0000 ed9d bb3b
00000370: 050d 3936 468e b03b a67b c835 e2f2 d735
00000380: 0166 103b cdd4 4a35 0000 0000 d4aa cb3a
00000390: cdd4 4a35 6c89 c13a 5b2b b034 d78c e534
000003a0: 2169 1f3d 14eb 5f37 0000 0000 c0ce e03c
000003b0: 0feb 5f37 7c89 d73c edc3 1137 f858 c936
000003c0: 5b4c 303b e0a3 7735 0000 0000 8fe3 f83a
000003d0: dea3 7735 27a7 eb3a 4dd7 f434 5265 ea34
000003e0: b6a3 073c 4187 3e36 0000 0000 7e3c bf3b
000003f0: 3f87 3e36 5477 b73b 0a86 fa35 dba2 9a35

exp_avg f4 [128]
-0.004044115 0.0013018079 -0.0005755088 -0.0020000464 -0.0002763511 -0.0013885136 -0.0016148426 0.00076518825
2.672673e-07 2.6300233e-05 0.0025212406 -0.00093415816 -0.0007749547 0.00019314504 0.00032388186 -8.80723e-15
1.2856599e-05 0.0022105863 0.0003339976 0.00048349984 0.00017425869 -0.0010473423 -0.0025483384 -0.00010097095
0.00010174764 -0.000930751 -2.4577645e-05 0.0005711939 0.00021462707 0.0017425879 0.00045696174 0.00014066142
-0.00039133328 -0.0017296419 0.0019196982 0.00070276327 4.2862426e-05 -8.378129e-06 -0.001593027 0.004835561
8.816204e-07 3.4161236e-05 0.0008901397 -0.0007110631 -0.00041350818 -0.0028829998 1.467641e-13 0.00019317766
0.00028702663 7.7045204e-17 0.0014729028 0.0012196818 -0.00042757302 0.0008590303 -0.000738494 0.00055453734
0.0003825938 -0.0011394271 0.00031929434 0.0066258335 0.00038680475 -6.94019e-12 5.4369244e-05 0.0013215978
-1.7903911e-09 3.2302348e-06 0.0010630201 -0.000436936 -4.7611348e-08 9.440163e-06 0.006888439 0.00086514483
-2.9678948e-05 0.0012070825 8.8769936e-13 0.00074812875 -0.000122335 0.000114045324 -0.00043828663 0.004142202
-0.004123864 -5.3039665e-05 0.000750624 -0.00041022536 -0.005008957 -0.002364875 5.255318e-07 4.398849e-08
0.0011867197 -0.0015728765 -3.8396392e-06 -0.00020047507 -0.00016185018 0.0002107899 0.00050179457 -0.0002694538
0.005195715 0.00010763973 0.0011157756 4.7747687e-12 0.0015273299 -0.000816515 -0.0018606662 -0.00019767976
0.0012859732 -0.0005306736 0.00021885344 0.0021949662 -5.0578183e-06 -1.5076702e-05 3.0069534e-12 0.0002745616
0.0004092347 -2.3216932e-08 -0.0013406468 7.84906e-05 0.00039524684 -0.00014225865 -0.0005389923 0.0019141308
0.001389795 -0.0042775874 0.0002872326 0.00021428865 0.00018368433 -3.6610098e-05 -0.001184044 4.812568e-10
00000000: 7f84 84bb 6da1 aa3a bedd 16ba 3613 03bb
00000010: 37e3 90b9 c9fe b5ba 20a9 d3ba ea96 483a
00000020: f07c 8f34 529f dc37 663b 253b 4be2 74ba
00000030: 5426 4bba fa86 4a39 b0ce a939 2ea8 1ea8
00000040: acb2 5737 7cdf 103b 661c af39 407e fd39
00000050: 36b9 3639 fa46 89ba 0602 27bb 5ec0 d3b8
00000060: 5961 d538 a4fd 73ba 172c ceb7 2cbc 153a
00000070: 840d 6139 8c67 e43a 5e94 ef39 837e 1339
00000080: dd2b cdb9 27b5 e2ba 629e fb3a a539 383a
00000090: 2ec7 3338 ca8f 0cb7 1ecd d0ba a073 9e3b
000000a0: 7ea8 6c35 5948 0f38 4458 693a a366 3aba
000000b0: 21cc d8b9 b6f0 3cbb df3d 252a bc8f 4a39
000000c0: 107c 9639 76a7 b124 6b0e c13a bbdd 9f3a
000000d0: e12b e0b9 8c30 613a 7e97 41ba 5f5e 113a
000000e0: df96 c839 d458 95ba f666 a739 851d d93b
000000f0: 0ecc ca39 ad2f f4ac 880a 6438 7739 ad3a
00000100: c911 f6b0 03c7 5836 0955 8b3a 8f14 e5b9
00000110: 3b7d 4cb3 3161 1e37 6ab8 e13b e3ca 623a
00000120: 0ef7 f8b7 f836 9e3a 7bdd 792b 121e 443a
00000130: 0d47 00b9 9e2b ef38 d6c9 e5b9 4fbb 873b
00000140: 7b21 87bb e876 5eb8 86c5 443a 8413 d7b9
00000150: 2d22 a4bb 05fc 1abb 4512 0d35 dbed 3c33
00000160: b58b 9b3a fa28 ceba 40d6 80b6 9e36 52b9
00000170: 54b6 29b9 7c07 5d39 dd8a 033a 7a45 8db9
00000180: d140 aa3b a4bc e138 373f 923a 4bff a72c
00000190: b030 c83a 650b 56ba 99e1 f3ba 4248 4fb9
000001a0: 1a8e a83a e71c 0bba 067c 6539 6cd9 0f3b
000001b0: 54b6 a9b6 f1f1 7cb7 7598 532c 09f3 8f39
000001c0: 8d8e d639 936e c7b2 a4b8 afba 529b a438
000001d0: 2239 cf39 442b 15b9 294b 0dba 92e3 fa3a
000001e0: c829 b63a 012b 8cbb b597 9639 acb2 6039
000001f0: 639b 4039 cb8d 19b8 ed31 9bba 7049 0430

exp_avg_sq f4 [128]
0.00026077565 0.00026012445 3.457162e-05 6.675713e-05 2.4679675e-06 2.9130251e-05 3.466869e-05 0.000248633
5.140111e-13 1.4438699e-08 9.748185e-05 3.4111396e-05 1.2294887e-05 2.0573218e-06 2.2567321e-05 2.047818e-26
4.0815578e-09 7.3259325e-05 3.178406e-06 6.534344e-06 8.180932e-07 0.0001308513 0.00037731972 2.9582476e-05
1.4522305e-07 8.335781e-05 0.000145445 1.1029892e-05 3.0224212e-06 5.338628e-05 3.6901258e-06 1.1356374e-05
2.3684254e-06 0.00015804954 7.361509e-05 5.063433e-05 4.386152e-07 3.7562293e-06 6.109634e-05 0.0004718801
8.805963e-12 3.093292e-08 2.402334e-05 4.441876e-05 2.489519e-06 0.00015555498 8.5365116e-24 1.4369172e-06
3.4392033e-06 8.1289914e-30 3.313298e-05 3.768089e-05 3.6128042e-06 0.00015112145 3.2220535e-06 0.00026446054
2.72465e-06 4.051909e-05 3.0212575e-06 0.0007907463 2.4514627e-06 2.6633055e-21 1.2102426e-05 2.338594e-05
3.9618502e-16 1.3142361e-10 2.107073e-05 4.30045e-06 1.8441435e-12 4.0269494e-09 0.00094936165 2.4933639e-05
5.90914e-06 2.0587384e-05 1.4921597e-22 1.4333455e-05 2.6915657e-07 2.7852212e-07 0.00013560384 0.0002871028
0.00031976824 8.2426425e-08 2.3751682e-05 6.143922e-06 0.00047144436 0.00021720424 1.3031412e-11 4.7148686e-14
3.9949646e-05 2.6770618e-05 8.565251e-10 1.18786365e-05 4.935756e-07 4.866224e-06 3.2265036e-06 3.1541958e-06
0.0005465159 2.1580234e-07 3.326366e-05 6.4224107e-22 4.77723e-05 0.00021412344 7.174054e-05 5.9037995e-07
2.7099251e-05 7.1659065e-06 1.9456597e-06 0.00010301192 2.4934386e-06 1.7805315e-08 2.1095468e-22 1.65553e-06
1.2005725e-05 6.9773194e-14 2.5871665e-05 9.779882e-06 4.304751e-06 7.7619313e-07 2.2780414e-05 0.00017195492
8.7956374e-05 0.00030118137 2.574603e-06 2.0239802e-06 1.5710174e-06 2.3282068e-06 3.64302e-05 4.365662e-18
00000000: b7b8 8839 5061 8839 ff00 1138 f6ff 8b38
00000010: 5c9f 2536 bd5c f437 3969 1138 f55a 8239
00000020: 67ae 102b 120e 7832 2b6f cc38 d512 0f38
00000030: 2346 4e37 8510 0a36 f44e bd37 5bce ca14
00000040: c33d 8c31 cda2 9938 994c 5536 9641 db36
00000050: f09a 5b35 2135 0939 ffd2 c539 e227 f837
00000060: 9cee 1b34 62d0 ae38 9882 1839 070d 3937
00000070: cdd4 4a36 15eb 5f38 e1a3 7736 4187 3e37
00000080: 3df1 1e36 1aba 2539 cd61 9a38 3360 5438
00000090: d07a eb34 8713 7c36 d920 8038 ad66 f739
000000a0: 88ea 1a2d 1bdb 0433 bb85 c937 484e 3a38
000000b0: 9c11 2736 791c 2339 c21e 2519 19dc c035
000000c0: 10cd 6636 23e0 240f 44f8 0a38 8c0b 1e38
000000d0: 8173 7236 5b76 1e39 753a 5836 4ba7 8a39
000000e0: 21d9 3636 0bf3 2938 cfc0 4a36 164a 4f3a
000000f0: cf83 2436 d23b 491d 860b 4b37 ec2c c437
00000100: 9762 e425 7580 102f 0cc1 b037 964c 9036
00000110: 23c5 012c 6c5d 8a31 95de 783a 9528 d137
00000120: 2047 c636 12b3 ac37 1b64 341b b879 7037
00000130: 9980 9034 ca87 9534 e130 0e39 4986 9639
00000140: 91a6 a739 6802 b133 593e c737 e327 ce36
00000150: 312c f739 52c1 6339 4340 652d bc56 5429
00000160: 9b8f 2738 7791 e037 9870 6b30 5b4a 4737
00000170: 427e 0435 8c48 a336 e986 5836 acac 5336
00000180: 1044 0f3a 4cb7 6734 9584 0b38 ff1a 421c
00000190: 1e5f 4838 5386 6039 6973 9638 9a7a 1e35
000001a0: 3353 e337 ab72 f036 2e92 0236 1a08 d838
000001b0: f354 2736 4df2 9832 5007 7f1b 9433 de35
000001c0: 326c 4937 821d 9d29 fa06 d937 4614 2437
000001d0: 8871 9036 965b 5035 9118 bf37 cc4e 3439
000001e0: 3875 b838 e1e7 9d39 58c7 2c36 b7d3 0736
000001f0: bfdb d235 4a3e 1c36 a1cc 1838 8310 a122
